Assets/ML-Agents/results/Andrew ML/results/RollerBall/RollerBall/RollerBall-2974.onnx (onnx, 73663 bytes, 7 tensors)

action_model._continuous_distribution.log_sigma f4 [1, 2]
0.008699546 0.005387066
00000000: 8a88 0e3c fc85 b03b

action_model._continuous_distribution.mu.bias f4 [2]
-0.007436705 -0.011441761
00000000: 9aaf f3bb 3976 3bbc

action_model._continuous_distribution.mu.weight f4 [2, 128]
0.0049785925 0.026535634 -0.027027994 -0.0012788771 -0.00094789907 -0.012938561 0.004802974 -0.008539861
-0.029380143 0.027978223 -0.013086227 0.02182347 -0.057084266 -0.01958403 -0.017222006 0.015349923
0.027205683 -0.008642357 0.03145266 0.0016770611 0.002643469 -0.0043387976 -0.014131714 0.004245907
0.014030892 0.0075133173 -0.019437999 0.0084244 0.004766996 0.0062746895 -0.029444078 0.0031207786
0.041082777 0.0026292962 0.016091315 0.00821989 -0.022032585 0.010969132 -0.023158122 0.00035659387
0.0061724423 0.030799799 -0.0055520446 -0.005561353 0.0026292251 -0.022529824 0.020168502 -0.0014320536
0.014033863 -0.015377985 0.00781613 -0.039831996 -0.042578932 -0.001495749 -0.0122305965 -0.016367389
-0.004943053 0.0309504 -0.023218026 -0.0026451598 -0.0006544599 0.015345069 0.00046047883 0.012802274
2.6666572e-05 -0.0022115936 0.009422736 -0.029346632 0.0014435564 0.004146497 -0.0006472242 0.011606998
-0.005927256 0.04189312 -0.022723705 -0.00060841005 0.021999413 -0.005842255 -0.00038344294 -0.023336614
0.00086181756 -0.022754353 -0.022933114 0.009759617 0.0010150749 -0.005884061 -0.016270509 0.0010249563
-0.013619323 -0.015994702 -0.025740067 -0.008505533 -0.014307036 -0.014002185 -0.03517879 0.01096461
-0.023701778 -0.028719682 -0.009405335 0.0062417504 -0.0047629355 -0.029578947 0.0017569772 -0.023016687
4.2883046e-05 -0.0024157201 0.0075806035 0.010774049 0.023924764 0.010010859 0.006778265 0.03595324
0.01381223 0.027175346 -0.021121677 -0.0052915565 -0.01805439 -0.02250681 -0.01747074 0.03390606
-0.0023992446 0.032191772 -0.0017751545 0.004798617 0.012454076 -0.02098573 -0.014770803 0.0018272619
-0.007945979 -0.03044249 -0.014226439 -0.0024705082 0.010478036 0.0012541135 -0.002206032 -0.02265829
-0.004491265 -0.032827206 -0.0009733572 0.04373034 -0.03334744 -0.016787574 0.015137881 -0.011585852
0.0091395695 0.02846285 0.010901356 -0.0031694346 -0.041875247 0.031642232 -0.0027144542 0.00080944505
0.030571941 -0.0067060967 -0.007924752 -0.027185347 0.020144213 -0.012374882 0.008568975 0.031205911
0.0067832945 -0.0029129155 0.0029552095 0.015511963 0.0015222683 -0.005434891 -0.002898091 0.0007110616
0.0064795157 0.024556573 -0.0074032806 -0.01644972 0.010796666 0.011105315 -0.009934394 0.033147186
-0.0050860895 0.0047125234 0.018131718 0.008331343 0.0033447582 0.006306619 -0.028089097 -0.023613531
0.016605169 -0.002674575 0.014985971 0.011488303 0.00011769262 -0.01079094 -0.008930813 -0.0073695593
0.005919085 -0.0011390009 0.0036730133 0.007847744 -0.04364128 -0.027819822 0.008683945 0.007661395
0.0014802894 -0.026671102 -0.013141126 -0.019210815 -0.0039269715 0.014373613 -0.02103854 -0.0028034844
-0.011964187 0.004083788 -0.0094071515 0.014104172 0.00033732853 0.009540545 0.0050846846 -0.008522149
-0.011668485 0.022580773 -0.0013154008 -0.0009464342 -0.007704371 -0.010391906 0.02113772 -0.005821105
-0.011212613 0.035666693 -2.4839952e-05 -0.042603794 0.0016384468 -0.008044993 0.009819744 -0.042971216
0.00075727445 0.01648023 -0.008751824 -0.03755903 0.012385824 0.018561207 0.016878836 -0.0029402492
-0.00034176023 -0.0022514837 0.034806594 0.039042234 -0.007772592 -0.024618719 -0.019027416 0.018607821
-0.00096175505 -0.010919526 0.014058047 0.0021095853 0.011478975 0.0016084625 0.021836288 0.03203644
00000000: 7623 a33b 4261 d93c d069 ddbc ff9f a7ba
00000010: 6e7c 78ba 42fc 53bc 4462 9d3b c6ea 0bbc
00000020: a0ae f0bc 9632 e53c 9d67 56bc 22c7 b23c
00000030: 31d1 69bd b06e a0bc 2a15 8dbc 3e7e 7b3c
00000040: 74de de3c ac98 0dbc 81d4 003d d5d0 db3a
00000050: 0d3e 2d3b 792c 8ebb b488 67bc 4021 8b3b
00000060: d4e1 653c 4632 f63b 703c 9fbc 7f06 0a3c
00000070: 7634 9c3b e99b cd3b b534 f1bc fa85 4c3b
00000080: 6a46 283d 4550 2c3b efd1 833c b8ac 063c
00000090: ae7d b4bc e0b7 333c 1ab6 bdbc 38f5 ba39
000000a0: 3342 ca3b dc4f fc3c eded b5bb 033c b6bb
000000b0: 144f 2c3b 7790 b8bc 6a38 a53c bfb3 bbba
000000c0: 4aee 653c f2f3 7bbc 3a0f 003c e026 23bd
000000d0: 3f67 2ebd 020d c4ba d762 48bc e714 86bc
000000e0: 55f9 a1bb b18b fd3c bb33 bebc 6b5a 2dbb
000000f0: 0f90 2bba e269 7b3c 6c6c f139 a1c0 513c
00000100: 07b2 df37 62f0 10bb d261 1a3c 5968 f0bc
00000110: b735 bd3a 57df 873b 7baa 29ba 472b 3e3c
00000120: 6d39 c2bb 1f98 2b3d 1027 babc b57d 1fba
00000130: 1d38 b43c 6370 bfbb d708 c9b9 6d2c bfbc
00000140: 99eb 613a 5667 babc 3ade bbbc cde6 1f3c
00000150: 430c 853a 15cf c0bb bb49 85bc d457 863a
00000160: 9523 5fbc 5207 83bc d5dc d2bc cb5a 0bbc
00000170: 0f68 6abc 6c69 65bc a317 10bd e8a4 333c
00000180: 3b2a c2bc 8a45 ebbc d618 1abc 9987 cc3b
00000190: 6612 9cbb 8c4f f2bc 5f4a e63a 7e8d bcbc
000001a0: 52dd 3338 0f51 1ebb b666 f83b a385 303c
000001b0: defd c33c 9604 243c 351c de3b b443 133d
000001c0: b14c 623c d59e de3c 5e07 adbc cb64 adbb
000001d0: cde6 93bc 3460 b8bc cc1e 8fbc 15e1 0a3d
000001e0: a53c 1dbb 85db 033d 4dac e8ba b83d 9d3b
000001f0: 2e0c 4c3c 44ea abbc 3d01 72bc bc80 ef3a
00000200: da2f 02bc 8762 f9bc 0316 69bc 40e8 21bb
00000210: 11ac 2b3c 1161 a43a 1393 10bb e19d b9bc
00000220: 762b 93bb d275 06bd e528 7fba 961e 333d
00000230: 5397 08bd 1886 89bc e004 783c 96d2 3dbc
00000240: 22be 153c ec2a e93c 9a9b 323c 4ab6 4fbb
00000250: 6185 2bbd 499b 013d fce4 31bb f030 543a
00000260: 0272 fa3c d1be dbbb d2d6 01bc ceb3 debc
00000270: 7a05 a53c 04c0 4abc e364 0c3c 8aa3 ff3c
00000280: 6646 de3b 9de6 3ebb 30ac 413b e325 7e3c
00000290: d986 c73a 2c17 b2bb e6ed 3dbb 8966 3a3a
000002a0: 1e52 d43b de2a c93c 3897 f2bb 90c1 86bc
000002b0: 80e4 303c 11f3 353c dec3 22bc 58c5 073d
000002c0: 36a9 a6bb 836b 9a3b f888 943c 2f80 083c
000002d0: bb33 5b3b c1a7 ce3b 1b1b e6bc 2a71 c1bc
000002e0: 9007 883c ec47 2fbb b887 753c 6f39 3c3c
000002f0: bfd1 f638 7ccc 30bc 8b52 12bc 587c f1bb
00000300: e2f4 c13b 874a 95ba f0b6 703b d393 003c
00000310: 33c1 32bd 65e6 e3bc 1b47 0e3c 700c fb3b
00000320: 4506 c23a 5b7d dabc e14d 57bc 0060 9dbc
00000330: d3ad 80bb 4d7f 6b3c 0459 acbc aaba 37bb
00000340: 7005 44bc 4cd1 853b 7420 1abc 2f15 673c
00000350: 78db b039 f24f 1c3c 6d9d a63b 7ca0 0bbc
00000360: 2c2d 3fbc 50fb b83c 8769 acba 201a 78ba
00000370: f374 fcbb d042 2abc 0329 ad3c f8be bebb
00000380: 1cb5 37bc 3d17 123d 645f d0b7 5181 2ebd
00000390: 27c1 d63a 25cf 03bc fee2 203c 9602 30bd
000003a0: d483 463a 8c01 873c cf63 0fbc 7fd7 19bd
000003b0: e9ed 4a3c ac0d 983c 7c45 8a3c 32b1 40bb
000003c0: 482e b3b9 a18d 13bb 5c91 0e3d c0ea 1f3d
000003d0: 3ab1 febb 32ad c9bc 62df 9bbc 6e6f 983c
000003e0: 4a1e 7cba d0e7 32bc b953 663c f840 0a3b
000003f0: 5012 3c3c 0cd3 d23a 04e2 b23c a438 033d

network_body._body_endoder.seq_layers.0.bias f4 [128]
0.0028571796 0.005157244 -0.012790718 0.00079174986 -0.009247682 0.00059704867 0.0015004402 0.0055844784
-0.0054032486 0.002708228 0.0016779572 0.0050734887 0.0072261277 -0.011151755 -0.0035199441 0.007571899
-0.0077494946 -0.011636316 0.0052259904 0.0040802094 0.0028548406 -0.0013542067 -0.011751965 0.012888756
-0.0010196306 -0.002335134 0.013086488 0.013786541 0.005474924 0.0013923878 0.0029754178 0.0058452026
-0.008098371 0.00018984865 -0.008300902 -0.0149493385 0.0041470868 -0.002174272 -0.011511628 -0.005645336
0.007570482 -0.012351396 0.0025448247 0.001572326 0.009198642 -0.020203006 -0.005096825 -0.0017618933
-0.0052811713 -0.0072993864 0.0061189234 -0.019774219 -0.0054031922 -0.009193888 -0.009528666 0.0026098916
-0.013389535 0.0010333575 0.005826024 0.0016723226 -0.002508033 -0.0009468101 -0.0056585064 0.00030720726
0.0030996657 -0.007660831 0.004590635 -0.008221587 -0.007724516 -0.006840751 -0.004055853 0.0047962023
-0.0052539124 0.012595505 -0.0014197475 0.009451234 -0.008579424 0.0037744162 0.002682497 0.011188672
-0.0032752925 0.0060897013 0.00093592895 -0.003037722 0.00065075513 -0.008537322 0.018521443 -0.004713245
-0.0043628486 -0.0018942106 0.004198589 0.0025300721 -0.0006667431 -0.010121066 -0.010370424 -0.0034045123
-0.008051173 0.00010398111 -0.010512645 0.0050322306 -0.0011270611 0.0095201265 -0.010524633 0.0019872992
-0.0036112908 -0.0073562097 -9.941589e-05 0.009179659 -0.00944538 -0.003185422 -0.0026278573 -0.01900816
0.014473823 -0.007605312 -0.0030352762 -0.0029634025 0.011582921 0.0066212704 0.0020049463 -0.0031486582
-0.0071751843 -0.009841432 0.003772957 -0.0023154095 -0.009671287 -0.005224656 0.00040092898 0.006666056
00000000: 853f 3b3b 19fe a83b 2990 51bc 6f8d 4f3a
00000010: 9783 17bc 4283 1c3a 6baa c43a 00fe b63b
00000020: bc0d b1bb 877c 313b e7ee db3a 823f a63b
00000030: 27c9 ec3b dab5 36bc ddae 66bb b11d f83b
00000040: 79ef fdbb 3fa6 3ebc c93e ab3b 47b3 853b
00000050: 4718 3b3b a37f b1ba 508b 40bc 5c2b 533c
00000060: 20a5 85ba 0c09 19bb b568 563c f2e0 613c
00000070: fe66 b33b c880 b63a 3aff 423b 1d89 bf3b
00000080: 08af 04bc 1c12 4739 8200 08bc 12ee 74bc
00000090: 49e4 873b 3b7e 0ebb 449b 3cbc 83fc b8bb
000000a0: ce11 f83b 825d 4abc 13c7 263b 8116 ce3a
000000b0: e7b5 163c c680 a5bc 4403 a7bb 54ef e6ba
000000c0: ad0d adbb b12f efbb 4081 c83b 8bfd a1bc
000000d0: 430d b1bb f6a1 16bc 1f1e 1cbc b70a 2b3b
000000e0: c85f 5bbc b971 873a 3be8 be3b d631 db3a
000000f0: d05d 24bb 5a33 78ba fe6a b9bb a910 a139
00000100: c323 4b3b b507 fbbb 0a6d 963b d6b3 06bc
00000110: f01d fdbb 6128 e0bb f6e6 84bb 7629 9d3b
00000120: 0329 acbb 615d 4e3c d216 baba 59d9 1a3c
00000130: b690 0cbc 325c 773b d5cc 2f3b b150 373c
00000140: 4aa6 56bb 1e8c c73b 2159 753a 8514 47bb
00000150: 7097 2a3a 20e0 0bbc 48ba 973c 9171 9abb
00000160: 3af6 8ebb 2947 f8ba 5194 893b 91cf 253b
00000170: 5fc8 2eba d4d2 25bc b6e8 29bc 3d1e 5fbb
00000180: 11e9 03bc 6f10 da38 3b3d 2cbc 69e5 a43b
00000190: e5b9 93ba 4efa 1b3c 836f 2cbc 593d 023b
000001a0: 68ab 6cbb 5c0c f1bb 807d d0b8 4866 163c
000001b0: ccc0 1abc 83c2 50bb 2138 2cbb 00b7 9bbc
000001c0: 9d23 6d3c fb35 f9bb 7ceb 46bb a535 42bb
000001d0: 4bc6 3d3c 3ef7 d83b 6b65 033b b859 4ebb
000001e0: cf1d ebbb f53d 21bc b743 773b 20be 17bb
000001f0: 5174 1ebc 9733 abbb c733 d239 ee6e da3b

network_body._body_endoder.seq_layers.0.weight f4 [128, 8]
0.3336197 -0.8188292 0.19437768 -0.083658226 0.73043543 0.07139635 -0.059283458 -0.14145665
0.11348132 0.1672415 -0.26112562 -0.6891213 -0.404365 -0.35617727 -0.19283357 -0.08316071
-0.2285518 -0.27493617 0.15734898 0.055435117 0.23371607 0.46810606 0.12030858 -0.25922474
0.65141416 -0.51064456 0.029559989 0.07841085 -0.53485626 -0.71945506 0.51299 0.007830378
-0.19657896 -0.48935398 0.2766326 0.009207286 0.300592 -0.024516812 -0.41496056 -0.5935948
0.0010616238 -0.7093807 -0.49874386 -0.13334982 -0.029999496 0.31556833 -0.16326459 -0.4226462
-0.1668187 0.23972541 0.061914317 0.18065532 -0.88817626 -0.9859013 -0.052964967 -0.53350925
0.18397832 0.11490211 -0.21782868 0.1342693 0.110891536 0.05607762 0.12464152 -0.34389862
-0.15692906 -0.4408085 0.39166692 -0.07775311 -0.10899721 -0.11240681 -0.6457629 0.115814045
0.29685053 -0.22406307 -0.078184396 -0.00948555 0.005308428 0.29286247 0.3247969 0.28422955
-0.38079673 0.29422396 -0.19280139 0.74551547 -0.35712275 -0.35783547 -0.55396837 0.045720417
-0.13706526 0.03930737 -0.061043322 0.41533273 0.025511093 0.2226231 0.33237222 0.35426608
-0.10598337 -0.45985734 -0.09894923 -0.46857136 -0.15277067 0.30292454 -0.40174794 -0.45027313
-0.046639457 -0.3450034 -0.60437083 0.5480082 -0.17033617 0.39432117 -0.9070714 0.18263386
-0.3559446 -0.09263098 0.30538478 -0.5397123 -0.11996267 0.038961846 -0.025828712 0.11470748
0.25639343 0.33567104 -0.39328703 -0.042959027 -0.3223707 0.7085858 0.6999197 -0.18727034
-0.3546844 -0.15469477 -0.24293528 0.12461603 -0.36229557 -0.66171175 -0.10655232 0.19845062
-0.16107899 -0.43034145 -0.19850807 1.019061 0.24320853 0.18411565 -0.59384525 -0.66970855
0.080733135 -0.011876776 -0.046730254 0.188733 -0.13795695 0.2798694 -0.26944724 0.09758419
0.5025082 0.1559585 0.25342798 -0.14289731 0.40828583 -0.23434523 -0.25169474 0.42382827
0.31442586 0.6077133 0.2924253 -0.31940117 0.17995325 -0.14168496 -0.34771425 0.08551175
-0.26839802 0.36375564 -0.20053877 0.42221218 0.3117384 -0.04323804 -0.37487876 -0.28580394
-0.021983178 -0.38867512 0.56031704 -0.0106706 0.27411833 -0.49656102 -0.049733598 0.16791557
0.34492734 0.016203819 0.19568162 0.31772614 0.28195223 0.30189237 0.1187439 -0.39902508
0.15767726 -0.25519037 -0.043257535 -0.8824578 0.39043173 0.21969861 -0.020272363 -0.066695005
0.042033844 -0.4716105 0.06398151 0.3156122 0.3198892 -0.115081064 0.2396233 -0.117098
-0.12270716 -0.39030164 0.4215146 0.38360444 0.19662131 0.28902078 0.66878086 -0.29103205
0.20883203 0.63259846 -0.22386417 -0.1303382 0.42194527 -0.15294383 -0.12808529 -0.5349653
0.17869744 -0.16523626 0.42475104 -0.066000596 0.16329654 -0.28157258 0.3416205 0.6771374
-0.3833443 -0.27353278 -0.12520462 0.21172221 -0.3885291 -0.13424434 0.021478398 -0.70104337
-0.1647329 -0.21460822 0.2967792 -0.09070863 -0.546315 0.26217023 -0.32296515 0.27442738
-0.26599032 -0.008262074 0.21213414 0.22959045 -0.0025809961 -0.43993318 -0.27533948 0.10543786
00000000: 34d0 aa3e ca9e 51bf f10a 473e 0155 abbd
00000010: d1fd 3a3f 4038 923d 36d3 72bd 03da 10be
00000020: e568 e83d 5b41 2b3e 42b2 85be 416a 30bf
00000030: ee08 cfbe de5c b6be 2a76 45be 2a50 aabd
00000040: 7c09 6abe 6fc4 8cbe 1720 213e ef0f 633d
00000050: 4453 6f3e 99ab ef3e 5864 f63d 1bb9 84be
00000060: 14c3 263f 9ab9 02bf ca27 f23c de95 a03d
00000070: 57ec 08bf 352e 38bf 5053 033f fc4a 003c
00000080: ff4b 49be 9b8c fabe caa2 8d3e 28da 163c
00000090: 32e7 993e 7bd7 c8bc b675 d4be d4f5 17bf
000000a0: 2f26 8b3a f999 35bf 5b5b ffbe db8c 08be
000000b0: 81c1 f5bc 2c92 a13e d52e 27be 1565 d8be
000000c0: 85d2 2abe 947a 753e de99 7d3d b5fd 383e
000000d0: 855f 63bf 0764 7cbf cbf1 58bd 1094 08bf
000000e0: d064 3c3e cc51 eb3d 7b0e 5fbe e47d 093e
000000f0: 1a1b e33d a5b1 653d 0e44 ff3d 7b13 b0be
00000100: 03b2 20be a7b1 e1be 9188 c83e 063d 9fbd
00000110: ee39 dfbd 8b35 e6bd b850 25bf ea2f ed3d
00000120: cbfc 973e ca70 65be 241f a0bd 4869 1bbc
00000130: 52f2 ad3b 12f2 953e c74b a63e 8986 913e
00000140: caf7 c2be 86a4 963e ba6d 45be 1ada 3e3f
00000150: cbd8 b6be 3636 b7be dfd0 0dbf 5545 3b3d
00000160: d65a 0cbe c400 213d 9008 7abd 7ea6 d43e
00000170: a4fc d03c 4ff7 633e b12c aa3e 5d62 b53e
00000180: cf0d d9bd 6c72 ebbe e5a5 cabd 96e8 efbe
00000190: ea6f 1cbe ed18 9b3e e8b1 cdbe 338a e6be
000001a0: 0409 3fbd 49a4 b0be 0cb8 1abf 444a 0c3f
000001b0: 9b6c 2ebe 77e4 c93e d535 68bf 5f04 3b3e
000001c0: 5f3e b6be 50b5 bdbd 655b 9c3e 962a 0abf
000001d0: fdae f5bd 7596 1f3d bc96 d3bc c1eb ea3d
000001e0: 0046 833e 13dd ab3e eb5c c9be cef5 2fbd
000001f0: c60d a5be e165 353f f02d 333f ccc3 3fbe
00000200: 3299 b5be 4e68 1ebe 07c4 78be b036 ff3d
00000210: ce7e b9be f165 29bf 1a38 dabd a436 4b3e
00000220: e4f1 24be b755 dcbe b345 4bbe 9770 823f
00000230: a80b 793e d088 3c3e 3e06 18bf 0572 2bbf
00000240: 6a57 a53d cf96 42bc 3968 3fbd 3943 413e
00000250: 9644 0dbe 0b4b 8f3e fdf4 89be 38da c73d
00000260: 61a4 003f 96b3 1f3e 50c1 813e ac53 12be
00000270: d70a d13e 32f8 6fbe 22de 80be 0500 d93e
00000280: 6dfc a03e 1993 1b3f c5b8 953e 8d88 a3be
00000290: aa45 383e dd15 11be 9a07 b2be c920 af3d
000002a0: 776b 89be 2e3e ba3e 095a 4dbe 322c d83e
000002b0: 2d9c 9f3e 5f1a 31bd 1cf0 bfbe e554 92be
000002c0: 1116 b4bc 6d00 c7be f070 0f3f bed3 2ebc
000002d0: 3d59 8c3e 3f3d febe 75b5 4bbd 0ff2 2b3e
000002e0: 519a b03e dfbd 843c c360 483e 00ad a23e
000002f0: 0b5c 903e a391 9a3e 0030 f33d 044d ccbe
00000300: 2676 213e 50a8 82be d02e 31bd c1e8 61bf
00000310: abe6 c73e acf8 603e 3a12 a6bc 6497 88bd
00000320: ae2b 2c3d ee76 f1be bd08 833d ec97 a13e
00000330: 84c8 a33e 9faf ebbd cf5f 753e 14d1 efbd
00000340: e44d fbbd 9ed5 c7be c3d0 d73e cd67 c43e
00000350: 1957 493e 88fa 933e 3935 2b3f 2702 95be
00000360: 10d8 553e f9f1 213f a63c 65be 6177 05be
00000370: 3609 d83e 4f9d 1cbe ca28 03be 7cf3 08bf
00000380: 76fc 363e b233 29be f878 d93e 522b 87bd
00000390: 3537 273e 482a 90be e2e8 ae3e e058 2d3f
000003a0: b445 c4be 7d0c 8cbe a435 00be b5cd 583e
000003b0: 49ed c6be 5977 09be 77f3 af3c 9477 33bf
000003c0: beaf 28be 42c2 5bbe 71f3 973e 72c5 b9bd
000003d0: 4ddb 0bbf 2d3b 863e b05b a5be bf81 8c3e
000003e0: e22f 88be a65d 07bc b139 593e c219 6b3e
000003f0: ee25 29bb ec3e e1be 4cf9 8cbe ceef d73d

network_body._body_endoder.seq_layers.2.bias f4 [128]
-0.001526194 0.00566286 0.00867805 -0.0017811505 -0.014071326 -0.002727835 -0.0055067576 0.0071873404
-0.0035250513 0.00083547283 0.005156283 -0.015451919 0.010988866 0.00875959 -0.0059953905 -0.0014797146
-0.010671702 -0.010749784 -0.006825698 0.001910291 0.0033224483 -0.012652973 0.007974834 -0.012456488
-0.013968367 -0.005226461 0.0031961496 9.543153e-05 -0.016398031 0.000903412 0.007464616 -0.0121105965
-0.011904345 -0.005536989 -0.008451387 -0.010313832 -0.008584789 -8.795873e-05 0.0052278074 -0.012725334
-0.010089791 -0.012463058 0.0047714883 0.0079183625 -0.012192737 0.00273784 -0.0017220414 -0.01639684
-6.752115e-05 -0.009602169 -0.011525887 0.0010759268 0.009995219 0.003646503 0.010697585 0.004443615
-0.008111868 -0.0029222234 -0.0010885567 -0.008246129 -0.008512458 -0.0021476792 0.0012871751 -0.004573693
-0.004074231 -0.0054706726 -0.0154602295 0.006176004 0.006977626 0.007289754 0.0029761433 -0.008965851
-0.008000806 0.0026070562 0.006254246 0.011329448 0.0031065475 -0.009665034 0.011882849 0.0093817515
-0.000412783 0.009651016 0.001528908 -0.016493721 -0.005642712 -0.011480122 -0.005880019 0.004409546
0.009072206 -0.002425188 0.0012917571 0.003167705 0.008857618 0.017017303 -0.0018230063 -0.003924997
0.012636807 -0.0023636043 -1.8029103e-05 0.0077498644 0.002423392 0.004039596 0.004374821 0.009772383
-0.011384702 -0.011410846 0.0029803026 0.0076819924 -0.009542369 -0.012727817 -0.012176314 -0.0043151635
-0.007153461 -0.0025264937 -0.013446101 -0.009269447 0.0035434824 0.009916699 0.011482958 -0.010281275
0.0047665983 -0.0043326677 -0.0069626067 -0.014268444 -0.012695601 0.0072265156 -0.0017964705 -0.008040336
00000000: 930a c8ba 838f b93b 612e 0e3c 7e75 e9ba
00000010: 6b8b 66bc 7ac5 32bb 0872 b4bb c883 eb3b
00000020: 8c04 67bb a203 5b3a 09f6 a83b 0c2a 7dbc
00000030: a50a 343c 6284 0f3c fb74 c4bb fcf2 c1ba
00000040: 5dd8 2ebc dd1f 30bc 1baa dfbb bb62 fa3a
00000050: 6fbd 593b 6a4e 4fbc e1a8 023c 4c16 4cbc
00000060: 94db 64bc bc42 abbb 7e76 513b 6a22 c838
00000070: 2a55 86bc f4d2 6c3a bd99 f43b 866b 46bc
00000080: 710a 43bc a16f b5bb b077 0abc 59fb 28bc
00000090: 37a7 0cbc 7c76 b8b8 074e ab3b eb7d 50bc
000000a0: a74f 25bc db31 4cbc 255a 9c3b 05bc 013c
000000b0: 0cc4 47bc 556d 333b 1fb6 e1ba aa52 86bc
000000c0: 249a 8db8 6a52 1dbc 13d7 3cbc 1d06 8d3a
000000d0: fdc2 233c 2bfa 6e3b ec44 2f3c bf9b 913b
000000e0: a4e7 04bc c682 3fbb e7ad 8eba c61a 07bc
000000f0: d677 0bbc 14c0 0cbb 6eb6 a83a ebde 95bb
00000100: 2081 85bb 5443 b3bb e74c 7dbc 1460 ca3b
00000110: 92a4 e43b e4de ee3b 660b 433b 81e5 12bc
00000120: d015 03bc 25db 2a3b 6bf0 cc3b 269f 393c
00000130: 3897 4b3b 175a 1ebc 48b0 423c ebb5 193c
00000140: cc6a d8b9 4c1f 1e3c a465 c83a d71d 87bc
00000150: 80e6 b8bb 1f17 3cbc 2dad c0bb f47d 903b
00000160: 97a3 143c e7ef 1ebb 2d50 a93a 4599 4f3b
00000170: 8b1f 113c df67 8b3c f1f1 eeba 439d 80bb
00000180: 9c0a 4f3c b3e6 1abb 343d 97b7 93f2 fd3b
00000190: c5d1 1e3b 965e 843b a95a 8f3b 581c 203c
000001a0: e786 3abc 8ff4 3abc 2e51 433b 39b9 fb3b
000001b0: 9957 1cbc 5588 50bc 2a7f 47bc 3766 8dbb
000001c0: 9567 eabb 8893 25bb 094d 5cbc e1de 17bc
000001d0: c539 683b a679 223c 0423 3c3c cb72 28bc
000001e0: 2031 9c3b 0df9 8dbb 9426 e4bb 31c6 69bc
000001f0: 3601 50bc 68cc ec3b 8c77 ebba 9dbb 03bc

network_body._body_endoder.seq_layers.2.weight f4 [128, 128]
-0.049151022 -0.0031389315 -0.033558212 0.056122936 -0.04846977 -0.08251143 0.092618085 -0.014122715
0.019097926 0.062851466 0.15424694 0.00086829474 -0.15279795 0.035939414 0.013405535 0.16811238
-0.026621763 -0.1423377 -0.0012400759 0.1323485 -0.14966014 0.065864384 -0.024147501 -0.007927966
0.07585502 -0.06822908 0.17093658 0.00096894876 0.039700996 -0.12965669 0.014753748 -0.03463456
-0.008823979 -0.20207341 -0.026901267 -0.005752548 -0.106172174 0.10738679 0.012519755 -0.056361366
0.08947414 -0.15005162 -0.0039600446 0.037995245 -0.085454494 0.03105404 0.10017689 -0.08555896
0.08210758 0.041664455 0.07645892 0.041575644 0.038266398 -0.016860705 0.02296542 0.0514386
-0.1300246 0.06033321 0.060383435 -0.17954977 -0.02043642 0.017751295 -0.064891726 -0.041599642
-0.14344192 0.010016539 0.027099583 0.052071273 -0.09611874 -0.013311419 0.0148895895 0.021013673
-0.10763451 -0.026633995 -0.08341735 -0.13659303 -0.02351082 0.11123253 0.1734327 -0.044608854
0.004695572 -0.0050191185 0.109672196 0.008842426 0.007805881 -0.015076579 0.025842858 0.05619994
-0.062192008 0.014920845 0.093642615 -0.057365257 0.097688355 0.022289982 -0.1370754 0.046051845
0.05051577 -0.13780983 0.03690658 -0.21631366 0.066943735 -0.034968145 -0.21474397 0.059353493
-0.11305077 0.069853395 -0.13182233 -0.038074967 -0.08042448 -0.0028119616 0.024463987 0.013316996
-0.098748505 0.10408771 -0.028391656 -0.025539886 -0.13298474 -0.09567916 0.1109503 -0.042933665
-0.08025479 0.00908185 0.10142891 -0.023923323 0.05733894 -0.03084327 0.04281208 -0.12631686
0.10647739 0.0897058 -0.020225594 -0.15493865 -0.08281302 -0.11920333 0.25128067 0.10461467
-0.06958916 -0.018187579 0.03335722 0.06798974 -0.07677283 -0.07471252 -0.06465648 -0.108794264
-0.015684085 -0.11041033 0.033456687 -0.038722187 0.021072654 0.16263285 -0.037062053 -0.13206686
0.06632431 0.004932394 0.084216 0.016098691 -0.10011565 -0.042098913 0.1217608 0.19469766
-0.06683169 -0.0066146296 0.063584425 -0.021136742 0.010763454 -0.10004189 -0.021393204 -0.02163442
-0.033857398 -0.1457377 0.03223417 0.0668315 0.033466488 0.078730986 0.09250605 0.18544996
-0.0082949875 -0.14735131 -0.023714518 -0.12842584 0.07565857 -0.000560954 -0.012900721 0.0196086
-0.058828484 0.029181829 -0.23226808 0.16061291 -0.03789362 0.120253205 0.07083957 0.05581119
-0.07405068 -0.0681074 0.15801062 0.10817342 0.027211236 -0.046667624 -0.039375495 -0.022216503
-0.003139342 -0.11279099 -0.03052586 0.24342416 -0.1729212 0.08638301 0.06213328 -0.16776133
-0.069012865 0.019776203 0.014401821 0.11252397 0.057393968 -0.12844631 0.024151472 0.10125188
-0.05742566 -0.081676304 -0.06271492 -0.09452578 -0.01766937 -0.11255018 -0.16929784 -0.071673006
0.0022494067 0.018913185 0.23837632 0.04435278 0.11916522 0.064365 0.033041626 0.0886836
0.13886555 0.029563164 0.10881617 -0.18320686 0.018161997 0.11305282 0.06170104 0.10422358
0.10099847 0.028323203 -0.03006891 -0.087999865 -0.054599293 -0.017655957 0.04927001 0.14689454
-0.06176141 -0.031745467 -0.10523146 -0.16933155 -0.027931858 -0.078439526 0.037515324 0.1651085
00000000: 9552 49bd 88b6 4dbb 5674 09bd 2ae1 653d
00000010: 3d88 46bd c1fb a8bd 8dae bd3d f662 67bc
00000020: 4173 9c3c 45b8 803d e9f2 1d3e 469e 633a
00000030: 1177 1cbe 3535 133d e4a2 5b3c a725 2c3e
00000040: e215 dabc f9c0 11be 0b8a a2ba 5d86 073e
00000050: 8240 19be e8e3 863d fbd0 c5bc 4de4 01bc
00000060: e059 9b3d b0bb 8bbd 000a 2f3e 0d01 7e3a
00000070: 839d 223d b9c4 04be b4b9 713c f8dc 0dbd
00000080: 7392 10bc 55ec 4ebe 0c60 dcbc df7f bcbb
00000090: cc70 d9bd 9bed db3d a91f 4d3c 2ddb 66bd
000000a0: 383e b73d 22a7 19be 43c3 81bb e7a0 1b3d
000000b0: c402 afbd 0b65 fe3c 8b29 cd3d 8939 afbd
000000c0: 0528 a83d 59a8 2a3d 7f96 9c3d 394b 2a3d
000000d0: 3abd 1c3d 761f 8abc fa21 bc3c 48b1 523d
000000e0: 2b25 05be f51f 773d 9f54 773d e5db 37be
000000f0: 476a a7bc 2a6b 913c f4e5 84bd 6364 2abd
00000100: 70e2 12be 691c 243c f2ff dd3c b048 553d
00000110: e7d9 c4bd 2318 5abc 77f3 733c de24 ac3c
00000120: 7b6f dcbd 892f dabc b7d6 aabd 0bdf 0bbe
00000130: c399 c0bc e1cd e33d 5798 313e c6b7 36bd
00000140: 50dd 993b 6b77 a4bb d19b e03d d3df 103c
00000150: 7ac8 ff3b c103 77bc 67b4 d33c e931 663d
00000160: 0cbd 7ebd 8f76 743c b3c7 bf3d d5f7 6abd
00000170: d510 c83d 7b99 b63c 7e5d 0cbe dca0 3c3d
00000180: a0e9 4e3d 051e 0dbe 5b2b 173d 5481 5dbe
00000190: cc19 893d c23a 0fbd d8e5 5bbe a61c 733d
000001a0: 2987 e7bd 4c0f 8f3d 6ffc 06be 7ff4 1bbd
000001b0: 97b5 a4bd e348 38bb b368 c83c 882f 5a3c
000001c0: a83c cabd f02b d53d 9e95 e8bc 0639 d1bc
000001d0: 272d 08be 6ff3 c3bd e939 e33d 36db 2fbd
000001e0: a05c a4bd 0acc 143c f6b9 cf3d d8fa c3bc
000001f0: 3ddc 6a3d 06ab fcbc b85b 2f3d 3559 01be
00000200: d110 da3d adb7 b73d 25b0 a5bc 3da8 1ebe
00000210: df99 a9bd e020 f4bd dca7 803e 3740 d63d
00000220: c384 8ebd 1efe 94bc 95a1 083d 343e 8b3d
00000230: 133b 9dbd e102 99bd 9e6a 84bd 87cf debd
00000240: e97b 80bc d01e e2bd e109 093d 289b 1ebd
00000250: 8fa0 ac3c 3a89 263e 61ce 17bd 893c 07be
00000260: 0ad5 873d eb9f a13b 7079 ac3d 67e1 833c
00000270: 6f09 cdbd e96f 2cbd ba5d f93d d35e 473e
00000280: 0edf 88bd 89bf d8bb 8d38 823d f626 adbc
00000290: 3359 303c c3e2 ccbd cd40 afbc ab3a b1bc
000002a0: 0eae 0abd 433c 15be fa07 043d f4de 883d
000002b0: 2814 093d b63d a13d d073 bd3d 98e6 3d3e
000002c0: b3e7 07bc 43e3 16be f344 c2bc 1082 03be
000002d0: e1f2 9a3d fc0c 13ba 8c5d 53bc 37a2 a03c
000002e0: 23f6 70bd bb0e ef3c afd7 6dbe b677 243e
000002f0: 5736 1bbd 5047 f63d 5614 913d 469a 643d
00000300: e2a7 97bd e47b 8bbd 89cd 213e 078a dd3d
00000310: 19ea de3c 8d26 3fbd 3348 21bd 62ff b5bc
00000320: 6bbd 4dbb f6fe e6bd 5e11 fabc 2f44 793e
00000330: 4112 31be 93e9 b03d 777f 7e3d a0c9 2bbe
00000340: 9e56 8dbd b401 a23c 9ef5 6b3c f872 e63d
00000350: f015 6b3d 6e87 03be 4fd9 c53c 255d cf3d
00000360: 2b37 6bbd e845 a7bd ae70 80bd bb96 c1bd
00000370: 5bbf 90bc b580 e6bd 6a5c 2dbe 4cc9 92bd
00000380: c86a 133b d3ef 9a3c ec18 743e 43ab 353d
00000390: e50c f43d ccd1 833d a856 073d bf9f b53d
000003a0: c532 0e3e 732e f23c 03db de3d 949a 3bbe
000003b0: 78c8 943c 3d88 e73d 3bba 7c3d 2c73 d53d
000003c0: 49d8 ce3d 1006 e83c 1353 f6bc 4639 b4bd
000003d0: 82a3 5fbd 3aa3 90bc 5acf 493d 866b 163e
000003e0: 88f9 7cbd 8907 02bd 9783 d7bd 4065 2dbe
000003f0: 5ad1 e4bc e7a4 a0bd aba9 193d 3412 293e
