Assets/ML-Agents/results/Andrew ML/results/RollerBall/RollerBall/RollerBall-158281.onnx (onnx, 73663 bytes, 7 tensors)

action_model._continuous_distribution.log_sigma f4 [1, 2]
00000000: a466 7dbe c779 d7be
-0.24746186 -0.42085096

action_model._continuous_distribution.mu.bias f4 [2]
00000000: 36c8 0ebb 9406 dc3b
-0.0021786815 0.0067146514

action_model._continuous_distribution.mu.weight f4 [2, 128]
00000000: a78a df3d a47f 81bd 741b 0cbb eba5 d5bd
00000010: cbdb 0abd 1cf8 8b3d ed5e 94bd cf79 08be
00000020: 6af8 3fbd fc7e 94bc c723 12bc 590e 843c
00000030: cd9d 743c 13d9 99bd 1c00 ab3b 214b 2a3d
00000040: 2b86 1c3d 769e 94bd 22ff 63bd c40e 0abe
00000050: 0a82 aebb 1f80 d23d b5de 33bd 2b16 0f3e
00000060: f238 ab3c 0c99 8e3d 5aa5 95bd fe36 2dbd
00000070: fb57 93bd 40f2 763d 4232 023e 6039 13bd
00000080: 8582 dc3c 3810 9e3d a989 a83d 34f4 87bc
00000090: 34f2 bf3d 9b4a c5bd 984f 2c3d ddcd 993b
000000a0: cb35 cdbc b380 06bd be28 83bc 0bb4 883d
000000b0: 8795 1dbd cc89 ecbc 2e05 d4bd a711 61bd
000000c0: b545 4fba be9f c73d db14 c23d bb1f c63d
000000d0: 930d 81bd feb8 a8bd 387f 1dbc 8945 9ebd
000000e0: 2aa9 0abd f25e a6bb ff76 85bd f5dd 17bd
000000f0: f875 873c 6a56 d73c e510 ddb9 c220 723c
00000100: 2f65 253d 68c0 423d bff5 143d 0d52 293d
00000110: e8ca ee3d a286 0ebc f9cb 483d 0523 2b3c
00000120: 161c 19bd 154c c73c 6a00 9fbd 8f6f 24bd
00000130: 3537 643c 457b 59bc c397 07bb 3c9c a13d
00000140: 075d 94bd 343b f4bc 19a3 973c 6bb1 05bd
00000150: 1aaa f93d 1279 55bc f117 8dbd 2416 8f3d
00000160: a51c 8b3d dd12 063c 96a3 44bd 3cd9 0d3d
00000170: 4766 933d 7ab9 7a3d b5e5 a63d 1dd0 a83d
00000180: ca3e cdbc ae00 dd3c 6ecc c4bc 3205 eb3b
00000190: 700d 5ebc b683 a6bd f2fc ac3d 1836 b5bd
000001a0: 9d3b a23d abc0 543c 4352 22bd 6315 043d
000001b0: 1acc e93c 16c3 2c3d 4025 46bd 6ccd 45bd
000001c0: dae3 6cbd 806f d13d e8b3 1bbc 0c9f 8bbd
000001d0: 7eaa 193d e20a f0bc a336 e73c a76f 85bd
000001e0: 0f16 ab3d 4ee8 5a3c b1fd c9bc 315e aebc
000001f0: c5ff 1c3e 5ec2 0dbd d575 b53d dfce 3d3c
00000200: 110f c3bb 575e 3f3c 7b16 ee3c d90a 243d
00000210: bb0c a9bc 3437 e0bc 194d 70bd f48f 1a3c
00000220: 2302 52bd 7c00 103d 53fe c7bc 49ff 6ebd
00000230: 6006 4dbd bf64 c6bc 4fe3 543c 55b5 69bd
00000240: 007a 823d f733 62bd 3c99 163c 2c8f 28bd
00000250: 98db fdb9 f253 a83c 983f 97bd c363 f5bc
00000260: 3bd7 f3bc c83e 21bd 78b4 623d 831d 80bc
00000270: 103b a4bd 6791 f6bb 40f2 423d c04d 64bd
00000280: 6ca7 b93d 63a0 353d d7f9 1f3b 0acd 25bd
00000290: 1144 8e38 4fdf 283d aba7 813d 3e6f 023e
000002a0: dc32 ff3d d9ef c7bc 6bb2 c03c 6e0b 76bd
000002b0: 1a0c ac3d 13b9 b83c de37 dbbc 8f3f 023e
000002c0: 6aa5 5d3d 3d19 bebc 8611 2bbd ce11 6fbd
000002d0: 4a85 773c c372 00bd 0bfa d83c e5ee d1bc
000002e0: 0516 b53d ca0f 89bb 4b9a 123d b787 9abd
000002f0: 553c 5cbc 7fa9 943c 0509 bebd a2fd 86bd
00000300: fb96 ad3d 08c9 a13d d288 823d d6d6 753d
00000310: 3245 8abc a9e7 913d 6816 7b3d cb61 8abd
00000320: a8f0 dfbd ffaf 993c e6be ccbd 0145 063c
00000330: 1ef2 4d3d 069b 863d a76d 5b3d 2164 123d
00000340: b460 cb3a 5d17 d03d 8f54 7b3d 37ef dfbc
00000350: ecb6 83bc 4b63 58bd 7866 af3c 2874 333d
00000360: e6bc 9e3c da75 44bd 8220 11bb 498f 1c3e
00000370: 2737 c0bc 183a b8bc a562 9ebd 2809 de3d
00000380: 0876 e6bc 89d1 373c e6cc cd3d f8a1 c9ba
00000390: ce59 94bd 035f 98bc 942f debc 99b7 0abd
000003a0: 9c73 66bd 50f2 ae3d fa1d 01be f73c eb3d
000003b0: 6ff7 00bd 4f57 c73d 31c5 493b 871f 70bd
000003c0: f319 69bc 32fe a7bb 980c b0bd 3b9d 1cbd
000003d0: effd af3d 64cb 96bc 35ea a43d 9947 1bbd
000003e0: fa43 a13d b701 0b3c dc21 84bd a176 f43d
000003f0: dbbd c0bc f6f4 0dbd 9321 9c3b ad6d c1bc
0.10915118 -0.06323174 -0.0021378668 -0.10432037 -0.033901017 0.068344325 -0.07244668 -0.13327716
-0.046867765 -0.018126957 -0.008919663 0.016120123 0.014930201 -0.07512107 0.005218519 0.041575555
0.03821389 -0.072567865 -0.055663235 -0.13482195 -0.0053255605 0.102783434 -0.04391356 0.139733
0.020901177 0.06962785 -0.07306929 -0.042288773 -0.07194515 0.06028962 0.12714484 -0.03594339
0.026917705 0.07717937 0.082293816 -0.016595937 0.093723685 -0.096333705 0.042068094 0.0046937303
-0.025050065 -0.03283758 -0.016010638 0.066749655 -0.03847268 -0.0288743 -0.103525504 -0.054948475
-0.00079068105 0.09747265 0.09476634 0.09674021 -0.06301417 -0.082384095 -0.009612851 -0.077281065
-0.033852734 -0.0050772363 -0.06516837 -0.03707691 0.016535744 0.026286323 -0.00042164992 0.014778318
0.0403797 0.047546774 0.036367174 0.041338015 0.11659795 -0.008699091 0.04902265 0.010445361
-0.0373803 0.02432827 -0.07763751 -0.040145453 0.013929178 -0.013274019 -0.0020689822 0.078911275
-0.07244306 -0.029813386 0.018510388 -0.032639902 0.121906474 -0.013029354 -0.06889332 0.06986645
0.06792573 0.008183208 -0.04800757 0.034631 0.07197242 0.06121204 0.08149282 0.082428195
-0.025054354 0.026977863 -0.02402326 0.00717225 -0.013553008 -0.081305906 0.08446683 -0.08848208
0.079215266 0.012985389 -0.039629232 0.03224696 0.028539706 0.042178236 -0.048375368 -0.04829161
-0.057834484 0.10226345 -0.009503342 -0.06817445 0.03751611 -0.029302064 0.028224295 -0.065154366
0.08353817 0.01336105 -0.024657102 -0.021285148 0.15331943 -0.03460919 0.08860365 0.011584966
-0.005952724 0.011680207 0.029063454 0.040049408 -0.020635953 -0.027370073 -0.058667276 0.009433735
-0.05127157 0.035156712 -0.024413263 -0.058348928 -0.050054908 -0.024217961 0.012993648 -0.057057697
0.06370926 -0.05522534 0.009191807 -0.041152164 -0.0004841953 0.02054784 -0.073851764 -0.029954797
-0.029765716 -0.039366513 0.05534789 -0.015639072 -0.08019078 -0.0075246575 0.04759431 -0.05573821
0.09065136 0.04434241 0.002441039 -0.040478744 6.783766e-05 0.04122859 0.06330808 0.12737748
0.124608725 -0.02440636 0.023522576 -0.060069494 0.08400746 0.022549188 -0.026760038 0.12719558
0.05411283 -0.023205394 -0.04176476 -0.05836659 0.015107462 -0.031359445 0.026486417 -0.02562661
0.088420905 -0.0041827904 0.035791676 -0.07545417 -0.013442119 0.018147228 -0.09279064 -0.06591345
0.08476063 0.07899672 0.06373753 0.060019337 -0.016878698 0.07124264 0.061300665 -0.06756934
-0.109345734 0.01876068 -0.099973485 0.008195163 0.05027973 0.06572537 0.05357137 0.03574002
0.0015516491 0.10160706 0.06135994 -0.027335746 -0.016078435 -0.05282907 0.021411166 0.043811947
0.019377183 -0.047963955 -0.002214462 0.15289034 -0.023463799 -0.022488639 -0.07733659 0.1084159
-0.028132454 0.011219391 0.10048847 -0.0015383353 -0.072436914 -0.018599993 -0.027122296 -0.0338665
-0.056262597 0.08542311 -0.12609091 0.114862375 -0.03148597 0.0973345 0.0030787701 -0.058623817
-0.014227378 -0.005126738 -0.08596152 -0.038235884 0.08593356 -0.018407531 0.08052484 -0.037910078
0.078742936 0.008484296 -0.06451771 0.11936689 -0.02352803 -0.03465744 0.0047647445 -0.023611868

network_body._body_endoder.seq_layers.0.bias f4 [128]
00000000: 26c5 313d 16b5 b03d 7966 443b b17b c4bb
00000010: 50c5 7fbd 21df 203e 4e7e 03bb 0d9f 483d
00000020: 8dce ba3b addd c93d 13bf bb3d 5809 fe3b
00000030: c5b4 763d 47f5 e63d 9a7d a93d b6b3 8ebd
00000040: b8d4 80bd 10c0 cd3b 2227 69bc 149b f83c
00000050: a8f0 8c3d 71f7 10bc 9592 44bd 6262 3f3c
00000060: a03c 043e 1be5 94bd 36b7 123d 8fae a1bc
00000070: 1651 503d 422a 813d 3895 b5bd f379 d23d
00000080: 4db2 193d 44e2 523b 356e 1cbc 8a79 dc3c
00000090: 3295 01bb 62f0 523d 19a4 183d 3e2e 5ebd
000000a0: 0132 b5bd 86b8 893d d4f9 08bd edcd 12bd
000000b0: 3d84 51bd 06fa 8e3d 20ec 843b 6c8d 79bc
000000c0: 6610 3f3c bd2e b4bc bb0e 11bd 09e3 4d3d
000000d0: bd1f 783d 50cc 633d 8b26 abbc 414a c93d
000000e0: 9baf 11ba 1026 afbc dc65 81b8 94ae 883d
000000f0: 9bd8 073d 453e 7abd 5c37 e03c 37b9 953b
00000100: d1f8 b83d fd65 bf3c 7f7f b43d cba1 fc3c
00000110: 21bb 12bc a86f 443d 0e07 84bd a510 b63d
00000120: 2fdc d33d bb42 afbd dfcf e1bb 3be1 323d
00000130: ea93 c63c 406e a9bd 11ed 81bd 5ab1 813d
00000140: 2ee5 9ebc 5a1c 9cbc ae58 eabd e08b 2bbd
00000150: a0dd 3a3b 8003 833d 012a f7bc 609b 15bd
00000160: c1a4 b73c d336 5ebd b81f 083d 8477 063c
00000170: 4396 10be 21ab 08bd 8b5f 6dbd 7501 c13d
00000180: bcf3 d7bd b7b9 483c aa92 32bb 9b71 1b3c
00000190: 646e 98bd 2fde a03d c2c3 a93d d26e 453c
000001a0: 03b2 c63c cfb9 863d 9985 a33b 8d28 113d
000001b0: 98f6 e3bb c6a2 47bd e415 0d3c 867d 813d
000001c0: 3f5e fe3c 2f28 a43d bce3 ef3c 03d2 3d3d
000001d0: d29b 44bd 0cd9 273d aa90 e53d f586 523d
000001e0: 8d6f 2cbe c527 50bd 479c 3dbc a86a bd3d
000001f0: 4021 973c f81e b23b b6c6 a83d 3c29 1fbe
0.043400906 0.086282894 0.0029968305 -0.0059961905 -0.06244403 0.15710117 -0.0020064297 0.048979808
0.0057008923 0.098567344 0.09167304 0.0077525787 0.06023099 0.11277252 0.0827591 -0.06967871
-0.06290573 0.006278999 -0.014230521 0.030347385 0.06881839 -0.008848057 -0.047991354 0.011681171
0.12913752 -0.07270261 0.035819255 -0.019736556 0.05085858 0.06306888 -0.08866352 0.10277166
0.037523557 0.0032178322 -0.00954776 0.026913423 -0.0019772765 0.05149878 0.03726587 -0.05424332
-0.08847428 0.06724648 -0.03344138 -0.035840917 -0.051151503 0.06981282 0.0040564686 -0.0152314715
0.011661625 -0.021994943 -0.03541444 0.050265346 0.060577143 0.05561477 -0.020892402 0.09828616
-0.0005557478 -0.021380454 -6.170172e-05 0.06673923 0.033165555 -0.06109454 0.027370147 0.0045691985
0.09031833 0.023364061 0.088133805 0.030838868 -0.008955748 0.047958046 -0.06446658 0.088898934
0.10344731 -0.0855765 -0.0068912352 0.043671828 0.024240453 -0.08272982 -0.06344045 0.06332655
-0.01939639 -0.019056488 -0.114426956 -0.041881442 0.0028513446 0.06397152 -0.030171396 -0.03652513
0.022417428 -0.054251503 0.033233374 0.008207206 -0.1411982 -0.033366326 -0.057952445 0.09424106
-0.105445355 0.012251309 -0.0027248063 0.009487535 -0.0744293 0.07854878 0.08289291 0.012050347
0.024254804 0.06578409 0.0049902913 0.035439063 -0.0069568865 -0.048739217 0.008611176 0.0632277
0.0310508 0.08015477 0.029283397 0.04634286 -0.048000164 0.040978476 0.11209233 0.051398236
-0.16839428 -0.050819177 -0.011572904 0.09248859 0.018448472 0.0054358207 0.08241026 -0.15543073

network_body._body_endoder.seq_layers.0.weight f4 [128, 8]
00000000: 2f3c 47bd 3e74 07bd 10f1 59bf 661b 583e
00000010: c422 463e fb6b 4e3e e0f2 acbd 3ab9 153e
00000020: 454d f3bd c115 de3d 3269 25be 6807 2d3f
00000030: da20 e0bc a977 3a3e 11eb eabc 6104 9b3d
00000040: d7a3 473e 6e6c 683d 77cd e43e ada6 c73e
00000050: 84e5 103f 79df f4bd 87fe 19bf df0b ddbe
00000060: 821a 5bbf f55f 9a3d 4e78 02bf 7a8a 83be
00000070: 39d1 97be 0308 273e cd92 cabe 0192 eabe
00000080: 3673 d63d bf44 af3e fb64 bfbd 301f 36be
00000090: ee6a 8cbf 0e65 c5be b8cf 893e 3fea b8be
000000a0: cc1f 11be 3e74 333e b92c 573f ed11 843e
000000b0: 3b61 59be 87cc 0fbf 9401 133c 8412 36be
000000c0: c125 0c3f e5cb 0d3f 91a5 563e 0fd5 5a3c
000000d0: 175e d3be 0b48 51be 9c63 36bf 98ed efbe
000000e0: b9bc ce3e 4ad6 05bf ba99 853e 68bc 1a3c
000000f0: 4969 d53e ed98 b0be 32ed 9a3d 1cd1 06be
00000100: f11a b13d 6307 40be 501f 3fbe 73e7 a2be
00000110: 5e54 e8be 4532 7c3e eaf2 a63c 8891 ba3d
00000120: f898 513f f413 88bc 3d76 d8bd de31 02bf
00000130: dd30 5dbd 9c03 8a3e 9b16 32bd c3f5 1f3c
00000140: 27eb b2be deb0 07bf 2125 153f 78c0 e03e
00000150: 32e5 073f d413 87be 05eb 6d3e 09f8 40bd
00000160: 19bc 013f d014 01be 772a eebe 5b00 7ebe
00000170: c8ff cf3d 546f 9fbd 93f1 003e 91cf 92be
00000180: a522 5b3e c9ca b6bc e8ef 003f e9ff 173a
00000190: f82b 98bc 8e74 41be 8025 013e 657f d73d
000001a0: fced 8b3d 2a81 a43e ea32 323f 7de5 3ebf
000001b0: 7200 86bd 0473 0fbe e64a 503e b9e9 f63d
000001c0: c1bc aabe f752 e5be e560 fd3e 2dec a43d
000001d0: aedb 333f 9a1f 8dbe f256 28be 6ed7 93be
000001e0: 8ffa 27be 934c 5fbe 9eb8 59bd ef86 05be
000001f0: ab3c 1bbf 5b2b abbd 7792 bbbd dae7 343d
00000200: cd7d 00bf e1ab 17bf 2b9c e43e 3486 093d
00000210: 7ace f73e 563b 4e3f 537a adbd a2b8 2d3e
00000220: 983b adbd 00b8 16bc 512e acbe 3306 5fbe
00000230: f49e d03e b7e8 7b3e c263 70be d3e8 5a3d
00000240: b17f 97be c4f2 c9be 9206 693e ae68 3bbe
00000250: f074 313e eaa2 883e 788a 07bf 16b5 9d3e
00000260: 165c 9a3e d5c9 d6be 93fd 08be bbfe b9be
00000270: be08 233e 0fe4 1f3d 5600 853e e553 e8bc
00000280: e2fe e3be 9234 ad3e 1a24 70be 70df ad3e
00000290: 3418 b53e 1b0b 213e e363 aebe 2eb1 8abe
000002a0: 866f f83d ccbc 6dbe 2381 f33e 78ae 023f
000002b0: a248 e9bd a87e 54be c153 f43e 5b55 da3e
000002c0: 4ebe a6be 45c3 2abd f5ad eb3c 60a8 113f
000002d0: 9683 93be d103 bb3e 2bb4 3fbe 4737 fc3e
000002e0: 8642 38bd aed4 17be dac1 073f cf6c dfbe
000002f0: cc9b a93e 307f 2b3e fc9c 583d 3cab 5bbd
00000300: 0e0d e5be 525a 813e f649 a23e 595d 1f3f
00000310: cb84 b4bd e374 20be 18dc 173e bde0 b73d
00000320: d505 293f 43e8 6f3d bd7e d1be 82e1 2a3f
00000330: c023 003e 0a8d b4be 54c3 f2be 19a9 39bd
00000340: 74f1 40be 22c2 8bbe 389e 16bf 0996 b13e
00000350: 911d 933c bdd3 20be f45c 283e 840b 763e
00000360: c43a eb3e 812f dc3e 3970 6a3d f7e7 e5be
00000370: 0614 1a3d 8b8b f23e 2d0f dbbe 2119 a33e
00000380: e3a9 53be 68c1 173f d07e 793f 96db c8be
00000390: 4b30 c03c 5548 f8be f672 07bf 3013 623e
000003a0: 385c f0bd 7bb7 d23e 1958 78ba 6677 a5be
000003b0: 0404 1abe 0f12 b2bb ea70 19be 46c4 f33e
000003c0: 9347 8c3e 9670 d5be c233 2abb 7d54 0cbd
000003d0: bc99 353f efc0 cb3e e521 9e3f 0fa0 043e
000003e0: aa40 e03e d47d 133d fcf8 0b3e b3d6 d9be
000003f0: ec2d a3bd ab60 f5be 6d3a 94bd ef49 6f3e
-0.04864138 -0.03306984 -0.8513346 0.21104202 0.193492 0.20158379 -0.08444762 0.1462144
-0.11879972 0.10843993 -0.1615341 0.67589426 -0.027359415 0.18209709 -0.028676542 0.075691946
0.19496094 0.05674403 0.44688007 0.3899435 0.56600213 -0.119566865 -0.60154 -0.4317312
-0.8558732 0.075378336 -0.5096482 -0.25691587 -0.29651812 0.1631165 -0.39565125 -0.45814517
0.104711935 0.34232137 -0.09345432 -0.17785335 -1.0970132 -0.3855366 0.2691629 -0.36116216
-0.14172286 0.17524812 0.84052616 0.25794926 -0.21228497 -0.5617146 0.008972544 -0.177805
0.5474511 0.55389243 0.20961596 0.013356461 -0.41282722 -0.20437638 -0.7124574 -0.46860957
0.4037836 -0.52280104 0.26093847 0.009444334 0.4168189 -0.34491673 0.07564773 -0.13165706
0.08647717 -0.18752818 -0.18664289 -0.31817207 -0.45376867 0.24628551 0.020379502 0.09109789
0.81874037 -0.016611077 -0.10569427 -0.5085734 -0.054001678 0.2695588 -0.04347859 0.009763184
-0.34945032 -0.5300425 0.5825978 0.43896842 0.530841 -0.26382315 0.23234184 -0.047111545
0.5067764 -0.12605596 -0.46516773 -0.24804823 0.10156208 -0.07784906 0.12592153 -0.28673986
0.21399935 -0.022313492 0.5036607 0.00057983265 -0.018575653 -0.18892118 0.12611961 0.105223455
0.06832501 0.32129794 0.6960894 -0.7456892 -0.06543054 -0.14008719 0.20341071 0.12056298
-0.33347133 -0.4478986 0.49487987 0.080528595 0.7025708 -0.27563173 -0.16439417 -0.28875297
-0.16404174 -0.21806554 -0.05315458 -0.13039754 -0.60639447 -0.08357879 -0.09158795 0.044166423
-0.50191957 -0.5924664 0.44650397 0.03357525 0.48399717 0.8055929 -0.08470597 0.16964963
-0.08458632 -0.009199142 -0.33629087 -0.21779709 0.40746272 0.24600492 -0.23475555 0.053444695
-0.29589608 -0.39443028 0.22756413 -0.18301651 0.17329764 0.26686794 -0.5294566 0.3080222
0.3014838 -0.4195086 -0.13377981 -0.36327156 0.15921304 0.039035853 0.2597682 -0.028360317
-0.44530398 0.3382917 -0.23451272 0.33959532 0.35370028 0.15726893 -0.34060583 -0.27088302
0.121306464 -0.23216552 0.4755946 0.5104747 -0.11390807 -0.2075144 0.4772015 0.42643246
-0.32567066 -0.04169013 0.028769473 0.56897545 -0.2881133 0.3652635 -0.18721072 0.49260923
-0.044985317 -0.14827225 0.5303017 -0.43637702 0.33126676 0.16747737 0.052884087 -0.0536301
-0.44736522 0.2526422 0.31697053 0.6225181 -0.08814391 -0.15669589 0.14830053 0.08978412
0.66024524 0.05857111 -0.40917006 0.6675035 0.12513638 -0.35263854 -0.4741465 -0.04532728
-0.18842107 -0.2729655 -0.5883517 0.3468478 0.017958434 -0.15705772 0.16441709 0.2402783
0.45943272 0.43004993 0.05723593 -0.44903538 0.037616752 0.47372088 -0.42785016 0.3185511
-0.20670275 0.5927949 0.97459126 -0.3923003 0.023460528 -0.48492685 -0.5290979 0.22077632
-0.11736339 0.4115561 -0.0009473577 -0.32317656 -0.15040594 -0.0054342817 -0.1498448 0.47610682
0.27398357 -0.4168746 -0.0025970791 -0.03426026 0.70937705 0.39795634 1.2354094 0.12951683
0.43799335 0.03600867 0.13669199 -0.42546615 -0.07967743 -0.47925314 -0.07237706 0.23368047

network_body._body_endoder.seq_layers.2.bias f4 [128]
00000000: 6a24 923d e136 0d3d 70a4 9abc 708a 523d
00000010: 5a22 46bd 7e2c 0f3b deb3 b63d 4c4a da3d
00000020: 3943 293d 3cf4 353b b283 8b3b 7694 08bb
00000030: b452 5d3b 9aa8 94bb 46b5 4a3c d30a 2a3c
00000040: 9280 fc3c 81ff db3d a5d3 b7bc 8038 953d
00000050: 3767 83bd 39ab 373d 5550 263d 4a9b 863d
00000060: 3bc3 623c 0288 a7bc 9f2c 763d 1148 dc3b
00000070: ecaf aa3d 1497 59bb c367 c63d 0b91 e2bc
00000080: 8679 b13d 0796 cc3c 33bf 143b dcb1 4f39
00000090: 72c2 403d 681a 6c3d 3a78 e4bc 3514 fe3d
000000a0: 7d7d 90bc c2ff 1abd d3bb 213d 82a6 ae3c
000000b0: 0a3a d53d 68fe fc3c 612a 533d 138e 073e
000000c0: 347a 9c3c e22d 363d 38d0 c43c e616 a53c
000000d0: 288c 543d c04f 993d d24c 693c afee 8b3d
000000e0: 7cbc ab3d 5365 6fbd a1eb 513d 9a1a 0c3d
000000f0: 7387 84bd d576 d0bd 38f7 903c 5a4c 61bc
00000100: 0608 69bd 20c1 913d 6753 e83d 15c6 9d3c
00000110: ffcb 8d3d 321f b4bc 57b7 563d 6855 fa3c
00000120: 3b87 943d 56e2 fabc 7185 a93d 3efb 79bc
00000130: 9095 93bd 4874 993d fc7f debc ee62 453d
00000140: a6fc 113d 78a8 bb3d e1a4 423d b902 16bd
00000150: 9e35 fe3c 34a8 7e3d fe4f 1a3d 5959 7a3d
00000160: 208f a63c 54be abbc b47a 1b3d 8bef 123e
00000170: acf5 ba3c baf8 b33b b804 2f39 1dac 3a3d
00000180: d977 543c 5987 bf3c 3cb2 c33d 8af6 84bd
00000190: b956 fa3a 1f82 5a3d 4362 2f3d 7413 e03c
000001a0: bc54 333d 8709 143d 2251 b53d ec7f 143e
000001b0: 279b 91bd 6431 b03d 2f3b a1b9 c60e 823d
000001c0: 5296 cb3c 8ee9 5c3d e905 383c a16b 223d
000001d0: df8d 943d 9c1c b3bc 2a9e 1e3d 9f0b 633d
000001e0: dea8 ab3d d416 56bd ddad ca3c f9c3 173c
000001f0: 00d1 4e3d 288c 2fbd 2192 b03c 92af 1bbd
0.07135852 0.034476165 -0.018877238 0.051401556 -0.048372604 0.0021846588 0.08921026 0.10658702
0.041323874 0.0027763983 0.0042576427 -0.0020840443 0.0033771219 -0.0045367004 0.0123723205 0.010378557
0.030823026 0.10742093 -0.022439787 0.07286167 -0.06416171 0.044841025 0.040603954 0.06572588
0.013840492 -0.020450596 0.060101148 0.006722458 0.08334336 -0.0033201622 0.0968776 -0.027657053
0.08665757 0.024973882 0.0022696971 0.00019807316 0.047060438 0.05764237 -0.02788936 0.12406198
-0.017637962 -0.037841566 0.039485764 0.021319631 0.10411461 0.03088303 0.051554088 0.13237791
0.01910124 0.04447735 0.024025068 0.02015252 0.051891476 0.07485914 0.014239507 0.06832635
0.0838556 -0.05844624 0.051250104 0.034205057 -0.064711474 -0.101789154 0.017696008 -0.013751114
-0.056892417 0.07116914 0.11344033 0.019259492 0.06923675 -0.021987531 0.05242094 0.030558303
0.07252356 -0.030625504 0.08277405 -0.015257655 -0.07206261 0.07492882 -0.027160637 0.04819005
0.035641335 0.09162992 0.047520522 -0.03662369 0.031031426 0.06217213 0.037673943 0.061120365
0.02033192 -0.020964779 0.037958816 0.14349191 0.022822224 0.005492297 0.00016691058 0.045574296
0.012968027 0.023379968 0.0955548 -0.06492336 0.0019099332 0.05334675 0.04281832 0.027353026
0.04378198 0.0361419 0.088533655 0.14501923 -0.07109671 0.086031705 -0.00030752408 0.06350474
0.024851952 0.053933673 0.011231878 0.039653424 0.07253622 -0.021864228 0.038725056 0.055431005
0.08381818 -0.052267864 0.024741108 0.009263032 0.050492287 -0.042858273 0.021554055 -0.038009234

network_body._body_endoder.seq_layers.2.weight f4 [128, 128]
00000000: 7e4c 61bd b30c 24be 1a6b 1f3d 61e7 c83c
00000010: d204 dc3c f919 9d3d 2bc0 fb3b 33e3 bd3d
00000020: feec f23c cde2 3a3e d387 cbbc 19b2 f9bc
00000030: 0b4b 3ebd a049 263e 5fbe efbb a85a b63c
00000040: 2cf1 e7bd c311 6f3d 5482 adbd 8a49 413e
00000050: 3078 83be e4c6 29bd bfc1 0b3c 7755 ca3d
00000060: 0c88 58be 73c1 893d aed7 dc3d 094f 79bc
00000070: e553 e03d 002a 613d 1e1f 1c3d 6f98 453d
00000080: 1100 a1be 53e1 c7bd ce1d 623d 9524 a93d
00000090: 4004 1c3e 9360 7ebb 6459 b6bd f5a7 75bd
000000a0: 33df cbbd 32ec 50be f9cc 123e 149c 6ebc
000000b0: 57ca 043e bd3e 18be 9c3c debb 113f 8c3e
000000c0: 5653 d4bd 3138 e93d fac7 94bd 8943 99bd
000000d0: 6377 4f3e c4f3 b8bd 80a3 b03d e431 313e
000000e0: e88e 313d 1aa8 273e 16be 263e 039f 143c
000000f0: 4fdb dcbc 1c57 08bd af09 b93d c50a 5abe
00000100: f9bf 163e c18a 383d 9f5f 54be 248c 493c
00000110: ee99 c03d ca8d cdbc 41a4 483c 47f6 ac3c
00000120: db8e 073e b3a6 173e aa34 ae3d 0a35 053e
00000130: 34aa 883c e11d 513d 8049 5e3d 6c58 b8bc
00000140: a693 a23d 97cc 42be ffc0 983d 8cb8 bbbc
00000150: b383 ab3c 0eae 2abe f5e6 0c3e a601 a73d
00000160: e032 8b3e be59 573e 3e78 2abe a2e6 c4bd
00000170: c758 473d e34a a43d 5d8e f0bc ceb7 afbd
00000180: 0569 dcbc 52a4 253e 250e 01bd c384 e73d
00000190: 7f61 dbbc 06fc 803e aec8 3e3e c381 3f3d
000001a0: e519 803a fe11 adbd 80ce 453e 87a8 723e
000001b0: 95b0 ba3d 21d5 f2bc 889b 3bbd 3e57 c53d
000001c0: 4aa0 05be a60e 34be 5603 ec3c c054 09bd
000001d0: 1a4d 0c3c 10e7 a93b f9f6 1c3d fc0b e0bd
000001e0: 287b e63d 5b8b 00bd 602e 41bc d1d2 5a3e
000001f0: 1a29 493d fc43 5c3e afea 0e3c 0afc de3d
00000200: 857c 763d b49f 973d b6c7 173d 3a3a 0b3d
00000210: b6f1 68be 8528 fe3d 23e6 853d d1c6 01be
00000220: 1b32 e83c f380 28be 9a48 b1bc e18c 51be
00000230: 3b82 e63c f884 98bd c82a 083d 3624 cdbd
00000240: 767f afbc c220 ea38 993e 16be 71da c8be
00000250: ca9c d03d f971 c13d c074 56bd 28aa d6bd
00000260: b242 0b3e 94c6 193d dc16 0e3c eb46 92bc
00000270: f41a 8bbc b145 dabc 8074 863d 0739 d8bc
00000280: 9c59 4e3e ffdf f6bd 2cd3 5dbd 8dba 10bc
00000290: e351 cc3c 1135 063d 9e0b cf3c ddc5 12bd
000002a0: ed3e 31bd 2ea7 a3bd 384b 2fbd a92f fabd
000002b0: 7354 2dbe 73d0 9f3d 923d bdbd 32dc a63d
000002c0: 727b 69be 0a9e a7bd cbbc 7c3a b96d 8bbc
000002d0: a11a 4f3e 6887 51bd 260d c5bd 482a abbe
000002e0: 3083 933d b7a8 d83d bc57 1f3e 0ced 463d
000002f0: 133f ee3b a152 c53c f4ca 86bd 23d4 313d
00000300: ab7e 8abe d0a9 6f3d 8edf c73c 278a a5bc
00000310: 44b2 983d 87da 3a3d cff2 04ba 66ff 003e
00000320: 4a81 c3bd e772 613e 7fcd 503e 3bd8 773e
00000330: 7d62 40be 5e82 c53d 6ca1 c9bd 1aeb 943d
00000340: a20d 46bd 005c 84bd f452 08bd 4a7d 13be
00000350: 6899 b03d 8353 00bc cb55 0d3d 36d7 6abe
00000360: d865 3fbb 5fa7 8fbd 013d 31bd c506 c1bd
00000370: 2560 cfbd 26ba 403d 57c0 15bd 8d65 a93d
00000380: 1c29 25be 82bc 6e3d 3872 a6bd e978 f2bd
00000390: 2449 9c3d f740 863d f097 e3bd c6d3 52bd
000003a0: 7c72 b13d 70c5 e33d cbdc 683a cd44 abbe
000003b0: 34bd 1f3d 9a13 4fbe f0c6 2d3d 9a2b 103e
000003c0: 18f3 083e 2e2b 02be 073d 0abe 0396 d43d
000003d0: 45ae 1dbe 827f 523d 06ed 99bb 5645 d43d
000003e0: c563 c1bd 6030 eebd e349 3bbe 5f2e 08be
000003f0: e854 c23c 5f0b 44bd cd03 e53b efb6 e43b
-0.05500459 -0.1602047 0.0389205 0.024524393 0.026857767 0.076709695 0.0076828203 0.092718504
0.029654022 0.1825058 -0.02484504 -0.030480431 -0.046458285 0.16239023 -0.007316395 0.022260025
-0.11325297 0.05836655 -0.08472124 0.18875709 -0.25677633 -0.041449443 0.008530079 0.098795824
-0.21145648 0.06726351 0.10783325 -0.015216597 0.109535016 0.054971695 0.038115613 0.048241075
-0.31445363 -0.09759774 0.055204205 0.082589306 0.15235996 -0.0038814887 -0.08903769 -0.05997463
-0.09954681 -0.20402601 0.14336003 -0.014563579 0.12967812 -0.14867683 -0.0067821275 0.27391866
-0.103674576 0.11387671 -0.07264705 -0.074835844 0.20260386 -0.090308696 0.08624935 0.17304188
0.043349177 0.1637272 0.1628345 0.0090711145 -0.026960043 -0.0332862 0.0903505 -0.21293171
0.1472167 0.0450542 -0.20739602 0.012301479 0.0940436 -0.025092024 0.012246192 0.021113528
0.13238089 0.14809684 0.085061386 0.13008514 0.016682722 0.051053885 0.054269314 -0.0225031
0.07938318 -0.19023357 0.07458686 -0.022915147 0.020936823 -0.16667959 0.13759978 0.08154611
0.27187252 0.21030328 -0.16647431 -0.09614302 0.04866865 0.08022096 -0.02936476 -0.0857998
-0.026905546 0.16175964 -0.03150763 0.11304619 -0.026779888 0.2519228 0.1863124 0.04675461
0.0009773342 -0.08450697 0.19317055 0.236971 0.091157116 -0.029642643 -0.045802623 0.09635781
-0.13049427 -0.17583713 0.028810184 -0.03352809 0.008563304 0.0051850155 0.03832147 -0.10939786
0.11253959 -0.0313829 -0.011790842 0.21369483 0.049111463 0.21510309 0.008722945 0.108879164
0.060177345 0.07403508 0.037055694 0.033991076 -0.22748455 0.12410072 0.06538036 -0.12673499
0.028344205 -0.1645544 -0.021641064 -0.20463897 0.02813827 -0.07447237 0.033243924 -0.10016672
-0.021423083 0.00011164091 -0.14672317 -0.39229158 0.10186155 0.09445567 -0.052357435 -0.104816735
0.13599661 0.037542894 0.008672442 -0.017856082 -0.016980626 -0.02664456 0.06565189 -0.02639438
0.20151371 -0.120544426 -0.054156467 -0.00883354 0.02494139 0.03276545 0.025274094 -0.03583323
-0.0432729 -0.07990871 -0.042796344 -0.12216122 -0.16926746 0.078034304 -0.09240259 0.08147468
-0.22800997 -0.081844404 0.00096411695 -0.017020093 0.20225002 -0.051154524 -0.096216485 -0.33430696
0.072027564 0.10579055 0.15560812 0.04856591 0.0072707026 0.024087252 -0.06581679 0.0434152
-0.27049765 0.058511555 0.024398591 -0.020207478 0.074558765 0.04561856 -0.00050715817 0.12597427
-0.09546144 0.22016488 0.2039089 0.24203579 -0.1878757 0.09644006 -0.09845242 0.072714046
-0.048352845 -0.0646286 -0.033282235 -0.14403263 0.0862301 -0.007832411 0.034505647 -0.22933659
-0.002920499 -0.070143454 -0.04327107 -0.09425119 -0.1012576 0.047052525 -0.036560383 0.082713224
-0.16128963 0.058285244 -0.08127254 -0.11839468 0.07631138 0.0655536 -0.11112964 -0.051471494
0.08664414 0.111216426 0.00088829984 -0.33450928 0.038998798 -0.20222321 0.04242605 0.14079133
0.13373983 -0.12711784 -0.13499843 0.10380175 -0.1539851 0.051391132 -0.004697445 0.10364787
-0.09442858 -0.116303205 -0.18289904 -0.13298939 0.023722127 -0.047862407 0.0069889785 0.006979815
