Assets/ML-Agents/results/Andrew ML/results/RollerBall/RollerBall/RollerBall-18803.pt (torch, 444703 bytes, 36 tensors)

network_body._body_endoder.seq_layers.0.weight f4 [128, 8]
0.49179217 -0.23054391 0.29561374 0.04701348 0.7488303 0.23156263 0.13553043 0.14859875
-0.4534088 0.08170489 0.47724405 -0.020735435 -0.046069253 -0.39809653 0.10268006 -0.6102801
0.9480482 -0.04085335 0.019509707 -0.22107534 0.07069805 -0.090594605 -0.4756035 0.08335038
0.4699124 -0.12738188 0.25412625 0.2933632 -0.07473565 0.24150714 -0.118070915 -0.40742695
-0.08206736 -0.2999932 -0.3386975 0.54967254 -0.1470645 -0.12118244 0.30269027 0.14124769
0.2502656 -0.3841297 -0.34824818 -0.8247586 0.75428605 -0.41959324 -0.23551388 -0.49290484
-0.29797697 0.50205964 -0.15710121 0.4256787 0.3040208 0.034820165 -0.18610924 -0.13622026
-0.07979108 -0.3171042 -0.14772858 -0.3066788 0.3608381 -0.10858928 0.06669221 -0.10758257
-0.88079375 0.6025405 -0.34152943 -0.34972247 0.4137867 0.14523524 -0.21990387 -0.15026702
-0.031085266 0.02740142 -0.15023078 0.3491157 0.5584854 0.26168302 0.09606038 0.024619928
0.44959465 -0.5137358 0.43079248 0.015494715 -0.09531365 0.49870315 0.48465276 0.2402813
0.279731 -0.7217304 0.10109242 0.13022266 -0.47828653 -0.20755458 0.28288406 0.27876207
-0.35361758 0.13396937 -0.15301317 -0.19871451 0.16130282 0.003644318 -0.8004705 0.0017572484
-0.6720354 0.068961166 0.22795147 0.4201216 0.84923697 0.66902393 -0.5304821 -0.2832172
-0.09588998 -0.16517892 -0.30559617 -0.8114958 -0.45984676 0.049923964 -0.2706135 -0.39199162
0.110418074 0.022561267 -0.5620821 0.48698166 0.27783924 -0.05863922 -0.22233115 -0.0067812167
0.22407979 0.021312151 -0.41244924 0.1861564 0.27027944 -0.26034382 -0.29023534 -0.03710697
-0.54793465 0.15919846 0.062788926 0.27326727 -0.24440935 0.06987631 0.15541455 -0.13973679
0.15225692 -0.34869933 0.08700116 -0.5271858 -0.21772958 -0.058704503 -0.28372136 0.1458077
-0.5617348 0.47801146 -0.005786482 -0.199194 -0.19572182 -0.22626813 0.36891395 0.19300087
-0.25826722 -0.5580487 -0.51388574 -0.60659117 -0.03264874 0.01419126 0.25285155 -0.31115788
0.082752325 0.3531141 0.20449945 0.55082273 0.24341801 -0.38619256 -0.20977241 0.11972816
-0.020289991 -0.10416955 0.11737669 0.7927609 0.15793452 -0.002780412 0.01628848 -0.20839614
-0.5740371 -0.23183873 -0.23530136 0.14013575 0.07870727 0.012351711 -0.6442496 -0.22723769
0.31241122 0.3263346 -0.83119226 0.28877345 0.392776 -0.4139005 -0.82774174 -0.27097842
-0.4369461 -0.23543237 0.025524119 -0.1294893 -0.20691936 0.09362699 -0.15204531 0.1030128
0.20693812 -0.21403106 0.81689996 0.07106652 -0.29334298 0.09198618 -0.26884472 -0.26168078
0.12373268 0.28796035 -0.07084729 0.37211224 -0.26757213 0.45259142 -0.45962632 -0.16740586
-0.49925324 0.00017985656 0.57828087 0.11872133 -0.9448952 -0.2605689 -0.16610275 0.5573579
0.04037903 -0.45940572 0.17409332 0.059626825 -0.062916435 0.07111703 0.24943317 -0.41245648
-0.19399685 0.24957211 -0.48706698 0.29254916 0.25902614 0.100155726 -0.035819493 0.2701138
-0.49401903 0.4588084 -0.4038959 0.346603 -0.25164065 0.547352 0.1997556 0.20536481
00000000: 2fcc fb3e b413 6cbe af5a 973e 3591 403d
00000010: 58b3 3f3f c11e 6d3e 7dc8 0a3e 452a 183e
00000020: 3325 e8be e554 a73d 5559 f43e 5cdd a9bc
00000030: 1db3 3cbd 4fd3 cbbe ec49 d23d 513b 1cbf
00000040: 49b3 723f d855 27bd d2d2 9f3c 9361 62be
00000050: 24ca 903d aa89 b9bd 4d82 f3be 9bb3 aa3d
00000060: 5c98 f03e 6570 02be d61c 823e b433 963e
00000070: 010f 99bd a64d 773e 2acf f1bd 449a d0be
00000080: ef12 a8bd b598 99be c269 adbe 57b7 0c3f
00000090: 1498 16be 802e f8bd 38fa 9a3e 3ca3 103e
000000a0: d022 803e a6ac c4be 964d b2be 6123 53bf
000000b0: e418 413f edd4 d6be 8d2a 71be 065e fcbe
000000c0: 7090 98be fb86 003f 24df 20be 8ff2 d93e
000000d0: 9da8 9b3e 979f 0e3d 6c93 3ebe 537d 0bbe
000000e0: 8169 a3bd 7b5b a2be 2946 17be 0105 9dbe
000000f0: c5bf b83e 0e64 debd ed95 883d 4054 dcbd
00000100: b37b 61bf 1840 1a3f f2dc aebe d30e b3be
00000110: dadb d33e 8cb8 143e 7b2e 61be 99df 19be
00000120: 87a6 febc f178 e03c 19d6 19be 4bbf b23e
00000130: e6f8 0e3f 51fb 853e 4ebb c43d bbaf c93c
00000140: 4531 e63e 3084 03bf d590 dc3e 8cdd 7d3c
00000150: ce33 c3bd 0556 ff3e 6824 f83e 4d0c 763e
00000160: e738 8f3e 53c3 38bf 8b09 cf3d 1759 053e
00000170: f9e1 f4be 3089 54be 2ed6 903e e7b9 8e3e
00000180: 5d0d b5be 442f 093e 7caf 1cbe d17b 4bbe
00000190: 912c 253e 83d5 6e3b a2eb 4cbf 7953 e63a
000001a0: 830a 2cbf 833b 8d3d 1c6c 693e 2e1a d73e
000001b0: 9867 593f 2745 2b3f adcd 07bf d801 91be
000001c0: f761 c4bd aa24 29be 1a77 9cbe 30be 4fbf
000001d0: 0971 ebbe 127d 4c3d da8d 8abe 20b3 c8be
000001e0: df22 e23d 68d2 b83c 9de4 0fbf a955 f93e
000001f0: f240 8e3e ae2f 70bd c7aa 63be f834 debb
00000200: 2c75 653e d296 ae3c 8c2c d3be c99f 3e3e
00000210: 1162 8a3e c94b 85be ba99 94be 7afd 17bd
00000220: 7245 0cbf ec04 233e 7b97 803d b0e9 8b3e
00000230: 7246 7abe 501b 8f3d fe24 1f3e 2917 0fbe
00000240: 3de9 1b3e b888 b2be aa2d b23d a6f5 06bf
00000250: 81f4 5ebe 2274 70bd ed43 91be 9d4e 153e
00000260: dacd 0fbf ebbd f43e 879c bdbb 83f9 4bbe
00000270: 4d6b 48be d5b2 67be 4ae2 bc3e 05a2 453e
00000280: 9a3b 84be 48dc 0ebf 048e 03bf 8f49 1bbf
00000290: afba 05bd 7582 683c c275 813e 1650 9fbe
000002a0: 0d7a a93d 5fcb b43e 4e68 513e b802 0d3f
000002b0: 9242 793e 08bb c5be 94ce 56be 0a34 f53d
000002c0: 3237 a6bc d856 d5bd 3163 f03d 61f2 4a3f
000002d0: 96b9 213e 9337 36bb 6b6f 853c cc65 55be
000002e0: 18f4 12bf 2267 6dbe d7f2 70be bf7f 0f3e
000002f0: 4731 a13d d55e 4a3c 8bed 24bf ffb0 68be
00000300: 5df4 9f3e 5415 a73e 04c9 54bf 1dda 933e
00000310: f019 c93e c4ea d3be e2e6 53bf afbd 8abe
00000320: 66b7 dfbe 2f15 71be f517 d13c d898 04be
00000330: abe2 53be 82bf bf3d c4b1 1bbe 60f8 d23d
00000340: 96e7 533e f52a 5bbe 5b20 513f 538b 913d
00000350: 0d31 96be 4063 bc3d 04a6 89be 06fb 85be
00000360: 8f67 fd3d 8a6f 933e 6218 91bd 7f85 be3e
00000370: 37ff 88be 10ba e73e 2454 ebbe 716c 2bbe
00000380: 1f9e ffbe e197 3c39 370a 143f 2b24 f33d
00000390: a7e4 71bf 4969 85be d716 2abe 02af 0e3f
000003a0: 7b64 253d 3a37 ebbe 8545 323e 423b 743d
000003b0: 55da 80bd cea5 913d 696b 7f3e 7f2d d3be
000003c0: 1ca7 46be d58f 7f3e d860 f9be 01c9 953e
000003d0: 139f 843e 721e cd3d 76b7 12bd 5b4c 8a3e
000003e0: 10f0 fcbe efe8 ea3e 72cb cebe f375 b13e
000003f0: 0bd7 80be 431f 0c3f bb8c 4c3e 274b 523e

network_body._body_endoder.seq_layers.0.bias f4 [128]
-0.03192972 -0.010727655 0.01608919 -0.027351437 -0.015406597 -0.006559271 0.014238861 0.0006393149
0.032608546 -0.008139615 -0.016278885 -0.025634263 -0.031606827 0.012738139 -0.024831865 0.018986383
0.023198416 -0.039827112 0.014044679 -0.01291581 0.022612073 -0.061655056 0.004010225 -0.014896277
0.05214149 0.02200953 -0.031642385 -0.009708649 0.012423633 -0.015439731 0.029093087 0.011776565
0.00476158 0.0048546777 -0.03449757 -0.010955997 0.021306211 -0.03212754 -0.038257837 0.0054881684
-0.0008517748 -0.0026641027 -0.018913988 0.013587162 -0.018521754 -0.03717993 0.020923944 0.008687334
-0.010638646 0.023639934 0.020087808 -0.014210868 -0.006664853 0.027889827 0.017115278 -0.021799933
-0.0341485 -0.038103383 0.0067265653 -0.010766852 0.04774087 0.0042767525 0.025051506 0.005027982
-0.030596333 0.039700318 0.028336614 0.034727182 -0.006837781 -0.0426804 0.01927069 0.018305141
-0.013975177 0.038500827 -0.010962755 -0.021978607 -0.05452863 0.020699698 0.023020683 -0.011005247
-0.028519617 -0.019896032 -0.020582862 -0.033323176 0.027812578 -0.043403544 -0.020194875 -0.012931715
-0.007697407 0.023905022 0.027963262 0.03158314 0.027734324 -0.019593652 -0.0030911474 -0.00014346969
-0.004565927 0.043843903 0.018767597 -0.032301888 0.039635662 -0.010262596 0.033136986 -0.035458863
-0.014247072 -0.030158792 -0.004520182 -0.008087757 0.041033223 -0.036051266 0.013939763 0.026641807
-0.04101638 0.0130450325 0.007708051 0.044332538 0.03243587 -0.00018320182 0.011244372 0.01877052
0.047173094 -0.004473364 0.02708698 -0.006347571 -0.004524835 -0.024081565 0.039881628 -0.046399165
00000000: bdc8 02bd 0cc3 2fbc 7acd 833c 1f10 e0bc
00000010: f46b 7cbc 27ef d6bb 1d4a 693c b297 273a
00000020: 8a90 053d 055c 05bc 4c5b 85bc f2fe d1bc
00000030: 2976 01bd a1b3 503c 326c cbbc 5589 9b3c
00000040: 9b0a be3c c121 23bd a71b 663c d59c 53bc
00000050: f43c b93c 038a 7cbd 3568 833b 840f 74bc
00000060: 5192 553d 544d b43c 729b 01bd 0611 1fbc
00000070: 7e8c 4b3c edf6 7cbc a054 ee3c 7ef2 403c
00000080: 0707 9c3b fd13 9f3b 534d 0dbd c880 33bc
00000090: 5d8a ae3c 2b98 03bd 40b4 1cbd 18d6 b33b
000000a0: a449 5fba 3a98 2ebb 82f1 9abc b09c 5e3c
000000b0: efba 97bc fb49 18bd b168 ab3c 5255 0e3c
000000c0: b74d 2ebc 89a8 c13c 308f a43c b3d4 68bc
000000d0: d764 dabb 3579 e43c 5735 8c3c c695 b2bc
000000e0: 4cdf 0bbd 4b12 1cbd 856a dc3b 7367 30bc
000000f0: ee8b 433d 0024 8c3b d138 cd3c c5c1 a43b
00000100: 29a5 fabc cd9c 223d 3022 e83c 173e 0e3d
00000110: 770f e0bb a5d1 2ebd 91dd 9d3c aaf4 953c
00000120: 24f8 64bc 0bb3 1d3d 219d 33bc 7b0c b4bc
00000130: 6a59 5fbd 6a92 a93c df95 bc3c 5a4f 34bc
00000140: f9a1 e9bc 01fd a2bc 649d a8bc e27d 08bd
00000150: 34d7 e33c eac7 31bd b96f a5bc 8bdf 53bc
00000160: 883a fcbb 77d4 c33c 3613 e53c 535d 013d
00000170: 1833 e33c de82 a0bc d994 4abb 5a70 16b9
00000180: c69d 95bb aa95 333d 81be 993c fc4e 04bd
00000190: 0159 223d 7324 28bc a6ba 073d 503d 11bd
000001a0: 8d6c 69bc 920f f7bc 091e 94bb 8382 04bc
000001b0: 7412 283d 7eaa 13bd 9b63 643c eb3f da3c
000001c0: cb00 28bd d5ba 553c d193 fc3b 0996 353d
000001d0: 7adb 043d dd19 40b9 513a 383c a2c4 993c
000001e0: 9338 413d 4c95 92bb 84e5 dd3c 49ff cfbb
000001f0: 1145 94bb b446 c5bc eb5a 233d 0d0d 3ebd

network_body._body_endoder.seq_layers.2.weight f4 [128, 128]
0.104294404 -0.06430105 -0.021902485 -0.111988515 0.09169103 -0.11408014 -0.10337414 -0.20058897
0.08214644 0.021714324 -0.08703333 -0.060271125 0.012548764 -0.013676701 -0.020989856 -0.047105525
-0.07801712 0.055935286 0.0027472456 0.06055151 0.06906139 0.012962468 -0.0056254473 0.0226527
-0.03192529 -0.0072956593 -0.056673847 0.029830238 0.052330483 -0.034747317 -0.035092738 -0.07863332
-0.21418044 -0.1911686 0.06774269 0.08604311 0.068012804 0.0038148693 0.103196174 -0.065887265
0.12416952 -0.14140157 0.007914391 -0.016920585 0.10610139 0.0052985405 -0.01297897 -0.106201835
0.07002128 0.0383795 0.10758254 0.056138393 0.09997539 -0.0839743 0.09108559 -0.053470116
0.030317586 -0.0054659927 -0.123736136 -0.042766254 -0.197133 -0.0833961 -0.06497773 0.22369657
0.12373642 -0.016831575 -0.085421234 -0.11429686 0.033074196 -3.262607e-05 -0.028836656 0.015264971
0.04582864 0.011991212 0.12826842 0.087071605 0.06737855 0.061245997 -0.032176506 0.119429186
-0.104734264 -0.038198043 -0.01658666 -0.054591026 -0.055823915 -0.10525853 -0.049403757 0.020825207
-0.17309904 0.17711486 -0.10325151 0.023142539 -0.021373412 0.04972345 -0.07838072 -0.0115484325
-0.13818443 -0.08414487 0.034280058 -0.116704464 0.0674085 0.036607124 0.05805142 0.11866698
-0.10614822 -0.082287304 -0.009720264 -0.12104561 -0.1268731 -0.10118529 -0.1119984 -0.07552797
0.041273426 0.14432369 -0.044365212 -0.010210011 0.002709926 0.13412318 0.053599365 -0.017469043
0.030226732 0.11889912 -0.026123783 -0.17098325 0.07394282 -0.041358743 -0.09136351 0.119322024
0.0634118 -0.20925047 -0.009566107 0.0032479796 0.083014466 0.07573894 0.109546535 0.026036974
-0.054551255 0.11930566 0.015595507 -0.061881777 0.088013165 -0.18113312 -0.051525775 -0.0666673
0.08417688 -0.1618796 -0.032384254 -0.09033326 -0.11162824 -0.023299698 6.498472e-05 -0.04095932
0.069758244 0.0977954 0.13509318 0.117558606 -0.08437185 0.14885259 -0.037943732 -0.1429418
-0.15290931 0.028957035 0.0128720915 0.07081358 0.082866296 -0.04324945 0.04235939 -0.03729658
0.030417405 -0.06981362 -0.080686666 0.06451084 0.018741786 -0.0021274504 0.009342022 -0.1436328
-0.07815874 -0.06670526 -0.04909544 -0.021529771 0.12883285 -0.090027064 0.0007597123 0.00017347641
0.04069692 0.09754304 0.1143712 0.12368972 -0.017238198 0.0071295067 0.004413479 0.04683774
0.037383556 -8.7317785e-05 -0.019884674 0.049490046 -0.0052942503 0.15248275 -0.0012981847 0.16152519
-0.05110712 -0.12460851 -0.045582946 -0.09701572 -0.07811269 0.09790288 -0.06336951 0.23185618
0.013814992 0.009572122 0.085460335 0.14633973 -0.27707213 -0.09926106 -0.0063391794 -0.031496685
0.1306633 0.09922908 0.103488244 -0.0864619 -0.027361486 0.12395722 0.006175636 0.02518281
0.13328353 -0.16545908 -0.03938075 0.14871784 -0.12738878 0.11567828 -0.049731333 0.018688608
-0.04727538 -0.107012995 0.16037686 0.060744695 0.12977657 -0.036389194 -0.11970583 -0.04794334
0.04186126 0.09134429 -0.073435746 -0.28095055 0.043825727 -0.183393 0.039731212 -0.12529281
0.038403116 -0.097818576 0.042490665 0.08233741 0.050096195 0.02992679 -0.026465407 -0.009834249
00000000: 4e98 d53d 45b0 83bd d76c b3bc 3c5a e5bd
00000010: 82c8 bb3d d9a2 e9bd d2b5 d3bd 3267 4dbe
00000020: 653c a83d 3de2 b13c 883e b2bd dbde 76bd
00000030: 5599 4d3c 3e14 60bc ebf2 abbc b9f1 40bd
00000040: 71c7 9fbd 661c 653d 220b 343b dc04 783d
00000050: 0f70 8d3d 8860 543c ac55 b8bb 2892 b93c
00000060: 18c4 02bd 6d10 efbb d622 68bd 8b5e f43c
00000070: 7d58 563d 3453 0ebd 67bd 0fbd 820a a1bd
00000080: 1e52 5bbe b4c1 43be aebc 8a3d 5f37 b03d
00000090: 4c4a 8b3d e302 7a3b 8458 d33d e7ef 86bd
000000a0: 974c fe3d 93cb 10be 5dab 013c 0a9d 8abc
000000b0: b04b d93d 619f ad3b bfa5 54bc 5980 d9bd
000000c0: 5167 8f3d d333 1d3d 3c54 dc3d 5ff1 653d
000000d0: e6bf cc3d b8fa abbd 158b ba3d 7b03 5bbd
000000e0: 965c f83c 121c b3bb 5f69 fdbd ab2b 2fbd
000000f0: 3cdd 49be 93cb aabd 0b13 85bd b710 653e
00000100: 8569 fd3d 5fe2 89bc 54f1 aebd 7914 eabd
00000110: cf78 073d fad7 08b8 da3a ecbc ee19 7a3c
00000120: d0b6 3b3d ca76 443c cc58 033e 9952 b23d
00000130: c4fd 893d 15dd 7a3d 83cb 03bd 4a97 f43d
00000140: eb7e d6bd 8d75 1cbd bfe0 87bc d79a 5fbd
00000150: 9ea7 64bd c991 d7bd 985b 4abd a099 aa3c
00000160: e040 31be 995d 353e 8775 d3bd 6c95 bd3c
00000170: 4b17 afbc d1aa 4b3d 1286 a0bd a335 3dbc
00000180: 3880 0dbe 2554 acbd 3f69 0c3d c002 efbd
00000190: 780d 8a3d 5af1 153d 53c7 6d3d ac07 f33d
000001a0: 3d64 d9bd 3f86 a8bd be41 1fbc c3e6 f7bd
000001b0: 06eb 01be 3c3a cfbd 6b5f e5bd 69ae 9abd
000001c0: 530e 293d 97c9 133e 4cb8 35bd e447 27bc
000001d0: 0499 313b 9657 093e 028b 5b3d 3d1b 8fbc
000001e0: 0d9e f73c 6281 f33d 8b01 d6bc 3c16 2fbe
000001f0: 556f 973d c967 29bd cb1c bbbd 1b5f f43d
00000200: 0cde 813d c145 56be 29bb 1cbc 0edc 543b
00000210: 7d03 aa3d 041d 9b3d ef59 e03d 7e4b d53c
00000220: 2371 5fbd 8756 f43d 4c84 7f3c bf77 7dbd
00000230: 3f40 b43d f67a 39be b10c 53bd de88 88bd
00000240: ee64 ac3d c4c3 25be 5aa5 04bd a500 b9bd
00000250: 599d e4bd 02df bebc 6848 8838 f6c4 27bd
00000260: 69dd 8e3d f448 c83d de55 0a3e 91c2 f03d
00000270: 26cb acbd d06c 183e e36a 1bbd 565f 12be
00000280: 4294 1cbe 4e37 ed3c 77e5 523c b606 913d
00000290: ceb5 a93d 5626 31bd 0a81 2d3d 4cc4 18bd
000002a0: ec2d f93c 71fa 8ebd 0d3f a5bd 421e 843d
000002b0: 6088 993c b26c 0bbb 480f 193c 7a14 13be
000002c0: b111 a0bd c49c 88bd 4d18 49bd 345f b0bc
000002d0: c2ec 033e 1c60 b8bd 6e27 473a 38e7 3539
000002e0: d0b1 263d a5c4 c73d 733b ea3d 0951 fd3d
000002f0: 1f37 8dbc a39e e93b f29e 903b eed8 3f3d
00000300: 801f 193d 611e b7b8 2fe5 a2bc 13b6 4a3d
00000310: 647b adbb 7024 1c3e da27 aaba dc66 253e
00000320: b355 51bd bf32 ffbd 2fb5 3abd 2eb0 c6bd
00000330: 8cf9 9fbd 4e81 c83d e0c7 81bd b56b 6d3e
00000340: 4758 623c 64d4 1c3c d405 af3d 15da 153e
00000350: 66dc 8dbe 6249 cbbd e4b8 cfbb ab02 01bd
00000360: 9acc 053e 9e38 cb3d a5f1 d33d f012 b1bd
00000370: 3225 e0bc 48dd fd3d fd5c ca3b 2e4c ce3c
00000380: 7a7b 083e 1b6e 29be b64d 21bd 7d49 183e
00000390: 3472 02be bce8 ec3d 15b3 4bbd da18 993c
000003a0: d4a3 41bd a129 dbbd d539 243e 6ecf 783d
000003b0: 26e4 043e d60c 15bd 5528 f5bd 3c60 44bd
000003c0: b676 2b3d b712 bb3d 7b65 96bd c0d8 8fbe
000003d0: 9b82 333d 60cb 3bbe 32bd 223d c24c 00be
000003e0: 964c 1d3d 1b55 c8bd b10a 2e3d 84a0 a83d
000003f0: ab31 4d3d 0729 f53c fbcd d8bc d41f 21bc

network_body._body_endoder.seq_layers.2.bias f4 [128]
-0.016009932 -0.009944572 -0.027131503 -0.01589068 -0.028364815 0.042344235 -0.020335807 0.016721433
-0.0155265955 -0.018162386 -0.031462375 0.028064163 0.025907727 -0.04615952 -0.021295058 0.018177299
-0.007874248 0.019584313 0.026069717 0.032762118 0.0099864565 0.04516731 0.0070813075 0.010429976
-0.007990363 -0.013573678 -0.0077165533 -0.027085686 -0.028235933 -0.0069111576 -0.015753776 0.0293881
-0.044257168 -0.035278156 0.032648508 0.014886649 0.0053948173 -0.013081218 -0.0064290324 0.045478445
-0.043547582 -0.012199426 0.02004213 0.011370435 0.007560191 -0.035249557 -0.022857027 0.019558117
-0.017142013 0.017089417 0.022387356 -0.025592465 -0.009679623 -0.037917253 -0.025225606 0.011986014
0.0026994806 -0.030280272 0.014420195 -0.037649695 -0.014858583 -0.0099161565 -0.005331541 0.019944014
0.012044466 -0.018082818 -0.012837908 -0.02557955 -0.03997345 0.016564032 -0.031838793 0.032988466
0.04437948 -0.008485801 -0.030857166 -0.032676037 -0.05597909 0.0129805915 -0.011683039 -0.016844818
-0.025949843 -0.028891468 -0.030826593 0.0364799 0.016329342 -0.0021889096 -0.02881093 0.018943258
0.03326247 0.037428454 0.016769012 -0.0035995236 0.022467393 0.019906221 -0.010438078 -0.034405515
-0.01834861 -0.0077649932 0.038797915 0.001407937 0.037405662 0.02282939 0.027603285 0.044549808
-0.012402094 0.03731658 0.04577309 0.04032112 0.014809821 0.010831036 0.0044467654 0.014725379
-0.0038066343 0.012522872 0.023455976 -0.015294659 0.01102935 -0.023142224 -0.002090959 -0.0019945109
-0.028578212 1.1034539e-05 0.010955757 0.001018592 -0.0042287074 -0.029345527 0.025996353 -0.025831126
00000000: 4327 83bc 8fee 22bc e342 debc 2c2d 82bc
00000010: 545d e8bc 2671 2d3d 4797 a6bc 63fb 883c
00000020: 4363 7ebc 49c9 94bc b1de 00bd d1e6 e53c
00000030: 713c d43c c411 3dbd f972 aebc 8fe8 943c
00000040: fd02 01bc 486f a03c 2990 d53c 9231 063d
00000050: 3c9e 233c 5b01 393d 500a e83b 7de2 2a3c
00000060: 03ea 02bc 2264 5ebc 24db fcbb cde2 ddbc
00000070: 0b4f e7bc fe76 e2bb 100e 81bc 50bf f03c
00000080: 0147 35bd d47f 10bd 71ba 053d 22e7 733c
00000090: 02c7 b03b 9b52 56bc a2aa d2bb 9b47 3a3d
000000a0: f35e 32bd 1ae0 47bc 652f a43c 104b 3a3c
000000b0: 7bbb f73b d761 10bd a93e bbbc 5838 a03c
000000c0: 686d 8cbc 1bff 8b3c b065 b73c 4aa7 d1bc
000000d0: 4897 1ebc 1f4f 1bbd eea5 cebc fd60 443c
000000e0: c5e9 303b 550e f8bc ae42 6c3c 9136 1abd
000000f0: 6a71 73bc 6077 22bc 35b4 aebb a161 a33c
00000100: 2756 453c 6b22 94bc 1756 52bc 348c d1bc
00000110: 33bb 23bd 4bb1 873c 6569 02bd ea1e 073d
00000120: 42c7 353d 0708 0bbc 2bc8 fcbc 4fd7 05bd
00000130: 554a 65bd 8cac 543c 386a 3fbc 25fe 89bc
00000140: c494 d4bc cdad ecbc 0d88 fcbc f36b 153d
00000150: 1dc5 853c cf73 0fbb e604 ecbc e42e 9b3c
00000160: 3a3e 083d 944e 193d 2b5f 893c fce5 6bbb
00000170: 8a0d b83c 5f12 a33c 7904 2bbc ccec 0cbd
00000180: d34f 96bc 7c71 febb 90ea 1e3d 878a b83a
00000190: ae36 193d b304 bb3c 4920 e23c dc79 363d
000001a0: 2732 4bbc 45d9 183d 907c 3b3d c227 253d
000001b0: e4a4 723c a874 313c 2cb6 913b b742 713c
000001c0: ba78 79bb bb2c 4d3c bf26 c03c 7396 7abc
000001d0: 72b4 343c c394 bdbc 7908 09bb 57b6 02bb
000001e0: db1c eabc fc20 3937 c77f 333c 4782 853a
000001f0: f890 8abb 0866 f0bc 4ef6 d43c cc9b d3bc

action_model._continuous_distribution.log_sigma f4 [1, 2]
-0.051559955 0.01231062
00000000: 8830 53bd 7cb2 493c

action_model._continuous_distribution.mu.weight f4 [2, 128]
0.015616823 0.052516356 0.03753741 0.05363369 0.03685118 -0.013205927 0.036841787 0.011398113
0.004211738 0.011017324 0.028746543 -0.019012557 -0.015366459 0.02188196 0.019005682 0.0033370573
0.016044462 -0.00803437 -0.01716745 -0.04532302 0.021439133 -0.029705722 -0.030024905 -0.0031895365
0.078824185 -0.0031780615 0.040466204 0.027741054 0.043649644 -0.0018405301 0.025132833 -0.014824645
0.0037050934 0.053427774 -0.025603734 -0.03160376 -0.0004508875 0.035455737 0.06388525 -0.02092434
0.023720702 -0.0023794053 -0.0042811804 0.02040145 -0.03993221 0.01629129 0.021630835 -0.007117181
0.048968956 -0.014669032 -0.02064862 0.019925466 0.02399054 0.030490331 0.0073478837 0.0018065812
0.0042067366 0.047082894 -0.0066402154 0.011328131 0.031446103 0.0036434666 -0.017351415 0.013367401
-0.007963519 0.011775843 0.024472907 0.045215797 0.018339727 -0.023834024 0.026802821 -0.025382804
-0.0062665846 0.0036667208 0.039820123 0.024728924 0.01049124 -0.008115243 0.023141898 0.07208675
0.011617199 0.009802665 0.017070435 -0.040099096 -0.020699173 0.012045714 0.044483513 -0.025418483
-0.036711294 -0.04033074 -0.06504704 0.0056544775 -0.019496754 0.04860236 0.0067735706 0.025770374
0.030788705 -0.004446255 -0.021173166 0.0015179479 -0.019570965 -0.022187922 -0.026967414 -0.032663718
0.04230822 -0.040799852 -0.027258031 -0.032898597 0.037580565 -0.012137086 0.022222849 -0.044629015
0.0039138296 -0.024349578 -0.020032404 -0.013346674 0.0008345687 0.03552211 -0.0035692444 -0.0037603243
0.002636718 -0.011137941 -0.0279249 -0.010926725 0.0028248336 0.0031413888 0.0036861845 0.017162973
0.010513427 0.03193752 -0.024658628 0.046656884 0.017320596 -0.06970824 0.020125711 -0.043399036
-0.0017007503 0.011569365 -0.009983905 -0.05322139 -0.027322292 0.005329654 0.011837464 0.0007258186
-0.023325153 -0.04016811 -0.029594786 -0.017586663 -0.052681137 -0.029317455 0.0060650636 0.035152942
-0.012160718 -0.001070721 0.033245925 -0.014926694 0.022483537 0.0064246138 -0.010617924 -0.03028177
-0.003937036 -0.0071823034 -0.041042816 0.051012266 0.0347675 0.020679468 0.027045395 -0.0495928
0.013179904 0.0227421 -0.019839305 -0.03426085 0.04050554 -0.00807898 0.032165408 0.06565634
-0.0069784205 0.035993904 0.052773587 0.020753201 0.028941547 0.009432187 0.037152812 -0.028488
-0.01971908 0.015296103 0.031886898 0.021365985 -0.012961906 0.04172461 -0.0094698155 -0.02986323
-0.02302818 0.027226467 -0.007857856 0.030563021 0.017371615 -0.013355076 0.00084453 -0.02934316
-0.06098454 0.04885516 0.016724024 0.016400332 0.009208414 0.038796958 0.03264106 0.03431406
0.031010065 0.028942872 0.028164878 -0.026777115 0.052359696 -0.016527956 0.0006520321 -0.0018449194
-0.017630484 -0.04126883 -0.01286611 -0.008971714 -0.023903677 -0.061168715 0.055409443 0.017078452
0.0024244704 -0.0046438635 -0.049421098 -0.016627753 -0.040902168 -0.017256975 -0.011116127 -0.037160773
0.026415665 -0.034763638 0.0047690994 -0.025174148 0.017137906 -0.009032049 -0.04163225 0.009455228
0.037696134 0.016730495 -0.028876502 0.038011003 -0.007904224 0.030995287 -0.012434402 0.046307925
0.02237318 0.0027267695 0.036238052 0.014564642 0.03336102 0.019748766 -0.06998842 -0.014221381
00000000: b4dd 7f3c 641b 573d d4c0 193d 00af 5b3d
00000010: 43f1 163d ac5d 58bc 6ae7 163d 27bf 3a3c
00000020: 9e02 8a3b 0282 343c df7d eb3c 39c0 9bbc
00000030: 9ac3 7bbc cc41 b33c ceb1 9b3c 88b2 5a3b
00000040: ad6f 833c 97a2 03bc c1a2 8cbc a2a4 39bd
00000050: 1fa1 af3c 6a59 f3bc caf6 f5bc 8b07 51bb
00000060: 936e a13d 0647 50bb e4bf 253d 3541 e33c
00000070: f8c9 323d f13d f1ba 5fe3 cd3c 11e3 72bc
00000080: 27d1 723b 15d7 5a3d ecbe d1bc f272 01bd
00000090: 1965 ecb9 093a 113d 45d6 823d 8569 abbc
000000a0: eb51 c23c ccef 1bbb 2549 8cbb f120 a73c
000000b0: f58f 23bd 5075 853c 2633 b13c 3e37 e9bb
000000c0: ac93 483d 6156 70bc 4b27 a9bc bb3a a33c
000000d0: cf87 c43c dcc6 f93c 84c6 f03b ceca ec3a
000000e0: aad8 893b fed9 403d 2a96 d9bb a099 393c
000000f0: a1cd 003d 3ac7 6e3b 8e24 8ebc f202 5b3c
00000100: 6b79 02bc 77ef 403c 687b c83c 3334 393d
00000110: 323d 963c 923f c3bc 9791 db3c 99ef cfbc
00000120: ec57 cdbb 5e4d 703b 6d1a 233d 5094 ca3c
00000130: 73e3 2b3c ccf5 04bc 1494 bd3c 38a2 933d
00000140: 1056 3e3c 5b9b 203c 4cd7 8b3c f33e 24bd
00000150: 5091 a9bc 635b 453c 5834 363d 6c3a d0bc
00000160: 955e 16bd d931 25bd 6237 85bd 3249 b93b
00000170: a8b7 9fbc 4513 473d d4f4 dd3b 641c d33c
00000180: 9838 fc3c e4b1 91bb 5973 adbc e1f5 c63a
00000190: 4a53 a0bc 72c3 b5bc c4ea dcbc 64ca 05bd
000001a0: 624b 2d3d bf1d 27bd 3c4c dfbc aec0 06bd
000001b0: 14ee 193d a1da 46bc b10c b63c eacc 36bd
000001c0: 953f 803b c478 c7bc ff1a a4bc 02ac 5abc
000001d0: f5c6 5a3a a27f 113d fce9 69bb c66f 76bb
000001e0: cacc 2c3b e97b 36bc c3c2 e4bc 0206 33bc
000001f0: d820 393b c2df 4d3b ea93 713b 5d99 8c3c
00000200: 8240 2c3c ebd0 023d e400 cabc 4a1b 3f3d
00000210: ece3 8d3c 32c3 8ebd adde a43c 30c3 31bd
00000220: b6eb deba 6f8d 3d3c 8893 23bc acfe 59bd
00000230: 00d3 dfbc 61a4 ae3b ecf1 413c dd44 3e3a
00000240: 6414 bfbc 5187 24bd c470 f2bc e811 90bc
00000250: 2dc8 57bd 292b f0bc 71bd c63b 88fc 0f3d
00000260: c03d 47bc 6f57 8cba e12c 083d 188f 74bc
00000270: 652f b83c 9185 d23b cdf6 2dbc 7911 f8bc
00000280: 4002 81bb 8759 ebbb 831c 28bd 3df2 503d
00000290: 5e68 0e3d fd67 a93c 4e8e dd3c d221 4bbd
000002a0: 86f0 573c a44d ba3c 0a86 a2bc 1b55 0cbd
000002b0: 23e9 253d b35d 04bc e0bf 033d d576 863d
000002c0: 3cab e4bb 586e 133d 1e29 583d 9e02 aa3c
000002d0: d316 ed3c 7689 1a3c 8c2d 183d ab5f e9bc
000002e0: e889 a1bc 829c 7a3c d69b 023d b807 af3c
000002f0: 2d5e 54bc 6de7 2a3d 4927 1bbc bca3 f4bc
00000300: 98a5 bcbc 0a0a df3c 3dbe 00bc 4d5f fa3c
00000310: eb4e 8e3c 40cf 5abc 7363 5d3a 1161 f0bc
00000320: edca 79bd 591c 483d d200 893c fd59 863c
00000330: e3de 163c 8fe9 1e3d a2b2 053d e68c 0c3d
00000340: d208 fe3c 9a19 ed3c 08ba e63c ae5b dbbc
00000350: 1f77 563d a365 87bc 22ed 2a3a 39d1 f1ba
00000360: ce6d 90bc 8109 29bd 60cc 52bc 19fe 12bc
00000370: a5d1 c3bc 0c8c 7abd 03f5 623d 1ce8 8b3c
00000380: dde3 1e3b 8d2b 98bb c76d 4abd ed36 88bc
00000390: 0889 27bd 805e 8dbc 6a20 36bc e535 18bd
000003a0: aa65 d83c 5164 0ebd 1b46 9c3b 043a cebc
000003b0: cb64 8c3c 29fb 13bc 9486 2abd 1aea 1a3c
000003c0: 4367 1a3d 640e 893c 6a8e ecbc 6db1 1b3d
000003d0: b880 01bc d4e9 fd3c a9b9 4bbc 61ad 3d3d
000003e0: f647 b73c 9ab3 323b 5a6e 143d 89a0 6e3c
000003f0: 91a5 083d 2ac8 a13c 1756 8fbd cc00 69bc

action_model._continuous_distribution.mu.bias f4 [2]
-0.030131096 -0.01769352
00000000: 7dd5 f6bc 00f2 90bc

exp_avg f4 [128, 8]
0.00488496 0.0013182055 0.009227308 0.01403906 0.000104017105 0.0032825398 0.0026978734 0.0005968927
-0.004914401 -0.00066593423 -0.004701544 -0.009501324 0.00014981412 -0.0019705244 -0.0018411452 -0.00037036065
-0.002152936 -0.00058057817 -0.004064481 -0.006192274 -5.5290835e-05 -0.00142607 -0.0011447986 -0.00025680297
0.010994934 0.002930456 0.020511251 0.0312624 0.00018284583 0.007330443 0.0061513106 0.0013426938
0.0058017946 0.0015615644 0.010928694 0.01670354 9.998301e-05 0.0037861273 0.0030038322 0.0006811932
9.8389944e-05 2.1178463e-05 0.00015317048 0.00012079268 1.5964339e-05 2.2968898e-05 2.5010315e-05 -1.8573822e-06
-0.00016091613 -0.00042758265 -0.0029672626 -0.0029362165 -0.00013831707 -0.0008763445 -0.0006975871 -0.00014207314
-0.00015805404 -9.8173405e-06 -7.0870294e-05 -0.00020893925 1.0408224e-05 -2.6439227e-05 -3.3657925e-05 1.7716161e-06
0.0022876135 -0.00025299974 -0.0017179039 0.00052937487 -0.00029123388 -0.00021425534 0.0001194527 -3.4256554e-05
0.0034208973 0.0010465193 0.007316521 0.010731849 0.000100971694 0.0025410992 0.0020754167 0.0004651301
0.0058703823 0.0017340963 0.0121274805 0.017794292 0.0001686326 0.004274449 0.0035186105 0.00077398913
0.008152001 0.0021543996 0.015081119 0.02339083 8.636278e-05 0.00542922 0.004604934 0.0010131947
0.0003279394 -0.000108299195 -0.000744966 -0.0004257081 -6.7684e-05 -0.00018603847 -8.6534164e-05 -3.5408968e-05
-0.0067286994 -0.0024241826 -0.016933706 -0.024547495 -0.00025663822 -0.0057959645 -0.004520467 -0.0011219662
0.00013811546 -3.0196443e-06 -1.49707885e-05 9.118831e-05 -3.9016736e-06 -2.6268071e-06 1.4335739e-05 6.762674e-06
-0.0025018575 -0.0007032067 -0.004920454 -0.0077692806 2.9309664e-05 -0.001869746 -0.0017584736 -0.00038280778
-6.4555934e-05 -4.2732827e-05 -0.000297698 -0.0003479871 -5.594937e-06 -0.00011060809 -0.000102917955 -2.4440968e-05
-0.0058241594 -0.001265776 -0.008877845 -0.014812217 7.042642e-05 -0.0033258938 -0.0028921305 -0.0006328681
8.723201e-05 -4.088525e-05 -0.00028243609 -0.00024578845 -1.3314686e-05 -7.650836e-05 -5.0746414e-05 -1.0236165e-05
0.001464968 -6.0289385e-06 -1.9916915e-05 0.0013883787 -0.00012712943 0.00016345333 0.00027662967 2.4087303e-05
0.00022223145 -1.5072075e-05 -0.0001026267 8.517736e-05 -1.8420094e-05 -8.787228e-06 2.7333337e-05 3.2992962e-06
-0.00024059786 -2.174358e-05 -0.00015495381 -0.0005762568 7.565299e-05 -0.0001574075 -0.00025056233 -4.8375594e-05
-0.0018723067 -0.0006290077 -0.004394763 -0.0058740266 -7.135508e-05 -0.0014898629 -0.001288846 -0.00025637093
8.450297e-05 0.00012009256 0.00083440635 0.00091096864 3.9506584e-05 0.00024497145 0.00017416955 4.5170753e-05
0.00087269925 0.00024172681 0.0016908868 0.002498142 2.0703774e-05 0.0005961209 0.00050887617 0.00010602132
-0.0010391646 0.00029231695 0.0020092814 0.0010076622 0.000194713 0.00045121234 0.00019201805 8.162054e-05
0.0057812342 0.0019012254 0.0132826 0.018410347 0.0002938338 0.004498121 0.0036378 0.00077090383
0.009181429 0.0026041965 0.018217718 0.027060296 0.00023163701 0.006362548 0.0052033574 0.0011486553
-0.0055401986 -0.0021645697 -0.015112055 -0.021218413 -0.00029601186 -0.005120981 -0.0039652474 -0.0009810637
0.008213453 0.0020402526 0.014289545 0.022047663 0.000113532384 0.0051292237 0.0043761255 0.00091402646
0.00014776671 7.323255e-05 0.0005103898 0.00057094276 1.750686e-05 0.00013896357 3.7961072e-05 1.8986333e-05
-0.0014047546 -0.00011194145 -0.00079987664 -0.0022850498 8.417195e-05 -0.00040825875 -0.0005734477 -6.5762746e-05
00000000: 0412 a03b a3c7 ac3a 232e 173c 1604 663c
00000010: c223 da38 e11f 573b cece 303b cb78 1c3a
00000020: fc08 a1bb 1792 2eba 690f 9abb 71ab 1bbc
00000030: 6c17 1d39 ea23 01bb 9552 f1ba f72c c2b9
00000040: 4618 0dbb f131 18ba 562f 85bb 8fe8 cabb
00000050: 15e8 67b8 f8ea baba 110d 96ba 83a3 86b9
00000060: 1824 343c e50c 403b 3607 a83c 010d 003d
00000070: 4eba 3f39 3634 f03b ef90 c93b 54fd af3a
00000080: fb1c be3b 68ad cc3a 440e 333c ddd5 883c
00000090: f8ad d138 ad20 783b f1db 443b 1a92 323a
000000a0: b356 ce38 67a8 b137 639c 2039 1452 fd38
000000b0: 28eb 8537 55ad c037 3ecd d137 2b4b f9b5
000000c0: 98bb 28b9 2c2d e0b9 6876 42bb 8a6d 40bb
000000d0: 3509 11b9 7cba 65ba 47de 36ba 78f9 14b9
000000e0: 4fbb 25b9 28b5 24b7 33a0 94b8 b416 5bb9
000000f0: fb9e 2e37 cfc9 ddb7 ec2b 0db8 44c8 ed35
00000100: c9eb 153b 0da5 84b9 4a2b e1ba bfc5 0a3a
00000110: c0b0 98b9 bba9 60b9 ae82 fa38 b2ae 0fb8
00000120: 2231 603b 5c2b 893a 6dbf ef3b a3d4 2f3c
00000130: c4c0 d338 9288 263b b703 083b b5dc f339
00000140: 565c c03b 9e4a e33a 57b2 463c 56c5 913c
00000150: f8d2 3039 ad10 8c3b 7d98 663b 88e5 4a3a
00000160: f88f 053c d430 0d3b cc16 773c 209e bf3c
00000170: aa1d b538 99e7 b13b fce4 963b 2ccd 843a
00000180: 48ef ab39 b01e e3b8 d249 43ba 9331 dfb9
00000190: 92f1 8db8 5213 43b9 ad79 b5b8 1784 14b8
000001a0: 6c7c dcbb 09df 1ebb 8eb8 8abc d417 c9bc
000001b0: 668d 86b9 13ec bdbb 6d20 94bb f00e 93ba
000001c0: 16d3 1039 18a5 4ab6 0c2b 7bb7 5a3c bf38
000001d0: 1feb 82b6 3448 30b6 8883 7037 edea e236
000001e0: 34f6 23bb 6757 38ba c33b a1bb 7395 febb
000001f0: 06de f537 4412 f5ba 957c e6ba 97b3 c8b9
00000200: 3462 87b8 063c 33b8 5914 9cb9 0a72 b6b9
00000210: 25bc bbb6 44f6 e7b8 a8d5 d7b8 9406 cdb7
00000220: 97d8 bebb 65e8 a5ba 6174 11bc f1ae 72bc
00000230: e5b1 9338 3df7 59bb e689 3dbb 0fe7 25ba
00000240: 54f0 b638 347c 2bb8 ee13 94b9 2bdd 80b9
00000250: 2462 5fb7 1d73 a0b8 8cd8 54b8 febb 2bb7
00000260: 2b04 c03a 304c cab6 4013 a7b7 42fa b53a
00000270: 0c4e 05b9 ab64 2b39 9b08 9139 170f ca37
00000280: cd06 6939 12de 7cb7 4a39 d7b8 3fa1 b238
00000290: da84 9ab7 db6c 13b7 e549 e537 7a69 5d36
000002a0: ff48 7cb9 fc65 b6b7 197b 22b9 f00f 17ba
000002b0: e4a7 9e38 c10d 25b9 e85d 83b9 e6e6 4ab8
000002c0: 3068 f5ba fee3 24ba f201 90bb e87a c0bb
000002d0: 78a4 95b8 8147 c3ba 7fee a8ba 8669 86b9
000002e0: 3037 b138 34da fb38 10bc 5a3a 12ce 6e3a
000002f0: dfb3 2538 836f 8039 48a1 3639 ba75 3d38
00000300: dbc5 643a 0c78 7d39 bfa0 dd3a deb7 233b
00000310: 04ad ad37 ff44 1c3a 1a66 053a c357 de38
00000320: 9434 88ba 1e42 9939 26ae 033b 8813 843a
00000330: df2b 4c39 b290 ec39 7458 4939 b22b ab38
00000340: 8270 bd3b 8a32 f93a 439f 593c 4cd1 963c
00000350: b40d 9a39 f964 933b 2868 6e3b 7b16 4a3a
00000360: b46d 163c 2bab 2a3b 533d 953c 8ead dd3c
00000370: 96e3 7239 ec7c d03b ed80 aa3b 7a8e 963a
00000380: 8e8a b5bb 74db 0dbb 8e98 77bc 3dd2 adbc
00000390: 0a32 9bb9 e7cd a7bb e8ee 81bb 0997 80ba
000003a0: b891 063c c2b5 053b b21e 6a3c 4d9d b43c
000003b0: 3c18 ee38 0c13 a83b 9a65 8f3b 479b 6f3a
000003c0: d3f1 1a39 6d94 9938 aecb 053a 52ab 153a
000003d0: b2db 9237 c0b6 1139 6438 1f38 d744 9f37
000003e0: be1f b8ba 1cc2 eab8 d0ae 51ba c6c0 15bb
000003f0: 7985 b038 900b d6b9 6c53 16ba 1bea 89b8

exp_avg_sq f4 [128, 8]
9.187121e-05 5.4179013e-06 0.00014820966 0.00014617306 5.092579e-06 2.347266e-05 2.5444947e-06 1.8735604e-06
2.4922712e-05 2.0640896e-06 6.233703e-05 6.632385e-05 1.8949708e-06 3.66801e-05 1.2842869e-06 1.0312685e-06
8.477734e-05 4.787649e-06 9.6527874e-05 0.00010265965 4.6230157e-06 0.00011023043 2.3486282e-06 2.6080515e-06
0.0001630636 1.1736112e-05 0.00038458497 0.0004092764 1.0436571e-05 4.637321e-05 9.18512e-06 2.174375e-06
4.0319148e-05 3.5862963e-06 0.00013035473 0.0001856481 2.764715e-06 3.8128688e-05 4.179002e-06 1.024174e-06
6.969476e-05 4.956156e-06 0.00011730341 0.000119076634 4.8568136e-06 0.000111296016 1.7440822e-06 2.5525408e-06
3.8603575e-05 3.2600512e-06 8.114627e-05 4.6074885e-05 3.205657e-06 3.4675657e-05 6.4948756e-07 8.3482047e-07
1.9221827e-05 1.0313944e-06 2.714482e-05 3.278128e-05 9.977815e-07 3.3931316e-05 6.245561e-07 7.3615706e-07
7.1088805e-05 4.6937157e-06 0.00013383414 0.000103238846 4.6110167e-06 8.0854144e-05 1.4804509e-06 1.6930198e-06
1.0931021e-05 1.0481095e-06 3.527936e-05 4.196071e-05 8.825174e-07 1.3280263e-05 1.0102841e-06 2.987302e-07
9.299153e-05 7.682547e-06 0.00026063755 0.00020709503 7.2863936e-06 2.7004036e-05 3.436935e-06 3.600182e-07
6.0313738e-05 3.5085868e-06 0.00011654594 0.00018095857 2.7038257e-06 4.5106495e-05 5.0890276e-06 1.1841851e-06
1.4510181e-05 8.0555856e-07 2.3416755e-05 2.2354956e-05 7.891877e-07 1.7040113e-05 2.9107477e-07 3.2406143e-07
0.0001209956 1.13374035e-05 0.00041581885 0.00043496027 9.9511035e-06 4.2854037e-05 8.202935e-06 6.5811423e-07
1.3982226e-05 1.1745148e-06 3.9846647e-05 3.234389e-05 1.1488404e-06 2.2772769e-05 3.570437e-07 6.6310946e-07
6.861753e-05 5.7398593e-06 0.00015467472 0.00010656622 5.515486e-06 0.00010219876 2.1052117e-06 2.9630637e-06
5.6965717e-05 3.9966353e-06 8.784747e-05 6.001013e-05 3.9227266e-06 0.00014680375 1.6823205e-06 3.439371e-06
2.20536e-05 1.9329284e-06 6.7505534e-05 7.543713e-05 1.5988683e-06 1.5300227e-05 1.9601634e-06 3.5294596e-07
3.946972e-05 2.452054e-06 6.341267e-05 0.000105046915 2.3534822e-06 6.5456e-05 1.3023489e-06 1.2555136e-06
2.9398421e-05 2.5079016e-06 7.2449e-05 7.282874e-05 2.415107e-06 4.260699e-05 8.563865e-07 8.546498e-07
0.00016844833 9.829046e-06 0.00026907976 0.00031170712 9.534486e-06 0.00027167206 4.812703e-06 5.671079e-06
1.699853e-05 1.6171941e-06 3.843473e-05 4.300131e-05 1.5102215e-06 3.9936196e-05 6.333194e-07 1.119066e-06
1.790287e-05 1.8291788e-06 6.200006e-05 4.7128422e-05 1.7890056e-06 7.738169e-06 6.4594514e-07 4.5693938e-07
1.0484361e-05 5.260057e-07 1.4077071e-05 8.656468e-06 5.123312e-07 1.2437754e-05 1.7264826e-07 2.7864533e-07
5.880433e-05 4.3203077e-06 7.882182e-05 4.0375635e-05 4.2544834e-06 9.4077936e-05 1.2313066e-06 2.7234028e-06
6.724488e-06 5.69245e-07 1.8578306e-05 9.8176615e-06 5.609117e-07 3.4928864e-06 9.6306145e-08 6.9017695e-08
7.5483316e-05 6.391893e-06 0.00022251553 0.00017679366 5.940531e-06 2.5908641e-05 3.3019364e-06 1.4443431e-06
8.107347e-05 5.9940357e-06 0.000222447 0.00026789878 4.903296e-06 2.1077853e-05 6.7572837e-06 5.681694e-07
7.374971e-05 7.31271e-06 0.00025683 0.00027815683 6.3677708e-06 4.1581712e-05 5.076991e-06 5.686138e-07
5.897076e-05 5.3393587e-06 0.00018614966 0.00020460787 4.7091357e-06 2.8286977e-05 4.2998236e-06 1.4477794e-06
2.6140555e-05 2.295439e-06 5.9890528e-05 3.1588e-05 2.2103845e-06 3.9197563e-05 6.0240467e-07 1.040084e-06
3.8348673e-05 3.0141248e-06 8.336372e-05 5.1419705e-05 2.9358582e-06 1.4474595e-05 6.2182056e-07 4.4389242e-07
00000000: fbaa c038 6bcb b536 ba68 1b39 0846 1939
00000010: ece0 aa36 27e7 c437 16c2 2a36 0c77 fb35
00000020: 1e11 d137 ca84 0a36 f0ba 8238 5917 8b38
00000030: b356 fe35 f5d8 1938 c35f ac35 1e6a 8a35
00000040: 7dca b138 97a5 a036 026f ca38 fb4a d738
00000050: 671f 9b36 832b e738 209d 1d36 fc05 2f36
00000060: 0dfc 2a39 38e6 4437 1fa2 c939 2694 d639
00000070: bb18 2f37 db80 4238 ca19 1a37 7aeb 1136
00000080: 5b1c 2938 1aac 7036 d5af 0839 88aa 4239
00000090: 7189 3936 5eec 1f38 5b39 8c36 5a76 8935
000000a0: 1729 9238 0e4d a636 ca00 f638 c8b8 f938
000000b0: b6f7 a236 9867 e938 3516 ea35 514c 2b36
000000c0: 46ea 2138 41c7 5a36 122d aa38 8840 4138
000000d0: c520 5736 b470 1138 7258 2e35 6d18 6035
000000e0: 8f3e a137 716e 8a35 0fb5 e337 a27e 0938
000000f0: 83eb 8535 7951 0e38 2ba7 2735 549c 4535
00000100: 8315 9538 b67e 9d36 d455 0c39 ef81 d838
00000110: 55b8 9a36 3d90 a938 e8b3 c635 b83b e335
00000120: 6164 3737 c5ac 8c35 edf8 1338 f8fe 2f38
00000130: 22e6 6c35 4cce 5e37 1999 8735 2b61 a034
00000140: 7304 c338 4ae4 0037 2ea6 8839 a627 5939
00000150: a57d f436 ba86 e237 18a6 6636 8648 c134
00000160: 62f9 7c38 1075 6b36 206a f438 b2bf 3d39
00000170: 5f73 3536 bb30 3d38 6ac2 aa36 4af0 9e35
00000180: c170 7337 903d 5835 196f c437 e786 bb37
00000190: 91d8 5335 5df1 8e37 0345 9c34 aafa ad34
000001a0: 05bf fd38 c735 3e37 4302 da39 610b e439
000001b0: aaf3 2637 2cbe 3338 569f 0937 44a9 3035
000001c0: 3495 6a37 05a4 9d35 0321 2738 fda8 0738
000001d0: db31 9a35 2608 bf37 b6af bf34 8900 3235
000001e0: c2e6 8f38 0499 c036 2e30 2239 4e7c df38
000001f0: aa11 b936 8b53 d638 4347 0d36 0cd9 4636
00000200: 79ee 6e38 d61a 8636 c03a b838 63b3 7b38
00000210: f79f 8336 55ef 1939 18cc e135 f2cf 6636
00000220: bfff b837 75b7 0136 c291 8d38 0034 9e38
00000230: b298 d635 fd58 8037 5a8b 0336 867c bd34
00000240: 4a8c 2538 f88d 2436 6bfc 8438 a24c dc38
00000250: 84f0 1d36 6c45 8938 5ecc ae35 1e83 a835
00000260: a19c f637 6c4d 2836 c3ef 9738 a2bb 9838
00000270: 3913 2236 e8b4 3238 6fe2 6535 166b 6535
00000280: 81a1 3039 6ee7 2437 4613 8d39 9f6c a339
00000290: 4ef6 1f37 356f 8e39 ce7c a136 334a be36
000002a0: 1198 8e37 5e0e d935 fa34 2138 4e5c 3438
000002b0: d1b2 ca35 2a81 2738 6101 2a35 d132 9635
000002c0: 1f2e 9637 1b82 f535 0706 8238 c2ab 4538
000002d0: c41d f035 2fd3 0137 0365 2d35 4551 f534
000002e0: fde5 2f37 d632 0d35 8f2c 6c37 3f3b 1137
000002f0: 2287 0935 bfab 5037 3161 3934 b998 9534
00000300: aba4 7638 29f7 9036 244d a538 0259 2938
00000310: bcc1 8e36 b54b c538 5f43 a535 b4c3 3636
00000320: e9a2 e136 38ce 1835 9cd8 9b37 89b6 2437
00000330: 8f91 1635 5567 6a36 ddd0 ce33 e136 9433
00000340: cc4c 9e38 f179 d636 0f53 6939 b061 3939
00000350: c654 c736 6256 d937 d696 5d36 40db c135
00000360: fd05 aa38 6020 c936 a940 6939 c474 8c39
00000370: fe86 a436 58d0 b037 a0bc e236 4e84 1835
00000380: 13aa 9a38 b35f f536 24a7 8639 94d5 9139
00000390: bcaa d536 0668 2e38 055b aa36 d8a2 1835
000003a0: 5f57 7738 be28 b336 2b31 4339 028c 5639
000003b0: 2b03 9e36 d249 ed37 3447 9036 5251 c235
000003c0: 6a48 db37 570b 1a36 f732 7b38 5b7d 0438
000003d0: 1e56 1436 1068 2438 efb4 2135 0499 8b35
000003e0: 93d8 2038 4546 4a36 8ed3 ae38 7dab 5738
000003f0: a905 4536 ead7 7237 2feb 2635 1c50 ee34

exp_avg f4 [128]
0.0026364103 -0.0013318681 -0.0011611559 0.0058609108 0.003123128 4.2356918e-05 -0.0008551653 -1.9634666e-05
-0.00050599966 0.002093038 0.003468192 0.0043087984 -0.00021659836 -0.004848364 -6.0392904e-06 -0.0014064132
-8.54656e-05 -0.0025315515 -8.1770486e-05 -1.2057979e-05 -3.0144154e-05 -4.3487176e-05 -0.0012580149 0.0002401851
0.00048345354 0.0005846339 0.00380245 0.0052083917 -0.004329139 0.004080504 0.00014646508 -0.00022388276
-0.0011652627 0.0033366857 0.0052493447 0.0031733322 -0.0028677 0.0017603671 0.0020531558 0.00021410716
0.00021187459 8.088585e-05 -0.0007339115 -0.00029291527 0.0016932727 0.0014422534 0.00024577574 -0.00068393676
0.00048310397 -0.0023940168 0.00015669342 0.00024064389 -0.001068797 0.0002444752 -5.633751e-05 -0.00034581995
0.00024714478 0.0021164427 -0.0009926378 0.000118792406 0.00042497687 -0.0015511601 -0.00036707346 0.0010229377
-0.00014289995 5.2927637e-05 -0.00045037345 6.870841e-05 -0.0006904835 -0.00068217196 -4.9064627e-05 0.00020315041
-0.0010570252 0.0003615289 2.5552945e-05 0.0030843872 0.0010414433 0.0031365154 0.00029067675 0.0057173315
0.0013425556 0.0035057303 -0.00065339694 -0.0004946027 0.00043519633 0.0027958052 0.00026995785 -0.00061513315
0.00016945369 0.00032979398 -0.00023772486 0.00011940484 -3.1208518e-05 0.004143925 0.00015183943 -4.926348e-05
0.0019689868 0.000395247 9.739523e-05 0.0036308924 0.00024350532 7.814741e-05 0.0003476165 0.0001685415
0.0018822709 -0.0004203256 0.0041825715 0.0016715573 -7.755712e-05 -0.00038750056 0.0015249208 -9.3501934e-05
0.00078493124 0.0020271523 -7.83528e-05 9.4194824e-05 3.40093e-05 0.00092304894 0.005301076 -0.00014129901
0.0002754891 -0.0016673037 0.000100384874 -0.00096809654 0.0006755015 0.003908558 -0.0017947785 0.0033744792
00000000: a0c7 2c3b 1492 aeba ed31 98ba e20c c03b
00000010: 65ad 4c3b 65a8 3138 2c2d 60ba 20b5 a4b7
00000020: 10a5 04ba 5a2b 093b 9b4a 633b d230 8d3b
00000030: ae1e 63b9 06df 9ebb 1ca5 cab6 6557 b8ba
00000040: ff3b b3b8 63e8 25bb 327c abb8 a04c 4ab7
00000050: 14de fcb7 0066 36b8 fae3 a4ba 32da 7b39
00000060: 0978 fd39 1e42 193a 8632 793b 28ab aa3b
00000070: 73db 8dbb c0b5 853b 6c94 1939 12c2 6ab9
00000080: babb 98ba 4cac 5a3b b202 ac3b aef7 4f3b
00000090: 06f0 3bbb 1ebc e63a 3d8e 063b f481 6039
000000a0: a72a 5e39 43a1 a938 f863 40ba 6c92 99b9
000000b0: cef0 dd3a fe09 bd3a 76db 8039 384a 33ba
000000c0: 1e49 fd39 f0e4 1cbb 124e 2439 5a55 7c39
000000d0: e016 8cba e82c 8039 f14b 6cb8 2b4f b5b9
000000e0: 3693 8139 04b4 0a3b 661b 82ba 3020 f938
000000f0: 6ecf de39 4c50 cbba c473 c0b9 1814 863a
00000100: 6ad7 15b9 9efe 5d38 1a20 ecb9 8c17 9038
00000110: 9001 35ba c9d3 32ba beca 4db8 c604 5539
00000120: e18b 8aba 968b bd39 885a d637 6e23 4a3b
00000130: 0a81 883a ff8d 4d3b f965 9839 7458 bb3b
00000140: b1f8 af3a 65c0 653b ba48 2bba 3aa8 01ba
00000150: 102b e439 d439 373b 2189 8d39 e340 21ba
00000160: 61af 3139 33e8 ac39 c845 79b9 fc68 fa38
00000170: e4e5 02b8 c3c9 873b 1637 1f39 42a0 4eb8
00000180: 1e0a 013b 2839 cf39 aa40 cc38 44f4 6d3b
00000190: 7655 7f39 12e3 a338 4c40 b639 84ba 3039
000001a0: 88b6 f63a 265f dcb9 f40d 893b 2818 db3a
000001b0: 29a6 a2b8 7229 cbb9 dadf c73a 7816 c4b8
000001c0: d8c3 4d3a f9d9 043b 5751 a4b8 768a c538
000001d0: 35a5 0e38 c4f8 713a a6b4 ad3b aa29 14b9
000001e0: 856f 9039 6e89 daba b885 d238 dcc7 7dba
000001f0: 2314 313a 5c13 803b c63e ebba 5e26 5d3b

exp_avg_sq f4 [128]
2.1597756e-05 8.241305e-06 1.9125184e-05 4.6881458e-05 1.4344336e-05 1.9819367e-05 1.302596e-05 4.12246e-06
1.8738507e-05 4.181232e-06 3.0684954e-05 1.402712e-05 3.2126793e-06 4.5326386e-05 4.6950054e-06 2.2946644e-05
1.59754e-05 7.718538e-06 9.8002265e-06 1.002156e-05 3.9285256e-05 6.465079e-06 7.308273e-06 2.0984942e-06
1.7267697e-05 2.2735792e-06 2.552841e-05 2.3965107e-05 2.9212337e-05 2.1340957e-05 9.1758775e-06 1.2046944e-05
4.435576e-06 1.352117e-05 5.3134547e-05 8.59914e-06 2.8867127e-05 5.8242513e-06 3.5873547e-06 2.3055547e-06
7.071443e-06 2.290649e-05 5.6271138e-06 1.165603e-05 1.1656556e-05 6.8491872e-06 1.3166467e-05 2.5389803e-05
1.4349262e-05 4.174744e-05 7.1266436e-06 3.353902e-06 1.3138799e-05 2.2582957e-05 1.3976487e-05 1.5783471e-05
1.4533945e-06 4.2784063e-06 1.15094845e-05 7.565639e-06 3.3079566e-05 1.21402045e-05 2.9226701e-05 6.1615387e-06
1.7973016e-05 1.1441376e-05 3.0749452e-05 1.1714274e-05 5.635358e-06 4.5599404e-06 6.009052e-06 1.9168792e-06
3.547119e-06 3.304759e-06 1.9061875e-06 1.2872127e-05 2.7824376e-06 1.3547694e-05 3.8341204e-06 4.1003215e-05
1.117238e-05 1.622342e-05 2.2680266e-05 6.1202654e-06 1.7306817e-05 1.5765745e-05 7.673588e-06 3.3254555e-06
3.938583e-06 1.6302338e-05 7.766164e-06 4.4925753e-05 1.735518e-05 2.8174887e-05 6.6990647e-06 1.1696333e-06
7.4134505e-06 5.1549338e-05 1.5015467e-05 1.0875288e-05 1.5255793e-05 6.0464013e-06 3.133613e-05 3.7803e-06
4.9475843e-06 4.2173865e-06 3.8639035e-05 4.534803e-05 1.8617078e-05 2.5014851e-06 1.0296372e-05 5.5343594e-06
2.1257356e-06 1.6989774e-05 6.6870757e-06 2.1116424e-05 1.9848781e-05 1.702756e-05 1.7477443e-05 1.10030105e-05
9.5430905e-06 4.964969e-06 1.5905338e-05 2.331649e-05 2.8824013e-06 2.0653179e-05 1.938234e-05 1.1031025e-05
00000000: d42c b537 2344 0a37 056f a037 95a2 4438
00000010: 74a8 7037 c441 a637 128a 5a37 a953 8a36
00000020: a330 9d37 824c 8c36 b8b3 0038 0656 6b37
00000030: 6999 5736 d61c 3e38 ca89 9d36 8b7d c037
00000040: e902 8637 de7e 0137 a76b 2437 4622 2837
00000050: 39c6 2438 9bee d836 9639 f536 dbd3 0c36
00000060: 19da 9037 cb93 1836 d825 d637 ad08 c937
00000070: 040d f537 5b05 b337 18f2 1937 3b1d 4a37
00000080: 4fd5 9436 fcd8 6237 c9dc 5e38 0645 1037
00000090: af27 f237 f06d c336 49be 7036 21b9 1a36
000000a0: 3c47 ed36 5027 c037 8ad0 bc36 458e 4337
000000b0: 8790 4337 12d2 e536 8ce5 5c37 30fc d437
000000c0: 9cbd 7037 f919 2f38 6721 ef36 9913 6136
000000d0: b66e 5c37 8870 bd37 8e7c 6a37 bf66 8437
000000e0: 4112 c335 3b8f 8f36 dc18 4137 58dc fd36
000000f0: eabe 0a38 c8ad 4b37 dd2b f537 37bf ce36
00000100: c2c4 9637 56f4 3f37 f9f8 0038 6c88 4437
00000110: 5b17 bd36 9701 9936 5da1 c936 bca3 0036
00000120: 0a0b 6e36 54c7 5d36 1bd8 ff35 5df5 5737
00000130: eab9 3a36 e74a 6337 d8a6 8036 defa 2b38
00000140: 0271 3b37 8717 8837 8041 be37 ae5c cd36
00000150: 1b2e 9137 ae40 8437 cfbd 0037 e42a 5f36
00000160: 2c28 8436 01c1 8837 6c4b 0237 a96e 3c38
00000170: f795 9137 1c59 ec37 87c8 e036 4bfc 9c35
00000180: 0ec1 f836 ae36 5838 f1ea 7b37 0275 3637
00000190: 22f3 7f37 31e2 ca36 ea6e 0338 0fb1 7d36
000001a0: 6d03 a636 1383 8d36 5910 2238 1434 3e38
000001b0: df2b 9c37 30df 2736 95be 2c37 c9b3 b936
000001c0: dca7 0e36 4385 8e37 8b61 e036 2d23 b137
000001d0: ef80 a637 68d6 8e37 869c 9237 9299 3837
000001e0: 431b 2037 c298 a636 746c 8537 c897 c337
000001f0: 476f 4136 5d40 ad37 4297 a237 e411 3937
