Assets/ML-Agents/results/sc30/SimpleCollector/SimpleCollector-499921.onnx (onnx, 348415 bytes, 11 tensors)

discrete_act_size_vector f4 [1, 3]
000000 00 00 40 40 00 00 40 40 00 00 00 40
       3.0 3.0 2.0

network_body._body_endoder.seq_layers.0.weight f4 [256, 65]
000000 a3 61 2f bc c5 bd c8 bd 2d 8a 6a bd c6 39 34 3e
       -0.010704431 -0.09801821 -0.05726068 0.17600164
000010 db 02 be 3d 1d 5f 14 be 2d bf c0 bd d0 09 fa 3d
       0.092778884 -0.14489408 -0.09411464 0.12208903
000020 45 0c 52 bd 1b 15 82 3e c2 7a 94 be 61 f4 61 bc
       -0.051281232 0.25406727 -0.28999907 -0.013791175
000030 49 cf b6 bc 40 29 03 3e b0 39 63 be a1 63 ef bd
       -0.022315638 0.12808704 -0.22189975 -0.116889246
000040 a7 83 f8 bd 59 59 84 3c 8c f0 0b 3d a5 f8 55 3e
       -0.12134486 0.016155886 0.03416495 0.20895632
000050 af 68 be 3b 54 a9 21 be f0 95 4c be 86 c2 2e 3e
       0.005810819 -0.1578725 -0.19979072 0.17066392
000060 ea d9 7c bd 8f 61 a7 3d bd 4e 2d 3d 6f c0 9e 3a
       -0.061731257 0.08172905 0.04231142 0.0012111793
000070 41 2b be bd 7d 64 f7 bd dd 32 0a 3c ec 77 3e 3e
       -0.09285594 -0.120797135 0.008434978 0.18600434
000080 5f c6 69 be 07 cb 19 bd da ff 95 3d e8 94 77 bd
       -0.22829579 -0.037547138 0.073241904 -0.060444742
000090 df 66 88 3d 0b eb 02 3d e8 ff f3 bd 8a 63 29 be
       0.06660246 0.031962436 -0.119140446 -0.16541877
0000a0 8c d6 12 3e 42 eb 11 be 16 54 af bd b0 e0 4c bb
       0.14339656 -0.142499 -0.0856096 -0.0031261854
0000b0 2b ab 68 bd 08 52 f6 3d 96 05 c3 bd 14 ac d4 bd
       -0.056803863 0.12027365 -0.0952255 -0.10384384
0000c0 e4 a7 5b bd d6 a6 a2 bd 21 47 9f 3d 2d 33 5b 3e
       -0.05362691 -0.07941978 0.07777239 0.21406241
0000d0 65 84 5b 3e 8d c1 15 3d 94 ab 9c bc e5 22 cb 3e
       0.21437223 0.036561538 -0.019124784 0.3967506
0000e0 33 b1 cb bd b9 da 09 be 32 d4 af 3d eb 7e ce 3d
       -0.099459074 -0.13462342 0.08585395 0.100828014
0000f0 88 44 eb 3b 29 41 07 be 23 76 94 bd 04 b3 d2 bb
       0.0071798004 -0.1320845 -0.07249095 -0.0064300317
000100 36 9b 0c be 64 ac db 3b 53 81 0d 3e 70 85 28 3d
       -0.13731083 0.0067039 0.13818865 0.04114288
000110 9a 53 9c bd 35 0f ca bc c3 d4 54 be af c7 fd bc
       -0.07633133 -0.024665454 -0.20784287 -0.030979006
000120 51 09 51 be ce d9 cf 3d 62 43 df bc 5c 55 cc 3d
       -0.2041371 0.10148965 -0.02725381 0.099772185
000130 dd c4 00 be 9a 2e 5e 3e 15 35 0f bd 74 a5 1a 3e
       -0.12575097 0.21697465 -0.034962732 0.15102178
000140 77 34 86 be 80 2b 81 3d 81 c0 bb bd cf b6 68 3d
       -0.26211902 0.06307125 -0.091675766 0.056814965
000150 ba 87 b9 3d cc 13 7f be 7a 12 08 3e 46 c0 45 3c
       0.09059091 -0.24909896 0.13288298 0.012069767
000160 68 8e de bd 74 b2 cd bd 6b 14 70 3e 50 94 94 3d
       -0.108670056 -0.10043803 0.23445289 0.07254851
000170 b9 79 c6 3d 82 b1 0c 3e 5f e7 24 3e d7 f7 98 bd
       0.096911855 0.13739589 0.16103886 -0.07469147
000180 e0 62 4b bd ad d2 96 3d 41 6b ef bd 81 12 2b 3c
       -0.04965484 0.07364402 -0.11690379 0.010441423
000190 fa 2a b6 bc d7 a7 94 bd 94 60 8d 3d c1 5b e0 3d
       -0.02223729 -0.072585754 0.069031864 0.10955001
0001a0 15 a7 fa 3c 6c 18 88 bd 14 81 71 3d 94 1d 21 bd
       0.030597249 -0.06645283 0.05896099 -0.03933485
0001b0 8f 51 83 bd 4f 91 c6 bd 00 c1 2f 3e bb 28 24 be
       -0.064120404 -0.09695684 0.17163467 -0.16031162
0001c0 a0 58 c8 bc 74 04 67 bd 75 e1 13 be 2a 61 88 3d
       -0.024456322 -0.05640073 -0.14441474 0.066591576
0001d0 93 ec 77 3d 14 7e 6c 3d 67 6d 92 3c a1 04 89 3e
       0.06052835 0.057737425 0.017874433 0.26761344
0001e0 59 11 5b 3e f7 57 4b bc 37 46 63 be 7e ac 52 be
       0.21393336 -0.012411109 -0.22194754 -0.20573613
0001f0 34 46 90 bd 7d 0f fd 3c 0e c8 9b 3b f6 c6 96 bd
       -0.0704464 0.030891174 0.004754073 -0.073621675
000200 04 34 85 3e 8e 31 05 be 3e d4 d4 bd f5 30 6c 3d
       0.26016247 -0.13007185 -0.103920445 0.057663877
000210 de 84 74 3d 30 84 c8 3c 81 59 36 3d e8 e6 de 3c
       0.059697025 0.024477094 0.04451895 0.027209714
000220 e7 26 83 bc db 8b d2 3b 90 c5 48 3d 35 43 29 3d
       -0.016009761 0.0064253635 0.049016535 0.04132386
000230 f8 b6 23 be db 4e 48 3d 04 be a2 3d 89 42 ed bd
       -0.15987766 0.048903327 0.07946399 -0.11584956
000240 6d fb dc bc 8e ba ef bc 00 a8 0b bd 96 80 84 be
       -0.026975358 -0.02926376 -0.034095764 -0.25879353
000250 38 1f 51 3d f5 cf 55 bd d7 9a 62 be 21 46 ef 3d
       0.051055163 -0.052200276 -0.22129379 0.11683298
000260 d1 09 9b bc 9c 63 55 be d8 e6 84 bc dd 16 c1 3d
       -0.01892558 -0.20838779 -0.016223356 0.09428189
000270 82 31 24 3e d0 4e a3 bd c1 37 23 3e 10 c8 63 3e
       0.1603451 -0.07974017 0.15939237 0.22244287
000280 7b 26 9a 3a e8 67 25 3c f2 b2 b5 bd df 99 08 3e
       0.0011760736 0.010095574 -0.08872022 0.13339947
000290 c5 2e 2a bd 77 04 b2 bd bf 9b 53 3e 01 cf d4 bd
       -0.04154851 -0.08692258 0.20664881 -0.10391045
0002a0 c8 c3 48 3d 52 df 9d bd c8 2d b4 bd cc c5 19 3d
       0.049014837 -0.077086106 -0.087977946 0.03754215
0002b0 63 d3 45 bd f6 90 b0 bd f5 3a b4 bd 3b 9c 63 3e
       -0.048297297 -0.08621399 -0.08800308 0.22227566
0002c0 fd 11 96 3d 7d 0c 7c bc a0 3a ad bd 73 28 0a 3d
       0.0732765 -0.015383837 -0.084584475 0.03372998
0002d0 21 3e 23 bd d6 39 de 3d c2 ee 7e 3d 1c ed 6b be
       -0.039854173 0.10850875 0.062239416 -0.23039669
0002e0 43 30 1b bd 89 f1 87 3e da 78 ad bd 47 03 26 3d
       -0.037887823 0.26551464 -0.08470316 0.04053047
0002f0 f6 bc 03 3e 33 df a3 3d cd 18 80 be 96 00 b2 bd
       0.12865052 0.08001556 -0.25018921 -0.08691518
000300 9e 02 78 3d dd 3c 05 be d1 25 84 bd a4 9a 63 3e
       0.06054937 -0.13011499 -0.064525254 0.2222696
000310 a3 13 5c bd ac e9 17 3e 6d f9 ac bd f2 f6 62 bc
       -0.053729665 0.14835232 -0.08446012 -0.013852822
000320 b0 13 dc 3b 95 86 ab 3d a4 8d 9f 3d 60 83 e9 bc
       0.006716214 0.08375279 0.07790688 -0.028505027
000330 05 b5 c5 3d 7d 31 a6 bd 00 1e ab 3e cd da 98 bd
       0.09653667 -0.08114908 0.33421326 -0.07463608
000340 e6 7d 09 3e 84 59 84 3d 2e 16 57 3e eb ba 52 be
       0.13426933 0.06462386 0.21004555 -0.20579116
000350 fb 4f 4b 3e c9 d2 16 3e 29 45 51 3e 27 d6 78 be
       0.19854729 0.14728846 0.20436539 -0.24300443
000360 93 76 65 3e ee 05 fd 3c 1d 66 6a 3d a5 dc 3c be
       0.22408514 0.030886617 0.05722629 -0.18443544
000370 2d 3e 9c bd 02 a6 e0 3d 4a 24 1b be bf e9 44 3e
       -0.076290466 0.109691635 -0.15150562 0.19229792
000380 95 a9 42 3d 4e b8 77 3d 98 6f 2e 3e 3d 04 0e 3e
       0.047525007 0.0604785 0.17034757 0.13868804
000390 77 1d 3c 3e 68 91 c4 bc d4 5b cc 3c b3 7c a5 bb
       0.18370615 -0.023995116 0.02494613 -0.0050502657
0003a0 41 a3 85 bd 94 82 59 be 26 97 31 3e de 9b d7 bb
       -0.06525279 -0.21241218 0.17342815 -0.00657986
0003b0 ba fd d1 3d da 4f a8 bd 17 51 f2 3c 78 19 03 be
       0.102534726 -0.082183555 0.029579682 -0.12802684
0003c0 69 74 a7 3d 54 61 85 3e 86 dc 38 3e 3f 31 80 be
       0.081765 0.26050818 0.18052873 -0.25037572
0003d0 b8 02 2f bd 1e 70 36 3d 1b 11 06 3e f7 d3 81 3d
       -0.042727202 0.044540517 0.13092463 0.06339257
0003e0 44 26 da 3d c5 b2 0b bd 21 41 f2 3d 8c 4f 57 3e
       0.1065183 -0.034106035 0.118288286 0.21026438
0003f0 1d 0f a7 bd a2 6a 76 3c 5f 1d 4c be bf 13 95 bd
       -0.081571795 0.015040072 -0.19933079 -0.07279157

network_body._body_endoder.seq_layers.0.bias f4 [256]
000000 15 95 dd bc a8 ae 6a 3c e3 57 95 3b 08 b6 7c 3c
       -0.027048627 0.014323868 0.004557596 0.015424259
000010 1c 7f db bc 0f bb 21 3d c4 26 e7 b7 f4 69 ad 3c
       -0.026794009 0.039485034 -2.7555398e-05 0.021168686
000020 07 47 4d bb 36 55 19 bc 2c bf c4 3c d9 82 f3 bc
       -0.0031322853 -0.009358695 0.02401694 -0.029725479
000030 7c 9e ae ba 94 5e b8 ba 26 c9 87 bc 0d 37 01 bd
       -0.0013322379 -0.0014066272 -0.016575407 -0.03154664
000040 b9 46 80 3c 27 dc 27 3c d0 4c 6a 3c 73 c3 5e bc
       0.015658723 0.0102453595 0.01430054 -0.013596403
000050 19 2d 58 bc d3 14 35 bd bf 29 76 bc 5a dc 24 3a
       -0.013194346 -0.044209313 -0.0150246015 0.00062889385
000060 37 09 1f bd 12 67 6a bc dd 5f 9d 3c 62 e6 9f bc
       -0.038827147 -0.0143068 0.01921075 -0.019519035
000070 74 2b bf 3c 0c ce 36 bc 07 11 b0 bc a1 11 be 3a
       0.02333615 -0.011157524 -0.021492494 0.0014501103
000080 f6 4c e9 3c 0d bd cc 3b 64 a7 81 bc fe 01 ba bc
       0.02847908 0.0062481225 -0.015826888 -0.022706028
000090 4e d7 b0 3b 6e bc a5 3c 5a 13 97 3c f1 42 4e 3b
       0.00539676 0.020231452 0.018441845 0.0031473006
0000a0 53 48 71 3c af 1b 14 3a 5d 9c dd bb df cd ac 3b
       0.014726716 0.0005649877 -0.0067630247 0.005273565
0000b0 f0 97 2d 3a 35 3f 48 bc 08 b4 cd bb f2 36 73 3c
       0.0006622067 -0.012222101 -0.006277565 0.014844643
0000c0 b4 cb 67 bc b4 f1 b3 3c 48 81 51 bc 0f 57 a4 ba
       -0.014147688 0.021965839 -0.012787171 -0.0012538153
0000d0 46 79 02 3c 56 5f 4a 3b 6e c5 07 3b 3c ae 14 3d
       0.007963484 0.0030879579 0.0020717042 0.036298975
0000e0 34 eb cb bc c0 f1 b2 3a bc 22 b4 bc e6 ce 0c b9
       -0.024892427 0.0013652369 -0.021989219 -0.00013428516
0000f0 ea fd dc bc c0 b4 1b bc 2b 71 58 bc 99 77 e1 bc
       -0.026976544 -0.009503543 -0.013210575 -0.027522849
000100 d2 f5 88 bc 94 15 61 3d 6f f1 37 bc 8a 28 22 bd
       -0.016718779 0.05495222 -0.011226996 -0.039589442
000110 cc 16 41 bd b3 36 16 bc 77 39 11 3c b4 06 78 3c
       -0.04714088 -0.009168315 0.008863798 0.015138317
000120 32 e6 5d 3b a7 7a 32 bb 12 42 21 bc d2 05 f0 3b
       0.003385913 -0.002723375 -0.009842413 0.0073249126
000130 d5 87 10 bb c7 1d 7e bc 11 9e b1 bc e2 c9 c6 bc
       -0.0022053618 -0.015510029 -0.021681817 -0.024266187
000140 a5 1d 0b bc 27 ef c1 3c fc 07 0e bc 6c 04 80 3c
       -0.0084909545 0.023673607 -0.008668896 0.015627109
000150 76 b9 c6 3b e1 fa a5 3c ab be 12 3d ec 5d 56 3b
       0.006064589 0.02026123 0.035826366 0.003270979
000160 40 0d 49 3a 0b 2e 75 bc b5 0a a8 3c 15 59 27 3d
       0.0007669516 -0.014964591 0.020512918 0.04085644
000170 e7 3e cf 3c d5 c9 84 3c 4b cc eb bc 5b 50 0a bc
       0.025298549 0.016209522 -0.028783938 -0.00844201
000180 3d 34 1b bd 81 b0 9c 3b 8d 06 29 3b fd c3 d6 bc
       -0.037891615 0.004781783 0.0025791258 -0.026216501
000190 1c 9f 97 3b 6d 93 d4 3b 25 e6 a1 3c 46 6b f4 bc
       0.0046271216 0.006487301 0.019763062 -0.029836308
0001a0 7e e3 cc 3b 76 5c 4f bd bf ae 65 3c b8 70 f9 bc
       0.006252705 -0.050625287 0.0140187135 -0.030449256
0001b0 69 91 f5 3a 52 f0 ba 3c 86 fa 07 bd 90 e1 b7 3a
       0.0018735352 0.022819672 -0.033197902 0.0014029015
0001c0 86 d2 dd 3c 18 3e ae bc 22 85 58 ba 80 cc a8 bc
       0.027077924 -0.021269843 -0.00082595844 -0.020605326
0001d0 05 a0 c8 bb 46 ec 95 3c 16 7f 9b bc 7e ba 08 bc
       -0.0061225914 0.01830114 -0.018981498 -0.008345244
0001e0 0a 23 03 bd d2 8a 16 bd bf 8f 0d bd cb e1 a1 3b
       -0.032015838 -0.036753483 -0.034560915 0.0049402467
0001f0 25 64 84 bc 79 10 85 bb 68 2d 65 3b 7d 7e 93 bb
       -0.016161034 -0.0040608016 0.0034969691 -0.0045011626
000200 8a 7c 66 3c d8 5e e6 bc a1 ad b8 bc 17 1f 47 3c
       0.014067778 -0.028121397 -0.02254373 0.0121534085
000210 8a c1 33 bc e2 c5 ba bb 42 4e 78 bd 58 9e 2c bc
       -0.010971436 -0.005699859 -0.060621507 -0.010535799
000220 40 6c 0c bd 24 e8 89 bc 10 f8 d6 bc f8 0f 5f b9
       -0.034282923 -0.016834326 -0.026241332 -0.00021272886
000230 f4 b7 c1 3b 5f 64 82 bb cd a1 e0 3b 88 f4 4c 3b
       0.0059118215 -0.0039792503 0.0068552257 0.0031273682
000240 ae c2 14 bd 36 16 3a 3c df 94 15 3d 94 f0 0d 3d
       -0.036318474 0.011357835 0.036518928 0.03465326
000250 b3 6d 47 3b ef ba d7 3c 4e 4f 05 3c fa 27 89 bc
       0.0030430376 0.026334254 0.0081365835 -0.016742695
000260 c6 f0 78 ba cf c5 c3 3b ad 45 0e bc 54 9c c8 bc
       -0.0009496327 0.0059745084 -0.008683604 -0.024488606
000270 4d f8 83 bc 2d 6d 52 3d 0e 53 44 3c 4f 6c 45 bd
       -0.01610961 0.05137365 0.011982692 -0.048198994
000280 a7 b5 bd bc 0a 73 ab bc 65 10 e7 3a 4b 0f 5d bd
       -0.023157908 -0.020928878 0.0017628787 -0.053969663
000290 f0 cb 55 3c b5 8a 3a 3d 6a 93 fb bb 80 8d 1b 3d
       0.013049111 0.045542438 -0.0076774852 0.03797674
0002a0 1d 8a c0 bc 43 ef 4a bb 94 df b0 b9 86 89 43 bc
       -0.023503358 -0.0030965365 -0.00033735915 -0.011934644
0002b0 ad 64 4e 3c 09 cd ed 3c 94 87 1f 3c 8d 73 b6 bc
       0.012597245 0.029028432 0.009736914 -0.022271896
0002c0 09 1e c2 3c 40 fb 3a bd a8 b3 6c 3d e7 2d da 3c
       0.023695963 -0.045649767 0.05778852 0.026633216
0002d0 0a 9e 04 3c e2 b4 28 3c 37 0f d8 ba 53 58 5e bc
       0.00809432 0.010297032 -0.0016484027 -0.013570863
0002e0 11 37 ce 3c 8d de 7c bc 94 1a 54 3b be 99 b7 bc
       0.025172742 -0.01543392 0.0032364475 -0.022412177
0002f0 1b 8f f5 3c 79 96 1f 3c 59 c5 ca bc bc ce a8 bc
       0.029975465 0.009740465 -0.024752306 -0.020606391
000300 06 e2 cf bc 2a 30 03 3d 5f 32 ad bc 9b ae 37 bc
       -0.025376331 0.032028355 -0.021142183 -0.011211063
000310 86 d0 f9 3c 71 3f a6 bc d2 f8 77 3c 72 d4 8c 3b
       0.03049494 -0.020293923 0.015135007 0.0042977864
000320 e0 ab ca 3c 53 68 99 bb f4 87 03 bd e1 0f 56 bc
       0.02474016 -0.004681626 -0.032112077 -0.013065309
000330 9f 28 80 bc 90 40 d1 3c a2 b2 61 bc d8 f0 28 3d
       -0.01564437 0.025543481 -0.0137755 0.04124531
000340 b3 7c 30 3c 43 3a cd bc e2 33 7d bc 63 4f 6a 3c
       0.010771918 -0.025052195 -0.015454264 0.014301154
000350 fe 48 1d bd 48 36 65 bc 1c a9 8f bc ec 34 06 3c
       -0.03839969 -0.013989992 -0.017536692 0.0081913285
000360 30 b7 13 3c 47 6e e1 3b e9 0b 56 3c 92 51 44 bc
       0.009015843 0.006879601 0.013064363 -0.0119823385
000370 f2 05 1e 3c 66 12 3d bc 3b 68 e3 bb 3e f9 0e bc
       0.009644972 -0.011540031 -0.0069399155 -0.008726416
000380 34 3a b3 3c 3c 48 67 3b 57 85 ab bb b5 0a 3d 3d
       0.02187834 0.0035290858 -0.005234401 0.04615279
000390 45 00 ed bb 50 70 50 bc 6d 1d 64 3b 31 c7 0a 3d
       -0.007232698 -0.01272209 0.0034807578 0.03388137
0003a0 bb 7e ee 3b 5d 3a 1f 3b fd f1 ca bc fd 57 b9 bc
       0.007278291 0.0024296262 -0.024773592 -0.022624964
0003b0 a4 37 af bc 49 f3 50 bc 80 5c 1c 3d 7f 72 c5 3c
       -0.021388836 -0.012753316 0.038174152 0.024102448
0003c0 95 8a d9 3a d9 1c 1e bc 1c aa 08 3d 1b 6e de bc
       0.0016597087 -0.0096504325 0.033365354 -0.027152112
0003d0 1d 38 44 3c 26 e7 92 bb 19 e7 eb bc c4 bc 61 bc
       0.011976269 -0.0044831214 -0.02879672 -0.013777915
0003e0 41 7f c8 bc a7 35 41 bd 1f 74 0c bb 0b 46 39 3a
       -0.024474742 -0.047170307 -0.0021431518 0.0007067627
0003f0 08 d3 0d bd 88 43 e8 3c d1 a6 18 3c 8c 7c 81 bb
       -0.034625083 0.028352514 0.009317116 -0.0039516147

network_body._body_endoder.seq_layers.2.weight f4 [256, 256]
000000 ba 55 00 3c 4f a9 4f 3d 05 94 c2 3c 70 e3 15 bd
       0.007832939 0.050698575 0.023752222 -0.036593854
000010 75 d7 bb bd 38 34 12 3e 50 06 e0 3c 7f df 60 bc
       -0.091719545 0.14277732 0.02734676 -0.013725161
000020 2f 8f 4b bd 14 03 73 3d a3 ce 38 3d da 30 7a bd
       -0.049697097 0.059329107 0.04511894 -0.061081745
000030 bb 28 b9 3d f0 5e 4f bc d8 07 9b 3b 32 16 05 bd
       0.09040972 -0.012656912 0.0047311597 -0.03249187
000040 43 4b 12 3e 0f 41 77 bc f7 85 46 3d 7a ae 81 3d
       0.14286523 -0.015091195 0.048467603 0.06332107
000050 88 ee 9e bc 3e 39 58 3c 89 eb 3c bd f9 93 de 3c
       -0.01940085 0.013197241 -0.04612306 0.027170168
000060 80 fc d1 3d ba 7b fd bd f7 d3 d3 3d b8 4d 02 3d
       0.10253239 -0.123771146 0.103431635 0.0318124
000070 01 6e 71 bc 21 e2 f2 3c 8f 18 45 bd 04 35 bb 3d
       -0.0147357 0.029648842 -0.048119124 0.09140971
000080 35 93 66 bd 9e 31 89 bb 34 61 1b bd f8 9c b9 bd
       -0.05629273 -0.004186823 -0.037934497 -0.090631425
000090 4c 80 f6 bb c6 5f a3 3d 2b 97 4c 3d ad b2 4c bd
       -0.0075226184 0.07977252 0.049948853 -0.049975086
0000a0 b3 7a 1d be 1d 65 d3 3d 20 e5 fb bc 12 8d ae bd
       -0.15378837 0.1032202 -0.030748904 -0.08523001
0000b0 ea 17 4d 3d ed b7 88 bc 38 cd b5 bd a4 fd 44 bd
       0.050071634 -0.016689265 -0.08877033 -0.048093453
0000c0 98 86 96 bd a7 fd 31 bd b7 2b 72 bd d0 75 2b be
       -0.073498905 -0.043454792 -0.05912372 -0.1674416
0000d0 aa 10 a8 bc de bd 2b bd 4e 90 7c bc 91 08 2b be
       -0.020515759 -0.04192912 -0.015415264 -0.16702487
0000e0 fa 90 21 3d a7 75 2e bd ba f4 94 bd b6 f6 b7 3c
       0.0394449 -0.04259267 -0.072732404 0.022456508
0000f0 f4 11 9e 3c 5f c6 27 bd a4 c2 cf 3c 56 6e aa 3c
       0.01929567 -0.040960666 0.025361367 0.020804565
000100 72 be 2d 3d 89 2d b6 3c 39 85 b5 3c 32 45 3a 3d
       0.04241795 0.02223851 0.022158252 0.045476146
000110 cd 81 2b 3d ff ca 4d bd 77 a6 06 3e 57 2b 76 bd
       0.041871835 -0.05024242 0.13149439 -0.060099926
000120 37 ca 42 3d d4 f1 d8 3d 72 3e a2 3d 3c 07 e9 3a
       0.04755613 0.10593 0.07922067 0.0017778645
000130 c3 9d 4b 3c bf 35 43 bd 6f bf 17 3d 3f 0c 21 3c
       0.01242775 -0.04765868 0.0370478 0.00982958
000140 d5 ac d4 3c 9b 94 fb 3c 5b 5c 5f bd 3b cd c5 3c
       0.025961319 0.030710509 -0.054531436 0.024145713
000150 c5 45 9f bc 32 f3 f0 3c 9a 04 68 bd f5 c5 2d 3e
       -0.019442448 0.02941284 -0.056645013 0.16970046
000160 d8 a1 25 3d 55 83 02 3d 32 48 1a 3d 82 67 83 3d
       0.04043755 0.03186353 0.037666507 0.06416227
000170 c4 cd 49 bd 11 58 c8 bc 83 1a 12 3e 5e 88 f5 bd
       -0.0492685 -0.024456056 0.14267926 -0.119889006
000180 74 bd 30 bd db c4 a1 bc b8 85 04 3d 96 36 b3 bc
       -0.043149427 -0.019747188 0.032354087 -0.021876615
000190 28 c4 19 be e0 6a f8 3a 7e 6a ec ba 9d 21 8d bc
       -0.15016234 0.001895275 -0.0018037108 -0.017227942
0001a0 9c 00 8f bd b5 c4 93 3c e0 a3 21 bd 89 29 1d 3d
       -0.06982538 0.018038133 -0.039462924 0.03836969
0001b0 3b 88 d8 3d 07 c1 75 3c 91 b5 2b 3d d2 f1 a0 bb
       0.10572859 0.014999635 0.041921202 -0.0049116397
0001c0 c7 0c 54 3d 5e b9 1e 3d 34 91 bf 3d ba 7f 08 3e
       0.051769998 0.038751 0.09353867 0.13329974
0001d0 80 a6 72 3b 50 23 c1 bc 03 9c 0a 3e c2 24 4f bd
       0.0037025511 -0.023576409 0.13536076 -0.050572164
0001e0 cc 45 8b bc a0 6c 9c 3d 99 96 44 bd a4 1a 58 3d
       -0.017001055 0.07637906 -0.047995184 0.05275978
0001f0 0c 74 87 3d 0b 6f 97 bd 2a b6 f4 bb f6 49 b7 bb
       0.06613931 -0.07394227 -0.0074680047 -0.0055935336
000200 9a 1a 89 bd 44 b5 01 3c ac 17 d9 bd 61 2b 60 bc
       -0.06694527 0.007916752 -0.10600218 -0.013682217
000210 b9 91 9c bd 9f 6e b3 bc 34 d5 9b 3d 7b 6a 2d bd
       -0.07644982 -0.021903334 0.07609025 -0.042337876
000220 95 a0 c7 3c 29 fe 0c bd 2a 40 10 bd ea 64 ec 3d
       0.024368564 -0.034422074 -0.03521744 0.11542685
000230 5b 77 2e 3c a4 e2 d4 bd 17 7c fb bd f2 36 6a 3c
       0.010648574 -0.10394791 -0.12279528 0.014295327
000240 12 50 24 bd d6 e5 cb bc 9a 9f c6 3d 40 7e bd bc
       -0.040115424 -0.024889868 0.0969841 -0.02313149
000250 4b 45 46 bd aa e1 46 3c f8 2e 15 bd f3 0d bd 3b
       -0.048405927 0.012138763 -0.036421746 0.005769485
000260 fa b1 16 3d 1a cf e1 bd c1 55 e1 bd fb 21 26 3d
       0.036790825 -0.110258296 -0.110026844 0.04055975
000270 44 b2 e7 bd cd 62 83 bd 1d d7 83 3d 1e 85 d2 bd
       -0.11313298 -0.06415329 0.06437514 -0.10279296
000280 8c 23 82 bb fc 15 5e 3d 94 d3 3f bc e8 4e 56 3e
       -0.0039715227 0.054220185 -0.011708159 0.20928538
000290 4a fc d2 3c ef 2e b6 bd a2 1d 22 bd c6 d3 05 3d
       0.025755066 -0.088956706 -0.03957904 0.032672666
0002a0 9a bc 6d 3d 11 9e 11 bc 0f 31 0e 3e 8b 67 9b 3d
       0.058041193 -0.008887784 0.13885902 0.07588109
0002b0 fc 05 20 b9 11 4f a7 bd 09 f3 7f 3d ce c6 b8 3c
       -0.00015261018 -0.081693776 0.062487636 0.022555735
0002c0 bc 36 d7 bd be 14 9c b9 14 df 51 3c 05 d2 aa 3d
       -0.10508487 -0.00029770093 0.012809534 0.08340839
0002d0 ae 59 53 bc f4 8b 94 3d 2c 66 75 bd e5 03 2f 3d
       -0.012899799 0.072532564 -0.05991189 0.042728323
0002e0 7c 89 08 3e 9d 62 14 be 29 43 2c be ba e9 83 3c
       0.13333696 -0.14490743 -0.16822495 0.01610266
0002f0 1f 69 87 3d 61 5f eb 3c 1f 1d c9 bc ef 41 9f bd
       0.06611847 0.028732004 -0.024550019 -0.07776248
000300 7d 45 05 3d 2e 44 3b 3d 9b 2a 1d 3e 38 45 45 bd
       0.032536972 0.045719318 0.15348284 -0.048161715
000310 fa 57 26 3e c7 d7 5d 3d 7f 50 ba 3d 9a aa 9b 3d
       0.16244498 0.05416086 0.09097385 0.07600899
000320 b9 d5 67 3d b0 e6 fa bc c4 3f 83 3d 91 b4 9c bd
       0.056600306 -0.030627578 0.06408647 -0.07651628
000330 59 b6 9c bc 61 32 22 bd 7f 57 aa bd 4d de 8b bd
       -0.019129919 -0.039598826 -0.0831747 -0.0682951
000340 0d 91 88 bd 86 72 2d bd f7 ab ff 3c fc 75 05 bd
       -0.06668291 -0.042345546 0.031209929 -0.03258322
000350 86 3f 62 3d 0c 0f c3 3d e3 70 39 3c ea b9 a5 3d
       0.055236362 0.09524354 0.011318418 0.08092101
000360 ab 0f ef bc f6 93 4b 3c 3a 47 96 3c d9 78 2f 3d
       -0.029182276 0.012425413 0.01834451 0.04283986
000370 9a 87 4e 3c f7 42 7c 3d 0f 0d d4 3d cb 31 66 bd
       0.012605572 0.0615873 0.10354053 -0.05619983
000380 8d f4 8c 3b 94 2d 42 bc 62 9e 85 3c 68 82 b7 bb
       0.0043016137 -0.011851687 0.016310874 -0.0056002624
000390 51 4e 02 bd 59 b3 ea bd 4f 14 4a 3b 17 27 97 bd
       -0.03181297 -0.11459989 0.0030834859 -0.07380503
0003a0 81 7d 2c 3b 0b 53 9a 3b 86 c6 91 bc 65 fb 50 bc
       0.0026319923 0.0047096065 -0.017794859 -0.01275525
0003b0 01 39 22 be 7a bd 6c bd f1 9f 22 3d c8 a0 de bd
       -0.15842058 -0.057797886 0.039703313 -0.1087051
0003c0 f8 22 a0 bd 5a b7 9f 39 fb 5e 36 3c 87 32 e2 bd
       -0.0781917 0.0003046345 0.011131044 -0.110447936
0003d0 73 16 85 3d 30 6e 30 be 40 a1 a4 bd ca 36 3c 3d
       0.064984225 -0.17229533 -0.080385685 0.04595069
0003e0 69 c6 2b bd 8f e9 87 bc 9f 5f bf 3d 1f 21 be bd
       -0.041937266 -0.016590862 0.0934441 -0.09283661
0003f0 e2 f7 a8 3d f0 2c 22 3c 07 b1 53 3c 5d 6e 37 bd
       0.08250405 0.009898409 0.012920625 -0.044782985

network_body._body_endoder.seq_layers.2.bias f4 [256]
000000 d7 3b e2 bc ee 0f 09 bb 4a 60 cf bb be b7 34 3b
       -0.027616424 -0.0020914036 -0.006328617 0.002757534
000010 4d f7 0e bd e0 39 f6 3b ed 57 0d bd 2d a2 3f bd
       -0.034903813 0.0075142235 -0.03450768 -0.046785522
000020 c8 73 16 bd 97 77 ed bc b8 53 0f 3b aa 0e 0d bb
       -0.03673151 -0.028987689 0.0021869969 -0.0021523633
000030 0b 8f a1 3c 46 0e 40 bc 91 50 76 bc 4d 6a cd bc
       0.019721529 -0.011722153 -0.015033857 -0.025075102
000040 ca ad c3 bc 79 63 f9 bc 93 39 1a 3b 3a 5f b1 bb
       -0.02388658 -0.03044294 0.0023532852 -0.005412963
000050 bb 39 f2 3b a1 ec d0 3b df a6 4d bc e7 a4 d4 bc
       0.007392136 0.0063758646 -0.012551992 -0.025957538
000060 7a 2d d6 bc 44 5e 05 bd a2 cf 19 bc d0 d6 9e bc
       -0.026144732 -0.0325606 -0.009387882 -0.01938954
000070 22 bb af bc 20 7b 6d bc ab 7c 32 bd 05 8b fc 3b
       -0.021451537 -0.014494687 -0.043575924 0.007707002
000080 77 40 e1 bb 03 cc 97 bb f9 de c8 bc 73 21 8a bc
       -0.00687414 -0.0046324744 -0.024520384 -0.016861653
000090 72 24 2a bc 7f 24 d9 bb d3 b0 18 bd c8 3e 9c 3c
       -0.010384666 -0.006626665 -0.037278008 0.019072905
0000a0 b6 c3 1c bd 18 91 8e 3b 12 9f 1a bd 39 63 b0 bc
       -0.038272582 0.0043507926 -0.037749358 -0.021531688
0000b0 cd da 0c 3c 0d b8 12 3b bf b7 92 3c 33 15 99 bc
       0.008597088 0.0022387535 0.017909883 -0.018686866
0000c0 00 6d 0f 39 bc dc 0b bc d1 1a 77 bc a0 74 9b bb
       0.00013678148 -0.008536514 -0.015082077 -0.0047441274
0000d0 66 ad a7 bc 5a 2c 5d 3c a7 f1 40 bb 35 15 44 3c
       -0.020468425 0.013499344 -0.002944091 0.011967947
0000e0 25 54 c6 bb 8d 2c 82 bb f7 3e 2c bc ad a1 b7 bb
       -0.0060525113 -0.003972596 -0.010513059 -0.00560399
0000f0 b4 23 68 bc a4 01 c1 bb 6d f4 0c 3c ac a1 25 bd
       -0.014168669 -0.005890088 0.0086031975 -0.040437385
000100 9a 3c bf bb 8d c5 6b bd d0 b2 8a 3c 0c fd 77 bd
       -0.0058360817 -0.057561446 0.016930968 -0.06054406
000110 ef 15 32 ba 78 a9 3d bc fc a5 1f bc 7b 5d 8d bb
       -0.00067934295 -0.011576049 -0.009744164 -0.0043141223
000120 41 6b dc 39 c2 d4 7e bb 24 f1 e3 3c 4c 37 be 3b
       0.0004204158 -0.0038884138 0.027824946 0.0058049317
000130 1a 1f bf 3b 2b ef d1 bc f2 4b aa bb ec 47 99 3b
       0.005832565 -0.02562674 -0.0051970417 0.004677763
000140 fc ce 67 3c 09 c4 88 bc 86 b0 84 3c 93 32 55 bc
       0.01414847 -0.01669504 0.016197454 -0.013012546
000150 45 1e 9a bc 53 8e f0 bc 9a cc 22 ba 39 27 24 bd
       -0.018813262 -0.02936474 -0.00062102976 -0.04007647
000160 0e 42 b9 3c 3b 96 1c bd 52 2b cd bb 0b 82 a8 3c
       0.022614505 -0.03822921 -0.0062612677 0.020569822
000170 76 a3 e5 3c 2e 95 93 3c cf 78 a9 3b 2b 0e fa bc
       0.028032046 0.01801547 0.005171872 -0.030524334
000180 a7 09 ed 3b 4a 3c 83 bc 58 3f 33 3c 21 98 45 bd
       0.0072338167 -0.016019959 0.010940395 -0.048240785
000190 60 66 01 bd 6d a2 10 bc e1 2e b1 bc a1 a2 73 bc
       -0.031591773 -0.008827788 -0.021628799 -0.014870317
0001a0 bc 49 75 3b 18 60 c6 bc a3 5c 8e bc 78 8f ab 3c
       0.0037427982 -0.024215743 -0.017378157 0.020942435
0001b0 ab 01 76 bb ff 73 a7 bc 6d a6 42 bc d0 b8 fc ba
       -0.0037537615 -0.020441053 -0.011880499 -0.0019281153
0001c0 b3 e5 0b 3d 15 7d af bc 32 53 9d bc a2 15 a7 3c
       0.034154605 -0.021421948 -0.01920471 0.020396058
0001d0 09 77 e5 bc fa e5 ee bc 1f 6d 93 ba 71 82 72 bc
       -0.028010862 -0.029162396 -0.001124773 -0.0148016075
0001e0 1a 2c 8b bc 20 25 7c 3b 09 ac 70 bb cb 2d 41 bc
       -0.016988803 0.0038474277 -0.0036723635 -0.011790703
0001f0 af f1 37 3b b0 24 00 bd da d7 0a 3c 4e 13 af bc
       0.0028067639 -0.031284988 0.008474315 -0.02137151
000200 79 88 25 bc 72 85 28 3c 5f 8d 77 bc c4 f6 e7 bb
       -0.010103338 0.010285722 -0.015109389 -0.0070789773
000210 3d 9a da 3b 61 a3 95 3c a6 0e 7b 3b 50 0b db 3c
       0.0066712187 0.018266382 0.0038308292 0.026738793
000220 f0 cf 5f 3b 74 a5 b5 bc 51 4b 8d 3c 0e 17 36 3a
       0.003415104 -0.02217362 0.017247828 0.00069461844
000230 6d ab 2a bc 8d fc 4d bc ea 77 32 3c a1 85 75 39
       -0.010416848 -0.01257242 0.010892848 0.00023414801
000240 a5 bf 04 bd 53 c9 b1 bb a7 56 56 bc e1 11 c3 bc
       -0.03240933 -0.005425611 -0.013082183 -0.023812236
000250 36 7e 98 ba fe a8 9e 3c 55 be 65 bc a5 88 2d 3c
       -0.0011634293 0.019367691 -0.0140224295 0.010591661
000260 7b cd 2c 3c 00 14 4a 3c 80 53 96 bc 8d b2 ec bc
       0.010547037 0.01233387 -0.018350363 -0.028893733
000270 2a e5 21 bc e0 45 2d bc 63 1e a2 bc 1d 50 46 bb
       -0.009881297 -0.0105757415 -0.01978988 -0.0030260154
000280 80 ab 68 bc be 22 bf 3b 0d bd 29 bc 78 c9 1a bd
       -0.014201045 0.005832999 -0.010360015 -0.03778979
000290 0a e4 53 bb 5e b5 dd bb 81 83 38 bc 04 ae 11 3c
       -0.0032331967 -0.0067660054 -0.011261822 0.008891586
0002a0 6b e6 e4 bb c3 cc b9 3c 5f db de bc 70 d0 e6 bc
       -0.006985476 0.022680646 -0.027204214 -0.028175563
0002b0 c2 68 a2 3c 2d c0 9f bc a1 0b f7 bc 5c 10 98 bc
       0.019825343 -0.019500816 -0.030156912 -0.018562488
0002c0 9c 34 87 bc 82 8f 85 bc f8 06 9d bc 65 d3 cc bb
       -0.016504578 -0.016303781 -0.019168362 -0.006250786
0002d0 28 79 21 3c f7 80 46 bb de 0e c5 3b b4 54 95 bb
       0.009855546 -0.0030289271 0.006013735 -0.0045572165
0002e0 77 f5 e5 bc 5c ee 90 bc b3 9a 7b bb 78 8c f2 bb
       -0.028071148 -0.017691784 -0.0038391768 -0.007401999
0002f0 fa bb ac bc be ff 19 bd 7b 05 97 bb f5 a9 a7 3c
       -0.021085728 -0.03759741 -0.0046088076 0.020466784
000300 87 8c 2f bc b8 39 d3 3b 3f 0b 02 bd 63 28 a4 bb
       -0.010714657 0.0064460896 -0.031749006 -0.0050096973
000310 29 ba 12 bc d4 d4 76 bc e8 ad 56 bc c1 8a 7d 3c
       -0.008955517 -0.015065391 -0.013102986 0.015474976
000320 49 d9 f8 3b 9a e7 23 bc 22 10 b7 bc 79 90 c5 3c
       0.007594262 -0.010003949 -0.02234656 0.024116741
000330 e7 d8 b9 3b c9 0f ac bb 4b 2e 80 bb 4c 1f cf bc
       0.0056716087 -0.005250905 -0.0039117686 -0.025283478
000340 8a 1c 83 bc 2e 01 9e 3c 98 04 42 3b 3d db 7e 3c
       -0.01600482 0.019287672 0.002960479 0.0155552
000350 54 11 62 bc 8b d6 11 ba cc 42 c6 bc 27 d1 c4 bc
       -0.013798077 -0.00055632804 -0.024201773 -0.024025513
000360 c0 e1 39 3c 74 d1 ce bc 2a 68 cd bc 0b af 86 bc
       0.011345327 -0.02524636 -0.025074083 -0.016440889
000370 bb 58 0e bd 3f 24 14 3d 13 c6 44 3c cc c4 04 3b
       -0.03475259 0.03616738 0.012010115 0.0020258902
000380 4f 83 b7 bc 56 41 a1 bc 0c d3 dc bb eb ba 3c 3b
       -0.02240148 -0.019684475 -0.006739026 0.0028797935
000390 7d 22 49 bc f5 78 64 3c 7e 47 b6 bc 36 35 21 3c
       -0.012276289 0.013944854 -0.022250887 0.009839347
0003a0 ad 77 e9 ba 67 6c c1 bc 47 46 94 3b 21 0b 20 3c
       -0.0017812155 -0.02361126 0.0045249793 0.009768278
0003b0 6c c1 e9 3c 19 e8 c4 3b b0 a3 d3 bc bf fc 48 bb
       0.028534614 0.0060091135 -0.025834888 -0.0030668227
0003c0 0c 95 b3 bc 78 a3 25 bc 8f 63 e2 3b 99 b6 6d 3c
       -0.021921657 -0.010109775 0.006908841 0.014508867
0003d0 20 bd 48 bc c3 d8 b3 ba 7e 21 85 3b a4 10 0c bd
       -0.012252122 -0.0013721216 0.0040628305 -0.034195557
0003e0 8b 75 01 3a 0c 20 69 ba fb c9 ad 3c 72 ec 87 bc
       0.0004938475 -0.000889302 0.021214476 -0.016592238
0003f0 45 3f 37 bc 18 5a 77 bb 06 e7 12 bc f8 0f 0b 3b
       -0.011184518 -0.003774291 -0.008966213 0.0021219235

action_model._discrete_distribution.branches.0.weight f4 [3, 256]
000000 4f 9b 11 bc b4 ed c3 bc 96 2f 58 3c 7e 5b a1 bc
       -0.008887126 -0.023917057 0.013194939 -0.019696947
000010 7b 64 8a 3c 0b 05 ef bc 20 d9 c5 3c 01 08 3d 3d
       0.016893616 -0.02917721 0.024151385 0.04615021
000020 a9 0a 33 3d 1f 26 03 3d d3 0b 7a bd fb ff 21 3a
       0.04371134 0.032018777 -0.061046433 0.00061798067
000030 14 1a 0e 3c 92 86 75 3c ef 94 51 ba 79 4e b4 3c
       0.00867321 0.014985697 -0.000799491 0.022010075
000040 5c 1a 9f 3c 3f 6a 47 bb 64 89 34 bd 17 04 aa bc
       0.019421749 -0.0030428318 -0.04407634 -0.020753903
000050 d2 a3 fa bc 61 96 c7 bc d0 1c 4b bd 02 9a 1d bc
       -0.030595694 -0.024363698 -0.049588025 -0.009619238
000060 ee 55 e1 3c 08 8e 65 3c af cd f5 bb f2 e7 b6 3c
       0.027506795 0.014010914 -0.007501326 0.022327397
000070 70 90 96 3c c1 d4 fb 3c dd 9e 00 3d 6f f4 90 3b
       0.01837942 0.030741097 0.031401504 0.00442367
000080 2c a9 c4 3c 9b 25 57 bb c6 e6 43 3d 31 f7 ed 3c
       0.024006449 -0.003282881 0.047827505 0.029048534
000090 5f 92 d2 3c 64 d2 43 b9 14 b5 85 3c 6b 7c 7b bb
       0.02570456 -0.00018675026 0.016321696 -0.003837372
0000a0 19 b6 26 3c f3 65 c8 bc e1 b6 0a 3d a2 ce af 3b
       0.010175251 -0.024462676 0.033865813 0.0053652087
0000b0 e8 ad 37 bc 15 d8 44 bd 42 99 45 3c 0f 1d 26 3d
       -0.011210896 -0.048057634 0.012060465 0.040555056
0000c0 3a ae 63 3b 45 d1 ec bc f4 1b 64 ba 54 8b cc bb
       0.0034741298 -0.028908381 -0.0008701675 -0.006242195
0000d0 1e 55 c5 3b ef 6e 47 bd bd ea e2 bb e7 82 86 bc
       0.0060221097 -0.04868978 -0.0069249556 -0.016419841
0000e0 d1 fb 0b ba 53 f2 e1 3c d0 ba d5 bb 23 4d ae 3c
       -0.0005339953 0.02758137 -0.006522514 0.021277016
0000f0 01 ef cd 3c c0 68 38 bd 45 0d aa bc d0 ca ae 3a
       0.02513838 -0.045021772 -0.02075828 0.0013335589
000100 a5 d0 fc 3b 27 ae 01 3d e9 95 25 bd 56 62 2b 3d
       0.007715302 0.031660225 -0.04042617 0.041841827
000110 d7 4e 28 bc 51 6a 4a 3c da 08 4b bc 96 7f 72 3b
       -0.010272703 0.012354449 -0.012392247 0.0037002317
000120 af 6b 6d 3b 9c 1a 94 bc 2e e4 ed bb bf f7 d3 bc
       0.0036227515 -0.018079095 -0.007259867 -0.02587497
000130 93 48 9e bc 4c 49 9d 3a 93 c1 a1 3c 38 06 4f 3b
       -0.019321715 0.0011999994 0.019745624 0.00315894
000140 af ca 5d bc af 5e fe 39 71 2c 79 3a 73 d2 09 3b
       -0.013537093 0.000485172 0.00095052185 0.0021029979
000150 08 76 0c bc 37 05 07 ba b1 39 b5 3b 4e d1 cc 3c
       -0.008573063 -0.00051506184 0.005530559 0.025002148
000160 11 8a 31 bc 9a cc d9 3c a8 89 35 bd 10 0f f2 3c
       -0.01083614 0.02658682 -0.044320732 0.029548198
000170 c9 94 26 bd 86 51 46 bd ec df 9d 3b f4 a5 1d 3d
       -0.040669236 -0.04841759 0.0048179533 0.038488343
000180 68 7e 9a bb 51 ed 95 bc e7 91 e6 3b fa db 21 3d
       -0.004714776 -0.018301638 0.007036436 0.039516427
000190 82 00 a6 3b 59 6b ee bc c3 bb 1c 3c 5e 36 35 3c
       0.0050659785 -0.029103922 0.00956625 0.011060325
0001a0 0a ec 77 3c 9e 27 9a bc 74 af 3c 3b 4b 1e 2f bd
       0.01513196 -0.01881772 0.0028791102 -0.0427535
0001b0 97 16 5e bb a3 d0 18 3d 33 c1 08 bd dd da 03 bd
       -0.0033887976 0.037308346 -0.033387374 -0.032191146
0001c0 af e4 f1 bc 19 af d1 3c 72 e9 0f 3d 60 2a 10 bd
       -0.02952799 0.025596188 0.03513474 -0.035196662
0001d0 fd 02 90 3c a7 52 00 3d 89 52 9c 3a a8 cf a1 3c
       0.01757955 0.031328823 0.0011926453 0.019752339
0001e0 4b bf b0 3c 3a bf 3e 3d 5a ee 3b bc c3 a5 1e 3b
       0.02157559 0.046569087 -0.011470402 0.0024207688
0001f0 d1 55 19 3c 8d aa d4 3c 26 7a bf bc e6 23 5e 3c
       0.009358839 0.025960231 -0.023373675 0.013558364
000200 4d b6 06 bc 2b 75 0f bd 86 48 19 3c 5b e9 46 bc
       -0.008222175 -0.03502385 0.00935567 -0.012140597
000210 fe 1a 0a bd ed e5 0f bd 83 0d 65 bd f0 1f e0 bc
       -0.033717148 -0.035131384 -0.05592109 -0.027358979
000220 80 84 cb 3c 25 3a e6 3b 65 bc 99 bc 49 d6 29 3d
       0.024843454 0.0070259743 -0.018766591 0.041464124
000230 55 4d bc bb 53 f5 11 3d db 81 df bc 49 ca 01 bc
       -0.0057465234 0.03563435 -0.0272836 -0.007921764
000240 8c c0 0f 3d 41 b5 34 bb a2 45 5d bb 13 cb ab 3c
       0.035095736 -0.0027573856 -0.0033763428 0.020970857
000250 d3 6b 01 bd 08 b5 66 bc 0b 71 b1 3c 1d e0 ba bc
       -0.03159697 -0.014081247 0.021660348 -0.022811944
000260 5f df 6c bc f2 12 b6 bc db cd 55 bc 85 0c 1c 3d
       -0.014457553 -0.02222583 -0.013049568 0.038097877
000270 70 6a b5 bb b3 96 fa 3c ec 4d 44 bd ef 7f b3 ba
       -0.00553637 0.030589437 -0.047925875 -0.0013694743
000280 0b 87 b9 bb b5 df 47 bd b2 f4 78 bb e2 48 0e 3d
       -0.0056618503 -0.048797328 -0.0037987647 0.034737475
000290 f4 0b 9b bc 47 c5 70 3c ae f9 35 3b 45 a5 89 bc
       -0.018926598 0.014695472 0.002776723 -0.01680244
0002a0 fb e0 1a bd e1 87 cc bc 19 b5 0a bd 45 5c fe bb
       -0.037812214 -0.024967136 -0.033864114 -0.007762464
0002b0 23 46 aa bc 15 0c e5 3c 40 04 77 3c 3b fb 8a 3b
       -0.020785397 0.027959863 0.015076697 0.004241375
0002c0 47 c5 5b 3c b2 09 ec bc ee a7 16 3c 76 b9 80 3b
       0.013413734 -0.028813217 0.009195311 0.0039283587
0002d0 1d be 1e 3c 37 d6 06 bd 16 a2 ab bc 56 9e 8a 3c
       0.009688881 -0.032919135 -0.020951312 0.016921204
0002e0 ae c8 ce 3c e9 2f a5 3b 62 e4 0a 3c c7 e1 9d ba
       0.025242176 0.0050411117 0.008477302 -0.0012045436
0002f0 37 b1 a5 3c 36 30 c4 3c 24 20 71 bc fb 62 8e bc
       0.020226104 0.02394877 -0.014717136 -0.017381182
000300 f2 b9 9f ba 5f 84 7f 3b 87 d4 55 3d 3a 17 11 3d
       -0.0012186153 0.0038988811 0.052204635 0.03542254
000310 d0 2c 91 3c 2d 33 0f bd c7 2e 9a 3c 18 db 35 bc
       0.017721564 -0.034960914 0.018821133 -0.011099599
000320 c5 19 28 3b e4 90 26 bd 76 51 36 3d e7 95 1f bd
       0.0025650125 -0.040665522 0.04451128 -0.038961317
000330 00 46 e2 bb 3a 83 86 bc 40 6a af bb 6d b0 20 3d
       -0.0069053173 -0.016419996 -0.005353242 0.039230753
000340 07 67 88 bb 37 fe 74 bd 60 00 d8 3b 4f 44 5f bd
       -0.0041626724 -0.05981275 0.0065918416 -0.054508504
000350 b0 6f ef 3c 12 04 24 3d fb 6e 27 3d e0 a7 53 3d
       0.029228061 0.040042944 0.040877324 0.05167377
000360 93 3e c3 bc 64 30 4e 3c 45 10 a4 3c e9 2a db 3c
       -0.023833549 0.012584779 0.02002729 0.02675386
000370 8d 74 b5 3c d0 b9 1b bd 59 3e 2d 3b 0e 06 9e bc
       0.022150302 -0.038019 0.0026434867 -0.019289996
000380 6e c2 17 b9 6f 6a d0 bb e8 80 05 bd 23 d1 e2 bc
       -0.00014472913 -0.006360344 -0.032593638 -0.027687615
000390 0c f4 46 3d cb 68 88 bc 16 fb 93 bc 2a 0f 2a 3a
       0.048572585 -0.016651532 -0.018064063 0.0006487245
0003a0 e5 74 4a bd 1b 02 d5 3c c3 7a 48 bc 06 48 4c 3c
       -0.049427886 0.02600198 -0.0122363 0.012468344
0003b0 2f b5 7a bd 19 8d 86 bd 29 c3 7e 3c 3d 95 f9 3c
       -0.061207946 -0.06569881 0.0155494595 0.03046667
0003c0 01 eb 11 3d a7 0f 00 3c fb 07 4f bc 03 c0 29 bd
       0.035624508 0.007816232 -0.01263618 -0.041442882
0003d0 b6 20 26 3b 81 07 78 ba 65 24 9c 3c 26 c2 cf 3c
       0.0025349087 -0.00094615674 0.019060323 0.025361132
0003e0 46 98 59 3c de cf ee 3c b4 5e 85 ba 4c de 09 3d
       0.013280934 0.029151853 -0.0010175318 0.033659264
0003f0 70 45 b8 3c c8 7c 21 bc 5c 63 1f bc 18 15 ec 3b
       0.022494048 -0.00985641 -0.009728279 0.007204663

action_model._discrete_distribution.branches.0.bias f4 [3]
000000 3c 7b 5a bd 02 78 d6 3b 39 ef 1e 3d
       -0.05334018 0.0065450678 0.03880236

action_model._discrete_distribution.branches.1.weight f4 [3, 256]
000000 45 3e 5f bc 36 53 1e bd f8 f1 7b bc db 74 1b 3d
       -0.013625686 -0.038653575 -0.015377514 0.03795324
000010 9e da 32 bc cf c0 2c bd 21 b2 95 bc 3e 5e 93 3a
       -0.01091638 -0.042176064 -0.018273415 0.0011243296
000020 b3 9c 08 3c f5 d7 b2 bc 87 f0 32 3b 90 48 60 bc
       0.008338141 -0.021831492 0.002730401 -0.013689175
000030 b5 27 a7 3d 46 e3 05 3d f7 96 d2 bb a5 9f e8 3c
       0.081618704 0.032687448 -0.006426688 0.028396437
000040 a5 a8 d3 bc b0 29 ad 3b 82 58 c0 bc 6b ff b0 bc
       -0.025837252 0.0052845106 -0.023479704 -0.021606168
000050 bc d6 64 bb eb cb b2 3c c0 14 e3 bb f0 57 80 bc
       -0.003491803 0.021825751 -0.006929964 -0.015666932
000060 06 8f b2 3c 88 a6 0a bd 4a cf ab bc 16 35 ff 3c
       0.021796715 -0.033850223 -0.020972867 0.031153243
000070 0c 53 85 bc b5 19 a7 3c 0f bd 31 bc af 15 27 bd
       -0.016274951 0.020398 -0.010848298 -0.040792163
000080 07 b0 90 bc a4 a3 5f bd 66 61 00 bc 20 a7 96 bc
       -0.017662061 -0.05459942 -0.007835722 -0.018390238
000090 ba 26 64 3b c9 1d 85 bb 80 c5 f1 bc 32 4a 94 3c
       0.0034813122 -0.0040623886 -0.02951312 0.018101785
0000a0 0d c8 24 bc 81 fc 36 3d 48 be 14 bb af e3 12 bb
       -0.010057461 0.0446744 -0.0022696424 -0.0022413542
0000b0 14 c2 a5 ba 5d 1f d2 bc 78 21 76 3d 28 16 69 3c
       -0.0012646341 -0.02564972 0.060090512 0.014226474
0000c0 e3 c1 d2 3c 37 70 c6 39 9e 7b 04 3c 2e 6e 8c 3c
       0.025727218 0.0003784911 0.008086113 0.017142382
0000d0 a4 05 46 bd 35 58 bb bb 87 83 bf 38 60 08 20 bc
       -0.048345223 -0.005717302 9.1320886e-05 -0.009767622
0000e0 89 56 93 3c 05 63 5b 3b 3b ca 04 3c 13 94 14 3d
       0.0179856 0.0033475768 0.008104856 0.036274027
0000f0 fc b4 a4 bc 58 f1 ad bb de b9 d5 3b db bc c4 bc
       -0.020105831 -0.0053083114 0.0065224012 -0.024015835
000100 2c bc 06 bd 61 06 aa bc 3d a7 82 3d cc 09 44 bc
       -0.0328943 -0.020754995 0.063795544 -0.011965226
000110 1c 89 7b bd 35 28 e5 bc af 97 1f 3c c0 c0 11 bc
       -0.061410055 -0.027973274 0.009740754 -0.008896053
000120 e4 16 a6 bc 86 a8 20 bd 22 26 4b 3d 31 45 9c bc
       -0.020274587 -0.039223216 0.049596913 -0.019075962
000130 1f 6b 97 bc 43 a8 de bb ff f5 0a bd 09 17 9f bb
       -0.018483697 -0.0067949607 -0.033926006 -0.004855041
000140 88 21 1e bd a0 64 c0 bb 90 66 06 3d ae 38 23 3b
       -0.038606197 -0.0058713704 0.032812655 0.002490561
000150 92 f7 89 ba 9d eb 00 bc 9a 3c 17 bd 60 51 1a bb
       -0.0010526052 -0.007868675 -0.03692303 -0.0023547038
000160 c5 35 e9 bc df 0a 92 bc 57 2a 21 3d 04 f7 d3 3c
       -0.028468022 -0.01782745 0.03934702 0.025874622
000170 68 74 d0 bd 74 8f aa 3b a2 86 07 3c 22 b5 8f 3c
       -0.10178453 0.005205089 0.008271845 0.017542426
000180 75 b0 ca bc 93 92 9d bc 90 83 7a 3c 25 f4 d6 bc
       -0.024742344 -0.019234931 0.015290156 -0.026239464
000190 76 10 21 3c 3f bf 07 bd f0 bb fd bb 1d 86 3f 3d
       0.009830585 -0.03314137 -0.007743351 0.04675876
0001a0 6b 4c 5c 3d 1f d5 98 bc 9b 4a f5 3c 8a 88 2e bd
       0.053783815 -0.018656312 0.029942801 -0.042610683
0001b0 5e 8d e9 bc a0 7e 9c bc 6a 5a b3 3a 5a 3b 35 3d
       -0.028509792 -0.019103348 0.0013683562 0.044246055
0001c0 10 42 ea bc 6e fa a0 3c c7 61 41 bc b3 56 2a 3d
       -0.028595954 0.019650664 -0.011803097 0.04158659
0001d0 2a 59 d0 bc 5f 73 26 3b ab 24 9d bc f9 43 bf 3c
       -0.025433142 0.0025398356 -0.019182524 0.023347842
0001e0 2a f7 98 bb 72 42 2b 3b 70 81 15 3d 4f 74 60 3c
       -0.004668136 0.0026132134 0.036500394 0.013699605
0001f0 75 fd 2f 3d a9 b4 0a 3d a5 21 3b 3d 11 b2 97 3b
       0.042966325 0.033863697 0.045686383 0.0046293815
000200 da ba 84 3c dd d6 4a 3d a3 6d 72 bc 0f 65 5c 3b
       0.016202379 0.049521316 -0.014796647 0.0033629572
000210 48 5d bc 3c fe b6 5d 3c 41 68 e8 3b b5 61 fe ba
       0.022993699 0.013532398 0.007092506 -0.0019407781
000220 33 dd 49 3d 0d a7 c0 bc 79 5d 60 3c d7 c1 1d 3d
       0.049283218 -0.023517156 0.013694161 0.03851494
000230 8a 9f 3c 3d 10 08 9f bc 0a db 00 3d 72 ae 0a bc
       0.046050586 -0.019413024 0.031458892 -0.008464443
000240 98 2a aa bb d3 cb 21 bd a1 56 c0 bb ba 87 28 bc
       -0.005193066 -0.039501023 -0.005869702 -0.010286266
000250 21 5d 7a bc 31 22 60 bd fb d4 c1 bc 88 f1 10 3d
       -0.015280993 -0.054720107 -0.023661127 0.035386592
000260 00 21 a3 3c 4a e0 a0 3c e2 4c 2d bb e8 0b ea bc
       0.019913197 0.0196382 -0.002644353 -0.02857013
000270 83 69 f2 bc 0a 55 2a 3d 39 78 e4 bc 08 15 72 bd
       -0.029591328 0.041585006 -0.027889358 -0.05910209
000280 af d7 12 3a 53 b2 fe 3b 2a d0 3e bd 0b 3a 0f 3c
       0.00056015974 0.0077727227 -0.04658524 0.008741866
000290 6d 75 0e bd 54 f8 6e bc 7d af 6d 3c 5f 11 18 3c
       -0.034779955 -0.014585573 0.014507172 0.009281485
0002a0 38 0f 97 bc 87 a3 2b 3d ee a1 05 bd ed b0 20 bc
       -0.018439874 0.041904 -0.03262513 -0.009807807
0002b0 83 b5 68 3d 45 0e 89 3b c3 00 25 bc ff f1 07 3c
       0.056813728 0.0041826093 -0.010070982 0.008297442
0002c0 07 e8 b8 bc e9 69 c8 bc f1 14 ac bc 20 ff 6b 3c
       -0.022571577 -0.024464564 -0.02100608 0.014404088
0002d0 ea 92 69 3d e3 be 08 3c cf 09 26 bc 47 55 29 bb
       0.057024874 0.008346292 -0.0101341745 -0.0025838183
0002e0 f3 24 bc 3c fc a4 37 bc 65 dd 95 3c dc 6f 73 bc
       0.022966838 -0.011208769 0.018294046 -0.014858212
0002f0 30 63 5d 3c aa 32 1d 3c 25 9f ba 3c 52 60 af 3d
       0.013512418 0.009594599 0.022780964 0.085632935
000300 c8 06 ff bb f8 8c 80 3c eb 43 c2 3b ac d4 a2 3d
       -0.007782791 0.01569222 0.0059285066 0.0795072
000310 35 dc 01 bd d8 72 0c bd 49 61 a7 3c ba f0 43 3c
       -0.031704146 -0.03428921 0.020432131 0.011959249
000320 45 19 17 bb a5 e6 92 bc d9 83 c1 3b 36 13 d4 3a
       -0.0023055833 -0.017932246 0.00590561 0.0016180042
000330 09 96 24 3d f7 67 3c bd d0 ec 44 bd 79 f5 e8 3b
       0.040182147 -0.045997586 -0.048077404 0.0071093407
000340 66 77 12 bd 09 9a 22 3c a0 e5 a4 bb 51 8c 49 3a
       -0.0357584 0.00992442 -0.0050322562 0.000768845
000350 72 1f 91 3a d7 b7 f6 bb b5 e4 dc 3c c9 87 53 3a
       0.0011071994 -0.0075292396 0.026964525 0.0008069245
000360 8a 76 3a bd 57 43 b5 bb b4 64 c8 bc 30 e5 65 3b
       -0.045523204 -0.005531709 -0.024462081 0.0035079233
000370 ca 91 b3 3a 38 9d ad 3b 80 ab f3 3c f0 1a 2a 3b
       0.0013700065 0.005298283 0.029744864 0.0025955997
000380 2c ed b2 3c ff 51 ea bb c5 e6 ee 3b 67 34 35 bd
       0.021841608 -0.007150888 0.0072906935 -0.044239428
000390 74 1f 1e 3d ad 66 4b bc d0 da 92 bc c3 70 0c 3c
       0.038604215 -0.0124146165 -0.017926604 0.008571806
0003a0 8d 8c 4a bc 3a 77 cb 3c 2e cd c7 bc 93 46 0a 3d
       -0.0123626115 0.024837125 -0.02438983 0.03375871
0003b0 d5 07 ac bb 1d 31 80 3c 9e f2 68 bb 96 75 04 bd
       -0.005249957 0.015648419 -0.0035545002 -0.0323387
0003c0 8d 0a 13 3c 7b fb 99 bc 2f ce 6e 3c 6c 46 24 ba
       0.0089746835 -0.018796673 0.014575525 -0.0006266597
0003d0 f2 31 07 bd 31 73 ae 3c fd 5b ad 3c 98 a9 df bb
       -0.033006616 0.021295162 0.021162027 -0.006825637
0003e0 10 3d 28 bd ce e7 ce 3c 26 a1 2b 3d 46 66 f9 3c
       -0.04107386 0.025257017 0.04190173 0.030444276
0003f0 32 31 ac 3a 7a 34 04 bd 84 93 13 bc 43 0e 54 3d
       0.001313722 -0.032276608 -0.009007338 0.051771414

action_model._discrete_distribution.branches.1.bias f4 [3]
000000 7b b8 64 3c cf b4 3a 3b 70 f9 77 bc
       0.013959999 0.0028489118 -0.015135154
