Assets/ML-Agents/results/Andrew ML/Smaller (finished)/SimpleCollector.onnx (onnx, 42616 bytes, 15 tensors)

action_model._discrete_distribution.branches.0.bias f4 [3]
00000000: 3989 083f 18ad 7fbf bccf 513f
0.53334385 -0.99873495 0.819576

action_model._discrete_distribution.branches.0.weight f4 [3, 50]
00000000: 4301 3b40 b57e 02bf 8557 c43f b7ee 9ebe
00000010: a7b9 55bf 3447 ed3f 183a ac3f 958d 993f
00000020: 1889 073e 6857 3d3f 80b7 4d40 10ef 1cbf
00000030: a023 f1be 6ae7 0f40 0107 c8be 61d0 8a3f
00000040: 3ebe 83be fb6c d63f ba42 e73d 41d5 8f3f
00000050: 5684 bb3f e96b 0840 540e 873f 39c5 a53f
00000060: 0a36 763f f91a e93f 8a98 dd3e 21eb 2040
00000070: 90b0 0f3f 886a f43f 8b4e 0940 6325 c7be
00000080: 5fc9 0240 6038 04be 625d 5d3f e29e a13f
00000090: c3f7 923f d5dd 40bd fca8 903f 8a9d 2cbe
000000a0: 0bc5 be3f c3f6 e23f bad2 7f3f 8d8d 1040
000000b0: f09b 733f f2f9 283d 64f6 a53f 45aa 3d3f
000000c0: 1494 383f 5d50 513f fd1d 25c0 fd6e 04c0
000000d0: 7950 9bbf 9ad7 e03e eefb 01c0 0c3c 0640
000000e0: f656 8ebf 4180 1cc0 5be3 183f a19f bbbf
000000f0: c3e3 e8bf 5024 863f 7dfe 973d 7f47 28c0
00000100: 0d89 43bf a288 a8bf 4bf1 c93f 3018 86c0
00000110: 54b9 c5bf 8b7a 513f 64e2 9c3f 852a 833f
00000120: 4af1 34c0 d109 60bf 3d78 d1bf c5c8 b5bf
00000130: e72e a6bf ab23 76c0 7b6b 13c0 6a1e 24bf
00000140: 12b8 65c0 da45 8e3f 7506 0640 15bf 3e3f
00000150: 6617 c73f e155 8fbf 32df a8bf 18dd 12c0
00000160: 34c1 cdbf ba68 98bf 3f6e 85bf b711 74c0
00000170: b22b 9ebf aed9 4bc0 a825 c0bf 0fb0 883e
00000180: e468 2dbf 6696 0cc0 dd19 bcbf 0152 02c0
00000190: 8b47 8ebd 7928 4d40 7eb3 733f 148b 9dbd
000001a0: b2ff 8140 62ac 82c0 6f58 2b3f 1aca d83f
000001b0: 3685 0fbe ca3e 563f f78f bcbf 7157 9fbe
000001c0: bbe9 903f 823d 8b3f 9f49 e23f 6c32 4a3f
000001d0: 61e3 d7bf 1895 7e40 60ae 0c40 430a d1bf
000001e0: 5528 3fc0 d87d 3dc0 1f2a 0340 43bd b8be
000001f0: 16f8 b83f 0c78 073e 5000 d23f 4c58 ab3f
00000200: 5712 2640 8436 9dbf 5685 2340 7529 10be
00000210: 344c 82c0 d581 843e ab7a 1dc0 e3ce 233f
00000220: 7751 c93d a7aa 6f40 227b 233f e753 e43f
00000230: 8e92 0fbf 8696 4940 7055 483e 53af c43f
00000240: 30d2 9a3f 3a5e 12bf b46c 4bbf ca6f 2e40
00000250: 547e 5f3f 209d 8a3f
2.921952 -0.5097459 1.5339209 -0.310415 -0.8348641 1.8537354 1.3455229 1.1996332
0.13235891 0.73961496 3.214325 -0.6130228 -0.47097492 2.2484994 -0.39067844 1.0844842
-0.2573108 1.6752008 0.11292024 1.1236955 1.4649761 2.1315863 1.0551248 1.2950813
0.9617621 1.8211356 0.4328044 2.5143511 0.5612879 1.9095011 2.145419 -0.3889571
2.0435407 -0.1291213 0.86470616 1.2626612 1.1481861 -0.047086556 1.130157 -0.16856971
1.4903883 1.7731556 0.9993092 2.2586396 0.95159817 0.04125399 1.2965817 0.74087936
0.7210095 0.8176325 -2.5799553 -2.0692742 -1.2133933 0.4391449 -2.0310016 2.097415
-1.1120288 -2.445328 0.59721917 -1.465809 -1.8194507 1.0479832 0.07421587 -2.6293638
-0.76381 -1.3166697 1.5776762 -4.1904526 -1.5447183 0.8182761 1.2256589 1.0247351
-2.827227 -0.8751498 -1.6364819 -1.4201895 -1.2983063 -3.845927 -2.303435 -0.6410891
-3.5893598 1.1115067 2.094144 0.7451032 1.5554016 -1.1198083 -1.3193114 -2.2947445
-1.6074586 -1.190696 -1.042427 -3.8135812 -1.2357085 -3.185161 -1.5011492 0.26696822
-0.67738175 -2.1966796 -1.4695393 -2.0362551 -0.069472395 3.2055953 0.9519576 -0.07692543
4.062463 -4.083543 0.66931814 1.6936677 -0.1401566 0.8368956 -1.4731435 -0.311214
1.1321329 1.0878146 1.7678717 0.7898319 -1.6866266 3.97785 2.198143 -1.6331257
-2.9868367 -2.960806 2.0494459 -0.36081895 1.445071 0.13229388 1.6406345 1.3386321
2.5948694 -1.2282262 2.5550132 -0.14078315 -4.071802 0.25880304 -2.460612 0.6398756
0.09829991 3.7447908 0.6385976 1.7838105 -0.56083 3.1498122 0.19563842 1.5366005
1.2095394 -0.5717503 -0.7946274 2.725573 0.87302136 1.0829201

action_model._discrete_distribution.branches.1.bias f4 [3]
00000000: 85a9 22be 4c40 83bf cc74 e03f
-0.15884979 -1.0253997 1.7535644

action_model._discrete_distribution.branches.1.weight f4 [3, 50]
00000000: 47b4 9e3f 1390 af3f 0492 543f 962b 0840
00000010: 8f2f bdbe 154d 243e 5f9b 0dbf 2ea1 86c0
00000020: 1847 37c0 a8b4 f5be 38a0 6c3e 660d 863e
00000030: b95f 4e3f fa8c 723d 3773 d1bf 0c66 00bf
00000040: 6827 fc3f 2a11 96be 0edb a9bf 6385 5c3f
00000050: bb1f 08bd e8ce cc3e 4de6 6c3f 0ecb 14c0
00000060: e033 97c0 f670 943f 9564 80bf bef7 523f
00000070: d3aa f9bf f63d 5e3f 6775 133f 3d8a 023f
00000080: 69b3 413f 9d97 0540 ecf0 fb3e 860d eb3d
00000090: 0b9d 573c 2ca1 24c0 c74e febe 1318 2abf
000000a0: e502 d33e 0166 febf ced3 80c0 1a99 76bf
000000b0: b27d 213f 1568 6c3f 5804 053f 5420 bbbf
000000c0: b411 efbf da9b f0bf 40b4 893e 85bf ed3f
000000d0: 00c4 09c0 10db 1ac0 5874 443e 4ec9 363d
000000e0: 7b3b c23d 5a58 cf3f ab52 933f 30c9 a7bf
000000f0: 9b2b b3bf 3797 40bf 388f bdbe 2043 acbf
00000100: cdbd b2be 5cb0 da3e 4789 64c0 5483 b53f
00000110: eb6a 49bf 7fa1 febf c734 22bf fda1 273f
00000120: cbe0 95bf 7e25 2040 53d1 b93f 94bd d3bf
00000130: c94a 23bf 21bb 44bf 48dd 87be f9fb b4bf
00000140: 19a1 e3be 07a6 23c0 9bf7 53bf 9924 9ebf
00000150: b9d4 a6bf 2568 81bf 5928 c6be 3391 2840
00000160: c608 91bf 187e 36bf aa97 e9bf a4cf 943f
00000170: 4fad af3f e6e2 e0bc e988 bcbf 2b0d 0dc0
00000180: efb7 c8bf 4eb5 863e 06a4 523e 5051 993e
00000190: 1fea c1bf d8ae 35c0 fb41 1040 4618 b13f
000001a0: fb82 e83e b822 5e3e 5cb3 843f 5eb4 6840
000001b0: 7a5c 1a40 e517 2240 32c8 f13f 7afd 623f
000001c0: d272 343f dd59 0540 9d2c 5040 818b cd3e
000001d0: ce34 1d40 6b79 46bf 69e0 0840 ceee c83f
000001e0: 18ad 6f3f 0dd6 e2bf 1239 1dbf aec7 8f3f
000001f0: 6b7a 5640 9b8a 7a3f 9a71 1d40 0d0e 8b3f
00000200: be06 5c40 8f6d c03f b2af 4fbe 6edd 3c40
00000210: a759 6e3f 23e5 e0bf d900 b83f ecec ba3f
00000220: b266 a43f 80d6 30bd a6ab 1b40 a97d ce3f
00000230: 22f8 1740 c883 473f 33e7 3d40 5f1d 433f
00000240: b360 a73f cebb 653f cd21 1540 0ff0 1f40
00000250: cb83 f33f 172b 2540
1.2398766 1.3715843 0.830353 2.1276603 -0.36950347 0.1604503 -0.553152 -4.2071753
-2.8637142 -0.47989392 0.23107994 0.26182097 0.8061481 0.059216477 -1.6363286 -0.5015571
1.9699526 -0.2930997 -1.3269975 0.8614103 -0.033233386 0.40001607 0.9253891 -2.3248935
-4.7250824 1.1596973 -1.0030695 0.82409275 -1.9505256 0.86813295 0.57601017 0.50992185
0.75664383 2.0873787 0.49207246 0.11477189 0.013160001 -2.5723372 -0.49669477 -0.66442984
0.41213146 -1.9874879 -4.025855 -0.96327364 0.6308242 0.92346317 0.51959753 -1.4619241
-1.8677278 -1.8797562 0.26895332 1.8574072 -2.152588 -2.4196205 0.19185007 0.044625573
0.09484001 1.6198838 1.1509603 -1.3108273 -1.3997682 -0.75230736 -0.3702333 -1.3457985
-0.34910432 0.42712677 -3.5708787 1.4180703 -0.7867877 -1.9893035 -0.6336178 0.6548155
-1.1709226 2.5022883 1.4517006 -1.654223 -0.6378599 -0.76848036 -0.26536012 -1.4139396
-0.44458845 -2.5570085 -0.8279969 -1.2354919 -1.3033668 -1.0109907 -0.38702658 2.6338623
-1.1330802 -0.71286154 -1.8249409 1.1625867 1.3724765 -0.027451944 -1.4729282 -2.2039287
-1.5681132 0.263102 0.20570382 0.2994485 -1.5149573 -2.8387966 2.2540271 1.3835533
0.4541243 0.21692932 1.0367236 3.6360087 2.4118943 2.5327084 1.888922 0.88668025
0.704877 2.0836098 3.252723 0.40145496 2.456348 -0.7752902 2.138697 1.5697877
0.93623495 -1.7721573 -0.6141521 1.1232812 3.3512218 0.97867745 2.4600587 1.0863663
3.4379115 1.5033435 -0.20281866 2.951015 0.9310555 -1.7569927 1.4375259 1.4603553
1.284384 -0.043173313 2.4323516 1.6132098 2.3745198 0.7793546 2.9672363 0.7621669
1.3076385 0.8973969 2.330188 2.499027 1.9024595 2.580755

action_model._discrete_distribution.branches.2.bias f4 [3]
00000000: 6273 383e a042 1d3f 3fcb f5bd
0.18012765 0.61429787 -0.12001657

action_model._discrete_distribution.branches.2.weight f4 [3, 50]
00000000: 96de bc3e d54b 963f d873 373f b3a6 c63e
00000010: 04e9 713e c653 6a3f 4646 5c3f 149a 1e3f
00000020: 80c6 9ebc 0245 82bf 8ccf 6a3f 3b08 04c0
00000030: a292 f33e cce6 993e 95e9 08c0 36e2 e03d
00000040: db67 58bf fd25 5abe 56a1 58bf a4d6 993d
00000050: fad4 48bf 915f f13f cd7d 553f 1526 c4bb
00000060: e049 b9bd 7087 8dbe 86bd 10bf d55e aa3e
00000070: 6d7c a8bf 61f5 5cbe b256 273f 7657 303e
00000080: 70bb 1e40 3daf afbf 7288 9d3f ee49 89bf
00000090: 09d5 a43f c1b4 f63d d467 21be d52c abbf
000000a0: 842d 8a3f 9675 203f afc0 4a3e 44c5 3b3f
000000b0: e1c8 e33f 3ab1 353e 6776 d4bd 900d 65bf
000000c0: 255e 7dbf 676c 99be 9382 173e fd6e 6a3f
000000d0: f626 fbbc 29b9 06bf e772 92bf d719 86bf
000000e0: 672a 423f aa96 813e a35c 24bf 42f7 ed3f
000000f0: 8e3f 29bf 1902 613f 3a12 d93e 2717 cebe
00000100: e47a 3cbe 2562 b93e b471 ac3f 5daa b8be
00000110: 7868 f4be aa9a 833f edba dd3f 5af6 48bf
00000120: 95c7 963f 1309 c03e 29aa 29bf 3dcf 8e3f
00000130: 1b1a e43e d452 eebd d601 823f 97e9 6dbf
00000140: 29ff 933d 5a55 b53f d264 59be bb0c 4f3f
00000150: 0c33 873f 3bfd f33f 084e 1e3f 2a3d 1ebe
00000160: 6865 6ebe 0ee7 ac3f 69da c6bf 5338 60bf
00000170: 012b ccbe 96af bfbf febc 023b 4fa1 0d40
00000180: d713 e33e f376 a5bd d306 2d3e 4115 18be
00000190: b21c 45bf 0a7c 08c0 06c5 68bf 7266 e53e
000001a0: f588 7a3f 8dbb 853f 5ed5 eebf 2693 fdbe
000001b0: aeb6 613f 8e70 6abf 2f4f ee3d 587f 8e3f
000001c0: cd12 3cbf ece0 42be c998 f33f 8cc7 eabd
000001d0: e916 1dbf 6e39 3bbd 3f63 9d3f 4779 acbf
000001e0: 551f 943e a3e8 11bf 94fb dabf cc92 363f
000001f0: a4e8 e13e a9ce aebf ec89 813e d5b2 1abf
00000200: 5682 083e a1ba 1b3f 4400 05bf 1ab6 a9bf
00000210: 2eeb b0bf ba19 113f 11fc ffbf 0251 e5be
00000220: 2a9b acbf f09b 1ebf c4a6 4f3f 6a2b 4b3e
00000230: cc59 713e d546 c5bd c0bc ae3e ca69 f43e
00000240: f480 b3bf 9745 20c0 cb42 39bf 5101 0b3f
00000250: 8df7 173f 6fad 683e
0.3688857 1.1741892 0.7166114 0.38799056 0.23624045 0.9153408 0.8604473 0.61953855
-0.019381762 -1.017731 0.9172294 -2.0630023 0.4757281 0.30058897 -2.1392567 0.10980646
-0.8453347 -0.21303554 -0.8462118 0.075116426 -0.78449976 1.885729 0.8339508 -0.005985985
-0.09047294 -0.27642393 -0.5653919 0.33275476 -1.3162972 -0.2157798 0.6536666 0.17220864
2.4801903 -1.3725353 1.2307265 -1.0725687 1.2877513 0.12046195 -0.15762264 -1.3373057
1.079514 0.6267942 0.19800065 0.7334788 1.7795678 0.17743388 -0.10374146 -0.8947382
-0.9897178 -0.29965517 0.14795904 0.91575605 -0.030658226 -0.5262628 -1.1441315 -1.0476636
0.7584595 0.2531026 -0.6420385 1.8591082 -0.661126 0.87893826 0.42396718 -0.4025204
-0.18406254 0.3620769 1.34722 -0.36067477 -0.47735953 1.0281575 1.732267 -0.785009
1.1779658 0.37506923 -0.6627527 1.1156994 0.44551167 -0.11636892 1.015681 -0.92934555
0.07226402 1.4166672 -0.21229866 0.808788 1.0562453 1.9061655 0.61837816 -0.1545302
-0.23280871 1.3508012 -1.5535403 -0.87585944 -0.3987656 -1.497546 0.0019949074 2.2129705
0.44351074 -0.080793284 0.16897134 -0.14851858 -0.7699691 -2.1325707 -0.90925634 0.44804722
0.9786523 1.0447861 -1.8658864 -0.49526328 0.8816937 -0.91577995 0.11636197 1.1132612
-0.7346619 -0.19031113 1.9031001 -0.11463842 -0.61363083 -0.045709066 1.2295913 -1.3474511
0.28930154 -0.569956 -1.7108026 0.71317744 0.44122803 -1.3656818 0.2530054 -0.60429126
0.13330969 0.6083165 -0.5195353 -1.3258698 -1.3821771 0.5667988 -1.99988 -0.44788367
-1.3484852 -0.6195669 0.8111384 0.1984078 0.23569411 -0.09632651 0.3412838 0.4773696
-1.4023728 -2.5042474 -0.72367543 0.54298884 0.5936211 0.2272241

discrete_action_output_shape f4 [1, 3]
00000000: 0000 4040 0000 4040 0000 4040
3.0 3.0 3.0

network_body._body_endoder.seq_layers.0.bias f4 [50]
00000000: 477f a4bf 2ba0 0dc0 9280 b1bf a632 37bd
00000010: a661 d0bf 4a90 c0be 2502 dbbe 5f78 f0bf
00000020: 0c85 b5bf db51 2bbf e2a3 56bf 7949 a53d
00000030: cec4 cabf 5fd6 f8be 8800 79bf 8837 0fbf
00000040: a237 17bf d155 51bf 9453 fbbe 8e3c cdbe
00000050: 5bc3 91bf 37c5 03be 0cc4 e5be cc70 06be
00000060: 5c43 82be 7330 473c 8d03 95be 3712 d7bf
00000070: 89a8 89bf e4a7 a63b c56d 79b9 217e 33bf
00000080: e981 99be cc44 eabe f9b8 c1be ccf4 17bf
00000090: e40d 1e3f 3191 81be fd4f 78bf c652 09c0
000000a0: 1c72 793f 9555 fbbe 24f6 0fc0 2864 543e
000000b0: d18f 17c0 45ea 37be a78b 43be a2a9 bbbf
000000c0: 2f3b bfbe e526 433e
-1.2851342 -2.2129009 -1.3867362 -0.044726036 -1.62798 -0.37610084 -0.42775074 -1.8786734
-1.4181228 -0.66921777 -0.83843815 0.080706544 -1.584131 -0.48601052 -0.97266436 -0.5594411
-0.59069264 -0.8177157 -0.49087203 -0.40085262 -1.1387743 -0.128682 -0.44876134 -0.13128966
-0.25442016 0.012157547 -0.29104272 -1.6802434 -1.0754558 0.005085932 -0.00023787383 -0.7011433
-0.29981926 -0.45755613 -0.37836435 -0.59357905 0.61739945 -0.25306085 -0.9699705 -2.145677
0.9743974 -0.4908873 -2.2493982 0.20741332 -2.3681529 -0.1796046 -0.19096242 -1.4661143
-0.3734984 0.19057806

network_body._body_endoder.seq_layers.0.weight f4 [50, 27]
00000000: 1eca bcbf e8f8 c3bf 459a 08c0 4770 bdbf
00000010: d91d aebf 3638 bcbf ae47 fabf de46 2fbf
00000020: e4fb 5cbf 3f77 9fbf db3b 06c0 e184 03c0
00000030: 1313 02c0 e292 8abf 7ec2 6fbf 881b 98bf
00000040: ca03 88c0 1899 39c0 5e62 7cbe 49e3 88be
00000050: 8943 eebe 63c6 22bf 8d3a 25bf 9cd9 5ebf
00000060: 7595 b5bf 5542 9cbf 9356 aabf fcb2 d6bf
00000070: 30cd b6bf 34f1 adbf db04 1dc0 9368 a1be
00000080: fc4e 6ebf 4bd3 f4be 6c06 e7be 2905 94bf
00000090: d867 c9bf 53ae e8bf ff95 b1bf 4e85 cfbf
000000a0: 8809 3dbf 0dad 59bf 53ce 48bf 153c 02c0
000000b0: 43fb efbf 0b2c aabc 0049 a7bd ad54 39bf
000000c0: bc0a cebf 451c 3fbe 23de 6bbf 6323 78bf
000000d0: ed47 f4bf 0a48 ebbf d0a0 373f 2c5b a93d
000000e0: 59d8 2bbf da89 b1bf b83f b7bd cb51 f53e
000000f0: c776 66be d825 8bbf 25eb b5bf 9e2d 9ebf
00000100: 298a 023f d369 9f3e 76a3 c3be 07f4 b9bf
00000110: 02d0 6ebf 69ff 7ebf 7d3f 2b3f 2101 12be
00000120: c9c7 183f a8ff 01c0 1d97 bbbf 3caa 85bf
00000130: 3b18 acbe e8a0 05bf 9b63 a3bf c5d8 e5bd
00000140: 5855 f2bc ae9f 0fbf 5f8a 43bf a423 eabe
00000150: 3035 96bf 6aea d4be 7f5c 33bf b159 f4be
00000160: bacc 683e 2e44 873e 8e58 abbf 6726 67bf
00000170: 5a1c a6bf 171d 38bf e219 99bf a3d0 8cbf
00000180: 4936 d7be 2bfd 49bf e75e b5bf 9355 ddbf
00000190: f5c8 0d3f 78b1 ae3d 8d70 aabd f410 25bf
000001a0: d28d 23bf cdcf 0a3e 6127 11bf 6427 66bf
000001b0: 2612 89bf 9f6a ecbc 083b b53e 67e9 d9bf
000001c0: 97dc 9bbf 8077 afbf 574d 60bf b5d1 a43e
000001d0: fb71 3e3e eea9 443e 2644 58bf a1e4 f8be
000001e0: 8622 a6bf bfab c3be 204c 03bf 8355 62bf
000001f0: 3122 86bf c26a 6cbf 143a 023f fa04 50bf
00000200: 56f8 71bf c95a 4e3f 4ca3 0ec0 ec5f 0bc0
00000210: ad46 0bbf ea20 91bf 4468 7fbf 28be 193e
00000220: 0439 12bd 4476 833e f4a3 f7be 1196 55bf
00000230: 8e3d 92bf ced8 47be 8320 813f 65cd 803f
00000240: daf1 adbd 85fe b2be 9275 6fbc 00b9 cf3c
00000250: 68d7 b8bf b8a2 31bf dfae c13c 56ea b1bf
00000260: b667 c6bf a3c7 243e f231 d4be 238c 94bd
00000270: 1ff5 ebbf c7c1 c8bf cd93 04c0 a726 c7bf
00000280: 3000 4fbe 6678 c4be 8c96 a7bf 72e4 0abe
00000290: d740 b5bd fa5c 6d3f 7776 563e b795 053f
000002a0: 2c38 f9be bbe3 353e 6d0d 9c3e d657 eebf
000002b0: c129 793f 9818 773f dc72 e7bf fefc 7dbf
000002c0: df8c 38bf e38b f43e a182 f7be ee36 c1be
000002d0: b922 19bf 6cf8 0cbf 4795 23bf 43d6 a1bf
000002e0: b67f 9c3e bb08 f5be 3cae 1fbf 4126 05c0
000002f0: 9230 dcbf bac3 0bc0 e997 00bf 257f 77bf
00000300: 6eb7 cbbf ef9f 8fbf 2982 bdbf e516 ae3e
00000310: da6c 99bf 5a7b 48c0 10f8 c5bf f5fb 52bf
00000320: 6233 70bf 9640 37bf ceff 92bf f585 b4bf
00000330: 394e fbbf 6085 ddbf 5121 ebbf 6704 23be
00000340: b691 b5bf 3c23 dbbf 3599 bc3e 6db9 afbf
00000350: d87d a5bf 2a93 7b3e e1e3 efbf 6b21 f1bf
00000360: bf95 21bf c833 84bf 6520 7dbf d478 c0bf
00000370: 2875 973e d1ce 8a3d e45c 0dbf fe94 95bf
00000380: 1b17 a1bf 0ffb f1bd 6de5 9dbf 6f6c 88bf
00000390: 1673 e9be 9a03 dfbe 4a0d cebe fef3 9dbf
000003a0: 9550 afbf fed2 abbf d53e a83e 425c acbf
000003b0: e425 d9bf 1e8d 7d3f 4f36 1cc0 bcde 11c0
000003c0: ad67 53bf 588e 6fbf ef23 3fbf 8feb b9be
000003d0: 52f4 a6be 9fdc 4cbf 1b36 bc3e beb3 363e
000003e0: ba70 bd3e ceb2 39be 890f 07bf 81c5 89bf
000003f0: dd7a 313e fb0b 20bd 3073 5cbe 1a65 f9be
-1.4749181 -1.5310335 -2.1344159 -1.4799889 -1.3602859 -1.4704654 -1.9553125 -0.6846751
-0.86321855 -1.2458266 -2.0974033 -2.0549853 -2.0324142 -1.0826075 -0.93656147 -1.1883402
-4.2504625 -2.899969 -0.24646899 -0.26735905 -0.465359 -0.63583964 -0.64542466 -0.87050796
-1.4186236 -1.2207743 -1.330767 -1.6773372 -1.4281368 -1.3589234 -2.4534214 -0.31525096
-0.9308927 -0.47817454 -0.45122087 -1.1564075 -1.5734816 -1.81782 -1.38739 -1.6212556
-0.7384267 -0.8502968 -0.78439826 -2.034917 -1.8748554 -0.020772954 -0.081682205 -0.7239483
-1.6097026 -0.18663128 -0.9213583 -0.96928996 -1.908445 -1.838136 0.71729755 0.08269343
-0.67126995 -1.3870194 -0.089477 0.47913966 -0.22506247 -1.0870924 -1.4212385 -1.2357671
0.50992066 0.31135425 -0.38210648 -1.4527596 -0.93286145 -0.99608475 0.6689375 -0.14258243
0.5967985 -2.031229 -1.4655491 -1.0442576 -0.33612236 -0.5219865 -1.2764772 -0.11222986
-0.02958171 -0.56103027 -0.7638301 -0.45730317 -1.1734982 -0.41585094 -0.7006301 -0.4772468
0.22734347 0.26419204 -1.33864 -0.9029297 -1.2977402 -0.7191939 -1.1961024 -1.1001171
-0.42033604 -0.7890193 -1.4169587 -1.729174 0.5538476 0.08529943 -0.083222486 -0.64478993
-0.63888276 0.13555832 -0.5670071 -0.89903855 -1.0708663 -0.028859435 0.353966 -1.7024354
-1.2176694 -1.3708344 -0.8761801 0.32191244 0.18598168 0.19205448 -0.84478986 -0.4861193
-1.2979286 -0.3821697 -0.5128803 -0.8841173 -1.0479184 -0.923504 0.5086987 -0.81257594
-0.94519556 0.8060728 -2.2287169 -2.1777296 -0.5440472 -1.133817 -0.9976847 0.15013945
-0.035698906 0.25676167 -0.48367274 -0.8343211 -1.1425035 -0.19516298 1.0088047 1.0062681
-0.08493395 -0.34959808 -0.014615433 0.02535677 -1.4440737 -0.69388914 0.023642955 -1.3899639
-1.55004 0.1609178 -0.41444355 -0.072532915 -1.843418 -1.5684136 -2.071521 -1.5558671
-0.20214915 -0.38373107 -1.3092818 -0.13563707 -0.08850258 0.92719996 0.20943628 0.5218157
-0.48675668 0.17762654 0.30478993 -1.8620555 0.97329336 0.965219 -1.8081927 -0.9921416
-0.7208995 0.47762975 -0.4834185 -0.3773722 -0.5981861 -0.5506656 -0.63899654 -1.2643512
0.30566186 -0.47858223 -0.62375236 -2.0804598 -1.7202322 -2.1838212 -0.50231797 -0.9667838
-1.5915353 -1.1220683 -1.4805347 0.34001842 -1.1986344 -3.1325288 -1.5466328 -0.82415706
-0.93828404 -0.71582925 -1.1484315 -1.410338 -1.9633247 -1.7306328 -1.8369542 -0.15919648
-1.4185092 -1.7120128 0.36835638 -1.3728462 -1.292903 0.24567857 -1.8741418 -1.8838323
-0.6311912 -1.0328302 -0.98877555 -1.5036874 0.2958157 0.06777728 -0.55219865 -1.1686094
-1.2585176 -0.11815464 -1.233564 -1.0658091 -0.45595616 -0.43557435 -0.40244514 -1.2340086
-1.3696467 -1.3423765 0.32860437 -1.3465655 -1.6964688 0.9904345 -2.4408147 -2.2792196
-0.8258007 -0.93576574 -0.74664205 -0.3631253 -0.32608277 -0.8002414 0.3676003 0.17842004
0.37000066 -0.18134615 -0.5275808 -1.0763398 0.17332025 -0.039073925 -0.21528316 -0.48709947

network_body._body_endoder.seq_layers.2.bias f4 [50]
00000000: 710e 54be 9648 febf 6375 20bf c3fd 68be
00000010: 0a0c a1bf 67dd 93bf 12d3 66bf 2cc4 27c0
00000020: 56d5 23be 3a31 92bf bceb d9bf d815 d2be
00000030: d580 c1bf 7056 00bf 51d0 d6bf f19b d2bf
00000040: d7fc 2cbf c2be b5bf be20 89bf 1346 c5bf
00000050: 537b 723d 7843 debf 7a89 a1be 8d86 9cbf
00000060: 6681 69bf 800b d9bf 7c67 a9bf 4b8a 10c0
00000070: d1f7 9ebf b156 98bf f4ea 0cbe 3a50 5fbf
00000080: 7b62 a6bf 42d1 d6bf 51f4 f0bf de2d 80bf
00000090: b03a b1bf 3e9d abbf 3278 b9bf 5872 b5bf
000000a0: 91c1 18be 50b0 c3bf 78a5 dabf a70c 77bf
000000b0: 4625 8cbf 1b5f 85bf c353 f6bf 4043 f33e
000000c0: fd73 a2bf 848d 60bf
-0.20708634 -1.9865901 -0.6267912 -0.22753052 -1.2581799 -1.1551942 -0.9016582 -2.6213484
-0.1599935 -1.1421273 -1.7025065 -0.4103229 -1.5117441 -0.50131893 -1.6782323 -1.645384
-0.67573303 -1.419884 -1.0713117 -1.541201 0.059199642 -1.736434 -0.315502 -1.2228562
-0.9121307 -1.6956635 -1.3234706 -2.2584407 -1.2419378 -1.1901456 -0.13761503 -0.8723179
-1.2998804 -1.678261 -1.882456 -1.0013998 -1.3846035 -1.3407362 -1.4489806 -1.417552
-0.1491759 -1.5288181 -1.7081747 -0.9650368 -1.0948875 -1.0419649 -1.9244312 0.47512245
-1.2691647 -0.87715936

network_body._body_endoder.seq_layers.2.weight f4 [50, 50]
00000000: 72fd c13f 0d83 e33f c290 093f 01d8 1040
00000010: 58c1 7d3f 38ce 773d 1c97 d1bf 4b14 693f
00000020: d4e4 ca3e a7f8 573f f365 8bbf 5c79 163f
00000030: 26c4 b33f 9c7a 2e3f 5583 fd3d 4590 8e3f
00000040: ae93 d83f 158b 543f 7c6a 8b3f 27fe 5f3f
00000050: 41b7 e43e b98c d83f 262f 893e 5e2b ad3f
00000060: cc63 0f40 dc47 66bf 7303 0540 3944 d53f
00000070: dd8e 783e 7a6d b93e 5cd6 533f 039d 02c0
00000080: 890b 953f 49c4 76be 34ab 9f3e 2157 20bf
00000090: c037 ab3e cbf0 eb3e 2fe6 aa3f 61ca 8c3f
000000a0: 62a8 243d 3d57 643f 0671 9a3f c414 98bf
000000b0: 3ac1 883f a942 52bf 16dc e5bd 052d 803f
000000c0: 2757 443f 234a 153c 1aa2 893f ef5f bdbd
000000d0: 0618 eb3f 6500 b53f 3852 d53f bbb0 aa3f
000000e0: 3a56 d43f 0358 0e3d f894 803f db46 c93f
000000f0: 3f37 4a3f 8ca5 1940 6f76 563d 82cb 623f
00000100: 3810 b73f 81c3 91bf 1961 f43f 3a54 2f40
00000110: 308e 823f 642e 2d40 af05 a33f 33b6 0740
00000120: 7c82 cbbe df24 1b40 80b2 2b3f 04f0 b73f
00000130: cd2f d23f 4d86 283f b5b9 8c3f 7d68 37bf
00000140: f935 2f40 9e00 723f 768a ab3f 7f40 ac3f
00000150: 579b 09bf 4d77 6f3f d190 b03f d69f 903f
00000160: 474a d83f e3ce 713e b1dc 53bf e81c 973f
00000170: 064f 373f 3b49 16bf bd69 b9be 5c84 abbf
00000180: 565c d13e 3b3c 7b3f c61c 9b3f 566b be3f
00000190: b617 bd3e cf4b b73e a761 963e 0539 0e3f
000001a0: a730 a03f 9b6d 16bd 2355 333e 46bf 9dbf
000001b0: f5f1 9d3e 5885 8bbe c834 ec3e c3da 263f
000001c0: 76d8 adbd 968e 22bf e983 873a 2387 613e
000001d0: f2a0 c13f dc1c 0c3f 474b 013f a9e2 a83f
000001e0: acdb 633f 14a3 bcbd 09bd b4bf f7e5 2c3f
000001f0: b44d 3a3e 8dc8 b93f 40c4 8e3e 6956 55bf
00000200: 4ee9 7fbf b32b 53be b39c d6bf 933c d1bd
00000210: e9cc b13e 1c3f 343f 4249 e3be f911 a93e
00000220: 2e6a 033f cd6a 4d3f 431c ca3d 8a0d 5abe
00000230: 9b55 debe f43d cfbe 889a c03d 1a63 93bf
00000240: a8a5 643e 2f24 153f c3ec e83e d043 5a3c
00000250: 44f6 a93f 67c7 78bf 3bf1 863e 3ce9 a1bf
00000260: d40f c53e de1b 903f 1a68 b83f 349a 1040
00000270: a4be 74bf f086 b23e 6184 4d3f 4b1c 4e3f
00000280: 7539 033e d65b 1240 1b35 dcbb 730e 7a3f
00000290: 9b1a 963f 7d21 29bf 805a 63bf 7250 003c
000002a0: 47a7 03bf 3a39 1cbf 9fc8 0e40 1d5e b23e
000002b0: d097 373e 24cd 853d de0b 3b3e 6f1b 8b3f
000002c0: a9b1 9ebf b941 b43e 34a0 f63f 1aeb 883e
000002d0: 70f5 eb3e 87c8 033d c9d6 903f e247 733f
000002e0: 80fa 1a3f aa51 c83f 210c ed3e d4b9 9dbf
000002f0: 1317 cc3f 1690 553f f899 c03e 87b2 8bbf
00000300: ce6e b23f d219 acbf 4566 1e40 ffa8 52be
00000310: 96fe 1c3d b252 d53e 4b02 2440 bb87 2f40
00000320: 3b64 1a40 cff7 da3f 3674 d93e 4983 5c3f
00000330: 6974 8d3e 6693 e93e 00bc f83f 24ad 133f
00000340: 4dbd 8b3d e10f 8a3f a412 5f3f 1d11 d43e
00000350: 8618 f93f aade bb3f 7a90 e83c 6cb2 34bf
00000360: 6277 dfbe 7a62 1540 38c7 973f 9c7b 273f
00000370: 9b28 003f 0de1 e83f 3e6b c4be 1b4a f73f
00000380: 67c3 9c3f e33a 9c3f b603 543f 29a9 ac3f
00000390: 64f7 aa3f 9949 633c 5f46 ed3f 0d25 2b3e
000003a0: 9861 383f 3b42 6b3f ea9b d03f e4b3 a4bd
000003b0: f696 223f 5b7c a1bd be0c b03f 5a15 dd3d
000003c0: 4d40 c3bf fe6a e53e 2fa7 c53f 2d7d d1be
000003d0: 575a a23e d70c 64bf b848 1c40 2948 953e
000003e0: dc41 c63e 70e9 de3f 33c2 82bf 4c3d 6ebf
000003f0: 460f 8a3f 6684 d83e bc7b 593f 9cb4 c83f
1.515547 1.7774369 0.5373651 2.2631838 0.99123144 0.0604994 -1.637424 0.9104659
0.39627707 0.8436379 -1.0890487 0.5877893 1.4044235 0.6815584 0.12378565 1.1137778
1.6920068 0.8302472 1.0891871 0.8749718 0.44671062 1.6917945 0.26793784 1.352886
2.240466 -0.899534 2.0783355 1.6661445 0.24273248 0.36216336 0.8274896 -2.0408332
1.1644145 -0.24098314 0.31185305 -0.6263295 0.3344097 0.46082148 1.3351496 1.0999261
0.040199645 0.89195615 1.2065742 -1.1881337 1.0683968 -0.82132965 -0.11223619 1.0013739
0.76695484 0.009111914 1.0752594 -0.092468135 1.8366706 1.4140745 1.6665716 1.3335184
1.6588814 0.034751903 1.0045462 1.5724748 0.7899055 2.4007292 0.05235904 0.8859178
1.4301825 -1.1387788 1.9092132 2.7395158 1.0199642 2.7059565 1.273611 2.1204956
-0.3974799 2.4241254 0.67069244 1.4370122 1.6420838 0.65829927 1.0994173 -0.7164381
2.7376692 0.9453219 1.340163 1.3457183 -0.53752655 0.93541414 1.3794194 1.1298778
1.6897668 0.23614077 -0.82758623 1.1805696 0.71604955 -0.5870549 -0.36213484 -1.3399768
0.4089076 0.9813878 1.2118156 1.4876506 0.36932153 0.35800025 0.29371378 0.55555755
1.2514848 -0.03672562 0.17512946 -1.2323997 0.3084866 -0.2725017 0.4613402 0.65177554
-0.08488552 -0.6349882 0.0010338995 0.22024207 1.5127242 0.54731536 0.5050549 1.3194171
0.8900707 -0.09210792 -1.4120189 0.675384 0.18193704 1.4514328 0.27884102 -0.83334976
-0.9996537 -0.20622139 -1.6766571 -0.10216632 0.34726647 0.704088 -0.4439183 0.33021525
0.5133389 0.8024109 0.09868672 -0.21294227 -0.43424687 -0.40476954 0.094044745 -1.1514618
0.22328818 0.58258337 0.45493135 0.013321832 1.3278279 -0.97179264 0.2635592 -1.2649302
0.38488638 1.1258504 1.4406769 2.2594118 -0.95603395 0.34868574 0.8028012 0.8051192
0.12814887 2.2868552 -0.006720198 0.976783 1.1726869 -0.66066724 -0.8880997 0.00783168
-0.5142712 -0.6102482 2.230995 0.34837428 0.17929006 0.06533268 0.18266246 1.0867747
-1.2397968 0.35206392 1.926764 0.26741868 0.4608569 0.03217366 1.1315547 0.9503156
0.6053848 1.5649922 0.46298316 -1.2322335 1.5944542 0.8342298 0.3761747 -1.0913857
1.3940065 -1.344538 2.474992 -0.2057228 0.03832873 0.41664654 2.56264 2.7426593
2.4123676 1.7106875 0.42471474 0.86137825 0.27627876 0.4562027 1.9432373 0.57686067
0.06823216 1.0786096 0.8713782 0.41419306 1.9460609 1.4677327 0.028389204 -0.7058475
-0.4364577 2.3341355 1.1857672 0.6542299 0.5006196 1.819368 -0.3836307 1.931949
1.2247132 1.2205471 0.8281816 1.3489124 1.3356748 0.0138725275 1.85371 0.16713353
0.72023916 0.91897935 1.6297581 -0.08042124 0.635116 -0.07885047 1.3753889 0.10795088
-1.5253998 0.4480819 1.5441645 -0.40915814 0.3170955 -0.8908209 2.4419384 0.29156616
0.38722122 1.741499 -1.0215515 -0.9306228 1.0785911 0.42288512 0.8495443 1.5680118

network_body._body_endoder.seq_layers.4.bias f4 [50]
00000000: 31c7 31c0 a1de 22c0 87cb fcbf b828 24c0
00000010: eb1e bcbf 7e46 43c0 eae1 40c0 ba05 4ac0
00000020: efeb b5bf f44a abbf 42d9 aabb 81f3 32bf
00000030: da1d 19c0 15a6 a6bf aef3 54c0 4baf e3be
00000040: 28e2 ccbf d742 50bf e825 ffbf 0817 69bd
00000050: 92cc 9cbf 7d34 1fc0 8a63 5dbf c7ea b5bf
00000060: a584 b3bf 2d27 18c0 0eea 2ac0 6c33 90bf
00000070: 0cac 2cbe 4c6b 07c0 b188 0ac0 aa79 0dc0
00000080: 4710 58bf 742c 79c0 811c c0bf e33b 19bf
00000090: 663a 0ac0 81bf c63f d060 cbbf 0f36 a5bf
000000a0: a37d e9bf 41fe cabf 1933 abbf 54f9 0ec0
000000b0: 571b 77c0 8904 1dc0 dc84 1ac0 6a2f f8be
000000c0: 8a12 53c0 918b e6bf
-2.7777827 -2.5448382 -1.9749612 -2.5649853 -1.4696935 -3.0511775 -3.0137887 -3.1565995
-1.4212626 -1.3382249 -0.0052138874 -0.6990281 -2.392447 -1.3019434 -3.327373 -0.44469675
-1.6006517 -0.8135199 -1.9933443 -0.05690673 -1.224993 -2.4875786 -0.8648001 -1.4212273
-1.4024855 -2.377391 -2.6705356 -1.1265693 -0.16862506 -2.115924 -2.164593 -2.2105508
-0.8439984 -3.8933382 -1.5008699 -0.59857005 -2.1598144 1.5527192 -1.588892 -1.2907122
-1.8241466 -1.5858842 -1.3374969 -2.2339678 -3.8610437 -2.4534018 -2.414359 -0.48473674
-3.2980065 -1.8011342

network_body._body_endoder.seq_layers.4.weight f4 [50, 50]
00000000: 4bd3 da3f 48a5 a03f 33a2 9d3f 54f4 dfbe
00000010: 38c3 c63e 9f74 673f d006 603f 921e 8e3f
00000020: 9299 b23e bca9 a73f d973 d53f 0a9b ed3e
00000030: 6081 a43f 0a17 b03d 82b3 1f40 0c74 7d3e
00000040: cd29 d43e 16e5 ce3f 8e9a 813f bfef 1740
00000050: d22c cdbd ef95 ae3f 18ba 2abe 10d2 fa3f
00000060: 7b60 cc3f 2bbb 293f dd67 0340 ec77 953f
00000070: 210e d7bd 64ed 1940 c54b 3a3f 9099 313f
00000080: 9ed7 ff3f c94a a23f 4ac9 f53f 463d 9c3f
00000090: cb4b 953f 6a16 cb3f 5a3f 2e40 4052 983e
000000a0: 6aed c8bc 7238 db3f def1 653e 2f3e e03f
000000b0: c93c af3f 9d6f 42be 1c2a 163f 3d36 54bf
000000c0: 3787 bf3e 80b6 0040 8975 b33f 5f68 ad3f
000000d0: d3fe 0140 e7f7 6dbf 6040 103f 5995 f03e
000000e0: b550 dd3e 7328 bb3f 0610 3e3f 48c1 7c3f
000000f0: 4d6c f63f 5a15 a63f 83ce 2540 4ba1 183e
00000100: d8f3 193e a795 2d3f 15bd 833f 5f0f 0440
00000110: 89ad 873f c94b a53e ec0f 96bf e203 0040
00000120: 68c6 0dbf 75e4 58bf a898 753f 8221 b73f
00000130: 3b51 c33f 574e 7a3f 56b3 a63e 2333 863f
00000140: 73e6 db3f 43b3 ee3f aa6a 0c40 6c5c c83f
00000150: 1208 bb3f 77a8 e73f 36f4 b13f 9767 3e40
00000160: 4928 8fbe 1063 6b3f b6cd 943f d6a7 cf3f
00000170: a2f1 783f af89 323f 45c1 f4be 05d0 713f
00000180: cc7c 1b3e 5cdd 0bbf 55aa 1e40 e509 08be
00000190: e5c1 47be 8bc1 5d3d 5072 0d3f 4389 c5bf
000001a0: 6b79 55bf 32db b43e 1c05 c6be 408c eb3e
000001b0: 47d2 2f3e ec84 babe b995 073f f55b 933e
000001c0: a663 993f 8a11 74bf 42f6 8b3e 717a 413e
000001d0: 595f e63e c47c ab3e 56d1 203f 3e86 db3e
000001e0: ee13 0ac0 4b77 d53e 1b0d 2c3e be1d 9a3f
000001f0: 7eae 263f 3e43 6fbe d91c 9a3f f74f 783e
00000200: e1d5 56bf e68c 643e 5b88 f2bd 343f d03d
00000210: 76e6 353f 15bb 4dbe ad73 483d 0294 813f
00000220: 3dad 9d3d 32c1 273f 6bd1 abbf 2e51 fdbe
00000230: c096 633f 0a94 0d3f 8dc6 a0bf 68ec d33e
00000240: 095d f23e 5695 90bf db10 7abe a1e9 f7be
00000250: 18bf 633e a796 983f 41e6 a63f e409 3fbf
00000260: 05eb cf3f 24ac d3bf 5fa0 67be 5b3d 0ebe
00000270: b208 313e 8f8c 973e d539 b43e 9936 cf3e
00000280: efd2 89bf 3190 7f3f 4b9e 963f 358f 79be
00000290: 69b1 283f 5f53 bebf 3bb5 3f3e 7b30 b43f
000002a0: ce47 793f 2589 2e3e 1a13 edbc 3d0b ea3e
000002b0: 0423 e3be 2515 7f3e fb29 4e3f d67e 9e3e
000002c0: aa4d e13f dbcc 653f 509e 163f 3be8 96bf
000002d0: bf9b 0a40 33ed b63f 5875 1240 299c 613f
000002e0: 1c76 a33e 8e30 9d3f 7355 9a3f f8f3 993e
000002f0: 1251 ee3e f9c1 193f d718 703e 35e7 a03f
00000300: df82 79be da58 79be 93cc b33e 0915 8b3e
00000310: 7a8e 5bbf d1bb 03bf 0f1c 563f be0b e83f
00000320: 3ca2 103f 8096 0fbf 3e95 f83e e36e 45c0
00000330: bc20 9e3f b77f 23be fe4d 703f 760e 323f
00000340: 445d a8bf 6b41 8a3e c01b 24bf 7d25 203f
00000350: 1866 1d3f 8fe5 38bf 040a 21bf 7922 b93d
00000360: e7d8 c3bd 7465 653f 9387 83bd 69a6 1dbf
00000370: 22c9 18bf 7605 9b3d d405 b3bf f2cf a93f
00000380: 0fe9 913e f651 123f fe81 263d 6b1b a03e
00000390: 526d b43e 9241 9bbe 991c 81be 17a1 743f
000003a0: 812a d13e 1c7a 303f 98ca 9d3d 493f a73f
000003b0: 716f 293f a7e8 473f d85c 1bbf 473c 233f
000003c0: f877 f5be eca9 c4bb 2597 613e edcd 88be
000003d0: f6f9 2d3f 19e7 1abd fecb abbd 71b5 8dbf
000003e0: 35c6 67bf a8af bbbf 9ebd 983f 90c5 b23d
000003f0: 46be a43f ba21 21bf d8b2 873f d28b 943e
1.7095731 1.255044 1.2315124 -0.43741095 0.38820815 0.90412325 0.87510395 1.1103079
0.3488279 1.3098674 1.6675979 0.46407348 1.2851982 0.08598144 2.4953313 0.247513
0.4143814 1.6163661 1.0125291 2.374008 -0.100183144 1.3639506 -0.16672552 1.9595356
1.5966944 0.6630122 2.0532143 1.1677222 -0.10500742 2.4051142 0.72771865 0.6937494
1.9987676 1.2679073 1.9202054 1.2206199 1.1663755 1.5866215 2.7226167 0.29750252
-0.02452727 1.7126601 0.22455546 1.7518977 1.3690425 -0.1898789 0.58658004 -0.8289526
0.37407848 2.011139 1.4020244 1.3547477 2.0311782 -0.92956394 0.5634823 0.46988943
0.43225637 1.4621719 0.742432 0.98732424 1.9251801 1.2975266 2.5907295 0.14905278
0.15034425 0.67806476 1.0292078 2.0634382 1.0599834 0.32284382 -1.1723609 2.000237
-0.5538087 -0.847236 0.9593606 1.4307101 1.5259165 0.9777579 0.32558697 1.0484356
1.7179703 1.8648456 2.1940103 1.5653205 1.4611838 1.8098286 1.3902652 2.9750726
-0.27960423 0.9194803 1.1625278 1.6223094 0.972437 0.6974134 -0.47803703 0.9445804
0.15184325 -0.5463464 2.4791462 -0.13285024 -0.19507559 0.054139655 0.5525255 -1.5432514
-0.83388394 0.35323483 -0.38675773 0.4600544 0.17170058 -0.36429536 0.52962834 0.28781095
1.1983535 -0.9533926 0.27336317 0.18894364 0.4499462 0.33493626 0.6281942 0.42875856
-2.1574664 0.41692576 0.16801874 1.2040327 0.65110004 -0.23365495 1.2040054 0.24249254
-0.83920103 0.22319373 -0.11842414 0.10168305 0.7105478 -0.20090897 0.048938442 1.0123293
0.07699058 0.6552917 -1.3423284 -0.49475998 0.889019 0.55304015 -1.2560593 0.413913
0.47336605 -1.1295574 -0.24420492 -0.48420432 0.22240865 1.1920975 1.3039018 -0.74624467
1.6243597 -1.6536908 -0.2261977 -0.13890593 0.17288473 0.29599425 0.35200372 0.40471342
-1.0767497 0.99829394 1.1767057 -0.24371035 0.65895706 -1.4869193 0.18721478 1.4077295
0.9737519 0.17044504 -0.028939772 0.457117 -0.44362652 0.2491041 0.8053281 0.30956143
1.7601826 0.8976571 0.58835316 -1.1789621 2.165756 1.4291137 2.288412 0.88128906
0.31926048 1.2280443 1.2057327 0.30068946 0.46546227 0.60061604 0.23446976 1.2570559
-0.2436633 -0.243503 0.35117015 0.27164486 -0.85764277 -0.5145846 0.83636564 1.8128583
0.5649755 -0.5608902 0.48551363 -3.084893 1.235374 -0.15966688 0.93869007 0.69553316
-1.3153462 0.27003035 -0.64104843 0.625572 0.6148391 -0.7222528 -0.6290591 0.09039778
-0.09562855 0.8960793 -0.06422343 -0.61582047 -0.59681904 0.07569401 -1.3986154 1.3266585
0.28498122 0.5715631 0.040651314 0.31270918 0.35239655 -0.30323464 -0.2521713 0.95558304
0.4085274 0.68936324 0.07704657 1.3066188 0.6618567 0.78089374 -0.60688543 0.6376385
-0.4794309 -0.0060017016 0.22030313 -0.2671961 0.67959535 -0.03781805 -0.08388518 -1.1070997
-0.90536815 -1.4662981 1.1932867 0.08729088 1.2870567 -0.6294209 1.0601454 0.29012924

network_body._body_endoder.seq_layers.6.bias f4 [50]
00000000: fc75 12bf f84d b9bf f3ec 60bf 79bb debf
00000010: fdd7 3cbf da3c aabf ab91 53bf 44d2 98bf
00000020: 87fc 9cbf 1f0b 8cbf 5f42 4bbf bc17 60bf
00000030: d9ef f4bf 01f6 24bf 9cdc 11bf 5513 debf
00000040: b8eb b2bf 079e 88bf 18fb 53bf 2c34 8ebf
00000050: 7744 8abf 0a46 09bf d638 2dbf 152e 92bf
00000060: 21ac 99bf 1782 77bf 61ed eabe b5e7 efbe
00000070: 415e e1be 64cf c8bf f210 0abf 5930 90bf
00000080: c031 2ebf 9e6f f0be 8527 9fbf 6073 c7be
00000090: 0c4c 10bf 27a8 8ebf a158 7abf 54f2 89bf
000000a0: 65cf afbf cbae 90bf d930 adbf 5c89 adbf
000000b0: f3da 33bf 0aa3 49bf 0ad7 b0bf 3799 76bf
000000c0: 8062 9abf 8e2e 3abf
-0.5721128 -1.4476919 -0.87861556 -1.7400962 -0.7376707 -1.329982 -0.82644147 -1.1939168
-1.2264565 -1.0940894 -0.7939815 -0.87536216 -1.9135696 -0.6443787 -0.5697725 -1.734965
-1.3978186 -1.0673226 -0.82805014 -1.1109672 -1.0802144 -0.53622496 -0.6766485 -1.1420313
-1.2005655 -0.96682876 -0.4588423 -0.46856466 -0.44017223 -1.568829 -0.53932106 -1.1264755
-0.6804466 -0.46960157 -1.2433935 -0.38955212 -0.5636604 -1.1145066 -0.97791487 -1.0777078
-1.3735167 -1.1303343 -1.3530532 -1.3557544 -0.70255965 -0.787644 -1.3815625 -0.9632754
-1.206131 -0.72727287

network_body._body_endoder.seq_layers.6.weight f4 [50, 50]
00000000: a203 c2bc b362 303f 0cd1 b7be ed1c a53f
00000010: 616b d23e 6870 8bbe cd1e af3b d8e5 843e
00000020: 185a e1be ba5c 1a3e 9cd4 9c3f ae25 53bf
00000030: bba0 86be 00c5 aebe 49d5 7c3e 2eee 00c0
00000040: 05ed 113e 572f aebd 3f5c f93d 5516 533f
00000050: 4059 d93e 5b54 143f c54a 503d 51fe 183f
00000060: 76ae a1be 561c 403d e133 883f 9dc5 eb3e
00000070: ce3d cebf 4fb9 82bd dc85 a63e 6560 943f
00000080: d748 883f a65f 3cbf f8d4 c1be 8cef b3be
00000090: 5cc0 673f d8d5 8fbe 8835 f43e 2eed 3ebe
000000a0: f44f 6a3e 7e6a d0be f047 e53d 3bf2 afbd
000000b0: 5804 fd3e def0 193f f989 52be 29f0 bb3f
000000c0: 9064 a7be ecd5 1dbf b960 80bd 6f40 043e
000000d0: 1468 c43f b006 6b3f 3748 b7bf 7118 c43f
000000e0: 2da9 153e 95de c5be 44db ac3e 9340 0a3f
000000f0: 3980 093f b309 1dc0 f24e 3e3e a751 22be
00000100: 1d3c c93c d58c 583d 70cf d23e 974c 893e
00000110: 1a9b 283d 0781 833f b967 e7bf ed1a ea3e
00000120: 60a2 b53e e711 113d 8dca 1dbe f463 c33f
00000130: 20db fa3f cabe 28c0 93fa 8fbd 33c5 c53e
00000140: 72b2 493e 25a6 3f3f e643 183f 296b 0f3f
00000150: 7d6b 73bf f7bc b43e 220b f43f 8599 7fbe
00000160: 8515 efbc 4bd0 9dbe 0830 953f 89ad 8f3f
00000170: 4f97 fb3f 250d 453f 5a67 d03e af55 a43f
00000180: 17a7 1040 d7dd 803f 1347 053f 1863 ce3f
00000190: b3de 84bd f76b 75bd 6510 47bf f3f0 033f
000001a0: 15b4 70be 64b0 393f 966c 75bd 604e be3f
000001b0: 0140 85bf 943a 4cbe 8345 853e 168d c5be
000001c0: 28dd 533f 80c3 4fbf 5b1e 5ebf 5c14 5cbf
000001d0: 3902 723f 2c39 43bf dc92 3bbf a097 453f
000001e0: 7487 74bf b800 2d3f 9f76 bcbe d571 25bf
000001f0: f3a8 ebbe 7f0f 083d 496a 7f3f 677f e63e
00000200: 6c15 1bbf 2e52 923e 6054 39bf b6cc 6ebd
00000210: 2928 093f 8b4c c53e aaef 403e 8b5b be3e
00000220: 7861 253e d416 63bf b6aa 093f 2d18 96bf
00000230: ea5e ea3f 71d6 e5bd 2373 8b3f dd86 833e
00000240: f7c8 fdbe 38be 653f 9dd7 81be 7088 0240
00000250: b2a9 2ebf a6b3 c2be e326 a43f 7d9d 303f
00000260: 1fca 1cbf 455d c23f fa75 8f3e 34dd 953f
00000270: cf3a ed3e a2a9 0a40 5e4e 02be 2692 ec3e
00000280: 4840 19c0 31b5 993f 4116 df3f 4b24 f73e
00000290: ec16 fc3e 4a14 b03e 354c 373f 0edf e93e
000002a0: c0f1 9bbf f2a2 1bbe 029d 8c3e 6e90 893f
000002b0: 8bd0 853f 3461 f73f 7fd5 79bf 2c61 813f
000002c0: df50 f93e a987 813f 3849 b5bf a98c bc3f
000002d0: 9e81 fd3e 67f7 923e 2b4a 54bf 3638 10be
000002e0: d96c 663f 54db 0a3f ad85 c83f 9ae6 b6be
000002f0: 0243 be3f a27b c73d 07f7 ea3f ba30 c33e
00000300: 83a6 5e3f 4bc5 2f3f d4d2 f43e 71f8 b13f
00000310: ad35 7b3f b756 a93f fa16 023f 8820 1e3d
00000320: 4029 4c3e e952 593e 9d7b 8d3f 2b4d 1c3f
00000330: 005d 553f b211 643e 52a5 2cbf b44f 983f
00000340: c403 e73e ab5d 873f 5533 9a3e 621d abbf
00000350: 0549 413f 4e91 32bf d3dd 0b3f 4cb5 733f
00000360: f785 723f 1ee9 a0bd 7608 cc3f d4d9 3f3c
00000370: 89fa c33f 1552 883f 9168 0d3f cd80 9b3e
00000380: 3807 a93d 78f0 f83e 242b 633f afec d63e
00000390: 1fc4 92bf 0c30 cbbe e176 9abf 37f2 8cbe
000003a0: 4e21 c53e 46e0 823f 641f 8b3f 3a33 2a3f
000003b0: bcf0 98bd 0c09 bfbd 0d6b 6bbf 2f7e 223f
000003c0: c6d4 bdbd c31f 3c3f b792 d03f 3003 21c0
000003d0: f7f4 b93e 632a d33e 9ae5 a53d 6036 643f
000003e0: c0c8 143e 5d7c cb3f 0eeb 5e3e 1530 0140
000003f0: 379f a83e 821b 713f 6314 1bbf 947b c23f
-0.023683373 0.68900603 -0.35901678 1.2899452 0.4109755 -0.27234197 0.005344248 0.25956607
-0.4401405 0.15074435 1.2252383 -0.8247937 -0.26294503 -0.34134674 0.24690737 -2.0145373
0.14250572 -0.08505123 0.12175798 0.8245595 0.42450905 0.57941216 0.050852556 0.59763056
-0.31578416 0.046902023 1.0640832 0.46049204 -1.6112611 -0.06383001 0.32524002 1.1591917
1.0647229 -0.7358345 -0.37857795 -0.35143697 0.9052789 -0.28092837 0.4769709 -0.18645164
0.22882062 -0.40706247 0.111953616 -0.08591124 0.49417377 0.6013316 -0.20560445 1.4682666
-0.3269391 -0.61654544 -0.062684484 0.12915204 1.5344262 0.9180708 -1.4318913 1.5319959
0.14615317 -0.3864638 0.33761036 0.5400478 0.5371128 -2.453717 0.18584803 -0.1585146
0.024564797 0.052868683 0.41173887 0.26816246 0.04116354 1.0273751 -1.8078529 0.45723668
0.35475445 0.035417464 -0.15409298 1.5264878 1.9598122 -2.6366448 -0.07030215 0.38627014
0.19696978 0.7486289 0.59478605 0.5602289 -0.9508589 0.3530042 1.9065897 -0.24960907
-0.029185066 -0.30822977 1.1655283 1.1224834 1.9655551 0.7697318 0.4070385 1.2838649
2.2601984 1.00677 0.52061576 1.6123991 -0.06487789 -0.059917416 -0.7775939 0.51539534
-0.23506196 0.72534776 -0.05991801 1.4867668 -1.0410157 -0.19944221 0.26029596 -0.38584203
0.8275933 -0.81157684 -0.8676507 -0.85968566 0.9453464 -0.7625911 -0.73270965 0.77184486
-0.95519185 0.6757922 -0.3680925 -0.6462682 -0.46027336 0.033217903 0.99771553 0.45019075
-0.6057956 0.28578323 -0.7239437 -0.058300696 0.53576905 0.3853496 0.18841425 0.37179217
0.16150463 -0.8870671 0.5377611 -1.1726128 1.8310215 -0.11222542 1.0894512 0.2568883
-0.49567387 0.89743376 -0.25359812 2.0395775 -0.68227684 -0.38027686 1.2824367 0.6899031
-0.6124591 1.5184714 0.28019696 1.1708131 0.4633393 2.1666036 -0.12725207 0.46205252
-2.3945484 1.200842 1.7428666 0.48269877 0.49236238 0.3439048 0.7160066 0.4567799
-1.2183151 -0.15198877 0.27463537 1.0747201 1.0454267 1.9326539 -0.97591394 1.010778
0.48694512 1.0119525 -1.416297 1.4730426 0.49512953 0.28704378 -0.8292567 -0.14083943
0.9000984 0.5424092 1.5665795 -0.3572281 1.4864199 0.09740378 1.8356637 0.38123113
0.86972827 0.6866042 0.478171 1.3903943 0.9812878 1.3229588 0.5081631 0.038605243
0.1993761 0.21223034 1.1053349 0.6105525 0.8334503 0.22272375 -0.6743976 1.1899323
0.4512006 1.057546 0.30117288 -1.3368342 0.75502044 -0.6975297 0.5463535 0.9519851
0.94735664 -0.078569636 1.5940082 0.011709649 1.5310832 1.065005 0.5523768 0.30371705
0.0825333 0.48620963 0.887377 0.4197745 -1.1466101 -0.39685094 -1.2067529 -0.27528545
0.38501972 1.0224693 1.0868955 0.66484416 -0.074677914 -0.093278974 -0.9196022 0.6347379
-0.09269099 0.73485965 1.6294774 -2.5158195 0.36319706 0.41243276 0.08100434 0.8914547
0.14529705 1.5897328 0.21769354 2.0185597 0.3293397 0.941826 -0.6057798 1.5193963
