Assets/ML-Agents/results/sc33/SimpleCollector/SimpleCollector-402592.onnx (onnx, 113407 bytes, 11 tensors)

discrete_act_size_vector f4 [1, 3]
000000 00 00 40 40 00 00 40 40 00 00 00 40
       3.0 3.0 2.0

network_body._body_endoder.seq_layers.0.weight f4 [128, 65]
000000 15 23 21 be b6 89 45 bd 74 e0 66 bd ca 0c 20 be
       -0.15736039 -0.048227035 -0.0563664 -0.15629879
000010 32 64 ba 3c 32 7f 5f be d9 50 aa 3d 36 e0 8b be
       0.022752855 -0.21825865 0.08316202 -0.27319497
000020 6e 9d 95 3b f5 c5 ea bd bd 7f be 3d 75 96 5e 3e
       0.004565886 -0.114635386 0.09301708 0.21737082
000030 8b c9 4d be 49 46 31 be 4a c6 42 be fe 32 d3 bd
       -0.20096414 -0.17311968 -0.19020954 -0.1031246
000040 7b 9e 14 3e 3c 33 f5 3a 40 37 2b bd 50 53 10 3e
       0.1451358 0.0018707286 -0.041800737 0.14094281
000050 a2 59 f8 3d 99 f2 30 3e bb f0 73 3c b3 2a d7 bd
       0.12126471 0.17280044 0.014888938 -0.10506191
000060 45 37 17 be 53 5e 52 3c 72 c8 16 3d 52 25 1c be
       -0.14767177 0.012839871 0.036812253 -0.15248612
000070 68 47 77 3e 82 67 b7 bc 24 78 3e 3d 96 47 e9 3d
       0.24148333 -0.022388224 0.046501294 0.11390607
000080 f1 7a 54 be 71 4f 21 be 0e 1a 88 bc 07 2c 70 be
       -0.20750023 -0.1575296 -0.016613986 -0.23454295
000090 53 d7 70 3c 54 ff 08 bd e7 31 5f 3e f2 e7 ed 3d
       0.014699775 -0.033446625 0.2179638 0.11616506
0000a0 7e 5f 52 3e 24 3d 5d be 44 25 99 bb 18 44 ee bb
       0.2054424 -0.21605355 -0.004673632 -0.007271301
0000b0 76 b7 ad bd 46 78 2a be d1 b6 2f 3e a9 c8 1c be
       -0.08482258 -0.16647443 0.17159583 -0.15310921
0000c0 db 6d 8f bd e5 c2 9b be 39 ed 8b 3e 5c 30 a7 3d
       -0.07003375 -0.3042213 0.27329424 0.08163521
0000d0 73 94 2e bd 36 84 8d 3e e8 3e 0d 3e 06 f0 b4 bc
       -0.04262204 0.2763993 0.13793528 -0.022087108
0000e0 7c d3 6f 3d 40 57 b1 3d 00 b1 7f be 39 88 3b 3e
       0.058551297 0.0865922 -0.24969864 0.18313684
0000f0 c5 78 51 3e 22 55 9d be df 89 1a 3d 99 53 9b 3e
       0.20456226 -0.30729014 0.03772914 0.30337217
000100 94 5f 5e 3e 06 0f e0 3b 6b ca b8 3d ba cd 50 3d
       0.21716148 0.0068377284 0.09022983 0.050977446
000110 e9 7a 29 3e 19 1b 2f bd 52 b2 82 bd d1 b6 a3 be
       0.16550793 -0.04275045 -0.06381668 -0.31975415
000120 b2 5f 1f 3d c3 04 9b bd c1 2b 45 3e 43 21 42 3d
       0.03890962 -0.075692676 0.19254972 0.047395002
000130 54 cd 37 be cf 4f 82 bd 95 f7 57 be 7d be a9 be
       -0.1794942 -0.063628785 -0.21090539 -0.33153144
000140 16 d2 04 be a7 bc b4 3c d6 23 da bb a6 ba 9f bd
       -0.12970766 0.022062613 -0.006657104 -0.07799272
000150 96 62 05 3d 48 40 89 3d c0 d7 02 bc b3 47 ce 3d
       0.032564722 0.06701714 -0.007986009 0.10072269
000160 0e a2 0b 3e 57 15 aa 3e 01 68 20 be f5 77 a0 bc
       0.13636038 0.33219406 -0.15664674 -0.01958845
000170 62 48 59 bd 0d 3b 8d bc f3 0a 3c bd 28 3c 76 be
       -0.053047545 -0.017240072 -0.04590888 -0.24046385
000180 d3 c7 6d 3d e6 23 3e be 64 54 af 3c e5 91 87 bc
       0.058051895 -0.18568382 0.021402545 -0.01654906
000190 34 05 07 be 9d 28 79 3e e0 17 80 bd fd 72 12 3e
       -0.13185579 0.24331899 -0.06254554 0.14301677
0001a0 9f ca a1 3e c8 8c 6b be ce 7a ef 3d 47 5c 65 3d
       0.315999 -0.23002923 0.11693345 0.055996206
0001b0 0e 6e 20 be 71 b6 52 3e ec 33 be bc 82 c8 34 3c
       -0.15666983 0.20577408 -0.023218118 0.011034133
0001c0 f6 7c d4 bd ca d9 f5 3d 2a 76 32 3e 6d 8e 48 bc
       -0.10375397 0.120044306 0.17427889 -0.012240988
0001d0 0a 30 3a 3e d9 c1 07 3d 9d c6 1b bd c8 ee 6a 3d
       0.18182388 0.033143852 -0.03803121 0.057356626
0001e0 92 02 09 be 7c 86 a8 be c6 f4 7f 3d 2e 68 27 3e
       -0.13379887 -0.32915103 0.062489294 0.16348335
0001f0 54 7a 84 3e 7a 87 9d bd ff b0 d3 3d 18 7a 5b be
       0.2587458 -0.07691856 0.10336494 -0.21433294
000200 e8 ee 28 3d b5 7a 36 3e 94 a5 56 3e 48 64 0d be
       0.041243464 0.17820247 0.209616 -0.13807786
000210 9f 9c 0d 3c 8c c5 6c bd bf 6d dd 3d be f3 f2 3e
       0.008643298 -0.057805583 0.10811948 0.47451586
000220 86 0c ec 3d 64 a5 b7 bd d1 01 5a be dc f4 bc 3b
       0.11525826 -0.08967093 -0.21289755 0.005766494
000230 6a 89 7c bd 6a 6f 9c bd 1a 82 ec bd d5 f2 c1 3d
       -0.061654486 -0.07638438 -0.115482524 0.09470145
000240 e6 22 02 3e 5a 06 80 3e 9b d0 67 3d 03 06 c1 3d
       0.12708625 0.25004846 0.056595426 0.09424975
000250 40 73 74 3d fb 05 6c 3c fd 59 47 3e 05 ca 3c 3e
       0.059680223 0.014405723 0.19467922 0.1843644
000260 08 ab e3 3c 1b 9f 36 3c 63 67 f4 3c 7d c6 f6 3d
       0.027791515 0.011146332 0.029834455 0.120495774
000270 32 cc aa bd 75 45 df 3c 4a ff 3c bd 66 c6 1c 3e
       -0.083397284 0.0272548 -0.0461419 0.15310058
000280 12 7e 8b 3e 04 ac 02 3e 07 cb 42 be b6 b0 86 3c
       0.27244622 0.12760931 -0.19022761 0.016441684
000290 85 f5 85 bd 90 06 9d 3e ff 4a 41 be fe b0 5d 3d
       -0.0654097 0.3066907 -0.18876265 0.05412387
0002a0 b1 da df 3d 1e 0e 7c 3d ca df 34 3e 48 ea 02 3e
       0.10930384 0.0615369 0.17663494 0.12784684
0002b0 69 4c ac bc 75 c1 75 3c 76 a8 39 be 67 30 a1 bd
       -0.021032529 0.014999737 -0.18130669 -0.0787056
0002c0 df df c6 be c9 9e 06 be cc 44 26 3d 5b d7 6c 3d
       -0.38842675 -0.13146509 0.040592954 0.057822566
0002d0 f5 b2 26 be 62 92 98 3b 5a b8 53 bc b3 a9 1d 3e
       -0.16279204 0.004656122 -0.012922371 0.15396766
0002e0 a7 70 27 be e9 57 c2 3c 1c 44 fe be 31 ee c4 bc
       -0.16351567 0.02372356 -0.49661338 -0.02403936
0002f0 2b bf 93 3e 19 fb 91 3e 01 df 8b be 08 7e 37 3e
       0.28856787 0.28511885 -0.27318576 0.17919171
000300 d4 70 5a bd 38 43 29 3e 43 86 ce bd f3 a2 db 3d
       -0.053330258 0.16529548 -0.10084202 0.107244395
000310 db c1 df bd 2e 2c 22 3d f5 26 25 3d e7 61 c6 3d
       -0.10925647 0.039592914 0.040320355 0.09686642
000320 44 93 8b 3e 11 2a 8d 3c ee e0 72 3c 6d 33 32 bd
       0.27260792 0.017231973 0.014824135 -0.043506075
000330 49 00 93 bd dd c3 7b 3d 16 79 5a 3b a2 48 57 bd
       -0.07177789 0.061466087 0.0033336333 -0.052559502
000340 c1 74 20 bb 77 d2 dd 3c ba 08 2c 3d b8 51 3c be
       -0.0024483653 0.027077897 0.04200051 -0.18390548
000350 f9 19 87 bc 9a 14 2d be ba 6f 9c bd b5 cd da 3e
       -0.016491877 -0.1690239 -0.07638498 0.42735067
000360 ff 95 35 3e 25 4f 0d 3d 61 5c 3d 3d 66 11 da 3b
       0.17733 0.034499306 0.046230678 0.006654906
000370 0a af 5d 3e 18 e5 2e be 4c 3e 8e 3c f7 69 95 bd
       0.21648803 -0.1707958 0.01736369 -0.07295602
000380 66 da 19 bd 9f fb fa bd 03 b4 b6 3d 45 83 46 3e
       -0.037561797 -0.12255024 0.08921053 0.19386013
000390 14 07 68 bc 5c 33 bb bd 00 2a ba 3e fa 3c 5e bd
       -0.014161844 -0.091406554 0.36360168 -0.05425737
0003a0 5b 89 39 bd 56 42 be bc c8 ff 5b 3c 68 20 3e 3e
       -0.045297008 -0.02322499 0.013427682 0.1856705
0003b0 0a bc 1d be f1 db 9a 3d 66 1f b5 3c 9f 71 90 bd
       -0.15403762 0.07561482 0.022109699 -0.070529215
0003c0 58 1b 4d 3e b9 45 8b be 74 65 92 bd 03 6a 94 3e
       0.20029962 -0.27201632 -0.07148257 0.2898713
0003d0 e7 2a 07 3e e1 f4 4f bd da 2f 6b 3e 16 00 0d 3e
       0.1319996 -0.050770644 0.22967473 0.13769564
0003e0 f0 1f fc bd b9 79 50 bd 57 22 f9 bc e0 96 c6 be
       -0.12310779 -0.050897334 -0.030411882 -0.38786983
0003f0 92 dc 15 bc b0 4d a9 3e 13 e6 32 3e a3 fa 27 bd
       -0.009146826 0.33067083 0.17470579 -0.04101051

network_body._body_endoder.seq_layers.0.bias f4 [128]
000000 5d 3d fb bb 6f e1 0b 3c b2 7c 8d 3d 8a b9 bf 3d
       -0.007667227 0.008537634 0.06908549 0.09361561
000010 e3 61 bd 3a d4 4c 4d 3d 1a 02 8a 3d 16 7e f0 3d
       0.0014448728 0.050122097 0.06738682 0.11742799
000020 9c 7a 02 bd 13 b1 28 bc 47 33 94 bc 5e 34 93 3d
       -0.03185521 -0.010296124 -0.018090857 0.071877226
000030 b2 1c 0d bd a6 75 a3 bd 31 e9 63 bb 1d 21 60 3d
       -0.034451194 -0.07981424 -0.0034776444 0.05471908
000040 52 dd fb 3b 3d 57 35 3d a7 e9 eb 3c 17 94 9b 3d
       0.0076862955 0.04427265 0.028797938 0.07596605
000050 84 f2 89 3c 2c d9 8c 3d d7 45 9e bc a7 c0 97 3d
       0.016839273 0.0687736 -0.019320412 0.074097924
000060 f6 5c 5c 3d f4 51 dd bc 7b 27 89 3d b5 92 86 bd
       0.053799592 -0.027016617 0.066969834 -0.06570951
000070 66 43 56 3d e2 e0 86 bc 5c d7 91 3c 32 e4 d5 bd
       0.05231037 -0.016464654 0.017802887 -0.104439154
000080 3f 10 53 3c 99 15 74 3d 80 9f 34 3c f1 0d 8b bc
       0.012882291 0.05959091 0.011024356 -0.016974421
000090 db 39 98 bd d1 d4 1a be df 68 31 3c 42 d2 2a 3d
       -0.0743291 -0.15120246 0.010828226 0.041704424
0000a0 2a d4 05 ba 3e ce d9 bd 0c 33 60 bb 4e 3e a9 3d
       -0.0005105162 -0.10635041 -0.0034210114 0.08263837
0000b0 ba 0a 33 bd 88 32 5e 3d ba e4 cf bc b4 92 2a bc
       -0.0437114 0.05424741 -0.02537762 -0.010410953
0000c0 42 68 7a bd ac a2 9e 3c b2 60 a7 3d 9d 7f 33 3b
       -0.061134584 0.019364677 0.0817274 0.0027389296
0000d0 fe 13 8c bd b4 33 80 3d d7 b7 e6 3c 18 ce 8c be
       -0.06839751 0.062598616 0.028163834 -0.27500987
0000e0 07 4f b9 bd f4 20 d7 3d b5 c1 3f bd 6c 18 38 3c
       -0.090482764 0.10504332 -0.046815593 0.011236291
0000f0 de a2 80 bd 02 0c c0 3c 40 ba da 3d d2 9a 5e 3d
       -0.062810645 0.023443226 0.106800556 0.054346867
000100 21 3b 2e 3d 17 28 1a bd b6 68 04 3d 32 f1 45 bd
       0.04253686 -0.03763589 0.032326423 -0.048325725
000110 72 cf 8a 3d 38 75 65 bd c7 2a 7c bd 30 50 49 3b
       0.06777848 -0.05601999 -0.061564233 0.0030717961
000120 30 38 74 3b f5 79 6c 3d ef 19 ab 3b ec db a5 be
       0.0037264936 0.057733495 0.0052215974 -0.3239435
000130 86 97 f2 3c 14 2f 80 be c0 02 87 3d 99 bd 87 3d
       0.029613268 -0.25035918 0.065923214 0.0662796
000140 26 87 0b 3d fe 74 fe bc b7 16 60 3d 10 19 34 bd
       0.034064434 -0.031061646 0.054709163 -0.043969214
000150 d7 7c 53 bc 98 c0 6c 3d 90 21 42 3c fa 1a 18 3d
       -0.012908182 0.05780086 0.011848822 0.0371351
000160 60 16 5c 3d 8c c6 4e 3c eb 82 de 3d 95 6e 21 3d
       0.053732276 0.012620579 0.10864814 0.0394121
000170 a3 1f ef 3c 19 c8 8e 3d 7e f8 87 3c ef 62 a1 be
       0.02918989 0.06971759 0.016597982 -0.31520793
000180 ff 5a 8e bd fe 07 ee bd 3b a5 2b 3d 20 5e 6f bd
       -0.0695095 -0.11622618 0.041905623 -0.058439374
000190 7f 6c 5a bc e6 dc 5e bc a9 a5 80 3d c4 26 b6 bb
       -0.013331532 -0.013602471 0.06281597 -0.0055588204
0001a0 5f 5e c8 3d 5e e5 8e bd 2e 2c 6e bc 04 d9 98 bb
       0.09783625 -0.06977342 -0.0145369 -0.004664542
0001b0 20 08 aa 3c 15 b5 7c bc c9 03 14 bc c3 54 98 be
       0.020755827 -0.015424033 -0.009034106 -0.29752168
0001c0 43 74 8a ba 5f 34 ba 3c d5 11 97 3c 03 db f1 bc
       -0.0010563213 0.02273005 0.01844112 -0.029523378
0001d0 06 c7 d9 3c db a9 58 bc 1f e3 54 3d 51 0e b3 bc
       0.02658416 -0.01322409 0.051974412 -0.021857413
0001e0 72 a2 a9 bc 5d e3 85 bc 3d 91 87 3d c4 b9 84 bd
       -0.020707343 -0.016343767 0.06619499 -0.064807445
0001f0 37 48 d0 3d f2 61 d6 bc 80 45 55 be 8a de 53 bd
       0.10170024 -0.02616975 -0.20827293 -0.0517259

network_body._body_endoder.seq_layers.2.weight f4 [128, 128]
000000 6c 16 44 be 61 a9 97 bc b6 34 59 bd 77 2e ae bd
       -0.19149178 -0.018513383 -0.053028785 -0.08504956
000010 32 ef ea 3d 9a a7 35 bd be df 46 3d 90 10 89 bd
       0.11471404 -0.04434929 0.04855322 -0.06692612
000020 21 75 41 be c8 d1 f9 bd 27 45 a2 3c 63 d0 6e be
       -0.18892337 -0.12198216 0.019808365 -0.2332168
000030 ab 85 29 bc 3e 49 69 bc aa ff 3a bc c1 bf e2 3c
       -0.01034681 -0.014238654 -0.011413494 0.027679326
000040 14 c9 15 bd 40 dd 83 3e 3a 16 ee bd a3 69 da bd
       -0.036568716 0.25754738 -0.11625333 -0.1066468
000050 14 f3 72 3d 58 b7 82 3d fb 99 82 be fc 54 a9 3c
       0.05931385 0.06382626 -0.25508103 0.020670407
000060 10 71 2f be 78 1b de bd 66 42 7e bd 11 77 50 be
       -0.17132974 -0.10845083 -0.06207504 -0.2035792
000070 74 ab 7a be 55 1e 9c bd f0 fa 30 bc 0a cf 1c bc
       -0.24479467 -0.07622973 -0.010802016 -0.009570846
000080 f7 49 ce bd d3 3f a0 bd 09 56 81 bb b1 78 bc 3c
       -0.100727014 -0.078246735 -0.003947024 0.023006769
000090 39 d6 92 3d b4 c8 21 bd 7a 68 98 bd 33 53 bd 3d
       0.07169766 -0.039498046 -0.07441802 0.092443846
0000a0 e7 60 8e bd a8 0f 98 b7 91 bd 97 3d 7c f4 1e 3d
       -0.069520764 -1.8127103e-05 0.07409204 0.038807377
0000b0 d5 5f e0 bc 13 92 20 3e 6c a2 1b 3e 4b b7 cb bd
       -0.027389446 0.15680723 0.15198678 -0.0994707
0000c0 64 de 31 bd c6 f7 2a bd da 91 e7 3c 62 52 61 3a
       -0.04342498 -0.0417402 0.02826779 0.0008595345
0000d0 1f 7f 17 bd 00 ab 00 be 9f af b8 bd 7a b6 ab bd
       -0.036986466 -0.12565231 -0.09017872 -0.08384414
0000e0 46 50 ea 39 bd 0e 13 bc 51 fa ba bc 07 50 38 3d
       0.00044691766 -0.008975682 -0.022824438 0.044998195
0000f0 88 b5 86 bd 2f 78 3b 3e ee 43 4a be 4d 75 29 be
       -0.06577593 0.18307565 -0.19752476 -0.16548653
000100 76 2d 4c bd 64 6d ba 3d 5b ba 98 3d e4 ed c6 3b
       -0.049848042 0.09102896 0.074574195 0.0060708392
000110 b4 c6 84 bc 02 57 ce bb 8e b7 95 bd 1c 70 95 3d
       -0.01620803 -0.0062969932 -0.07310401 0.07296774
000120 f7 ce ad 3d 0e e7 e6 3d cd a4 3c bd b7 bd 63 bb
       0.08486741 0.11274539 -0.046055604 -0.003475053
000130 26 8e 68 be dc 0a 01 3e aa 6d 6e bc 58 c8 2b bc
       -0.22710475 0.12601799 -0.014552513 -0.010484777
000140 cd b1 bf bc 51 b3 b0 bd ed a2 2d 3e e3 0f b1 bc
       -0.023400212 -0.08627952 0.16956683 -0.02161402
000150 eb f9 1b bd 40 78 66 bd e0 07 ba bb a8 33 4e be
       -0.038080137 -0.056267023 -0.0056772083 -0.20136893
000160 51 86 f8 3d b2 42 d8 bc f9 ca d3 bb e9 94 07 be
       0.12134994 -0.02639899 -0.006463405 -0.13240398
000170 19 2e 15 bd 3e 3e e9 3d 0c fd 11 be 38 f3 d3 3b
       -0.036420915 0.11388825 -0.14256686 0.006468203
000180 e5 4d b7 bc e6 69 f4 3c 0f 67 52 3d 36 02 8e 3c
       -0.02237601 0.029835653 0.051367816 0.017335039
000190 73 8c 4d bb 72 6c 00 bc 5e 76 0a 3c 20 dd ee 3d
       -0.0031364232 -0.007838355 0.0084510725 0.1166327
0001a0 7a 55 2d be 65 93 5a bd 27 44 cd 3c a3 80 33 bd
       -0.16927138 -0.053363223 0.025056912 -0.04382385
0001b0 f1 ed 52 be 9e 84 8c bb dd c8 79 3c 60 fa a9 3d
       -0.2059858 -0.00428827 0.015245643 0.08299708
0001c0 95 ed c7 3c 84 cf 9c bd 64 2c bc 3d 9d c3 c5 3d
       0.02440528 -0.07656768 0.09188154 0.09656451
0001d0 bc 51 1e 3e 1b 2e 8e bd a3 3b 21 3d 7b a4 2a bc
       0.15460867 -0.06942388 0.039363515 -0.010415192
0001e0 3a 81 23 3e 39 07 35 bd 3e 50 3e 3e f5 3b 1a 3d
       0.15967265 -0.04419634 0.18585297 0.037654836
0001f0 1f 90 0a be 76 22 36 3d 51 30 38 3e 0a 65 56 bc
       -0.1353154 0.04446646 0.17987181 -0.013085613
000200 d2 5f 3a 3d 6c 6a 49 3e 46 77 d6 bd 85 c7 c1 bd
       0.045501538 0.19669503 -0.10471968 -0.094618835
000210 cd 75 eb bd 80 0d d0 3d 33 1b 2b be ea 30 5d bd
       -0.11497078 0.10158825 -0.16709594 -0.054001726
000220 c9 82 0f be 72 87 fc 3d 8f db 7a 3e 5b 61 8a 3e
       -0.14014734 0.12330522 0.24497817 0.270274
000230 7e f7 0a 3e 7d 5e 52 3d 33 a4 1c bd cb 5f a1 3c
       0.13570973 0.051359642 -0.03824253 0.019698998
000240 0c 90 ed 3d cc d0 74 3e 11 25 17 bd ba 49 1f 3e
       0.115997404 0.23907775 -0.036900584 0.15555468
000250 29 90 93 3d 88 30 fb 3a 7c f7 1f 3e 72 d0 bc 3d
       0.07205231 0.0019164244 0.15621752 0.09219445
000260 fc f1 fd 3d 60 30 47 be 32 e4 1d be e5 37 75 bc
       0.123996705 -0.19452047 -0.15419081 -0.01496694
000270 3d 7f 90 3e 29 50 a2 3d 34 31 08 be 5c 0d c5 3d
       0.28222075 0.079254456 -0.1330002 0.09621689
000280 0b 00 39 3e 7d ad f9 3d 86 1a 19 be 3b bd 2c bb
       0.18066423 0.121912934 -0.14951524 -0.0026357907
000290 67 9c 04 3e d2 7e 54 bc 16 7b e5 bc 9e 43 21 bd
       0.12950288 -0.012969689 -0.028012794 -0.039371125
0002a0 8e 0e 4e 3e 0b 00 92 3c 95 37 8b 3e 04 a2 3f bc
       0.2012274 0.017822286 0.27190843 -0.011696342
0002b0 5e 72 b5 3d d8 e7 76 be 43 d2 3a 3e a5 64 85 bc
       0.088597044 -0.24111879 0.18244271 -0.016283343
0002c0 43 99 38 be 81 f8 14 3e b1 c3 85 3e ef d5 43 bc
       -0.18027215 0.14547922 0.26125863 -0.011952861
0002d0 19 c1 32 3e e5 e8 b6 bd c9 fc 77 3c 07 dd 89 bd
       0.17456473 -0.0893114 0.015135952 -0.06731611
0002e0 1a 2b d9 bd f1 d5 d2 bd 5b 94 c9 bd 10 40 d0 3d
       -0.10603924 -0.10294712 -0.0984275 0.10168469
0002f0 63 8b 92 bd 99 9d 3f be 09 ec 50 3e f5 f5 c4 bd
       -0.07155492 -0.18712462 0.2040254 -0.09617225
000300 df 2c 44 3e 61 04 b7 3d f5 7a 3c be 1e a8 15 be
       0.19157742 0.08936382 -0.1840628 -0.14614913
000310 6d 11 bc bb d7 6b 62 3d f9 d1 6a be a9 9d bb bc
       -0.005739382 0.055278625 -0.2293166 -0.022902327
000320 88 27 e3 3d 24 36 00 be ee 78 8e 3e d5 8f 94 bd
       0.11091524 -0.12520653 0.27826637 -0.07253996
000330 64 26 67 bd fd 3e 83 3d 74 3d e8 3d ef 04 18 bc
       -0.056433097 0.064084984 0.11339846 -0.00927852
000340 3a 2b 0a be 7f 8e 9b 3e 4f ef ba 3c 5f ad c5 3d
       -0.13493052 0.30382153 0.02281919 0.096522085
000350 d5 f4 9a 3d 58 cc d3 3e 73 6b 57 bc 44 04 19 be
       0.07566229 0.4136684 -0.0131481765 -0.14943033
000360 5d 54 0b bd 73 71 12 3e 45 bc c7 3d c3 75 24 3e
       -0.034016002 0.1430109 0.097527064 0.16060548
000370 3d 12 07 3e b4 4e 28 be 0a 3d 9f bc 09 ab fc 3c
       0.13190551 -0.16436273 -0.019438285 0.030843275
000380 ac 6a 38 be 5d 2c 6f bd a6 2c 2f 3e c7 f8 98 bd
       -0.18009442 -0.058391917 0.17106876 -0.074693255
000390 29 d5 65 3d ea 48 25 bd 8a de 39 be 5f 5b 91 3e
       0.05611149 -0.04035274 -0.18151298 0.28390023
0003a0 98 69 eb bd e7 a2 d6 bd 11 49 c9 bc 52 eb 01 3e
       -0.1149475 -0.1048029 -0.024570974 0.12687424
0003b0 87 78 08 3d 3e fc 03 be 44 12 72 3e 1c 31 81 bb
       0.03331807 -0.12889192 0.2363978 -0.003942622
0003c0 a8 90 a4 bc b4 c1 38 3e b4 6d cd bd 36 da e5 3d
       -0.020088509 0.18042642 -0.1003069 0.11223261
0003d0 2a f6 9b 3e 7e 53 b1 bd f0 34 6e be 25 5d 44 be
       0.30461246 -0.08658503 -0.23262382 -0.19176157
0003e0 58 39 a2 bd 8e 9e c2 bd 5a d5 b7 bd a8 48 21 3d
       -0.07921094 -0.09502898 -0.089762405 0.03937593
0003f0 da 2b 6a bd 7c bb d1 3d b7 f5 73 bd bf 9d fb 3d
       -0.057170726 0.10240838 -0.059560504 0.12285947

network_body._body_endoder.seq_layers.2.bias f4 [128]
000000 e2 cd 89 bd 34 3e 65 3d 30 a9 2b 3d c1 8c 79 bd
       -0.06728722 0.055967525 0.041909397 -0.06092525
000010 b8 13 8d ba fa 74 16 3d e5 18 03 bb 12 dc 5b 3c
       -0.0010763323 0.03673265 -0.0020003852 0.013419168
000020 11 b6 f9 bd 9f 59 04 bb 30 35 47 bc 33 0d ae bd
       -0.121929295 -0.002019502 -0.012158677 -0.08498611
000030 a0 c8 a8 bc 2d 91 a2 3c 2a e8 48 3c b7 c6 6d 3d
       -0.020603478 0.019844616 0.0122623835 0.058050837
000040 b5 a5 de 3c 91 cc cb bc 61 ae 27 3d 37 cd 48 bd
       0.027178625 -0.024877818 0.040937785 -0.049023833
000050 50 ab 81 3d f7 4c 5f bd 34 f9 dc bc 03 90 ed bc
       0.063315034 -0.05451676 -0.026974298 -0.028999334
000060 62 b6 65 bc 67 d2 6d bc c8 b5 b1 3c 98 77 00 bd
       -0.014020534 -0.014515496 0.021693125 -0.031364053
000070 42 59 ef 3b 26 9b ed 3b ab 13 0c 3d f7 90 26 bd
       0.0073043415 0.007251161 0.034198444 -0.040665593
000080 cc ab a3 bb bc 71 22 3d 2a 59 3e bd 41 f6 59 bd
       -0.004994845 0.039659247 -0.046471752 -0.05321336
000090 79 64 54 3d 4b 48 ab 3d c4 05 f9 3c 3a f4 e8 3c
       0.05185363 0.08363398 0.030398257 0.028436769
0000a0 ba 73 87 bd 9a 48 24 3d 83 11 a8 bd ad 84 8b bc
       -0.0661387 0.0401083 -0.08206465 -0.017031038
0000b0 b8 b7 0a bc 4a 18 c5 3b cb da 67 3d d7 dd e6 3b
       -0.0084666535 0.0060148584 0.05660514 0.0070454883
0000c0 b2 28 85 bc d8 f6 ea bd d9 19 9f bd 74 56 81 3d
       -0.016254757 -0.11472863 -0.07768602 0.06315318
0000d0 71 66 64 3d a9 df 8b bc 52 66 38 bd 28 71 b6 bc
       0.05576176 -0.017074423 -0.045019455 -0.022270754
0000e0 0c 05 8d 3c 71 ee 9c bc 05 6b fe bb e0 cb 09 bd
       0.01721432 -0.019156666 -0.0077642226 -0.033641696
0000f0 77 46 bd 3d 3f d8 01 bb 18 bb ad bc 83 c8 9c 3c
       0.09241956 -0.001981273 -0.021207377 0.01913858
000100 ac 1a c2 bb 2e 6a 21 bd 42 f2 f0 3c c9 30 02 bc
       -0.0059235897 -0.0394079 0.029412393 -0.007946202
000110 19 45 d0 bd 25 bf a2 3b f9 d7 e8 bc 64 f1 85 bd
       -0.10169429 0.004966634 -0.028423296 -0.06540182
000120 6b 88 01 bc 53 95 20 3b cc bc 16 bc 2e 5f 33 3d
       -0.00790606 0.0024503067 -0.009200286 0.043791942
000130 71 6a fb bc 81 43 cb bc c5 2d 2c 3d 96 16 95 bd
       -0.030690404 -0.024812462 0.042035837 -0.072796986
000140 d1 bb a5 bd bb f2 08 3d dd 6b e1 bc 14 af 70 3c
       -0.08092464 0.03343461 -0.027517254 0.014690179
000150 86 18 02 bd 17 62 95 bd 31 0a 41 3d 5a b1 af bd
       -0.03176167 -0.072941 0.04712886 -0.08578749
000160 25 59 f4 3c 8b cb 92 3c c9 cc 1e bd a0 70 d7 3c
       0.029827664 0.017919322 -0.038769517 0.026298821
000170 95 6c b1 3c 3a bf 3f bb 46 f5 ba bc 48 1b b4 3d
       0.021658221 -0.0029258267 -0.022822034 0.08794266
000180 79 6b 0f 3c 74 e2 87 3c f5 d4 2f 3d 1b 78 4c ba
       0.008753651 0.016587473 0.0429277 -0.00077998795
000190 26 99 cf bc 1d 6a 8f 3c 74 ff 37 bd ea f1 cc 3d
       -0.025341582 0.017506653 -0.044921353 0.10007079
0001a0 20 93 a4 bc 6f 63 12 bd a8 b7 b5 3d 60 22 9a bd
       -0.020089686 -0.03573936 0.0887292 -0.07526088
0001b0 e2 6d 41 bd 83 e9 aa 3c 8f 9e a1 bd b0 d7 30 3c
       -0.047223933 0.0208633 -0.07891571 0.010793611
0001c0 0c f7 d1 bd 27 1e fd 3a 2d b3 37 bc f1 c2 81 bc
       -0.102521986 0.0019311354 -0.011212152 -0.015840026
0001d0 65 a9 9c bb 6b 56 71 bd c3 4f 7b bd f5 ab 35 bc
       -0.0047809356 -0.058920305 -0.061355364 -0.011088361
0001e0 66 93 1d bd 5c 82 74 bd 7c 11 61 bd a1 35 95 3d
       -0.03847065 -0.059694633 -0.054948315 0.072856195
0001f0 20 16 6f bc e7 98 95 3d ed d5 76 3d 86 a3 3f 3d
       -0.014592677 0.073045544 0.06026261 0.046786807

action_model._discrete_distribution.branches.0.weight f4 [3, 128]
000000 b5 1d cc bc 2c 77 07 be 11 e6 f1 3b 87 2e 2f bb
       -0.02491651 -0.13229054 0.0073821624 -0.0026730613
000010 2c 25 15 bd b8 3d 78 bb e1 9f b1 3c af 40 a6 3d
       -0.036412403 -0.0037878584 0.021682682 0.08117806
000020 cb 6b ac 3c 7e 40 96 3b 07 b0 ee 3c a0 d3 f8 bd
       0.021047493 0.004585325 0.02913667 -0.12149739
000030 2f bd f8 bd 31 85 8f bd 21 3d 15 be 17 a6 dd 3d
       -0.12145459 -0.07007826 -0.145741 0.10822695
000040 83 04 c3 3d 98 d2 85 bc 56 dc de bc 55 b5 c3 bd
       0.09522345 -0.01633577 -0.027204674 -0.09556071
000050 93 9a 16 3d d2 99 ae bd a6 de fd bc ec 2b d6 3d
       0.036768507 -0.08525433 -0.030989956 0.10457596
000060 da c1 28 bd 76 a4 8a bc 02 18 98 3c 78 cf 7a bd
       -0.041200496 -0.016924124 0.018566135 -0.061233014
000070 e8 fd f7 bd ae 1e 87 3d f0 cb c9 3d c1 38 6a 3d
       -0.12108976 0.065976486 0.09853351 0.05718303
000080 03 ed b2 3c 2e 7b aa 3c f7 4b 13 be f6 3b c8 bd
       0.021841532 0.02081069 -0.14384447 -0.09777062
000090 9c ee 0a bd 94 30 c1 3d 11 8d 7e 3c cd a3 69 bd
       -0.033918962 0.09433094 0.015536563 -0.05704098
0000a0 fa 8d 56 bd f9 9a ce 3d 71 b8 c8 bd 74 5b 8e bd
       -0.052381493 0.100881524 -0.098008044 -0.06951037
0000b0 a6 18 c5 bd 71 4a 37 bd 3c 81 80 3d 47 b0 d8 3b
       -0.09623842 -0.044748727 0.062746495 0.006612811
0000c0 66 be 40 bb b4 3b 77 bd 09 b3 77 bd 47 87 e1 bd
       -0.0029410361 -0.06035967 -0.060473476 -0.1101213
0000d0 36 69 c5 3d 9a bf 27 3d c1 a2 c4 3c 39 40 35 bd
       0.09639208 0.04095421 0.024003388 -0.0442507
0000e0 b3 d9 5e 3b a9 3f fe bb 8e ab c1 bd 43 95 12 be
       0.003400427 -0.0077590537 -0.094565496 -0.14314751
0000f0 2d 31 23 3b 21 cb c2 3d 0d ec 2d 3d cb 7c 86 39
       0.0024901137 0.095114 0.042461444 0.0002565145
000100 9b a6 52 3d 66 cd c7 3c f9 16 d3 3d 96 78 ff bd
       0.05142842 0.024389934 0.10307116 -0.12474172
000110 7d 44 3b bc b3 ab ef 3c ad 45 05 be 73 6d a3 bd
       -0.011429903 0.029256677 -0.1301486 -0.0797986
000120 66 2d b8 3c 94 3b 58 bd e2 14 9c bd 70 f9 eb 3d
       0.022482585 -0.052791193 -0.076211706 0.11522186
000130 4a 68 9c bb ac 79 2a bd e4 72 f1 bb fe f7 49 be
       -0.0047731744 -0.04161994 -0.0073684324 -0.19723508
000140 85 ac 77 bd b0 3f 54 bc 28 2d db bd 68 1d d2 3d
       -0.06046726 -0.012954637 -0.10701972 0.10259515
000150 bc 80 05 bd 2d 40 df bd 13 99 da 3c 65 2e c0 3c
       -0.032593474 -0.109009124 0.02668432 0.023459623
000160 68 72 6d 3d 09 4e 96 bd 46 b5 dc bb 35 c7 81 bd
       0.057970434 -0.07339103 -0.0067354767 -0.06336824
000170 e0 60 89 3c d5 42 e4 bd fb a0 23 be 92 2b e8 3d
       0.016769826 -0.1114556 -0.15979378 0.113364354
000180 02 c8 50 bc e3 e1 09 bd 6b 0a 09 3e 8b b8 85 bc
       -0.012742998 -0.033662688 0.1338288 -0.016323349
000190 76 5f fb bd ad 4c 3d 3d 29 df 17 3c a9 d9 69 3d
       -0.12274067 0.0462157 0.009269514 0.057092343
0001a0 2f 20 2b be 2f 18 84 bd cf eb c8 3d 91 b0 8b bd
       -0.16711496 -0.06449925 0.09810602 -0.06820787
0001b0 e0 2f 9f bd 32 8e 17 3a 6f 8e 21 be 4a 08 ee 3b
       -0.07772803 0.00057813816 -0.1577699 0.0072641717
0001c0 2a 92 8b bc 32 f5 98 bd 1c 81 a3 bd 08 d9 e2 bd
       -0.01703747 -0.07468642 -0.0798361 -0.11076552
0001d0 88 e1 b0 3d d2 cd de bd a5 4f aa bd 06 7f ae 3d
       0.08636767 -0.10879101 -0.08315972 0.085203215
0001e0 f2 69 8f 3c b4 9f ae bd 6b 8b 60 bd 81 39 90 3c
       0.017506573 -0.08526555 -0.05482046 0.017605545
0001f0 66 b5 0f 3d 0d 40 e8 bc b4 49 63 3d af 54 d9 bc
       0.035085104 -0.028350854 0.05549021 -0.026529638
000200 be 21 24 bc 22 40 40 3d 10 7e c7 3d 27 b7 6c 3d
       -0.01001781 0.04693616 0.097408414 0.057791855
000210 eb aa 17 3d 54 ef ac bc 7f 38 b1 bc ee 94 94 bd
       0.037028234 -0.021110214 -0.021633385 -0.072549686
000220 83 6a 84 bd d7 f8 1f bc 18 66 61 bd f0 18 84 3d
       -0.06465628 -0.009763918 -0.055029005 0.06450069
000230 3f ae 89 3d c3 90 22 3e fc 07 26 3d 6e 45 98 bd
       0.06722688 0.15875535 0.04053496 -0.07435118
000240 5a d5 74 bd 7a 90 a3 3d 9c 48 b5 3d f9 75 22 3e
       -0.05977378 0.07986541 0.0885174 0.15865315
000250 0c a6 78 3d e7 26 20 ba 83 66 f2 3c 68 39 84 bd
       0.06070523 -0.00061093125 0.029589897 -0.06456262
000260 00 65 2b bc 3f 1f 83 3c 63 a6 a0 3c 8d c2 25 bd
       -0.010461092 0.01600611 0.01961059 -0.04046874
000270 24 a6 ce 3d 1e e7 8f bd f3 b9 14 3d 18 b8 a4 bc
       0.100902826 -0.07026504 0.036310147 -0.020107314
000280 9e ef 91 bc ed a4 1d 3c 87 35 37 3d b0 d7 81 3d
       -0.017814454 0.009621841 0.044728782 0.06339967
000290 f8 ff 80 3d df 3c ad bc db 11 19 3d 3b ba 95 3d
       0.06298822 -0.02114719 0.037370544 0.07310911
0002a0 0b 33 e0 3b 5b 1f 0d bd 8a a3 14 3e f8 5d e9 3d
       0.0068420223 -0.03445373 0.1451551 0.11394876
0002b0 1d a2 8c 3d 52 fd 31 3d e5 b7 2f 3d 76 e0 84 3d
       0.06866858 0.043454476 0.042899985 0.06488125
0002c0 d5 da b7 bc 8c 08 2b bb c2 b6 f6 bd 99 ad 4b 3d
       -0.022443214 -0.0026097624 -0.12046577 0.049726103
0002d0 f6 ab db 3c 4d c2 72 bd 78 51 50 bd 21 84 5d 3d
       0.026815396 -0.05926733 -0.050858945 0.054081086
0002e0 93 48 2f 3c 61 00 15 3d 14 0c 7c 3d 82 8d 35 3b
       0.010698455 0.036377314 0.061534956 0.0027702753
0002f0 ef 86 ac 3d 92 ed 15 bd a3 e2 2a bd 87 b3 e9 3d
       0.08424174 -0.036603518 -0.041720044 0.11411195
000300 05 ca 9d bc 79 fe 87 3d ee dd 8a bd f6 01 ea 3d
       -0.01926137 0.06640334 -0.06780611 0.11426155
000310 8f b9 e5 bd 9c 27 16 bd 23 20 13 3d 08 ec 09 3e
       -0.11217033 -0.03665887 0.03591932 0.13468945
000320 d2 3d 1a 3c ab 2c d7 3b 67 d0 ae 3d 52 da 86 bd
       0.009414153 0.006566604 0.08535843 -0.0658461
000330 e7 b3 34 3d 25 f4 09 3e bf 92 42 3c 5d 9b ff 3d
       0.04411688 0.1347204 0.011875807 0.12480805
000340 a4 82 e5 3d 05 24 be 3c e9 26 86 3d cc ec d8 bc
       0.11206558 0.023210535 0.0655039 -0.026480101
000350 54 9b 42 3d 79 ed 0d 3d d2 01 2f 3d 6a 30 96 bc
       0.047511414 0.0346503 0.042726345 -0.018333632
000360 41 5a 81 3b 9c 05 9d b9 b9 69 91 3c b0 17 10 3e
       0.0039475267 -0.00029949553 0.017750608 0.14071536
000370 74 8c 6b 3d 56 1f 96 3d 63 ac 98 3d 5d 9e 79 bd
       0.057506993 0.073301956 0.07454755 -0.060942043
000380 84 e6 2a 3d 43 78 83 3d da 87 0e be 62 bc 36 3b
       0.041723743 0.064194225 -0.13919011 0.002788328
000390 fd 5a ff 3c 3e 2f 0c 3d 4e d8 a4 bd 42 8d d0 bc
       0.031171316 0.03422474 -0.08049069 -0.025457982
0003a0 1e 9b dc 3d ee a4 10 3c f0 0e 47 3d 46 70 17 3e
       0.10771774 0.008828385 0.04859823 0.14788923
0003b0 1e c7 27 bd 23 85 a0 3d 49 4c bc 3d 52 3f b0 bd
       -0.040961377 0.07837894 0.09194238 -0.086058274
0003c0 b8 22 6e 3c 08 42 39 3d de 9b 01 3d 7c eb 93 3d
       0.014534645 0.045228988 0.031642787 0.072226495
0003d0 af 4a ad bd 86 ef 09 3e ad 25 c6 3d 16 7b 3f 3d
       -0.084615104 0.13470277 0.09675155 0.046748243
0003e0 24 1d 38 bc c9 85 11 3d bf 1e 87 3d 1a b6 a9 3d
       -0.011237416 0.035527978 0.06597661 0.08286686
0003f0 e5 90 30 bc d0 b4 1c 3d 70 35 b3 bc cd 27 30 3c
       -0.010776733 0.038258374 -0.021876067 0.010751677

action_model._discrete_distribution.branches.0.bias f4 [3]
000000 85 c5 c9 3d 6e 15 1d 3c ca e0 23 be
       0.09852127 0.009587629 -0.16003719

action_model._discrete_distribution.branches.1.weight f4 [3, 128]
000000 8c 4a 89 3d 2a af 6c 3e 82 b7 ad bc 01 7e 41 3d
       0.06703672 0.23113695 -0.021205667 0.047239307
000010 29 45 f3 bd 36 d9 90 3d 39 a4 f4 3b 7e 87 ce bb
       -0.11878426 0.0707268 0.007465866 -0.006302773
000020 7a 24 72 bc f5 1a 57 be b7 8d 4c be f7 83 80 bd
       -0.0147792045 -0.21006377 -0.19975935 -0.0627517
000030 97 4c 20 bd 69 a7 0c be 32 2b c2 3c cd b6 6e 3b
       -0.03913554 -0.13735737 0.023702238 0.0036424876
000040 22 e7 73 3d db 2c 76 bd 72 77 84 3b 1d e8 e7 bc
       0.059546597 -0.06010137 0.0040425593 -0.028308922
000050 ff 4f 68 3c 0e 33 e8 ba 53 88 0b be ad ac 78 3d
       0.014179229 -0.0017715411 -0.13626222 0.06071155
000060 cb c7 93 bc 0f c3 c6 bd 45 4a c2 bd 8d d0 c7 3d
       -0.018039605 -0.09705173 -0.09486822 0.09756575
000070 72 48 dd bd b9 1f c8 3d 4e 70 b8 3c 7e e0 03 be
       -0.108048335 0.097716756 0.022514489 -0.12878606
000080 71 e1 75 3c d4 ba fc bc 30 48 37 bd 0a 4e 8a bd
       0.015007363 -0.030850805 -0.044746578 -0.06753166
000090 ab 40 94 3d 82 b2 f2 3d 2c 42 79 3d 78 a3 09 3d
       0.07238897 0.11850454 0.060854122 0.03360316
0000a0 85 d4 14 3d bb 18 05 3e 5b 18 9e 3b 4d dd 17 bc
       0.036335487 0.12997715 0.0048246807 -0.009269071
0000b0 9b 81 9e bd 9b 7c c6 3c f0 d7 64 bd 40 fc b7 bd
       -0.07739564 0.024229338 -0.055869997 -0.0898366
0000c0 28 7b aa bd 37 5d 95 bd 26 af 5a 3c 92 e6 5c 3e
       -0.083242714 -0.0729317 0.013347423 0.2157233
0000d0 d9 bb 03 3e 5a 41 1f bc fe cf 8f bd 21 e1 20 be
       0.12864627 -0.009720171 -0.07022093 -0.1571088
0000e0 11 bf 97 3d 29 dd 0f bd 56 17 56 3d 4f 78 02 3e
       0.0740949 -0.035123024 0.05226835 0.12741207
0000f0 c9 26 90 3d fb 42 8f 3d a4 73 44 bd ec da a9 bd
       0.07038648 0.069951974 -0.047961846 -0.08293709
000100 df 2e c8 3d 81 9a 13 bd 3f 1a 4b 3b 5e 00 9c bd
       0.09774565 -0.03603602 0.0030990986 -0.076172575
000110 4e c7 33 3b c0 12 ea bd 98 f3 74 3a ac dd b2 3d
       0.0027432027 -0.114293575 0.00093441596 0.08733687
000120 5f 68 9b 3d a1 9d 54 3d 05 f9 9c bd aa d1 a2 3c
       0.075882666 0.05190814 -0.07664684 0.019875366
000130 24 fd 5b bd 48 ad 19 bd 59 29 fb bc e0 7e e0 bd
       -0.05370821 -0.03751877 -0.030659365 -0.109616995
000140 fa 95 eb 38 0b 4d 36 bd b6 04 bc bd 21 70 d2 3d
       0.000112336085 -0.044507068 -0.09180586 0.10275293
000150 48 43 81 bd e6 b7 78 be 92 ce 2e bd b3 62 9a bd
       -0.06311661 -0.24288902 -0.04267747 -0.07538357
000160 2e 69 82 3d be 35 2e 3e 7a 74 fe 3c ad 00 1c ba
       0.06367718 0.17012689 0.0310614 -0.00059510284
000170 bd ce a8 bd d1 4e 8e bd 54 e2 13 bd 65 2e c1 3d
       -0.08242557 -0.06948627 -0.036104515 0.09432677
000180 84 99 54 3d 52 5a 03 be 8f b1 a4 3c bf 03 31 3e
       0.051904216 -0.12827423 0.020104198 0.17286585
000190 3e b8 e6 ba 64 16 b9 bb db 79 9e 3c bd 48 44 3e
       -0.0017602516 -0.005648421 0.019345215 0.19168372
0001a0 65 cd c3 bc 8f cd 0f be e6 55 8f 3d 74 47 95 3c
       -0.02390165 -0.14043258 0.06998806 0.018222548
0001b0 e0 52 80 3d bf 60 e4 bc 56 0c 77 bd 08 e3 a0 3d
       0.06265807 -0.027878163 -0.0603145 0.07855803
0001c0 e1 13 9a bc 43 7a 4f be e9 7d 13 bc 11 07 f2 bd
       -0.018808307 -0.20261483 -0.009002187 -0.11817754
0001d0 0c c3 7d 3c ec 14 2c bd 0b 30 dc bd 21 61 24 3c
       0.015488397 -0.04201214 -0.10751351 0.010032923
0001e0 ea 22 8b 3d 9b cb a5 bd 86 ab b8 bd 1b d3 34 3d
       0.06793769 -0.08095475 -0.090170905 0.04414664
0001f0 04 08 9b be aa 8d c2 3d 79 67 9b 3d b2 4e 55 3e
       -0.30279553 0.094996765 0.07588095 0.20830801
000200 79 65 99 3b ef fc 09 3c f5 d9 d4 3d 39 ca d9 3c
       0.004681286 0.0084221205 0.103931345 0.026585685
000210 da b4 4a 3e e0 28 6e be cc d4 c6 3d 14 20 b4 bd
       0.19795552 -0.2325778 0.097085565 -0.08795181
000220 9e 2d 61 3d 1d d5 1c 3e 71 d4 6b 3e c6 9d 71 3d
       0.054975145 0.15315671 0.23030259 0.058988355
000230 71 69 9b bc 24 b0 cb 3c 76 a9 e7 bd a7 2e c3 bd
       -0.018971177 0.024864264 -0.11311619 -0.095303826
000240 a4 27 0f bd 0a 6c 8e 3d 8f d8 bd 3d d5 b2 10 3d
       -0.034949914 0.069542006 0.09269821 0.035326798
000250 54 e9 fc 3d a0 3d 9b bd 6c f7 05 3e 49 0e b9 bc
       0.12349191 -0.075801134 0.13082665 -0.02258982
000260 0c f9 f9 b8 af a9 fa 3d 61 ee 12 3e 4e 12 64 bc
       -0.00011919634 0.12239396 0.14348747 -0.01392038
000270 d1 07 9f bd 51 5c 4f bd 11 8a e3 bd 4f 46 5c 3d
       -0.07765163 -0.05062515 -0.111103185 0.05377799
000280 df 8c ed bd 7f fe 5f bd 51 06 81 bd e3 cf 28 bd
       -0.11599135 -0.054686066 -0.06300033 -0.04121388
000290 ad ad ac 3d d0 d3 2b be 99 76 57 be bc c3 ce 3d
       0.084315635 -0.16780019 -0.21041335 0.10095927
0002a0 7c d5 d7 bc 6a fc 5a bd 19 47 2e bc 76 10 9b 3d
       -0.026346914 -0.053463377 -0.010637068 0.07571499
0002b0 a5 e6 4f bd 83 2f 49 3d a3 01 0a 3e 98 3a db 3d
       -0.05075707 0.049117576 0.13477187 0.10704535
0002c0 33 81 35 bd a6 ac 92 3d ba 68 be 3c 08 1b 5d bd
       -0.044312667 0.07161836 0.023243297 -0.053980857
0002d0 31 74 21 be 47 f4 a7 bd 8e ba d3 3d cb 4e 25 3e
       -0.1576698 -0.08200889 0.10338317 0.16143338
0002e0 60 65 2f 3c 3e 84 08 3e cb 7a 91 3d c9 7c ec bd
       0.010705322 0.13331696 0.07103499 -0.115472384
0002f0 26 e5 d3 3d 49 70 f3 3c e7 3d b9 3d 4c bc 0b 3c
       0.10346441 0.029716628 0.0904501 0.00852878
000300 ac d2 bc 3c b0 86 8a 3d 7f ac d6 bd f7 86 0b 3e
       0.023049675 0.06763971 -0.1048212 0.13625704
000310 48 88 0f 3d f9 29 23 3e c2 e4 43 bd 84 95 5b bd
       0.035042077 0.1593398 -0.047825582 -0.053609386
000320 05 5e 48 be 27 42 9c bd 5a 8e dc 3d ad 33 02 be
       -0.19567116 -0.07629805 0.10769339 -0.12715025
000330 07 48 8d 3a a5 ab 2a 3d f8 93 03 3e 9a e2 aa 3d
       0.0010778912 0.0416676 0.12849414 0.08344002
000340 9a db 5e 3c 3d a0 e1 3d fb e0 6a bd 77 9b 61 bd
       0.013602162 0.11016891 -0.057343464 -0.055079903
000350 d4 7a f5 bd 66 df 18 3e ae 16 06 be 4d e8 74 bb
       -0.11986318 0.1492897 -0.13094589 -0.0037369907
000360 3f 53 0c be d6 7c 1c 3d eb 6c 08 be 9d 11 ae 3d
       -0.13703631 0.03820499 -0.13322799 0.08499453
000370 b7 e2 43 bd c6 c5 4a bd e3 ee 06 bd b1 4e 04 be
       -0.047823634 -0.049505018 -0.032942664 -0.12920643
000380 07 42 45 be 1c 2a 02 3e ea 7b de bd 33 33 f4 3c
       -0.19263469 0.12711376 -0.108634785 0.02980957
000390 23 c2 79 bd 2e 81 41 3c 16 45 a1 3d 34 8e 3c bd
       -0.06097616 0.011810584 0.07874505 -0.046034053
0003a0 27 a8 09 bc 86 35 65 3e 9b 63 ec bd 6d 84 8b 3c
       -0.008401907 0.22383699 -0.11542436 0.017030919
0003b0 f8 14 27 be fb 38 97 3d 1a 05 d9 bb e4 0f b8 3c
       -0.16316593 0.07383915 -0.0066229226 0.022468515
0003c0 3e 4d 9e 3d 60 a4 3c 3e 85 47 ba 3d 38 bd ad bd
       0.077295765 0.18422079 0.090956725 -0.08483356
0003d0 c6 58 02 bd 51 12 5c 3d 60 44 a6 3d 38 9f 20 bc
       -0.031822942 0.053728405 0.0811851 -0.009803586
0003e0 f4 45 fb bd 82 8e ef bc 6d e5 1d 3e 40 7f 77 3d
       -0.12269202 -0.029242758 0.1541955 0.06042409
0003f0 41 12 30 3e 5c b7 24 3e f2 ae 04 3e 05 c0 80 3b
       0.17194463 0.16085571 0.12957361 0.0039291405

action_model._discrete_distribution.branches.1.bias f4 [3]
000000 6e 6e 5d 3d a9 c0 bd bb 53 17 a4 bc
       0.054060392 -0.005790789 -0.020030653

action_model._discrete_distribution.branches.2.weight f4 [2, 128]
000000 1b 8e ca 3b ca 2d 49 bd 22 7c 99 bd 26 a1 a6 bd
       0.006181491 -0.049115933 -0.074943796 -0.081362054
000010 78 bb 87 bd 19 e0 42 3e 6b 1d c0 bd b7 f4 d4 3c
       -0.06627554 0.19030799 -0.09380611 0.025995595
000020 04 77 ae bc 09 25 87 bd 30 33 e4 bd 85 ed 15 bd
       -0.021296985 -0.06598861 -0.11142576 -0.03660347
000030 f6 d6 fd 3c ee 18 b3 3d c8 77 19 be e2 61 39 3d
       0.03098629 0.08744989 -0.14987099 0.045259364
000040 da ca 33 bd e9 b2 a5 bc ec 0a 37 be 76 ba f9 bd
       -0.043894626 -0.020226913 -0.1787526 -0.12193768
000050 84 ef 93 bd d3 0a ad 3c fe 23 a6 bd b8 cb 4a bd
       -0.07223418 0.021123325 -0.08112334 -0.049510688
000060 aa ff 1e 3e 44 d0 0a bd c4 7f 14 be 6a 7b 32 3d
       0.15527216 -0.033890024 -0.14501864 0.043574728
000070 1c 1a 81 bd d8 0b 06 bc 39 80 03 3c a5 12 3a 3b
       -0.06303808 -0.008181535 0.008026176 0.002839246
000080 6a 59 ce 3d a1 ed 6c 3e f4 9a 38 3c 1b 60 0a bd
       0.10075648 0.23137523 0.011267412 -0.03378306
000090 0d a0 2a be 86 3c 69 3d 7c 59 56 3e 35 45 3f be
       -0.16662617 0.056942485 0.20932573 -0.18678744
0000a0 55 64 39 3d 80 54 52 bd e9 ff 39 bc 67 b0 db bd
       0.0452617 -0.051350117 -0.011352518 -0.107270055
0000b0 c3 38 0c 3e a1 91 2e be 1f d8 20 3c e7 87 42 3a
       0.13693528 -0.1704774 0.009817152 0.0007420764
0000c0 3d ee a5 3d 51 90 8b 3d 5e be aa 3c 29 46 7e bd
       0.08102081 0.068146355 0.020842727 -0.06207863
0000d0 c6 26 e9 3b e4 28 b0 3d c2 37 ae bd a3 c2 9e bd
       0.007115218 0.08601549 -0.08506729 -0.07751968
0000e0 22 7e d6 bb 6b ce 56 bd cd c9 f2 bd e5 de bd bd
       -0.006545798 -0.05244295 -0.11854897 -0.092710294
0000f0 5a 8f 01 be 20 9d fb bc b0 09 14 3e f9 49 71 3d
       -0.1265234 -0.030714571 0.1445682 0.058908436
000100 fb c8 96 bd 57 df da bb 68 7f 99 3d f0 05 e3 bd
       -0.07362553 -0.006679456 0.07495004 -0.11085117
000110 6e 70 07 3b ea 87 21 bd 82 6a 72 bd 65 2a c4 bb
       0.0020666379 -0.03943626 -0.059183605 -0.005986499
000120 15 4c 0e 3e 8f a7 0f 3e ce 39 02 be 2e be 08 3c
       0.1389621 0.14028762 -0.12717363 0.008346124
000130 84 8e f7 3d 02 fe 78 bd 2a 56 08 be ce 73 41 bc
       0.120877296 -0.060789116 -0.13314119 -0.011807395
000140 41 7d b7 bc 91 35 d2 bd 82 5e 9d bd 16 d8 24 3d
       -0.022398593 -0.10264123 -0.076840416 0.040245138
000150 d0 b0 00 3d dc 67 03 be cf ed 29 3e ee 4a 61 3c
       0.03141862 -0.12832588 0.16594623 0.013750775
000160 b2 69 18 3e 66 45 2a bd ce 5d d2 3d 40 59 14 be
       0.1488407 -0.04157009 0.10271798 -0.14487171
000170 a5 f5 11 3e cd a1 c0 bc 7c 64 e7 bd 46 a3 6f 3d
       0.14253862 -0.023514653 -0.11298463 0.05850532
000180 da 07 8a 3e 6a 64 0d be 5a de 1f 3d af 7e 26 bd
       0.26959115 -0.13807836 0.03903041 -0.04064816
000190 75 0f 41 3c 58 36 88 bc 98 b0 2c 3d 8a 38 c8 bd
       0.01178347 -0.016627476 0.0421606 -0.09776409
0001a0 ce 64 d1 bd b6 b9 9d bd de a3 dc bc 11 7e 94 bc
       -0.10224305 -0.07701437 -0.026933607 -0.01812652
0001b0 d8 cb d3 38 cc 8b 14 be 77 91 a7 bd b1 eb 9d bc
       0.00010099233 -0.14506453 -0.08182042 -0.019277425
0001c0 a0 5a ba 3c 20 bf 0d be 6c 4f 29 be f8 51 a0 bd
       0.022748291 -0.1384244 -0.16534203 -0.07828134
0001d0 ad 0b d4 3c 72 b4 50 bd c0 65 15 3e 24 89 93 3d
       0.025884474 -0.050953336 0.14589596 0.07203892
0001e0 bd 4c 87 3d 2a 60 ce 3b 9b 8e 97 bd ee 79 ed bd
       0.066064335 0.0062980847 -0.07400247 -0.11595522
0001f0 f6 f6 8b 3b 9a a9 13 be 88 dc 63 bd ca 06 34 bc
       0.0042713834 -0.14420167 -0.055630237 -0.010987947
000200 68 7d 0f bb e4 9a 5a 3d a0 88 b4 3d df 0c af 3d
       -0.0021894816 0.05337037 0.08815122 0.08547377
000210 8b 0c 66 3d fc 68 38 be 29 88 c6 3d 30 51 e9 bc
       0.056164306 -0.18008798 0.09693939 -0.028481096
000220 79 9a 00 3d 2e 7f 95 3d 24 78 d1 3d fb a2 0c 3c
       0.031397317 0.07299648 0.10227993 0.008583779
000230 3f 08 34 bd 67 a8 d1 bd e3 80 24 3e 5d fe 47 bd
       -0.043953177 -0.10237198 0.16064791 -0.048826564
000240 01 26 02 3d 83 6c c3 3b 27 e4 3b 3e 85 0d d8 3d
       0.031774525 0.0059638633 0.18348752 0.10549454
000250 53 2d af 3d a7 8c b7 bc 32 34 a4 3d 48 ba 9a 3d
       0.08553567 -0.022405935 0.08017768 0.075550616
000260 a6 52 16 be e4 f8 ef 3c ed ca 07 3e 86 c5 44 bd
       -0.14679965 0.029293485 0.13261004 -0.048039936
000270 31 c6 82 3d 60 96 3e bc d4 4c af bb 76 d5 5e bb
       0.06385458 -0.011632532 -0.005349735 -0.0034001744
000280 00 a9 cb bd 37 56 82 be 34 65 9a bb e5 4a 06 3d
       -0.099443436 -0.25456402 -0.0047117714 0.03278627
000290 f6 eb 1a 3e 4b 8b 78 bc 9e 7a 4f be c4 69 4d 3e
       0.15129074 -0.015169929 -0.20261618 0.20059878
0002a0 2c db 65 bd 65 74 35 3d fe eb 95 3c 0b 60 c0 3d
       -0.05611722 0.044300456 0.018301006 0.09393319
0002b0 e3 59 21 be 31 42 1d 3e 7c 98 c7 3b 06 4d 95 3c
       -0.15756945 0.15357281 0.0060911756 0.018225204
0002c0 e3 e4 aa bd 42 1a 52 bd 36 ad ac bc d2 9e 97 3d
       -0.08344438 -0.051294573 -0.021078687 0.074033394
0002d0 21 6f 0a bd 7d 01 c2 bd d2 a4 ba 3d d3 44 74 3d
       -0.033797387 -0.0947294 0.09113468 0.05963595
0002e0 75 16 84 3b d6 49 6c 3d 92 33 ca 3d 1b 5e a9 3d
       0.0040309974 0.057687603 0.098731175 0.08269902
0002f0 05 12 0d 3e 38 8c 27 3d 6e 76 06 be 9d ae 88 bd
       0.13776405 0.040905207 -0.13131115 -0.0667393
000300 38 c8 70 3d e5 fd 7d bb 51 a0 86 bd f0 46 07 3e
       0.058784693 -0.003875607 -0.06573547 0.13210654
000310 06 7c ba ba 3f 8e 39 3d 50 39 44 3d c2 b3 0a 3b
       -0.0014227636 0.045301672 0.04790622 0.0021164273
000320 0f 06 1b be bc 49 06 be 66 0e 0a 3e 76 e2 dc bc
       -0.1513903 -0.13114065 0.13482055 -0.026963454
000330 08 ec ee bd 15 de 92 3d 13 86 03 3e aa 2a b4 3b
       -0.11666113 0.07171265 0.12844114 0.00549825
000340 5d 03 ae 3c 80 93 d2 3d 10 63 97 3d 24 c4 cc bc
       0.021241838 0.1028204 0.073919415 -0.02499587
000350 5f dd 29 bd 54 0d 0b 3e cf a9 24 be 9b ba 25 bc
       -0.04147088 0.13579303 -0.16080402 -0.010115291
000360 c5 b2 13 be ab 92 2c 3d 44 9c b9 bd 70 a7 1a 3e
       -0.14423664 0.04213206 -0.090630084 0.15102935
000370 fd 2a 1b be ce 27 c8 3c 12 dd b6 3d ee a9 98 bd
       -0.15153117 0.024433043 0.089288846 -0.074542865
000380 0c 94 90 be d3 d4 02 3e 6f 15 1f bd 32 f7 59 3d
       -0.2823795 0.12776498 -0.0388388 0.05321426
000390 d5 f3 dd bc 3e 5e 06 3d f0 f4 23 bd 68 ad d4 3d
       -0.027093807 0.03280472 -0.040028512 0.10384637
0003a0 77 76 f8 3d 43 ac 80 3d cf 33 8b 3c 24 0f d2 3c
       0.121319704 0.06282856 0.016992478 0.025641985
0003b0 f3 4b 01 3b ed f8 02 3e 76 bd b8 3d c1 5e 70 3c
       0.0019729107 0.1279027 0.09020512 0.014671029
0003c0 f6 f6 c1 bc f5 4f ff 3d 58 32 18 3e 2b 03 73 3d
       -0.02367733 0.124664225 0.14862955 0.059329193
0003d0 6d 90 c5 bc 78 b5 8a 3d 5b 3f 12 be f5 a5 a3 bd
       -0.02411672 0.06772894 -0.1428198 -0.07990638
0003e0 9c 5c 50 bd cd 1c c4 bc 32 1b d1 3d b5 62 e5 3d
       -0.05086957 -0.023939515 0.10210265 0.112004675
0003f0 8e 34 3c 3b e7 bb 15 3e d5 34 27 3d f5 84 d0 3c
       0.0028717848 0.1462246 0.04082187 0.025454024

action_model._discrete_distribution.branches.2.bias f4 [2]
000000 40 9d d2 bc 61 a1 d2 3c
       -0.025709748 0.025711717
