Assets/ML-Agents/results/sc08/SimpleCollector/SimpleCollector-12520.onnx (onnx, 337208 bytes, 7 tensors)

network_body._body_endoder.seq_layers.0.weight f4 [256, 65]
-0.031234195 -0.007153707 -0.045411576 -0.13235395 0.04268469 0.111824185 0.041053426 0.16921857
-0.14683183 0.060772058 -0.040159352 0.10389555 0.14359196 -0.021236597 -0.06270241 0.040562633
-0.08801576 -0.31054094 0.06534714 0.08694583 0.0042854315 0.1710863 -0.09738664 0.13506868
-0.07890358 0.04878194 0.19147353 -0.028920226 -0.05198092 -0.017174747 0.21688858 -0.4345902
0.10305346 0.07957846 0.042092044 0.02954436 -0.08790139 0.122296646 0.023952318 0.0048101167
0.055098016 0.058832996 -0.046317432 -0.017624266 0.13174379 0.05340136 -0.0006194473 0.28353468
0.108298786 0.052423675 -0.25108525 0.06274591 -0.06151017 -0.08166774 0.008157504 0.038239606
0.0804702 0.12772146 0.051598 0.073538475 0.08769075 0.27447438 0.07405259 -0.07477076
-0.12579563 0.035027377 -0.06946929 0.027011044 -0.049338505 -0.016566776 0.039675694 0.1501322
0.16754827 0.093755454 -0.19601843 -0.055144303 0.07870418 -0.038393818 -0.11273571 0.042540316
0.087346554 -0.18959531 0.0026680417 0.16044776 0.049287483 -0.13068694 0.047712173 -0.05081347
0.1221545 0.0014404058 -0.14197004 -0.19295001 -0.079109035 0.18194155 -0.01473875 0.0031141676
0.058672406 -0.04833636 -0.23494053 -0.1827469 -0.13719107 -0.22098166 0.23540273 0.1198371
0.19008301 -0.082644284 0.029672956 0.16826762 -0.21304183 0.044285916 -0.14361936 -0.09642287
0.105899036 0.12698615 0.04279587 -0.21415614 -0.09918766 0.111650325 -0.05659656 0.13009904
0.02273391 -0.08412434 -0.14655326 0.098386355 -0.1529634 -0.117990084 0.11648033 0.0049487036
0.07572673 0.041597713 -0.059850402 -0.22189143 0.15626407 -0.16467902 0.061191957 0.02494066
-0.047594216 0.11088503 -0.0808813 0.16191415 -0.15907726 -0.18911962 0.18921427 -0.15641059
-0.12444984 0.08603373 -0.010388989 0.006922553 0.24450509 0.08423524 -0.05086909 0.041343987
-0.12523937 0.076360464 0.24703081 -0.23546043 0.098351166 0.0281998 -0.09259223 -0.1620358
0.15162426 0.0043208 0.077181 0.094571345 -0.029228063 -0.012310046 0.06189642 -0.048049722
0.008261624 0.16626132 0.26020232 -0.10383259 0.11165314 0.105138816 -0.056803443 -0.013716419
0.03422787 0.024610087 0.099914305 -0.027900903 -0.08277351 -0.21690325 -0.118446805 0.2541206
0.21943326 -0.055102162 -0.107679956 -0.10626857 -0.2849225 -0.011422607 -0.080753356 -0.14944935
-0.016024671 -0.08335245 0.047748275 0.049700018 0.19582321 0.05466844 -0.07103202 -0.15393099
0.07988322 0.07771139 -0.027178004 0.056508243 -0.117191024 -0.08435809 0.19836454 -0.026103718
0.006770458 0.03751096 0.06439523 -0.16289943 -0.18772107 -0.0058108973 -0.005050449 0.024568347
-0.019732982 0.15841009 -0.07458171 -0.115940094 0.06699307 0.012063329 0.033666342 -0.060757317
0.048735388 -0.030042429 0.111934595 0.2279496 0.07512776 -0.05138714 0.06336286 -0.0007304405
0.000732485 -0.09767437 0.083249144 -0.06774212 -0.044552132 -0.055278 -0.042236287 0.102815844
-0.19195539 0.16447833 0.06301695 0.052147873 -0.037400994 0.040164877 0.026398025 0.090370715
0.13598387 0.17496674 0.02954205 -0.23764691 -0.15260956 0.013454571 -0.07065101 -0.33703548
00000000: dbde ffbc a569 eabb 7d01 3abd cb87 07be
00000010: 24d6 2e3d 1404 e53d a327 283d a247 2d3e
00000020: 155b 16be 1fec 783d 227e 24bd 31c7 d43d
00000030: c509 133e 5ff8 adbc 1f6a 80bd 0125 263d
00000040: 9b41 b4bd 39ff 9ebe b9d4 853d a810 b23d
00000050: ce6c 8c3b 3f31 2f3e a672 c7bd 724f 0a3e
00000060: 3398 a1bd 92cf 473d a311 443e 1cea ecbc
00000070: f2e9 54bd 0eb2 8cbc 0a18 5e3e 9b82 debe
00000080: b10d d33d 08fa a23d b568 2c3d 0307 f23c
00000090: a505 b4bd aa76 fa3d a737 c43c 2f9e 9d3b
000000a0: 75ae 613d defa 703d 59b7 3dbd c460 90bc
000000b0: d8e7 063e 62bb 5a3d 6862 22ba 752b 913e
000000c0: c1cb dd3d 35ba 563d 3f8e 80be ed80 803d
000000d0: 17f2 7bbd 6b41 a7bd 0da7 053c 22a1 1c3d
000000e0: 8fcd a43d 6ac9 023e 6d58 533d 579b 963d
000000f0: 3597 b33d e887 8c3e e2a8 973d 6a21 99bd
00000100: 92d0 00be de78 0f3d ea45 8ebd 4446 dd3c
00000110: 2c17 4abd 0cb7 87bc fb82 223d 41bc 193e
00000120: c691 2b3e dc02 c03d 0eb9 48be fede 61bd
00000130: a82f a13d d642 1dbd fbe1 e6bd c13e 2e3d
00000140: c0e2 b23d 4625 42be 50da 2e3b 6b4c 243e
00000150: ace1 493d ccd2 05be d76d 433d c921 50bd
00000160: 232c fa3d 00cc bc3a 9860 11be b094 45be
00000170: eb03 a2bd e34e 3a3e cc7a 71bc 1017 4c3b
00000180: 7a52 703d 59fc 45bd 4094 70be 0122 3bbe
00000190: d17b 0cbe 0449 62be 6a0d 713e 276d f53d
000001a0: 1fa5 423e 6841 a9bd b314 f33c 594e 2c3e
000001b0: a327 5abe 2665 353d f410 13be 5b79 c5bd
000001c0: 98e1 d83d a808 023e b94a 2f3d bf4b 5bbe
000001d0: e622 cbbd eda8 e43d cbd1 67bd af38 053e
000001e0: 773c ba3c 6249 acbd 0f12 16be c97e c93d
000001f0: 70a2 1cbe c9a4 f1bd 3d8d ee3d bc28 a23b
00000200: 9e16 9b3d 5d62 2a3d b225 75bd 8237 63be
00000210: b003 203e 9ea1 28be 6ba4 7a3d 5b50 cc3c
00000220: 27f2 42bd b117 e33d 18a5 a5bd d3cc 253e
00000230: 26e5 22be 93a8 41be 63c1 413e 192a 20be
00000240: 8fdf febd 7432 b03d 9436 2abc 95d6 e23b
00000250: 8b5f 7a3e 8783 ac3d 1b5c 50bd 5058 293d
00000260: c03e 00be e062 9c3d a5f5 7c3e 8a1c 71be
00000270: 566c c93d 4403 e73c ffa0 bdbd b6ec 25be
00000280: 6443 1b3e 7f95 8d3b 1211 9e3d 9fae c13d
00000290: b16f efbc 13b0 49bc 1a87 7d3d c9cf 44bd
000002a0: c35b 073c 6840 2a3e 3d39 853e 2ea6 d4bd
000002b0: 67aa e43d 0553 d73d baaa 68bd d5ba 60bc
000002c0: 8632 0c3d 189b c93c df9f cc3d 6f90 e4bc
000002d0: 2885 a9bd e31b 5ebe 3d94 f2bd 181c 823e
000002e0: 1db3 603e ceb2 61bd 4f87 dcbd 56a3 d9bd
000002f0: 5de1 91be e325 3bbc 0462 a5bd 4009 19be
00000300: 2c46 83bc b0b4 aabd b293 433d 3f92 4b3d
00000310: e185 483e 04ec 5f3d 3c79 91bd 16a0 1dbe
00000320: d099 a33d 2627 9f3d 68a4 debc 3075 673d
00000330: d901 f0bd efc3 acbd 1320 4b3e 77d7 d5bc
00000340: b8da dd3b 18a5 193d a5e1 833d 1ccf 26be
00000350: f439 40be 5769 bebb 3d7e a5bb 8f43 c93c
00000360: 10a7 a1bc 4136 223e 4cbe 98bd 0072 edbd
00000370: aa33 893d 45a5 453c b8e5 093d aadc 78bd
00000380: c29e 473d 8a1b f6bc f73d e53d 9f6b 693e
00000390: 95dc 993d 527b 52bd 63c4 813d 087b 3fba
000003a0: 3c04 403a 8009 c8bd 877e aa3d 61bc 8abd
000003b0: 4c7c 36bd 2f6b 62bd f5ff 2cbd 1d91 d23d
000003c0: f48f 44be 026d 283e 080f 813d 0299 553d
000003d0: c931 19bd ed83 243d ac40 d83c 4814 b93d
000003e0: 5b3f 0b3e 7b2a 333e 2b02 f23c b659 73be
000003f0: ae45 1cbe 9070 5c3c 7ab1 90bd ea8f acbe

network_body._body_endoder.seq_layers.0.bias f4 [256]
-0.0013866051 0.0025530397 0.0046737213 -6.893488e-05 -0.0028654698 0.0020123655 0.0036199854 0.005385312
-0.00025035272 0.0017991812 -0.0018929335 -0.0043660435 0.0042239605 0.003462853 -0.0031211856 0.00027218641
0.006308058 0.0028792308 -0.0006728082 0.0010044689 0.009160617 0.0042085582 -0.0023633358 0.0013888192
0.0051950654 0.0010568758 0.0047744275 0.010490396 0.0011611716 -0.00073358876 -0.0014954429 -0.0038734681
0.0019837487 -0.0037818442 0.0017341047 0.0033731165 -0.001070282 -0.00078696816 0.006396784 0.004225953
0.00023149438 0.0026276596 -0.002318343 0.0043188557 -0.0043053417 0.005672942 -0.0035685212 -0.0011384245
-0.0005369032 0.00053027336 0.0074146115 -0.00053362316 0.00071672443 0.003004479 -0.0005035115 0.00010730581
0.00089169474 -0.0014642507 0.003777616 -0.0007477583 -0.0043728673 -0.0001862246 0.0005716147 0.0050295885
0.0016807644 -0.0021449544 0.0076259207 -0.008043534 -0.0011758519 0.005526581 -0.0032543105 -0.0017012949
0.0056148865 0.0005270032 -0.003058905 -0.0004295771 0.0013039098 -0.0045163864 -0.0036523647 0.00072170777
0.00054034044 0.0027487883 0.0010841207 -0.0042742295 0.0029319408 -0.0009453838 -0.0012564391 0.0015816024
0.0035777607 -0.0027439995 0.004252762 0.0006719374 0.008874706 0.0010087315 -0.0029911124 0.0032960703
-0.0053175497 -0.0010472279 0.005405331 0.0012773713 0.0021161553 -0.0011893769 0.004622318 -0.0033550435
6.183074e-05 0.0022066806 -0.007152959 -0.0024492035 0.007787255 -0.0039528464 0.0004879919 -0.00062515406
-0.0017361592 0.0024672528 0.0054406445 -0.0035784596 0.0018588614 0.0042735673 -0.00761974 -0.0026188772
0.0034153718 0.0031304525 0.0023407943 0.0023037812 0.00046013878 0.012189566 -0.00368866 -0.0056917635
0.0009327207 0.0027573784 0.0043278206 -0.00765008 0.0063197888 -0.0037454006 0.0015336543 -0.0035074956
0.008400549 0.0026253439 0.0018891181 -0.0021343254 -0.0039887936 0.0022498302 -0.0015969758 -0.0017623744
0.002903015 -0.0009781838 -0.0062000826 0.0017117026 -0.0012510478 0.0077275047 -0.0035265598 -0.00010317909
-0.0040955883 -0.00030535963 -0.0018700059 0.0020505437 -0.0017154522 0.002059394 0.003828081 -0.0014814034
0.00032792354 0.000820685 0.0017897626 -0.009458165 -0.0006818893 0.0034095775 -0.0008445397 0.0032997236
0.004642602 -0.0037983444 -0.014066461 -0.0011591869 -0.001063699 -0.002418553 -0.0037010075 0.0032327315
0.0038837402 0.005364281 -0.007731515 0.0015077963 0.0004822394 0.0007422132 0.00016364462 -0.001415602
0.0009684766 -0.000964184 0.003065446 0.001125059 -0.007543607 0.002148422 -0.002708887 0.0032001098
-0.0041701663 -0.0038546992 -0.0021177595 -0.00041864807 0.0027957158 0.0015141587 0.0047223526 0.00052386126
-0.0007700109 0.0016093537 -0.0052753882 -0.0024005028 -0.009689064 0.0041316613 0.0007645565 -0.009052098
0.0077260253 0.008288218 -0.0015683157 -0.0013414685 0.0030619763 0.0053196168 -0.004949187 -0.0027784551
-0.0031340413 0.0035599554 -0.009651725 -0.0059374757 -0.00057430647 0.0009861534 0.0034904978 0.009222648
-0.007733493 0.0051764417 0.005419508 -0.0032499048 -0.0015455375 0.0001735805 -0.00062136125 -0.004269305
0.0024549272 -0.0021079504 0.012736706 0.0060124113 -0.0024914865 -0.011494803 -0.005539288 0.002316469
-0.002748813 0.010141745 0.0050841784 0.0028153337 8.04256e-06 0.0006619035 -0.012212826 0.0036838052
0.0012818264 0.0016640298 0.0014727244 -0.0014390453 -0.001695325 -0.0019324283 0.0022274095 -3.7993443e-05
00000000: bfbe b5ba e650 273b 0426 993b 2291 90b8
00000010: 9bca 3bbb e4e1 033b 473d 6d3b 4577 b03b
00000020: c641 83b9 81d2 eb3a 4f1c f8ba 0711 8fbb
00000030: 2669 8a3b 08f1 623b ce8c 4cbb 3eb4 8e39
00000040: d3b3 ce3b 7ab1 3c3b 655f 30ba 62a8 833a
00000050: 6a16 163c f2e7 893b 32e2 1abb 0a09 b63a
00000060: 5e3b aa3b de86 8a3a cd72 9c3b e9df 2b3c
00000070: 7432 983a 4f4e 40ba bd02 c4ba 03da 7dbb
00000080: c801 023b d1d8 77bb e64a e33a 810f 5d3b
00000090: b448 8cba 8a4c 4eba 1d9c d13b dd79 8a3b
000000a0: 4dbd 7239 d034 2c3b 57ef 17bb 3085 8d3b
000000b0: d313 8dbb 16e4 b93b dadd 69bb 3037 95ba
000000c0: f7be 0cba 0b02 0b3a 45f6 f23b d8e2 0bba
000000d0: 90e2 3b3a cbe6 443b 16fe 03ba 5e09 e138
000000e0: 9fc0 693a 1aec bfba e191 773b 3605 44ba
000000f0: 454a 8fbb 4945 43b9 6ad8 153a 3fcf a43b
00000100: 184d dc3a 5d92 0cbb dce2 f93b 07c9 03bc
00000110: 0b1f 9aba 5218 b53b 4546 55bb fcfd deba
00000120: 15fd b73b 9626 0a3a e977 48bb dd38 e1b9
00000130: f4e7 aa3a 32fe 93bb 835c 6fbb fd30 3d3a
00000140: a2a5 0d3a 0425 343b 0e19 8e3a d60e 8cbb
00000150: ce25 403b a2d3 77ba 1aaf a4ba c54d cf3a
00000160: dd78 6a3b acd4 33bb c15a 8b3b f524 303a
00000170: 3767 113c 6a37 843a 8a06 44bb e202 583b
00000180: d73e aebb 2343 89ba 341f b13b 786d a73a
00000190: 32af 0a3b dee4 9bba d076 973b 4ae0 5bbb
000001a0: 20ab 8138 f59d 103b 5e63 eabb d182 20bb
000001b0: 3b2c ff3b e186 81bb 2ad9 ff39 61e1 23ba
000001c0: d68f e3ba a2b1 213b 6f47 b23b 9784 6abb
000001d0: 0aa5 f33a 4809 8c3b 03af f9bb 78a1 2bbb
000001e0: 6ed4 5f3b 4728 4d3b 0368 193b 09fb 163b
000001f0: c83e f139 bfb6 473c 72bd 71bb f981 babb
00000200: d481 743a 22b5 343b 64d0 8d3b 86ad fabb
00000210: 3b16 cf3b 6575 75bb e604 c93a 03de 65bb
00000220: 75a2 093c f60d 2c3b 499c f73a 0ae0 0bbb
00000230: 6db4 82bb e371 133b 9e51 d1ba 79ff e6ba
00000240: 8240 3e3b 6736 80ba 102a cbbb 355b e03a
00000250: 33fa a3ba 0237 fd3b db1d 67bb da61 d8b8
00000260: 4934 86bb ad18 a0b9 fc1a f5ba 6a62 063b
00000270: 06d9 e0ba e6f6 063b 8be0 7a3b a62b c2ba
00000280: 27ed ab39 3d23 573a 7896 ea3a 6bf6 1abc
00000290: d1c0 32ba 3873 5f3b 1a64 5dba 2d40 583b
000002a0: f820 983b a5ed 78bb 0377 66bc dcef 97ba
000002b0: d16b 8bba 9680 1ebb 9a8c 72bb 3cdc 533b
000002c0: 5986 7e3b dac6 af3b a658 fdbb 40a1 c53a
000002d0: 14d5 fc39 1691 423a 0598 2b39 b98b b9ba
000002e0: 5de1 7d3a 4bc1 7cba a6e5 483b b776 933a
000002f0: 5d30 f7bb 8acc 0c3b 9587 31bb efb8 513b
00000300: e4a5 88bb 1f9f 7cbb 1cca 0abb fe7d dbb9
00000310: 5438 373b bc76 c63a f7bd 9a3b bc53 093a
00000320: 8fda 49ba f3f0 d23a 2add acbb c151 1dbb
00000330: e1be 1ebc e362 873b 856c 483a 404f 14bc
00000340: 992a fd3b 4ecb 073c f18f cdba 37d4 afba
00000350: 70ab 483b 2e50 ae3b ca2c a2bb be16 36bb
00000360: 7d64 4dbb 244e 693b 4522 1ebc 288f c2bb
00000370: 0e8d 16ba d141 813a d6c0 643b 971a 173c
00000380: 3e69 fdbb 249f a93b 2196 b13b 5bfc 54bb
00000390: a293 caba 2903 3639 d9e2 22ba 87e5 8bbb
000003a0: d8e2 203b 8a25 0abb 9ead 503c c303 c53b
000003b0: 3548 23bb b354 3cbc ea82 b5bb e7cf 173b
000003c0: 6e25 34bb 9029 263c 2e99 a63b 7681 383b
000003d0: 88ee 0637 9883 2d3a 4e18 48bc ff6b 713b
000003e0: f502 a83a 931b da3a 6e08 c13a 599e bcba
000003f0: ab35 deba 8949 fdba bbf9 113b 265b 1fb8

network_body._body_endoder.seq_layers.2.weight f4 [256, 256]
0.038992472 0.09495886 0.15841402 -0.0044029523 -0.062616065 -0.017143466 0.011505643 -0.026827594
-0.011761534 -0.0060912753 -0.0051271776 -0.01387729 -0.041207317 0.030328112 -0.057201974 -0.036071524
0.027506027 0.1662513 0.014009712 0.03035564 -0.0025649164 0.1137303 -0.012958917 -0.014328224
-0.0116529185 0.084751226 -0.13015994 0.078895204 0.022850947 0.03728871 -0.093189046 0.0808087
0.05455069 -0.040110447 0.07887394 -0.059605792 0.07146335 -0.031155711 0.031346027 0.0022354783
0.02654712 0.03342761 -0.0123373205 -0.012591715 -0.015086446 0.06660242 -0.09996821 -0.06656058
-0.061297975 0.035321467 -0.011577193 -0.08279196 0.1289255 -0.06916277 0.004897854 0.09445028
0.013930707 0.055402808 0.026813025 0.08133924 -0.11551514 -0.0862611 0.005241809 0.038889334
0.058936834 0.05103855 0.047585636 -0.069342636 -0.03168862 -0.018371854 0.08799709 0.071041025
-0.006304505 0.0699389 0.019795004 0.043306813 0.16785668 -0.036957648 0.010671398 -0.07580608
0.0781711 0.08817011 -0.009819219 -0.08406267 0.090572774 -0.07227525 -0.051250067 0.017812587
-0.0688341 -0.023362655 0.12791802 -0.038676586 -0.045067325 0.13455766 -0.10133868 0.089169465
0.10426867 -0.009696675 0.06594125 -0.06488391 0.058513515 0.03679813 -0.1331178 -0.05992958
0.016864078 0.120313674 -0.06210209 0.05562991 -0.0570185 -0.06258737 -0.050031286 -0.049588364
-0.0037443475 0.044442598 0.10656867 -0.022043047 0.0025809216 -0.030188447 0.030428894 0.018203186
0.011387986 -0.035810865 0.06149395 -0.035515156 0.08133696 -0.11241274 -0.018348593 0.025793796
0.05907234 0.059173793 0.026935518 -0.032092668 -0.13316016 -0.120336644 -0.042907685 0.0015031534
-0.038185783 0.0056058452 0.014453635 0.035382405 -0.03367828 -0.07886263 0.12402879 0.018812103
-0.049822286 -0.016760357 -0.021186454 0.10075084 0.10074785 0.037471607 -0.0064994744 0.013472914
-0.045369916 -0.12169063 0.013257432 0.0880285 0.04284442 -0.034885794 -0.04530117 0.11686106
-0.0006444197 0.095745526 0.044843275 0.0799644 0.028609317 0.010884602 -0.0627845 0.040092386
-0.014191946 -0.025769582 0.011391901 -0.05450463 0.022673473 -0.0014066608 0.058704484 0.13432743
-0.05029679 -0.09149061 0.052445136 0.028035775 0.033589885 0.020498592 0.09088758 -0.019941371
-0.10385453 0.04815868 0.10567232 -0.008426933 -0.0446412 -0.048094302 -0.00407145 0.013885569
0.096833594 0.10771173 -0.006303258 0.005740168 0.085637115 0.030820826 -0.013358204 0.0025191833
-0.010051869 0.046284135 0.070297375 0.020526063 0.024123177 0.046321664 -0.1719921 0.010495601
0.009950225 -0.095567934 0.088066496 -0.065000735 0.102560334 0.0530408 0.0031216303 -0.017228765
-0.038131513 0.036319103 0.07152326 0.047566015 0.042821996 -0.07319347 -0.008959696 0.028179003
-0.031760864 -0.079389505 0.007821212 -0.04598623 0.019473774 -0.0018803742 0.028749479 -0.038883783
-0.0088910265 0.06087324 0.075323805 -0.17376374 -0.15912786 -0.019788697 -0.08144636 -0.013353644
-0.070465796 -0.032882478 0.11421133 -0.046402037 0.10313907 -0.03850001 0.14277479 -0.02341965
-0.00028277602 0.11477559 -0.07198655 0.059095606 0.013228687 -0.052104928 0.016779868 0.07025397
00000000: 92b6 1f3d ca79 c23d 4937 223e a446 90bb
00000010: da3c 80bd 7470 8cbc 2a82 3c3c 8bc5 dbbc
00000020: 73b3 40bc 5299 c7bb e201 a8bb 935d 63bc
00000030: 01c9 28bd a972 f83c 9e4c 6abd bcbf 13bd
00000040: 5254 e13c c83d 2a3e fe88 653c 64ac f83c
00000050: 2818 28bb 6eeb e83d a351 54bc edc0 6abc
00000060: e2eb 3ebc 0d92 ad3d a648 05be cf93 a13d
00000070: e931 bb3c 0cbc 183d e6d9 bebd 087f a53d
00000080: 8b70 5f3d da4a 24bd a988 a13d 3425 74bd
00000090: 605b 923d 433a ffbc b164 003d 1a81 123b
000000a0: 5979 d93c 64eb 083d 7922 4abc 7b4d 4ebc
000000b0: 242d 77bc d966 883d 22bc ccbd ea50 88bd
000000c0: 9613 7bbd 3ead 103d 44ae 3dbc d58e a9bd
000000d0: 0c05 043e 36a5 8dbd 2d7e a03b 266f c13d
000000e0: 9f3d 643c 0eee 623d fda6 db3c 3095 a63d
000000f0: 3493 ecbd a9a9 b0bd 7bc3 ab3b 6c4a 1f3d
00000100: c067 713d cc0d 513d 28e9 423d 8303 8ebd
00000110: edcb 01bd 9280 96bc d137 b43d f57d 913d
00000120: 0596 cebb 203c 8f3d 2229 a23c 7c62 313d
00000130: 9fe2 2b3e e760 17bd 16d7 2e3c 3840 9bbd
00000140: 2b18 a03d 8892 b43d cae0 20bc 0d29 acbd
00000150: 387e b93d 0c05 94bd 97eb 51bd b4eb 913c
00000160: e5f8 8cbd 0a63 bfbc f1fc 023e 576b 1ebd
00000170: 8498 38bd 7cc9 093e a78a cfbd 7b9e b63d
00000180: d08a d53d cede 1ebc 350c 873d dbe1 84bd
00000190: deab 6f3d a3b9 163d 0850 08be b878 75bd
000001a0: 8926 8a3c 0467 f63d c35e 7ebd 30dc 633d
000001b0: 3b8c 69bd cf2d 80bd 9bed 4cbd 2b1d 4bbd
000001c0: ba63 75bb 7109 363d ad40 da3d 9f93 b4bc
000001d0: ae24 293b c34d f7bc 0446 f93c d91e 953c
000001e0: ad94 3a3c 6aae 12bd 15e1 7b3d 5778 11bd
000001f0: fe93 a63d a738 e6bd ca4f 96bc 834d d33c
00000200: d7f5 713d 3860 723d e0a7 dc3c 9a73 03bd
00000210: 235b 08be 0f73 f6bd f8bf 2fbd 7505 c53a
00000220: b268 1cbd 3db1 b73b f0ce 6c3c 24ed 103d
00000230: 3cf2 09bd bb82 a1bd ce02 fe3d d71b 9a3c
00000240: 7412 4cbd 044d 89bc 378f adbc 7556 ce3d
00000250: e454 ce3d d47b 193d 8bf9 d4bb 7fbd 5c3c
00000260: ced5 39bd f038 f9bd b335 593c 4948 b43d
00000270: a17d 2f3d 68e4 0ebd b88d 39bd da54 ef3d
00000280: 46ee 28ba 3b16 c43d 95ad 373d 60c4 a33d
00000290: 165e ea3c 5455 323c 2995 80bd ea37 243d
000002a0: 5685 68bc bb1a d3bc 19a5 3a3c 3f40 5fbd
000002b0: b8bd b93c b45f b8ba 1d74 703d 218d 093e
000002c0: 0204 4ebd 6e5f bbbd b6d0 563d 48ab e53c
000002d0: 8c95 093d aaec a73c 4423 ba3d 165c a3bc
000002e0: afb1 d4bd 0942 453d bb6a d83d 1e11 0abc
000002f0: b1d9 36bd 88fe 44bd cc69 85bb 4c80 633c
00000300: b150 c63d f897 dc3d 8f8b cebb 0518 bc3b
00000310: 8362 af3d f57b fc3c 5edc 5abc e218 253b
00000320: 98b0 24bc 6f94 3d3d 12f8 8f3d 4626 a83c
00000330: f89d c53c c9bb 3d3d b21e 30be bef5 2b3c
00000340: 4506 233c 1fb9 c3bd 355c b43d 1b1f 85bd
00000350: 270b d23d 4f41 593d 4494 4c3b 5723 8dbc
00000360: ca2f 1cbd 57c3 143d c97a 923d 95d4 423d
00000370: 1e66 2f3d 75e6 95bd b0cb 12bc a7d7 e63c
00000380: ae17 02bd f796 a2bd 8a24 003c 0f5c 3cbd
00000390: 7787 9f3c e376 f6ba 0784 eb3c 9a44 1fbd
000003a0: abab 11bc 3856 793d 5e43 9a3d 1fef 31be
000003b0: 6af2 22be e81b a2bc 59cd a6bd 3ec9 5abc
000003c0: 5f50 90bd c7af 06bd a1e7 e93d 1010 3ebd
000003d0: 943a d33d 30b2 1dbd 8e33 123e 91da bfbc
000003e0: 8e41 94b9 770f eb3d af6d 93bd 3c0e 723d
000003f0: 23bd 583c fa6b 55bd ef75 893c 50e1 8f3d

network_body._body_endoder.seq_layers.2.bias f4 [256]
0.0017294646 0.0025803088 -0.00087976304 0.004953644 0.00046597858 0.0024191109 0.0026506889 0.00043513923
-0.00020727243 0.00057290145 -0.0014874001 -0.0032995665 -0.00026953645 0.0010819099 -0.0072175968 0.0001522158
-0.0027227164 0.0025363567 0.00089820434 0.0023070879 0.0037257508 -0.0004806153 -0.0008533691 0.0029598754
-0.001707997 -0.003140869 0.0037359942 0.0028891622 0.0006109699 -0.0037520067 -0.0021074323 -0.0017133082
-0.0005001651 -0.0028835118 -0.0011034949 -0.0017726426 0.0035953028 0.0034289898 -0.000488507 0.0014804
0.005084676 0.001883538 -0.0024889605 0.002676901 0.0014558521 -0.0012755998 -9.436428e-05 0.0010502756
-0.00063023204 0.0009611749 -0.00028602133 0.004025494 0.00043738092 0.0020871607 -0.00037818262 -0.00031102393
0.0003807301 -0.0005393974 -0.0018508665 -0.0006151639 0.00089778943 -0.0024735518 0.0040299753 -0.0018654213
-0.00016263242 0.0007257456 9.879406e-05 0.001770995 0.0027263144 -0.0038161748 0.0001437304 -0.00017347897
0.004041521 0.0013848012 0.0019362236 -0.0008413897 0.0069512227 0.0009286227 0.0011093493 -0.00057627686
0.0066386256 0.0022433284 -0.0033742706 0.0003650399 0.00028333682 -0.0003045284 -0.0013096206 0.00012793788
-0.0011395235 0.00039734895 0.0018429527 0.00069590856 0.00045980886 0.0016007789 -0.0014149022 -3.625936e-05
0.0002748525 0.0002976916 -0.0013153902 0.004247349 0.0008201015 -0.0009648038 0.001410045 0.0006868876
-0.0021136121 0.00077091693 0.0011553627 -0.0025509463 0.0014239559 -0.00076110516 -0.0009973008 0.00011158382
-0.00076185557 0.0017126047 -0.0006580814 0.00046467036 -0.0018369183 0.0071791993 -0.0015984409 -0.0014010182
-0.0034035202 0.00063631986 0.0002864142 0.00119817 0.0013562577 0.0027647193 0.00039229056 -0.0017586547
-0.0016612427 -0.000491728 -0.0022139025 -0.0014264741 0.0007408724 -0.0022215636 0.0016452813 -0.001165799
0.0037209091 0.002629492 0.002099659 -0.0009413584 -0.00201143 0.002524715 -0.0013425538 0.0014316926
0.00030311922 -0.0028154012 0.0010778868 -0.0015109612 -0.001168709 0.0005749959 0.0013479983 0.00021897352
-0.0004121383 0.0004081083 -0.0015367733 -0.0013386201 -0.0030048806 0.0037297476 0.0024581652 -0.0012973468
-0.0006801754 -0.0015462437 0.0012649179 0.0030026527 -0.0014312161 0.0011486147 0.00022311743 0.0048411475
-0.0038735198 -0.00013986927 0.005527478 -9.862573e-05 0.002443075 -0.0008412897 -0.002224055 -0.0012763389
0.0009735189 -0.0021081131 -0.0033260814 0.0027875516 0.0017228032 0.0028454398 -0.0013579133 0.0074008065
-0.0003922787 0.0024641843 -0.0011625222 0.0012701845 0.003478707 0.0031671324 0.002131911 0.0028883035
-0.00042738233 0.0014489474 -6.0746126e-05 0.0018477509 0.002974444 0.0014294446 0.0013264102 -0.0013630667
0.003020859 -0.00018526177 -0.00416129 0.0037691332 0.00085055374 0.0021462108 0.0013223741 0.005198049
-0.0024108319 0.0017757047 -0.00043596656 0.0035362772 0.0015614178 0.0010578096 -0.0013565823 0.006080906
0.0017327123 0.0017536301 -8.7475164e-05 0.005450919 0.0023182798 -0.0014777804 0.0010250047 0.0058334097
-0.0010273173 -0.0006850888 0.0011145031 -0.0014153961 -0.0023388537 -0.0010294754 0.005812801 -0.0016555915
-0.0019563697 0.002794414 -0.0040473253 0.0022500935 -0.0018808751 -0.0048839916 -0.0012630409 0.002142706
0.0020847863 -0.0043708324 0.0026726916 6.0952483e-05 -0.00063404365 -0.0003533802 0.0014271041 -0.00171208
-0.004402462 -0.004920484 -0.001268204 -0.001016917 1.8554983e-05 0.002894633 0.0006619528 -0.001010583
00000000: 34af e23a 661a 293b e69f 66ba 2d52 a23b
00000010: 964e f439 f289 1e3b 2eb7 2d3b 6623 e439
00000020: 4557 59b9 c42e 163a def4 c2ba 8a3d 58bb
00000030: 9250 8db9 dfce 8d3a 9781 ecbb 1e9c 1f39
00000040: 9a6f 32bb 0139 263b 7975 6b3a 8332 173b
00000050: ba2b 743b 18fb fbb9 a2b4 5fba 78fa 413b
00000060: dfde dfba 0ad7 4dbb 95d7 743b 1958 3d3b
00000070: 7f29 203a 3ae4 75bb d91c 0abb 1591 e0ba
00000080: 831d 03ba 4df9 3cbb 25a3 90ba 0458 e8ba
00000090: 2c9f 6b3b e7b8 603b 260f 00ba fb09 c23a
000000a0: 5b9d a63b 0ce1 f63a d41d 23bb f26e 2f3b
000000b0: 4ad2 be3a 0732 a7ba 70e5 c5b8 67a9 893a
000000c0: 2836 25ba 5bf7 7b3a 22f5 95b9 4be8 833b
000000d0: 4650 e539 bfc8 083b d046 c6b9 ed10 a3b9
000000e0: bb9c c739 5966 0dba c698 f2ba f342 21ba
000000f0: a159 6b3a 501b 22bb e20d 843b 2781 f4ba
00000100: 4f88 2ab9 f63f 3e3a a82f cf38 bb20 e83a
00000110: f7ab 323b ca18 7abb 56b6 1639 e8e7 35b9
00000120: bc6e 843b 3882 b53a e2c8 fd3a b590 5cba
00000130: 15c7 e33b d16e 733a 9667 913a 4911 17ba
00000140: d488 d93b ce04 133b de22 5dbb d362 bf39
00000150: d38c 9439 1ca9 9fb9 93a7 abba 1027 0639
00000160: 105c 95ba 4653 d039 3b8f f13a a26d 363a
00000170: 8012 f139 3ad1 d13a 3d74 b9ba 3115 18b8
00000180: 141a 9039 7d13 9c39 2c69 acba 592d 8b3b
00000190: 14fc 563a e3ea 7cba 42d1 b83a 3f10 343a
000001a0: 8784 0abb 5c17 4a3a 8a6f 973a c72d 27bb
000001b0: 08a4 ba3a e784 47ba ddb7 82ba 1b02 ea38
000001c0: 43b7 47ba 7a79 e03a 1883 2cba 009f f339
000001d0: c0c4 f0ba 7d3f eb3b c782 d1ba 5fa2 b7ba
000001e0: 980d 5fbb b4ce 263a dd29 9639 ea0b 9d3a
000001f0: 75c4 b13a 4b30 353b 59ac cd39 a982 e6ba
00000200: 0ebe d9ba 4fe7 00ba 1f17 11bb 87f8 baba
00000210: 1b37 423a a797 11bb 7ba6 d73a b9cd 98ba
00000220: 7fda 733b 8e53 2c3b 6f9a 093b 7ec5 76ba
00000230: 32d2 03bb b075 253b a1f8 afba a2a7 bb3a
00000240: f9eb 9e39 9882 38bb e147 8d3a 720b c6ba
00000250: 5e2f 99ba 52bb 163a 51af b03a 429c 6539
00000260: 4414 d8b9 5ef7 d539 8e6d c9ba a374 afba
00000270: 88ed 44bb c86e 743b 2b19 213b bc0b aaba
00000280: cc4d 32ba 54ab caba 9acb a53a 27c8 443b
00000290: a597 bbba 1d8d 963a a1f4 6939 7da2 9e3b
000002a0: e1da 7dbb dfa9 12b9 d91f b53b 49d5 ceb8
000002b0: ff1b 203b ff89 5cba 73c1 11bb d44a a7ba
000002c0: bf33 7f3a 4528 0abb 63fa 59bb 5baf 363b
000002d0: afcf e13a 8f7a 3a3b 02fc b1ba 7782 f23b
000002e0: c1aa cdb9 277e 213b c65f 98ba 527c a63a
000002f0: 05fb 633b aa8f 4f3b 88b7 0b3b b149 3d3b
00000300: 4912 e0b9 9bea bd3a a8c9 7eb8 3b30 f23a
00000310: e4ee 423b 345c bb3a f1da ad3a eea8 b2ba
00000320: 9bf9 453b d442 42b9 6e5b 88bb 9003 773b
00000330: b2f7 5e3a 71a7 0c3b 8353 ad3a 6554 aa3b
00000340: 0cff 1dbb c3be e83a 7192 e4b9 e3c0 673b
00000350: 7da8 cc3a 33a6 8a3a 59cf b1ba 5642 c73b
00000360: 2d1c e33a 10da e53a df72 b7b8 9f9d b23b
00000370: 48ee 173b 15b2 c1ba 7359 863a 3026 bf3b
00000380: 0ca7 86ba 8897 33ba 8514 923a d084 b9ba
00000390: 7447 19bb 76ef 86ba 4f79 be3b 6f00 d9ba
000003a0: 7036 00bb 7d22 373b 6d9f 84bb 4e76 133b
000003b0: b287 f6ba e409 a0bb 9f8c a5ba a46c 0c3b
000003c0: e9a0 083b 3339 8fbb 5328 2f3b 3ba7 7f38
000003d0: f335 26ba e345 b9b9 ab0d bb3a df67 e0ba
000003e0: 8742 90bb 033c a1bb dd39 a6ba 134a 85ba
000003f0: 86a6 9b37 e2b3 3d3b e786 2d3a 8a75 84ba

action_model._continuous_distribution.log_sigma f4 [1, 2]
-0.008251963 -0.011944861
00000000: 3e33 07bc 61b4 43bc

action_model._continuous_distribution.mu.weight f4 [2, 256]
-0.025395345 0.0029470748 0.0032753877 -0.0317176 -0.0034226181 -0.027883839 -0.026369503 0.0063256156
0.023311522 0.029213538 0.017099826 0.009511586 -0.0089025 -0.012838108 0.029519089 -0.0046183513
0.00996687 0.0015299718 0.002511021 0.0003222854 -0.029199006 0.016274547 0.018543016 -0.0029682373
0.007876192 0.008476694 0.011004712 -0.020410532 0.006001983 0.0076108538 0.009298484 0.013441777
-0.0051929527 0.0075709564 0.003540937 -0.0027076765 -0.009114028 0.0003685842 0.02537966 -0.01062339
-0.01189589 -0.012047738 0.007428917 0.01282112 -0.005262797 0.007503254 0.011796177 -0.0038325982
0.005302812 -0.0024852548 -0.009208545 -0.010141494 -0.012361626 0.0057630884 -0.0026577543 -0.008535143
0.0026287246 -0.0014503789 0.02448192 0.0009787048 -0.0051862192 0.008784468 -0.018178152 0.014101293
-0.004244527 -0.01067546 0.010533431 -0.007105877 0.01566354 0.02755202 0.0037232575 -0.004301901
-0.010137155 0.026235646 -0.003926371 0.008227017 -0.0008672719 0.0045092236 0.042391784 -0.007279321
-0.0024997955 -0.02789492 -0.0015261997 0.013941184 -0.019778874 0.004776778 0.020953797 -0.0064492943
0.009576507 -0.011819747 -0.01799823 -0.0068275062 -0.006283554 -0.004420619 -0.0061905333 0.02501372
-0.0023309365 -0.0074011097 -0.0074122013 -0.017689671 0.006201421 -0.0005931338 0.0037228647 0.024119541
0.0017556781 -0.010331261 0.017377682 0.017521868 -0.012573465 0.019060552 0.008626749 0.019282946
0.0035242573 -0.012560675 0.021801617 -0.0015167006 0.008985546 -0.01907504 0.016851824 0.012783335
0.019517317 0.011812412 0.000519463 -0.001388178 0.004710003 -0.0064478577 0.0153066255 0.012452901
0.0031948576 -0.0053831576 0.013772267 0.01259872 0.016831703 0.023154074 -0.02321447 -0.0026876528
-0.014971174 -0.018087044 -0.002199928 0.0232527 0.020759962 -0.011511603 0.020594114 0.009837737
0.038227294 0.001480165 -0.0017678145 0.023129422 0.005263225 -9.421846e-05 -0.0042787283 0.0012752992
0.009308205 0.010849069 0.012841809 0.00488762 0.0056643365 -0.0006216991 -0.00962163 0.010571622
0.013763539 0.019535616 0.010969684 0.0015434481 0.006774509 -0.0006713114 -0.007828727 -0.023240618
0.002824934 0.0049583414 -0.02184509 -0.0052307267 -0.004447454 0.01839647 0.00034630904 0.0024413564
0.025336057 0.01535259 0.015680486 -0.00853005 0.0060782623 -0.024034878 0.017098382 -0.01798004
0.006189879 -0.029524205 0.028424772 -0.012465806 -0.019778494 0.002417486 -0.03069031 -0.028410062
0.003123638 -0.009010677 -0.0028560283 -0.006610278 -0.001962705 -0.012491538 -0.026036987 0.014840522
-0.019900631 -0.0018919725 0.0016165365 -0.022614889 -0.0058949734 0.0031059575 3.8799884e-05 -0.022943582
0.0008401669 -0.014555579 0.019267488 -0.020185769 0.0146200005 -0.009875473 0.007000895 -0.024241572
-0.016627984 -0.005610889 0.012030276 -0.009098488 -0.010016511 0.010983728 -0.010021983 -0.016611654
0.022165785 -0.007150142 0.030474247 -0.00033177994 0.01758772 0.013833341 -0.010595955 -0.0032794445
0.014053131 -0.006273641 0.0016785172 -0.014418193 0.016023895 0.002710789 0.026133401 -0.027858775
-0.008176425 -0.0019329594 -0.018691804 0.008437713 0.019701706 0.002528892 0.011230546 0.0108223315
0.0005199662 0.008423489 -0.0053289444 -0.0034011672 -0.022949878 -0.016233169 0.017124914 -0.0017962139
00000000: e609 d0bc b623 413b e3a7 563b 50ea 01bd
00000010: 014e 60bb a66c e4bc db04 d8bc 1c47 cf3b
00000020: cef7 be3c 3b51 ef3c ef14 8c3c 7cd6 1b3c
00000030: cbdb 11bc ee56 52bc 04d2 f13c 8a55 97bb
00000040: 154c 233c 5689 c83a f18f 243b 6af8 a839
00000050: c132 efbc 3352 853c 86e7 973c c286 42bb
00000060: 250b 013c d5e1 0a3c 1c4d 343c fd33 a7bc
00000070: 48ac c43b 7864 f93b ab58 183c e63a 5c3c
00000080: a529 aabb c915 f83b 110f 683b 4673 31bb
00000090: 0153 15bc 893e c139 01e9 cf3c ba0d 2ebc
000000a0: fbe6 42bc e063 45bc 466e f33b ad0f 523c
000000b0: 8b73 acbb dbdd f53b c144 413c 542c 7bbb
000000c0: 36c3 ad3b a8df 22bb 70df 16bc 8228 26bc
000000d0: 6b88 4abc 4ad8 bc3b b82d 2ebb fcd6 0bbc
000000e0: ae46 2c3b a41a beba 4f8e c83c e247 803a
000000f0: 29f1 a9bb bbec 0f3c 59ea 94bc 1c09 673c
00000100: ac15 8bbb 20e8 2ebc 6994 2c3c 6bd8 e8bb
00000110: d350 803c c6b4 e13c e501 743b f6f6 8cbb
00000120: 4f16 26bc 23ec d63c caa8 80bb 9cca 063c
00000130: a259 63ba 1cc2 933b 02a3 2d3d 5f87 eebb
00000140: 9cd3 23bb e383 e4bc c40a c8ba 9069 643c
00000150: 4e07 a2bc 8586 9c3b 4ca7 ab3c 9a54 d3bb
00000160: c8e6 1c3c 9da7 41bc 0671 93bc 46b9 dfbb
00000170: 45e6 cdbb d7da 90bb f5d9 cabb 93e9 cc3c
00000180: a0c2 18bb 0285 f2bb 0de2 f2bb eee9 90bc
00000190: 4a35 cb3b 897c 1bba 4efb 733b 5896 c53c
000001a0: c81e e63a 7344 29bc a45b 8e3c 058a 8f3c
000001b0: ef00 4ebc e024 9c3c 3557 0d3c 45f7 9d3c
000001c0: 3af7 663b 4acb 4dbc 4e99 b23c 07cc c6ba
000001d0: 1d38 133c 4243 9cbc d60c 8a3c 3171 513c
000001e0: c8e2 9f3c d988 413c 922c 083a 86f3 b5ba
000001f0: 5e56 9a3b 8d48 d3bb a4c8 7a3c 4107 4c3c
00000200: d160 513b 3365 b0bb 13a5 613c dd6a 4e3c
00000210: a4e2 893c 9dad bd3c 462c bebc 5523 30bb
00000220: a849 75bc 482b 94bc ab2c 10bb 727c be3c
00000230: cc10 aa3c 2a9b 3cbc fdb4 a83c 762e 213c
00000240: 3994 1c3d 1902 c23a 03b6 e7ba ea79 bd3c
00000250: 2277 ac3b 2797 c5b8 9334 8cbb f127 a73a
00000260: 7181 183c 4bc0 313c 7366 523c 5428 a03b
00000270: e69b b93b 85f9 22ba 0ba4 1dbc 9934 2d3c
00000280: 7780 613c 2809 a03c 31ba 333c 864d ca3a
00000290: b3fc dd3b f2fa 2fba 1044 00bc 1c63 bebc
000002a0: 8722 393b 9579 a23b 79f4 b2bc 8466 abbb
000002b0: f3bb 91bb 32b4 963c d090 b539 2aff 1f3b
000002c0: 908d cf3c 6e89 7b3c 5d74 803c 9fc1 0bbc
000002d0: 292c c73b cbe4 c4bc e811 8c3c e04a 93bc
000002e0: 78d4 ca3b bfdc f1bc 11db e83c 613d 4cbc
000002f0: 8206 a2bc af6e 1e3b 3f6a fbbc 38bc e8bc
00000300: f3b5 4c3b 85a1 13bc 342c 3bbb 089b d8bb
00000310: baa0 00bb 4fa9 4cbc 854b d5bc a925 733c
00000320: a606 a3bc 10fc f7ba f7e1 d33a dc42 b9bc
00000330: 9f2a c1bb 528d 4b3b 0fbd 2238 2ef4 bbbc
00000340: a53e 5c3a 867a 6ebc dad6 9d3c a05c a5bc
00000350: ba88 6f3c bccc 21bc c467 e53b 4396 c6bc
00000360: 6937 88bc 8cdb b7bb a21a 453c d311 15bc
00000370: 4b1c 24bc 18f5 333c 3e33 24bc 2a15 88bc
00000380: 0595 b53c bd4b eabb 21a5 f93c c0f2 adb9
00000390: 1f14 903c 3da5 623c a89a 2dbc f3eb 56bb
000003a0: 1b3f 663c 1d93 cdbb b101 dc3a 493a 6cbc
000003b0: 8b44 833c 7ea7 313b b715 d63c 1638 e4bc
000003c0: 69f6 05bc 5b5b fdba 8e1f 99bc 553e 0a3c
000003d0: 7965 a13c c4bb 253b 5300 383c 2650 313c
000003e0: 574e 083a ac02 0a3c 6d9e aebb 1ee6 5ebb
000003f0: 6201 bcbc 6cfb 84bc 8c49 8c3c f06e ebba

action_model._continuous_distribution.mu.bias f4 [2]
-0.0021936048 0.0007534204
00000000: 95c2 0fbb 3081 453a
