Assets/ML-Agents/results/sc40/SimpleCollector/SimpleCollector-999985.pt (torch, 641671 bytes, 36 tensors)

network_body._body_endoder.seq_layers.0.weight f4 [128, 71]
000000 ac dd 08 be cd 85 ea 3d 74 00 ea bd 62 eb 98 3e
       -0.13365811 0.11451302 -0.11425868 0.29867083
000010 6d fc 60 3d 68 e0 8e bd 39 02 6d 3d 0d b5 ad 3c
       0.054928232 -0.06976396 0.057863448 0.021204496
000020 a7 6f 88 3d a5 ad 60 3d b5 a2 83 3e 38 36 1b be
       0.06661921 0.0548531 0.25710073 -0.15157402
000030 1d 69 2d 3d f9 b0 42 3e a7 ba 7a 3d 76 ea c5 3e
       0.042336572 0.19012822 0.06121316 0.38655442
000040 97 ac 37 be cc d0 0a 3e 0f 59 e8 3d 29 e1 e3 3d
       -0.17936932 0.13556212 0.113451116 0.1112693
000050 1d 7a 05 3d 34 03 74 be c1 04 ac 3d b8 0a 03 3e
       0.03258716 -0.23829347 0.08399344 0.12797058
000060 17 f0 1a 3c e4 7a 44 3e b4 42 c3 bd 6e 98 5a bd
       0.009456656 0.19187504 -0.09534207 -0.053368025
000070 60 40 31 3e c9 2c 6c 3d 09 ba e6 bd ec e9 47 bd
       0.17309713 0.057659898 -0.11265952 -0.04880707
000080 af 5c 48 3e be b4 80 3e 70 2f 37 3e b1 d6 07 be
       0.19566606 0.25137895 0.1788919 -0.13265492
000090 a0 8b 5a 3e ad c4 90 3d 36 b5 d8 be ff 79 9e be
       0.21342325 0.07068763 -0.42325753 -0.3095245
0000a0 2b d5 0b bf f1 75 5b 3d 6a f4 08 be 74 14 f4 bd
       -0.54622144 0.053579275 -0.13374487 -0.119179636
0000b0 6f d4 c2 be de c0 19 bf d2 ce 81 be 81 b7 1c be
       -0.380527 -0.60059917 -0.25353104 -0.15304376
0000c0 01 0c 74 be 9e 15 a0 be 88 90 50 be 73 c7 8b 3c
       -0.23832704 -0.31266493 -0.20367634 0.017062878
0000d0 2e cd b5 bc b3 75 78 be 0b 0c 90 be 47 f9 0f bd
       -0.022192564 -0.24263649 -0.28134188 -0.03514984
0000e0 f0 24 de 3e 1e c3 1c 3e 71 b0 b4 be be a8 48 be
       0.43387556 0.15308806 -0.35290864 -0.1959562
0000f0 b2 20 2b be b3 be 84 3d 18 0b fe ba cd 68 31 be
       -0.16711691 0.064816855 -0.0019381968 -0.17325135
000100 c9 9d 5b be f0 fa 9a 3c ca d5 18 bd 38 66 5b bd
       -0.21446909 0.018918484 -0.03731326 -0.05356428
000110 14 6b 58 3e bc 6f 33 3e 38 5f 39 3d 41 6f 8a 3e
       0.21134597 0.17523092 0.045256823 0.27038005
000120 b7 28 92 3d 55 ee 3f bd ac f0 95 be a3 82 28 be
       0.07136672 -0.04685815 -0.2928518 -0.16456084
000130 c3 cc eb 3d ba 2f 9b 3d a8 c9 1a 3e 51 b1 21 be
       0.115136646 0.075774625 0.15115988 -0.15790297
000140 0c c1 2f be aa a2 9b bd eb fb a8 be fd cd ab 3d
       -0.17163485 -0.07599385 -0.33004698 0.083888985
000150 4f e7 89 3d 80 fc a0 bd 99 e8 01 3e 67 d3 46 3e
       0.06733572 -0.078606606 0.12686385 0.19416581
000160 2c 6e e5 be ec cd 43 be a6 28 db 3d 3c 0c e5 3d
       -0.44810617 -0.19121522 0.107011124 0.11183974
000170 96 08 04 be cd 30 c5 bd 93 bc dc 3d 8a 72 84 bd
       -0.128939 -0.09628449 0.10778155 -0.06467159
000180 4a 41 e4 3d be ea 16 bd 22 60 1b bd bb 0a 47 be
       0.111452654 -0.03684496 -0.037933476 -0.19437687
000190 8b c3 3c be a6 0a 2f be 95 9d 64 be 1a ab 1a 3d
       -0.18433969 -0.17093906 -0.22325738 0.03776083
0001a0 c1 7d 95 bd df a6 83 bd 2b d6 c4 3e 73 fb 0e be
       -0.07299376 -0.064283125 0.38444647 -0.13963108
0001b0 6d 5e aa bd ca ee 99 3e d6 3b 3f 3d 40 07 c5 bc
       -0.083187915 0.30064994 0.046687923 -0.024051309
0001c0 03 45 1c be 0d 45 14 3e cd cf f1 ba ef 4f e3 3d
       -0.15260701 0.14479466 -0.001844877 0.110992305
0001d0 00 07 56 3c d8 4f dc bd 7a 7f cf 3c 01 86 30 bd
       0.013063192 -0.107574165 0.02532934 -0.043096546
0001e0 14 02 96 bd 1e 01 29 be 2c bf 59 bc a4 d2 e8 bd
       -0.07324615 -0.16504332 -0.013290208 -0.113683015
0001f0 82 93 5b bc ef 2b 65 3e 80 c4 8b 3c 81 f0 0a be
       -0.013401868 0.2238004 0.017061472 -0.13568307
000200 5e 5c 94 be 99 e5 a8 3d bc 9d 9f 3d 69 b1 21 3e
       -0.2897672 0.08246917 0.07793757 0.15790333
000210 8d 3f 51 be 6a 35 c0 bb 83 77 23 3d ee 3c 23 bd
       -0.20434399 -0.0058657425 0.039908897 -0.03985303
000220 0f c8 61 be cf 89 04 3d 86 d5 2b 3e b6 b8 d5 bd
       -0.22048973 0.032357987 0.16780671 -0.104356214
000230 5c bc a8 be 4c 58 92 3c 75 82 03 bf 4d 27 c1 be
       -0.32956207 0.017864369 -0.51370937 -0.37725297
000240 ca 41 08 3e 4c 6b b2 3d 0c d9 2f 3d 62 b4 1b be
       0.13306347 0.087118715 0.0429316 -0.1520553
000250 24 f9 41 be 1e ce d1 bb 48 24 32 be 72 8a a1 bd
       -0.18942696 -0.006402745 -0.17396653 -0.078877345
000260 37 51 1a bd d1 b2 c9 be 8c a6 06 bd 9a e9 54 3e
       -0.03767511 -0.3939424 -0.032873675 0.20792237
000270 d9 b4 3a bc 34 0a 22 bd 21 9f 8b bd bf 9a 36 3d
       -0.0113956565 -0.03956051 -0.06817461 0.04458117
000280 f4 32 72 bc c9 db b8 bd ce 8f 41 be 20 88 2e be
       -0.014782656 -0.09026296 -0.18902513 -0.17044115
000290 b3 a3 e8 bd 81 69 9f be 78 89 b9 bd 73 06 06 bf
       -0.11359348 -0.3113518 -0.09059423 -0.5235359
0002a0 6a 04 23 be 80 0a 2b 3e 9b 45 00 be d6 15 be 3d
       -0.15919653 0.16703224 -0.12526552 0.092815086
0002b0 52 eb bb 3e 6f cf 4c bc 88 11 6f 3a d6 e2 4f be
       0.36702973 -0.012500628 0.0009119739 -0.20301375
0002c0 17 d4 ef bd 7a b9 dd 3d f9 6a cd bc 3b 88 b6 bd
       -0.11710375 0.108263925 -0.025075423 -0.08912703
0002d0 40 64 4d bd 47 a6 5d be 34 8f 86 3d 76 70 87 bd
       -0.050144434 -0.21645461 0.065702826 -0.06613247
0002e0 2d 2d 1f 3d 6c 7b 8d bb f5 25 1a be 3d 7a 91 be
       0.038861442 -0.0043176915 -0.15053542 -0.28413573
0002f0 d9 eb a1 bd d2 59 28 3e 7b 9e 79 be f3 1d a4 be
       -0.079063125 0.16440514 -0.24376862 -0.320541
000300 72 a5 a6 3e e8 95 de bc 5c 26 dd bc 27 06 4a be
       0.325481 -0.02717109 -0.02699583 -0.1972891
000310 ba 6e 81 3d 82 c5 5b be 9c bd c1 bd 83 90 bb bd
       0.063199475 -0.21462062 -0.09459993 -0.09158423
000320 f2 8a 98 be 40 a8 bc be f1 4d 91 be 23 43 5d be
       -0.29793507 -0.36847115 -0.28379777 -0.21607642
000330 3e 45 da bd 25 31 34 be bc b6 19 be a1 58 87 be
       -0.10657738 -0.17596872 -0.15011114 -0.26434806
000340 58 dc 42 be c9 ef 3e be 8a 0b 53 3e 2c e1 a8 bc
       -0.19029367 -0.18646158 0.2060987 -0.020615183
000350 86 94 01 be b6 d5 93 be 2b b5 3f 3e b7 a6 96 be
       -0.12654313 -0.28873986 0.18721454 -0.29424068
000360 b8 6f 20 bd 05 12 76 bd f7 fb 01 bf 76 04 0a 3e
       -0.039169043 -0.06007578 -0.5077509 0.13478264
000370 d3 1c 82 3d ba 10 8c 3e cc 9b 2c 3d 3b 12 b2 be
       0.06353154 0.2735651 0.042140767 -0.34779534
000380 50 5e a9 3e 50 52 ea 3d fc 9e bf bd 63 9b b9 bb
       0.33079767 0.11441481 -0.09356496 -0.0056642755
000390 65 86 82 be 95 30 44 3a c2 65 db 3d 28 5c 1b bd
       -0.2549316 0.0007484046 0.10712768 -0.037929684
0003a0 63 cf f7 3d 29 10 75 be aa ea 9b 3e 79 b4 10 be
       0.12100103 -0.23931946 0.30452472 -0.14131345
0003b0 85 f5 93 bc 9e 95 8b bd 3c 37 f6 bd 81 b5 ff 3c
       -0.018061409 -0.068156466 -0.12022254 0.031214477
0003c0 24 12 01 3e 5e 8a 83 3e 19 a6 ae 3d 81 db 07 be
       0.12604576 0.25691503 0.08527774 -0.13267328
0003d0 c0 cd 63 3e 9d f7 b1 bd c6 0f 1a 3e fc a6 c6 bd
       0.22246456 -0.086898066 0.1504508 -0.096998185
0003e0 18 2c 27 3e 47 c4 25 be 2e 41 f9 3b f0 79 ed 3c
       0.16325414 -0.16188155 0.007606647 0.028988808
0003f0 ea 9a 9f 3e 69 a7 91 be df 92 71 3d 33 5c ce 3c
       0.31172878 -0.28448036 0.058977958 0.025190448

network_body._body_endoder.seq_layers.0.bias f4 [128]
000000 67 f3 1f ba 4c 22 19 bd ad 7e 09 be 85 e9 9a 3c
       -0.00061016384 -0.037386224 -0.13427229 0.018910179
000010 da 47 b1 3d da 97 40 bd 63 89 53 bd a8 4c 78 3d
       0.08656283 -0.047019817 -0.051644694 0.06061998
000020 7f 51 58 3c 4e 75 70 bd d9 c7 e2 bd 2b eb 18 be
       0.013203024 -0.05870562 -0.11073274 -0.1493346
000030 95 19 b4 3c 87 a9 a2 bc 30 9a a2 bd 44 23 ec ba
       0.021984855 -0.019856228 -0.07939565 -0.0018015881
000040 13 11 e2 bd 66 9a 85 bd f2 1a a2 3d a1 ac f9 3d
       -0.11038413 -0.0652359 0.07915296 0.121911295
000050 68 4e 94 bc 5a 0c dc bc fb d4 af 3c 4f d5 91 3d
       -0.018103793 -0.026861358 0.021463862 0.071207635
000060 d5 5b 50 bd 4c 32 07 bd b9 bc 9e 3d 15 a0 fd bc
       -0.050868828 -0.03300695 0.0775084 -0.030960122
000070 61 b9 a2 be 38 74 6f bd 31 7e 64 bd 41 5a 3d be
       -0.31782058 -0.058460444 -0.055784408 -0.1849146
000080 74 75 8b 3b 10 8e 67 bd 5f 8e d1 3c b7 19 3a bc
       0.004255945 -0.056531966 0.025580583 -0.01135867
000090 e8 7a 73 3d 3c 33 ef 3b 72 b4 37 be ff 7d c0 bd
       0.059443384 0.007299809 -0.17939928 -0.09399032
0000a0 f0 12 ee bd b0 fb 29 3d 6a 35 14 bd a9 32 50 3d
       -0.11624706 0.041499794 -0.036183752 0.050829563
0000b0 c8 32 0a bd 4b 54 1c bc 5b 43 45 bc fe c3 0c 3d
       -0.033739835 -0.009541581 -0.012039985 0.0343666
0000c0 3f a3 60 3d 65 aa 3d bc f9 e3 43 3d 4b d8 dc 3d
       0.054843184 -0.01157627 0.047824834 0.10783442
0000d0 92 a6 2e bc 98 e6 23 be 8e fa 8f 3d 9f 75 a0 bd
       -0.010659831 -0.16005933 0.070302114 -0.078349344
0000e0 32 14 ab bd 52 2d ec 3c 68 92 d4 bc 29 c6 13 be
       -0.08353461 0.028830204 -0.025948718 -0.14431061
0000f0 50 a6 3c 3c ca ca e4 bc 61 41 a2 3c 5f e2 13 be
       0.011514261 -0.027928729 0.019806566 -0.14441822
000100 8f 22 9a bd d0 74 2f bd 79 74 97 bc 12 49 88 bc
       -0.07526123 -0.04283601 -0.018488156 -0.016636405
000110 6d 80 f7 bd d2 f1 59 38 52 32 ad bc f8 df 6f 3c
       -0.12085042 5.1962044e-05 -0.021142159 0.014640801
000120 9b c7 10 be 2d da 1e be cf 29 56 bd ac 01 99 bc
       -0.14138643 -0.15512915 -0.052285966 -0.018677555
000130 5c 13 8f 3d 57 b0 e2 bc 8c 88 bc 3c e2 35 c0 bc
       0.069861144 -0.027671976 0.02301433 -0.023463193
000140 bb c1 d1 3c 8f fa 80 bc 40 ba 28 bd ba 2e 02 3d
       0.025605073 -0.015744476 -0.041193247 0.031782843
000150 14 30 d6 3d e3 78 26 bd be ba ed 3c ab 81 a6 bd
       0.10458389 -0.04064263 0.02901971 -0.08130201
000160 0e 33 71 bc 61 14 c3 3c ed 72 4d be 9b 9d 98 3d
       -0.014721645 0.023813428 -0.20063372 0.07451936
000170 ee 29 89 3d 82 a9 5b be 55 8a 15 be ec aa 5a be
       0.066974506 -0.21451381 -0.1460355 -0.21354264
000180 4d 77 90 bd 7f 77 90 bd 4c d5 ec bc 5d 36 b0 bc
       -0.07054005 -0.07054042 -0.028910302 -0.021510297
000190 a2 04 d0 bc e3 44 a1 bb 86 13 79 3d 2e 28 7e bd
       -0.025392834 -0.004921542 0.060809635 -0.062050037
0001a0 aa 35 3d 3d 1a 12 25 3d 26 55 65 3d 72 90 83 3b
       0.046193756 0.040300466 0.055989407 0.004015022
0001b0 61 f6 39 bb a3 58 76 bd d5 1a 9a be de af 83 bb
       -0.0028375613 -0.060143124 -0.30098596 -0.0040187677
0001c0 ed 09 db b9 6e 76 a1 bd f5 25 83 bc 42 c7 16 3d
       -0.0004177833 -0.07883917 -0.01600931 0.03681112
0001d0 ed a7 04 3d 02 b5 ee 3c 8d 87 88 bd 2e 6f 43 3c
       0.03238671 0.029139046 -0.06666479 0.011928363
0001e0 5a ff 29 3d 90 a7 17 3d 68 c1 4c bd 9d e9 17 3a
       0.041503288 0.037025034 -0.049989134 0.0005795004
0001f0 e6 65 7d bc c2 c4 ee bc a9 97 85 3b 29 b0 6d bc
       -0.015466189 -0.029146556 0.004076917 -0.014507332

network_body._body_endoder.seq_layers.2.weight f4 [128, 128]
000000 36 29 be be da 73 f4 3d b1 88 c0 be 85 c2 5b be
       -0.37140816 0.119361594 -0.37604287 -0.21460922
000010 7f 3d 56 be 14 e0 bb 3d a9 7c d9 bc 31 13 2a bd
       -0.20921896 0.09173599 -0.0265487 -0.04152221
000020 9c 18 66 bd 51 be ee 3d a7 bd fd bb da a2 7e 3e
       -0.056175813 0.11657394 -0.0077435556 0.2486681
000030 02 af 82 3e 9d b1 1a 3e 2b 76 73 3e a4 84 02 be
       0.25524145 0.15106817 0.23775546 -0.12745911
000040 fa fa 1a bd 79 ac fc bd 17 19 bd be 11 15 2d 3e
       -0.037837006 -0.12337584 -0.36933205 0.16902567
000050 40 6c b2 3c 7e 67 56 3e a9 df 80 be 7a 1f f6 be
       0.021780133 0.20937917 -0.2517064 -0.4807089
000060 24 c8 1a be 0a 6f bf bd 64 6e e4 bd 4b 92 1b 3d
       -0.1511541 -0.09347351 -0.11153868 0.037981313
000070 e7 3d f0 bd 2e f5 87 3d 75 9c 5c 3e 30 2d 0b 3d
       -0.11730557 0.06638561 0.21544059 0.03397864
000080 ed 8f 57 bd 21 ad c3 be ed d7 80 be 8e 6b 47 be
       -0.052627493 -0.38218024 -0.25164738 -0.19474623
000090 24 9c 59 3e c3 26 c4 bc a7 07 8c 3e 95 80 6c 3e
       0.21250969 -0.023944264 0.27349588 0.23095925
0000a0 21 38 84 bd 3e c3 6b be de 45 fd bd 2e 4a 7b 3d
       -0.06456018 -0.23023698 -0.12366842 0.06135004
0000b0 40 e2 2e be c2 1e 9c be b1 aa 66 be a5 a9 b9 3a
       -0.17078495 -0.30492216 -0.22526051 0.0014164938
0000c0 f5 c9 de bd 42 02 d2 be 63 71 bb 3c 24 52 b6 bd
       -0.10878364 -0.41017348 0.022881215 -0.08902386
0000d0 d5 7f ba bd 6a 50 cc 3d cc 3c d9 3d 9f 4d 4b bd
       -0.09106413 0.09976275 0.10607299 -0.049634572
0000e0 52 28 bc 3e e6 9c 62 3e 75 08 b4 3e 17 38 5d 3d
       0.36749512 0.22130165 0.35162702 0.05400857
0000f0 b5 5c 8b be ed 3e b0 3c 88 ce d4 be 99 ec 66 3e
       -0.27219167 0.02151438 -0.4156382 0.22551192
000100 14 06 62 3d b7 a4 4d 3e 49 af 65 be 2f c4 e4 3e
       0.055181578 0.20082365 -0.22430147 0.44680926
000110 4b fa 1d 3c 5a 30 97 3d e3 50 be 3d 48 45 06 3e
       0.009642194 0.07382269 0.09292772 0.13112366
000120 c0 e5 71 be 29 d9 79 3e 05 cc 2a 3e f5 7b 3e 3e
       -0.23622799 0.24399246 0.1667939 0.18601973
000130 87 f6 10 be cc a9 9a 3c 2c 2f 1c 3d 60 33 26 3d
       -0.14156543 0.018879794 0.038130924 0.04057634
000140 5f 7b 86 bd 52 2c 94 bd de 51 17 3e d1 43 09 be
       -0.065665 -0.07235016 0.14777324 -0.13404776
000150 67 a6 e7 bd 24 c4 2c 3e b6 59 99 be c2 f0 cb bd
       -0.113110356 0.16871697 -0.29951257 -0.0995803
000160 e8 63 5c 3e ab 4f da 3e b6 d6 26 be a0 52 32 3d
       0.21522486 0.42638907 -0.16292843 0.04353583
000170 dd f3 aa 3e e7 9e a4 3d 70 59 d3 bd 32 de 09 3c
       0.33389178 0.08038121 -0.10319793 0.008414792
000180 80 3d 96 3e 3a 43 06 3e 7c f1 6f be f9 87 5f 3d
       0.29343796 0.13111582 -0.23431963 0.054573033
000190 1c b7 82 be 0d 57 39 be 32 42 51 bd 01 4b 59 be
       -0.25530326 -0.18099613 -0.05108852 -0.21220018
0001a0 a0 d8 4e be 1b e7 31 be 1e 12 8a 3c d7 ba 6e 3e
       -0.20199823 -0.17373316 0.016854342 0.23313461
0001b0 6f 74 22 be 23 76 6c 3d d8 1e 46 bd d4 e4 0e 3d
       -0.15864728 0.05772985 -0.04836926 0.034886196
0001c0 30 1a 07 bf 8c 63 6d 3e 6b 4a 99 be d1 df 95 3d
       -0.52774334 0.23182505 -0.2993959 0.0731808
0001d0 74 8f a3 be 34 b3 93 be b1 1c 82 3c 38 ce 4d be
       -0.31945384 -0.2884766 0.015882822 -0.20098197
0001e0 85 24 fd be 2e 66 f7 3d 4a eb e7 3d 96 80 f3 3c
       -0.49441925 0.12080036 0.11324175 0.0297244
0001f0 cb c0 95 be bc 20 6d be 7a f0 40 3e 49 ca 72 be
       -0.29248652 -0.23157018 0.18841735 -0.23709978
000200 f9 f3 11 3e 49 c8 88 3c 0e d4 ba bc 93 ca 54 be
       0.14253224 0.016697066 -0.022806194 -0.20780401
000210 c2 cc 8f be 8c 6d 3e 3d 40 3a 1e 3d 21 fc ce bd
       -0.28085905 0.04649119 0.03862977 -0.101066835
000220 01 50 60 be c9 84 3b 3e 5f 33 a6 bb 22 b4 72 3e
       -0.21905519 0.18312372 -0.005072042 0.23701528
000230 b5 8c 84 3d 8a 0f 85 3c 89 3c e2 bd b7 dd 04 3e
       0.0647215 0.016242761 -0.110467024 0.12975203
000240 15 f4 3f 3d e1 3d ad 3d 6a fd fd be 87 92 86 3d
       0.046863634 0.08459068 -0.49607402 0.065709166
000250 3e 1d 02 3e 9b fb ea 3c dc 2a 85 be 0c c5 bc be
       0.12706468 0.028684428 -0.26009262 -0.36869085
000260 1b e7 96 be 23 0d 61 3d bd 5a 6e be 73 4a 11 be
       -0.29473194 0.05494417 -0.23276801 -0.14188556
000270 77 e5 d7 3d 4f 4d 6b bd d8 35 8d bd ef 96 95 3e
       0.10541814 -0.057446774 -0.068950355 0.29216716
000280 5a 76 80 be 58 d3 52 3d 61 97 68 be 0b ed b9 bd
       -0.25090295 0.051471084 -0.22713996 -0.090784155
000290 8a 39 b3 bd 3e f2 d5 3d 94 b8 4c 3e c3 d5 c5 ba
       -0.08751209 0.10446595 0.19992286 -0.0015093613
0002a0 9d 25 2c 3c 56 40 04 be 00 0c 5a bd 27 f4 90 bd
       0.010507015 -0.12915167 -0.0532341 -0.07077818
0002b0 b4 c6 cc be ca cd 9e bc 92 16 25 3e ba b5 8b be
       -0.39995348 -0.019385237 0.16121891 -0.27287084
0002c0 93 4a d2 bd 23 9e 6b be 36 de 06 be 9a 73 51 be
       -0.1026813 -0.23009543 -0.13170704 -0.20454255
0002d0 c7 c8 bc 3d 07 f6 60 3e 91 c1 e0 bc cc 33 26 be
       0.09217983 0.21968852 -0.02743605 -0.16230696
0002e0 ff 88 d6 3b 70 5b e9 bd 2d 73 e0 bd 2d 35 86 3e
       0.006547093 -0.113943934 -0.10959468 0.26212445
0002f0 fa 06 09 be cc e1 f2 bd 0d 70 9a be 83 3e c7 3d
       -0.13381568 -0.118594736 -0.30163613 0.0972872
000300 ea b6 2d bd d0 34 e6 bd 3b 50 0d be b9 14 06 3e
       -0.04241077 -0.11240542 -0.13800137 0.13093843
000310 d6 5e 16 3e ef 45 b3 3c 3a 74 e5 3d a8 07 15 be
       0.14684615 0.021883933 0.11203809 -0.14553702
000320 ca 09 ab bd 5c b1 44 bd ca d1 73 bd fe ca 0d be
       -0.083514765 -0.048020706 -0.059526242 -0.13846967
000330 ab 43 ed be be a7 30 bd d8 52 6e be dc 0b c5 be
       -0.4634069 -0.04312872 -0.2327379 -0.3848561
000340 59 40 8e be 8b 10 45 bd 93 d1 6f be 68 6f aa bd
       -0.27783468 -0.04811148 -0.2341979 -0.0832203
000350 b0 be d3 bd 97 0a 40 3e 42 29 34 be d3 e0 f4 bd
       -0.10339105 0.1875404 -0.17593864 -0.11956944
000360 d1 ab ec bd 60 2a 12 be df 26 a2 3d 6e 25 e2 bd
       -0.11556209 -0.14273977 0.0791757 -0.110422954
000370 4b 24 0a be 89 29 d1 3d 0b 80 23 3e 53 d1 c3 bd
       -0.13490407 0.10213 0.15966813 -0.0956141
000380 cc cd 17 3c 00 d4 1d bd fe f4 eb 3d 35 1d 96 bd
       0.009265374 -0.038532257 0.11521338 -0.073297895
000390 38 2c f0 3d 49 b5 9f bd 36 d2 2a bd 57 a2 a8 3d
       0.11727184 -0.07798249 -0.04170438 0.08234089
0003a0 ff 84 90 be 65 39 14 be de a1 00 3c c0 c1 38 be
       -0.28226468 -0.1447502 0.007851092 -0.1804266
0003b0 ac b6 be 3d 0d 56 55 be 17 cc 2c 3d f9 c1 a4 be
       0.09312186 -0.20833607 0.042186823 -0.3217924
0003c0 45 52 a7 3d 5f 88 b3 3d 56 53 ef bc 96 71 40 be
       0.081699885 0.08766245 -0.029214542 -0.1879333
0003d0 2d 1b 18 be 8a c2 55 be 16 90 3a bc 3c 66 89 be
       -0.14854117 -0.20874992 -0.011386892 -0.2683581
0003e0 76 cf 04 be 1d e1 63 be 7e c6 88 3e 60 c0 13 be
       -0.12969765 -0.22253843 0.26713938 -0.14428854
0003f0 3b 20 49 be 92 29 80 be a3 b3 fc bd a6 8a 0a be
       -0.19641201 -0.25031716 -0.123389505 -0.13529453

network_body._body_endoder.seq_layers.2.bias f4 [128]
000000 22 8f 16 be e1 7b 7c be b4 04 12 be d2 ed 98 bd
       -0.14703038 -0.24656631 -0.14259607 -0.074672356
000010 58 d0 d5 3b 2c 83 e4 bd 75 c4 1c bd 8d 47 ae bd
       0.0065250807 -0.111578315 -0.038273294 -0.08509741
000020 90 95 8b bc 3b 34 fd 3c b6 d5 b6 bd a2 43 48 bd
       -0.01703909 0.030908694 -0.08927481 -0.048892625
000030 5e a5 7c 3d e9 88 81 bc 5b 8d 9f 3b 47 5f 19 bc
       0.061681144 -0.015812354 0.004869146 -0.009361095
000040 43 e8 00 be e3 21 b4 bd 77 86 10 bc 36 be 28 3d
       -0.12588601 -0.08795526 -0.008821121 0.041197024
000050 05 da 19 be 95 2a c3 bc 5d 72 14 3c db c8 19 3c
       -0.15024574 -0.023824016 0.009060469 0.009386267
000060 a6 83 69 be 1c 37 df bd 74 28 e6 bd 21 ae 40 be
       -0.22804126 -0.10899183 -0.112381846 -0.18816425
000070 0a 81 3f bd 9f 2e f1 bb 0c e8 28 bd 67 29 1b bd
       -0.04675392 -0.007360294 -0.041236922 -0.03788128
000080 3b a5 31 be aa ff 9c bd 0f da 37 be 9b 07 51 be
       -0.17348187 -0.076659516 -0.17954277 -0.20413058
000090 47 61 2c be d7 03 f9 bb 39 e9 83 be da 65 20 be
       -0.16833983 -0.0075993347 -0.25763872 -0.15663853
0000a0 e1 9b 19 3d cf c4 1e bd b0 3d 35 be a4 ac 84 be
       0.037502173 -0.03876191 -0.17699313 -0.25912964
0000b0 d2 cd f1 ba 74 16 8e be 3b 1b 85 3c b8 20 5e bd
       -0.001844818 -0.27751505 0.016248336 -0.05423042
0000c0 89 0f 63 bd 40 30 62 3c 73 a2 c6 3c 98 26 c4 bc
       -0.055434737 0.013805449 0.024247384 -0.023944184
0000d0 10 70 48 bd d1 13 25 bd dc d9 8b be cf 7e 23 bd
       -0.048934996 -0.0403021 -0.2731465 -0.039915856
0000e0 58 66 d7 bd 61 26 85 bc 27 3d 68 bc 2c 88 8b 3c
       -0.105175674 -0.016253652 -0.014174736 0.017032705
0000f0 44 b4 0d 3c 90 3d 2c be 46 b8 ff 3c b7 0b c4 bd
       0.008648936 -0.16820359 0.031215798 -0.09572547
000100 75 58 28 3c e8 2c 07 be fe 4d 97 bc 70 aa 1b bc
       0.010274996 -0.13200724 -0.018469807 -0.009501085
000110 56 84 98 be e7 8e 6a be 15 49 a8 be e9 8c 80 3d
       -0.29788464 -0.22906075 -0.32868257 0.062768765
000120 2d 45 3c be db 09 a0 bd 78 84 16 be dc 51 2b bd
       -0.18385763 -0.0781438 -0.1469897 -0.041826114
000130 41 41 76 bc 6a be e7 bd 63 22 02 3d f4 2d 2f be
       -0.015030206 -0.113156155 0.031771075 -0.17107373
000140 18 66 34 be dc c3 cd bc 2c 4d 85 bd ec 84 0b be
       -0.1761707 -0.025117807 -0.0650886 -0.13624924
000150 70 52 4f bd d2 81 b5 be 3b 12 70 bd 5b f8 c6 3b
       -0.050615728 -0.35450608 -0.058611136 0.0060720867
000160 20 67 29 be c9 c8 1b be d1 7d 90 bd ed cb 02 3d
       -0.16543245 -0.15213312 -0.070552476 0.03193276
000170 55 02 64 bd 48 9a bd be 97 1d 47 bd 83 a3 be be
       -0.055666286 -0.3703177 -0.048612203 -0.37234125
000180 17 05 14 3d 61 40 71 be cc f7 1f bd 3a 34 34 be
       0.036137667 -0.23559715 -0.039054677 -0.17598048
000190 81 80 52 be bc 0e e5 bd 66 9f 94 3d 84 51 dd bd
       -0.20556833 -0.11184451 0.07256965 -0.108065635
0001a0 f1 84 5e bd cf cc be bc 11 86 4a bd 80 8c e4 bd
       -0.054326 -0.02329102 -0.049444262 -0.11159611
0001b0 b4 68 6c 3a c1 a6 9f bd 39 f4 1b be 9e 76 d0 bd
       0.00090182875 -0.07795478 -0.15229882 -0.101788744
0001c0 04 20 6d bd 84 63 8c bd 31 98 f0 bd ef f4 70 bd
       -0.05789186 -0.068549186 -0.11747778 -0.058827337
0001d0 44 e9 f9 bd c0 86 23 3d 17 89 d0 bc 71 cb 4e bd
       -0.12202695 0.03992343 -0.025455995 -0.050486986
0001e0 b3 17 e5 bc d0 8a 80 bb 7d 5d fb 3c 39 5e e8 bc
       -0.027965402 -0.0039227977 0.030684227 -0.028365241
0001f0 d4 2d b5 bd 8e 8b 13 3d 57 fb 89 3d 2a d6 87 3a
       -0.08846632 0.03602176 0.067373924 0.0010363508

action_model._continuous_distribution.log_sigma f4 [1, 2]
000000 12 e5 e3 be 6a c2 0b bf
       -0.44510704 -0.5459353

action_model._continuous_distribution.mu.weight f4 [2, 128]
000000 25 21 7f 3e ca 93 a0 bc b8 88 84 3d e0 cc 36 3d
       0.24914987 -0.019601721 0.064713895 0.044628978
000010 f7 cc d4 bd 8a 5d 0c 3e 9d 20 a8 3d 40 20 7c 3c
       -0.103906564 0.13707557 0.082093455 0.015388548
000020 0c cc 81 be 8b 17 0e bd a6 7b 2e 3d 4b 71 57 be
       -0.25350988 -0.03469042 0.04259839 -0.21039312
000030 c8 bd 73 bd 4b e6 51 be c2 82 1e be 40 ff 91 bc
       -0.05950716 -0.20498006 -0.15479568 -0.017821908
000040 49 c0 5b bd 5f ac 2b 3d 64 c9 67 be 9e be 29 3e
       -0.053650174 0.041912433 -0.22635418 0.16576621
000050 1c 3b 19 3e 86 34 5e 3d 17 10 f8 bd 99 1f de bd
       0.14963955 0.05424931 -0.12112444 -0.108458705
000060 bd 5b 42 bd b2 77 9b 3b a0 8c 7a 3d 4d fc e0 bd
       -0.04745077 0.0047444934 0.061169267 -0.109856226
000070 99 97 44 bd 30 c5 61 be e8 42 3d be 7f 62 7b be
       -0.047996137 -0.22047877 -0.18482554 -0.24549292
000080 3c 82 5b bc 2b ab 09 3d 78 4b d6 bd fb 91 34 3d
       -0.0133977495 0.033610504 -0.10463613 0.04408453
000090 93 c1 8e bc 8c f4 76 3d bd ee 00 be c0 c8 eb 3c
       -0.017426288 0.06029181 -0.12591071 0.028782248
0000a0 b9 fe 9a 3d e0 1d f6 3d 0c 85 19 3d 8a d8 55 bd
       0.07568116 0.12017417 0.0374804 -0.05220846
0000b0 69 57 75 bc 77 60 39 bd c6 bd 1d 3e 0a c1 01 be
       -0.0149744535 -0.04525801 0.15404424 -0.12671295
0000c0 72 8b 07 3d 45 32 b2 bd 3e f7 4a 3d 59 20 b9 bd
       0.03309197 -0.087009944 0.049552195 -0.09039373
0000d0 1c d3 ac bd c3 60 24 be 1e 13 fa 3c 95 ef 86 bd
       -0.084387034 -0.16052537 0.030526694 -0.065886654
0000e0 f0 eb 8c bd 72 64 42 3e 0f ac 45 be c1 35 27 bd
       -0.06880939 0.1898363 -0.19303916 -0.040822748
0000f0 65 10 29 3e c5 33 dc 3c db 80 f2 3c cc 25 cb 3d
       0.1651016 0.026880154 0.029602459 0.099193186
000100 20 bc 71 bc 26 78 57 bd 99 96 08 be 39 4a 28 3e
       -0.014754325 -0.052604817 -0.13338698 0.16434564
000110 06 9c ba bc 39 40 3c bd 4f 0b 72 bd 7a c0 01 3e
       -0.022779476 -0.045959685 -0.059092816 0.1267108
000120 af 05 3c 3d f1 87 cb bd 26 06 05 be f4 f4 0d be
       0.045903858 -0.09938038 -0.12990627 -0.13862973
000130 66 a0 32 be af 85 1f 3d 94 7a 54 be 82 00 9a 3b
       -0.17444 0.03894585 -0.20749885 0.0046997676
000140 c0 75 14 bd 29 e1 19 3e 50 b1 05 3e 73 a2 d4 3c
       -0.036245108 0.15027298 0.1305592 0.025956368
000150 d2 86 5c bc 54 c5 52 3b 27 8e 25 3e 0d 4e c8 bc
       -0.013459878 0.0032161074 0.16167508 -0.02445128
000160 41 f4 ff bc 86 15 1a 3e 0b e2 82 3d 9d 15 1e bd
       -0.031244399 0.15047273 0.063907705 -0.03859483
000170 38 e3 08 be 1f cd 2b 3c 0e e4 15 3c c0 fc 50 bb
       -0.13367927 0.010485916 0.009148611 -0.0031888932
000180 b1 14 a4 bc bc df 1a 3d c0 99 a0 3d a4 e6 2d bd
       -0.020029398 0.037811026 0.078418255 -0.042456284
000190 eb 35 a1 bc 6d 4c 84 3b 2b 90 df bd 55 b4 f0 bc
       -0.01967903 0.004037431 -0.1091617 -0.029382864
0001a0 70 e0 e0 3b 2e 10 2a be 2d fc 02 be 89 34 14 be
       0.0068626925 -0.16607735 -0.1279151 -0.14473166
0001b0 23 72 0c be 68 cf 3e 3d 6a d0 3c 3d fe 40 5f 3d
       -0.13715415 0.046584517 0.046097197 0.05450534
0001c0 7d 91 12 3e a8 cd e9 bd ed 41 9a 3a 38 5f 1c be
       0.14313312 -0.11416179 0.0011768915 -0.15270698
0001d0 6e 8d e0 bd a1 fc 3a bd 99 6e 0a be 14 c1 96 3d
       -0.109644756 -0.045651082 -0.13518752 0.073610455
0001e0 29 8b 43 bd 5a bd 1c 3e ce 46 3e be db f5 d4 bb
       -0.047740135 0.15306607 -0.18581697 -0.006499035
0001f0 55 33 91 bd 44 f8 91 bd 74 11 c8 bd a6 6e 1c bd
       -0.07089869 -0.07127431 -0.09768954 -0.03819146
000200 0c 85 13 bd 30 e4 d5 3c 3a a2 a4 3d e0 94 23 3d
       -0.036015555 0.026109785 0.08038755 0.0399369
000210 ee 25 3a 3e b0 8d 92 3c b9 7e 3b 3d 4a 06 0a bd
       0.18178532 0.017889827 0.04577515 -0.033697404
000220 fa dc 19 3e 99 30 46 3e cb 9f 8a bd ea 80 18 3e
       0.15025702 0.19354476 -0.06768759 0.14892927
000230 d1 dd 81 bd 2a 52 49 3e b7 0b 4f 3e 63 4d a1 bd
       -0.06341136 0.1966025 0.20219313 -0.078760885
000240 ae 50 2d bd 5b 5b 94 3d 58 03 17 3e f7 73 68 3c
       -0.04231327 0.07243987 0.1474737 0.014187804
000250 87 f0 44 bd a0 23 d1 bd 86 de f3 ba 0a ae c8 3d
       -0.048080947 -0.10211873 -0.0018605746 0.0979882
000260 11 a5 12 3d 54 8a cd bd e1 50 37 3d b8 0e a9 bd
       0.03580195 -0.100361496 0.044754867 -0.082547605
000270 d3 cd fb bd 39 a0 5c 3e b6 f2 11 3e 25 bd 16 3e
       -0.12295117 0.21545495 0.14252743 0.1472059
000280 eb db 25 be 15 08 fb 3c 34 b2 3e bd 03 86 9c bd
       -0.16197173 0.030643502 -0.046556666 -0.07642748
000290 a7 0c 36 bc ec f0 af bd cb 3b dc bc f8 d5 c5 3d
       -0.011111415 -0.08590874 -0.02688398 0.09659952
0002a0 a1 16 f2 bd 6b db 82 bc 05 88 bd bd 27 94 aa 3c
       -0.11820722 -0.015973767 -0.09254459 0.020822598
0002b0 df 12 b7 3d b2 ab 37 3d 98 c6 da bb ff cd 68 3d
       0.08939146 0.044841476 -0.0066765063 0.05683708
0002c0 16 29 df bd 4b 1e dd 3d fa 94 98 bd ec 05 d1 3d
       -0.108965084 0.107967936 -0.0745029 0.10206208
0002d0 b9 d6 69 bd 44 70 31 3e 5c 52 a9 bc 4c 24 0a 3c
       -0.05708954 0.17327982 -0.020669155 0.008431505
0002e0 50 0d 80 3d ab 7a 17 3d cb 8e 31 3e d1 38 50 3e
       0.06252539 0.03698222 0.17339627 0.20334174
0002f0 af 46 83 bc 76 e9 e1 bc 23 66 62 3e c7 4b c7 3c
       -0.016024916 -0.027577143 0.22109275 0.024328126
000300 93 b4 cf 3d 9f 3c a8 3d 31 fd de 3d c6 ce 99 bd
       0.10141864 0.082146876 0.10888136 -0.07510142
000310 97 7f 63 3d f8 85 eb bc c2 23 3e bd 0e db 5a be
       0.0555416 -0.028750405 -0.04642082 -0.21372625
000320 84 15 d9 3b c1 02 f9 3c bc 47 0b 3c 8d 84 1c bd
       0.0066248793 0.030396821 0.0085009895 -0.038212348
000330 37 b6 2b 3e 8f 0d a6 bd 92 fe 52 3e cc 90 37 3d
       0.16768728 -0.08108055 0.20604923 0.044815823
000340 fe b6 e2 3d 10 7d d0 bb 09 74 f8 bc 1b d6 c4 3c
       0.11070059 -0.006362565 -0.030328767 0.024027875
000350 ef 06 74 bd a6 f0 cd 3c 25 e5 2c bd 4a 6c 38 3e
       -0.059576925 0.025139164 -0.042210717 0.18010059
000360 fc 64 2e 3d 79 41 c1 3c fa 75 d5 bb e0 16 48 3e
       0.042576775 0.02359079 -0.006514308 0.19539976
000370 69 63 16 3d 8c f0 41 bb b4 7c e2 bd 34 f2 04 bc
       0.0367159 -0.002959284 -0.110589415 -0.008114386
000380 0b 54 b4 bd d7 9f c4 3d 30 b0 40 3c c8 3f df 3c
       -0.088050924 0.096007995 0.011760756 0.027252093
000390 5a 7a 1b bd 43 94 f0 3c 5d 59 91 3c 6f 40 ae 3c
       -0.03795848 0.029367572 0.017742807 0.021270959
0003a0 3e 9d 99 3d 0d 1a 76 3d 0a 69 16 3e 48 c1 d3 3c
       0.07500695 0.060083438 0.14688507 0.025849
0003b0 01 c1 3c 3e 31 d7 cc bd a9 7c b6 3c 41 db 97 3a
       0.18433 -0.10001982 0.02227624 0.0011585728
0003c0 87 0c a8 bc 7f 4a cd 3d 82 36 75 bd bb e5 1e 3e
       -0.020513786 0.100239746 -0.059866436 0.15517323
0003d0 ce 06 42 3d 42 df ba 3d 1d 4f 5a 3e 96 bb 94 bc
       0.04736977 0.09124614 0.21319242 -0.018155854
0003e0 a8 0d c9 3d 18 f4 11 3d 4c 5c 42 3e 2f ce d4 bd
       0.09817058 0.035633177 0.18980521 -0.10390889
0003f0 6a b1 7e 3d 20 37 64 3e 67 a3 ee 3d d9 d3 44 3e
       0.062180914 0.22286654 0.1165226 0.19221438

action_model._continuous_distribution.mu.bias f4 [2]
000000 6a 80 74 3d e4 1b 7f bd
       0.059692778 -0.062282458

exp_avg f4 [128, 71]
000000 8c 63 af b5 1a f9 a8 b9 00 00 00 00 ab 86 82 3b
       -1.3067488e-06 -0.00032229052 0.0 0.003983339
000010 60 d2 82 3b ac fd 16 b4 ce 56 19 3a 00 00 00 00
       0.003992364 -1.4062124e-07 0.0005849422 0.0
000020 f0 84 49 3b b5 5c 50 3b 8f 83 b8 b4 52 43 fe b9
       0.0030749403 0.003179354 -3.4368392e-07 -0.00048496813
000030 00 00 00 00 3b d3 87 3b c9 f1 87 3b b5 32 6b 39
       0.0 0.0041450537 0.004148696 0.00022430236
000040 c2 7c 24 3b 00 00 00 00 67 a1 72 3a 8c ac df 3a
       0.0025098776 0.0 0.0009255618 0.0017064973
000050 3e cd ee 35 e6 b4 57 ba 00 00 00 00 d4 d3 92 3b
       1.7792115e-06 -0.0008228555 0.0 0.0044808183
000060 a3 2f 97 3b 93 63 59 b9 d2 48 a7 3b 00 00 00 00
       0.004613833 -0.00020731827 0.0051051164 0.0
000070 4c 46 a2 ba 0a 72 1a ba ac 06 09 b4 a1 8b 29 bb
       -0.0012380569 -0.0005891627 -1.2761546e-07 -0.0025870579
000080 00 00 00 00 06 b3 cc 3b be 55 b7 3b 46 da 13 b7
       0.0 0.006246927 0.005594938 -8.8127035e-06
000090 4d 11 9b 3b 00 00 00 00 f3 6c 8b ba d2 2b 98 ba
       0.004732287 0.0 -0.0010637328 -0.0011609739
0000a0 29 9a 46 ba 36 0e 1b 3b 00 00 00 00 9b 70 06 3b
       -0.0007576072 0.0023659593 0.0 0.0020513895
0000b0 bd 14 2a 3b 70 f8 b5 36 17 36 5e 3b 00 00 00 00
       0.0025952302 5.4231423e-06 0.0033906752 0.0
0000c0 96 39 8a 39 90 dd 19 39 0a 74 f6 37 01 e0 43 3b
       0.00026364316 0.00014673756 2.937952e-05 0.0029888155
0000d0 00 00 00 00 77 2d 28 3a 0c 57 71 3a d3 21 47 b8
       0.0 0.0006415466 0.00092063914 -4.74768e-05
0000e0 ab 62 85 3b 00 00 00 00 38 84 be b9 a2 30 00 39
       0.0040706 0.0 -0.00036338135 0.00012225148
0000f0 d3 21 47 b8 ab 62 85 3b 00 00 00 00 38 84 be b9
       -4.74768e-05 0.0040706 0.0 -0.00036338135
000100 a0 30 00 39 12 b1 56 3b 49 d8 ef 3a cc da cb 3b
       0.00012225145 0.003275935 0.0018298711 0.006221151
000110 5e 75 dc bc 50 d6 0c 3c 00 00 00 00 13 0e 10 34
       -0.026911434 0.008596018 0.0 1.3416165e-07
000120 6c 7d 4a bb 00 00 00 00 58 02 67 ba 9b 17 17 bb
       -0.0030897511 0.0 -0.00088123 -0.0023054841
000130 2d f0 d7 33 f9 88 28 bb 00 00 00 00 f6 68 b7 ba
       1.00554054e-07 -0.0025716408 0.0 -0.0013993073
000140 97 3e c4 ba 12 73 46 34 a6 55 43 bb 00 00 00 00
       -0.0014972267 1.848205e-07 -0.002980569 0.0
000150 6c d2 81 ba 48 27 bf ba 15 4f 19 b9 a1 6e 20 bb
       -0.000990463 -0.001458385 -0.00014620677 -0.0024480002
000160 00 00 00 00 60 70 b4 ba 0c 02 be ba 82 ff fd 37
       0.0 -0.00137664 -0.001449646 3.027893e-05
000170 a8 9a 7c ba 00 00 00 00 18 11 47 bb f4 5d 2c bb
       -0.00096360827 0.0 -0.003037518 -0.0026301118
000180 f5 4d 9d 39 40 9f bc b8 00 00 00 00 43 00 89 bb
       0.00030003456 -8.994201e-05 0.0 -0.0041809394
000190 ee f4 7e bb 71 e1 8e 38 b9 82 d1 ba 00 00 00 00
       -0.0038903314 6.8130794e-05 -0.0015984393 0.0
0001a0 73 f1 1f bb e7 fd 45 bb 23 21 94 ba 79 bf 80 bb
       -0.002440539 -0.0030211152 -0.001130138 -0.0039290753
0001b0 00 00 00 00 7c a7 8e 3a 40 d4 2c b9 2d bd 7c 39
       0.0 0.0010883654 -0.00016482268 0.00024103066
0001c0 d9 aa 8c ba 00 00 00 00 27 b2 4d bb 72 5d 4d bb
       -0.0010732069 0.0 -0.0031386705 -0.0031336215
0001d0 72 4a 91 ba b6 52 2e ba 00 00 00 00 dc 01 10 bb
       -0.0011084809 -0.0006649898 0.0 -0.0021973765
0001e0 c9 4a 18 bb 1d ab 0b b8 77 62 cf ba 00 00 00 00
       -0.0023237935 -3.3299544e-05 -0.0015822191 0.0
0001f0 db 5b 1a bb 8e b7 2e bb c5 59 3a b9 ab af 47 ba
       -0.0023553285 -0.00266597 -0.00017771784 -0.0007617424
000200 00 00 00 00 3c aa 46 bb 81 42 5e bb c5 59 3a b9
       0.0 -0.003031387 -0.003391415 -0.00017771784
000210 ab af 47 ba 00 00 00 00 3c aa 46 bb 7f 42 5e bb
       -0.0007617424 0.0 -0.003031387 -0.0033914146
000220 10 21 3f bb e2 1d 02 bb 7a 53 39 bc 74 b1 d7 3c
       -0.0029163994 -0.0019854237 -0.011311406 0.026329733
000230 a5 ba f5 bb 00 00 00 00 a1 c7 d7 b4 52 9f 12 3a
       -0.0074990564 0.0 -4.019212e-07 0.00055931986
000240 00 00 00 00 be 27 9a ba 3d 66 44 ba 01 dd c6 b4
       0.0 -0.0011761112 -0.00074920413 -3.7041175e-07
000250 f0 80 a8 b8 00 00 00 00 2d a2 0c ba dd b1 12 ba
       -8.034881e-05 0.0 -0.0005364742 -0.00055959617
000260 c5 54 22 b4 f9 99 19 3a 00 00 00 00 7c ad 9d ba
       -1.5118265e-07 0.00058594305 0.0 -0.0012029852
000270 ac dd 91 ba f1 87 bb 38 90 d8 52 b9 00 00 00 00
       -0.0011128685 8.942176e-05 -0.00020107836 0.0
000280 fc 85 04 ba 0c b0 02 ba 5b c3 e5 b5 09 d0 9e b8
       -0.00050553656 -0.00049853395 -1.7118685e-06 -7.572777e-05
000290 00 00 00 00 44 7e 0d ba 21 ce 4c ba c0 28 11 b8
       0.0 -0.0005397538 -0.0007812698 -3.4608645e-05
0002a0 42 08 bd b9 00 00 00 00 df d1 68 b9 43 85 78 b9
       -0.00036055042 0.0 -0.00022203427 -0.00023700767
0002b0 37 b6 e4 35 86 f5 56 b9 00 00 00 00 3e 00 d9 b9
       1.7040355e-06 -0.00020500095 0.0 -0.00041389646
0002c0 fd f6 ff b9 3e bb ed 39 2d 5a 1b ba 00 00 00 00
       -0.0004882141 0.0004534367 -0.0005926218 0.0
0002d0 2e 9d fa b9 82 52 f3 b9 e8 3b 3b 39 7b 0c ae b9
       -0.00047800824 -0.00046410045 0.00017856027 -0.00033197165
0002e0 00 00 00 00 c6 27 f3 b9 40 a4 e0 b9 9f 5d ed 39
       0.0 -0.00046378205 -0.00042846985 0.00045273916
0002f0 e4 3f 84 ba 00 00 00 00 bc a2 7f b8 6b 4b 29 b9
       -0.0010089842 0.0 -6.0948296e-05 -0.00016145191
000300 b2 36 03 37 c1 8e e8 b9 00 00 00 00 84 42 3e b9
       7.820943e-06 -0.00044356848 0.0 -0.00018144591
000310 f9 70 26 b9 33 35 ae b8 9f 74 a3 ba 00 00 00 00
       -0.00015873079 -8.306876e-05 -0.0012470669 0.0
000320 c3 e4 3a 3a 02 dd fd 39 33 35 ae b8 9f 74 a3 ba
       0.0007129425 0.00048420584 -8.306876e-05 -0.0012470669
000330 00 00 00 00 c3 e4 3a 3a 02 dd fd 39 3f bc 8f bb
       0.0 0.0007129425 0.00048420584 -0.0043864544
000340 29 cb a1 b9 d6 0b 25 3a 0c 3f 10 3b 2d 30 2c bb
       -0.0003085968 0.0006296014 0.0022010235 -0.0026273832
000350 00 00 00 00 b9 74 b6 b6 08 48 b6 3a 00 00 00 00
       0.0 -5.437611e-06 0.0013906965 0.0
000360 96 bf 27 3b d3 ae 66 3b 71 33 22 b7 23 c3 c6 3b
       0.0025596372 0.0035199418 -9.66793e-06 0.0060657426
000370 00 00 00 00 b0 5b 0a bb 10 0f 2f 39 70 d0 e2 b6
       0.0 -0.002111178 0.00016694912 -6.75959e-06
000380 4e d6 9b ba 00 00 00 00 77 72 a8 3b e4 20 be 3b
       -0.0011889429 0.0 0.0051405984 0.0058022607
000390 16 ad e2 39 25 4f 3a 3b 00 00 00 00 56 8e 2f 3a
       0.00043235038 0.0028428521 0.0 0.000669693
0003a0 c0 dc ca 3a 43 6f ec 37 2c 1c 0c bb 00 00 00 00
       0.0015477166 2.8185203e-05 -0.0021379096 0.0
0003b0 d7 65 c6 3b d7 99 b8 3b 93 1f 98 ba b2 a7 23 3c
       0.0060546207 0.0056335735 -0.001160609 0.009988712
0003c0 00 00 00 00 51 03 a0 bb f6 26 75 bb 22 75 35 38
       0.0 -0.004883208 -0.0037407256 4.326285e-05
0003d0 8f 80 99 bb 00 00 00 00 ea ac 0c 3c 46 9b b0 3b
       -0.004684515 0.0 0.008586148 0.005389604
0003e0 95 07 61 3a 24 72 05 3c 00 00 00 00 0c c1 a5 bb
       0.00085841987 0.008144889 0.0 -0.0050584134
0003f0 63 85 8e bb e9 70 15 ba 50 fe 9d 3b 00 00 00 00
       -0.004349397 -0.0005700724 0.004821576 0.0

exp_avg_sq f4 [128, 71]
000000 ef e6 1e 38 c3 57 76 37 00 00 00 00 a3 c7 a7 3a
       3.788521e-05 1.4683176e-05 0.0 0.0012800585
000010 aa da a7 3a 84 0c 8f 38 19 9d 7c 39 00 00 00 00
       0.0012806256 6.8211026e-05 0.00024091116 0.0
000020 0a ba 84 3a 86 40 88 3a 51 49 79 38 8d 0c 13 38
       0.0010126245 0.0010395206 5.9434507e-05 3.505922e-05
000030 00 00 00 00 98 e1 a7 3a 70 3e a7 3a 90 f2 34 38
       0.0 0.0012808321 0.0012759697 4.3141248e-05
000040 04 4b 2e 3a 00 00 00 00 d0 50 2c 3a 6b 9e 33 3a
       0.00066487514 0.0 0.00065733213 0.0006851914
000050 0e bb a2 38 2c f8 d8 38 00 00 00 00 a4 7b 97 3a
       7.7596036e-05 0.00010345908 0.0 0.0011557234
000060 eb a4 98 3a a4 9c 0d 38 c4 c2 82 3a 00 00 00 00
       0.0011645829 3.3762903e-05 0.0009976258 0.0
000070 f1 8c a5 39 2b 7d bc 39 7e e2 51 38 c7 c8 81 39
       0.00031576262 0.00035951412 5.004042e-05 0.00024754388
000080 00 00 00 00 11 c2 88 3a d4 5c 8a 3a 56 2f 04 38
       0.0 0.0010433813 0.0010556229 3.1515337e-05
000090 ff 10 9c 3a 00 00 00 00 65 ea f0 38 6d ad 15 39
       0.0011906921 0.0 0.00011487751 0.00014274353
0000a0 a6 b5 25 38 79 44 1f 3a 00 00 00 00 0d 00 41 3a
       3.950824e-05 0.0006075572 0.0 0.0007362373
0000b0 86 e1 45 3a aa 78 17 37 ce 8d a7 3a 00 00 00 00
       0.0007548559 9.028396e-06 0.001278335 0.0
0000c0 3d 72 95 38 ef 4a b1 38 2a c7 9d 38 68 d4 6f 3a
       7.126152e-05 8.453975e-05 7.5234406e-05 0.00091487775
0000d0 00 00 00 00 92 f4 b8 39 13 da ce 39 40 82 2c 38
       0.0 0.00035277434 0.0003945386 4.11293e-05
0000e0 30 37 a7 3a 00 00 00 00 4b bf 62 37 1a 53 99 38
       0.0012757536 0.0 1.3515189e-05 7.3110874e-05
0000f0 40 82 2c 38 30 37 a7 3a 00 00 00 00 4b bf 62 37
       4.11293e-05 0.0012757536 0.0 1.3515189e-05
000100 13 53 99 38 e3 e3 94 3c 0d f8 ae 39 95 a6 1d 3c
       7.311082e-05 0.018175071 0.00033372678 0.009622236
000110 98 e5 61 3c 2a 20 b6 3b 00 00 00 00 71 9c 68 37
       0.01378765 0.0055580335 0.0 1.3864702e-05
000120 a7 e0 a8 39 00 00 00 00 fe 71 e0 38 56 fd f4 38
       0.00032210836 0.0 0.00010702385 0.00011682014
000130 9d 7d 13 37 5f 21 b4 39 00 00 00 00 57 14 c5 38
       8.791129e-06 0.0003435714 0.0 9.3974806e-05
000140 84 5f ce 38 6f 16 9d 37 83 b9 79 39 00 00 00 00
       9.8406366e-05 1.8726305e-05 0.00023815599 0.0
000150 c5 91 3b 39 4a d4 3f 39 2e 53 b4 36 3e e8 a1 39
       0.00017888013 0.00018294263 5.3741014e-06 0.00030881347
000160 00 00 00 00 86 fe fe 38 29 21 07 39 9b 86 f9 36
       0.0 0.000121590725 0.00012886956 7.4364484e-06
000170 29 67 53 39 00 00 00 00 51 8b 6b 39 fc d5 72 39
       0.00020160958 0.0 0.00022463246 0.00023158634
000180 b2 51 fa 36 86 c3 87 39 00 00 00 00 d8 3b 3e 39
       7.460091e-06 0.00025894883 0.0 0.00018142106
000190 c8 6e 41 39 20 40 58 37 d1 17 15 39 00 00 00 00
       0.00018447184 1.28895335e-05 0.0001421862 0.0
0001a0 62 ef 96 39 64 72 98 39 60 82 ba 37 54 25 4e 39
       0.00028788584 0.00029076927 2.2233638e-05 0.00019659597
0001b0 00 00 00 00 c4 b4 67 39 b7 5a 6c 39 7a d7 a3 37
       0.0 0.00022097217 0.00022540508 1.9531453e-05
0001c0 5f c3 db 38 00 00 00 00 77 2a a2 39 4c 0d a6 39
       0.000104791245 0.0 0.00030930687 0.00031671894
0001d0 d2 9b 90 37 a9 12 1d 39 00 00 00 00 9b 09 85 39
       1.7238697e-05 0.00014979638 0.0 0.00025374893
0001e0 d9 a3 89 39 9f 8e 3f 37 1b 7c ae 38 00 00 00 00
       0.00026252752 1.1417694e-05 8.320083e-05 0.0
0001f0 71 7c b8 39 c6 13 ba 39 6e f9 6e 37 87 ca cb 38
       0.0003518793 0.00035491417 1.424398e-05 9.717518e-05
000200 00 00 00 00 1b 1c aa 39 d5 e1 ab 39 6e f9 6e 37
       0.0 0.00032445867 0.0003278392 1.424398e-05
000210 87 ca cb 38 00 00 00 00 1b 1c aa 39 d5 e1 ab 39
       9.717518e-05 0.0 0.00032445867 0.0003278392
000220 d9 64 08 3c 0c dc e0 38 bf cc 65 3b 16 49 9b 3b
       0.008324825 0.00010722139 0.0035064665 0.004738937
000230 e2 97 42 3b 00 00 00 00 94 ce 1d 36 83 ad 49 36
       0.002969258 0.0 2.3515067e-06 3.005233e-06
000240 00 00 00 00 a4 c8 c3 38 7a 15 c6 38 0b b8 81 36
       0.0 9.335697e-05 9.445376e-05 3.865925e-06
000250 e1 83 91 37 00 00 00 00 13 82 a1 38 0b e4 a3 38
       1.7346758e-05 0.0 7.7013065e-05 7.814922e-05
000260 ea 35 25 36 b0 17 d4 36 00 00 00 00 c8 26 bb 38
       2.4618298e-06 6.32085e-06 0.0 8.9240784e-05
000270 01 55 bd 38 8f db 79 36 b5 76 36 38 00 00 00 00
       9.0280555e-05 3.7231691e-06 4.3502736e-05 0.0
000280 95 78 61 38 8e 7c 69 38 84 40 b7 36 57 46 d1 37
       5.375648e-05 5.566753e-05 5.4613356e-06 2.4947496e-05
000290 00 00 00 00 c9 55 9b 38 ed c7 9b 38 5d 00 ac 35
       0.0 7.406955e-05 7.428215e-05 1.2815104e-06
0002a0 4b be 81 38 00 00 00 00 41 8d 23 38 2f 67 2b 38
       6.186644e-05 0.0 3.899378e-05 4.0865674e-05
0002b0 14 9c b9 36 34 43 1c 38 00 00 00 00 51 ed 71 38
       5.5315995e-06 3.7255886e-05 0.0 5.7679896e-05
0002c0 94 99 77 38 a0 1a 86 36 46 23 93 38 00 00 00 00
       5.903242e-05 3.9966108e-06 7.0160764e-05 0.0
0002d0 d2 83 e9 37 37 4a f2 37 c0 de 64 36 e5 7d 59 38
       2.7837148e-05 2.8883207e-05 3.4104305e-06 5.185408e-05
0002e0 00 00 00 00 8c 38 43 38 e0 dd 46 38 1e 08 82 36
       0.0 4.6544286e-05 4.7413516e-05 3.875247e-06
0002f0 c9 f7 ab 38 00 00 00 00 2e cc 5a 37 20 67 77 37
       8.200069e-05 0.0 1.3041352e-05 1.4746358e-05
000300 2e db af 36 fc b2 8c 38 00 00 00 00 53 f2 e7 37
       5.2409223e-06 6.709059e-05 0.0 2.7650187e-05
000310 f5 bb ff 37 a3 a6 85 36 9b 45 be 38 00 00 00 00
       3.0485893e-05 3.983108e-06 9.072871e-05 0.0
000320 71 70 7b 36 61 42 c6 36 a3 a6 85 36 9b 45 be 38
       3.7467364e-06 5.9085874e-06 3.983108e-06 9.072871e-05
000330 00 00 00 00 71 70 7b 36 61 42 c6 36 a5 91 ee 3a
       0.0 3.7467364e-06 5.9085874e-06 0.0018201364
000340 37 bd cf 37 7d c3 55 3a 25 0d 55 3a 7e bd 42 3a
       2.4764433e-05 0.0008154435 0.0008127264 0.0007428749
000350 00 00 00 00 17 2a bd 38 37 30 bd 3a 00 00 00 00
       0.0 9.020062e-05 0.0014433925 0.0
000360 39 0d 1b 3b 66 0f 20 3b a7 18 ba 38 cc 0c e7 3a
       0.0023659004 0.002442324 8.873763e-05 0.0017627715
000370 00 00 00 00 b0 31 03 3b 36 5f 08 3b 00 6f e8 38
       0.0 0.002001863 0.0020808703 0.000110832974
000380 b6 ca b2 3a 00 00 00 00 f6 5a 24 3b 8c 62 27 3b
       0.0013640735 0.0 0.002507863 0.0025540916
000390 35 26 bb 38 c8 d0 15 3b 00 00 00 00 c1 3c d9 3a
       8.9239715e-05 0.002286004 0.0 0.0016573892
0003a0 30 cf e7 3a 06 12 8f 38 25 b7 ba 3a 00 00 00 00
       0.0017685648 6.8221285e-05 0.0014245255 0.0
0003b0 3d c4 1f 3b 4b 03 25 3b 78 eb be 38 fb b3 17 3b
       0.0024378442 0.0025178965 9.1037655e-05 0.0023148048
0003c0 00 00 00 00 a9 9e d1 3a f7 80 db 3a f7 2b 5b 38
       0.0 0.0015992719 0.0016746809 5.2254614e-05
0003d0 23 21 be 3a 00 00 00 00 73 a1 20 3b 52 01 25 3b
       0.0014505725 0.0 0.0024510294 0.002517779
0003e0 b6 97 5a 39 e3 3e 12 3b 00 00 00 00 72 b7 c1 3a
       0.00020846617 0.0022315315 0.0 0.0014779402
0003f0 31 0f cf 3a b6 eb d8 38 f9 4b c9 3a 00 00 00 00
       0.0015797374 0.00010343587 0.0015357725 0.0

exp_avg f4 [128]
000000 49 d8 6f 3b e2 1d 82 bb 29 cb 21 ba 32 44 81 3b
       0.0036597422 -0.0039708475 -0.0006171936 0.003944897
000010 6c c2 7a bc c8 63 70 bc cf d9 de ba 18 89 24 3b
       -0.015305143 -0.014672227 -0.0017002168 0.0025106128
000020 8e c7 90 bc ee a9 b4 3a 84 58 b0 39 b9 b3 42 38
       -0.01767328 0.0013783553 0.00033635285 4.6420584e-05
000030 16 4d 4c bc 59 73 28 bc 1c d5 6b 3a 10 7f 99 bc
       -0.012469551 -0.010281407 0.00089962943 -0.018737346
000040 ae bd ae 38 cc a6 37 b9 34 dc 92 3a ac 46 56 bc
       8.332297e-05 -0.00017514377 0.0011204542 -0.013078373
000050 b1 c4 02 bc c0 b8 f0 37 9a 8b 22 bc 00 77 84 b7
       -0.007981465 2.869626e-05 -0.009920979 -1.579104e-05
000060 08 6e 7b 39 39 99 88 3a 1c 06 dd 3b e8 29 f1 3b
       0.00023978215 0.001042164 0.006745113 0.007359732
000070 a7 d7 df 38 29 44 39 3b 81 a7 9f 3a 84 8e 00 37
       0.00010673637 0.0028269386 0.0012180657 7.6625765e-06
000080 6c 44 03 ba 59 72 87 b9 fc a9 5e bc e7 b7 7a 3b
       -0.0005007449 -0.00025834402 -0.013590332 0.0038256587
000090 51 3c 5f bc e3 4d 2d ba 6b c8 21 39 bd e0 81 39
       -0.01362522 -0.00066110323 0.00015428818 0.0002477224
0000a0 a8 fe 13 bb 6a 91 b2 3b cc 01 0e 3a f6 5b 68 bb
       -0.0022582207 0.0054494636 0.0005417138 -0.0035455204
0000b0 a0 06 22 b7 e7 6a 50 3b 4f e9 35 bb 2e 94 03 3c
       -9.657495e-06 0.0031802 -0.002775747 0.008030934
0000c0 a0 db 74 ba d3 0c 87 bb 13 4e 33 bc d8 92 da 3b
       -0.0009340588 -0.004121402 -0.010943907 0.006670337
0000d0 4c 91 3c 3b 83 ad ac b8 49 a9 38 bc f4 7a de ba
       0.0028773127 -8.233918e-05 -0.0112708295 -0.0016973899
0000e0 f2 b5 55 b9 4e 6b fb ba 9c bf 8d 3a 0d 07 b9 b8
       -0.00020381043 -0.001918176 0.001081455 -8.822801e-05
0000f0 06 c3 60 bb 88 1e 98 bb 9e 07 bb bb c7 61 8a ba
       -0.003429593 -0.0046423115 -0.005707695 -0.0010557704
000100 f6 e6 11 bb 49 7b 00 3c 90 bc 1a bb b6 6b ca ba
       -0.0022262908 0.0078418935 -0.0023610927 -0.0015443477
000110 b6 b2 05 3a be 89 0d 3c 71 3a b2 3b fa ca 48 bb
       0.00051001774 0.008638797 0.0054390957 -0.0030638562
000120 88 7d fd 39 a7 00 b5 38 94 6c 92 39 b1 5d 03 3c
       0.00048349448 8.630874e-05 0.00027928187 0.008017943
000130 a8 36 a6 b9 50 1b c0 ba da 6e 4f 3c b9 62 c6 3b
       -0.0003170271 -0.0014656577 0.012660706 0.006054249
000140 1a c2 68 3c 55 94 88 3b cf 9d a1 ba 08 7e b2 38
       0.014206434 0.004168073 -0.0012330356 8.5111766e-05
000150 73 a1 0b 3c 76 aa 17 ba 1a db 54 3b a7 b6 39 ba
       0.008522379 -0.00057855935 0.0032479228 -0.0007084407
000160 21 73 4f 3c a1 6e 4a 3c 58 7a d1 b8 ca fb 8d 3b
       0.012661726 0.012355478 -9.988685e-05 0.004332994
000170 71 95 76 3c d7 77 47 b8 a3 39 ca 39 00 8e b5 b4
       0.015050278 -4.7556907e-05 0.00038571385 -3.3817196e-07
000180 5c 41 4e 3a 60 36 f5 37 50 ce cc 38 10 e5 e4 3a
       0.00078680157 2.9231596e-05 9.765907e-05 0.0017463285
000190 59 46 97 b9 86 65 55 3b 4e cf 37 3b a0 90 96 37
       -0.00028853377 0.0032561733 0.0028047147 1.794874e-05
0001a0 d1 9e 65 3a 12 91 9b 3b cb 3f 38 3b 4f 08 78 bc
       0.0008759322 0.0047475183 0.0028114195 -0.0151387
0001b0 5b 57 17 3a 72 9f 74 ba 47 7c 3e 39 10 38 b9 39
       0.000577321 -0.00093316205 0.00018166109 0.0003532772
0001c0 80 0c 76 3b 4a d1 f4 b9 f1 7e a1 ba 98 c4 34 3c
       0.0037544072 -0.0004669524 -0.0012321157 0.0110332
0001d0 36 1c ac bc fa f9 0b bc a9 a3 85 b9 b9 37 f2 3b
       -0.021009546 -0.008543486 -0.00025489673 0.0073918966
0001e0 c3 0a 77 bb 1a 9c f2 ba ac ce d2 39 64 2b 18 bb
       -0.0037695623 -0.0018509657 0.00040208304 -0.0023219222
0001f0 d2 b1 c1 3b 6a 88 0c 3a 5e 77 52 bc 8b d1 1b bc
       0.0059110904 0.00053609035 -0.012845842 -0.009510408

exp_avg_sq f4 [128]
000000 2b f8 ae 3a 01 d8 e0 39 7f c1 cf 38 aa a0 84 3b
       0.0013349106 0.00042885545 9.9065706e-05 0.004047473
000010 60 44 72 3c d7 81 f1 3b 28 80 e7 39 fc 9b b7 3b
       0.01478681 0.0073702144 0.00044155237 0.0056033116
000020 d1 82 32 3c a1 d4 c0 38 7e 91 ea 37 89 ab e2 35
       0.010895447 9.194879e-05 2.7962724e-05 1.6888235e-06
000030 71 d0 10 3c 3d a2 45 3b 98 ce 12 39 9a 30 6c 3c
       0.008838759 0.0030156516 0.00014000607 0.014415884
000040 05 2c bd 37 30 c0 62 39 48 cb 74 3a eb ec 37 3c
       2.2551054e-05 0.00021624635 0.00093381526 0.011225919
000050 3b 9d 2c 3b 4f 97 39 39 3b 19 ca 3b eb af 13 3b
       0.0026338834 0.00017699342 0.0061675585 0.0022535275
000060 30 7b e2 39 8c d1 68 39 c1 39 1d 3a 67 3e 54 3a
       0.0004319786 0.00022203306 0.0005997681 0.0008096457
000070 11 3e 91 34 e5 f3 eb 38 62 6a 03 3b 04 60 54 36
       2.7053514e-07 0.00011251102 0.0020052423 3.164635e-06
000080 52 72 89 3a 73 67 35 38 be 28 db 3b ee 60 44 3b
       0.0010486341 4.3250107e-05 0.0066882065 0.0029965
000090 9b 22 41 3c 73 f4 8b 3a cf 56 ea 38 db 96 7a 38
       0.011788036 0.001067771 0.00011174159 5.974514e-05
0000a0 5f 9e 9b 3a fc cc 5d 3b b5 6b f5 39 25 8d eb 3a
       0.001187276 0.0033844104 0.0004681029 0.0017971141
0000b0 5c f9 a4 39 19 ee 96 3a 22 99 b5 39 85 b6 dd 3a
       0.00031466305 0.001151505 0.00034637103 0.0016915357
0000c0 72 c2 80 3b b8 ac d2 39 b5 f9 e9 3b 71 f8 fc 3b
       0.0039294297 0.00040183007 0.007140363 0.007720046
0000d0 2f 95 f9 39 96 e7 be 35 b8 b1 39 3c a9 4f 19 39
       0.0004760413 1.4223504e-06 0.011333875 0.00014620893
0000e0 d2 6e 34 39 1e 4c 43 3b 56 41 bc 39 97 09 ad 36
       0.00017207421 0.0029800008 0.00035906833 5.156918e-06
0000f0 15 51 8d 3b 88 32 5b 3a 0d 05 8e 3a 42 5d ff 38
       0.0043126442 0.0008361717 0.0010835245 0.00012176718
000100 58 75 2e 39 79 8d 28 3a e5 0b c8 3a 13 41 b1 3a
       0.00016637647 0.00064297725 0.0015262334 0.0013523422
000110 03 85 b1 37 05 15 62 3b c7 bd 2f 3b b6 1e 7d 3b
       2.1161983e-05 0.0034497392 0.0026815997 0.0038623041
000120 74 7d df 38 23 30 c4 36 b5 2b 83 39 63 37 2d 3b
       0.00010656836 5.846859e-06 0.0002501883 0.0026430718
000130 a8 34 0b 3b 29 bc bf 39 f4 47 84 3c fe 45 11 3b
       0.0021241102 0.0003657055 0.016147591 0.0022166963
000140 5c 99 ad 3b 51 a4 bc 39 fd 47 d7 39 71 f3 a9 3a
       0.005297823 0.0003598058 0.0004106163 0.0012966228
000150 f1 fb 26 3c ae 71 f2 38 86 82 97 3b 83 6e e3 38
       0.010191903 0.00011560634 0.004623714 0.00010844788
000160 d9 a8 2e 3b 2b 1a bc 3b 6c 22 ac 35 26 5d fd 3b
       0.0026650934 0.005740424 1.2825017e-06 0.0077320514
000170 84 ab dc 3b 73 e3 06 36 b9 b3 d6 38 84 b4 ea 35
       0.0067343134 2.009995e-06 0.00010237791 1.7486896e-06
000180 83 c5 63 39 13 0c 4e 3a 8b e1 f0 39 fa 55 90 39
       0.00021721986 0.00078600756 0.0004594441 0.00027529878
000190 a2 df b7 3a 86 56 0a 3a 65 f0 4a 3b a9 4d d3 39
       0.001402844 0.0005277175 0.003096604 0.00040302917
0001a0 2f 55 3d 3a f3 a7 e7 3a f2 dc 6e 3b 51 39 19 3c
       0.0007222471 0.0017673954 0.0036447612 0.009352044
0001b0 73 8b ff 39 80 7b 74 3a 71 72 db 34 ca eb d8 3a
       0.00048741288 0.0009326264 4.0875196e-07 0.0016549763
0001c0 15 b7 fd 3a 85 54 e2 38 a2 3a 28 3a 70 71 29 3c
       0.0019356931 0.00010792263 0.00064174284 0.010341987
0001d0 2b b4 92 3c a9 9b c2 3a f6 65 8b 39 72 56 4a 3a
       0.017908176 0.0014847416 0.00026588113 0.000771857
0001e0 8d 93 46 3b 62 bc 74 3b e9 dc b6 37 ac 5a 0a 3a
       0.003030035 0.003734373 2.179896e-05 0.00052777934
0001f0 36 d2 8a 3a e9 06 72 3a d2 d6 15 3c 82 1e 09 3b
       0.0010591212 0.0009232597 0.009145455 0.0020922725
