Assets/ML-Agents/results/sc40/SimpleCollector/SimpleCollector-1499996.onnx (onnx, 108382 bytes, 7 tensors)

network_body._body_endoder.seq_layers.0.weight f4 [128, 71]
000000 0d 72 30 be ea c9 67 bb 74 00 ea bd ef 7c 9f 3e
       -0.17231007 -0.0035368153 -0.11425868 0.31150004
000010 34 b2 84 3d 1d d0 a2 bd 30 7e ee 3c 0d b5 ad 3c
       0.06479302 -0.07949851 0.029112905 0.021204496
000020 a0 88 a6 3d c4 23 a3 3d 5c 3b c3 3e 16 76 71 be
       0.08131528 0.07965806 0.38131225 -0.23580202
000030 1d 69 2d 3d 41 3f 36 3e 9e 3b 5d 3d dc 56 a7 3e
       0.042336572 0.17797567 0.054011934 0.32683456
000040 f7 b9 2c be cc d0 0a 3e 70 fc dc 3d a1 09 b9 3d
       -0.16867815 0.13556212 0.10790336 0.0903504
000050 82 44 6c 3d 58 8d 87 be c1 04 ac 3d 19 94 f4 3d
       0.05768252 -0.26475024 0.08399344 0.1194231
000060 04 38 48 ba 8a c7 d7 3d c5 f5 00 bd 6e 98 5a bd
       -0.00076377415 0.10536106 -0.031484384 -0.053368025
000070 71 5e 7e 3d 9a 2e 2e bd ef 45 0f be df f0 39 be
       0.062101785 -0.04252491 -0.13991521 -0.18158291
000080 af 5c 48 3e a9 2b 9a 3e 3c d5 52 3e df 80 e5 bc
       0.19566606 0.30111435 0.20589155 -0.028015552
000090 39 b2 47 3e ad c4 90 3d a8 f7 e0 be d1 fa b2 be
       0.1950158 0.07068763 -0.43938947 -0.34956983
0000a0 82 64 f6 be f7 73 8c 3c 6a f4 08 be 4c 5d fe bd
       -0.48123556 0.01714514 -0.13374487 -0.12420139
0000b0 43 31 c3 be 1d 1f 1b bf df a8 80 be 81 b7 1c be
       -0.3812352 -0.6059435 -0.25128838 -0.15304376
0000c0 86 22 99 be 51 10 c5 be 75 24 32 be 1f 59 85 bc
       -0.29909152 -0.3848901 -0.1739672 -0.016277848
0000d0 2e cd b5 bc da 04 68 be 8d 44 8a be 48 7f 73 bd
       -0.022192564 -0.226581 -0.27005425 -0.059447557
0000e0 61 35 dd 3e 1e c3 1c 3e 40 9f c2 be 72 8b 78 be
       0.43204787 0.15308806 -0.38012123 -0.24271944
0000f0 a1 02 44 be a7 fe 80 3d 18 0b fe ba d9 46 4d be
       -0.19141628 0.06298571 -0.0019381968 -0.20046557
000100 17 c0 85 be 66 ae ba 3d 52 9a 3d bd 26 fb 4a 3d
       -0.26123115 0.09115295 -0.04628975 0.04955592
000110 5a 02 1b 3e 64 43 60 3e 38 5f 39 3d a6 9e 80 3e
       0.15137616 0.21900707 0.045256823 0.2512104
000120 5c 0c ca 3c 55 ee 3f bd 84 3a aa be bc 37 7b be
       0.024664097 -0.04685815 -0.3324777 -0.2453298
000130 5f 66 f7 3d 2a 2b 27 3d a8 c9 1a 3e 04 52 4e be
       0.120800726 0.04081265 0.15115988 -0.20148474
000140 f9 0b 52 be 6b 28 c8 3c 94 99 d2 be fd cd ab 3d
       -0.2051238 0.024433335 -0.41132796 0.083888985
000150 b4 2e 5c 3d 12 8f 03 be f6 4c 2f 3e 9e 02 0c 3e
       0.053755477 -0.12847546 0.17119202 0.13672873
000160 2c 6e e5 be 81 87 4c be b8 36 c7 3d ea 80 af 3d
       -0.44810617 -0.19973566 0.09727234 0.0856951
000170 83 c2 f3 bd cd 30 c5 bd 2d 03 4f 3d e2 ec 03 be
       -0.119023345 -0.09628449 0.050540138 -0.12883332
000180 a5 05 1a 3e f6 71 8c bd 22 60 1b bd 83 65 87 be
       0.15041216 -0.06857674 -0.037933476 -0.26444635
000190 63 e9 7a be a4 4d 7a be 48 17 5d be 1a ab 1a 3d
       -0.24503092 -0.2444368 -0.21590912 0.03776083
0001a0 2b 82 06 be 79 49 f7 bd d8 3d da 3e 41 81 1f be
       -0.13135593 -0.12074561 0.42625308 -0.1557665
0001b0 6d 5e aa bd 22 9c 73 3e 5f 45 ea bb 7b 49 d6 bc
       -0.083187915 0.23790029 -0.007149383 -0.026158085
0001c0 af a5 36 be 0d 45 14 3e a4 c3 2d bd 81 79 86 3d
       -0.17836641 0.14479466 -0.042422906 0.06566144
0001d0 e4 01 da 3a c9 dd 3b be 7a 7f cf 3c 84 ba 2b bd
       0.0016632644 -0.18346323 0.02532934 -0.041925922
0001e0 e1 22 ba bd 22 7f 52 be 66 7a 8c bc a4 d2 e8 bd
       -0.09088684 -0.2055631 -0.017148208 -0.113683015
0001f0 f7 4f 6f bd 2a b1 3c 3e 11 00 72 bd ac 6b 12 be
       -0.05842587 0.18426958 -0.059082095 -0.14298886
000200 5e 5c 94 be 98 fa 4e 3d b8 b9 09 3d 58 71 a7 3d
       -0.2897672 0.050531954 0.03362438 0.081759155
000210 8a ba 58 be 6a 35 c0 bb 20 99 02 3c 97 5f ac bd
       -0.21164909 -0.0058657425 0.007971078 -0.0841667
000220 aa bf 7c be 4a f1 91 bc 60 43 2b 3e 8e aa 4c be
       -0.24682489 -0.01781525 0.1672492 -0.19986936
000230 9b 2a 90 be 4c 58 92 3c 81 65 03 bf 60 40 c4 be
       -0.28157505 0.017864369 -0.5132676 -0.38330364
000240 ca 41 08 3e 6d 2a 94 3d b9 55 c7 3c d5 53 d8 bc
       0.13306347 0.072346546 0.024332868 -0.026407162
000250 0b 97 55 be 1e ce d1 bb f8 60 67 be 08 2c f6 bd
       -0.208584 -0.006402745 -0.22595584 -0.12020117
000260 09 7d f5 bc 92 ba 94 be 8c a6 06 bd b3 49 32 3e
       -0.029966848 -0.29048592 -0.032873675 0.17410927
000270 66 f2 3c bd 54 cb 92 3d 25 67 ab bd bf 9a 36 3d
       -0.046129607 0.07167688 -0.08369283 0.04458117
000280 cd 1b 6b bc 76 0e c4 bd c1 9f f0 bd 78 0a b4 bd
       -0.01434989 -0.09573071 -0.11749221 -0.08791059
000290 b3 a3 e8 bd eb 45 bd be 07 b4 1a be d6 fa 04 bf
       -0.11359348 -0.36967406 -0.15107737 -0.51945245
0002a0 f4 2c 29 be 80 0a 2b 3e 69 48 00 be 04 c6 b2 3d
       -0.16521055 0.16703224 -0.12527622 0.08729175
0002b0 41 ec de 3e a3 e8 9a bc 88 11 6f 3a 63 00 68 be
       0.43539622 -0.018909758 0.0009119739 -0.22656398
0002c0 61 b5 14 be 1b 17 e9 3d 5d 1a 3d bd 3b 88 b6 bd
       -0.14522316 0.1138136 -0.04616772 -0.08912703
0002d0 7c 43 2b bc 7f fc 5c be 37 f5 79 3e bb dc cd bd
       -0.010453101 -0.21580695 0.24409948 -0.100518666
0002e0 2d 2d 1f 3d a8 1b 05 bd 5f c6 3d be 1b 91 b1 be
       0.038861442 -0.03249708 -0.18532704 -0.3468102
0002f0 ea 88 ed bd d2 59 28 3e cd a6 02 be 54 9e 6e be
       -0.1159838 0.16440514 -0.12758942 -0.23302585
000300 30 5d e1 3e ad 6b 8f bd 5c 26 dd bc 82 8a 60 be
       0.4401641 -0.070029594 -0.02699583 -0.21927837
000310 60 cf 00 3d 45 6d 89 be 9d 10 f8 bd 83 90 bb bd
       0.03144777 -0.2684118 -0.12112544 -0.09158423
000320 b9 5c 93 be b2 ec b6 be 19 d8 ac be 52 6c 78 be
       -0.2878168 -0.3572746 -0.3375862 -0.24260071
000330 3e 45 da bd 08 d3 29 be 78 3d 0e be 15 f7 8b be
       -0.10657738 -0.16584408 -0.13890636 -0.27336946
000340 46 08 58 be 3b be 20 be 16 21 82 3e 51 4c 07 bb
       -0.21096906 -0.15697567 0.25415868 -0.0020644853
000350 86 94 01 be 13 1e a4 be d7 29 31 3e b7 a6 96 be
       -0.12654313 -0.32054195 0.17301117 -0.29424068
000360 1b 21 89 bd 94 df cf bd ed 7d 04 bf 05 14 a4 3d
       -0.066957675 -0.10150066 -0.5175465 0.08011631
000370 d3 1c 82 3d 45 99 8f 3e f5 b0 0f 3d 88 6f 9d be
       0.06353154 0.28046623 0.03508087 -0.30749154
000380 90 5f a2 3e 50 52 ea 3d 77 99 05 be 03 57 36 bd
       0.31713533 0.11441481 -0.13046823 -0.044516575
000390 66 96 3d be 75 bc 72 bd c2 65 db 3d ea 6b af bc
       -0.18514404 -0.059261758 0.10712768 -0.021413762
0003a0 e7 e6 fa 3d 46 ef 65 be 2b 36 85 3e 79 b4 10 be
       0.122510724 -0.22454557 0.2601789 -0.14131345
0003b0 cf 8f a0 bc 1b ce 90 bd 37 8e 54 be 13 ce 5b 3c
       -0.019599823 -0.070705615 -0.20757376 0.013415831
0003c0 24 12 01 3e 84 6c 7b 3e 13 3d 9d 3d 67 20 b8 bd
       0.12604576 0.24553114 0.076776646 -0.08990555
0003d0 4f 0d 66 3e 9d f7 b1 bd 4d 10 df 3d e9 d3 09 be
       0.22466014 -0.086898066 0.10891781 -0.13459744
0003e0 71 9e 33 3d bd 83 2f be 2e 41 f9 3b 28 d0 42 3c
       0.043852273 -0.17140098 0.007606647 0.011890449
0003f0 92 1c 99 3e b7 a6 85 be c1 06 a6 3d 33 5c ce 3c
       0.2990461 -0.26103756 0.08106757 0.025190448

network_body._body_endoder.seq_layers.0.bias f4 [128]
000000 23 3d 28 bc db 30 b5 bd ec fc 1e be 61 e9 69 bc
       -0.010268482 -0.08847209 -0.1552617 -0.014276833
000010 ba c1 95 3d aa 8c c2 bd 89 e9 82 bd b4 38 c1 3b
       0.07312341 -0.09499486 -0.063921995 0.005896652
000020 a0 ce 8a bc c2 72 2d be 57 fb 8d bd 77 42 48 be
       -0.01694423 -0.16938308 -0.06932705 -0.19556604
000030 4f 10 e6 3b 4f 15 7b bd 06 08 05 bc a8 95 0f bd
       0.007020987 -0.06129962 -0.008119589 -0.035054833
000040 53 5f 2e be 86 b4 5f bd e9 81 da 3d 88 39 c0 3d
       -0.17028551 -0.05461552 0.1066931 0.09385973
000050 c9 e6 49 bd 40 f1 ce bb 2c 79 29 bc f4 c4 ee 3d
       -0.04929236 -0.0063153803 -0.010343831 0.116586596
000060 bf 4e a1 bc 9a ef dc bb 28 68 e9 3d e6 19 09 bd
       -0.01969087 -0.00674243 0.11396819 -0.033471964
000070 b9 b5 c3 be a5 4c 25 bd 47 0c 04 bb 88 68 80 be
       -0.3822458 -0.040356297 -0.002014892 -0.2507975
000080 dd 48 74 bd 11 5b 39 39 65 5c d2 3c 5f 4d 46 bb
       -0.0596398 0.000176769 0.025678823 -0.003025852
000090 7c c3 21 3d 88 6b 7f bd 42 1a 40 be 72 67 d1 bd
       0.03949307 -0.06235841 -0.18760017 -0.10224809
0000a0 53 84 63 be bb 0a 37 3d dd 29 50 bd f2 30 b1 3c
       -0.22218446 0.044687968 -0.050821174 0.021629784
0000b0 cc 4a de bc 72 1a f2 bc 14 f5 8a 3c 4c ed ab 3d
       -0.027135275 -0.029553626 0.016962565 0.0839487
0000c0 12 2e 82 3c 42 f3 ba 3c 02 e7 b7 3c dd 14 28 3d
       0.015891109 0.022821072 0.02244902 0.04103552
0000d0 0e e7 45 3c ab 99 d6 bd d1 1d 5a 3d 92 4d 38 bd
       0.0120790135 -0.104785286 0.05325109 -0.04499585
0000e0 ac 51 af bd fe 2f a8 bc 33 6f d8 3b 1e fe 2c be
       -0.085604995 -0.020530697 0.006605053 -0.16893813
0000f0 21 21 94 3a b9 9a 6f bd f1 84 9d 3c 2d 08 4e be
       0.0011301377 -0.058497164 0.01922843 -0.20120306
000100 2d 84 c8 bd e4 97 61 bd 97 21 3a 3c 6d 53 5b bb
       -0.097908355 -0.055076495 0.0113605475 -0.0033466474
000110 58 3a af bd 24 e5 50 bd 6a c1 58 bc c2 9d 01 bd
       -0.0855605 -0.050999776 -0.013229707 -0.03164459
000120 36 9e 81 be cb 05 1f be 73 79 2a bd 7d fa 74 bd
       -0.25316018 -0.15529554 -0.04161973 -0.059809197
000130 18 fe dd 3d a5 6e 25 bd 66 39 38 bc 04 86 eb 3b
       0.1083948 -0.040388722 -0.011244154 0.0071876068
000140 b9 52 32 3d 7b d7 25 3d 4a d7 29 bd 19 98 fc 3c
       0.04353592 0.0404887 -0.04146508 0.030834245
000150 f9 c2 77 3d 72 cc d4 bd e1 df 26 3c e2 5a a7 bd
       0.060488675 -0.10390557 0.010185213 -0.081716314
000160 33 97 52 bc e9 62 49 3c 45 3d 99 be 4f 91 b7 3c
       -0.0128534315 0.012291648 -0.29929557 0.022408156
000170 42 2c a7 3d 26 33 9e be e7 07 0f be f7 28 8d be
       0.081627384 -0.30898398 -0.13967858 -0.27570316
000180 a7 02 8b bd 0d 4f 52 bd c7 d9 2e 3c 47 56 38 bd
       -0.06787615 -0.05134492 0.010672039 -0.045004155
000190 89 f6 5f bd 14 54 2a bb fb 3f 2a 3d 6b e5 d4 bd
       -0.054678474 -0.0025990056 0.041564923 -0.103953205
0001a0 8b d9 3f 3d 4f f7 57 3c 52 ba 0e bd ef a3 56 bd
       0.046838325 0.013181522 -0.034845658 -0.052402433
0001b0 f2 9a 1b 3d 37 00 11 be f6 54 9f be 8c 2f 92 bd
       0.037989564 -0.14160238 -0.31119508 -0.07137975
0001c0 b8 e2 43 bc a3 e7 7f bd 45 45 71 3d 7f 46 0a 3d
       -0.011955909 -0.062476765 0.05890395 0.033758637
0001d0 fe b7 05 3d a0 87 8c bc 7f f2 d1 bd 6c f2 86 3d
       0.03264617 -0.017154515 -0.102513306 0.06589207
0001e0 5b 51 19 3d 40 4d 5f bd 2b ac ba bc 31 96 d8 3c
       0.037431102 -0.05451703 -0.022787174 0.026438804
0001f0 f5 b3 2b ba fb 9c 18 bd c3 fa 87 bc 04 33 0c 3b
       -0.0006549948 -0.037259083 -0.016599065 0.0021392712

network_body._body_endoder.seq_layers.2.weight f4 [128, 128]
000000 77 3c 96 be d9 e3 f3 3d 08 6a 70 be 36 4b 70 be
       -0.29343006 0.11908693 -0.23477948 -0.2346619
000010 ff 14 1c be 5a bc 14 3e 83 b7 98 bd ce eb 20 bd
       -0.15242384 0.14524975 -0.07456877 -0.03928738
000020 53 d7 a2 bb 82 08 2b 3e 5a a4 05 3d f1 8c a4 3e
       -0.0049695163 0.16702464 0.03262744 0.3213878
000030 08 3c a7 3e f1 49 5f 3e 29 d6 ab 3e 3d a1 d7 bd
       0.32662988 0.2180555 0.3356183 -0.10528801
000040 10 8a 90 3c a7 45 20 be 4f 6e d1 be 2a 0e 28 3e
       0.017643958 -0.1565157 -0.4090447 0.16411653
000050 2a 65 c3 3c 20 51 36 3e e7 78 1f be 90 d3 1d bf
       0.02385195 0.17804384 -0.15573464 -0.61650944
000060 9e 41 6f be 71 c9 85 bd d8 1b 14 be 89 66 40 3d
       -0.23364875 -0.065325625 -0.14463747 0.046972785
000070 73 38 a0 bd e0 22 84 3d 05 99 43 3e a1 f5 61 3d
       -0.07823267 0.064519644 0.19101341 0.05516589
000080 12 dc aa bd 17 19 cd be f1 7e 6d be 2c a7 0f be
       -0.08342756 -0.40058205 -0.23192956 -0.14028615
000090 a5 42 71 3e cb f2 04 bd 98 a5 97 3e b2 92 9c 3e
       0.23560579 -0.032458108 0.29618526 0.3058067
0000a0 d0 b4 02 bd 5b d3 9f be 3b 38 1f be 7f 81 90 3d
       -0.031910717 -0.3121594 -0.15548794 0.070559494
0000b0 ac c8 af be 88 4b 83 be f0 2f 69 be ef 26 69 bc
       -0.34332788 -0.25643563 -0.22772193 -0.014230474
0000c0 9a fa 34 be 1b 9f e4 be cf 9a e2 3c 0d 0e e2 bd
       -0.17673722 -0.44652638 0.02766171 -0.11037836
0000d0 b9 69 eb bc 8c b9 12 3e 58 81 14 3e fa 71 2a bd
       -0.028736936 0.14328593 0.14502466 -0.041612603
0000e0 a5 b5 c8 3e 1b 37 50 3e 20 3a 9f 3e 7c 82 d4 3d
       0.39201084 0.20333521 0.31099033 0.103764504
0000f0 3a 1b 9e be f8 7c 0d 3d 8c 46 dd be bd 24 65 3e
       -0.30880147 0.034543008 -0.43217885 0.22377296
000100 47 26 2c 3e dd 2c 6e 3e c8 7d 85 be 95 d3 d9 3e
       0.16811477 0.23259301 -0.26072526 0.42544237
000110 7d 08 62 3d 24 17 cf 3d ce 2e 4e 3e e3 66 19 3e
       0.055183876 0.101118356 0.20135042 0.14980654
000120 69 99 06 be 53 c9 a5 3e 75 95 88 3e 57 02 5c 3e
       -0.13144459 0.3238016 0.26676527 0.21485268
000130 73 f9 24 be 0e 8c 77 3d 0a 42 36 3d c3 19 f0 3c
       -0.16110782 0.0604363 0.044496574 0.02930916
000140 45 c7 77 bd 65 85 10 bd f4 f0 2e 3d 8a 06 74 bd
       -0.060492773 -0.035283465 0.04271026 -0.05957655
000150 55 da 1c be c0 c1 2a 3e f7 02 a5 be 33 ef e9 bd
       -0.15317662 0.16675472 -0.32228824 -0.11422577
000160 e7 75 7b 3e cc 31 dd 3e f9 c0 e0 bd e0 b7 ff 3c
       0.24556695 0.43202055 -0.109743066 0.031215608
000170 07 14 af 3e b8 9f f9 3d 6c 9f 05 be bb 92 01 3d
       0.34194967 0.12188667 -0.13049096 0.031634074
000180 6d 7d bb 3e 4e 94 24 3e ed 0a 8c be 35 fb 25 3e
       0.3661913 0.16072199 -0.27352086 0.16209109
000190 5d 48 4c be 6b 36 5b be 49 52 9e bd 10 26 fc bd
       -0.1994948 -0.21407478 -0.077305384 -0.12311947
0001a0 81 0c 80 be 09 8b 18 be a7 a1 f1 bc 44 aa 9f 3e
       -0.2500954 -0.14896788 -0.029496027 0.3118459
0001b0 b3 d8 9f 3c 37 52 05 3b f8 1e 88 bc 41 54 0e 3d
       0.01951251 0.0020343193 -0.01661633 0.03474832
0001c0 82 91 06 bf 02 7e 84 3e 2f 9a 92 be 12 c6 e2 3d
       -0.5256578 0.25877386 -0.28633258 0.11072935
0001d0 fd 6b c0 be 95 14 9e be b5 7b 8d 3d 6f f4 67 be
       -0.3758239 -0.30875078 0.06908361 -0.22651838
0001e0 0c 68 d8 be 3e 7f 87 3d 8c 4c 9d 3e e9 7d 18 3e
       -0.4226688 0.066160664 0.30722463 0.14891781
0001f0 8f a5 94 be 17 95 cb be 67 e0 51 3e ce 63 8d be
       -0.2903256 -0.39762184 0.20495759 -0.27615207
000200 bf e9 6c 3e c7 0c 63 bd 9e 5d 1e be 69 94 41 be
       0.23136042 -0.055432107 -0.154654 -0.1890427
000210 e7 05 9f be c4 52 91 bc e4 69 7d 3c 1e 26 e6 bd
       -0.3105919 -0.017739661 0.015467141 -0.11237739
000220 0b ed 8b be 91 e6 c7 3d 08 9e 87 bd 72 e1 2d 3e
       -0.27329287 0.09760774 -0.06621939 0.16980532
000230 6f 85 a7 bd 7f fd c5 3c 35 10 0a be 6b 77 6b 3d
       -0.08179747 0.024168728 -0.13482745 0.057486933
000240 0b 7b 25 bc 11 7a e8 3b 28 a6 03 bf 50 f3 42 3d
       -0.0101001365 0.0070946296 -0.5142541 0.047595322
000250 5e 1c f1 3c 98 1b f6 3d 2c 7b e0 be e5 8e d3 be
       0.029432472 0.12016982 -0.43843973 -0.41319957
000260 0d 31 af be 1c a0 cd 3d 78 7a 7c be c6 f0 5b be
       -0.3421711 0.10040304 -0.24656093 -0.21478567
000270 98 73 37 3d bf ec 8e bd be 50 e3 3d 2a 6a 60 3e
       0.044787973 -0.069787495 0.11099385 0.21915498
000280 ce 37 9e be 1a 11 21 3b 5d a0 41 be e9 0d ed bc
       -0.3090195 0.0024576844 -0.1890883 -0.028937297
000290 40 c6 5d bc 92 df 05 3e b6 22 aa 3d b1 7e 99 bd
       -0.013536036 0.13073567 0.08307402 -0.074948676
0002a0 64 54 aa bd 14 cf 94 bd 69 26 09 bd 35 70 36 bb
       -0.083168775 -0.072660595 -0.033483896 -0.0027837877
0002b0 b2 ac a7 be 14 8c a1 3d 8c 32 33 3e 70 76 c1 be
       -0.32748944 0.07888046 0.17499751 -0.37785673
0002c0 8b 43 d6 bd 9c 85 3a be 8a 8c 2f be bc 84 5a be
       -0.104621015 -0.1821503 -0.17143455 -0.21339697
0002d0 19 13 8f 3d 89 da 49 3e b1 11 15 3c c9 b7 91 be
       0.069860645 0.19712271 0.009098456 -0.2846053
0002e0 56 0f f7 bd fc 29 49 bd fd 05 1c 3c e9 05 44 3e
       -0.12063472 -0.049112305 0.009522912 0.1914288
0002f0 d9 a3 01 be e4 59 56 be 9c ea ce be 50 83 31 bd
       -0.12660159 -0.20932728 -0.40413368 -0.04333812
000300 c3 5c 65 bd a1 75 53 be 13 1d 54 be 16 fc 48 3e
       -0.055996668 -0.2065034 -0.20714216 0.19627413
000310 12 2c 0a 3c c7 70 94 bd dd 43 36 3e 2e 25 ae bd
       0.008433359 -0.07248073 0.17799325 -0.08503185
000320 47 63 3f be da e9 c5 bd b2 a7 3a bd 25 47 61 be
       -0.18690215 -0.09663744 -0.045570083 -0.21999796
000330 ac e2 ff be fc 81 36 be 20 cf 91 bd 1c c0 ec be
       -0.49977624 -0.17823023 -0.07119584 -0.46240318
000340 03 f3 76 be 04 ea da bd d1 88 3d be 0b 0b 00 be
       -0.24116139 -0.10689166 -0.18509223 -0.12504213
000350 ef a2 bf bd 55 b2 68 3d b4 c7 19 be 57 aa 2c be
       -0.09357249 0.056810696 -0.15017587 -0.16861854
000360 6c c8 66 bd 7f 45 9d 38 4d 5e 07 3d ef e6 1f be
       -0.05634348 7.499288e-05 0.033048917 -0.15615438
000370 f9 c7 17 3b a7 1a 3d 3d 2f b9 0e 3d c8 18 04 be
       0.0023159964 0.046167996 0.034844574 -0.12900078
000380 71 f0 82 bd 1c bd 5f bd 4a 78 2b bc ce d6 df 3d
       -0.06393517 -0.054623708 -0.010465691 0.109296426
000390 c3 ba 1e 3e 68 3b b0 bd 42 b8 16 bd 35 e9 80 3d
       0.15500931 -0.08605081 -0.036796816 0.06294481
0003a0 42 a9 b8 be 66 d6 58 be 59 1c c0 3c 39 38 83 be
       -0.36066633 -0.21175537 0.023451017 -0.25628832
0003b0 f6 d6 a0 3d 7f 51 91 be 55 cd 2a 3c 9b 31 76 be
       0.078535005 -0.2838249 0.0104249315 -0.2404236
0003c0 a9 99 e6 3d 65 62 49 bd 74 44 41 be 1a 1d ad bd
       0.11259777 -0.049166102 -0.18873769 -0.08452816
0003d0 91 d5 fe bd 1f e4 33 be 97 a2 27 bc 0f 1e b7 be
       -0.12443078 -0.1756749 -0.0102316355 -0.3576512
0003e0 71 0f 0a be 6f 50 6d be 79 0e 9b 3e cd 5a 85 be
       -0.13482453 -0.23175214 0.3028448 -0.26045838
0003f0 2c ae 4b be 26 42 10 be bc 13 62 be 01 16 58 bd
       -0.1989066 -0.14087734 -0.2207784 -0.05275536

network_body._body_endoder.seq_layers.2.bias f4 [128]
000000 d6 b1 57 be 4a 3e 30 be d3 b2 94 bd b6 1b b7 bd
       -0.21063933 -0.17211261 -0.072606705 -0.08940832
000010 c4 e9 a9 3c 8c 79 46 be eb 9d 88 bd 79 b2 02 be
       0.020741351 -0.19382304 -0.066707455 -0.12763394
000020 50 82 af bd 10 2b d0 3d a6 1c 6c bd ca cd ad bd
       -0.08569777 0.101644635 -0.05764451 -0.08486517
000030 2d 9d 74 3d 63 09 cc bc 1c b9 df 3a 48 e6 fc 3c
       0.059720207 -0.02490682 0.0017068717 0.030871525
000040 f4 79 2e be 82 d0 b7 bd dd fa 8f bc 54 81 10 3d
       -0.17038709 -0.089753166 -0.017575676 0.035279587
000050 c3 a3 24 be 02 fd 16 bc 24 3c a7 3c f6 36 33 bd
       -0.16078095 -0.009215595 0.02041442 -0.043753587
000060 19 7a 2f be bc 18 d2 bd 8d aa 26 be 94 c4 f4 bd
       -0.1713642 -0.10258624 -0.16275997 -0.11951557
000070 76 fd 23 bd 36 51 82 bc 5d b8 ef bd 58 d5 aa bd
       -0.04003664 -0.015907865 -0.117050864 -0.08341473
000080 fb ea 11 be d8 56 f5 bc 7c 96 12 be e0 77 83 be
       -0.14249794 -0.029948637 -0.14315218 -0.25677395
000090 02 8e 90 bd e9 88 c1 bc 87 da 3c be c1 fe c9 bd
       -0.07058336 -0.023624854 -0.18442737 -0.098630436
0000a0 e8 ad cc 3c 07 17 85 bd 61 15 86 be 76 89 46 be
       0.024985269 -0.06498533 -0.26188186 -0.19388375
0000b0 42 37 c1 3a c1 a6 af be 92 18 a6 3c 09 51 94 bd
       0.00147412 -0.3430691 0.020275388 -0.07242019
0000c0 57 1c 93 bd 2e c3 4f 3d 7b 6d c0 bc 54 5b d0 b8
       -0.0718314 0.050723247 -0.023489704 -9.935224e-05
0000d0 08 33 73 3d 1a 94 bb bd fc ae 99 be a3 b4 8d bd
       0.05937484 -0.091591075 -0.30016315 -0.06919219
0000e0 df 9e 45 be ab 54 b6 ba a4 69 91 bc 0a 7a 0f 3d
       -0.19298886 -0.0013910731 -0.017750569 0.035028495
0000f0 8b e7 90 3c df 0f 01 be eb 0e 9c 3d 11 ac e5 bd
       0.017688533 -0.1260371 0.07620033 -0.1121446
000100 55 70 97 3c 7d 06 54 be 92 09 da bd bf d2 5e ba
       0.018486181 -0.207056 -0.10646357 -0.00085000315
000110 69 2f 4d be 62 c2 48 be ac 9e 8c be 54 50 70 3d
       -0.20037617 -0.19605401 -0.27464807 0.058670357
000120 65 50 c8 bd 43 79 b4 bd a7 4f 27 be 20 ba e4 bb
       -0.09780959 -0.08812191 -0.16338979 -0.0069801956
000130 b3 e8 03 bd c2 a9 6f be 98 fc 02 3d 33 f1 80 be
       -0.03220434 -0.23404601 0.031979173 -0.2518402
000140 9a 35 1f be 50 e5 16 bd db e2 05 be 93 06 12 be
       -0.15547791 -0.036839783 -0.1307482 -0.1426032
000150 7c 5f 8f bd 3b 10 9d be 15 d3 e0 bd e3 38 09 3d
       -0.07000634 -0.30676445 -0.10977761 0.033501517
000160 c5 40 46 be d9 f5 86 be e0 69 0c bd 6c 87 86 3d
       -0.19360645 -0.26359442 -0.034280658 0.065687984
000170 0e 66 d7 bd 68 83 d5 be df 5b 92 bd ad 75 f0 be
       -0.10517512 -0.41701818 -0.07146429 -0.4696478
000180 1a b6 33 3d 9d 11 5d be e3 28 d0 bd 73 64 6d be
       0.043874837 -0.2158875 -0.101640485 -0.2318285
000190 32 1a e9 bd 7d f4 cc bd e3 1c 44 3c 17 b8 57 bd
       -0.113819495 -0.1000757 0.011969778 -0.052665796
0001a0 0f 2a 3f 3c d0 11 a6 bd d0 b8 f7 bd dd be 8c bd
       0.011667742 -0.08108866 -0.12095797 -0.06872342
0001b0 8a 88 01 bd f8 8e 5e bd dd bd 49 be 6c 7a 8c bd
       -0.031624354 -0.054335564 -0.19701333 -0.068592876
0001c0 8d a7 e6 bd 27 98 f1 bd 1a 76 e0 bd 06 0e d5 bd
       -0.112624265 -0.11796599 -0.10960026 -0.104030654
0001d0 81 4f 00 be 6d fb bc 3c ed 10 8e bc 90 76 d4 bd
       -0.12530328 0.023069108 -0.017342055 -0.103741765
0001e0 62 25 1c bd f0 ab 3b bd 2b 73 4b 3c 71 fc 51 bb
       -0.03812159 -0.04581827 0.012417595 -0.0032041336
0001f0 c1 eb 41 bd c9 42 b0 3d b2 00 32 3d 76 b7 65 3c
       -0.047343973 0.08606488 0.043457694 0.014020791

action_model._continuous_distribution.log_sigma f4 [1, 2]
000000 67 09 00 bf eb 74 11 bf
       -0.50014347 -0.5681903

action_model._continuous_distribution.mu.weight f4 [2, 128]
000000 7c 98 a0 3e 64 50 4b bd b2 cc ae 3d 22 71 17 3d
       0.31366336 -0.049637213 0.08535136 0.036973126
000010 e1 ff 04 bd 10 b4 75 3d f1 61 21 3d ff c5 83 3d
       -0.032470588 0.059986174 0.039400045 0.06434249
000020 4b 18 44 be 87 68 0d 3d f8 f1 ea 3d ed 4a 1d be
       -0.19149892 0.034523513 0.11471933 -0.15360613
000030 18 9b 89 bd 62 b8 22 be f6 7a f2 bd ab a4 e0 bd
       -0.06719035 -0.15890649 -0.11839859 -0.10968908
000040 34 48 e4 bd 1c 83 31 3c b2 77 23 be 4c 5c 1f 3e
       -0.11146584 0.010834482 -0.15963629 0.15562552
000050 4f 6c 7a 3e 4f a2 46 3d 61 c6 d9 bd 66 89 f7 bd
       0.24455379 0.048494633 -0.10633541 -0.120867535
000060 79 af 11 bc a8 af d4 bd 07 82 67 3d cc 2f 32 be
       -0.008891934 -0.10385066 0.056520488 -0.17401046
000070 42 49 cb bd a3 fe 36 be 38 f9 11 be 48 f7 36 be
       -0.09926082 -0.17870574 -0.14255226 -0.17867768
000080 85 06 9a bc bf 4e 22 3d 31 88 2a be 66 36 b4 bb
       -0.018801937 0.03962588 -0.16653515 -0.005499649
000090 4c 39 79 3d 89 de 49 3d c7 e8 4a be d1 a2 a9 3d
       0.06084566 0.04928449 -0.1981536 0.08283008
0000a0 ee 96 91 3d 58 a4 97 3d 09 24 55 3d 37 8e 15 be
       0.07108866 0.07404393 0.05203632 -0.14605032
0000b0 f9 e4 6a 3b 5c b3 b3 3c 8f f8 85 3e 05 00 f4 bd
       0.0035842045 0.021936111 0.26166198 -0.11914066
0000c0 78 78 06 3d bb 48 a2 bd 9c 89 e2 3d ea d6 88 bd
       0.03282973 -0.079240285 0.11061403 -0.066816166
0000d0 8f b2 23 be 83 7f f2 bd ba 7a aa 3d 9c e4 9e bd
       -0.15986083 -0.11840727 0.083241895 -0.077584475
0000e0 c6 0d f2 3c cb e2 83 3e 79 b7 14 be 85 92 3f 3b
       0.029547583 0.25758967 -0.14523114 0.002923162
0000f0 90 74 15 3e ba 81 c8 3d f4 63 88 3d 20 d5 a5 3c
       0.14595246 0.097903684 0.066596895 0.020243227
000100 60 a2 9e bb 44 91 4e 3d 5e d6 26 bd 78 33 22 3e
       -0.004841134 0.050431505 -0.04073178 0.15839946
000110 0c 89 00 3e f3 91 07 bd 91 f1 95 bd 1a 3f e5 3d
       0.12552279 -0.033098172 -0.07321466 0.11193676
000120 ec ef d6 3d eb 35 bf bd 7a e6 1a be 1f 56 63 be
       0.1049498 -0.09336456 -0.15126982 -0.22200821
000130 50 e7 e6 bd 7c 07 0c 3c 66 ae 12 be 27 15 d3 3d
       -0.11274588 0.008546706 -0.1432434 0.10306769
000140 a5 86 1c bd cf 9a e5 3d 17 ec d6 3d 48 4a 2b 3d
       -0.038214345 0.11211168 0.10494249 0.041818887
000150 ac f5 a3 3c 11 70 c3 bc 80 21 0d 3e 34 ed ea 3c
       0.020014606 -0.023857148 0.1378231 0.02867756
000160 74 9a 6b 3c e4 e9 e0 3d 9e 17 0c 3e 7e b8 23 ba
       0.014380086 0.10982111 0.13680884 -0.0006245448
000170 a5 bf 20 bd d3 cd 69 3d 7e a4 a2 3c 3c 42 b4 3c
       -0.039245266 0.057081055 0.019853827 0.02200424
000180 eb ea 51 bd ff d4 09 3e 6e 68 43 3d 38 05 41 3d
       -0.051249426 0.13460158 0.047707014 0.047124118
000190 df ca ee bd ed 15 a0 3c 0f ad 3f bd 77 52 90 bd
       -0.11659788 0.019541705 -0.0467959 -0.07046979
0001a0 46 4d b6 3c f8 7b 15 be 19 45 b5 bd 34 00 48 be
       0.022253644 -0.14598072 -0.0885107 -0.19531327
0001b0 63 80 6d bd 25 77 6f 3d 85 23 71 3d 51 bf fb 3c
       -0.057983767 0.058463234 0.058871765 0.030730875
0001c0 81 5b 11 3e 69 99 d1 bd 59 c0 2d bd 50 82 bd bd
       0.14195062 -0.10234339 -0.042419765 -0.09253371
0001d0 1c 16 5a bd 3f b8 f4 bc 8a 2d ba bd 25 22 46 3d
       -0.05324374 -0.029873012 -0.09090717 0.048372407
0001e0 5c ec b6 bc 7e 0d de 3d e2 42 0c be 4d cd dc bb
       -0.022329502 0.10842417 -0.13697389 -0.006738341
0001f0 ae db 3b bd 7e ab ca 3c e1 31 89 bd 49 25 61 3c
       -0.0458638 0.024739977 -0.06698967 0.0137418
000200 2a e1 97 bd 8a 79 9e 3d d0 e0 a3 3d b0 7a 10 3d
       -0.074159935 0.077380255 0.08001864 0.035273254
000210 fe 79 12 3e 1a 14 07 bd 79 df d3 3d 83 03 a2 bd
       0.14304349 -0.032978155 0.103453584 -0.07910826
000220 a9 32 83 3d 06 53 34 3e 0b 50 dc bd 0c 35 b2 3d
       0.06406147 0.17609796 -0.107574545 0.08701524
000230 71 6d 62 bd 14 6c 1d 3e bb 2a 2d 3e af d2 c9 bd
       -0.055280153 0.1537326 0.16910832 -0.09854638
000240 80 02 bc bd c8 eb 7a 3d 4d 53 e6 3d 2d ab da 3c
       -0.09180164 0.061260015 0.11246357 0.026692951
000250 2c cf 8b bd be 7e 00 be 35 2e cd 3c a1 bd 61 3d
       -0.06826624 -0.12548348 0.025046447 0.055112485
000260 95 7d 93 3d 71 f0 60 be 1d 78 99 bd e0 a3 19 be
       0.07201687 -0.21966721 -0.07493613 -0.1500392
000270 ed 9d 6a be 9f e4 3a 3e 49 a0 62 3d d8 10 b3 3d
       -0.22911806 0.18251275 0.05532864 0.08743447
000280 c2 56 3e be bf 80 b3 3d f0 e8 40 3d 92 e4 c1 bd
       -0.18587783 0.08764791 0.047097147 -0.094674245
000290 db b4 0d 3e 0a ca f9 bd 79 a6 8f 3d 83 5f 23 3e
       0.13838522 -0.12196739 0.07014174 0.15954404
0002a0 5f 1a 15 be 0e 38 c3 bc 25 38 4f bd a3 b3 aa bc
       -0.14560841 -0.02383044 -0.050590653 -0.02083761
0002b0 6d 5b b9 3d ad c6 9f 3d 18 ac 47 bd f3 f7 af bd
       0.09050641 0.07801566 -0.048748106 -0.085922144
0002c0 a9 8c 05 be 49 30 00 3e 64 f8 a4 bd 96 fe f9 3d
       -0.13041939 0.1251842 -0.08055189 0.122067615
0002d0 17 0c cf bd 35 f0 d3 3d 5f df 3e bd f4 9e d1 bc
       -0.10109728 0.1034855 -0.046599742 -0.02558849
0002e0 f6 46 6a bc e1 66 b3 3a fb ef 0c 3e 5f 97 28 3e
       -0.014299145 0.0013687277 0.1376342 0.16463993
0002f0 94 2b 87 bc 89 31 d3 3c 60 21 50 3e fa 76 58 3d
       -0.016500272 0.025780456 0.20325232 0.05284784
000300 ee 08 d5 3d 22 1c 8c bc 84 86 33 3c 83 b1 aa bd
       0.10402094 -0.017103259 0.010957364 -0.08334639
000310 ee f4 d5 3c dd 0d 9c bb c2 25 9c bd ca 89 80 be
       0.026117768 -0.004762395 -0.07624389 -0.25105125
000320 3c 81 0d 3e 90 50 25 bd be 2e b9 bd 3f 2b 73 bd
       0.1381883 -0.040360034 -0.090421185 -0.059367415
000330 da 61 d8 3d f8 93 30 bc e3 52 2f 3e e3 64 c1 ba
       0.10565539 -0.010777466 0.17121463 -0.0014754798
000340 40 f5 cc 3d 0f 0a e1 bb b1 b7 4a bd d7 e3 51 bd
       0.10007715 -0.006867654 -0.049491588 -0.051242676
000350 51 a5 d9 bd e5 1e c1 3d d9 68 79 bd 12 89 1a 3e
       -0.10627235 0.09429721 -0.060891006 0.1509135
000360 8f c4 4e 3d 3b 94 9a 3c c3 2a 2c bd 6a 06 22 3e
       0.05048042 0.01886951 -0.04203297 0.1582276
000370 fa 55 84 3d dd af 69 3a 3a d7 ac bd 85 a2 a5 b8
       0.06461711 0.00089144503 -0.08439489 -7.898085e-05
000380 9d 66 e0 bd 9c ab b3 3d 7e 75 73 bc 31 2b 9a 3c
       -0.10957072 0.08772966 -0.014859555 0.018819423
000390 4f 1f 07 be 9b 82 b2 3c 92 87 43 bd 29 42 8a 3d
       -0.13195537 0.021790793 -0.04773671 0.067509
0003a0 cd df f9 3d ae 0e 19 bd ee 83 a5 3d 0e 9f 21 3d
       0.1220089 -0.037367515 0.08081804 0.039458327
0003b0 fa ba 0e 3e df 0e 17 be 0b 97 94 3b 80 0e e1 3d
       0.13938513 -0.14751767 0.0045346073 0.10989094
0003c0 a6 fb ab bc 68 cd b6 3c 05 96 5b be 2f 61 b6 3d
       -0.020994019 0.022314742 -0.21443947 0.08905255
0003d0 07 51 97 bb 63 bd a5 3d ae 59 29 3e a4 1a 8e bd
       -0.0046178135 0.08092763 0.16538116 -0.06938675
0003e0 0a f5 b3 3d 12 d2 01 3e ef aa 0f 3e eb ff fa bd
       0.08786972 0.12677792 0.1403005 -0.12255844
0003f0 00 28 be 3d 19 b1 52 3e 7d ba f3 3d 54 48 15 3e
       0.09284973 0.2057537 0.11900804 0.14578372

action_model._continuous_distribution.mu.bias f4 [2]
000000 84 fd 5f 3d 05 d1 01 bd
       0.05468513 -0.031693477
