Assets/ML-Agents/results/sc34/SimpleCollector/SimpleCollector-59174.pt (torch, 635854 bytes, 46 tensors)

discrete_act_size_vector f4 [1, 3]
3.0 3.0 2.0
00000000: 0000 4040 0000 4040 0000 0040

network_body._body_endoder.seq_layers.0.weight f4 [128, 65]
0.17297505 -0.2400114 -0.2140537 0.059162453 0.17039444 0.44948733 -0.25437307 -0.07861563
0.094539955 0.10730108 0.45841187 -0.017501783 -0.17966066 0.01862163 -0.069495216 0.109837525
0.11886987 -0.054284845 0.08503883 0.0007830394 0.116651915 -0.0077939783 0.09665096 0.005272441
0.06634537 0.10867527 0.07033066 -0.11169274 -0.25889438 -0.044559393 -0.0387822 0.08740902
0.0500589 0.16977753 0.18670362 -0.20693955 0.05117031 0.1110278 0.21399899 0.11470602
0.12175732 -0.17869449 0.048422977 0.10856424 0.20513588 -0.082923405 0.12190384 0.04465789
-0.049577817 0.09984852 0.013673142 0.06941654 -0.23406133 0.23140253 0.13242862 0.14410101
-0.056609068 -0.05676169 -0.1357406 0.12326994 0.1198088 -0.12937376 0.112911284 0.06982551
-0.026537808 -0.15801378 0.18717596 -0.18262495 0.037757546 0.1641756 -0.15457794 -0.008960193
-0.050163493 0.10457015 -0.15872458 0.13152325 0.088635564 0.12615325 0.11019828 -0.06196963
-0.09790488 -0.009512351 0.13798343 0.12818421 -0.18665607 0.095756955 0.04192575 0.14200395
0.008599807 0.42069566 0.054950368 -0.20426013 -0.02395519 -0.030698292 0.028426342 -0.109000385
0.09045486 0.029020732 0.05097195 0.13654824 0.0069364165 -0.07635908 0.058286373 0.16223793
0.15694937 -0.024601702 -0.09126486 0.10160453 -0.14379628 -0.10164453 0.09468753 0.15521652
-0.05818435 0.15717007 -0.056780405 -0.02337029 -0.19303891 0.0950853 0.044906378 -0.01467992
0.18194139 0.07516799 0.018673886 0.22564577 0.18195248 0.06973115 -0.26747254 -0.108550906
-0.0722568 -0.100852124 0.17192161 -0.20467634 0.007034785 0.10021453 0.09259276 0.276267
-0.031307798 -0.14555672 -0.1045429 0.042050496 0.026636185 0.12414062 -0.11243134 -0.026466087
0.08097057 0.07120441 -0.008546483 0.048149258 0.08495659 0.11664258 -0.059458666 0.10206776
-0.061300423 -0.21566702 -0.121160775 -0.11785812 -0.050005022 0.12653133 0.1521771 0.036540058
-0.024853295 0.11675574 0.07625396 0.027325729 -0.04999876 -0.05335013 -0.081797265 -0.08985441
-0.082027495 0.07488414 0.14934811 0.08542127 -0.13483253 -0.3212961 -0.0033072713 -0.097509876
-0.034775496 0.036968444 -0.008985436 -0.16976985 -0.049885474 -0.10634755 0.12013439 -0.047262017
-0.12307035 -0.24169755 0.3223443 -0.19935626 -0.11659854 -0.10525169 0.07065181 0.11455935
0.14655732 0.16322254 0.016718436 0.14471683 -0.00124853 -0.03438921 0.122768566 -0.1100889
-0.047565434 0.101060376 0.017657215 -0.13502987 0.09542547 -0.1061784 -0.054739572 -0.09504721
0.005077786 -0.060676966 -0.08530366 0.12969953 0.16420138 0.082627155 0.010757309 0.3290029
0.0011688917 0.036642402 0.11886748 0.107477464 -0.074971035 0.2718906 0.020140802 -0.06440042
-0.036596533 0.14200369 -0.1856524 0.09189491 -0.00015336054 0.25304255 -0.041095648 0.10151898
0.02619837 0.08157069 0.105306 0.056744892 -0.17274265 -0.3101421 0.341898 -0.07865733
-0.08839391 0.09947828 0.008966649 -0.27503505 -0.34356493 0.014691705 -0.06290035 0.081148386
-0.014068362 0.074462086 -0.044236686 0.08833191 -0.03666551 -0.018157644 0.08771542 -0.008120924
00000000: 5f20 313e 8cc5 75be e530 5bbe 5454 723d
00000010: e17b 2e3e 3423 e63e 303d 82be 3b01 a1bd
00000020: 2a9e c13d abc0 db3d f6b4 ea3e e65f 8fbc
00000030: f7f8 37be 638c 983c 8253 8ebd 7ff2 e03d
00000040: 0c72 f33d c959 5ebd d728 ae3d e244 4d3a
00000050: 33e7 ee3d a164 ffbb f0f0 c53d 71c4 ac3b
00000060: 15e0 873d 2491 de3d 8509 903d 2abf e4bd
00000070: ce8d 84be e983 36bd 16da 1ebd 8003 b33d
00000080: 900a 4d3d 29da 2d3e 3c2f 3f3e f6e7 53be
00000090: f597 513d 8b62 e33d 8d22 5b3e fdea ea3d
000000a0: e75b f93d b0fb 36be 2c57 463d ee56 de3d
000000b0: 240f 523e bfd3 a9bd b8a8 f93d 31eb 363d
000000c0: 1c12 4bbd 617d cc3d 5005 603c 422a 8e3d
000000d0: c6ad 6fbe c9f4 6c3e 5e9b 073e 378f 133e
000000e0: e9de 67bd f27e 68bd 95ff 0abe f374 fc3d
000000f0: 515e f53d 8e7a 04be 083e e73d ad00 8f3d
00000100: d165 d9bc 5dce 21be 0eab 3f3e 0902 3bbe
00000110: a8a7 1a3d a61d 283e ae49 1ebe c6cd 12bc
00000120: 3c78 4dbd e028 d63d b288 22be 08ae 063e
00000130: 9086 b53d 512e 013e a3af e13d ded3 7dbd
00000140: 5b82 c8bd b1d9 1bbc 874b 0d3e b942 033e
00000150: c522 3fbe 391c c43d 56ba 2b3d 7c69 113e
00000160: 34e6 0c3c 6c65 d73e a313 613d 9129 51be
00000170: ad3d c4bc fc7a fbbc 5cde e83c 983b dfbd
00000180: 6640 b93d e3bc ed3c f7c7 503d 4dd3 0b3e
00000190: e14a e33b 2662 9cbd b1bd 6e3d b321 263e
000001a0: 56b7 203e 8289 c9bc 12e9 babd 0916 d03d
000001b0: 553f 13be 022b d0bd 89eb c13d 14f1 1e3e
000001c0: b752 6ebd 31f1 203e 9292 68bd 0d73 bfbc
000001d0: feab 45be 15bc c23d c0ef 373d 0c84 70bc
000001e0: d84e 3a3e adf1 993d faf9 983c af0f 673e
000001f0: c051 3a3e 35cf 8e3d 29f2 88be f04f debd
00000200: 60fb 93bd 8f8b cebd 380c 303e ad96 51be
00000210: 0e84 e63b 473d cd3d 46a1 bd3d de72 8d3e
00000220: 9b3c 00bd d20c 15be 971a d6bd 243d 2c3d
00000230: 2134 da3c 703d fe3d 6742 e6bd 68cf d8bc
00000240: e6d3 a53d 9ed3 913d 8c06 0cbc 2838 453d
00000250: b8fd ad3d 4ee2 ee3d ee8a 73bd e708 d13d
00000260: 2716 7bbd d1d7 5cbe 2423 f8bd 995f f1bd
00000270: 11d2 4cbd 6e91 013e 50d4 1b3e 07ab 153d
00000280: 2399 cbbc a21d ef3d 092b 9c3d 35da df3c
00000290: 80cb 4cbd aa85 5abd 5385 a7bd 9705 b8bd
000002a0: 08fe a7bd db5c 993d b6ee 183e 59f1 ae3d
000002b0: 8a11 0abe ec80 a4be cebe 58bb 42b3 c7bd
000002c0: c070 0ebd 396c 173d a637 13bc 26d8 2dbe
000002d0: b654 4cbd bfcc d9bd 0509 f63d d195 41bd
000002e0: 4f0c fcbd 907f 77be 500a a53e 0c24 4cbe
000002f0: 37cb eebd 338e d7bd e5b1 903d 189e ea3d
00000300: 1f13 163e cf23 273e 1af5 883c a630 143e
00000310: b7a5 a3ba b3db 0cbd 166e fb3d 4a76 e1bd
00000320: f9d3 42bd bef8 ce3d dda5 903c 4545 0abe
00000330: 6e6e c33d 1074 d9bd 9a36 60bd 1da8 c2bd
00000340: 8e63 a63b 6988 78bd afb3 aebd f4cf 043e
00000350: 6824 283e 6d38 a93d 6d3f 303c 1173 a83e
00000360: 7f35 993a 5816 163d cb70 f33d 251d dc3d
00000370: 6a8a 99bd 3f35 8b3e 53fe a43c 5ee4 83bd
00000380: 3fe6 15bd 6a69 113e aa1b 3ebe 6633 bc3d
00000390: 68cf 20b9 cb8e 813e e953 28bd 2fe9 cf3d
000003a0: f79d d63c 890e a73d acaa d73d 556d 683d
000003b0: 73e3 30be f2ca 9ebe 410d af3e 1817 a1bd
000003c0: de07 b5bd 45bb cb3d dae8 123c 65d1 8cbe
000003d0: bee7 afbe 7ab5 703c e6d1 80bd 2031 a63d
000003e0: fd7e 66bc 947f 983d 8731 35bd 5ce7 b43d
000003f0: 932e 16bd 57bf 94bc 24a4 b33d a00d 05bc

network_body._body_endoder.seq_layers.0.bias f4 [128]
0.08113455 0.017995493 0.000923276 0.026419448 -0.019635621 0.036211215 0.04047832 0.034435306
0.049052738 0.01578074 0.0019406439 0.025649332 -0.027973104 -0.0052889474 -0.0014236768 0.006408099
0.035753533 0.020307934 0.01600612 -0.051382788 0.015258431 0.04714606 0.025151825 0.012449544
0.014440805 0.059256393 0.020883748 -0.0077208034 0.019755386 -0.03225893 -0.0042634606 -0.014757935
0.028626049 -0.013550868 0.020628626 -0.015452991 0.032955147 0.051904775 0.026053546 -0.019881824
0.056629676 0.0037297655 0.023910398 0.006816073 -0.001984076 0.0057552466 0.015497477 0.017783884
0.03644678 0.024135439 0.01544588 -0.0060063275 0.0082610175 0.019564202 0.0046437304 0.028719727
0.00565851 0.017592086 0.024538642 0.02591135 0.059171148 0.040178012 0.022372358 0.013176145
0.016651697 0.04595031 -0.0024869738 0.008253766 0.05619223 0.031561416 0.04462452 0.02882643
0.03480648 0.028542655 0.030938312 0.027809069 -0.021729294 -0.0029219126 0.025148608 -0.014993623
0.0040964773 0.05773262 0.020971114 0.026875775 -0.012735864 0.02007935 0.007578748 0.008075796
0.043054197 0.014372716 0.0264168 0.041899044 0.020622794 0.013137307 0.03021282 0.04245959
0.013107312 0.04368348 0.018081747 0.0221856 -0.03409258 0.01796105 0.0013591128 -0.020073399
0.00442458 0.026080715 0.026895514 0.04246469 -0.011804537 -0.031720955 0.010026087 0.016344303
0.038112637 0.021298254 0.054725327 0.04787135 0.043418165 0.03248184 0.029450582 -0.0031903295
-0.00027344524 0.027904216 0.014059037 0.025600282 -0.04359521 0.004665767 0.008340878 0.0325579
00000000: df29 a63d 496b 933c 0108 723a 996d d83c
00000010: e2da a0bc 3652 143d 98cc 253d 090c 0d3d
00000020: 86eb 483d 9c46 813c 345d fe3a 8c1e d23c
00000030: da27 e5bc e84e adbb ab9a baba 08fb d13b
00000040: 4c72 123d d35c a63c 441f 833c c276 52bd
00000050: 80fe 793c 3a1c 413d 330b ce3c 2cf9 4b3c
00000060: 2099 6c3c d5b6 723d 6514 ab3c cbfe fcbb
00000070: 0cd6 a13c f121 04bd 80b4 8bbb 44cb 71bc
00000080: 2d81 ea3c 7604 5ebc 5dfd a83c 8b2e 7dbc
00000090: fafb 063d 1a9a 543d 3f6e d53c 35df a2bc
000000a0: 85f4 673d 156f 743b bddf c33c 5d59 df3b
000000b0: 4607 02bb 8296 bc3b 21e9 7d3c 82af 913c
000000c0: 3849 153d afb7 c53c b710 7d3c bad0 c4bb
000000d0: 3859 073c 1b45 a03c 6f2a 983b a245 eb3c
000000e0: 066b b93b 471d 903c 4305 c93c 0a44 d43c
000000f0: 725d 723d b391 243d 3c46 b73c c2e0 573c
00000100: 2469 883c 6436 3c3d 7ffc 22bb ce3a 073c
00000110: d329 663d 8b46 013d 33c8 363d 6825 ec3c
00000120: 3d91 0e3d 49d2 e93c 5872 fd3c d8cf e33c
00000130: a201 b2bc 8f7d 3fbb 7404 ce3c d0a7 75bc
00000140: be3b 863b 0a79 6c3d 9dcb ab3c 962a dc3c
00000150: 16aa 50bc 737d a43c 2557 f83b 5850 043c
00000160: 9959 303d 8a7b 6b3c 0c68 d83c 559e 2b3d
00000170: 22f1 a83c dc3d 573c e080 f73c 1bea 2d3d
00000180: 0dc0 563c 73ed 323d 2c20 943c 93be b53c
00000190: a9a4 0bbd 0d23 933c 4224 b23a f870 a4bc
000001a0: 11fc 903b 39a7 d53c fb53 dc3c 74ef 2d3d
000001b0: d167 41bc d5ed 01bd 7544 243c 7de4 853c
000001c0: ff1b 1c3d ad79 ae3c aa27 603d c014 443d
000001d0: 3fd7 313d ae0b 053d 5942 f13c d914 51bb
000001e0: 335d 8fb9 6297 e43c e057 663c afb7 d13c
000001f0: e490 32bd 4ae3 983b 2ea8 083c 6f5b 053d

network_body._body_endoder.seq_layers.2.weight f4 [128, 128]
-0.13742162 0.15795091 -0.11839166 0.022516131 0.028526604 0.21881516 -0.029196283 -0.0925044
0.009937345 -0.06781919 -0.18095194 -0.10556618 0.010597841 -0.16334537 0.18996885 0.16366355
0.12162997 0.19743904 0.11555836 0.06901516 0.16514811 0.021129323 -0.04882602 -0.01744234
-0.112895705 -0.047932383 -0.037481293 -0.013026433 0.0012580485 -0.117043704 0.15303783 0.23285787
0.24060152 -0.03524938 0.012445009 -0.032003317 -0.014954537 0.06946926 0.005050294 -0.074727476
-0.015366974 0.044651706 0.08943479 -0.057449896 0.091696545 0.23853083 -0.11748432 -0.15476273
-0.09469268 0.10702652 0.0457107 0.08260499 -0.12489875 -0.16590619 0.08882189 0.022475796
-0.11768283 -0.11463832 -0.27989227 -0.007932367 -0.18438518 -0.13467361 -0.013966051 -0.106858365
0.008553352 0.07821692 -0.039214015 -0.05518465 -0.043601464 -0.01125481 -0.027404858 -0.03587964
-0.11083178 -0.20884676 0.008147513 -0.007594912 0.012432012 0.041770495 -0.09442422 0.082355894
0.16572133 0.14417747 -0.028065238 -0.068325594 -0.098101415 -0.037709497 0.0032843545 -0.048558954
-0.0053795027 0.18125673 0.13313152 -0.03127765 0.1319822 0.04559525 0.07151809 -0.0723675
0.14479288 -0.053083718 -0.23510042 0.13021815 0.17117886 -0.07730529 0.09692669 0.0060863495
0.0063366704 0.024963044 -0.056306746 -0.056392737 0.07276091 0.09555226 -0.11899986 -0.021813946
-0.14059097 -0.08348422 -0.21324947 -0.092336796 0.10739358 0.030787516 -0.12066981 -0.13233027
-0.014040358 0.027585328 0.003162475 -0.1994361 -0.13017625 0.0895424 0.08868682 0.006325332
-0.06361952 -0.060269017 -0.09088184 -0.04144245 0.15174286 0.15918633 0.07847145 0.0345709
-0.11412795 0.16068381 -0.08224501 0.06216867 -0.03306665 -0.08789716 -0.043080844 0.13984069
0.06436764 0.02254701 -0.16210404 -0.027309261 -0.086050585 0.015362564 -0.082433134 -0.040357646
0.04275359 0.04333184 0.06344739 0.0817168 0.117566355 -0.09414421 -0.16224144 -0.018109927
0.101888716 -0.022651449 0.11361201 0.12881318 -0.19967477 0.014072617 0.013746192 -0.04477204
0.14279664 -0.097960785 0.019108735 0.024005806 -0.11348461 0.02248595 0.23125578 0.11069
0.038195368 -0.00163322 0.16033544 -0.013189345 0.09500153 -0.013091031 0.04376188 0.053628676
0.13145441 0.11582052 -0.015543211 -0.0404649 0.023600403 0.13415939 0.16280314 -0.015821502
0.015374352 -0.022496661 0.16790181 0.01418403 -0.100385375 0.033625502 -0.06615799 0.14646685
0.02738953 -0.1613521 0.058586534 0.004222405 0.058006626 0.035431255 -0.02553485 0.057508063
-0.121048085 -0.00072503975 -0.19761302 0.0809746 0.16854875 -0.1377715 -0.07153002 -0.20406966
-0.043274872 0.013051628 -0.109240845 -0.12476975 0.00456313 0.033192374 0.11740261 0.079489656
-0.07031381 0.028980814 -0.11186193 -0.14447391 -0.17866993 -0.0569706 -0.11563381 -0.13988884
-0.013594526 0.05555016 0.065304406 0.10066491 -0.023482371 -0.109381676 0.020156596 0.054889597
0.11407703 0.075020224 -0.1421928 0.2373449 -0.23142037 -0.150163 -0.1505515 0.047624342
-0.016375717 0.004931283 0.09202702 -0.00810626 0.17002068 0.1534355 -0.09195633 -0.0520246
00000000: 41b8 0cbe e2bd 213e 5477 f2bd c073 b83c
00000010: a0b0 e93c 1511 603e 0b2d efbc f272 bdbd
00000020: 3fd0 223c cae4 8abd 774b 39be 1533 d8bd
00000030: 91a2 2d3c 0244 27be 3287 423e 6b97 273e
00000040: 2219 f93d 762d 4a3e dda9 ec3d d257 8d3d
00000050: 961c 293e 6717 ad3c cbfd 47bd 3de3 8ebc
00000060: dd35 e7bd bf54 44bd fc85 19bd d26c 55bc
00000070: 1ae5 a43a 9cb4 efbd f3b5 1c3e 4b72 6e3e
00000080: 3f60 763e a761 10bd 27e6 4b3c e915 03bd
00000090: e003 75bc e645 8e3d f07c a53b b80a 99bd
000000a0: c3c5 7bbc b5e4 363d 9629 b73d 9550 6bbd
000000b0: 66cb bb3d 6d41 743e 9f9b f0bd 1f7a 1ebe
000000c0: 3cee c1bd b830 db3d 253b 3b3d ce2c a93d
000000d0: eaca ffbd 50e3 29be 40e8 b53d 291f b83c
000000e0: b203 f1bd 7fc7 eabd 0a4e 8fbe c2f6 01bc
000000f0: 78cf 3cbe e1e7 09be ddd1 64bc 8fd8 dabd
00000100: 5c23 0c3c 3130 a03d e09e 20bd 4d09 62bd
00000110: 7397 32bd 1866 38bc 2780 e0bc 88f6 12bd
00000120: c6fb e2bd eddb 55be 257d 053c bdde f8bb
00000130: a3af 4b3c 8a17 2b3d 7c61 c1bd 35aa a83d
00000140: dab2 293e 42a3 133e 12e9 e5bc 4aee 8bbd
00000150: 65e9 c8bd 4675 1abd 533e 573b c1e5 46bd
00000160: 8a46 b0bb 5d9b 393e a153 083e fe1c 00bd
00000170: 5826 073e 16c2 3a3d 1478 923d 6935 94bd
00000180: 9644 143e 506e 59bd 2abe 70be e857 053e
00000190: 8349 2f3e 3c52 9ebd 8081 c63d 0070 c73b
000001a0: d8a3 cf3b 4c7f cc3c e7a1 66bd 12fc 66bd
000001b0: ac03 953d e7b0 c33d 33b6 f3bd 29b3 b2bc
000001c0: 14f7 0fbe c6f9 aabd 125e 5abe 131b bdbd
000001d0: 2af1 db3d 1a36 fc3c bc21 f7bd 9681 07be
000001e0: 8809 66bc a0fa e13c 8741 4f3b fa38 4cbe
000001f0: ec4c 05be 0162 b73d 6fa1 b53d bb44 cf3b
00000200: f34a 82bd a5dc 76bd 4220 babd 8fbf 29bd
00000210: 7b62 1b3e be01 233e a4b5 a03d 379a 0d3d
00000220: eabb e9bd 4c8a 243e 1270 a8bd 93a4 7e3d
00000230: e570 07bd 6d03 b4bd 8a75 30bd 6632 0f3e
00000240: 2ed3 833d 82b4 b83c 9afe 25be acb7 dfbc
00000250: 4a3b b0bd 43b3 7b3c b4d2 a8bd 0f4e 25bd
00000260: 631e 2f3d ba7c 313d b5f0 813d 235b a73d
00000270: a1c6 f03d aece c0bd 9f22 26be 455b 94bc
00000280: 08ab d03d 888f b9bc 6aad e83d 9ae7 033e
00000290: 8b77 4cbe d590 663c b537 613c e362 37bd
000002a0: 4839 123e aa9f c8bd ec89 9c3c d3a7 c43c
000002b0: 9f6a e8bd 7434 b83c 51ce 6c3e 70b1 e23d
000002c0: bf72 1c3d c511 d6ba f92e 243e 1f18 58bc
000002d0: 2a90 c23d c47b 56bc a83f 333d bea9 5b3d
000002e0: fc9b 063e 4f33 ed3d f4a8 7ebc 86be 25bd
000002f0: a255 c13c 1461 093e deb5 263e 189c 81bc
00000300: b5e4 7b3c eb4a b8bc 74ee 2b3e 2264 683c
00000310: d996 cdbd e5ba 093d d77d 87bd 68fb 153e
00000320: 0260 e03c 7c39 25be 6ff8 6f3d 1a5c 8a3b
00000330: 5b98 6d3d 5d20 113d 762e d1bc 938d 6b3d
00000340: 0fe8 f7bd 9810 3eba 115b 4abe 03d6 a53d
00000350: 0b98 2c3e f913 0dbe 557e 92bd a3f7 50be
00000360: fe40 31bd 7fd6 553c aab9 dfbd 4887 ffbd
00000370: 4f86 953b baf4 073d c870 f03d 79cb a23d
00000380: b000 90bd 2c69 ed3c de17 e5bd f8f0 13be
00000390: 40f5 36be 015a 69bd 6bd1 ecbd 053f 0fbe
000003a0: 93bb 5ebc 9188 633d 51be 853d 6829 ce3d
000003b0: 1a5e c0bc 8003 e0bd 721f a53c ead3 603d
000003c0: 38a1 e93d 34a4 993d fd9a 11be 8b0a 733e
000003d0: 76f9 6cbe 54c4 19be 2c2a 1abe be11 433d
000003e0: 5e26 86bc 9a96 a13b aa78 bc3d 1ed0 04bc
000003f0: e719 2e3e 321e 1d3e 9a53 bcbd bf17 55bd

network_body._body_endoder.seq_layers.2.bias f4 [128]
0.040735077 0.027951058 0.02168989 0.0013107503 0.016405962 0.04016327 0.030607728 0.021778021
0.014728781 0.018466579 0.023531336 0.008548456 0.033284687 0.02133676 -0.01143518 0.043965347
0.029521829 0.03796157 0.04583198 0.022560824 0.03907432 -0.013477481 0.05254719 0.030527312
0.008940509 0.006848273 0.043052487 0.015407825 -0.011628675 0.006769259 0.03002837 0.011626342
0.042128373 -0.018784968 0.011503263 0.043261517 0.012399212 0.04717803 0.020916149 0.012453716
0.041651316 0.058826707 0.04969012 0.018886982 0.024159303 0.011753359 0.0023504298 0.034587327
0.002895529 0.06441858 0.04085184 -0.008146566 0.019942932 0.0075639067 0.028085357 -0.00022460539
-0.014547863 0.023572305 -0.029639972 0.0035337203 0.023497464 0.015086714 0.008772298 -0.0018838831
0.023838906 0.014352367 0.039464287 0.010650812 0.057485584 -0.0009991818 0.021382932 -0.0025168895
0.0011438895 0.034280986 0.021997565 0.038310945 -0.005935174 0.037060548 -0.007810937 0.007585226
0.011775278 0.045173943 0.02953646 -0.0038824752 0.034992673 0.0054275314 0.020403259 -0.030395169
0.0029216576 0.022780951 0.048617456 0.029008241 0.022316104 0.029864235 0.03869479 0.021053262
-0.0063019902 0.042907994 0.007458558 -0.007584321 0.013520717 0.055207163 0.04236726 0.0071452092
-0.0026157864 0.039240386 0.03435842 0.026114287 0.03094384 -0.005024816 0.026377779 0.0047220266
0.011623623 0.022431951 0.020904552 0.041470066 0.05185056 0.039907757 -0.0056805685 0.020463344
-0.0133397095 0.02065617 -0.00853189 0.039813712 -0.013727786 0.038939066 -0.011325645 0.00128435
00000000: d3d9 263d 9ef9 e43c ffae b13c 7bcd ab3a
00000010: cc65 863c 3e82 243d 0fbd fa3c d267 b23c
00000020: fc50 713c 3947 973c cac4 c03c d30e 0c3c
00000030: 8655 083d 6eca ae3c 9f5a 3bbc 0215 343d
00000040: c3d7 f13c 977d 1b3d 50ba 3b3d 7ad1 b83c
00000050: 650c 203d a7d0 5cbc b93b 573d 6a14 fa3c
00000060: 367b 123c 7a67 e03b ce57 303d 1a71 7c3c
00000070: 3386 3ebc a9d0 dd3b 0efe f53c 6a7c 3e3c
00000080: cd8e 2c3d efe2 99bc 2f78 3c3c fd32 313d
00000090: 1126 4b3c c03d 413d 5858 ab3c ac0a 4c3c
000000a0: 929a 2a3d 46f4 703d de87 4b3d dfb8 9a3c
000000b0: bbe9 c53c 2991 403c ab09 1a3b 71ab 0d3d
000000c0: eac2 3d3b e3ed 833d 4254 273d 2d79 05bc
000000d0: 5c5f a33c a6da f73b 4313 e63c 0d84 6bb9
000000e0: 295a 6ebc b51a c13c 87cf f2bc fd95 673b
000000f0: c17d c03c 442e 773c afb9 0f3c a1ec f6ba
00000100: cf49 c33c 3126 6b3c 4ea5 213d be80 2e3c
00000110: 0176 6b3d faf6 82ba 422b af3c 66f2 24bb
00000120: 90ee 953a 386a 0c3d 3d34 b43c f0eb 1c3d
00000130: d97b c2bb cdcc 173d e3f2 ffbb 7d8d f83b
00000140: 18ed 403c 5008 393d 72f6 f13c 2071 7ebb
00000150: 7a54 0f3d 6fd9 b13b bc24 a73c 4aff f8bc
00000160: 4879 3f3b 1e9f ba3c 1923 473d b1a2 ed3c
00000170: 43d0 b63c d7a5 f43c 6e7e 1e3d e477 ac3c
00000180: ed80 cebb 4bc0 2f3d eb66 f43b e585 f8bb
00000190: ff85 5d3c e820 623d 4b89 2d3d 5c22 ea3b
000001a0: 9d6d 2bbb 87ba 203d 6abb 0c3d a1ed d53c
000001b0: f07d fd3c 36a7 a4bb 3616 d83c 3bbb 9a3b
000001c0: 0271 3e3c 36c3 b73c 0640 ab3c 84dc 293d
000001d0: 4161 543d 5176 233d 1024 babb bea2 a73c
000001e0: cc8e 5abc 2137 a93c 57c9 0bbc b413 233d
000001f0: 82ea 60bc 927e 1f3d 338f 39bc a257 a83a

action_model._discrete_distribution.branches.0.weight f4 [3, 128]
0.07209779 -0.00057666283 -0.0845489 0.023718065 -0.09188807 -0.07788104 -0.04752188 -0.020935398
0.078402966 0.017705549 -0.026446471 0.0070383777 -0.0098926965 -0.027638953 -0.029500742 0.011706602
0.027540702 0.026122322 -0.014865427 -0.09411926 0.028981874 -0.03928281 0.03618601 0.018902741
-0.0021326158 -0.057538047 0.028504904 -0.02647929 -0.04026617 -0.08352991 0.025166487 -0.03922469
-0.11915305 -0.046015657 -0.033003327 0.04951793 0.0026099128 0.03821706 0.050594818 -0.029507129
-0.031641275 0.033104338 0.041888822 0.09075303 -0.0057681734 0.009304379 -0.039195035 -0.063297465
0.003572517 0.0129981255 -0.025168218 0.04278649 -0.0019588228 0.03614494 -0.083354264 0.020547919
-0.042272657 0.044668734 0.012989143 0.08369753 0.046006322 -0.01328599 0.026715267 -0.07256973
-0.04735187 -0.0042158253 -0.02142583 0.098147444 -0.00070438336 -0.037777066 0.009671314 -0.028954847
-0.0062346943 -0.01630474 -0.022622868 -0.0063010035 -0.048092026 -0.04457118 0.015745861 -0.027707653
-0.014900123 0.008127608 0.011378328 -0.0559356 -0.03243518 0.060531843 -0.02832835 0.0075847367
-0.009136386 0.007894754 -0.1069272 0.0027180926 -0.04847158 0.02631649 0.03747259 -0.009257418
-0.043000393 0.018947765 -0.028238615 -0.050621975 -0.0566963 -0.031665146 -0.01394796 -0.07955978
0.0136337485 0.034804825 0.012512444 0.07915049 -0.007873956 0.07764548 -0.0072959024 0.06788837
-0.012155027 -0.017716167 0.018175233 -0.0048274687 -0.10144845 0.012669036 -0.06475113 0.02901695
0.007566127 -0.03206609 -0.08349074 -0.026569035 0.013739329 0.05248461 0.032762323 -0.03065948
-0.02869796 0.04650699 -0.0071433317 -0.0045063104 0.052590907 0.03689817 0.07270919 0.0590939
-0.07173186 -0.06272766 0.05584719 -0.069031715 0.06251483 0.033106737 -0.0226132 -0.12103077
-0.07813409 0.006214966 0.007964479 0.028766828 0.044229154 -0.008932993 0.002823432 0.049516182
-0.0015373995 0.07587037 -0.12118016 -0.024628993 0.0028974698 0.0065782224 0.019802231 0.06908671
0.10875315 -0.01655182 -0.056278512 0.020629708 -0.065964036 0.02128052 0.009909938 0.008621519
0.0336102 0.0075348835 -0.07437322 -0.041943863 -0.024175365 0.016653154 0.06371888 0.094359316
0.03300184 -0.031530052 -0.08605086 0.026133267 -0.011037004 -0.0030902429 0.041223094 -0.019825973
0.0015326926 0.0068429876 -0.010596972 -0.05746054 0.0005611395 0.05495075 -0.03864208 0.0629286
0.10583665 0.048713833 0.070326015 -0.03515722 0.027837403 0.07373034 0.037053242 -0.080271274
-0.06863762 -0.0730054 0.03990428 0.037177067 0.003757633 0.093766145 -0.015295571 0.024206791
0.023235908 -0.10312428 0.042476244 -0.018212235 0.04832199 -0.022052655 -0.07460543 -0.0025727104
0.012485062 -0.041448127 0.10435393 0.021200864 0.03649879 -0.020631798 -0.018371936 0.030455954
-0.055414796 0.023534052 0.024728982 -0.016948992 0.045247186 0.071630925 0.05092119 0.03217979
-0.026054367 -0.1072581 0.020371566 -0.028612146 0.0744864 -0.06685143 -0.017715106 0.009367418
0.0459041 -0.028222911 0.026123663 0.047353983 0.10218206 0.0402192 -0.011543174 -0.08061876
-0.02404363 0.045512322 0.021359222 -0.07669761 -0.004284411 -0.011128351 -0.03182393 -0.04249739
00000000: 02a8 933d 302b 17ba f927 adbd 634c c23c
00000010: d02f bcbd 1880 9fbd 4ea6 42bd b680 abbc
00000020: bc91 a03d 3a0b 913c 45a6 d8bc 31a2 e63b
00000030: fa14 22bc 166b e2bc 8aab f1bc 0ccd 3f3c
00000040: 0a9d e13c 7bfe d53c 1f8e 73bc 99c1 c0bd
00000050: 656b ed3c 03e7 20bd c837 143d ecd9 9a3c
00000060: 5bc3 0bbb 04ad 6bbd 1e83 e93c 19eb d8bc
00000070: 24ee 24bd bb11 abbd f329 ce3c 12aa 20bd
00000080: 8406 f4bd ea7a 3cbd 7f2e 07bd 50d3 4a3d
00000090: 120b 2b3b 7e89 1c3d 833c 4f3d efb8 f1bc
000000a0: 489a 01bd 6a98 073d 9d93 2b3d b9dc b93d
000000b0: f202 bdbb 6571 183c f98a 20bd 1aa2 81bd
000000c0: e420 6a3b 17f6 543c 942d cebc e340 2f3d
000000d0: 985f 00bb b70c 143d a4b5 aabd 1c54 a83c
000000e0: 1826 2dbd 90f6 363d 6ad0 543c 9c69 ab3d
000000f0: 2071 3c3d 7bad 59bc fad9 da3c 709f 94bd
00000100: 09f4 41bd e824 8abb 3985 afbc 8701 c93d
00000110: 5ea6 38ba 20bc 1abd 6e74 1e3c b732 edbc
00000120: 684c ccbb 8591 85bc 9853 b9bc a678 cebb
00000130: 25fc 44bd 4590 36bd 77fd 803c 29fb e2bc
00000140: a51f 74bc a929 053c 2b6c 3a3c ba1c 65bd
00000150: c0da 04bd 3df0 773d db10 e8bc 6289 f83b
00000160: c8b0 15bc 0059 013c a6fc dabd 0722 323b
00000170: 238a 46bd ae95 d73c dc7c 193d 6dac 17bc
00000180: 2e21 30bd 5838 9b3c ab54 e7bc fd58 4fbd
00000190: 613a 68bd 50b3 01bd fc85 64bc 3df0 a2bd
000001a0: 1660 5f3c 818f 0e3d fe00 4d3c a719 a23d
000001b0: c401 01bc 9804 9f3d 7712 efbb 0f09 8b3d
000001c0: e125 47bc 7f21 91bc 3ae4 943c be2f 9ebb
000001d0: 34c4 cfbd ca91 4f3c 3e9c 84bd f4b4 ed3c
000001e0: 46ed f73b bb57 03bd 31fd aabd 4ea7 d9bc
000001f0: ec1a 613c 1afa 563d c931 063d 9729 fbbc
00000200: fc17 ebbc 1d7e 3e3d 9c12 eabb aca9 93bb
00000210: 9069 573d 8922 173d 8ee8 943d 720c 723d
00000220: 27e8 92bd 5c77 80bd 06c0 643d 8060 8dbd
00000230: c607 803d ee9a 073d 513f b9bc fbde f7bd
00000240: c404 a0bd eaa6 cb3b 727d 023c 69a8 eb3c
00000250: a129 353d b05b 12bc 5409 393b 7bd1 4a3d
00000260: 9182 c9ba ed61 9b3d 4e2d f8bd bec2 c9bc
00000270: 7ae3 3d3b 218e d73b 4a38 a23c 557d 8d3d
00000280: f9b9 de3d af97 87bc 4c84 66bd a2ff a83c
00000290: 2718 87bd 7c54 ae3c 4b5d 223c 4641 0d3c
000002a0: d9aa 093d 2fe7 f63b fd50 98bd 54cd 2bbd
000002b0: 6a0b c6bc 326c 883c 0b7f 823d 753f c13d
000002c0: f02c 073d a825 01bd 6f3b b0bd 6f15 d63c
000002d0: 8dd4 34bc ac85 4abb 8cd9 283d 146a a2bc
000002e0: a1e4 c83a 243b e03b ec9e 2dbc be5b 6bbd
000002f0: 6f19 133a 0a14 613d 2847 1ebd b6e0 803d
00000300: e3c0 d83d 2888 473d 1607 903d 0401 10bd
00000310: 440b e43c efff 963d 24c5 173d 4465 a4bd
00000320: e191 8cbd db83 95bd ac72 233d fb46 183d
00000330: 9f42 763b 7708 c03d 469a 7abc 524d c63c
00000340: 3b59 be3c d332 d3bd 92fb 2d3d d331 95bc
00000350: 47ed 453d c5a7 b4bc bbca 98bd eb9a 28bb
00000360: 258e 4c3c 83c5 29bd 83b7 d53d 6fad ad3c
00000370: c17f 153d 0404 a9bc be80 96bc c47e f93c
00000380: a0fa 62bd 7cca c03c 6f94 ca3c 9dd8 8abc
00000390: 1d55 393d 3cb3 923d bd92 503d f5ce 033d
000003a0: f86f d5bc 22aa dbbd 45e2 a63c 0564 eabc
000003b0: 538c 983d 67e9 88bd 451f 91bc cc79 193c
000003c0: f005 3c3d bc33 e7bc 4b01 d63c 40f6 413d
000003d0: d444 d13d e3bc 243d 951f 3dbc 731b a5bd
000003e0: 26f7 c4bc 216b 3a3d 89f9 ae3c a313 9dbd
000003f0: 3f64 8cbb b053 36bc cf59 02bd be11 2ebd

action_model._discrete_distribution.branches.0.bias f4 [3]
0.003983763 0.00833835 -0.0070293522
00000000: 3a8a 823b 939d 083c 7b56 e6bb

action_model._discrete_distribution.branches.1.weight f4 [3, 128]
-0.07855541 -0.05357949 0.03417879 0.014177027 0.0036614027 -0.00083300256 -0.036102973 -0.07932798
0.0042434526 -0.049089734 0.05274806 0.03104467 -0.076911494 0.03918508 0.028623544 0.035251115
0.016405074 -0.05793305 -0.021195166 0.031107357 -0.04620496 0.088048324 -0.088364564 -0.061259344
0.049667668 0.008167921 0.015200601 0.0007881824 0.05489237 0.019260459 -0.08772394 -0.019292736
0.022760727 0.036456347 0.028759202 -0.12143355 0.042923976 -0.10538518 -0.0945721 0.11340322
-0.04435778 -0.1027209 -0.060338918 -0.010850159 0.093200274 -0.122529656 -0.020578576 -0.033006683
-0.056952745 -0.033996943 0.013467285 -0.018882202 0.065269135 -0.05694889 0.026084263 0.00870354
0.058829553 -0.097269915 0.024805557 -0.052514065 -0.087873824 -0.071555994 -0.009461075 0.06535524
0.0049930024 -0.055502392 -0.09658314 -0.075469166 -0.056616206 0.03813514 -0.1026226 0.0122124525
0.008033667 0.013722596 -0.06807991 -0.08037493 0.038976297 -0.03594566 0.035852086 -0.02029511
-0.013092593 0.03320723 -0.087307155 0.06485034 -0.066115454 -0.046401765 0.03278876 0.036246866
0.093293905 0.052263897 0.056117214 -0.026998378 -0.0080463 -0.021721795 -0.0836094 -0.04470969
0.05183317 -0.064305015 -0.016904844 0.0720005 0.021044243 0.039216332 -0.12999676 0.011316018
-0.046074003 0.016491223 -0.05807213 -0.08153262 -0.053055245 -0.011885205 0.076609805 -0.07905153
-0.03292787 0.07648801 -0.07621451 -0.0978545 0.036778666 -0.105025835 0.037978128 0.012815305
-0.0656341 -0.04319766 0.05330154 0.020887073 0.04546429 -0.10464822 -0.017940259 0.042077374
0.025319226 0.039804664 0.03888292 -0.035876162 0.008358333 -0.05078328 0.013875786 -0.0012644631
0.025613798 0.051524006 -0.08608304 0.048429932 0.0024835048 -0.07610305 0.006215146 0.025370112
0.05046367 0.05867016 0.060090017 0.011965128 0.053132888 -0.00698188 0.05173123 0.03166398
-0.067468524 -0.011257778 0.044788383 0.022428961 -0.024869729 0.033334374 0.023627836 0.013875123
-0.057990313 0.009281506 0.013796701 0.029497826 0.009247806 0.027246894 0.04535003 -0.102223635
0.03536287 0.051390007 0.059195608 0.025044026 -0.076314956 0.0350344 -0.0126725305 -0.018633436
-0.00060948625 0.061260708 0.032078493 0.030180646 -0.082113236 0.033840645 -0.06939671 0.053951226
-7.504405e-05 0.056800496 0.001444741 -0.017682998 0.037523422 0.011757272 -0.018877251 -0.037570234
-0.03605211 0.0015396074 0.001112164 0.013593123 0.04545554 -0.047453478 0.03246453 0.013639684
0.021195307 0.03204772 0.011980781 -0.001958374 0.019010875 0.005718918 -0.009960517 0.033693634
0.04291107 0.028111449 0.027447121 -0.020851169 0.015538817 -0.0003522643 0.013272682 -0.02518348
-0.0729051 -0.045164507 -0.076754175 0.042568147 0.031747498 0.0673085 0.08208072 -0.020067621
0.021002894 0.03837463 0.026491402 0.012605594 -0.07803765 -0.06482981 0.01924636 0.014563668
-0.004179067 0.031214904 0.046807773 0.026924526 -0.0042984625 0.024734085 -0.047234807 0.013685062
-0.0036555377 -0.04097856 0.008639446 0.009318063 -0.06751027 0.037576575 0.03731376 0.03228722
-0.0056988657 -0.002115173 -0.005245449 0.043885812 -0.0762786 0.04054502 0.01713711 -0.0012764232
00000000: a9e1 a0bd 2b76 5bbd 0fff 0b3d c346 683c
00000010: 25f4 6f3b db5d 5aba b6e0 13bd b576 a2bd
00000020: a90c 8b3b 5112 49bd 5a0e 583d 6451 fe3c
00000030: c683 9dbd 8980 203d ec7b ea3c 7963 103d
00000040: ef63 863c 354b 6dbd 7ca1 adbc dbd4 fe3c
00000050: 6a41 3dbd ae52 b43d 7bf8 b4bd 14eb 7abd
00000060: 5370 4b3d bed2 053c f10b 793c 079e 4e3a
00000070: d2d6 603d 1cc8 9d3c 9ca8 b3bd cd0b 9ebc
00000080: b474 ba3c 4053 153d 6b98 eb3c 27b2 f8bd
00000090: 0dd1 2f3d 2fd4 d7bd 04af c1bd f33f e83d
000000a0: 81b0 35bd 565f d2bd f125 77bd dec4 31bc
000000b0: c9df be3d d4f0 fabd 6794 a8bc 0432 07bd
000000c0: 4847 69bd 6140 0bbd e3a5 5c3c d9ae 9abc
000000d0: d3ab 853d 3d43 69bd aaae d53c 4b99 0e3c
000000e0: 42f7 703d 7335 c7bd 0635 cb3c fd18 57bd
000000f0: 31f7 b3bd f38b 92bd a002 1bbc f8d8 853d
00000100: 579c a33b 7a56 63bd 62cd c5bd 948f 9abd
00000110: 65e6 67bd 9833 1c3d cc2b d2bd bd16 483c
00000120: a49f 033c bdd4 603c 7b6d 8bbd 9c9b a4bd
00000130: 9ca5 1f3d c23b 13bd a3d9 123d ee41 a6bc
00000140: 5182 56bc 4e04 083d 18ce b2bd 41d0 843d
00000150: 8a67 87bd c70f 3ebd 824d 063d 9877 143d
00000160: e010 bf3d ab12 563d 2adb 653d b42b ddbc
00000170: a1d4 03bc e8f1 b1bc 683b abbd 8221 37bd
00000180: 054f 543d 59b2 83bd 077c 8abc 0075 933d
00000190: fa64 ac3c 4ea1 203d df1d 05be d266 393c
000001a0: 18b8 3cbd 9a18 873c 0bdd 6dbd 93fa a6bd
000001b0: 7550 59bd 2aba 42bc 9ae5 9c3d c5e5 a1bd
000001c0: 60df 06bd bfa5 9c3d 5a16 9cbd f167 c8bd
000001d0: 3aa5 163d c917 d7bd f48e 1b3d 49f7 513c
000001e0: 2c6b 86bd 08f0 30bd b752 5a3d 5e1b ab3c
000001f0: c338 3a3d ce51 d6bd 73f7 92bc 5359 2c3d
00000200: 446a cf3c 370a 233d b243 1f3d e2f2 12bd
00000210: 64f1 083c 2102 50bd 4457 633c 57bc a5ba
00000220: 07d4 d13c d60a 533d 4e4c b0bd 775e 463d
00000230: 4cc2 223b eadb 9bbd 6ca8 cb3b fbd4 cf3c
00000240: feb2 4e3d 1f50 703d f320 763d 6209 443c
00000250: dfa1 593d 41c8 e4bb 20e4 533d 17b2 013d
00000260: f02c 8abd 8b72 38bc 0674 373d f1bc b73c
00000270: 9abb cbbc a089 083d 2a8f c13c 7c54 633c
00000280: 4087 6dbd 7511 183c 8f0b 623c 6da5 f13c
00000290: 1c84 173c e134 df3c f4c0 393d a05a d1bd
000002a0: a8d8 103d 547e 523d 1877 723d 2129 cd3c
000002b0: 044b 9cbd 3b80 0f3d 72a0 4fbc 26a5 98bc
000002c0: eec5 1fba 82ec 7a3d bd64 033d 673d f73c
000002d0: fc2a a8bd 7d9c 0a3d dd1f 8ebd f6fb 5c3d
000002e0: f860 9db8 a3a7 683d 775d bd3a efdb 90bc
000002f0: 29b2 193d 93a1 403c 77a4 9abc 3fe3 19bd
00000300: 61ab 13bd a7cc c93a 08c6 913a b1b5 5e3c
00000310: 972f 3a3d 945e 42bd 87f9 043d fb78 5f3c
00000320: c8a1 ad3c 7844 033d 0a4b 443c 1058 00bb
00000330: b2bc 9b3c c365 bb3b 7031 23bc 5602 0a3d
00000340: 85c3 2f3d fb49 e63c c9d8 e03c 12d0 aabc
00000350: 8696 7e3c 1db0 b8b9 aa75 593c 964d cebc
00000360: 454f 95bd 6bfe 38bd 4b31 9dbd f05b 2e3d
00000370: aa09 023d 0ad9 893d f019 a83d da64 a4bc
00000380: 430e ac3c b72e 1d3d 7f04 d93c b187 4e3c
00000390: 34d2 9fbd 7ec5 84bd 8baa 9d3c 739c 6e3c
000003a0: 8ef0 88bb 66b6 ff3c 82b9 3f3d d390 dc3c
000003b0: 1eda 8cbb 239f ca3c 4979 41bd 4f37 603c
000003c0: bf91 6fbb 22d9 27bd 778c 0d3c caaa 183c
000003d0: d342 8abd e5e9 193d 50d6 183d 9b3f 043d
000003e0: 8dbd babb b79e 0abb 04e2 abbb 9cc1 333d
000003f0: f437 9cbd 8912 263d 2063 8c3c a84d a7ba

action_model._discrete_distribution.branches.1.bias f4 [3]
-0.039438307 0.02101657 0.017289085
00000000: 108a 21bd f12a ac3c d7a1 8d3c

action_model._discrete_distribution.branches.2.weight f4 [2, 128]
-0.025248565 0.058961708 0.03632887 -0.067690015 0.004644875 0.015355578 0.02759328 0.047782183
-0.004800854 0.010165032 -0.05626205 0.019404508 0.025303513 -0.038437925 -0.03150223 0.025985125
0.03862144 0.10965013 0.07450581 0.007714661 0.07315525 -0.027901694 0.096491344 0.052051045
0.010996338 0.022681415 0.063231215 0.03163681 -0.011439401 0.019991232 0.050707445 0.01743447
-0.014037373 -0.055390175 0.016120054 0.0042212857 0.025652025 0.03411233 0.04822656 -0.030352093
0.08513794 0.07096092 0.09567804 -0.025741285 0.012440266 -1.050281e-05 -0.009156359 0.005957568
-0.020010388 0.099885024 0.035299983 0.027784193 0.0233515 0.08180791 0.00021548428 0.03180602
-0.027484646 0.05958086 -0.045407493 -0.031104455 0.060506236 0.049708754 -0.05915564 -0.047611266
-0.009542834 0.004952455 0.021837203 -0.024295757 0.08152809 -0.0149711585 0.063530535 -0.0076221847
-0.007817092 0.038089782 0.023457786 -0.011327784 -0.01341342 0.03127022 -0.040514328 0.060499977
0.04907071 0.038721655 0.056880366 -0.034872092 0.052269775 -0.041287437 0.041145682 -0.04997483
-0.022595847 0.012773295 -0.049855076 0.10090474 0.047725566 0.0988349 0.040902577 -0.06374514
-0.022250831 0.09190084 0.053704295 0.0111485 -0.019501144 -0.025545789 0.009985192 0.017133022
-0.09099707 0.057201996 0.08903088 0.020122204 -0.037895747 -0.059763577 0.00616348 -0.009127517
-0.031286508 0.0030129831 0.037514523 0.04106524 -0.03742545 0.03441977 -0.0019821434 0.009038256
-0.047022257 0.028376695 -0.014275051 0.020905366 -0.016789967 0.009669994 -0.09294689 0.04906794
0.040456127 -0.05048905 -0.027826037 0.06793587 -0.006449956 -0.00332047 -0.014702057 -0.032504734
0.020074924 -0.026345786 0.05448005 -0.017318582 -0.013384844 0.039616812 0.044314455 -0.033764724
-0.043724153 -0.09389342 -0.07912371 -0.009597949 -0.08210793 0.023733728 -0.081767134 -0.048350707
-0.006732189 0.0019723251 -0.062406883 -0.030165564 0.0079020895 -0.0028214534 -0.060896553 -0.028915055
0.025996972 0.06588378 -0.026541198 -0.009440458 -0.025906367 -0.046531197 -0.05067314 0.02254567
-0.07038397 -0.08554865 -0.11294319 0.04246306 -0.024176085 -0.014732466 0.010953531 0.007689948
0.020672996 -0.089961246 -0.03020954 -0.02900147 -0.020748328 -0.08818644 -0.0034067894 -0.049518418
0.013651394 -0.05414282 0.04001609 0.021954512 -0.04992813 -0.06556584 0.06945586 0.05399674
0.017855486 -0.014509989 -0.007836408 0.033080816 -0.091947936 0.019804288 -0.051247764 -0.012033138
-0.009627928 -0.034749895 -0.020475402 -0.0034742248 0.003166177 -0.039193608 0.045418892 -0.03819381
-0.052578125 -0.03388905 -0.056792364 0.038546894 -0.046323936 0.059498813 -0.02005853 0.05195267
0.0076093217 -0.0074505867 0.070341274 -0.09339333 -0.044273015 -0.09121743 -0.044241056 0.055777542
0.0046161464 -0.10907938 -0.031151969 -0.017575119 0.018980712 0.029806424 0.023783822 -0.0235274
0.08953523 -0.060671866 -0.08732347 -0.009844866 0.018723777 0.054757472 -0.0010802306 0.024956843
0.029651564 -0.019847179 -0.054636363 -0.038922593 0.051191915 -0.04473021 0.010939427 -0.0029515896
0.052946832 -0.022036567 0.008842756 -0.027735334 0.019174747 -0.0034235748 0.08256749 -0.026805615
00000000: 14d6 cebc d581 713d 95cd 143d 10a1 8abd
00000010: 0934 983b f695 7b3c 4d0b e23c 40b7 433d
00000020: 7b50 9dbb 3c8b 263c 0973 66bd 34f6 9e3c
00000030: 5049 cf3c 1671 1dbd 7b08 01bd c2de d43c
00000040: 8431 1e3d 3f90 e03d 8196 983d 44cb fc3b
00000050: 6bd2 953d 1892 e4bc 419d c53d 7a33 553d
00000060: fc29 343c 60ce b93c 5e7f 813d 9a95 013d
00000070: 536c 3bbc a7c4 a33c 9cb2 4f3d bcd2 8e3c
00000080: 02fd 65bc cfe0 62bd 340e 843c b652 8a3b
00000090: 3224 d23c 5fb9 0b3d 3789 453d f4a4 f8bc
000000a0: cd5c ae3d f553 913d d9f2 c33d 63df d2bc
000000b0: 42d2 4b3c 3a35 30b7 8e04 16bc b437 c33b
000000c0: d3ec a3bc 8590 cc3d b796 103d ad9b e33c
000000d0: a54b bf3c e88a a73d 9ff3 6139 0747 023d
000000e0: 7b27 e1bc 0f0b 743d 35fd 39bd c5ce febc
000000f0: 63d5 773d 689b 4b3d 2f4d 72bd 0804 43bd
00000100: 8c59 1cbc 3448 a23b efe3 b23c e507 c7bc
00000110: 33f8 a63d 9749 75bc 4c1c 823d 85c3 f9bb
00000120: 4313 00bc 0804 1c3d 8b2a c03c 2b98 39bc
00000130: f6c3 5bbc 3415 003d 5af2 25bd d3ce 773d
00000140: 5efe 483d 999a 1e3d 63fb 683d 0ad6 0ebd
00000150: d518 563d 041d 29bd 6088 283d 68b2 4cbd
00000160: ed1a b9bc 1547 513c d634 4cbd 25a7 ce3d
00000170: e27b 433d f469 ca3d 7689 273d d08c 82bd
00000180: 6047 b6bc 8236 bc3d 09f9 5b3d 33a8 363c
00000190: ddc0 9fbc 6745 d1bc ee98 233c 8d5a 8c3c
000001a0: ac5c babd a44c 6a3d d255 b63d 52d7 a43c
000001b0: 9238 1bbd a7ca 74bd 05f7 c93b 958b 15bc
000001c0: 4826 00bd 7875 453b d4a8 193d 0634 283d
000001d0: 6e4b 19bd bffb 0c3d d9e6 01bb 3115 143c
000001e0: 699a 40bd 3e76 e83c e7e1 69bc bb41 ab3c
000001f0: 1d8b 89bc e56e 1e3c f05a bebd 77fb 483d
00000200: 53b5 253d 9bcd 4ebd 6ef3 e3bc f621 8b3d
00000210: 275a d3bb 3e9c 59bb e5e0 70bc af23 05bd
00000220: 2b74 a43c 1ed3 d7bc 7926 5f3d b3df 8dbc
00000230: 1b4c 5bbc 3d45 223d 1383 353d e14c 0abd
00000240: 1918 33bd 324b c0bd 9d0b a2bd b740 1dbc
00000250: 3428 a8bd 3c6d c23c 8775 a7bd 640b 46bd
00000260: b299 dcbb 2042 013b 5c9e 7fbd c61d f7bc
00000270: c477 013c 22e8 38bb aa6e 79bd 44df ecbc
00000280: 9af7 d43c 13ee 863d ed6c d9bc 27ac 1abc
00000290: 9739 d4bc 7f97 3ebd a38e 4fbd b2b1 b83c
000002a0: 7925 90bd 2134 afbd c24e e7bd bfed 2d3d
000002b0: ed0c c6bc 7160 71bc 7076 333c f6fb fb3b
000002c0: 6a5a a93c 9a3d b8bd ff79 f7bc 7e94 edbc
000002d0: 66f8 a9bc 189b b4bd 7144 5fbb d3d3 4abd
000002e0: 19aa 5f3c ddc4 5dbd e9e7 233d f3d9 b33c
000002f0: 7081 4cbd 6247 86bd e03e 8e3d b02b 5d3d
00000300: ab45 923c 4ebb 6dbc 4764 00bc c07f 073d
00000310: 334f bcbd 9a3c a23c 2de9 51bd a426 45bc
00000320: 75be 1dbc e855 0ebd 08bc a7bc d2af 63bb
00000330: a37f 4f3b 7a89 20bd 2909 3a3d 1d71 1cbd
00000340: 295c 57bd 3fcf 0abd 1c9f 68bd 59e3 1d3d
00000350: 2bbe 3dbd 07b5 733d c951 a4bc 53cc 543d
00000360: 9e57 f93b 0d24 f4bb 160f 903d 0145 bfbd
00000370: 9f57 35bd 34d0 babd 1c36 35bd fe76 643d
00000380: 0b43 973b 0365 dfbd 6a32 ffbc b2f9 8fbc
00000390: 707d 9b3c 9a2c f43c 4ad6 c23c 89bc c0bc
000003a0: 3f5e b73d 1083 78bd a6d6 b2bd 5c4c 21bc
000003b0: 9b62 993c 5f49 603d 8696 8dba 4b72 cc3c
000003c0: d6e7 f23c 8d96 a2bc 61ca 5fbd 4c6d 1fbd
000003d0: 9dae 513d 0637 37bd 483b 333c 756f 41bb
000003e0: c7de 583d 0886 b4bc 35e1 103c 3635 e3bc
000003f0: 5c14 9d3c 0e5e 60bb 2519 a93d 7397 dbbc

action_model._discrete_distribution.branches.2.bias f4 [2]
0.03849098 -0.038490888
00000000: b8a8 1d3d 9fa8 1dbd

exp_avg f4 [128, 65]
-0.00027972047 -0.0009387165 0.0 -0.0022495256 -0.0024378283 -1.0136285e-05 -0.0013175693 0.0
-0.002140257 -0.002282511 -7.7600416e-05 -0.000965994 0.0 -0.0024243682 -0.0027127056 0.00036088043
-0.001597846 0.0 -0.0022309967 -0.0023348448 0.0010430226 -0.0012987372 0.0 -0.003212248
-0.0032001808 0.00035115526 -0.001626788 0.0 -0.0021923296 -0.0022373702 -0.00039714773 -0.0014176394
0.0 -0.0016531753 -0.0022481433 0.0003479461 -0.0013976078 0.0 -0.0024183006 -0.0022937078
-0.0007892789 -7.806896e-05 0.0 -0.002600615 -0.0029949958 0.00041237564 -0.0018427856 0.0
-0.0020375527 -0.0019146018 0.00069791434 -0.00076579384 0.0 -0.0034000827 -0.00338168 -0.00012844038
-0.001834295 0.0 -0.0015052272 -0.0017739296 -0.0001499257 -0.000303107 0.0 -0.0030149298
-0.002958507 -1.2092885e-05 -0.000101350146 0.0 0.00035176557 0.00032614326 2.589791e-05 -0.00012476502
0.0 0.00033718967 0.00033646837 -2.4655394e-05 5.8983773e-05 0.0 0.00020399416 0.00024534765
-3.7146667e-05 -8.613526e-05 0.0 0.00036160444 0.0003617083 -5.3157273e-06 0.00026431566 0.0
-2.0677413e-05 -5.8025693e-05 -3.3886623e-05 -0.00011838759 0.0 0.00039059678 0.00037955184 0.00014269
8.54087e-05 0.0 1.0223868e-05 -2.0377076e-05 -3.3547694e-05 -0.00013713389 0.0 0.00040900413
0.00038985512 9.074293e-05 6.842679e-05 0.0 7.91528e-05 3.6501508e-05 -4.437256e-05 -0.000106094114
0.0 0.0003887892 0.0003555503 0.00018320551 0.00012480048 0.0 -6.9683476e-05 -8.3954226e-05
7.943869e-06 -8.7804045e-05 0.0 0.00031818272 0.0003283569 -5.7906567e-05 0.00024935632 0.0
4.6872803e-05 6.015246e-05 -4.3676755e-05 -0.00035977346 0.0 -0.0008822799 -0.0009561021 -6.197413e-05
-0.00036548628 0.0 -0.00085826963 -0.00094502687 3.273968e-05 -0.0007794592 0.0 -0.0005390106
-0.0008291107 -0.00011452062 -0.00032562192 0.0 -0.00084558746 -0.0009271789 0.00013821704 -0.000983327
0.0 -0.00044061983 -0.000493114 -0.00011918361 -0.00039673998 0.0 -0.0007698065 -0.00091584213
-0.0006723115 -0.0004752592 0.0 -0.00013815945 -0.00029427066 -0.00012753854 -0.000392823 0.0
-0.0007653684 -0.00090395834 -0.0005551806 -0.00028709485 0.0 -0.00044345466 -0.00051435805 -9.70255e-05
-0.00038355973 0.0 -0.00080514466 -0.00092751085 -0.00018620031 -0.00046983018 0.0 -0.00062969956
-0.0005998045 -1.3245125e-05 -0.00040213927 0.0 -0.0008703456 -0.0009304329 6.4676606e-05 -0.0007815145
0.0 -0.00056889217 -0.00065183453 -0.00013469852 -0.0006754763 0.0 -0.0013826352 -0.0015332992
-6.520006e-05 -0.0007676146 0.0 -0.0013599952 -0.0014768759 -0.00010587073 -0.00042234708 0.0
-0.0016645921 -0.0017772723 9.141236e-05 -0.0009153383 0.0 -0.0013688841 -0.0014713712 0.00069933274
-0.00096392597 0.0 -0.0019282165 -0.0018574925 7.78431e-05 -0.0010780484 0.0 -0.0011926047
-0.0013598446 -0.00062898546 -0.0005467185 0.0 -0.001017106 -0.001380404 7.534506e-05 -0.0009687592
0.0 -0.0012993958 -0.0013480457 -0.00084797107 0.0005938686 0.0 -0.0019387075 -0.0021601385
0.00014037275 -0.0012553036 0.0 -0.0010778791 -0.0011238437 0.00045646823 0.000110940404 0.0
-0.0027602185 -0.0025866372 -8.277598e-05 -0.0012732222 0.0 -0.0008368117 -0.0010452967 0.00017814977
00000000: 72a7 92b9 3314 76ba 0000 0000 c76c 13bb
00000010: f9c3 1fbb 030f 2ab7 4ab2 acba 0000 0000
00000020: 8e43 0cbb 2e96 15bb 68bd a2b8 c33a 7dba
00000030: 0000 0000 26e2 1ebb a6c7 31bb 8d34 bd39
00000040: d16e d1ba 0000 0000 ea35 12bb 3204 19bb
00000050: 08b6 883a 643a aaba 0000 0000 9484 52bb
00000060: 20ba 51bb 431b b839 f339 d5ba 0000 0000
00000070: 30ad 0fbb d8a0 12bb 4438 d0b9 16d0 b9ba
00000080: 0000 0000 5caf d8ba 9655 13bb 896c b639
00000090: f02f b7ba 0000 0000 5a7c 1ebb 0852 16bb
000000a0: 9ce7 4eba f4b8 a3b8 0000 0000 146f 2abb
000000b0: b147 44bb 1f34 d839 a089 f1ba 0000 0000
000000c0: 7688 05bb 60f3 faba 3df4 363a 8ebf 48ba
000000d0: 0000 0000 ecd3 5ebb 2d9f 5dbb f4ad 06b9
000000e0: ba6c f0ba 0000 0000 0b4b c5ba 3383 e8ba
000000f0: 6035 1db9 55ea 9eb9 0000 0000 2196 45bb
00000100: 83e3 41bb 8ce2 4ab7 f28b d4b8 0000 0000
00000110: 2d6d b839 35fe aa39 573f d937 5bd3 02b9
00000120: 0000 0000 d5c8 b039 0568 b039 0ed3 ceb7
00000130: 5865 7738 0000 0000 44e7 5539 01a2 8039
00000140: eecd 1bb8 84a3 b4b8 0000 0000 ba95 bd39
00000150: aba3 bd39 c05d b2b6 d993 8a39 0000 0000
00000160: 6874 adb7 9d60 73b8 7c21 0eb8 da46 f8b8
00000170: 0000 0000 03c9 cc39 96fe c639 0e9f 1539
00000180: 721d b338 0000 0000 2e87 2b37 70ef aab7
00000190: 90b5 0cb8 99cb 0fb9 0000 0000 9b6f d639
000001a0: 7865 cc39 3d4d be38 5a80 8f38 0000 0000
000001b0: d6fe a538 3219 1938 ac1c 3ab8 d87e deb8
000001c0: 0000 0000 67d6 cb39 2769 ba39 db1a 4039
000001d0: e0dc 0239 0000 0000 0823 92b8 9510 b0b8
000001e0: a846 0537 7023 b8b8 0000 0000 c3d1 a639
000001f0: 5127 ac39 b4e0 72b8 0abc 8239 0000 0000
00000200: 4a99 4438 364c 7c38 8f31 37b8 fa9f bcb9
00000210: 0000 0000 cd48 67ba eda2 7aba 1cf8 81b8
00000220: bd9e bfb9 0000 0000 80fd 60ba aebb 77ba
00000230: f751 0938 9f54 4cba 0000 0000 644c 0dba
00000240: ad58 59ba ca2a f0b8 3cb8 aab9 0000 0000
00000250: 6aaa 5dba ec0d 73ba 5bee 1039 fbe2 80ba
00000260: 0000 0000 fe02 e7b9 5244 01ba 37f2 f9b8
00000270: 8a01 d0b9 0000 0000 d7cc 49ba 2015 70ba
00000280: 103e 30ba 362c f9b9 0000 0000 e5de 10b9
00000290: 5748 9ab9 debb 05b9 d0f3 cdb9 0000 0000
000002a0: 01a3 48ba 9ef7 6cba 8a89 11ba 3885 96b9
000002b0: 0000 0000 7a7f e8b9 fcd5 06ba 2b7a cbb8
000002c0: 8418 c9b9 0000 0000 5810 53ba 3324 73ba
000002d0: c43e 43b9 8a53 f6b9 0000 0000 6c12 25ba
000002e0: 333c 1dba 6137 5eb7 38d6 d2b9 0000 0000
000002f0: e827 64ba 4ce8 73ba fda2 8738 8dde 4cba
00000300: 0000 0000 b521 15ba e0df 2aba dc3d 0db9
00000310: 7212 31ba 0000 0000 8a39 b5ba fcf8 c8ba
00000320: 04bc 88b8 be39 49ba 0000 0000 de41 b2ba
00000330: bb93 c1ba ea06 deb8 776e ddb9 0000 0000
00000340: 712e daba 5df3 e8ba a3b4 bf38 50f3 6fba
00000350: 0000 0000 216c b3ba 06db c0ba 6d53 373a
00000360: faaf 7cba 0000 0000 36bc fcba 1b77 f3ba
00000370: b23f a338 4d4d 8dba 0000 0000 2c51 9cba
00000380: d03c b2ba 80e2 24ba a851 0fba 0000 0000
00000390: 6a50 85ba acee b4ba 9202 9e38 54f4 7dba
000003a0: 0000 0000 7d50 aaba e8b0 b0ba 604a 5eba
000003b0: d9ad 1b3a 0000 0000 3b1c feba 1c91 0dbb
000003c0: 0631 1339 0089 a4ba 0000 0000 9f47 8dba
000003d0: f04d 93ba 2152 ef39 ada8 e838 0000 0000
000003e0: c8e4 34bb 9284 29bb 0498 adb8 3fe2 a6ba
000003f0: 0000 0000 7c5d 5bba 5602 89ba b7cd 3a39
