Assets/ML-Agents/results/Andrew ML/results/sc_01 - Copy/SimpleCollector/SimpleCollector-640.onnx (onnx, 305000 bytes, 11 tensors)

action_model._discrete_distribution.branches.0.bias f4 [3]
00000000: 0000 0000 0000 0000 0000 0000
0.0 0.0 0.0

action_model._discrete_distribution.branches.0.weight f4 [3, 256]
00000000: 48ca 293c 3be1 9d39 fd4a 02bc 0f2d 8b3a
00000010: baf6 0b3c 3e34 a439 0c04 20bc 5d1e 67bb
00000020: cda9 51bb 52ed dfba 9305 9dbb eb43 c4bb
00000030: 5222 8abb 1c62 43bb 42e5 003c 60cd 263b
00000040: e871 84ba 3456 c0bb 1fd1 be3a b7f5 a6bb
00000050: 7602 9eba 6ab3 e1ba f73c 203b 7fe3 acba
00000060: c061 573c 7ca9 3b3b ff73 3a3a 8a74 8abb
00000070: 5767 b1bb 63cd 1fbb df65 e9ba db14 d5bb
00000080: a7dc e4bb 5020 fc3b 6259 57bb 0c05 823a
00000090: 2853 58bb 17f8 793b afab 203b 1526 60b9
000000a0: 72d1 e1bb 43b2 e7bb 6441 c03b b715 083c
000000b0: c79e d7bb cac9 d4bb 90b7 20bc 7fa3 7bba
000000c0: 77da ec3b 4138 afbb d811 ed3b cbf0 cdbb
000000d0: 4e7c 0f3c 1743 63bb 278c d33b effd 41ba
000000e0: 8aeb 7e3b c00d 39bb e880 87bb 2b55 cb3b
000000f0: 0776 37bb b570 033b 8c51 053b 37f1 14bc
00000100: 4787 d33b 3f22 67bb bf05 d2bb b90d 86b9
00000110: e2c0 b8bb c5b2 babb 1a5b e3bb 6780 2f3c
00000120: d8ef 893b 0b0b 443b 42da b13a 3f85 043b
00000130: c354 21bc 48a8 8a3a 052e afbb 13c4 61ba
00000140: cfc6 b03a 3f46 be3b 4db7 593c c7cf 9dba
00000150: 6a51 d2bb 95b2 16ba 19a8 af3b 974f a0bb
00000160: 3580 c5bb 5fce 9cbb 31d2 a03b 8bb7 c8bb
00000170: e202 0c39 ae45 273a 09ca 1f3c caac 5c3b
00000180: 4ddc 38bb 318c b13a 9714 44bb 3ba6 0a3c
00000190: 8873 ffb9 7610 913b abff 10bc 67b4 8dbb
000001a0: eab4 0d3a 0e43 25bc 9e58 a53b 5f40 c2bb
000001b0: 33dc 9cbb 5325 eeba 0a0f 8939 10a1 6d3b
000001c0: 929f f13b 64e8 8e3b 5004 033c 92ba 67bb
000001d0: 6c6e b63b ebfa 20ba 8a8e b13a 7f4e 3e3b
000001e0: 6447 393b 7b7f a2bb e7c8 5dbb 269b 9fbb
000001f0: 9d2e 23bc 230c 97bb 7c6a b13b cfd4 06bc
00000200: 27d6 89bb 6ba1 043a c4f5 1f3c c5d1 6bbb
00000210: 32c8 dc3b dfa5 a33b 834f f23b 1cf6 a93b
00000220: 4895 72bb 436d abba a78d d7ba 9329 193b
00000230: e7c4 aabb a0bc 153a 4bee 2b3a 8d50 7abb
00000240: db38 933a 5398 163c dfb6 823b 0885 9cbb
00000250: 43a6 d43a a233 8fb9 ad71 8d3b 83ed 1fbc
00000260: abd8 ca3b eebb 423a 5b06 093b c99e 933b
00000270: e57f 92bb 0251 e23b 0b73 9d3b 9bf5 6d3c
00000280: bdcb f8ba 1762 b639 17f9 313c 4f2e 8ebc
00000290: dfcd afbb fbca 2e3b 0c84 b63a 2828 5d3b
000002a0: a74d ee3a fd2b 9b3b a695 283c c95e b6bb
000002b0: 455e 01bb c95c c7ba 7064 b939 dfb4 493b
000002c0: baa3 4fbc ca36 603c 7808 9e3c cb2e 743a
000002d0: eaf0 db3a 95df e43a efe1 8aba e098 ebba
000002e0: f5ed 54ba 4aa0 883a 57ef f53b e7bd ee3b
000002f0: 4274 123c dfe7 b1b8 d213 e8b9 e33f fd38
00000300: 6b41 763c 5a85 1f3c fc76 823c 4584 1bbb
00000310: 6bce 10bc 7bdd 2c3b 6437 b2bb 3f4d 023b
00000320: 53d1 03bb d563 0f3c 290c 1b3b 07cd f6ba
00000330: 1ff3 a1bb 90d1 533a de7a 11bb 8c6c 0f3b
00000340: e395 6db8 082e 74b8 8303 b43b 67a3 c6bb
00000350: 03b1 40ba d65d 32bc 8b70 453a ff16 08bc
00000360: 6028 d33b 9d5f fe39 eb3f 833b 9789 603b
00000370: fb8c a43b 5fb8 52bb f9b9 8a3b 77a9 a5bb
00000380: d839 ae3b 0b27 97bb f60c 2c3a 4de3 29bc
00000390: e3f9 c6bb 2b48 543b 29a9 9bbb 9bd7 c93b
000003a0: 2816 d33a 2b1c 65bc 8e1e c73b a529 bc3b
000003b0: 8cb5 3e3b fec8 1cbb d170 213a 7bf8 fcba
000003c0: e3ab 08bc 0001 8f3b 8a21 e23b 3f3f eabb
000003d0: 0f5e d8bb f3e9 9f3b d938 2a3a e38c f8bb
000003e0: 1d2f 6cbb 74b6 b43a 10b7 48ba c546 aa3b
000003f0: 9bb7 403b 451d f93b 133c 31bc fa4e 563b
0.010363169 0.00030113183 -0.007952449 0.0010618287 0.008542711 0.0003131944 -0.00976659 -0.00352659
-0.0031992078 -0.0017084277 -0.0047919243 -0.0059895418 -0.004215517 -0.0029813116 0.007867159 0.0025452003
-0.0010104747 -0.005869651 0.0014558173 -0.0050952095 -0.0012055177 -0.0017219607 0.00244504 -0.0013190358
0.013145864 0.0028634956 0.00071126217 -0.0042253183 -0.0054139304 -0.0024383895 -0.0017806849 -0.0065027303
-0.0069843116 0.0076942816 -0.0032859673 0.0009919717 -0.003300855 0.0038142258 0.0024516394 -0.00021376491
-0.006891423 -0.007070811 0.00586717 0.0083059585 -0.006580207 -0.0064937817 -0.00980939 -0.0009599253
0.0072281915 -0.005347282 0.007234793 -0.0062848083 0.008757664 -0.003467744 0.0064559164 -0.0007400205
0.0038897716 -0.0028236955 -0.00413524 0.006205221 -0.0027993934 0.0020056192 0.0020342795 -0.009090713
0.0064553353 -0.0035268215 -0.0064093764 -0.00025568696 -0.005638228 -0.0056975805 -0.0069383504 0.010711766
0.0042095 0.0029913809 0.0013569074 0.0020221022 -0.009846869 0.0010578716 -0.005346062 -0.0008612286
0.0013486984 0.005806714 0.013288331 -0.0012040072 -0.0064183967 -0.00057486567 0.005360615 -0.0048923003
-0.0060272464 -0.0047853435 0.0049078693 -0.0061253957 0.00013352514 0.00063809275 0.009752759 0.0033672326
-0.0028207481 0.0013545809 -0.00299195 0.008462484 -0.00048723468 0.004427011 -0.0088500185 -0.004324484
0.00054056814 -0.010086788 0.0050459644 -0.005928084 -0.004786992 -0.0018169082 0.0002614188 0.003625933
0.0073737586 0.004361199 0.007996634 -0.0035359007 0.0055673625 -0.00061409053 0.0013546508 0.0029038487
0.0028271312 -0.0049590445 -0.003384167 -0.00487079 -0.009959844 -0.004609601 0.0054143053 -0.008229448
-0.004206437 0.00050594535 0.009763185 -0.0035983187 0.0067377323 0.0049941386 0.0073947324 0.005186809
-0.0037015248 -0.0013078827 -0.0016445414 0.0023370727 -0.005211461 0.0005712006 0.0006558641 -0.0038194985
0.0011232154 0.00919159 0.003989085 -0.0047766007 0.0016223866 -0.00027313555 0.0043165297 -0.009761217
0.0061903796 0.00074285164 0.002090833 0.0045050127 -0.0044708126 0.0069066295 0.004804974 0.014523889
-0.0018981617 0.00034786828 0.01086261 -0.017356066 -0.005365118 0.0026671279 0.0013924851 0.0033745859
0.0018181101 0.0047354684 0.010289585 -0.0055654985 -0.0019740027 -0.0015210147 0.00035360781 0.0030777974
-0.012673313 0.013684938 0.019291148 0.0009314834 0.0016780172 0.0017461652 -0.0010595898 -0.0017974637
-0.00081226166 0.0010423746 0.007505338 0.0072858217 0.008938851 -8.483207e-05 -0.00044265256 0.0001207588
0.015030245 0.009736383 0.015925877 -0.0023729962 -0.008838276 0.002637713 -0.005438732 0.0019882468
-0.002011378 0.008751829 0.002365837 -0.0018829413 -0.0049423124 0.00080802385 -0.0022198479 0.0021884767
-5.6644796e-05 -5.8217003e-05 0.0054935827 -0.0060619595 -0.00073505956 -0.01088663 0.0007531724 -0.008306264
0.006444022 0.00048517893 0.0040054224 0.0034261697 0.005021689 -0.003215335 0.0042335954 -0.005055602
0.005316954 -0.0046128086 0.00065632106 -0.010369134 -0.0060722693 0.0032391648 -0.00475039 0.0061597354
0.0016104626 -0.013983767 0.0060766404 0.005742269 0.002909991 -0.0023923512 0.00061584736 -0.0019300127
-0.008341762 0.004364133 0.006900971 -0.007148653 -0.0066030095 0.004880184 0.00064934563 -0.0075851544
-0.0036038824 0.0013787285 -0.0007656673 0.0051964247 0.0029406312 0.007602366 -0.0108175455 0.0032700882

action_model._discrete_distribution.branches.1.bias f4 [3]
00000000: 0000 0000 0000 0000 0000 0000
0.0 0.0 0.0

action_model._discrete_distribution.branches.1.weight f4 [3, 256]
00000000: 0323 403c e27e eeba dd81 033b fcd5 21bc
00000010: 3ae9 d1bb 43ad cab9 1d7a 8dbb 57f4 59bb
00000020: 2bd1 f33b 2be2 753b 32b3 833c 970f c23b
00000030: 86b3 2e3a 248b 87bb 6289 06bc a5e2 63bb
00000040: 009d 0b3c 3e8a 23bb a41b b23b d622 273b
00000050: 92d9 c1bb d9d3 c2bb c8e6 3c3b 6bd8 aeba
00000060: a215 0cbb e96a 23ba 8f96 e83a d45e 30bb
00000070: 960d 053c 6a54 1ebb e803 57bb b64a a3bb
00000080: 009e cebb 7ce3 9f3b 1a76 72bc 133a 0ebb
00000090: cbca fc3b 035c 47bb 02cc 753a 6bbf 6ebb
000000a0: 6b3b d23b 6de1 013c 0435 9fbb 8f25 063b
000000b0: c251 ebba 3035 f7bb ff63 c1bb f465 803c
000000c0: a149 8cbc 9abc a13b 28dc 593b 07fe 233c
000000d0: e89b 223c 692d 093c 0fd8 05bc 97f6 a8bb
000000e0: 63b2 c7bb 4a14 bcbb 9ef8 35bc 6326 d6bb
000000f0: 25d1 623c f3b5 903a e5ee 09ba dcd3 3a3a
00000100: fe31 38bc 03f9 cf3b 8a62 6ebc cbb8 a63a
00000110: 33b8 14bb d3a9 cabb 3246 a2ba 1209 1ab9
00000120: a39a 23bc 1b7c d7b8 377f 673c 4beb 8dbb
00000130: 458f 673c 3f83 053c b20d 8d3a 3ffe 3dbc
00000140: 18f4 7b3a 7676 9b3a a768 cb3b 79bf 05bc
00000150: 85dc d43b a5d6 d3bb 0ab4 e23b f2b4 b53b
00000160: 25cc 6aba 29d6 a63b 4ad2 79bb 437f 2bbc
00000170: c33b ef3b 9214 fd3b a1f7 84bb a9c1 be3b
00000180: c138 063b d8f0 773b 2de2 73bb 4b01 453c
00000190: 43ff 6bbb d03d 613b 48fc cb3b 40a3 863b
000001a0: bb7c 2b3b 7146 4cbc 0048 52ba 2f38 a03b
000001b0: 35c2 efba 68df 773c 9b2b 913b 8838 7b3b
000001c0: 4d09 dcba 4c34 47bc ad5c 543c 9b76 44bb
000001d0: 280a e53b e320 85bb 7a3e fd3a 48ab 12bc
000001e0: 830e 03bc 5e79 283c 9f0b bfbb b701 cb37
000001f0: 47bd 933b b20b e8bb bc14 ad39 d458 80bb
00000200: 1932 363c 984a 33bc 7e9d 37bc 6902 2ebb
00000210: 847d 89bb 3b05 313b 9324 27b8 c69b 29bb
00000220: 558c fbbb 0d62 b7bb c7bc 193b 2175 97bb
00000230: 8765 9a3b 6c63 84b9 5733 0b3c 3f26 763b
00000240: 0aea 193c 2059 d2bb dad2 65ba 9414 193c
00000250: 7a74 c83b d839 b2bb b7c8 3a3a 7b55 2c3c
00000260: df8c 41bc 8a1c 673c f1a6 27bb 3af1 ddbb
00000270: 64f9 8137 1ff3 c43b a592 2a3b aa43 c8bb
00000280: 607c 6d3b 253c c0bb e2ae 383c 4879 91ba
00000290: b3e4 b2bb d741 37ba 6f5a 4a3c e31d 23bc
000002a0: 8496 373b 2f6d 13bb 6383 d53b 319c 003c
000002b0: 7f17 4cbc f10a b93b 855c 523b 9824 ebbb
000002c0: e89c 12ba 3243 6c3b 0758 01bc c8b7 39bb
000002d0: b9e1 073b e741 3dbb 479a 63bb 77f2 673c
000002e0: 5dd4 103c 8243 033b 74ff a23b c8a2 0e3b
000002f0: d1c2 b33b b5d1 12bc 03c1 4739 d215 5fbb
00000300: afb2 b13b f12a 343c 8ebf cbbb 9aa9 5ebb
00000310: d6b6 043c f30d 40bb 3df5 98bb 7f14 bcbb
00000320: 92a8 ff3b a70e 11bb a3be 993c f5cd d4bb
00000330: a3b4 643b b370 13bc 280b fd3b 5d04 dbbb
00000340: 9a0f fbba ddee 093c 3898 28bc f91f 19bb
00000350: f710 e3bb 832b 8139 3a75 c43b 8d3a 5abb
00000360: 510b 873b 8729 743b 93a6 b8bb b5ee 10bc
00000370: 278f b33a 67b8 4bbc b196 b53b 64dd 483c
00000380: d7cb 9bbc ad9f 5dbb 432e d33b 2417 b5ba
00000390: 868d 85bb 5b9d 08bb 9756 2dbb cd68 a33a
000003a0: a816 593b bda1 d33b 443b 01bb 6746 a2bb
000003b0: 302a 0bba ca77 24bc 946b bcbb 92dc f6ba
000003c0: 4f30 a73b 3fee bd3b a03c 1cbb 229c f53a
000003d0: 4fc8 0dbc 2f5f 8b3b 5b63 3f3c 7b10 54bb
000003e0: 0742 373b 5b9a 9e3b 73bb 2bbc fae6 b3ba
000003f0: a0b7 7c3b bd9a eebb 3886 5c3b b75b a53b
0.011727097 -0.0018195773 0.0020066418 -0.009877678 -0.0064059766 -0.00038657532 -0.0043175356 -0.003325721
0.0074407062 0.003751884 0.016076658 0.0059222686 0.00066643243 -0.00413646 -0.008211466 -0.0034772542
0.008521318 -0.0024954225 0.005435424 0.0025502942 -0.005915829 -0.0059456644 0.002882408 -0.0013339644
-0.00213752 -0.00062338874 0.0017745065 -0.002691199 0.008120915 -0.0024159201 -0.0032808725 -0.0049832715
-0.006305456 0.004879413 -0.014798665 -0.0021702095 0.0077146045 -0.0030419833 0.0009376408 -0.0036430012
0.0064157746 0.007927281 -0.004858615 0.0020469164 -0.0017953443 -0.0075441822 -0.005901813 0.015673615
-0.017124953 0.004935813 0.0033242796 0.010009295 0.009924866 0.008372643 -0.008169188 -0.005156349
-0.0060942634 -0.0057397233 -0.011106638 -0.006535338 0.013843809 0.0011040553 -0.00052617333 0.00071269064
-0.011242388 0.006346823 -0.014549861 0.0012719868 -0.00226928 -0.0061847954 -0.0012380539 -0.00014689963
-0.009985599 -0.00010275115 0.0141294515 -0.0043310276 0.014133279 0.008148967 0.0010761528 -0.0115962615
0.0009611263 0.0011860866 0.006207544 -0.008163326 0.0064960145 -0.0064647966 0.006918435 0.005545252
-0.00089568115 0.005091448 -0.0038119727 -0.010467353 0.0073008253 0.0077233994 -0.00405784 0.005821426
0.0020480605 0.0037832763 -0.0037213669 0.012024234 -0.0036010302 0.0034369119 0.0062251426 0.0041088164
0.0026166874 -0.012467966 -0.0008021593 0.00488951 -0.0018292131 0.015128948 0.004430247 0.0038333256
-0.001678744 -0.012158465 0.012961549 -0.002997792 0.006989736 -0.0040627583 0.0019320988 -0.008951969
-0.007999065 0.010282842 -0.0058302428 2.4200284e-05 0.0045086476 -0.0070814723 0.0003301258 -0.003916839
0.011120343 -0.0109430775 -0.011206983 -0.002655173 -0.004195871 0.0027011174 -3.9849965e-05 -0.0025880202
-0.007676641 -0.0055964054 0.0023458467 -0.004622117 0.00471181 -0.00025251077 0.008496127 0.0037559418
0.009394178 -0.006419316 -0.0008767076 0.009343285 0.0061174007 -0.0054390244 0.0007125246 0.010518427
-0.011813371 0.014105925 -0.0025581683 -0.006773141 1.549413e-05 0.0060104276 0.0026027348 -0.006111582
0.0036237463 -0.005866545 0.011272164 -0.0011098767 -0.005459392 -0.0006990707 0.012350663 -0.009955856
0.0028013298 -0.0022495498 0.0065159067 0.007849739 -0.012456774 0.0056470563 0.0032098603 -0.007175993
-0.0005592839 0.0036050794 -0.0078945225 -0.0028338302 0.0020733906 -0.0028878392 -0.0034729408 0.014156929
0.008839694 0.0020029251 0.0049743 0.0021764506 0.0054858704 -0.008961131 0.00019050021 -0.0034040106
0.005422912 0.010996566 -0.0062179035 -0.0033975602 0.008100232 -0.002930519 -0.0046679066 -0.005739748
0.0078020776 -0.0022133978 0.01876766 -0.0064942786 0.0034897707 -0.008999038 0.007722277 -0.0066838698
-0.001915443 0.008418766 -0.010290198 -0.0023365004 -0.0069295126 0.00024637216 0.00599542 -0.003329906
0.004121222 0.0037256198 -0.0056350916 -0.008845975 0.0013699279 -0.012434102 0.0055416455 0.012259815
-0.019018097 -0.0033817098 0.006444724 -0.00138161 -0.004075709 -0.0020845744 -0.0026449317 0.0012467146
0.0033125076 0.0064584897 -0.0019719163 -0.0049522403 -0.00053087156 -0.010038326 -0.005750129 -0.0018834046
0.0051021944 0.0057962234 -0.0023839846 0.0018738548 -0.008653714 0.00425329 0.011681403 -0.0032358456
0.002796294 0.004840178 -0.010481703 -0.0013725453 0.0038561597 -0.00728163 0.0033649337 0.0050463337

action_model._discrete_distribution.branches.2.bias f4 [3]
00000000: 0000 0000 0000 0000 0000 0000
0.0 0.0 0.0

action_model._discrete_distribution.branches.2.weight f4 [3, 256]
00000000: 3614 243c ebe3 3bbb 17f9 e1bb 9686 b0ba
00000010: f9a4 8dbb 33de 42bb a43b bfba 0777 113c
00000020: a168 36ba 028e efba 6c77 343c cc1d 11bc
00000030: 2296 36bb fb4b 3e3b 9ab1 d3ba 37b3 65b9
00000040: 05e5 32ba cf32 39bb df7a 1d3c 6c5a 2e3b
00000050: 6651 b2ba d11b 3a3c 70e6 bb3a 258e 0b3b
00000060: 15ea 87ba f092 fcbb bbe2 23bc df70 f73b
00000070: afd3 baba a5a5 56bb 8877 c23b ac40 0db9
00000080: 63ea 6039 6779 a33b 7303 bfbb 48a8 98bb
00000090: 9edb 46b9 83d1 403b 3c5d cc3b 5020 08bc
000000a0: a811 94b9 a574 043b 84ea c83b dbde 6c3b
000000b0: e8ac 6fbc e042 eeba 9f9b 993a 8bba e03b
000000c0: a021 f7b9 97d4 113b 9bd8 a83b 6bf6 3fba
000000d0: 0574 0dbb 3277 0abc 6de0 1f3c 8f16 05bb
000000e0: 0992 afbb 4f8b 4b3c 6d35 733b 1812 7a3a
000000f0: c552 f33b 957f 04ba 4547 dc39 4cc4 8d3b
00000100: 8afc 7abb 486a 16bc bfbd c3bb 6b2d 653b
00000110: 8c56 b1bb a834 c039 fd26 edbb 5702 c6bb
00000120: 3985 2abc a97e cb3a 0a65 2e3b 8a74 5abb
00000130: 774f 3cbb 96cf 21bb 3f94 df38 83be 0c3c
00000140: 48f8 4fbb 6000 013b 7278 c43b b362 283c
00000150: 965e a2bb 4fbf 63b9 777c 123b 926b 29bb
00000160: 37e8 94bb 4dae f03a 0da5 afbb a313 44bb
00000170: 3bfa bdbb ed3e f7bb d77a 303c a8cf aa3b
00000180: a25f 41bb e29a fc3b 6a53 05bb bfa9 dcbb
00000190: 1f00 f9bb 4802 d4bb a9a2 b9ba 9bcc a3ba
000001a0: 53dd 933b 6bc2 4abb bb87 b7ba 45c0 00bc
000001b0: 0dd8 5ebb f554 86bb dfb7 d8b9 dc25 903a
000001c0: 3b42 72bc 256b 253c 6dd8 ce3b 34dd 8ebb
000001d0: 8bfe 61bb 9b67 0cbc b3b6 803b 91d2 043c
000001e0: d743 5a3a 41dc 173b 9f0a 61ba b2ad 9f3c
000001f0: 9377 8fbb 138c 843a fbd8 2fbb 15e6 723b
00000200: 83f4 04bb ad40 1fba 27a4 6d3b df87 d7bb
00000210: c459 1cbb 286e 193c fd12 d4bb 27f2 dabb
00000220: e8e5 3c3b 608b a6bb 4333 6f3c 2365 33bb
00000230: 92e2 a53a 3973 083b aabc 27bc 43bb 5439
00000240: 68da 88bb 1725 9c3b e181 2eba 405b 8e38
00000250: 00e8 cf3a 7881 d6ba 337a 0c3c 7ae4 ffba
00000260: 6e31 2fbb 2d76 5d3b e238 5f3c 3d5b 703a
00000270: 79df 303c d345 463c 53a8 093b 820a 54b8
00000280: 980c 23bc b892 e8ba 8847 79bb 18d1 67ba
00000290: aa7b 6ebb 0996 94bb 9f68 87bb ccd4 b2bb
000002a0: 85fa a3bb 603d e13a 783d 603b b754 82bb
000002b0: 4a8e 2dbb deed 013c 4a02 103c 2be2 763b
000002c0: 4218 3eb9 523f 9fbb 60ae b13b 7d36 09bc
000002d0: 2a0e 9b3a 0a68 293c 0a21 0c3c b5b7 d9ba
000002e0: 836a ca3b 57b0 de3b 5239 74ba 4b30 e6ba
000002f0: bdad 8f3b 3271 d8ba 6b5c 76bc ff59 443a
00000300: 31ec 08ba fdeb c93b 40fc e2bb 2dce e53a
00000310: 3fa8 e1ba ffd8 d8bb 5732 98bb e7e7 043b
00000320: d6f1 1e3c a0a8 4d3a dd95 933a aa0d 783b
00000330: 3287 6cbb 09bb adb8 781b 41bb eff4 a8bb
00000340: f0e6 cd3a 3d5d 3b3c a399 7eba f7f0 24bc
00000350: 8af2 4a3b 6562 183c d5e4 e1bb db16 06bb
00000360: 2093 87bb 98c8 abbb 1a73 0dba fb61 5d3c
00000370: 5b5e 2bbc ca7c b8bb 4b00 0038 7cca 1dbc
00000380: 5539 7bbb 7f85 8f3b c018 89ba a677 b53b
00000390: f304 3c3b f84e 0aba 11ab 15bc c8a9 ce3b
000003a0: f08f 60bc 4904 18bc bf7f c7bb 5beb a5b9
000003b0: ffa2 c8bb f3cf 07bb 7af6 76bc 77aa 14bc
000003c0: 1751 11bc 3a2a 65b9 6e81 26bc d55f 8cb9
000003d0: 5b23 9a3b 16af 843b 37fe 83b9 5dde 2dbb
000003e0: 4447 94bb 7995 abb9 fa8d cdbb 5990 023c
000003f0: bc1e 363b 1646 42ba 285b e8bb b7f6 74bc
0.010014584 -0.0028669785 -0.006896149 -0.0013467844 -0.004322645 -0.0029734492 -0.0014589918 0.008878476
-0.000695834 -0.0018276575 0.0110148005 -0.008857202 -0.0027860482 0.0029036987 -0.0016150952 -0.00021905905
-0.00068242877 -0.0028259044 0.009611814 0.0026604189 -0.0013604581 0.011359171 0.0014335644 0.0021294442
-0.0010369444 -0.007707946 -0.010002787 0.007551297 -0.001425376 -0.003275254 0.0059346594 -0.000134709
0.0002144962 0.0049888375 -0.0058292686 -0.0046587326 -0.00018964565 0.0029421754 0.0062367003 -0.008308485
-0.00028241915 0.0020211127 0.006131472 0.0036143574 -0.014628626 -0.0018177889 0.0011719352 0.006858175
-0.00047136564 0.0022251958 0.0051527745 -0.0007322791 -0.0021584046 -0.00845127 0.009758097 -0.0020307635
-0.005357985 0.0124233505 0.0037110702 0.00095394393 0.0074256384 -0.00050544116 0.0004201477 0.004326379
-0.0038297498 -0.009180613 -0.005973547 0.0034969698 -0.0054119285 0.00036660326 -0.007237314 -0.0060427594
-0.010407739 0.0015525419 0.0026610517 -0.0033333623 -0.0028733888 -0.0024690381 0.000106610816 0.008590343
-0.003173368 0.0019684061 0.0059958035 0.010277438 -0.004955123 -0.00021719675 0.002235202 -0.002585147
-0.0045442837 0.0018362493 -0.0053602518 -0.002991893 -0.005797652 -0.007545343 0.010771475 0.005212743
-0.0029506464 0.007708893 -0.0020343908 -0.0067341025 -0.0075988914 -0.0064699985 -0.0014162856 -0.001249689
0.004512468 -0.0030938636 -0.0014002243 -0.007858341 -0.0034003288 -0.004099483 -0.00041335725 0.0010997611
-0.014786298 0.010096346 0.006312421 -0.0043598656 -0.0034483995 -0.008569623 0.0039280294 0.008106844
0.0008326149 0.0023172053 -0.00085846515 0.019492004 -0.004378268 0.0010112546 -0.0026832211 0.003706341
-0.0020287342 -0.0006075006 0.0036261172 -0.0065774764 -0.0023857215 0.009364642 -0.00647199 -0.006681699
0.0028823558 -0.0050825328 0.014599624 -0.0027373515 0.0012656024 0.0020820631 -0.010237852 0.00020287656
-0.0041764267 0.0047651636 -0.00066569267 6.788084e-05 0.0015861988 -0.0016365489 0.008574056 -0.0019523047
-0.0026732343 0.0033792362 0.013624402 0.0009168869 0.0107954675 0.012101608 0.002100487 -5.0554525e-05
-0.009951733 -0.0017743921 -0.003803702 -0.0008843108 -0.0036389627 -0.004534487 -0.004132345 -0.0054574963
-0.0050042295 0.0017184429 0.0034216326 -0.003977384 -0.0026482516 0.007930247 0.008789608 0.0037671428
-0.00018128849 -0.0048598433 0.0054223984 -0.008374807 0.0011829783 0.010339746 0.008552799 -0.0016610535
0.006177248 0.0067959237 -0.0009316403 -0.0017562 0.004384725 -0.0016513227 -0.015036683 0.0007490217
-0.00052231835 0.006162165 -0.006927043 0.0017532759 -0.0017216279 -0.006617665 -0.004644673 0.0020279826
0.009701213 0.00078452565 0.0011259873 0.0037849941 -0.0036091325 -8.284121e-05 -0.0029465836 -0.0051561515
0.0015709084 0.011435804 -0.0009712225 -0.010067216 0.0030967318 0.009300803 -0.006893734 -0.00204604
-0.0041374117 -0.0052424185 -0.00053958746 0.01351213 -0.010459508 -0.0056301104 3.051785e-05 -0.009630796
-0.0038333733 0.0043799276 -0.0010459647 0.005537945 0.0028689473 -0.00052760495 -0.009135024 0.0063068606
-0.013706192 -0.009278365 -0.0060882266 -0.00031646606 -0.0061229463 -0.0020723313 -0.015073413 -0.009073845
-0.008869431 -0.00021854872 -0.010162694 -0.0002677428 0.0047039217 0.004049192 -0.00025175672 -0.0026530244
-0.004525097 -0.00032727027 -0.0062730284 0.0079689855 0.0027789315 -0.00074109563 -0.007090945 -0.0149513995

discrete_action_output_shape f4 [1, 3]
00000000: 0000 4040 0000 4040 0000 4040
3.0 3.0 3.0

network_body._body_endoder.seq_layers.0.bias f4 [256]
00000000: 0000 0000 0000 0000 0000 0000 0000 0000
00000010: 0000 0000 0000 0000 0000 0000 0000 0000
00000020: 0000 0000 0000 0000 0000 0000 0000 0000
00000030: 0000 0000 0000 0000 0000 0000 0000 0000
00000040: 0000 0000 0000 0000 0000 0000 0000 0000
00000050: 0000 0000 0000 0000 0000 0000 0000 0000
00000060: 0000 0000 0000 0000 0000 0000 0000 0000
00000070: 0000 0000 0000 0000 0000 0000 0000 0000
00000080: 0000 0000 0000 0000 0000 0000 0000 0000
00000090: 0000 0000 0000 0000 0000 0000 0000 0000
000000a0: 0000 0000 0000 0000 0000 0000 0000 0000
000000b0: 0000 0000 0000 0000 0000 0000 0000 0000
000000c0: 0000 0000 0000 0000 0000 0000 0000 0000
000000d0: 0000 0000 0000 0000 0000 0000 0000 0000
000000e0: 0000 0000 0000 0000 0000 0000 0000 0000
000000f0: 0000 0000 0000 0000 0000 0000 0000 0000
00000100: 0000 0000 0000 0000 0000 0000 0000 0000
00000110: 0000 0000 0000 0000 0000 0000 0000 0000
00000120: 0000 0000 0000 0000 0000 0000 0000 0000
00000130: 0000 0000 0000 0000 0000 0000 0000 0000
00000140: 0000 0000 0000 0000 0000 0000 0000 0000
00000150: 0000 0000 0000 0000 0000 0000 0000 0000
00000160: 0000 0000 0000 0000 0000 0000 0000 0000
00000170: 0000 0000 0000 0000 0000 0000 0000 0000
00000180: 0000 0000 0000 0000 0000 0000 0000 0000
00000190: 0000 0000 0000 0000 0000 0000 0000 0000
000001a0: 0000 0000 0000 0000 0000 0000 0000 0000
000001b0: 0000 0000 0000 0000 0000 0000 0000 0000
000001c0: 0000 0000 0000 0000 0000 0000 0000 0000
000001d0: 0000 0000 0000 0000 0000 0000 0000 0000
000001e0: 0000 0000 0000 0000 0000 0000 0000 0000
000001f0: 0000 0000 0000 0000 0000 0000 0000 0000
00000200: 0000 0000 0000 0000 0000 0000 0000 0000
00000210: 0000 0000 0000 0000 0000 0000 0000 0000
00000220: 0000 0000 0000 0000 0000 0000 0000 0000
00000230: 0000 0000 0000 0000 0000 0000 0000 0000
00000240: 0000 0000 0000 0000 0000 0000 0000 0000
00000250: 0000 0000 0000 0000 0000 0000 0000 0000
00000260: 0000 0000 0000 0000 0000 0000 0000 0000
00000270: 0000 0000 0000 0000 0000 0000 0000 0000
00000280: 0000 0000 0000 0000 0000 0000 0000 0000
00000290: 0000 0000 0000 0000 0000 0000 0000 0000
000002a0: 0000 0000 0000 0000 0000 0000 0000 0000
000002b0: 0000 0000 0000 0000 0000 0000 0000 0000
000002c0: 0000 0000 0000 0000 0000 0000 0000 0000
000002d0: 0000 0000 0000 0000 0000 0000 0000 0000
000002e0: 0000 0000 0000 0000 0000 0000 0000 0000
000002f0: 0000 0000 0000 0000 0000 0000 0000 0000
00000300: 0000 0000 0000 0000 0000 0000 0000 0000
00000310: 0000 0000 0000 0000 0000 0000 0000 0000
00000320: 0000 0000 0000 0000 0000 0000 0000 0000
00000330: 0000 0000 0000 0000 0000 0000 0000 0000
00000340: 0000 0000 0000 0000 0000 0000 0000 0000
00000350: 0000 0000 0000 0000 0000 0000 0000 0000
00000360: 0000 0000 0000 0000 0000 0000 0000 0000
00000370: 0000 0000 0000 0000 0000 0000 0000 0000
00000380: 0000 0000 0000 0000 0000 0000 0000 0000
00000390: 0000 0000 0000 0000 0000 0000 0000 0000
000003a0: 0000 0000 0000 0000 0000 0000 0000 0000
000003b0: 0000 0000 0000 0000 0000 0000 0000 0000
000003c0: 0000 0000 0000 0000 0000 0000 0000 0000
000003d0: 0000 0000 0000 0000 0000 0000 0000 0000
000003e0: 0000 0000 0000 0000 0000 0000 0000 0000
000003f0: 0000 0000 0000 0000 0000 0000 0000 0000
0.0 0.0 0.0 0.0 0.0 0.0 0.0 0.0
0.0 0.0 0.0 0.0 0.0 0.0 0.0 0.0
0.0 0.0 0.0 0.0 0.0 0.0 0.0 0.0
0.0 0.0 0.0 0.0 0.0 0.0 0.0 0.0
0.0 0.0 0.0 0.0 0.0 0.0 0.0 0.0
0.0 0.0 0.0 0.0 0.0 0.0 0.0 0.0
0.0 0.0 0.0 0.0 0.0 0.0 0.0 0.0
0.0 0.0 0.0 0.0 0.0 0.0 0.0 0.0
0.0 0.0 0.0 0.0 0.0 0.0 0.0 0.0
0.0 0.0 0.0 0.0 0.0 0.0 0.0 0.0
0.0 0.0 0.0 0.0 0.0 0.0 0.0 0.0
0.0 0.0 0.0 0.0 0.0 0.0 0.0 0.0
0.0 0.0 0.0 0.0 0.0 0.0 0.0 0.0
0.0 0.0 0.0 0.0 0.0 0.0 0.0 0.0
0.0 0.0 0.0 0.0 0.0 0.0 0.0 0.0
0.0 0.0 0.0 0.0 0.0 0.0 0.0 0.0
0.0 0.0 0.0 0.0 0.0 0.0 0.0 0.0
0.0 0.0 0.0 0.0 0.0 0.0 0.0 0.0
0.0 0.0 0.0 0.0 0.0 0.0 0.0 0.0
0.0 0.0 0.0 0.0 0.0 0.0 0.0 0.0
0.0 0.0 0.0 0.0 0.0 0.0 0.0 0.0
0.0 0.0 0.0 0.0 0.0 0.0 0.0 0.0
0.0 0.0 0.0 0.0 0.0 0.0 0.0 0.0
0.0 0.0 0.0 0.0 0.0 0.0 0.0 0.0
0.0 0.0 0.0 0.0 0.0 0.0 0.0 0.0
0.0 0.0 0.0 0.0 0.0 0.0 0.0 0.0
0.0 0.0 0.0 0.0 0.0 0.0 0.0 0.0
0.0 0.0 0.0 0.0 0.0 0.0 0.0 0.0
0.0 0.0 0.0 0.0 0.0 0.0 0.0 0.0
0.0 0.0 0.0 0.0 0.0 0.0 0.0 0.0
0.0 0.0 0.0 0.0 0.0 0.0 0.0 0.0
0.0 0.0 0.0 0.0 0.0 0.0 0.0 0.0

network_body._body_endoder.seq_layers.0.weight f4 [256, 27]
00000000: fea0 04bd 7a7d 293e 0680 09be fb83 34bc
00000010: 8e4c d23d 5d72 c03d be57 68be 5f8b b9bc
00000020: 1768 8ebe 2678 ce3d 7c4e cabd d56c 013e
00000030: d925 363e bf80 b1bd 91d7 c13c 3c85 5e3e
00000040: cd90 a93e da25 d63d 7baf 35bd 1031 b9bd
00000050: c008 a03d 465d a0be da96 96bc 38a0 9c3e
00000060: a4dd 393e 1248 003d 5219 9f3b b4f3 ea3d
00000070: 7f27 a63d 4394 26bd a8e1 6c3e 3381 aebe
00000080: 419e 19be 103e 763e 373a 46be 527e 89bd
00000090: 52c6 f5bc 8a11 88be 41bf 0cbd 563b 8d3d
000000a0: c9ef d8bb eee6 163e 7816 13be d669 48bc
000000b0: a70f e6bd d26b 62bd 5cfb 363d a97a 883d
000000c0: f006 e8bd 0730 ffbd 7132 a7bd 9442 f6bd
000000d0: 3257 583e 896e 42be 985e 38be 722f cb3d
000000e0: d8e9 51be fcde b5be f100 29be c730 993e
000000f0: d390 36be 4f7b 9dbe 3e11 243e c032 123e
00000100: edd6 0a3e 2ce2 193e cc85 283f 982e 4d3d
00000110: 837d b9bd ffab 693e f835 513e 2910 d93c
00000120: 0718 59bd c2d3 b1bc 2ef3 65bd 0ee2 ce3d
00000130: 8967 74bd 6937 1c3e 3bac b23d 1b37 683e
00000140: 0b09 e73d e6b4 4b3e 4bf9 9a3e 299b 86bd
00000150: 593b 28be 8406 cdbd ba86 0bbe b732 b23e
00000160: 725b 9bbd 55e7 e9bb 01e4 21be 3d93 92be
00000170: f87c 0c3d f355 3dbe d3e4 373d e074 6dbe
00000180: 1634 b83e 945f 203d d652 51be 653e ad3b
00000190: 9ef3 36be 6c03 b53d 292d 81be 986c cebd
000001a0: e49d 05be d358 56bd e4ac eebc 23fc e8bc
000001b0: b358 2c3e ebbe 82be 4717 8c3d 13d9 293b
000001c0: 4717 13be 2334 123d 7821 003d 2c7c 123e
000001d0: 2766 0abd 3627 13be 31bf b7bd 6e16 12be
000001e0: 1745 a43e a401 92be 266a e43d 4dda 90bc
000001f0: cc55 f2bb 6c59 d73c e608 c3bd e1d5 8b3e
00000200: 3044 53be c519 85bd 185b 623e 8d57 c6be
00000210: 174d cc3d e91e c63d 1b7e 27be 92e2 83bd
00000220: 35e2 2c3e f903 813d 4167 5fbc ac86 3f3e
00000230: d1e8 113e 2f66 3a3c fa25 e03d b50d 1ebe
00000240: 8bed 113e a4ec b03e 5634 1bbf 054f 593e
00000250: 5773 82be 38c9 5b3e f516 13bc b5cf 72bb
00000260: ed5a 003e 4828 72be e4dc 313e 6fe0 523e
00000270: 7c05 303e d645 8dbe 626a 79bc 6220 21be
00000280: a7d4 493e 57ce 26be f2bc 72be 68d2 d03d
00000290: 7286 fc3d 037c d2bd c4c7 e4be 0e67 1f3e
000002a0: 6899 8c3e 28f2 92bc 2d43 8f3e 9935 483e
000002b0: 1403 713e c48a 5d3d 316f 81ba 3177 87bd
000002c0: 4b9f 503b 20c1 b63c f8bb a0bd b971 9dbe
000002d0: b91b 77be 22b0 0dbe 5bd2 22be 9f16 babd
000002e0: abd4 0abd 8099 30be b908 6dbd e43b 9bbe
000002f0: 3e52 5fbd 415e af3d 8051 b43e 7709 f3bd
00000300: fa6b 993b 8208 abbe e4b7 1c3f 057c 673e
00000310: 5c78 5b3e 9381 96be 7028 613d 7289 363e
00000320: e837 a1be 18cd d33e 74ba 993d 8196 923a
00000330: ab26 39bc 05a6 f5bb 4436 843d 72c6 393e
00000340: cdbf aabe 2e13 413e 2372 873d 8f31 ddbd
00000350: f17b a1bc 054f 033e b011 363e 2d67 023d
00000360: a0cb 7abe 5085 9dbd 4392 53bd d606 e13d
00000370: 2b2e 88be dc61 83bd 1f7b a23e 8b20 27bd
00000380: 6f68 e23d b5b5 b13d 00d8 d93d b03c 11be
00000390: f610 103d e5ba 073e d8c1 cf3d 2c51 9bbe
000003a0: 9e43 a1be ff1f 62bd 90fb b23e e094 c6be
000003b0: 92a3 bfbe 1f43 b5bd 3733 953d 0537 673d
000003c0: c023 f53d 1454 373e 3bfb 93bd a1e5 143c
000003d0: d209 1cbe f7ca 8f3e f39b 01bd 6d9a b1be
000003e0: b638 073e 0623 91be 8b7e 113e 5485 cb3e
000003f0: 1a68 a0be 28cd 8ebe 5875 253e 95c7 133f
-0.032380097 0.16551772 -0.13427743 -0.011017795 0.10268508 0.09396813 -0.22689721 -0.022649465
-0.2781379 0.1008151 -0.09878251 0.12639172 0.17787875 -0.086671345 0.02366236 0.21730512
0.33118287 0.10456438 -0.044356804 -0.09042561 0.07814169 -0.31321162 -0.018382479 0.30590987
0.18150955 0.03131873 0.0048553133 0.11472264 0.08113002 -0.040668737 0.23132956 -0.34082946
-0.15001775 0.24047112 -0.19358145 -0.06713547 -0.030001793 -0.2657588 -0.03436208 0.06896083
-0.0066203815 0.1473653 -0.1436404 -0.0122322645 -0.11233454 -0.055278607 0.04467331 0.066640206
-0.11329448 -0.12460332 -0.08163918 -0.120244175 0.21127012 -0.18987478 -0.18004835 0.09921159
-0.2049936 -0.35521686 -0.16504265 0.29920027 -0.17828684 -0.3075814 0.16022202 0.14277172
0.1355855 0.15027684 0.6582916 0.050093263 -0.090571426 0.22819518 0.20430744 0.026496964
-0.05300143 -0.02170742 -0.056140117 0.1010171 -0.05966905 0.15255512 0.087242566 0.22677271
0.11281022 0.19893226 0.3026832 -0.06572563 -0.1642889 -0.100110084 -0.13625613 0.34804317
-0.07585801 -0.0071381726 -0.15809633 -0.2862796 0.034298867 -0.18489818 0.04489596 -0.23189116
0.35977238 0.03915365 -0.20441756 0.005286979 -0.1786637 0.08838543 -0.25229767 -0.10079306
-0.13048512 -0.052330803 -0.029135175 -0.02844054 0.16830711 -0.25536284 0.06840377 0.002591674
-0.14364348 0.035694253 0.03128192 0.1430518 -0.033788826 -0.14370427 -0.08972014 -0.14266369
0.3208396 -0.28516877 0.11153059 -0.017682219 -0.0073954817 0.026287757 -0.095231816 0.27311614
-0.2063148 -0.06499056 0.22105062 -0.3873867 0.09975641 0.096738644 -0.16356699 -0.06439699
0.16883166 0.06299586 -0.0136354575 0.18703717 0.14248969 0.0113769015 0.109447435 -0.15434916
0.14250772 0.34555542 -0.60626733 0.2122155 -0.25478622 0.21463478 -0.008977641 -0.0037050073
0.12534685 -0.23648179 0.1736942 0.20593427 0.17189592 -0.27592343 -0.015223118 -0.1573501
0.19710027 -0.1628965 -0.2370489 0.10196382 0.12330331 -0.102775596 -0.4468366 0.15566656
0.2746079 -0.017937735 0.2798094 0.19551696 0.2353633 0.054087415 -0.0009875057 -0.06614531
0.0031833227 0.022308886 -0.07848352 -0.30750826 -0.24131669 -0.1383672 -0.15900557 -0.09086346
-0.033894222 -0.17246056 -0.057869647 -0.3031913 -0.05452179 0.085628994 0.3521843 -0.1186704
0.0046820613 -0.33404928 0.61218095 0.22605903 0.21432632 -0.29395732 0.054970205 0.17825869
-0.31487966 0.41367412 0.07506266 0.001118377 -0.011300723 -0.0074965977 0.06455663 0.18142107
-0.33349457 0.18854973 0.06613567 -0.10800468 -0.01971242 0.12823112 0.17780185 0.031836677
-0.2449174 -0.07691443 -0.051653158 0.10987632 -0.26597723 -0.064151496 0.3173456 -0.04080252
0.110550754 0.08677236 0.10636902 -0.14183307 0.035172425 0.13254888 0.10144395 -0.30335367
-0.314969 -0.055206295 0.34957552 -0.38785458 -0.37429482 -0.08850693 0.07285159 0.056448955
0.119697094 0.17903167 -0.07225653 0.009087951 -0.15238121 0.28084537 -0.031642865 -0.3468813
0.13205227 -0.28347033 0.14208429 0.3975016 -0.31329423 -0.27890897 0.16158044 0.57726413

network_body._body_endoder.seq_layers.2.bias f4 [256]
00000000: 0000 0000 0000 0000 0000 0000 0000 0000
00000010: 0000 0000 0000 0000 0000 0000 0000 0000
00000020: 0000 0000 0000 0000 0000 0000 0000 0000
00000030: 0000 0000 0000 0000 0000 0000 0000 0000
00000040: 0000 0000 0000 0000 0000 0000 0000 0000
00000050: 0000 0000 0000 0000 0000 0000 0000 0000
00000060: 0000 0000 0000 0000 0000 0000 0000 0000
00000070: 0000 0000 0000 0000 0000 0000 0000 0000
00000080: 0000 0000 0000 0000 0000 0000 0000 0000
00000090: 0000 0000 0000 0000 0000 0000 0000 0000
000000a0: 0000 0000 0000 0000 0000 0000 0000 0000
000000b0: 0000 0000 0000 0000 0000 0000 0000 0000
000000c0: 0000 0000 0000 0000 0000 0000 0000 0000
000000d0: 0000 0000 0000 0000 0000 0000 0000 0000
000000e0: 0000 0000 0000 0000 0000 0000 0000 0000
000000f0: 0000 0000 0000 0000 0000 0000 0000 0000
00000100: 0000 0000 0000 0000 0000 0000 0000 0000
00000110: 0000 0000 0000 0000 0000 0000 0000 0000
00000120: 0000 0000 0000 0000 0000 0000 0000 0000
00000130: 0000 0000 0000 0000 0000 0000 0000 0000
00000140: 0000 0000 0000 0000 0000 0000 0000 0000
00000150: 0000 0000 0000 0000 0000 0000 0000 0000
00000160: 0000 0000 0000 0000 0000 0000 0000 0000
00000170: 0000 0000 0000 0000 0000 0000 0000 0000
00000180: 0000 0000 0000 0000 0000 0000 0000 0000
00000190: 0000 0000 0000 0000 0000 0000 0000 0000
000001a0: 0000 0000 0000 0000 0000 0000 0000 0000
000001b0: 0000 0000 0000 0000 0000 0000 0000 0000
000001c0: 0000 0000 0000 0000 0000 0000 0000 0000
000001d0: 0000 0000 0000 0000 0000 0000 0000 0000
000001e0: 0000 0000 0000 0000 0000 0000 0000 0000
000001f0: 0000 0000 0000 0000 0000 0000 0000 0000
00000200: 0000 0000 0000 0000 0000 0000 0000 0000
00000210: 0000 0000 0000 0000 0000 0000 0000 0000
00000220: 0000 0000 0000 0000 0000 0000 0000 0000
00000230: 0000 0000 0000 0000 0000 0000 0000 0000
00000240: 0000 0000 0000 0000 0000 0000 0000 0000
00000250: 0000 0000 0000 0000 0000 0000 0000 0000
00000260: 0000 0000 0000 0000 0000 0000 0000 0000
00000270: 0000 0000 0000 0000 0000 0000 0000 0000
00000280: 0000 0000 0000 0000 0000 0000 0000 0000
00000290: 0000 0000 0000 0000 0000 0000 0000 0000
000002a0: 0000 0000 0000 0000 0000 0000 0000 0000
000002b0: 0000 0000 0000 0000 0000 0000 0000 0000
000002c0: 0000 0000 0000 0000 0000 0000 0000 0000
000002d0: 0000 0000 0000 0000 0000 0000 0000 0000
000002e0: 0000 0000 0000 0000 0000 0000 0000 0000
000002f0: 0000 0000 0000 0000 0000 0000 0000 0000
00000300: 0000 0000 0000 0000 0000 0000 0000 0000
00000310: 0000 0000 0000 0000 0000 0000 0000 0000
00000320: 0000 0000 0000 0000 0000 0000 0000 0000
00000330: 0000 0000 0000 0000 0000 0000 0000 0000
00000340: 0000 0000 0000 0000 0000 0000 0000 0000
00000350: 0000 0000 0000 0000 0000 0000 0000 0000
00000360: 0000 0000 0000 0000 0000 0000 0000 0000
00000370: 0000 0000 0000 0000 0000 0000 0000 0000
00000380: 0000 0000 0000 0000 0000 0000 0000 0000
00000390: 0000 0000 0000 0000 0000 0000 0000 0000
000003a0: 0000 0000 0000 0000 0000 0000 0000 0000
000003b0: 0000 0000 0000 0000 0000 0000 0000 0000
000003c0: 0000 0000 0000 0000 0000 0000 0000 0000
000003d0: 0000 0000 0000 0000 0000 0000 0000 0000
000003e0: 0000 0000 0000 0000 0000 0000 0000 0000
000003f0: 0000 0000 0000 0000 0000 0000 0000 0000
0.0 0.0 0.0 0.0 0.0 0.0 0.0 0.0
0.0 0.0 0.0 0.0 0.0 0.0 0.0 0.0
0.0 0.0 0.0 0.0 0.0 0.0 0.0 0.0
0.0 0.0 0.0 0.0 0.0 0.0 0.0 0.0
0.0 0.0 0.0 0.0 0.0 0.0 0.0 0.0
0.0 0.0 0.0 0.0 0.0 0.0 0.0 0.0
0.0 0.0 0.0 0.0 0.0 0.0 0.0 0.0
0.0 0.0 0.0 0.0 0.0 0.0 0.0 0.0
0.0 0.0 0.0 0.0 0.0 0.0 0.0 0.0
0.0 0.0 0.0 0.0 0.0 0.0 0.0 0.0
0.0 0.0 0.0 0.0 0.0 0.0 0.0 0.0
0.0 0.0 0.0 0.0 0.0 0.0 0.0 0.0
0.0 0.0 0.0 0.0 0.0 0.0 0.0 0.0
0.0 0.0 0.0 0.0 0.0 0.0 0.0 0.0
0.0 0.0 0.0 0.0 0.0 0.0 0.0 0.0
0.0 0.0 0.0 0.0 0.0 0.0 0.0 0.0
0.0 0.0 0.0 0.0 0.0 0.0 0.0 0.0
0.0 0.0 0.0 0.0 0.0 0.0 0.0 0.0
0.0 0.0 0.0 0.0 0.0 0.0 0.0 0.0
0.0 0.0 0.0 0.0 0.0 0.0 0.0 0.0
0.0 0.0 0.0 0.0 0.0 0.0 0.0 0.0
0.0 0.0 0.0 0.0 0.0 0.0 0.0 0.0
0.0 0.0 0.0 0.0 0.0 0.0 0.0 0.0
0.0 0.0 0.0 0.0 0.0 0.0 0.0 0.0
0.0 0.0 0.0 0.0 0.0 0.0 0.0 0.0
0.0 0.0 0.0 0.0 0.0 0.0 0.0 0.0
0.0 0.0 0.0 0.0 0.0 0.0 0.0 0.0
0.0 0.0 0.0 0.0 0.0 0.0 0.0 0.0
0.0 0.0 0.0 0.0 0.0 0.0 0.0 0.0
0.0 0.0 0.0 0.0 0.0 0.0 0.0 0.0
0.0 0.0 0.0 0.0 0.0 0.0 0.0 0.0
0.0 0.0 0.0 0.0 0.0 0.0 0.0 0.0

network_body._body_endoder.seq_layers.2.weight f4 [256, 256]
00000000: 634f d1bc 837f 2c3e dd5b cb3b f83b 19bd
00000010: 1fbd 413c c715 0fbd af63 e23c 46a6 273d
00000020: e2eb 11bc 4d56 45bd 4466 9cbd a10a 273d
00000030: 91ca 053d cf2e 4e3e c001 dfbc 66ec 86bd
00000040: 8e6a 7e3c e68c 3f3e 75d3 63bc 5143 20be
00000050: 1810 44bd 9063 0a3d c125 92bc 62b2 2cbb
00000060: 8457 bd3d 2bd6 b13d 3e8c 853d 6e05 063d
00000070: 2722 383d 2811 6d3d 2eff babc d16e a53d
00000080: 0f8b b9bd 9533 f5bc 0285 13bd eaec e03c
00000090: 298e d73b 4166 a8bc 975d 98bd 5717 51bd
000000a0: f09a c3bd e440 323d b212 bc3d 6e1b 4cbc
000000b0: ce7d 9c3d 01e9 48bd ebbb 613c 550f f9bc
000000c0: 8c88 2dbd d75d 6ebd f611 263d 1e2b cfbc
000000d0: 00c7 c5bc 21c5 cbbc 56f7 403d e415 dd3c
000000e0: f84f adbd c027 853d 8844 55bd 94fb 043e
000000f0: 9d3b 45bd 7c5b 3abc 9f91 a4bd ff8f 533d
00000100: a29d db3d f598 3d3c 4c36 083d 9a3f 013d
00000110: d229 923d 6965 53bd b4a5 33bd 9cb7 1bba
00000120: 65ec 9d3c 0da5 bdbd 87f9 f0bc 91fb 02be
00000130: 5b73 10bd aa20 993d 067e 083e 6116 a8bd
00000140: 08ab 9ebc 5345 03bd 3781 76bd f049 713d
00000150: 707a 503d 4c8c cdbc 2682 1e3d c6af 21bc
00000160: c9d4 be3d 5782 b43d 9d95 ce3d 863f a0bd
00000170: 9af3 77bd be5d b9bc 4e6a 84bd 8825 3b3d
00000180: 5747 70bc 4b18 543c a35b 2f3d fa8f c43c
00000190: c549 013e 3fe4 83bd add9 10bc a7d4 fc3d
000001a0: caeb 2f3d 1a8e 6b3c 5f9c 11be 59da 4f3d
000001b0: 6ae0 d1bd f98b 923c 6551 cb3b 5c98 0a3d
000001c0: 599e 523d 0e15 febd e50b a33c bab8 a4bd
000001d0: 61f6 f03c e9be 863d a3fd b13d 0da9 46bd
000001e0: a3c5 b8bc afd8 963c 9f10 bc3d f36b 93bc
000001f0: 0e58 bd3d 79e4 debd 1387 b73d 3d83 3d3d
00000200: 436c 7fbd 064b 8cbb 0abc b7bc 47e5 09be
00000210: 7d3a 56bd 91a6 8e3a 5e08 e83c 9729 053d
00000220: 7609 90bd fe83 c23d 2dd8 49bd 4854 19be
00000230: 2dd9 cc3c c0b2 42be 149b e2bc e6b0 123d
00000240: dfa7 0bbe f0b0 dcbd 8f30 6f3d 5cb9 24be
00000250: 7f64 263d f0d5 55bd de1f ad3d 5176 39bd
00000260: 2933 063c fcd8 dbbd e1a7 8f3d 9e85 ba3d
00000270: fb60 393b 05f6 cebc db5f 03be 3954 3abd
00000280: 1748 563c c283 2e3d 063c cd3d 94d7 4e3b
00000290: 9152 6abd f1de 253d 3671 a53d 8550 5a3d
000002a0: 22fb 6bbc 8932 b5bd 99e9 dabc d525 01be
000002b0: 178c 203d 60e7 e23c 412c 02bd a01a aabc
000002c0: afa7 1f3d 3fff b43c 737c b5bc aca9 b53b
000002d0: cb85 a73d 2283 3d3b ae33 673d 9a2f 25bd
000002e0: 9ef2 d33c ac68 23be ab7a 6ebd a342 ac3d
000002f0: 289f 813c 75b4 623c 6d81 e93c 17bb 60bc
00000300: fa4f b13c 9bf0 bcbc 2ade 0ebd 1371 543c
00000310: 6e38 51bc 07b0 413c c808 573c f73c 0bbd
00000320: 306f e1bd cfb9 39bd 2392 1bbd 7796 7bbd
00000330: af99 bf3c e48a 65bd 4a0f 283c 048a 233d
00000340: bf17 efbc 0a5c 3fbb cfd8 bfbc 0712 5d3c
00000350: 6fe1 2b3b 2505 793d c6cd b0bd d17f 4a3c
00000360: b7fa cabc b695 02be 2fa8 0c3d 942c fbbc
00000370: 059e d1bd 83ae a8bc 82ca 30bc aa2e 433d
00000380: c849 1abe 3b82 9ebd e0eb a0bd 8912 e4bc
00000390: cfe1 f93d efef 03bd 156a 9939 d74d 273d
000003a0: 4327 0ebd 369a 003c f708 c2bb 278d 5cbd
000003b0: 109a 5a3d cd24 383d 72c4 163e 8811 25b8
000003c0: 29a2 1dbd f7b1 383d 9436 5a3c a026 903c
000003d0: 3ba6 f83d 179c 5e3d 66e2 6d3d 00ca 92bc
000003e0: f2dd 9dba 619a 78bd c00d e9bc c61c a13c
000003f0: e0ca 39bd aff1 bb3d eb30 d33d acd8 293c
-0.02555055 0.16845517 0.0062060193 -0.037410706 0.011824875 -0.034932878 0.027635423 0.040930055
-0.0089063365 -0.048178006 -0.07636693 0.04078162 0.032663886 0.20135044 -0.027222514 -0.06588058
0.015528334 0.18706092 -0.013905396 -0.15650679 -0.04786691 0.033786356 -0.017840268 -0.0026351442
0.09245208 0.086834274 0.0652089 0.032720022 0.044954445 0.05787769 -0.022826757 0.08077777
-0.090597264 -0.029931823 -0.036015518 0.02745672 0.006578226 -0.020556571 -0.07439726 -0.05104765
-0.09551036 0.043518916 0.09183253 -0.012457712 0.07641183 -0.049050335 0.013777713 -0.030402819
-0.04236655 -0.05819496 0.040544473 -0.025289115 -0.024142742 -0.024874272 0.047110878 0.026987977
-0.084625185 0.06501722 -0.05206731 0.12986594 -0.048152555 -0.011374351 -0.080355875 0.051650997
0.107234254 0.011572112 0.033254907 0.031554796 0.07136883 -0.051610384 -0.0438592 -0.00059401407
0.01927776 -0.092599966 -0.029415859 -0.12791277 -0.03526626 0.07476933 0.13329324 -0.082073934
-0.019368663 -0.032048535 -0.060181823 0.058908403 0.050898015 -0.025091313 0.038698338 -0.009868568
0.09317929 0.08813923 0.1008713 -0.07824616 -0.06053505 -0.022627708 -0.064655885 0.04569009
-0.014665446 0.012945245 0.042812 0.023994435 0.12625797 -0.06440019 -0.00884096 0.12345248
0.042949475 0.014377141 -0.14219807 0.050745342 -0.10247882 0.01788901 0.0062047713 0.033836707
0.051420543 -0.124063596 0.019903133 -0.08043046 0.029414358 0.06579382 0.086909555 -0.048501063
-0.022555178 0.01841387 0.09182858 -0.01799581 0.09245311 -0.108834215 0.0896131 0.046267737
-0.062359106 -0.0042814044 -0.022428531 -0.13466369 -0.052301873 0.0010883381 0.028324302 0.032510366
-0.070330545 0.09497832 -0.049278427 -0.14973557 0.025005901 -0.190135 -0.027661838 0.035813235
-0.13638256 -0.10775936 0.05839592 -0.16086334 0.040623184 -0.05220598 0.08453344 -0.04527885
0.0081909085 -0.10734746 0.07014442 0.09107517 0.0028286565 -0.025263796 -0.12829535 -0.045490477
0.013078711 0.042606123 0.10021214 0.00315616 -0.057207648 0.040495817 0.08078234 0.053299446
-0.014403136 -0.088475294 -0.026722716 -0.12612088 0.0391961 0.027698219 -0.031780485 -0.020764649
0.038978275 0.022094367 -0.022154069 0.005543908 0.08179816 0.0028917273 0.05644577 -0.0403286
0.025872525 -0.15957898 -0.058222454 0.084111474 0.015822962 0.01383697 0.028504098 -0.013716481
0.021644581 -0.023063948 -0.03487984 0.012966412 -0.012769802 0.011821753 0.013124652 -0.033993687
-0.110075355 -0.045343217 -0.037981164 -0.06142279 0.023388712 -0.05604066 0.010257551 0.039926544
-0.029186128 -0.0029199147 -0.023418812 0.013493068 0.0026226898 0.06079592 -0.08632998 0.012359575
-0.024777753 -0.12752423 0.03434008 -0.030660905 -0.10235218 -0.020591026 -0.010790469 0.047651924
-0.15067208 -0.07739683 -0.078574896 -0.02784087 0.12201273 -0.03221124 0.0002926147 0.04084572
-0.03470541 0.007849267 -0.005921479 -0.05384555 0.05336958 0.04495697 0.14723375 -3.9355393e-05
-0.038484726 0.045091596 0.0133186765 0.017596543 0.12141081 0.054348078 0.05807724 -0.017918587
-0.0012044294 -0.060694102 -0.02844894 0.01966704 -0.045359492 0.09176957 0.10312065 0.0103666
