Assets/ML-Agents/results/Andrew ML/results/sc_01 - Copy/SimpleCollector/SimpleCollector-40870.onnx (onnx, 305000 bytes, 11 tensors)

action_model._discrete_distribution.branches.0.bias f4 [3]
00000000: 4f55 1dba 2d97 e23b 85a4 b1bb
-0.00060017867 0.006914994 -0.0054212236

action_model._discrete_distribution.branches.0.weight f4 [3, 256]
00000000: 58bc e4bc 7d12 e23a 89b6 2bbc 6588 97ba
00000010: 50d6 69bc 7380 6abc d296 563c 9a0f 2c3b
00000020: 5aa1 b03b f962 b3b9 99d5 05bc 8fac a2bc
00000030: 368e d83b 4d0f 0139 8909 c7bb 84cd 18b9
00000040: 3c9a 01bb 1d86 95bc 2d48 7bbc 62b2 373b
00000050: 6751 0a3c 5a90 2b3c 7f69 93bb af89 edbb
00000060: 3c6f c0bb 7a66 723b 08a5 723b c280 153c
00000070: 7dc5 913a 8adf cc3c 9b97 25bc 602b 053c
00000080: a353 433c 0650 c43a 1c2a 5e3c 00c2 6fbc
00000090: 9fa8 a2ba 868a c83b bf99 923b 0ad6 233c
000000a0: f656 263c d64b 2e3b eb90 4e3c 55c6 573c
000000b0: 1262 8a3c 5a01 f63b 3107 29bc 3699 9bbb
000000c0: d4dc 473c 43c3 673c 800e 603c 7f4e 6f3b
000000d0: 6efa 6a3c e130 9cbb 9e1b a63c 8517 1f3b
000000e0: 551c 813b ab57 73bc 3daf 74bc 1cba 1439
000000f0: 18b4 db3b 90e1 3d3c 87ca 4d3c 3b13 3cbc
00000100: 0c0f 033c d965 003c 69af a63c 84cb 92bb
00000110: 9333 80ba 620a 6e3c 1da3 503c 3180 32bc
00000120: 0540 8ebc aecc 883b 3e07 773b dbda 943c
00000130: ba0f 143c 4cd4 76bb f50c dd3a e0a1 c43c
00000140: d539 8f3b aa0a 9b3c 8f9f 603b 36b1 e6bb
00000150: a98d e43b 37f2 5d3c 67bd 043c bec3 4c3a
00000160: a768 093c 38d1 323c 728a 0e3c 93dc 5f3c
00000170: 313e d23b 39a8 f2bb a224 ceba be6d 5bbc
00000180: 1e74 3dbc f5a3 d63b dafb 3b3a 8bbc 463c
00000190: 2266 053a 1e55 bdbb fd2f ff3a 5c08 4a3a
000001a0: 80ae 95bc cebe d439 d4f0 963b 10d5 843c
000001b0: 44b4 453b b628 28bc 6c5c ee3b 6e8f 62bb
000001c0: acf6 43bc 1a9b d03b de0c b93b 55f6 86bb
000001d0: 5540 1cbb a302 0cbc 0bd0 67bc 8ae2 f03b
000001e0: aab4 113b 3f0d 743c 02e2 7c3b f124 d7bb
000001f0: b83d 06bd dcb3 86bc 2871 e53a d306 6d3c
00000200: 5773 24bc 9c53 a5ba 5ce1 5a3b a734 093c
00000210: 3996 10bc 82cf 27ba f2ef bdbb 1737 0fbb
00000220: 61aa d83b fa2b 15bc a415 c1bc 4a00 1fbc
00000230: 58c6 3b3a 0c42 263c b24b 0f3b 6fec b6bb
00000240: c957 28bc 7b3b 963c bd3d cfbb a21e 943c
00000250: fd8f d9bc 7f3b 5f3b 77f1 3f3c f1ac 123c
00000260: 5310 e33b 15bf 31bb 84d2 7a3b 5d2f 3fbc
00000270: a631 dabb 22e8 08bc e94e 88ba 5514 8f3b
00000280: feb4 433b 6695 0d3c 6284 cb3b 0ad7 a739
00000290: 7a2b 4f3c 2721 60bb 0251 c1bb c672 033c
000002a0: 696c 3cbc 07a9 ad3a c36f 443c 926a 4f3c
000002b0: 6abe 213c a9d6 b03c d5b3 fb3b 7fa6 fc3b
000002c0: 9643 4f3c 37c6 983b a9d9 313a 5941 753c
000002d0: 4112 23bc 385e 133a 04a7 bdbb 4062 68bc
000002e0: 462b f3bb 8f00 883b b3b1 b8bc 84e5 453c
000002f0: 6fbc f2bb 9c8b debb 569a 8c3b c106 0d3c
00000300: 8082 30bc 718b ef3a 7deb f9bb ea04 92bb
00000310: 743f 923a c7f8 a439 d0fb c03b f87e fb3b
00000320: 9dfb 31ba a3ec 143c 325b 863b 7e41 a4bb
00000330: 795d 54bc 9083 643c 0c9a 813a 6787 01bc
00000340: dc1f 0d3b 462f a9bc 6a8e d13b 97f3 5abc
00000350: 93c7 3fbc e1d0 933c e0b4 08bb 4c30 2abc
00000360: 41ed 59bb 0ca0 143c d23a 66bb f6ff 843b
00000370: cb46 fab9 0865 893c fe82 e03b a5f2 74bb
00000380: c780 e33a 59e3 33bc 3e79 cabc 362a 143c
00000390: b595 a8ba e437 c53b 1294 b93a 4c6e ebbb
000003a0: b2ce 6739 7c9a 053c ec68 0d3a dde8 203c
000003b0: 55a1 533c 2f00 063c 70f6 f33b 4946 633c
000003c0: aba1 b0bc e593 1e3c 99c0 a4ba bb1b 08bb
000003d0: 6ee6 d2bb b7e1 2d3c 673e 193c 4eab 1eba
000003e0: 6f26 2dbc fd43 e0bb 4991 35bc f85b c0bb
000003f0: 45d3 bbbb 34ff 643c 9b31 ad3c a892 8abb
-0.02792184 0.0017247942 -0.0104805315 -0.0011561034 -0.0142722875 -0.014312851 0.013097482 0.0026254416
0.0053903284 -0.0003421528 -0.008168601 -0.019857673 0.0066087497 0.00012308099 -0.0060741347 -0.0001457241
-0.0019775769 -0.018252427 -0.015337032 0.0028029908 0.008442259 0.010471428 -0.00449866 -0.007249079
-0.005872635 0.003698735 0.0037024636 0.009124937 0.0011121478 0.025008935 -0.010106946 0.008128017
0.011921796 0.0014977462 0.013559844 -0.014633656 -0.0012409872 0.006120029 0.0044738944 0.009999761
0.010152569 0.0026595495 0.012607793 0.013169845 0.016892467 0.0075074853 -0.010316656 -0.004748489
0.012198646 0.014145675 0.013675332 0.0036515293 0.014341934 -0.004766569 0.02027684 0.0024275493
0.003940145 -0.014852445 -0.014934358 0.00014183711 0.0067048185 0.011589423 0.012560493 -0.011479194
0.007999193 0.007836782 0.020347314 -0.0044798274 -0.0009780995 0.014528843 0.012734202 -0.010894821
-0.017364511 0.0041747903 0.0037693526 0.018170765 0.009036953 -0.003766316 0.0016864823 0.02400297
0.004370908 0.018925983 0.0034274792 -0.007040168 0.006974895 0.013546518 0.008101798 0.000781115
0.0083867675 0.010914139 0.0087 0.013663429 0.006416105 -0.0074053076 -0.001572747 -0.013392864
-0.011563329 0.006550307 0.00071710127 0.012129913 0.00050887663 -0.005777969 0.0019469258 0.0007706934
-0.018271685 0.00040577952 0.0046063457 0.016214877 0.003016726 -0.0102636125 0.007274201 -0.0034570354
-0.011960667 0.006366146 0.005647286 -0.0041187205 -0.0023842056 -0.0085455505 -0.014148722 0.0073512243
0.0022232928 0.014895736 0.003858686 -0.006565683 -0.032773703 -0.016443186 0.0017505037 0.014466959
-0.010037265 -0.0012613419 0.0033398485 0.00837437 -0.008824878 -0.00064014655 -0.005796426 -0.0021852904
0.0066121076 -0.009104723 -0.02356989 -0.009704659 0.00071630394 0.010147583 0.0021865186 -0.0055823843
-0.010274836 0.01833891 -0.0063244984 0.018081013 -0.026557917 0.0034062562 0.011715285 0.008952365
0.0069294362 -0.002712195 0.003827245 -0.011669007 -0.0066587506 -0.008356126 -0.0010399494 0.0043664374
0.0029862518 0.008641576 0.0062108496 0.0003201294 0.012644643 -0.0034199448 -0.0058995495 0.00802297
-0.011500456 0.0013249227 0.011989537 0.012659686 0.009872058 0.021586733 0.0076813498 0.0077102776
0.012650391 0.004662301 0.0006784448 0.014969193 -0.009953083 0.00056216447 -0.005787732 -0.014183581
-0.00742093 0.004150457 -0.022545671 0.012078647 -0.007407717 -0.006791545 0.004290859 0.008607567
-0.010773301 0.001827581 -0.0076269493 -0.004456152 0.0011157827 0.0003146587 0.0058893934 0.007675048
-0.00067895075 0.009089622 0.004100227 -0.00501269 -0.012961739 0.013947383 0.0009887828 -0.007905818
0.0021533882 -0.020652425 0.006395151 -0.01336374 -0.011705297 0.018043937 -0.0020859763 -0.010387491
-0.0033252987 0.009071361 -0.0035130274 0.0040588332 -0.0004773646 0.016771808 0.006851553 -0.0037376073
0.0017357104 -0.010979497 -0.024716016 0.009043267 -0.0012861999 0.0060186256 0.0014158508 -0.0071847793
0.00022106877 0.008154508 0.0005394358 0.009821144 0.0129168825 0.008178755 0.007445149 0.013871738
-0.021561464 0.0096788155 -0.0012569606 -0.0020768482 -0.0064361608 0.010612897 0.009353257 -0.0006052748
-0.010568245 -0.0068440423 -0.011082002 -0.0058703385 -0.0057319724 0.013976861 0.021141818 -0.0042289086

action_model._discrete_distribution.branches.1.bias f4 [3]
00000000: 30fd 42bb 6908 d83b 37ac 24bb
-0.0029752962 0.0065927994 -0.0025127062

action_model._discrete_distribution.branches.1.weight f4 [3, 256]
00000000: a5fb eabb 2c53 efbb 3bd7 44bb 3740 6a3c
00000010: 4096 49bc 4010 a9bc 4cc4 863c 1efd 2e3c
00000020: 5467 10bc 117e 7b3c fb20 403c 65d7 82bc
00000030: cc0d 223c a9ac 793c 5df3 79bc f638 01ba
00000040: c844 6f3a 391e 363b 47b0 65bc 1a93 1d3c
00000050: cf2c 5e3c ee26 a0bb 8c63 433b fee3 fdbb
00000060: ee6f e4bb caf9 f03a face d23a 31f2 063b
00000070: 70d9 ff3b 074c 8a3c 0085 bb3b 108e db3b
00000080: db59 ea3b 5af2 bcbb e92c 92bc 74ee f5bb
00000090: 1dd5 1f3b 05e0 353c 286c aaba cd70 b03a
000000a0: bbd5 3bbb bc98 08bc d435 86bb 6a04 9c3b
000000b0: 2a67 093b 9a93 c4bb acba 3abb 1d63 a03b
000000c0: 0c61 0f3c 3052 9fbb d913 863b 2f9b 2d3c
000000d0: 54d8 b8bc 1abf d53b 49b2 72bc 802b 313c
000000e0: 933c 693c 6723 debc 014a 4eba d2d3 cabb
000000f0: 9fe3 643b 4bff 133c 63d9 a33b 0414 94bc
00000100: c0b4 3b3c 242e a13c 6c83 d437 3bb1 cf3b
00000110: d5a1 7b3c e1a0 363c 983f 353c af67 bdbc
00000120: 2763 bdbc 9175 fa3b 3883 03bc e276 783b
00000130: ab2d 793c d947 04bb c2fd 56bc cbe3 393c
00000140: b0a9 b9bc 4191 d93b f493 1a3c 01e8 c53a
00000150: 389c 493c 3b7b 303c 26f0 ce3c 7e10 8ebc
00000160: 2e43 343c 5099 723b 91e8 c93b 499e 7e3b
00000170: 84ba 00bc f888 db3a 22b9 5a39 3af3 caba
00000180: 2519 ba3a 06b9 13bc 1d1b a93b 2158 17bc
00000190: d76e ddbc f513 763a 3fd5 ca3b c0cb 53bc
000001a0: 1160 d8bc ffb8 a5bc a8f9 1a3c 68dc b0bb
000001b0: 1abd 513b aa45 8e3c 6983 08bb 6d8e c6bb
000001c0: 6d2f e43b e71b 3c3c 987d 41bb 8ac8 863b
000001d0: 17c3 643b a0c1 11bb 484f 9bbc 4cf2 963a
000001e0: 7c6f 9abc c992 3fbc f67d f0bc f090 89bb
000001f0: 2a79 9fbc 96d3 51bb c0f7 bc3c f8a3 8b3c
00000200: 624a d1bb 3d19 19bc d7bc 143a 5061 3b3c
00000210: 1a7f 7cb9 2cb9 d7bb 463f 053c 68f2 51bc
00000220: 205c 0a3a aea6 1fbc d2c8 a73b 92fd a1bb
00000230: c218 4dbb 5aa6 7d3a 0dde 5b3b c887 6e3b
00000240: 43ed fdba 1cf6 0f3c a0d5 663b 164c 473c
00000250: 44a1 a5bc 4158 8cbb ac4d 7f3c 0331 5dbb
00000260: ff8c 00bb 4303 433c 5b6d e1bb bd9e 95bc
00000270: e062 a5bc 0b32 03bc a87a 8b38 3eba 403c
00000280: dc59 b7bb 314e d93b d152 b53c 8c7f 43ba
00000290: 3d0f 593b 9aa4 7c3c 1bbd cc3b 2cd7 16bc
000002a0: 4e04 33bc 0772 a5bb e6d8 823c 17c9 a23b
000002b0: 9549 06bc b8fa 1f3c 0b09 bd39 1628 bc3c
000002c0: cb53 69bb 1b2d 5fbc d8a7 603c 8ea5 6dbb
000002d0: 0d39 d8bb e816 2a3b f535 793a 582b 8ebc
000002e0: 0b84 f9bb 5691 983c 96b0 57bc 76b5 8b3c
000002f0: e8e0 bbbb 901d 13bc 82a6 56bc 71ea 033c
00000300: fde8 8cbc c2d4 5ebb 7ffc 06bc 2fea b8bb
00000310: 1734 f63b b0d8 2a3c bee4 0dbc 6de6 c0ba
00000320: 62ef 7fbb 90fe 60bc 5fd4 1c3c 7f82 2ebc
00000330: 983d 61bb 28d3 143c d4a4 12bb eab8 a0bc
00000340: 31b6 283a 8794 c3bc 5037 813c b3f0 10bc
00000350: c27c 0dbc 4047 b23c a0a0 3d3c 2baa 873b
00000360: d2ef e7bb dc57 863c 4913 1cbc 3f2a 8dbb
00000370: 8b7f ec3b d771 a83b 16d7 8fbb 0fdc 113a
00000380: 1514 23b9 19d4 a43a 5efe abbb 65f5 323b
00000390: a25a 3fbb bcde 173c b171 ab3b 04f5 06bb
000003a0: 325f 1a3c 6bf0 943b c73b 6d3c 88c9 dc3b
000003b0: 7c5c 673c 6c66 d23b 870f 05bc e739 903b
000003c0: 0817 54bc 61b9 2cba a2de 2bbc 5f71 943a
000003d0: 0b18 95bb 7d68 123c 88ea c33c 292d 40bc
000003e0: 32e4 8dbb a84a 0a3c 0cef a5bc 0995 2bba
000003f0: 6272 3e3c b759 0c3c d025 52bc 1207 bdbb
-0.0071711116 -0.007303616 -0.0030035514 0.014297537 -0.012303889 -0.020637631 0.016451024 0.010680465
-0.008813698 0.015349881 0.011726613 -0.015971849 0.009890985 0.015238919 -0.015255776 -0.00049294473
0.00091273757 0.002778901 -0.014019079 0.009617591 0.013560488 -0.0048874533 0.0029813973 -0.007748126
-0.006971351 0.001838499 0.0016083412 0.0020591135 0.007807903 0.016881956 0.005722642 0.006700285
0.007151825 -0.0057661952 -0.01784368 -0.0075052325 0.00243885 0.011100774 -0.0013002204 0.0013461352
-0.0028661329 -0.008337196 -0.0040957723 0.0047612684 0.0020966032 -0.005999041 -0.0028492613 0.0048946277
0.008751165 -0.0048620924 0.0040917215 0.010596081 -0.02256409 0.006523025 -0.014813014 0.010813594
0.014235633 -0.02711649 -0.0007869304 -0.0061898017 0.0034925712 0.009033035 0.0050002798 -0.01807595
0.011456668 0.019675322 2.5333567e-05 0.006338266 0.015358408 0.011146755 0.011062525 -0.02312073
-0.023118569 0.0076434095 -0.00802689 0.0037912657 0.015208642 -0.0020184426 -0.013122024 0.011345814
-0.022663921 0.00663963 0.009434689 0.001509905 0.012305312 0.010771568 0.025260996 -0.017341848
0.011002345 0.003701765 0.0061617573 0.003885167 -0.007856969 0.0016749194 0.00020859067 -0.0015483864
0.0014198167 -0.009016281 0.005160703 -0.00923732 -0.027030392 0.0009387129 0.0061899717 -0.012926996
-0.026412996 -0.020229815 0.009458937 -0.005397368 0.0032003582 0.017367203 -0.002083028 -0.006059459
0.0069636614 0.011481262 -0.0029524323 0.0041132616 0.0034906322 -0.0022240654 -0.018958703 0.0011516302
-0.018851988 -0.011692711 -0.029356938 -0.004198186 -0.019466955 -0.0032016984 0.023067355 0.01704596
-0.006387041 -0.009344396 0.0005673891 0.011436775 -0.00024079942 -0.0065833535 0.008132761 -0.012814142
0.000527801 -0.009744329 0.005120375 -0.004943558 -0.0031295274 0.00096759724 0.00335491 0.003639685
-0.0019373078 0.008786704 0.0035222545 0.012164136 -0.020218499 -0.0042829816 0.015582483 -0.0033751137
-0.001961529 0.011902633 -0.0068794913 -0.018264169 -0.020188749 -0.008007537 6.650883e-05 0.011763154
-0.005595429 0.0066316356 0.022134217 -0.00074576656 0.0033120655 0.015420103 0.006248129 -0.009206574
-0.010926319 -0.0050489935 0.015972566 0.0049678194 -0.008196254 0.009764366 0.00036055627 0.022968333
-0.0035602923 -0.013621594 0.013711892 -0.0036262008 -0.006598598 0.0025953595 0.00095066364 -0.017354652
-0.0076146177 0.01862399 -0.01316466 0.0170543 -0.005733598 -0.008979216 -0.013101222 0.008051501
-0.017200941 -0.0034001325 -0.008238911 -0.0056431512 0.007513534 0.010427639 -0.008660493 -0.001471711
-0.0039052595 -0.013732567 0.009572118 -0.01065123 -0.0034368988 0.009083547 -0.0022376077 -0.019619424
0.000643584 -0.023874534 0.015773445 -0.00884645 -0.008635702 0.02176249 0.0115739405 0.0041401586
-0.0070781494 0.016399316 -0.009526082 -0.0043080146 0.0072173527 0.005140524 -0.004389654 0.00055641023
-0.00015552372 0.0012575417 -0.005248829 0.002730691 -0.0029198308 0.009269413 0.005232059 -0.0020592818
0.00942211 0.0045452616 0.014479584 0.0067378916 0.014121171 0.006420901 -0.008121378 0.0044014337
-0.012944944 -0.0006588903 -0.0104900915 0.0011325291 -0.0045499853 0.008936045 0.023915544 -0.011729517
-0.0043301815 0.008440651 -0.020255588 -0.00065453403 0.011623951 0.008566312 -0.012826398 -0.005768665

action_model._discrete_distribution.branches.2.bias f4 [3]
00000000: f538 cd3b c9ee a83a 3a33 1abc
0.0062628933 0.0012888546 -0.009411627

action_model._discrete_distribution.branches.2.weight f4 [3, 256]
00000000: 7f5d 883b 6c2d 133c f71a 8b3b 42b7 d93a
00000010: c88f 893c 1bd0 75bc 6ae4 2abc 0967 d03b
00000020: 9424 33bc e581 53bc e1c3 83bb c596 fa3b
00000030: c556 0abc cc40 163b cc73 4bba 6aea 96bc
00000040: 7dcf 0b3c 10d8 8d3b c949 99ba e1c1 353b
00000050: d4d1 cdba daa6 2ebb 2d8f 3dbb ad10 c63b
00000060: f4ca 5bbc 4aff 98bb 20a4 2f3b a03c b437
00000070: 2ca3 f23a 4532 983a 6e43 35bc 2224 a93b
00000080: 53ef d3bb b91f 96bb e2b1 ebb9 f692 6dbb
00000090: a51a 41bb f15a 03bb e605 2a3c 6080 953b
000000a0: 4ba2 113c f86e c9bb 3d73 473c 4776 8fba
000000b0: d6c2 113a 828e 22bb a2af 2fb9 d8d1 403b
000000c0: 5f85 983b 5ea6 a53b 6e85 17bc 46ea 783c
000000d0: cb74 123c 696d a23c 9074 543c 7be0 83bc
000000e0: 07d6 c3bb e75e e0bb 8897 25bc b84b 9b3b
000000f0: 9741 a1bb 4675 17bc 0243 6b3c 4e22 393c
00000100: 4f2c abbb 1b65 bc3b 88fb ff3a b56c 43bc
00000110: 1ec8 d0b9 2562 93bb 0a1f 2438 d8d4 a7bc
00000120: 9999 053c c22b 3a3c 7747 55bb 7abe 57bb
00000130: e2f6 ed3a 9769 a93b 96f0 54bc 00eb 293b
00000140: 0670 ecba fde9 c33a fd6b e7bb 7f47 e93b
00000150: 4e45 15bc 9fa9 b83a c180 6a3c 37eb 0d39
00000160: 5da8 b13c 5dc2 493c c82c 843b bbc3 02bc
00000170: a64f 023b 0fcf 79ba 85d9 de3b d6bf be3b
00000180: b21f 66bc 8321 c73b b6cd 213b 4269 07bc
00000190: 54d6 633b 8aa2 9e3b 61ee ebbb cb38 38bb
000001a0: d25b 4e3b feb7 383b f4b7 df3b d1d3 6bbb
000001b0: 1f28 48bc be00 963c 9dd2 fdba 1f16 b53b
000001c0: 2c3f 643c 3c96 5cbc ef2c 7e3c 2c17 5b3b
000001d0: f05d 943b 8153 483b 1ff4 16bc 8688 fd38
000001e0: 10b7 e53b 82da b4bb 2c71 913c 2c58 b2bc
000001f0: c2d8 40bc c29f 733b 56cb 1dbb 2736 9e3c
00000200: bc8a 06bb c545 573c a698 72bc 24c7 1a3b
00000210: b11c 41bc 8ba5 713c 9e3b 28bc 832d 0d3c
00000220: c26f 613b 9424 e739 f8c2 dfbc 593c 393c
00000230: 302c 1f3c 1948 b13b 71e8 813c 8c24 1c3b
00000240: 83c0 c63b d6ee fa3b cc6a 9d3b 9476 c13b
00000250: 02ad fa3c 541f dfbb 189c 86bb 3b5f 823b
00000260: 5bae c0bb 23f6 cdbb 8ab4 4c3c beda c7bb
00000270: 869f cfbb 6c85 b2bc f063 60bc 4f38 b73b
00000280: 54dd 79bc 3308 893b 3a90 0739 fa71 183b
00000290: 76c6 98bb 9855 f33b 16b6 a9bb 1670 933c
000002a0: 0d2c 763c b9aa 193a 3e88 46bb 6c69 8b3b
000002b0: 8736 11bd 3557 8e3b 91f1 4a3b 9a0f bbbb
000002c0: e0ac 313c 3413 f4bb a8d6 cdbb 15fb 3e3b
000002d0: 7051 b43c 0f9d 99bc 797f 603c 619f f13b
000002e0: 088c c3bb 26d6 da3a e6f7 1e3b 6972 003b
000002f0: 4511 95ba 8f08 283c 9306 ae3a caa7 993c
00000300: 9c5a 763a 388b 03bc 00bd afba a390 8d39
00000310: 66bb 37bc 9ab6 66bb 6838 e13a 4055 79ba
00000320: 223b 0f3c 5861 dc3a 48d0 67bb 16b2 4f3c
00000330: dc7d 023c 6628 283c 2e36 133c 53fc 29bb
00000340: f517 413c a241 333c 27e2 5a3b f64c 643c
00000350: e359 25bc 8ce5 0ebb 26ae 1bbc 2e42 61bb
00000360: f8ff 02bc 1395 903a 5cef eebb efb3 ebbb
00000370: 350d 7abc c79b 17bb 8c5e 82bc a347 90bc
00000380: ec94 7e3b b5fe a23b 4ca6 1f3c 9b2a 4a3c
00000390: f7ea 013b 99bf 603c c43b 29bc b069 9abc
000003a0: dc01 13bb ba8f 11bc 5691 b13b 4d7c 12bc
000003b0: 8bb0 333b bb34 553b a29d 22bb 8dce 5dbc
000003c0: 8a25 133c 3f02 30bc 7891 8b3b 9e76 e039
000003d0: 7274 f0bb b676 703b a4f8 173c 73c7 5b3c
000003e0: 2321 dcbb f33a a439 1153 c33a 612c 8c3b
000003f0: dbab 71bb 25bd 3939 c080 9bbc 5878 2c3b
0.004161536 0.008982997 0.004245158 0.0016610401 0.016792193 -0.0150032295 -0.010430435 0.006359939
-0.010934014 -0.012909387 -0.0040211533 0.0076473677 -0.008443539 0.0022926806 -0.00077610905 -0.018422324
0.008533356 0.004328735 -0.0011694963 0.002773397 -0.0015702792 -0.0026649744 -0.002892445 0.0060444684
-0.013415087 -0.0046691047 0.0026800707 2.1485903e-05 0.0018511764 0.0011611661 -0.01106344 0.005161778
-0.0064677387 -0.0045814184 -0.00044955226 -0.0036250926 -0.0029465344 -0.002004322 0.010377383 0.0045624226
0.008888791 -0.0061472617 0.012173471 -0.0010945284 0.0005560344 -0.002480418 -0.00016754729 0.0029421952
0.004654571 0.005055233 -0.009248121 0.015192574 0.008938978 0.019827561 0.012967244 -0.016098252
-0.005976442 -0.0068472507 -0.010106929 0.004739251 -0.004921149 -0.009244269 0.014359238 0.011299683
-0.005223788 0.0057493574 0.0019529918 -0.011927773 -0.0003982195 -0.0044977837 3.9129554e-05 -0.020487234
0.008154296 0.011362972 -0.0032543817 -0.003291993 0.0018155242 0.005170058 -0.012996813 0.0025927424
-0.0018038757 0.0014947053 -0.0070624338 0.0071191187 -0.009110762 0.0014088637 0.014312924 0.00013534432
0.021686727 0.012314406 0.0040336587 -0.007981236 0.00198839 -0.00095294503 0.0068008327 0.0058212085
-0.014045643 0.006076993 0.0024689264 -0.0082648415 0.00347652 0.0048411535 -0.007200048 -0.0028110023
0.0031487835 0.002818584 0.006827349 -0.0035984407 -0.012216597 0.0183109 -0.0019365136 0.0055263187
0.013931077 -0.013463553 0.015513643 0.003343056 0.0045278 0.003056735 -0.009213476 0.000120894096
0.007010348 -0.005519212 0.01775416 -0.02177056 -0.011770429 0.003717408 -0.0024077496 0.019312931
-0.002052947 0.013139193 -0.014806902 0.0023617232 -0.011786626 0.014748941 -0.01026812 0.008616808
0.0034398888 0.00044087006 -0.027314648 0.011305892 0.009715125 0.005410206 0.015857907 0.0023825495
0.0060654297 0.007657866 0.004803991 0.005904028 0.030600075 -0.0068091545 -0.0041079633 0.0039786375
-0.00588016 -0.0062854453 0.012494216 -0.006099074 -0.0063361553 -0.021792136 -0.013695702 0.0055914293
-0.015250523 0.0041818856 0.00012928332 0.0023261295 -0.0046623303 0.007425975 -0.005179177 0.017997783
0.015025151 0.00058619265 -0.003029361 0.0042545106 -0.035452392 0.004343892 0.0030966739 -0.005708647
0.010844439 -0.0074485783 -0.0062816925 0.0029141356 0.022011489 -0.01875165 0.013702267 0.007373736
-0.0059676208 0.0016695901 0.0024256646 0.0019599444 -0.0011372945 0.010255947 0.0013277106 0.018756766
0.0009397657 -0.008028798 -0.0013407767 0.00027001378 -0.011214113 -0.0035204054 0.0017182948 -0.00095112994
0.008742126 0.0016813679 -0.0035371948 0.012676736 0.0079645775 0.010263538 0.008985085 -0.002593775
0.011785497 0.010940941 0.0033398957 0.013934365 -0.010092231 -0.00218043 -0.009501969 -0.0034371722
-0.007995598 0.0011030756 -0.0072917175 -0.0071930806 -0.015261938 -0.0023133622 -0.015914224 -0.017612284
0.0038846089 0.004974211 0.009744238 0.0123392595 0.0019823888 0.013717555 -0.010329191 -0.018849224
-0.0022431528 -0.008884365 0.0054189367 -0.008940768 0.002741846 0.003253265 -0.0024813195 -0.013538015
0.008981118 -0.010742723 0.0042592846 0.00042812986 -0.0073381 0.003669185 0.009275589 0.013414252
-0.0067178174 0.00031324438 0.0014902075 0.0042777513 -0.0036876115 0.00017713437 -0.018982291 0.0026316848

discrete_action_output_shape f4 [1, 3]
00000000: 0000 4040 0000 4040 0000 4040
3.0 3.0 3.0

network_body._body_endoder.seq_layers.0.bias f4 [256]
00000000: a6fd 4bbc 362b 013b e44b 0439 a10d a5bb
00000010: 8440 9bbb 9719 803c d1ad 4abc ffde 9ebb
00000020: 565f dbbc ca39 9dbb 04a6 a7bc de20 773b
00000030: 0845 27bc aa62 413c c1fa ac3c 97ab 083c
00000040: 9c30 e738 ce2a b13b 5c88 a83c c0cc 843b
00000050: 6f01 b5bb 0a0f b8bb 950f b5bb d1b2 a7ba
00000060: 4ad6 d23c 9c93 4bbb 6c24 8c3b 6f4b c3bc
00000070: e6b6 0abb 31a0 243b 5926 e53b 1560 093a
00000080: 61c0 473c d66c 1ebc 919d 3bbc 9417 823c
00000090: e564 48bb a9e2 b03c c0bf 513a bca8 f5ba
000000a0: ff22 093c 1b53 4cbc 302e 4239 3faa 85bb
000000b0: b64a 8fbb aea1 4b3b 723c 683a b10d 8f3c
000000c0: 53c2 14bc 2773 233b 00bc b7bb 4b12 4abb
000000d0: ff1a d8bc 95e1 e8bb 25e0 0c3c 7cd8 fb3b
000000e0: ee92 0abd 14f1 b73b 3a57 bfbb 3044 9f3c
000000f0: 6b25 b9bb 128d d6bb b46b 7ebb 4308 91bc
00000100: 5cbd 92b9 130c 9f3b d367 b4bc b3d6 aebb
00000110: c40a ddba 4b39 3abc 36c8 b13b 2986 3b3b
00000120: f469 a0bb af67 963c dd64 d9ba 52cd 4a3b
00000130: ad4a af3b 89ec fd3b 09b0 29bc 7e38 043c
00000140: 81f1 f5bb 60ad c7bb d456 69b9 1cb0 043c
00000150: dbd6 6bbb b740 0c3c 0964 883b 24d6 0239
00000160: 2e00 fc3b aabe 0cbc a61c 123c 59d7 803c
00000170: 6a0c 203b f0b4 7e3b 5ee2 a23c 0ab8 563b
00000180: acc8 bd3a 1675 f83b c67d 94bb 58b7 b6bb
00000190: f280 a53c 45c7 c83c 0feb a63a 0d7a 123c
000001a0: b2f8 2b3b 45ea aeba fbfb 19bb 5843 5abb
000001b0: c46f 453c 1d32 923b fb14 8b3a 293a b3bb
000001c0: 04cc 0abc aa93 86bb a28c 92bb ba2f edbc
000001d0: fbf8 a43c 752b 5e3b ae7a f53b add1 b9bc
000001e0: ec29 403c 8777 9ebb 95bf 1fbc 6e16 19bc
000001f0: a9af 463b f285 09bc a56f cfba 3f08 123c
00000200: 8d3a 463c fd24 1b3c a17e b4bb 54d6 a73b
00000210: bc0e 8e3c b886 7c3c 9fbc cf3b f31b 853b
00000220: e7fd cc3b 3680 cbbc 89db 21bb d3e8 88bb
00000230: 3014 2bbc 7cdb a0bc 27f3 3abb b5a0 f2ba
00000240: 27e7 653b a926 a73a 551d cabb f229 72b9
00000250: 2f86 86bc bb36 413c e162 393b 67c2 163c
00000260: 728a 003c ea09 0abc ea8a aa3b 6f48 343b
00000270: cd54 94bc f7b7 9a3c e75e 473c 066b 8e3a
00000280: 7372 953c cf18 923c b1b8 19bc 2397 8f3c
00000290: 986a 843b 08e7 2f3c b444 593c 8a37 2fbb
000002a0: bf08 0e3c 9798 303a 57e6 c2ba 3a42 bf3b
000002b0: d500 e13c 13a3 df3b d199 c9b9 bfa5 53bb
000002c0: 5b46 1a3c 578f 0a3b c5de 4ebb ea61 06bb
000002d0: 58b0 88bc 2c60 adbb c40f 42bc 0f0a b23b
000002e0: e538 c13b 690b 213c db10 1ebb dbaf dd3b
000002f0: a8c8 cc3a 651e 09bb 22d0 28bc 7f04 cb3b
00000300: d35a 783b 9477 403b d3d1 0cbc 867d 0f3b
00000310: 850b 94bb bd66 61bb 4f1f 013b c8bd f1ba
00000320: 44c5 7eba f63d 113c 27ba 0cbc 749f 27bb
00000330: aea0 183c 3607 3a3c 0703 1bbc 19bd 81bb
00000340: f17f d53b b17d 403b 629a 8b3c 7157 9c3b
00000350: f0d8 193b 0727 6dbb 9c1e 173c 31bf 903b
00000360: b41c a23b dcec d1ba a8f9 c33b 9c04 153b
00000370: 1678 5c3c 8fa0 0b3c 38f9 50ba a3fc e8bb
00000380: ac72 58bc b9ae db3b faae 963c db46 6f3c
00000390: 7a55 0fbc 24f6 3b3c a259 fc3b 19b1 2b3c
000003a0: 9b8d ee3b 2c11 9d3b a61a 463c 49e6 833b
000003b0: d98b 88bb 1eda d0bb 0f26 3e3b dd5d 82bb
000003c0: 7d9a 1fbb d035 263c f575 003c 3935 9bba
000003d0: abba 3d3c 0963 e1ba 3bfa 9abb 8a5b 81bb
000003e0: 6cf4 5cbc 55a2 59bc cf3a d4bc ac4d 083c
000003f0: a91b 5a3b 0922 913c 7db5 983a b409 88ba
-0.012450611 0.0019709594 0.00012616772 -0.005037025 -0.0047379155 0.015637202 -0.012370543 -0.0048483605
-0.026778858 -0.0047981488 -0.020464905 0.00377088 -0.010209329 0.0118033085 0.021115663 0.008341691
0.000110239926 0.005406714 0.020572834 0.0040527284 -0.0055238525 -0.005617027 -0.005525539 -0.001279438
0.025736947 -0.0031063324 0.0042768028 -0.02383968 -0.0021166145 0.0025119896 0.006993097 0.00052404526
0.012191863 -0.009669503 -0.011451141 0.015880384 -0.0030577716 0.021592455 0.000800129 -0.0018742303
0.00837016 -0.012470986 0.00018518488 -0.004079133 -0.00437292 0.003107171 0.0008859105 0.017462583
-0.009079534 0.0024940462 -0.005607128 -0.0030833657 -0.02638006 -0.0071069696 0.008598362 0.007685719
-0.03383153 0.0056134555 -0.0058392556 0.019441694 -0.0056502125 -0.0065475786 -0.003882152 -0.017704135
-0.00027988374 0.0048537343 -0.022022163 -0.0053356527 -0.001686417 -0.011366199 0.0054254783 0.0028613901
-0.004895443 0.018359987 -0.0016585846 0.0030945134 0.005349478 0.0077491445 -0.010356911 0.008070109
-0.007505596 -0.006093666 -0.00022252958 0.008098628 -0.0035986218 0.008560351 0.0041623157 0.0001247754
0.007690451 -0.00859038 0.008917963 0.015727686 0.0024421462 0.0038865171 0.01988333 0.0032763504
0.001447936 0.007582317 -0.004531595 -0.0055760555 0.020203087 0.024509082 0.0012734848 0.008940232
0.0026240763 -0.0013344964 -0.002349614 -0.00333043 0.012050573 0.0044615404 0.0010611111 -0.0054695797
-0.008471493 -0.0041069584 -0.004472331 -0.028953422 0.020138254 0.0033900414 0.007491431 -0.022682989
0.011728745 -0.004836026 -0.009750267 -0.009343727 0.0030317104 -0.008393751 -0.0015826119 0.008913099
0.0120989205 0.009469268 -0.0055082594 0.0051219855 0.01734101 0.015412979 0.006339624 0.0040621697
0.0062558535 -0.02484141 -0.0024697504 -0.0041781454 -0.010441825 -0.019635908 -0.0028526278 -0.0018511029
0.0035080404 0.001275261 -0.0061680474 -0.00023094544 -0.016421406 0.011792834 0.0028287696 0.009201623
0.007845508 -0.008425215 0.005204548 0.0027508994 -0.018106842 0.01888655 0.012168623 0.0010865636
0.01824305 0.017834095 -0.009382413 0.017528122 0.0040410273 0.0107362345 0.013261009 -0.0026735985
0.008669077 0.0006736605 -0.0014869672 0.0058367522 0.027466217 0.00682486 -0.0003845231 -0.0032294837
0.009416188 0.0021142566 -0.0031565886 -0.0020505139 -0.01668565 -0.0052910056 -0.011844579 0.005433328
0.005896675 0.009829381 -0.0024118933 0.0067653484 0.0015623765 -0.0020922658 -0.010303529 0.0061956043
0.0037895932 0.002936815 -0.008594948 0.0021894886 -0.004517975 -0.0034393512 0.00197025 -0.00184434
-0.0009718726 0.00886487 -0.008589304 -0.002557722 0.009315653 0.011354258 -0.009461171 -0.00395931
0.006515496 0.0029371793 0.017041389 0.004771166 0.0023475252 -0.0036186592 0.009223606 0.004417323
0.0049472693 -0.0016016024 0.005980689 0.0022738343 0.013456365 0.008522167 -0.0007971707 -0.007110195
-0.013210934 0.006704178 0.018393982 0.014604296 -0.008748407 0.011472259 0.0077011148 0.010479235
0.0072800643 0.004793307 0.012091314 0.004025255 -0.0041670618 -0.006373658 0.0029014384 -0.0039784745
-0.0024353557 0.010144666 0.007840623 -0.0011841423 0.01158015 -0.0017195652 -0.004729537 -0.00394768
-0.013486009 -0.013283332 -0.025906948 0.0083193 0.0033280647 0.017716425 0.0011650767 -0.0010378868

network_body._body_endoder.seq_layers.0.weight f4 [256, 27]
00000000: 0c6a 70be cddc 8c3e 9644 03be e98d 02be
00000010: 1c6e 883d 6b76 d33d 8907 0ebe 698d 9d3d
00000020: 92fa c4bc de2b 703e 3da1 443e c557 9e3e
00000030: 57c0 df3c dc21 70bd a535 a63d f27e d03d
00000040: 6149 413e dde2 0abf 7e73 073f b4f7 d73d
00000050: 29a3 423e ebf9 b8be c864 433d 835b 00be
00000060: 4fc0 c2bd 9fe0 ef3c 869d 17be e4db 193f
00000070: 35ba 10bd d232 aabe 0aab 17be 91d4 c23c
00000080: adba febd a23b b5bd e5df ff3e 5f4b 12be
00000090: 68a7 873e a2d5 b6bd 476b c4bc b9fb ddbc
000000a0: b9a1 293e ab36 ab3d 4ce0 4abe deec 803e
000000b0: df73 6d3d 323c 623e ad4d 2c3e 054e 873d
000000c0: 2f3e 5d3e bd83 0b3f eee5 63bd 5bb7 b63e
000000d0: a055 5d3c 2d47 033d 0573 1c3e 8501 c2bb
000000e0: 3bcf 11be 70cb 6ebb ae42 6abe bd7c 3b3e
000000f0: 4960 02be 9d20 ef3d 48fc b63e 51d6 663e
00000100: fc12 0cbe 74bd 5bbe c06a 2bbe ac67 85be
00000110: aa23 cebd c8c1 003e 54ee a53e 2669 91bd
00000120: 4337 443e e0bd e63d 4249 343e 4f7b 9c3e
00000130: a67c 723d cc80 a5bd 0a60 ab3e 27c5 0bbd
00000140: f321 9b3e 6229 963e 1151 4cbe 4f36 1b3f
00000150: e680 c6bd 26d9 78be e634 903e 3957 073e
00000160: 2b02 77be 53b9 a3bd a3af e9bc 3137 023d
00000170: eacd 2bbd cd5b 2abe 3283 13be 69c9 47be
00000180: a862 9c3d 48d9 dbba 3c5e d7bd 5e85 db3d
00000190: ea06 153b f91f 0abe 5715 47be a950 3dbd
000001a0: 8670 1a3e 047a 9d3e fef1 7a3d d191 563e
000001b0: 41ca 053f d07c 2c3e c644 9bbd 0c64 073e
000001c0: c15c 6a3e 19d7 60be d61f 853d f318 393e
000001d0: 0ed8 1fbd 6dfb cdbc 7d8d 373e c448 cb3e
000001e0: ac23 8fbe 7be4 663b de10 58be a2b6 15be
000001f0: 8383 88be d837 573e dce2 0b3d af5b cabd
00000200: 3d88 65bd 7886 9f3e bd49 34be 2b85 a8be
00000210: fe60 bebd 7f34 4bbd a7c4 003e 86e1 84bc
00000220: 08c7 afbe 3653 26be ba48 8d3d c3bb b2be
00000230: 5f17 51bd 27f3 b2bd 4dd2 833d de25 423e
00000240: 50c3 a4bd 6bd8 c13d 3da3 30bc 6132 2a3e
00000250: 296b 8bbe 1dcb 6abd edbe 813e f502 82bd
00000260: 42ca 8ebd dcb9 413e 02bc 253e 498c 04be
00000270: 9e8a a9bd 895b bf3d ae3a e63d 714a 62bd
00000280: 8d63 823e 4bcf 693e d20c ac3b d14c 50be
00000290: ed29 b8bd 173f c23e 2236 33be beb7 7e3d
000002a0: 7839 8bbd 7fc0 033d da76 a5be 4e42 5dbe
000002b0: b6cc 05bc 3b0d 4b3e c9e1 56bd cb65 cdbe
000002c0: 2f81 66be d408 363e d04f 8dbe 4af2 2fbe
000002d0: 258d 64be 55bb 2cbe cb47 8bbc 5e64 bfbd
000002e0: 16b2 30be c1f2 ae3e 2b99 c2be 8ddc ee3d
000002f0: cc72 bc3d 5be7 7c3c 0b27 e5bd f5f7 d3bd
00000300: 57ef 2ebe 2680 8fbe 62a2 83bd 505d dc3d
00000310: 5ef8 c4bd 24f8 903e 2476 173e fa05 8a3e
00000320: d14e 793e cb97 923c 3d49 34be 21a0 8e3e
00000330: 6b2d 1f3e fc71 40be c13d a3bd c210 563e
00000340: db36 2cbe 15c3 21bd 777e aebe a95f bc3d
00000350: 079d a3b9 3c2c cf3d 2d60 453e 42ba 063e
00000360: be0d 83be 5345 dd3d 2f7a 01be 2c51 bfbd
00000370: f068 babe 4ab9 4bbe ab18 e8bd f66a fdbb
00000380: e555 a13d e074 cabd 54eb 78be a4df 12be
00000390: 73e0 403e 383a 8ebe 6505 b43c 953f a33d
000003a0: ee98 3dbe b9ad efbc b777 123d d1bd 64be
000003b0: 8cd6 8ebc 5e88 54be 424a 023d 8631 9abe
000003c0: 1f6a 8abe 1f59 91be a10c 973e 9ca1 8abd
000003d0: 9ac7 01be f047 f23d 4ac7 d93e 8743 1f3e
000003e0: c157 c23e b68d 79bd dc85 79be 7b4f 483e
000003f0: 8cea 24be ba1b 9f3e cbfe 863d 3906 ddbd
-0.23477954 0.27512208 -0.12819132 -0.12749447 0.06661627 0.10325321 -0.13870062 0.076929875
-0.024045262 0.23454234 0.19202133 0.30926338 0.027313394 -0.05862604 0.08115701 0.10180463
0.18875648 -0.54252416 0.529106 0.105452925 0.19007553 -0.36128172 0.047703534 -0.12534909
-0.09509336 0.029281912 -0.14806184 0.6010115 -0.03533383 -0.33241898 -0.1481134 0.023783
-0.12437949 -0.08849265 0.49975505 -0.14286564 0.26494908 -0.08927466 -0.023976935 -0.02709757
0.16565599 0.083600365 -0.19812125 0.25180715 0.05797183 0.22093275 0.16826506 0.06606678
0.21605752 0.5449789 -0.0556392 0.35686764 0.013509184 0.0320503 0.15278251 -0.0059205913
-0.14239208 -0.0036437176 -0.22876999 0.18309303 -0.12732042 0.11676142 0.3573935 0.22542693
-0.13679117 -0.2145899 -0.1673994 -0.26055658 -0.10065396 0.12573922 0.32408392 -0.071001336
0.19161706 0.112666845 0.1760607 0.30562827 0.059200905 -0.08081207 0.3347171 -0.034123566
0.3029934 0.29328448 -0.199528 0.60629743 -0.09692554 -0.24301586 0.28165358 0.13216867
-0.24121921 -0.07994332 -0.028526133 0.031790916 -0.04194442 -0.16636582 -0.14405516 -0.19510426
0.07636005 -0.0016773129 -0.10516021 0.10718797 0.0022739717 -0.13488759 -0.19441734 -0.0462195
0.15081987 0.30757153 0.061265938 0.20954062 0.5226174 0.16844487 -0.07581477 0.13221759
0.22886945 -0.21957053 0.06500213 0.18075924 -0.039024405 -0.025144303 0.17925067 0.39703953
-0.27956903 0.00352314 -0.21100184 -0.1462045 -0.26662835 0.21017396 0.034151897 -0.098807685
-0.05603813 0.3115728 -0.17606254 -0.329141 -0.092958435 -0.04961061 0.12575017 -0.01622082
-0.34331536 -0.1624268 0.06898637 -0.34908876 -0.05104768 -0.08737784 0.06436596 0.18959758
-0.080450654 0.094651066 -0.010781107 0.1662078 -0.27230194 -0.05732261 0.25340977 -0.0634822
-0.06972171 0.18918556 0.16185 -0.1294414 -0.08278392 0.09343631 0.11241661 -0.055246774
0.25466576 0.22832982 0.0052505517 -0.20341803 -0.08992372 0.3793876 -0.17501119 0.06218695
-0.06798071 0.032166 -0.3231724 -0.21607324 -0.008166483 0.19829266 -0.05246142 -0.40116724
-0.22510217 0.17776805 -0.27599955 -0.1718227 -0.22319467 -0.16868336 -0.017002007 -0.093453154
-0.17255434 0.34169582 -0.38007483 0.116631605 0.09201583 0.015436019 -0.111890875 -0.103500284
-0.17083488 -0.28027457 -0.064274564 0.107599854 -0.09617685 0.28314316 0.14791161 0.26957685
0.24346472 0.017894646 -0.17606063 0.27856544 0.1554467 -0.18793482 -0.07970763 0.2090483
-0.168178 -0.039492685 -0.3408086 0.09197933 -0.00031206777 0.10115859 0.1927497 0.13156989
-0.25596422 0.10804238 -0.12644266 -0.09341654 -0.36408186 -0.19894901 -0.1133283 -0.007733698
0.07877711 -0.098855734 -0.2430852 -0.14343125 0.1883562 -0.27778792 0.021975229 0.07971112
-0.1851537 -0.029257642 0.0357587 -0.22338034 -0.017436288 -0.20755145 0.0318091 -0.30115908
-0.2703409 -0.28388306 0.29501823 -0.06769106 -0.12673798 0.11830127 0.42534858 0.15553103
0.37957576 -0.06092616 -0.2436747 0.1956157 -0.16105098 0.3107584 0.06591567 -0.107922025

network_body._body_endoder.seq_layers.2.bias f4 [256]
00000000: c2cb 463c 502d 093c 3aaa db3b bdf9 23bb
00000010: 70b3 bc3a 8da3 c13b 11ca 0abc b667 90ba
00000020: fa32 13bb 9454 d53a c6ab b7bb caab 513c
00000030: a264 bfbb 0e3b e6bb 4f1b 8aba 1754 943c
00000040: 2b33 b1bb 23e8 a33a 17f2 033c 22a8 0bba
00000050: e0f9 5dbb e672 ff3a 7046 3ab6 0126 883b
00000060: 8396 6e3c 2e4a 53bc 2423 36bb 828b 0cbb
00000070: 8114 acbb 2bce d2bb 60c7 cfba 06da be3b
00000080: 9649 8ebb f06f a53b e641 a53b efc3 9d39
00000090: 3533 27bb 535b 39bb 7bda 8dbb efe2 09bb
000000a0: 0abd 13bb 0716 033c f136 0f3b e120 c8b9
000000b0: a10e 2a3c 471a d7bb cd04 243b 991c edbb
000000c0: bf76 8abb 7a98 81ba 7ec0 6a3b 3c26 c4bb
000000d0: f8ae 703b a66a a23b 1e55 9cba 510c 4dbb
000000e0: 87ed 153a 0406 6b3c 9310 99bc b192 283b
000000f0: db88 0bbb 6658 2bbb 9aaa 303b deab 833a
00000100: 9812 57bb 9600 11bb ede7 bbbb 6f4d 8eba
00000110: 52ab 68bb 255c ddbb ea5e a4bb fd15 8b3c
00000120: 0789 9a3b 5413 d23a d2ff f13b 8b85 f83a
00000130: d303 2eba 9104 d03b 1f38 84bb 0d41 fabb
00000140: ad30 6b3c 8d45 04bc 5d1c e2bb 9d9e 88bb
00000150: 6315 7bbb 88dd 8e3a f863 cbba 5752 683b
00000160: c0dc 00bc 98ae d5ba e840 4b3b 4a19 68bb
00000170: 6058 fc3b 5cd3 eebb b8a1 323b 25e1 cc3a
00000180: 553d 563c 7d41 473b 62bc ea3a 3321 2bba
00000190: c253 2a3b da8f 33b8 72bf 983b 2bd0 6f3b
000001a0: dc73 2b3c 3acb 303c 47ee aebb b213 e9bb
000001b0: 7662 debb 701d c0bb 7663 b63b 3aa0 19ba
000001c0: 6ce9 4cbb e4e1 90bb c978 c03a 7469 fb3b
000001d0: f861 31ba 0a88 3a3c 4aeb 393c 4c20 0ebb
000001e0: 793a a73b 72f2 ee3a 3a90 373b f93c e2ba
000001f0: 4da7 433c 98bd 923c 87dc 6bbb cdd7 3bbc
00000200: 2249 67bb 0d37 7f39 5f7b 83ba 1513 903c
00000210: 15d1 0e3c 3092 6a3b 441a 9fbc 6352 28bc
00000220: fea2 c9bb 9bda fb3b f9e7 943c 0e12 ff3b
00000230: 6565 913b 53dc f4b9 5d0c 9ab7 8dbc 84bb
00000240: 2cbe 95bb e53b 6cbc f387 adbb 6ea0 31bc
00000250: d1b4 633b 0824 aa39 06a0 64bb 67f3 e3bb
00000260: e030 e03a 49b0 24bb ee10 e139 b31c 4f3c
00000270: 39af 693c a190 283b 5fbc 87bc 7dea a53b
00000280: 0960 ff3b 5eea 98bb 8587 fdba 6e25 243c
00000290: af33 003b fcbd 31bb 2537 95bc eece 73bb
000002a0: 6531 103b 947e 00bc 587c 56ba dc82 18bb
000002b0: 10a4 3e3b f263 2cbb a20f 473c 2cd0 0bbc
000002c0: ea26 943b ed6e 733b 19ba 553a fec6 56bb
000002d0: 3278 d33b a417 abbc b61b 533b 471a 263b
000002e0: e17f 0c3c 2875 90bb 5a4e d13b fcaf e4bb
000002f0: e019 e73a e12a 7d3b 42e2 6e3b 5da3 233b
00000300: 2a6b 8db9 85c2 053c a6e5 b63b e30a f33a
00000310: 781b eab9 76d0 95bb c362 903b 0a0b 2bbc
00000320: 1dde edbb 3cf6 cc3b f4f7 64bb be53 cbba
00000330: db70 b23b 6b43 babb c91f e13b 0402 183c
00000340: 3dc9 a43b b588 123c 92a7 adbb f59f f03a
00000350: d9c1 333c 27f4 87ba ef91 05bc 3206 123b
00000360: c94b fb3b 48d6 64bb a8d6 3f3b 99c8 c23b
00000370: 69f2 f1bb dabf 343b 0927 37bc f000 3cba
00000380: 3d90 e43a a19c c8bb b44a 413c b440 29b9
00000390: 101e bfbb 64ce 69bc a13e b1bc 48bd a63a
000003a0: b6ba 0abb 9ecd 0f3c 92cf a739 baba 54bb
000003b0: 7097 f6bb 38a2 00bc c852 2e3c 6713 89ba
000003c0: 8def 943c 59c2 de38 479f 873b 6b22 d9ba
000003d0: aeb9 313c ffa0 29bc f190 36bb db58 283c
000003e0: 6175 1ebb 25f8 02bb 206b 863c a04e 56bc
000003f0: 06f2 26bc ca8b 65bc 2df2 a9ba f1ed e1b9
0.012133541 0.00837262 0.006703642 -0.0025020682 0.0014396738 0.0059093894 -0.008471028 -0.0011017236
-0.0022460804 0.0016275817 -0.005605194 0.012797305 -0.005840854 -0.007026083 -0.0010536703 0.018106503
-0.005407711 0.0012505095 0.008053324 -0.0005327483 -0.003387086 0.0019489198 -2.775716e-06 0.004154921
0.014562252 -0.012896104 -0.0027791942 -0.0021445458 -0.0052514677 -0.0064332685 -0.0015852265 0.0058243303
-0.004342268 0.0050487444 0.005043256 0.00030091355 -0.00255127 -0.0028283193 -0.0043290234 -0.0021039804
-0.0022543096 0.008000857 0.0021852816 -0.0003817147 0.010379464 -0.006564412 0.0025027276 -0.007236075
-0.0042255814 -0.000988736 0.00358203 -0.005986003 0.0036725383 0.004956561 -0.0011927222 -0.0031287859
0.0005719293 0.014344696 -0.018684661 0.00257222 -0.002129129 -0.002614522 0.0026957155 0.0010045727
-0.003281748 -0.0022125593 -0.005734435 -0.0010856817 -0.0035502505 -0.0067553692 -0.0050161975 0.016978258
0.004716042 0.0016027489 0.0073852325 0.0018960697 -0.0006638143 0.0063482006 -0.0040350105 -0.007637149
0.014354867 -0.008073223 -0.006900354 -0.004169299 -0.0038312308 0.0010899762 -0.0015517464 0.003544947
-0.007865131 -0.0016302643 0.003101403 -0.0035415464 0.007700965 -0.0072883796 0.0027257036 0.0015631063
0.013076146 0.0030404024 0.0017908926 -0.00065280794 0.0025989865 -4.2810898e-05 0.004661494 0.0036592584
0.010464635 0.0107906405 -0.0053384635 -0.0071129436 -0.00678664 -0.005862884 0.005566056 -0.00058603624
-0.003126706 -0.0044214595 0.0014684434 0.007672483 -0.00067666126 0.011384973 0.011347601 -0.002168673
0.005103406 0.0018230213 0.002800955 -0.0017260603 0.011941743 0.017912671 -0.00359896 -0.011465025
-0.0035291393 0.00024339203 -0.0010031274 0.017587224 0.008716841 0.00357927 -0.019421704 -0.010273549
-0.0061534634 0.007685972 0.01817702 0.0077841347 0.004437136 -0.0004670346 -1.8363988e-05 -0.0040507973
-0.0045697894 -0.014418577 -0.0052957474 -0.010841472 0.0034745226 0.00032451772 -0.003488542 -0.006956506
0.001710441 -0.0025129488 0.00042927958 0.01264112 0.014262968 0.0025720971 -0.016569315 0.0050633536
0.0077934307 -0.0046666106 -0.0019342756 0.01001869 0.0019562056 -0.0027121296 -0.018214772 -0.0037202197
0.0022002098 -0.007842679 -0.0008181981 -0.0023271358 0.0029089488 -0.002630469 0.012149723 -0.008533519
0.0045212405 0.0037144974 0.0008153036 -0.0032772417 0.0064535374 -0.020885296 0.0032212562 0.0025345252
0.008575411 -0.0044084974 0.006387514 -0.006978987 0.0017631613 0.0038630294 0.0036450778 0.0024969198
-0.0002697346 0.008164053 0.0055815754 0.0018542673 -0.00044652424 -0.0045719696 0.0044063046 -0.010439644
-0.007259144 0.0062549394 -0.003493783 -0.0015512628 0.0054455823 -0.0056843064 0.006870244 0.009277824
0.0050288723 0.008943726 -0.005299517 0.0018358218 0.01097151 -0.0010372446 -0.008152469 0.0022281525
0.0076689464 -0.003491776 0.0029272232 0.0059443233 -0.007383634 0.0027580173 -0.01117874 -0.00071717706
0.0017438006 -0.0061221872 0.011797596 -0.000161412 -0.005832441 -0.014270399 -0.02163631 0.0012721205
-0.0021168417 0.00877705 0.00032007374 -0.003245993 -0.007525377 -0.007851176 0.010639854 -0.0010458053
0.018180633 0.00010621985 0.0041388604 -0.0016566043 0.010847492 -0.010353326 -0.0027857388 0.010275091
-0.002417885 -0.0019984331 0.016408503 -0.013080269 -0.010189539 -0.014010379 -0.0012965851 -0.00043092624

network_body._body_endoder.seq_layers.2.weight f4 [256, 256]
00000000: cc74 d4bd 199b 17bb b398 393b 303c 8d3d
00000010: 17d2 d73d 20e2 cabb 819b de3c 382e f63b
00000020: f65e 033e 85c7 6fbd 1fd6 7bbd 3c90 1f3d
00000030: c88d f0bb 3994 8abd abe7 30bc fd4f 25bc
00000040: 8aa3 a4bd a086 913d 42bf 76bd e93d 31bd
00000050: 9672 9a3d e5d8 423d 3b14 c53d fd2c 263c
00000060: 949f 7abd eb87 56bd a642 2f3d fd66 dfba
00000070: 675b 353d 78b7 493d f116 2d3d 63f5 823d
00000080: 2a56 003d 37b5 21bd c596 543d 4d5e 21bd
00000090: c4fb 82bd dc29 7abd 92cb 73bd 6e55 133c
000000a0: b98a 8fbc 7bb4 93bd 9955 163d 82cc 2dbd
000000b0: 5b7e a73c 2116 0a3b cbe5 0f3d ef26 843c
000000c0: 47ff 4ebd af9b 2a3d 2539 e13c 3ef4 12bd
000000d0: 88a6 3fbd e25b aa3c bcf7 f43d 192a 1c3d
000000e0: ed17 7cbd 1e7c 7bbc d07c b2ba 0265 c43c
000000f0: 6987 6ebd 5515 ae3d d8cb 91bd 39d5 593b
00000100: 4ffa 863b 459e 0b3d f633 29be 9fbe b1bd
00000110: 2a66 973d b9c1 943d dafa a5bd 18a7 55bd
00000120: 05af b23b 869b 7bbd 333f 9b3d c738 333d
00000130: 4daf d5bb bec5 82bd 4198 8c3d 27ba 3e3d
00000140: e722 813d 284a 763d a2e2 5ebc 5ead 3fbe
00000150: b6e0 5c3d c4b9 ae3d d38d 5fbb 6500 89bc
00000160: 124d 7cbd f487 4fbd 3781 90bc b01c b33d
00000170: fd92 e5bc c37f 04bc 4ebb e13c c1db 1cbd
00000180: af1f 683b 8fb9 f9bc 97ce efbb c67a a93c
00000190: 3a5b cfbb 9e54 fa3b 2454 9f3d 3dbc 283d
000001a0: 7192 413d e75f 4abd 0b47 b03c 42ae 1e3d
000001b0: cf6a d1bc 0626 073e d244 13bd 9c1e 86bd
000001c0: c6f0 9bbd f4fd eb3c 28c9 dcbc e038 c9bc
000001d0: 2eb8 1a3e 82d5 e2bc cde2 c23d f6fd 653d
000001e0: 2643 b6bd 1355 173d 24c3 cc3c 2bc8 5d3d
000001f0: 9ace 693e 4bd3 fb3d 3c8f 02bd 5caf 36bd
00000200: 529c 40bc 10da 9bbc c1b2 983d 7ea7 c5bd
00000210: d515 603d 8c1c c03d 768e 31bd 0394 4339
00000220: 6f55 67bd fee3 cf3d f482 4fbd a593 d73c
00000230: 21ea eb3d 1182 a7bc e12c 0e3d 00b2 60bd
00000240: b907 d93b 05e8 b2bc 562c f4bc d566 d43d
00000250: ad75 a3bc 3ff8 cabc 2654 b3bd 021d 17bd
00000260: 9322 823c a214 0a3c fd66 15bd e509 9ebd
00000270: 2bda ab3c 6151 ed3c bcb6 b4bc 9622 f63d
00000280: 3da1 713d b7a3 cbbd 391c c3bd 6015 46bb
00000290: c41b e83c cc09 81bd d780 a5bd 59dc 2cbd
000002a0: e205 5cbd e51b 3dbc 2c61 91bd 7bc7 ccbd
000002b0: de26 46bd 2722 89bc cf39 363d 43ff 38bd
000002c0: c37a 493c 6f11 c23c b8e1 613d cd41 133d
000002d0: c5d6 79bc d70f 793d 6aaa e3bc 2b3a 5cbd
000002e0: 5c3f 1f3d 6e1d 09bc 3bca 0f3d 9757 bd3c
000002f0: 03e6 0dbe 4c7b bebd f6a8 8bbb 89fb e4bc
00000300: 8ca0 893c bd4c 823d 422d d63c 7c41 adbd
00000310: 3e1c 53bc ae67 1c3d 15ab 2a3d b147 f23c
00000320: 659b 043d 90df 0b3d 7cb2 1d3c 2a06 0c3d
00000330: 982b 79bd 586a 693d 8386 bebd d84a d53c
00000340: c12f 003d c723 ea3d 5eb4 0cbd c3ea 0dbd
00000350: 84b7 b7bd 3c6f 89bc f7a7 10bd 0bc0 73bc
00000360: 648c 05bc 47db 61bd 9700 36bd 287a a33d
00000370: a058 64bd 981d eebc 0dea 923b 641a bdbc
00000380: 8506 84bd 6a47 b9bc 38ad 44bd 9d51 ca3d
00000390: 1da1 033d fa75 10bd f010 05bd 02c6 393b
000003a0: 4dc1 3c3d 8647 213d 1a72 163d 00cb b6bc
000003b0: 27de 67bd aa22 853d d73d c3bd ff4e 18bd
000003c0: 88e7 69bd 3c3f f83d 37b9 973d 1af7 a2bc
000003d0: 1027 68bd cc0c 1cbd 9ed6 2c3c 6be3 8dbd
000003e0: 197a 2b3c 5081 25bd cf17 f8bc 1451 883d
000003f0: 4909 4ebc 548d b23d b56a 81bd 52c4 c73b
-0.1037384 -0.0023133217 0.0028319776 0.068962455 0.10538118 -0.006191507 0.02717376 0.007512834
0.12829193 -0.058539886 -0.0614835 0.038955912 -0.0073411204 -0.067665525 -0.010797421 -0.0100898715
-0.08039005 0.07105756 -0.06024099 -0.043271933 0.07541387 0.047570128 0.09622999 0.010142562
-0.06118734 -0.052375715 0.04278817 -0.0017044243 0.04427662 0.049247235 0.042258207 0.0639446
0.031332172 -0.03947946 0.051901598 -0.039396573 -0.06395677 -0.061075076 -0.05952031 0.008992536
-0.017522203 -0.07212158 0.036702726 -0.042431362 0.020445993 0.0021070319 0.035131257 0.016131846
-0.05053642 0.041652378 0.027493069 -0.03587746 -0.046789676 0.020795766 0.11961314 0.038126085
-0.061546255 -0.015349416 -0.0013617519 0.023973946 -0.058234606 0.085001625 -0.07118958 0.0033238663
0.0041191946 0.034086484 -0.16523728 -0.08678936 0.07392533 0.07263512 -0.08104487 -0.052161306
0.005452993 -0.061427616 0.07580414 0.04375532 -0.0065211416 -0.063853726 0.06864978 0.046564247
0.06305485 0.060129315 -0.013603838 -0.18718478 0.05392524 0.08531526 -0.0034111633 -0.016723821
-0.061596937 -0.050666764 -0.01763974 0.08745706 -0.028024191 -0.008087101 0.027555134 -0.03829551
0.0035419276 -0.030483989 -0.0073183286 0.020688426 -0.0063280137 0.0076394817 0.077797204 0.041195143
0.047258798 -0.049407866 0.02151825 0.038740404 -0.025563626 0.13198099 -0.035954304 -0.06548807
-0.07614283 0.028807618 -0.026951388 -0.024563253 0.15109321 -0.0276897 0.09515915 0.0561504
-0.08899526 0.036946367 0.024995394 0.054145973 0.22832718 0.1229616 -0.03187488 -0.04460083
-0.01175602 -0.019024879 0.074559696 -0.09651087 0.05470832 0.09380445 -0.043348752 0.00018651788
-0.05647796 0.10150908 -0.050661996 0.02631552 0.11519266 -0.020447763 0.03471077 -0.054857254
0.006623235 -0.021839151 -0.029806297 0.10371176 -0.019953573 -0.024776576 -0.087562844 -0.0368929
0.015885627 0.008427771 -0.03647517 -0.07716731 0.020978054 0.028969469 -0.02205979 0.120183155
0.05899166 -0.099433355 -0.095268674 -0.0030225143 0.028333552 -0.06300697 -0.08081215 -0.042202327
-0.053716548 -0.011542295 -0.07098612 -0.099989854 -0.04837691 -0.016739918 0.044488724 -0.04516531
0.012297335 0.023689954 0.055146903 0.035951424 -0.015248959 0.06080612 -0.02779122 -0.05376641
0.038878784 -0.008368833 0.03510497 0.023113055 -0.13857274 -0.09300861 -0.004262085 -0.027951973
0.016800188 0.06362293 0.026144627 -0.08459756 -0.012885151 0.038184814 0.041667063 0.0295752
0.03237476 0.034148753 0.0096250735 0.034185566 -0.06083259 0.056986183 -0.09303 0.026036665
0.03129554 0.11432605 -0.0343517 -0.034647714 -0.0897055 -0.016776673 -0.035316434 -0.01487733
-0.0081511475 -0.05514076 -0.044434156 0.07982284 -0.055748582 -0.029066846 0.0044834674 -0.023083873
-0.06446556 -0.02261706 -0.048016757 0.09878848 0.03213607 -0.03526876 -0.032486856 0.0028346782
0.046082783 0.03937485 0.03672991 -0.022313595 -0.056608345 0.06500752 -0.095332794 -0.03718471
-0.05710557 0.12121436 0.07408374 -0.019893218 -0.056677878 -0.03809814 0.010549216 -0.06928142
0.010466122 -0.040406525 -0.03028479 0.066560894 -0.012575456 0.087183625 -0.06319181 0.0060964013
