Assets/ML-Agents/results/Andrew ML/results/sc_01 - Copy/SimpleCollector/SimpleCollector-2999909.onnx (onnx, 305000 bytes, 11 tensors)

action_model._discrete_distribution.branches.0.bias f4 [3]
-7.5876946e-05 0.012723689 0.0049514393
00000000: 2020 9fb8 0577 503c af3f a23b

action_model._discrete_distribution.branches.0.weight f4 [3, 256]
-0.038762163 0.0133152725 0.023265148 0.01334192 0.015479355 -0.0018786504 -0.00872576 0.014955195
0.042673267 -0.0031744307 0.039614487 -0.028566873 -0.017290078 0.04453843 -0.01034474 -0.052102204
0.020097807 0.027341127 -0.00991872 0.019303756 0.035906103 0.0012033968 -0.009866908 -0.0032085564
-0.027086938 0.013934106 -0.028903196 0.040999487 0.026576454 -0.009378775 0.045433704 -0.02663689
-0.009757828 -0.003891635 0.068258435 -0.0453866 -0.011688542 -0.055118375 0.06882422 0.011685867
-0.0021573582 0.014932036 -0.008880457 0.004150621 -0.005830974 -0.00897703 0.019651461 -0.10381198
-0.022581287 -0.011340259 -0.025014812 0.017100632 0.044090617 -0.04319197 -0.018111443 -0.055063136
0.033859927 -0.047927015 -0.05226846 0.026525296 0.008590962 0.009639019 0.014176864 0.03727157
0.033105217 -0.012029103 -0.017914562 -0.017956251 -0.014208806 0.04145983 0.032162957 -0.025418032
-0.035630386 -0.037075393 -0.021604834 0.010012158 -0.07035275 -0.016014094 -0.05743748 -0.029359754
0.036239628 0.0025454732 -0.024804354 -0.05296424 -0.006221922 -0.01744212 0.010695181 -0.010779551
0.029012155 -0.011263083 -0.018742008 0.031069545 0.004069458 0.0010811108 -0.009601117 0.019758409
0.026306035 0.009376557 0.028770788 0.05963332 -0.01471906 -0.020447059 0.028950311 -0.03229175
0.005129233 0.012410515 0.004939768 -0.05917855 -0.014908567 0.03876527 0.012435929 0.019787023
-0.009346608 0.022793794 0.028996183 0.0019189594 0.003108019 0.012249196 0.03273625 -0.0075564743
-0.041675728 0.018700954 0.025543798 0.0047949296 -0.056373853 0.003868121 -0.019951448 0.05824605
-0.047202192 -0.01995399 -0.013749976 -0.0010825541 0.0040345094 0.026034864 0.015740218 -0.00023657914
0.02180708 0.023294995 -0.022592086 0.02868303 -0.016855508 -0.04021594 0.0022178914 0.026805619
0.0041270847 0.00037739862 -0.010869989 -0.013528273 0.00050775835 -0.0062834695 0.015277631 0.018945498
-0.023705479 -0.0066536847 -0.004109332 -0.007773681 0.036977958 -0.0006700547 0.027276982 0.021005563
-0.03463556 -0.049278412 0.02158211 -0.015048258 -0.007881999 -0.0024184561 -0.0045107882 -0.06386469
-0.025118725 0.03149293 0.03150708 -0.018733619 0.04054025 -0.06481465 -0.0010189529 0.031763725
0.025041759 -0.012972885 -0.045081247 -0.0055132047 0.05029931 0.008579751 -0.0098347645 0.0440523
0.001494986 0.07635306 -0.007670177 0.00093854574 0.0054958574 -0.012341995 0.04112403 0.048494518
-0.005871079 -0.012865465 -0.01984703 -0.017413097 -0.04227996 0.0038404097 -0.009468344 -0.028692544
0.0213581 -0.015049473 -0.030853884 -0.009964804 -0.012510602 -0.03238264 0.012472023 0.009580289
-0.027687235 0.050777145 -0.03493708 0.03153784 0.004815877 -0.017088432 -0.04409091 0.004716693
0.018420061 0.010490249 0.00781923 -0.029764315 -0.01835847 -0.0011192622 -0.038703922 0.032420684
0.020099176 0.0007673092 -0.05395493 0.0044709807 -0.018757163 -0.01321576 -0.08992434 -0.06646286
0.055559073 0.041849345 -0.023283426 0.00012081018 0.0047435476 -0.023726394 -0.012573451 0.012442471
0.0031635629 -0.022828922 0.013288909 -0.026838962 -0.0052455994 0.0070789163 -0.023464505 -0.015605812
-0.010189428 -0.05331461 -0.008353953 0.006477169 -0.022775112 0.012817668 0.023843711 0.009209327
00000000: 13c5 1ebd 4d28 5a3c 8d96 be3c 1298 5a3c
00000010: 1f9d 7d3c 0c3d f6ba 7df6 0ebc a206 753c
00000020: 2aca 2e3d 1c0a 50bb cd42 223d 1305 eabc
00000030: eca3 8dbc ee6d 363d fc7c 29bc 1f69 55bd
00000040: 28a4 a43c 80fa df3c 2182 22bc e922 9e3c
00000050: 4712 133d 4cbb 9d3a d0a8 21bc a546 52bb
00000060: 6de5 ddbc e04b 643c 65c6 ecbc 14ef 273d
00000070: ddb6 d93c 6fa9 19bc b118 3a3d 9b35 dabc
00000080: 4cdf 1fbc cd0a 7fbb 14cb 8b3d 4de7 39bd
00000090: 4c81 3fbc cec3 61bd b6f3 8c3d 1476 3f3c
000000a0: 7762 0dbb 80a5 743c 567f 11bc ef01 883b
000000b0: c111 bfbb 6514 13bc 1afc a03c 609b d4bd
000000c0: 64fc b8bc 7ecc 39bc ddeb ccbc a016 8c3c
000000d0: 5d98 343d 10ea 30bd 735e 94bc e289 61bd
000000e0: b5b0 0a3d 1e4f 44bd 7417 56bd 944b d93c
000000f0: 1bc1 0c3c faec 1d3c 1446 683c 13aa 183d
00000100: 5699 073d b715 45bc 8fc1 92bc fd18 93bc
00000110: 0dcc 68bc c8d1 293d 4ebd 033d 7a39 d0bc
00000120: 2bf1 11bd 5edc 17bd 9ffc b0bc 090a 243c
00000130: 1a15 90bd fd2f 83bc 9043 6bbd de83 f0bc
00000140: 0170 143d f4d1 263b 8032 cbbc 08f1 58bd
00000150: 44e1 cbbb c7e2 8ebc d73a 2f3c b79c 30bc
00000160: e6aa ed3c cb88 38bc d788 99bc 8f85 fe3c
00000170: 1759 853b 0fb4 8d3a 014e 1dbc 63dc a13c
00000180: c17f d73c 21a0 193c b7b0 eb3c 1142 743d
00000190: 3628 71bc 9780 a7bc 3429 ed3c 5b44 04bd
000001a0: 2013 a83b 7955 4b3c c7dd a13b 3565 72bd
000001b0: 1043 74bc 55c8 1e3d 11c0 4b3c 6518 a23c
000001c0: 8422 19bc 0dba ba3c 6789 ed3c 9885 fb3a
000001d0: e8af 4b3b dab0 483c 7216 063d 4d9c f7bb
000001e0: 2bb4 2abd be32 993c 3a41 d13c c91e 9d3b
000001f0: 45e8 66bd 4d80 7d3b 3871 a3bc 6993 6e3d
00000200: 1657 41bd 8d76 a3bc 9447 61bc 7de4 8dba
00000210: eb33 843b 1147 d53c a1f1 803c 3b12 78b9
00000220: c3a4 b23c 25d5 be3c 0a13 b9bc acf8 ea3c
00000230: 9014 8abc 78b9 24bd 0b5a 113b 7597 db3c
00000240: 7f3c 873b 96dd c539 0a18 32bc b1a5 5dbc
00000250: 161b 053a 90e5 cdbb 074f 7a3c 9733 9b3c
00000260: fe31 c2bc 2707 dabb 93a7 86bb 5dba febb
00000270: 3376 173d 9ca6 2fba fa73 df3c dc13 ac3c
00000280: 04de 0dbd 29d8 49bd f7cc b03c f88c 76bc
00000290: 8023 01bc f67e 1ebb 3ccf 93bb 7ecb 82bd
000002a0: c9c5 cdbc bbfe 003d 910d 013d 3f77 99bc
000002b0: 880d 263d 8bbd 84bd 638e 85ba ae1a 023d
000002c0: 6024 cd3c 398c 54bc 1da7 38bd 1da8 b4bb
000002d0: a606 4e3d 1592 0c3c fe21 21bc 2f70 343d
000002e0: 68f3 c33a fe5e 9c3d 1c56 fbbb bd08 763a
000002f0: 9816 b43b 1436 4abc ac71 283d 30a2 463d
00000300: 2e62 c0bb acc9 52bc 3d96 a2bc e9a5 8ebc
00000310: c02d 2dbd 62af 7b3b 1d21 1bbc a00c ebbc
00000320: 2ff7 ae3c 1192 76bc 49c1 fcbc 6b43 23bc
00000330: 45f9 4cbc a9a3 04bd 7557 4c3c a5f6 1c3c
00000340: 57d0 e2bc b2fb 4f3d 2f1a 0fbd d22d 013d
00000350: 81ce 9d3b 0afd 8bbc ac98 34bd 7d8e 9a3b
00000360: abe5 963c 4bdf 2b3c 3a1c 003c 4bd4 f3bc
00000370: 8164 96bc 35b4 92ba 0188 1ebd 8dcb 043d
00000380: 07a7 a43c 4025 493a d8ff 5cbd 4e81 923b
00000390: 9fa8 99bc ea86 58bc 412a b8bd ae1d 88bd
000003a0: e991 633d 386a 2b3d e2bc bebc 795b fd38
000003b0: c36f 9b3b db5d c2bc e000 4ebc 82db 4b3c
000003c0: c753 4f3b b803 bbbc b9b9 593c 62dd dbbc
000003d0: 47e3 abbb 41f6 e73b a238 c0bc 85af 7fbc
000003e0: 8ff1 26bc 6c60 5abd 05df 08bc 6f3e d43b
000003f0: df92 babc 3201 523c e353 c33c b8e2 163c

action_model._discrete_distribution.branches.1.bias f4 [3]
0.060583472 -0.05721697 0.012195939
00000000: 6026 783d 575c 6abd 7ad1 473c

action_model._discrete_distribution.branches.1.weight f4 [3, 256]
0.04316643 0.07716758 0.007179262 -0.038293812 -0.03682918 -6.946622e-05 -0.0064885956 0.026988657
-0.051724035 0.008386689 -0.06841979 -0.17143999 -0.044687346 0.103728816 -0.050933044 -0.00068351085
0.014390806 0.04976349 -0.043625776 -0.010878744 -0.028082553 -0.09359564 0.020828597 -0.033549033
0.0032459719 -0.031139774 0.046447005 -0.005657883 0.017236289 -0.022423428 -0.10865883 0.07729039
-0.031022735 0.059009593 0.10523633 0.01338715 -0.041122153 -0.09039773 -0.014515782 0.033541646
-0.04295698 -0.007981251 -0.00022894898 0.011395001 -0.02972432 0.011634228 0.0077811135 -0.122665696
0.022179773 0.05885707 -0.033470713 0.043974716 -0.041731834 -0.003521072 -0.03226178 -0.08940321
-0.024882104 0.05200955 -0.18223305 -0.01853079 0.06845614 0.063095085 0.0026003476 -0.040975213
0.044114772 -0.008204142 -0.0033237275 0.08033948 0.025035713 -0.04576386 0.04754696 -0.17357019
-0.20201726 -0.040607076 0.013910277 0.08934498 0.032868117 -0.0006802949 0.010397281 0.062166717
0.0034628431 0.046506315 -0.07420727 -0.10976888 0.0022116173 -0.019306807 0.059283942 -0.010343533
-0.047888517 -0.022873698 -0.050917648 -0.0038004594 -0.08330075 0.0015167351 0.0125531675 -0.014863324
-0.042952448 0.08069034 -0.045006346 -0.03266617 -0.011480155 0.039412193 0.14506315 -0.033526517
0.026349792 -0.013116277 -0.02297596 -0.015691655 -0.020228472 -0.049978558 0.013988246 0.00015191015
0.027901914 0.0056170574 0.000528876 -0.04856229 -0.02712255 0.027684398 0.049610507 -0.005755771
-0.008881395 -0.036146015 0.038088024 0.0292399 -0.12534305 -0.015495455 0.016627768 0.047080453
-0.010135976 0.09129758 0.08000767 -0.039296415 -0.013494599 0.039895207 0.024051758 0.032895003
-0.04357961 -0.04293514 0.02823285 -0.080152616 0.060233064 -0.028556706 0.04158335 -0.045303643
-0.0029922556 -0.029453136 0.046650372 0.044179976 0.0041542547 0.010223118 -0.031125654 -0.038832758
0.0050253263 0.003263815 -0.00020699657 0.06486832 -0.086403996 -0.048906296 -0.06299999 -0.0010064327
-0.030928709 0.023876816 0.07086193 -0.009208203 -0.00022780264 0.038073484 -0.08917673 -0.057894036
-0.0076912204 -0.02481501 0.03986155 -0.28708467 -0.13273175 -0.031877663 0.00786406 -0.0023381268
0.042967085 -0.017154027 0.025605828 -0.044720095 0.027516305 0.0056056934 0.009936269 0.006796145
0.040596224 -0.03632504 0.08353941 -0.061939403 0.023391847 -0.06239769 -0.023786299 0.17226017
-0.10883918 -0.022229606 -0.034035172 0.029104162 0.010347572 -0.020463988 -0.029087873 -0.050475355
0.095031224 -0.27530152 -0.041813668 0.0046093045 -0.053765234 0.009907255 0.003883146 0.05052785
-0.046394527 0.098514386 -0.00041429288 -0.0010063052 0.04245624 -0.044054903 -0.2731082 -0.036735475
-0.04321396 0.055932313 0.011425552 -0.0056086075 0.088326044 -0.008330043 -0.040390946 -0.013322101
0.056561206 -0.008072652 -0.008962211 0.1053117 0.12499603 0.017359475 0.017980285 -0.05124014
0.07347592 -0.07177967 0.009674458 0.0033038787 -0.03242797 0.025981406 -0.15854543 0.032799095
-0.0536059 -0.012727765 -0.08106062 -0.14314955 -0.04498924 0.014418097 -0.014268038 -0.085000485
0.06069953 -0.017622024 -0.019204434 0.0019650927 -0.03188006 -0.05747056 0.0029393747 -0.06603614
00000000: 48cf 303d 090a 9e3d 0440 eb3b f9d9 1cbd
00000010: 32da 16bd 65ae 91b8 499e d4bb 5117 dd3c
00000020: 95dc 53bd 5368 093c ad1f 8cbd f78d 2fbe
00000030: 140a 37bd c66f d43d 2b9f 50bd a32d 33ba
00000040: 6ac7 6b3c cdd4 4b3d f1b0 32bd c23c 32bc
00000050: 620d e6bc 12af bfbd bca0 aa3c b66a 09bd
00000060: 5fba 543b d718 ffbc 373f 3e3d c365 b9bb
00000070: 1e33 8d3c 56b1 b7bc 8588 debd 6d4a 9e3d
00000080: 6423 febc 0bb4 713d 2586 d73d c755 5b3c
00000090: b46f 28bd 7222 b9bd 9ad3 6dbc f762 093d
000000a0: a9f3 2fbd cbc3 02bc 0612 70b9 19b2 3a3c
000000b0: 6b80 f3bc 7d9d 3e3c b6f8 fe3b 2738 fbbd
000000c0: 5bb2 b53c 1c14 713d 9618 09bd d51e 343d
000000d0: 00ef 2abd c9c1 66bb ee24 04bd 0819 b7bd
000000e0: 8ed5 cbbc f707 553d 4d9b 3abe e2cd 97bc
000000f0: bc32 8c3d ff37 813d 986a 2a3b a0d5 27bd
00000100: b1b1 343d aa6a 06bc e5d2 59bb 0689 a43d
00000110: b217 cd3c e372 3bbd 9ac0 423d 62bc 31be
00000120: 9ddd 4ebe 9b53 26bd eee7 633c 80fa b63d
00000130: b8a0 063d d155 32ba 5b59 2a3c 87a2 7e3d
00000140: def0 623b 687d 3e3d fbf9 97bd 82ce e0bd
00000150: c8f0 103b 4f29 9ebc b8d3 723d ec77 29bc
00000160: c026 44bd 9f61 bbbc 068f 50bd 2111 79bb
00000170: 9599 aabd 2fcd c63a cdab 4d3c 4d85 73bc
00000180: e8ee 2fbd fa40 a53d 9358 38bd f6cc 05bd
00000190: 4317 3cbc ae6e 213d 6f8b 143e 1a53 09bd
000001a0: 85db d73c a7e5 56bc 1538 bcbc c98b 80bc
000001b0: 2eb6 a5bc 51b6 4cbd f52e 653c 124a 1f39
000001c0: 8e92 e43c 4b0f b83b 44a4 0a3a 40e9 46bd
000001d0: 1c30 debc 64ca e23c 6334 4b3d e89a bcbb
000001e0: 4583 11bc d80d 14bd 3002 1c3d 8488 ef3c
000001f0: ee59 00be a6e0 7dbc f536 883c 6fd7 403d
00000200: 5d11 26bc 3afa ba3d 10db a33d 47f5 20bd
00000210: 7318 5dbc 2869 233d 3108 c53c e9bc 063d
00000220: 8880 32bd c2dc 2fbd 9448 e73c 0e27 a4bd
00000230: f2b6 763d c1ef e9bc 4e53 2a3d 5090 39bd
00000240: b819 44bb b447 f1bc 7614 3f3d 10f6 343d
00000250: 6a20 883b dd7e 273c 3afb febc 190f 1fbd
00000260: 7eab a43b bbe5 553b 380d 59b9 afd9 843d
00000270: 94f4 b0bd f851 48bd 2406 81bd 47ea 83ba
00000280: 345e fdbc 5099 c33c 0f20 913d 01de 16bc
00000290: 4ede 6eb9 f1f2 1b3d 4aa2 b6bd 4c22 6dbd
000002a0: a206 fcbb d948 cbbc dd45 233d c3fc 92be
000002b0: d5ea 07be 2792 02bd 42d8 003c 423b 19bb
000002c0: 41fe 2f3d 9a86 8cbc 50c3 d13c 6b2c 37bd
000002d0: e069 e13c f7af b73b bccb 223c 32b2 de3b
000002e0: 3a48 263d 91c9 14bd b616 ab3d 2cb4 7dbd
000002f0: 42a0 bf3c b894 7fbd 7cdb c2bc f864 303e
00000300: 13e7 debd dd1a b6bc 7768 0bbd da6b ee3c
00000310: dd88 293c 18a4 a7bc b149 eebc 3fbf 4ebd
00000320: bb9f c23d 52f4 8cbe cf44 2bbd a609 973b
00000330: ef38 5cbd 0a52 223c 617c 7e3b 4af6 4e3d
00000340: 3008 3ebd e9c1 c93d 7335 d9b9 00e6 83ba
00000350: 98e6 2d3d ea72 34bd d7d4 8bbe f077 16bd
00000360: 1f01 31bd 4819 653d 3d32 3b3c 69c8 b7bb
00000370: 49e4 b43d bc7a 08bc fa70 25bd f144 5abc
00000380: b9ac 673d 2843 04bc 3dd6 12bc a9ad d73d
00000390: ebfd ff3d 7535 8e3c 644b 933c 2ee1 51bd
000003a0: 8b7a 963d 3801 93bd 9e81 1e3c e385 583b
000003b0: 31d3 04bd f5d6 d43c bc59 22be 5858 063d
000003c0: dc91 5bbd 1e88 50bc 1c03 a6bd cc95 12be
000003d0: a346 38bd e239 6c3c 7dc4 69bc bc14 aebd
000003e0: 12a0 783d 105c 90bc 9e52 9dbc c9c8 003b
000003f0: aa94 02bd 4066 6bbd 86a2 403b f53d 87bd

action_model._discrete_distribution.branches.2.bias f4 [3]
0.023950482 0.012816206 -0.009018577
00000000: cd33 c43c 10fb 513c a7c2 13bc

action_model._discrete_distribution.branches.2.weight f4 [3, 256]
-0.008934605 -0.012540201 -0.029546177 0.047919087 -0.04798753 0.026756903 0.015975071 0.013259553
0.022062002 0.0324228 -0.008762684 -0.03392583 0.06785252 -0.033602532 0.005471042 0.04542031
0.0023832351 -0.065474674 0.08008924 0.06026489 -0.0063931635 -0.010556494 -0.005116395 0.026456445
0.0066978787 0.040160913 -0.017476672 0.026172971 -0.0042951233 0.020608634 -0.053061806 0.00015453805
-0.0039522345 0.054652445 -0.0040040263 0.018384853 -0.016237255 0.016145734 0.016184475 0.027730968
0.053264502 0.010997905 0.042416174 0.024782175 0.07452959 0.019797914 -0.01538888 0.02070086
0.018407037 0.01749636 -0.00095094537 0.008062259 -0.038394716 0.03465832 0.00023137106 0.015895313
0.050280742 0.02359312 -0.020563204 -0.06064112 0.015304783 -0.032715484 -0.0076338053 0.052693788
0.0025308905 0.057254117 0.024952643 -0.014471058 0.032828934 -0.020396044 0.03837717 -0.0511898
-0.04737989 0.01200266 0.002211432 -0.035427127 -0.04326489 -0.0037690336 -0.0139357485 -0.028256323
0.018939557 0.035144504 -0.0020911233 -0.02821102 0.021541478 -0.0017965784 0.02554818 0.019588286
0.002818984 -0.019841904 0.046389937 -0.0015281629 -0.005345829 -0.014872955 0.03275624 0.020580366
0.029293856 0.0490963 0.055531375 0.027940996 0.038628027 -0.018077333 -0.026208743 0.022126189
-0.0056672622 0.024581863 -0.0050577167 -0.041357353 0.047132142 0.0051864055 0.03304377 0.011674316
-0.0069656316 -0.011708977 -0.015496176 0.010723744 -0.012599953 0.0035697457 0.034645714 -0.0029610116
-0.00039718946 0.02771833 0.010698439 0.046636898 0.0029121428 0.008886685 0.06138741 0.008839868
0.09857323 -0.014193216 -0.032617357 0.006825235 -0.011538687 -0.034404997 0.06391268 -0.024562912
0.051487572 0.044259805 0.008570767 0.011376054 0.0012253232 0.00273606 -0.0069439895 0.057804808
-0.036345303 0.04322308 -0.0042195437 -0.0010586231 0.025444072 0.058042433 0.047894508 -0.00011695277
0.023896715 -0.040496703 -0.0013559264 -0.029594377 -0.047576953 -0.010001242 0.023464954 0.034160543
0.029766839 0.034734238 -0.048287507 0.008975214 0.010997308 -0.024631873 -0.040761244 0.00079840637
0.0179497 0.030918758 -0.05186887 -0.059103098 -0.08084727 -0.068810776 -0.008564522 -0.018067995
0.022943975 -0.035170667 0.026268665 -0.034475166 0.031658128 0.054583296 0.05642386 0.003928108
0.0015471654 -0.008129196 -0.02380346 0.064439036 -0.0050692544 0.07514012 -0.0005095107 0.0216384
0.021688707 0.022831859 0.052811746 0.005866555 0.038676694 0.00038262882 0.0106148245 0.020117389
0.01838656 -0.025828822 -0.0028612171 0.004144594 -0.015319834 0.049294166 0.03323556 -0.009452176
0.009600549 0.005877201 -0.03633962 0.04587745 0.010556761 -0.028060446 -0.038906638 -0.009725806
0.036702912 0.00020934611 0.022794032 0.0070521347 0.0018690092 -0.0007045885 -0.014376374 -0.0028690498
0.035224486 0.041226607 0.055654086 0.02113051 0.006421417 -0.026009742 0.058857843 -0.017542964
0.017635535 0.036902245 0.062551945 0.008285412 -0.02763077 0.06035239 0.0032446904 0.013485585
0.003961863 0.034480866 -0.010398035 0.020000175 0.027409498 0.004839181 0.04074813 0.015847525
-0.03873794 0.02813118 0.06618672 -0.054178778 0.050694607 -0.034765013 0.045084335 0.037139423
00000000: 7362 12bc 6a75 4dbc d30a f2bc ce46 443d
00000010: 928e 44bd 4b31 db3c 27de 823c 993e 593c
00000020: 5fbb b43c c5cd 043d 5c91 0fbc d0f5 0abd
00000030: 43f6 8a3d cfa2 09bd 6d46 b33b a60a 3a3d
00000040: 0d30 1c3b 9617 86bd d405 a43d 51d8 763d
00000050: be7d d1bb 25f5 2cbc 6fa7 a7bb 30bb d83c
00000060: e179 db3b c57f 243d 3d2b 8fbc b368 d63c
00000070: 1bbe 8cbb 70d3 a83c 5657 59bd 7e0b 2239
00000080: bf81 81bb 3edb 5f3d 3534 83bb d59b 963c
00000090: fe03 85bc 0f44 843c 4e95 843c 0e2c e33c
000000a0: e12b 5a3d 8f30 343c 95bc 2d3d fd03 cb3c
000000b0: f8a2 983d 3c2f a23c a421 7cbc da94 a93c
000000c0: 5bca 963c 8754 8f3c dd48 79ba 9117 043c
000000d0: c743 1dbd e2f5 0d3d 329c 7239 e336 823c
000000e0: 2ef3 4d3d 5c46 c13c 2a74 a8bc d362 78bd
000000f0: eac0 7a3c ac00 06bd 0025 fabb 71d5 573d
00000100: 4cdd 253b 4b83 6a3d 7c69 cc3c 0418 6dbc
00000110: a277 063d 9b15 a7bc 6131 1d3d 65ac 51bd
00000120: 6a11 42bd cea6 443c aced 103b 091c 11bd
00000130: 8636 31bd e401 77bb c452 64bc ce79 e7bc
00000140: 2127 9b3c aff3 0f3d 3a0b 09bb cc1a e7bc
00000150: c177 b03c 2b7b ebba 6b4a d13c 9d77 a03c
00000160: b4be 383b 7d8b a2bc 6003 3e3d a34c c8ba
00000170: 102c afbb b2ad 73bc 682b 063d 2898 a83c
00000180: abf9 ef3c 3419 493d de74 633d 84e4 e43c
00000190: 6c38 1e3d ea16 94bc b8b3 d6bc fb41 b53c
000001a0: 71b4 b9bb e75f c93c 34bb a5bb 5466 29bd
000001b0: a20d 413d b9f2 a93b e758 073d a145 3f3c
000001c0: f43f e4bb 02d7 3fbc ace3 7dbc a4b2 2f3c
000001d0: 0970 4ebc 65f2 693b aae8 0d3d 880d 42bb
000001e0: de3d d0b9 8d11 e33c 8148 2f3c 5506 3f3d
000001f0: a6d9 3e3b 7599 113c 5d71 7b3d 18d5 103c
00000200: c3e0 c93d aa8a 68bc c799 05bd 39a6 df3b
00000210: c30c 3dbc 41ec 0cbd a7e4 823d 2938 c9bc
00000220: a2e4 523d c549 353d 676c 0c3c a162 3a3c
00000230: 069b a03a 784f 333b 688a e3bb bcc4 6c3d
00000240: d0de 14bd af0a 313d 1944 8abb 7fc1 8aba
00000250: 1670 d03c e7bd 6d3d 082d 443d 8a44 f5b8
00000260: 0bc3 c33c dfdf 25bd 57b9 b1ba e86f f2bc
00000270: 0de0 42bd 40dc 23bc 9339 c03c edeb 0b3d
00000280: 96d9 f33c 7d45 0e3d 1fc9 45bd c70c 133c
00000290: 0e2e 343c c8c8 c9bc 43f5 26bd 254c 513a
000002a0: 400b 933c 5649 fd3c 7474 54bd 1716 72bd
000002b0: 4193 a5bd aaec 8cbd 3552 0cbc 5503 94bc
000002c0: 01f5 bb3c 1e0f 10bd 6231 d73c d535 0dbd
000002d0: f4ab 013d bc92 5f3d b51c 673d 5cb7 803b
000002e0: 42ca ca3a 5230 05bc 79ff c2bc 9df8 833d
000002f0: fd1b a6bb 10e3 993d af90 05ba 0443 b13c
00000300: 84ac b13c e109 bb3c 2151 583d 3b3c c03b
00000310: 746b 1e3d 929b c839 cde9 2d3c 39cd a43c
00000320: 699f 963c f796 d3bc 4283 3bbb 60cf 873b
00000330: 0b00 7bbc aee8 493d 0322 083d 4ddd 1abc
00000340: 9f4b 1d3c 8995 c03b dad8 14bd fee9 3b3d
00000350: 44f6 2c3c 05df e5bc 915c 1fbd fd58 1fbc
00000360: cb55 163d eb83 5b39 8dba ba3c 9815 e73b
00000370: 8bf9 f43a 22b4 38ba e28a 6bbc ab06 3cbb
00000380: 8d47 103d 3bdd 283d 8af5 633d e419 ad3c
00000390: c06a d23b 6212 d5bc ec14 713d 43b6 8fbc
000003a0: 6678 903c cf26 173d 3c1b 803d 89bf 073c
000003b0: ed59 e2bc 1134 773d dfa4 543b a5f2 5c3c
000003c0: 84d2 813b cf3b 0d3d 855c 2abc 68d7 a33c
000003d0: e289 e03c fe91 9e3b 83e7 263d abd2 813c
000003e0: adab 1ebd 5c73 e63c e78c 873d 91ea 5dbd
000003f0: 26a5 4f3d c265 0ebd 5aaa 383d 821f 183d

discrete_action_output_shape f4 [1, 3]
3.0 3.0 3.0
00000000: 0000 4040 0000 4040 0000 4040

network_body._body_endoder.seq_layers.0.bias f4 [256]
-0.026082963 -0.061828364 -0.016261881 0.023690207 0.056328133 -0.15729235 -0.0037184134 -0.0944091
-0.16207741 0.010394698 0.022848768 0.05393698 0.017965106 0.02692008 0.06413036 0.048095986
0.01001596 -0.0008775938 0.056487832 0.0068083056 0.048228614 -0.023861064 0.06521571 -0.055440854
-0.03268111 0.021370824 0.029514195 0.0050625266 0.0073703923 -0.014592851 -0.02383 0.04564822
-0.10615473 -0.0068682805 -0.052391026 -0.0021414293 -0.047756717 0.0059046815 0.023759002 -0.08354393
-0.07887037 -0.051027615 -0.2913075 -0.07129622 -0.025804738 0.016068164 -0.01907507 -0.051019754
0.03057297 -0.019717317 -0.031163553 -0.04685524 0.024022415 0.0013527315 0.017491182 -0.0007618304
-0.03238551 0.0049276985 -0.010000829 0.047372945 -0.038611498 0.013024609 0.11096753 0.038872488
-0.08653521 0.03596801 -0.21067904 -0.020949885 0.040993936 0.0011873327 0.04811313 0.01243802
0.07013108 0.06307825 0.013922435 -0.052022137 0.04328944 -0.10103594 0.009319806 0.044214882
0.01837405 0.006392882 0.027084928 -0.11869489 -0.076809235 -0.04252505 -0.029879266 -0.008449577
0.03460349 -0.03864418 0.018030487 -0.036801632 -0.0046518515 0.049481925 0.0032667213 -0.0052374676
-0.07938304 -0.026503919 0.035989337 0.010257952 -0.05683118 -0.029441021 -0.021240186 0.06288005
-0.021244897 -0.023467485 -0.01706692 1.9535668e-05 0.050903827 0.017890278 0.008794516 -0.05498842
0.020414758 0.00832415 -0.0072685815 0.000925687 -0.1821733 -0.009692217 0.015240072 0.03403357
0.040513214 -0.0078110094 -0.04764456 -0.20788734 -0.03650546 0.04153038 0.015246488 0.020586532
0.0835113 0.019366482 -0.05473633 -0.036930896 0.039867245 -0.06178484 0.037525203 0.04772801
-0.007991473 -0.0020010332 -0.008136731 0.00832337 -0.009185292 -0.04095089 0.05748718 -0.0009231572
0.006055263 0.002056318 -0.03932989 -0.07687038 0.028312251 0.015470176 -0.18619068 -0.033572394
0.02163678 0.0110755395 -0.012532509 0.009982463 -0.081799105 0.028978366 0.008251241 0.053016264
0.04163554 0.069036335 -0.0049341545 -0.035950705 -0.0033096352 -0.029961871 0.046666764 0.017481197
-0.05147445 0.035035186 -0.013871563 0.008667702 -0.02406682 0.071684815 0.013395794 -0.08391965
-0.02606595 -0.040713567 0.026400022 0.05882827 -0.032890826 0.023661422 0.00716973 0.022719616
0.044397354 -0.01825596 0.06563433 0.025652437 0.017576503 0.05899079 -0.12058557 0.009364343
-0.0082635535 0.008734609 0.012013576 -0.07123214 0.05853951 0.03245675 0.072288394 -0.05281666
-0.050682593 -0.022319194 -0.04587033 -0.010032519 0.014393182 -0.04414575 0.046979908 -0.042632066
-0.05507763 -0.029631702 -0.084982514 -0.06041243 0.012995852 -0.03546581 -0.057501458 -0.024311105
-0.011094409 -0.045056988 -0.0388867 0.032681752 0.025412599 -0.0024253763 0.07477296 0.08013047
-0.0061012916 0.060552455 0.020451808 -0.06973704 0.0354297 0.01871396 -0.035737716 0.009852408
-0.003541936 0.045190003 0.04026733 -0.020621423 0.0037433924 -0.000542125 0.011968278 -0.02585504
0.03424145 0.019970872 -0.019989049 -0.017626023 0.09260686 0.040244218 -0.04815347 0.023307193
0.07668676 0.021677937 -0.0016089265 -0.04873488 0.09910787 0.020941269 0.0039124438 0.016066633
00000000: f0ab d5bc bd3f 7dbd a337 85bc f711 c23c
00000010: 54b8 663d 3f11 21be a0b0 73bb 8f59 c1bd
00000020: 9ff7 25be 864e 2a3c 572d bb3c 06ed 5c3d
00000030: 8f2b 933c 8087 dc3c c756 833d 4c00 453d
00000040: fb19 243c 530e 66ba c95f 673d 3518 df3b
00000050: 5e8b 453d 4778 c3bc d08f 853d f315 63bd
00000060: a1dc 05bd de11 af3c c1c7 f13c 8de3 a53b
00000070: 5583 f13b da16 6fbc 2237 c3bc a1f9 3a3d
00000080: a767 d9bd 500f e1bb f997 56bd 3957 0cbb
00000090: 8c9c 43bd 0f7c c13b 3da2 c23c 1419 abbd
000000a0: ca86 a1bd 5502 51bd 4226 95be c103 92bd
000000b0: 7564 d3bc 62a1 833c 5243 9cbc 17fa 50bd
000000c0: 2a74 fa3c 3686 a1bc b54a ffbc 48eb 3fbd
000000d0: a8ca c43c 234e b13a ab49 8f3c 93b5 47ba
000000e0: aba6 04bd 8878 a13b 84da 23bc 220a 423d
000000f0: 1727 1ebd 2b65 553c f242 e33d c238 1f3d
00000100: 5f39 b1bd 3153 133d 3fbc 57be 189f abbc
00000110: 42e9 273d 46a0 9b3a 4612 453d d6c8 4b3c
00000120: e2a0 8f3d 2b2f 813d ed1a 643c 2a15 55bd
00000130: 4550 313d eeeb cebd 19b2 183c aa1a 353d
00000140: 2d85 963c 627b d13b 36e1 dd3c 4e16 f3bd
00000150: 294e 9dbd bf2e 2ebd 5dc5 f4bc 1870 0abc
00000160: 64bc 0d3d 5c49 1ebd acb4 933c 4fbd 16bd
00000170: 8f6e 98bb 8fad 4a3d 7d16 563b 109f abbb
00000180: 9393 a2bd bf1e d9bc 8e69 133d f810 283c
00000190: d0c7 68bd 4c2e f1bc e6ff adbc 41c7 803d
000001a0: c709 aebc e23e c0bc edcf 8bbc 87e0 a337
000001b0: 8880 503d a28e 923c e016 103c 8a3b 61bd
000001c0: da3c a73c 0462 083c 482d eebb cea9 723a
000001d0: a38b 3abe 1bcc 1ebc 7fb1 793c c966 0b3d
000001e0: 2ff1 253d 7ff3 ffbb f126 43bd 6be0 54be
000001f0: c086 15bd c21b 2a3d 68cc 793c 16a5 a83c
00000200: f907 ab3d 75a6 9e3c 3433 60bd da44 17bd
00000210: d64b 233d 1a12 7dbd 07b4 193d 727e 433d
00000220: abee 02bc c423 03bb ec4f 05bc be5e 083c
00000230: e87d 16bc 1fbc 27bd ad77 6b3d 0800 72ba
00000240: 3a6b c63b 4bc3 063b 6118 21bd 386e 9dbd
00000250: 18ef e73c 9f76 7d3c c5a8 3ebe 3583 09bd
00000260: 9e3f b13c 2e76 353c 2755 4dbc 7c8d 233c
00000270: 4a86 a7bd 0a64 ed3c 3730 073c 9527 593d
00000280: 078a 2a3d ec62 8d3d b0ae a1bb 0c41 13bd
00000290: 77e6 58bb 9972 f5bc a625 3f3d ba34 8f3c
000002a0: dfd6 52bd 0e81 0f3d 8d45 63bc fa02 0e3c
000002b0: c827 c5bc 7dcf 923d 087a 5b3c 11de abbd
000002c0: 4288 d5bc 45c3 26bd dc44 d83c e9f5 703d
000002d0: 88b8 06bd 99d5 c13c 0ef0 ea3b 7d1e ba3c
000002e0: 00da 353d 868d 95bc 4b6b 863d 0f25 d23c
000002f0: 99fc 8f3c 54a0 713d 91f5 f6bd e76c 193c
00000300: db63 07bc 9b1b 0f3c 97d4 443c 28e2 91bd
00000310: 20c7 6f3d 5ef1 043d f00b 943d 4856 58bd
00000320: 8d98 4fbd bed6 b6bc 87e2 3bbd 6f5f 24bc
00000330: 61d1 6b3c 2dd2 34bd 016e 403d f69e 2ebd
00000340: 1599 61bd 2fbe f2bc 500b aebd 0673 77bd
00000350: 8eec 543c 9944 11bd a686 6bbd 1528 c7bc
00000360: 53c5 35bc ad8d 38bd a947 1fbd 4ddd 053d
00000370: 152e d03c 10f3 1ebb 9122 993d 721b a43d
00000380: 58ed c7bb da05 783d 8d8a a73c 4bd2 8ebd
00000390: bc1e 113d 054e 993c b661 12bd ff6b 213c
000003a0: d31f 68bb 2719 393d 5bef 243d 42ee a8bc
000003b0: b453 753b 651d 0eba 9916 443c f3cd d3bc
000003c0: c340 0c3d f499 a33c 13c0 a3bc 7364 90bc
000003d0: aaa8 bd3d 1fd7 243d 933c 45bd baee be3c
000003e0: f30d 9d3d ee95 b13c 9de2 d2ba 3a9e 47bd
000003f0: 11f9 ca3d 068d ab3c f533 803b 2c9e 833c

network_body._body_endoder.seq_layers.0.weight f4 [256, 27]
-0.42519554 0.22181448 0.21428426 -0.23828833 0.22519267 0.059809484 0.071495645 0.1341081
-0.2525341 0.08384759 -0.017288446 0.31012043 -0.47166303 0.17927657 -0.07986786 -0.05683128
-0.03442256 -0.03765471 -0.20256542 -0.20583437 0.14175908 0.27087387 -0.06818826 -0.2111084
0.029064292 -0.14485078 0.052572608 -0.45872474 0.063897364 -0.19199947 -0.042440496 0.09919905
-0.16331081 -0.22285172 0.014444558 -0.24229032 -0.531501 0.052840516 -0.16135256 -0.15806563
0.07167899 0.15168053 -0.28504962 0.030464845 0.23394924 -0.2228519 -0.12971906 0.21395782
0.014684793 -0.006423048 0.04912857 -0.15123098 0.15746284 -0.08044129 -0.0541784 -0.09863214
0.30520326 0.24361822 -0.53053445 -0.20849662 0.19693388 -0.10693385 0.32413933 -0.08980619
-0.3610561 0.2477343 -0.07410041 -0.029460544 0.034443766 0.13929503 -0.007625652 0.035400975
0.019647345 -0.1188128 0.049144518 -0.18268616 0.18788593 -0.11168434 0.06674182 -0.12243574
0.05696514 -0.2048347 -0.27211347 -0.19503596 0.07356338 0.00306875 -0.34759864 -0.07899683
0.20398279 -0.13733564 0.028429199 0.040720295 -0.06855661 0.1584573 -0.24484374 -0.03670335
0.44783223 0.13454346 0.37465152 0.05349655 0.20855181 -0.10939034 -0.15941224 -0.09762707
-0.0115888715 0.26765937 0.057916045 0.21029378 -0.14015096 0.13486452 -0.16439646 0.1628311
-0.14788218 -0.09378243 0.13110024 0.009228488 -0.40464 0.2256163 0.10037672 0.20446938
-0.013720294 0.21826138 -0.0028394903 0.15399507 -0.5529849 -0.13579871 0.14305682 -0.029016025
0.1023049 0.023671875 0.4212589 -0.0377154 0.040529568 0.11138037 0.1679181 -0.22241873
-0.4575631 -0.22418876 -0.08551713 -0.43035492 -0.38307473 -0.21764465 -0.2297637 0.022213558
-0.028085837 -0.37643537 0.39274985 -0.015725734 -0.5307547 -0.35497388 -0.012893544 -0.53067756
-0.2702132 -0.120308116 -0.19215715 -0.31480584 0.43266392 -0.3348161 -0.35316208 -0.2984495
-0.30247256 -0.38981035 -0.30659232 0.27121872 -0.03173425 0.24541332 -0.21370776 -0.121255256
-0.04565855 -0.27598324 0.10697757 -0.06810438 -0.11567886 0.020241108 0.19582658 0.0882192
0.313283 -0.1004615 0.03883996 -0.055702478 0.2825831 -0.18597673 -0.31019 -0.07570359
0.33073586 -0.11508298 -0.3326309 0.3637014 -0.07243302 -0.18949579 0.024265103 0.07682303
-0.07704602 0.12884477 0.3366702 0.3131057 -0.41193047 -0.116460875 0.10278197 0.049149
0.18734959 -0.5987903 0.13096873 -0.044838972 -0.26820546 -0.10909776 0.31089354 -0.14903806
0.051053923 -0.18542479 -0.03963053 0.21113975 -0.29254416 0.1940605 0.1354732 -0.14479622
0.0030257409 -0.36735457 -0.051384702 -0.32972425 -0.18937033 -0.17348889 -0.28007248 -0.5504446
0.029914653 -0.17540827 -0.2961114 -0.7429334 0.35273084 -0.21139039 -0.30242676 -0.28118223
-0.54822767 -0.023976559 -0.04520007 -0.7791259 -0.6542671 0.13583128 0.27649665 -0.6928742
0.14133725 -0.045880254 -0.17981337 -0.25325155 -0.07636644 -0.060699757 0.012715097 -0.34491417
-0.16132982 0.121695675 0.15264662 -0.43451393 0.2970571 -0.17887911 -0.11360705 -0.046700485
00000000: 3bb3 d9be 5623 633e 556d 5b3e db01 74be
00000010: e898 663e cafa 743d 4f6c 923d a253 093e
00000020: 264c 81be 49b8 ab3d 80a0 8dbc 1bc8 9e3e
00000030: d17d f1be 4794 373e c391 a3bd ebc7 68bd
00000040: acfe 0cbd d33b 1abd 4f6d 4fbe 3fc6 52be
00000050: 4b29 113e fbaf 8a3e 49a6 8bbd cd2c 58be
00000060: 3d18 ee3c c353 14be 6056 573d f8dd eabe
00000070: 9fdc 823d 829b 44be 16d6 2dbd df28 cb3d
00000080: f33a 27be 3e33 64be dea8 6c3c f41a 78be
00000090: 7310 08bf 4c6f 583d 9b39 25be f5db 21be
000000a0: 6fcc 923d 2452 1b3e 06f2 91be 6991 f93c
000000b0: 6490 6f3e 4a33 64be 13d5 04be c217 5b3e
000000c0: 7c98 703c 6f78 d2bb 0a3b 493d 4bdc 1abe
000000d0: f03d 213e 67be a4bd 2cea 5dbd a6ff c9bd
000000e0: 9a43 9c3e 0e77 793e 1bd1 07bf 2380 55be
000000f0: 09a9 493e 2200 dbbd 97f5 a53e 4fec b7bd
00000100: 58dc b8be 0fae 7d3e f5c1 97bd 3d57 f1bc
00000110: e814 0d3d 5ba3 0e3e 9be0 f9bb 9d00 113d
00000120: 78f3 a03c 2054 f3bd c34b 493d 1512 3bbe
00000130: 2b65 403e c2ba e4bd efaf 883d 97bf fabd
00000140: 4754 693d 30c0 51be 7552 8bbe 82b7 47be
00000150: 66a8 963d 151d 493b 73f8 b1be 17c9 a1bd
00000160: dde0 503e b7a1 0cbe 5ae4 e83c 53ca 263d
00000170: 6867 8cbd a142 223e 51b8 7abe 4056 16bd
00000180: 444a e53e c3c5 093e 53d2 bf3e 331f 5b3d
00000190: 9b8e 553e 0b08 e0bd f63c 23be b4f0 c7bd
000001a0: 40df 3dbc a60a 893e 6039 6d3d 4157 573e
000001b0: bc83 0fbe ed19 0a3e 8c57 28be 32bd 263e
000001c0: 6d6e 17be 0111 c0bd 243f 063e 1633 173c
000001d0: f92c cfbe f607 673e 4f92 cd3d 6c60 513e
000001e0: 16cb 60bc e97f 5f3e be16 3abb e2b0 1d3e
000001f0: 6b90 0dbf d10e 0bbe 7d7d 123e 04b3 edbc
00000200: 3b85 d13d 85eb c13c 3faf d73e 777b 1abd
00000210: 5502 263d 641b e43d b9f2 2b3e bcc1 63be
00000220: b645 eabe bd91 65be 9b23 afbd 7b57 dcbe
00000230: 5f22 c4be 3dde 5ebe 2d47 6bbe 35f9 b53c
00000240: 4514 e6bc 23bc c0be 8216 c93e 41d3 80bc
00000250: 8adf 07bf 23bf b5be 713f 53bc 7cda 07bf
00000260: 6259 8abe 1a64 f6bd d8c4 44be 3b2e a1be
00000270: 2086 dd3e 046d abbe a9d1 b4be 5fce 98be
00000280: afdd 9abe 3995 c7be abf9 9cbe 2edd 8a3e
00000290: c6fb 01bd a14d 7b3e 35d6 5abe ad54 f8bd
000002a0: 7604 3bbd ad4d 8dbe 0e17 db3d 4f7a 8bbd
000002b0: 0ae9 ecbd aed0 a53c c386 483e 45ac b43d
000002c0: a166 a03e c2be cdbd a616 1f3d 4828 64bd
000002d0: bbae 903e af70 3ebe 39d1 9ebe 7c0a 9bbd
000002e0: 3656 a93e a0b0 ebbd 994e aabe 1237 ba3e
000002f0: c357 94bd 2f0b 42be 9cc7 c63c 6555 9d3d
00000300: 4eca 9dbd e2ef 033e 0960 ac3e 644f a03e
00000310: 8de8 d2be 0a83 eebd 5a7f d23d 7650 493d
00000320: 92d8 3f3e 524a 19bf ab1c 063e 12a9 37bd
00000330: 3a52 89be a56e dfbd 702d 9f3e 6f9d 18be
00000340: eb1d 513d ffdf 3dbe 9f53 22bd 0535 583e
00000350: 59c8 95be ccb7 463e 7db9 0a3e 7645 14be
00000360: 824b 463b e615 bcbe c478 52bd 9ed1 a8be
00000370: 4cea 41be 12a7 31be a965 8fbe f0e9 0cbf
00000380: 930f f53c 3a9e 33be ea9b 97be e230 3ebf
00000390: 2399 b43e b976 58be aed7 9abe 1ef7 8fbe
000003a0: a658 0cbf 7d6a c4bc b523 39bd cc74 47bf
000003b0: 0c7e 27bf 5b17 0b3e f890 8d3e 3460 31bf
000003c0: b6ba 103e efec 3bbd ff20 38be 30aa 81be
000003d0: 0266 9cbd 4fa0 78bd fb52 503c 9798 b0be
000003e0: a533 25be 953b f93d 654f 1c3e 9c78 debe
000003f0: de17 983e 162c 37be d0aa e8bd 0249 3fbd

network_body._body_endoder.seq_layers.2.bias f4 [256]
-0.015243922 -0.031358596 0.0084739 -0.032564398 -0.014645227 -0.09825096 -0.01267653 -0.0401106
-0.010851274 -0.086623766 -0.016391212 0.0007814632 -0.036781844 -0.016222917 -0.06837221 -0.008769993
-0.019270202 -0.00954541 -0.04688498 -0.059030958 -0.023092134 -0.06884984 -0.023054358 -0.106963836
-0.0070432466 -0.040586054 -0.07927717 -0.076325335 -0.022483613 -0.08157484 -0.023311157 -0.0351781
-0.012794716 -0.09731448 -0.009225231 -0.047013838 -0.06601639 0.0004280146 0.0027757927 -0.018842477
-0.020598972 -0.019249652 -0.047404204 -0.033275384 -0.042776044 -0.04234956 -0.02143396 -0.046202965
-0.011242482 -0.038912434 -0.056049652 -0.025996473 -0.036599416 -0.06362077 -0.027202632 -0.036365293
0.00067952805 -0.011193049 0.008062506 -0.040209513 -0.023501297 -0.054735273 0.00036552135 -0.005768803
-0.0027014194 -0.043739688 -0.050507553 -0.0019757473 -0.03342596 0.006470739 -0.018547041 0.020085013
0.0006325163 -0.0028792948 -0.007454322 -0.040368326 -0.08207808 -0.03863895 -0.04101929 -0.012177076
-0.03454824 -0.058187973 -0.042015567 0.0070037073 -0.052378975 -0.024239998 -0.034950383 -0.06592711
-0.052938316 -0.050981164 -0.02571988 -0.029769074 -0.03372355 -0.011214703 -0.055975385 -0.005054772
-0.09319972 -0.017684149 -0.04861621 -0.05541864 -0.040316097 -0.02356504 -0.024036923 -0.054105148
-0.032839257 -0.06081321 -0.08124333 0.005586491 -0.06415992 -0.026659558 -0.055556756 -0.09746117
-0.010295707 -0.053865578 -0.054343503 -0.034233328 -0.02100185 0.012142864 -0.015834685 -0.0502434
-0.008592568 -0.03559168 -0.045422267 -0.042526215 0.0030942862 -0.06983091 -0.082262814 -0.025638424
-0.029851897 -0.0187224 -0.014557345 -0.10100651 -0.02363562 0.0012448517 -0.14010201 -0.041037004
-0.02446018 -0.07818731 -0.038324393 -0.044566754 -0.048974916 -0.040953394 -0.045017023 -0.080534935
-0.029497836 -0.049903944 -0.03764359 -0.055104487 -0.02913593 -0.093572035 -0.10737369 -0.072864994
-0.08504595 -0.023726858 -0.020034589 -0.0065330495 -0.010788212 -0.09113554 -0.052552342 -0.04289854
-0.099133395 -0.041939143 -0.05154533 -0.037333403 -0.059738994 -0.019263823 -0.033603873 -0.024044361
-0.06486193 -0.030895589 -0.038623217 -0.0041474714 -0.047430415 0.01930543 -0.07723325 -0.08014266
-0.03026333 -0.021970337 -0.07883702 -0.03951582 -0.03554826 -0.07679366 -0.12617444 -0.040417697
-0.018683124 -0.0066926754 -0.044849068 -0.02676977 -0.0144690825 -0.025042072 -0.033293046 -0.007038783
-0.017336084 -0.05621409 -0.034561183 -0.020648826 -0.037567344 -0.014751806 -0.052515604 -0.066252
-0.011331703 0.00033880616 -0.026412861 -0.048996504 -0.02707011 -0.022987913 -0.08992992 -0.026792604
-0.031771403 -0.021029443 0.022513378 -0.031076819 -0.0449795 -0.02669114 -0.013246997 -0.041978814
-0.049095426 -0.0094913645 -0.064571716 -0.06645068 -0.032195278 0.0034544773 -0.03771172 -0.0137589425
-0.0323797 -0.0603605 -0.043175716 -0.03699064 -0.030393353 -0.034861434 -0.005837239 -0.10237166
-0.029616913 -0.024854336 -0.12954436 -0.03886554 -0.031047232 -0.090800665 0.00674476 -0.049781814
-0.06377703 -0.071365595 -0.012591429 -0.012923893 -0.007241117 0.0008813769 -0.09654605 -0.04777367
-0.010451909 -0.1024219 -0.11991504 -0.021488227 -0.03094984 -0.049797658 -0.03536874 -0.029851457
00000000: a5c1 79bc df71 00bd 1dd6 0a3c 3f62 05bd
00000010: 89f2 6fbc cd37 c9bd 38b1 4fbc 034b 24bd
00000020: 8bc9 31bc cd67 b1bd dd46 86bc 1cdb 4c3a
00000030: 8fa8 16bd ece5 84bc bb06 8cbd 04b0 0fbc
00000040: 8bdc 9dbc 5a64 1cbc 770a 40bd 72ca 71bd
00000050: b72b bdbc 2501 8dbd 7edc bcbc db0f dbbd
00000060: 09cb e6bb 903d 26bd 125c a2bd 7550 9cbd
00000070: 8e2f b8bc b610 a7bd 0af7 bebc e916 10bd
00000080: eea0 51bc d04c c7bd 6c25 17bc 9591 40bd
00000090: 9a33 87bd 2667 e039 13ea 353b 8a5b 9abc
000000a0: 2dbf a8bc 72b1 9dbc e92a 42bd c54b 08bd
000000b0: ef35 2fbd bb76 2dbd 4696 afbc 523f 3dbd
000000c0: 6332 38bc a562 1fbd 5294 65bd 8ef6 d4bc
000000d0: 45e9 15bd 9b4b 82bd 0ed8 debc c6f3 14bd
000000e0: 5b22 323a 0d63 37bc 9a18 043c bbb2 24bd
000000f0: cb85 c0bc 1832 60bd 72a3 bf39 3a08 bdbb
00000100: 4c0a 31bb 6328 33bd 02e1 4ebd 8a7b 01bb
00000110: a9e9 08bd 7e08 d43b f7ef 97bc 5389 a43c
00000120: 73cf 253a 8db2 3cbb 6343 f4bb 4259 25bd
00000130: 8d18 a8bd e043 1ebd d803 28bd 5c82 47bc
00000140: 7582 0dbd 8356 6ebd 8418 2cbd 5b7f e53b
00000150: 568b 56bd f692 c6bc 2228 0fbd cb04 87bd
00000160: d9d5 58bd a0d1 50bd 7fb2 d2bc 46de f3bc
00000170: b521 0abd e0bd 37bc 7246 65bd 80a2 a5bb
00000180: 7fdf bebd 59de 90bc cb21 47bd a8fe 62bd
00000190: 7e22 25bd 790b c1bc 15e9 c4bc 5c9d 5dbd
000001a0: 7582 06bd 4617 79bd e762 a6bd e20e b73b
000001b0: 4766 83bd 2565 dabc 7b8f 63bd b999 c7bd
000001c0: 53af 28bc 27a2 5cbd 4b97 5ebd 3f38 0cbd
000001d0: 120c acbc ddf2 463c beb7 81bc 06cc 4dbd
000001e0: d8c7 0cbc 95c8 11bd b30c 3abd f82f 2ebd
000001f0: 82c9 4a3b 8203 8fbd 6879 a8bd ac07 d2bc
00000200: f78b f4bc b85f 99bc ee81 6ebc 80dc cebd
00000210: 7d9f c1bc 4b2a a33a e776 0fbe 6b16 28bd
00000220: b760 c8bc ab20 a0bd 0afa 1cbd a18b 36bd
00000230: ec99 48bd bfbe 27bd c563 38bd 80ef a4bd
00000240: 72a5 f1bc 1468 4cbd 2a30 1abd 3eb5 61bd
00000250: 79ae eebc b2a2 bfbd bde6 dbbd 3e3a 95bd
00000260: 922c aebd d45e c2bc 941f a4bc 3113 d6bb
00000270: 0ac1 30bc 45a5 babd 2041 57bd 61b6 2fbd
00000280: 7306 cbbd 61c8 2bbd 3221 53bd e9ea 18bd
00000290: e0b0 74bd 2acf 9dbc 37a4 09bd aef8 c4bc
000002a0: 55d6 84bd bf18 fdbc 6133 1ebd 83e7 87bb
000002b0: 6546 42bd 6c26 9e3c 772c 9ebd d621 a4bd
000002c0: ceea f7bc 23fb b3bc 4e75 a1bd 57db 21bd
000002d0: 0d9b 11bd ff45 9dbd df33 01be 078d 25bd
000002e0: 5a0d 99bc 3b4e dbbb a8b3 37bd 474c dbbc
000002f0: bb0f 6dbc 0825 cdbc 4a5e 08bd 97a5 e6bb
00000300: 6704 8ebc bf40 66bd 0790 0dbd ba27 a9bc
00000310: 37e0 19bd 8fb1 71bc 9a1a 57bd 21af 87bd
00000320: 9ba8 39bc cba1 b139 c95f d8bc 8fb0 48bd
00000330: 23c2 ddbc 2651 bcbc 2e2d b8bd 2a7c dbbc
00000340: bb22 02bd f045 acbc fa6d b83c d094 febc
00000350: 6d3c 38bd 61a7 dabc ef09 59bc faf1 2bbd
00000360: 4918 49bd ab81 1bbc 2d3e 84bd 4b17 88bd
00000370: 32df 03bd 8364 623b 9b77 1abd 306d 61bc
00000380: 94a0 04bd 923c 77bd 05d9 30bd 7f83 17bd
00000390: 7bfb f8bc ddca 0ebd 4f46 bfbb 3ca8 d1bd
000003a0: 2b9f f2bc 529b cbbc 47a7 04be 7931 1fbd
000003b0: c456 febc b3f5 b9bd 2603 dd3b 04e8 4bbd
000003c0: 889d 82bd 2028 92bd 484c 4ebc bcbe 53bc
000003d0: e446 edbb 340c 673a efb9 c5bd 53ae 43bd
000003e0: 7c3e 2bbc 93c2 d1bd 0496 f5bd 1408 b0bc
000003f0: 858a fdbc a1f8 4bbd d0de 10bd 0b8b f4bc

network_body._body_endoder.seq_layers.2.weight f4 [256, 256]
0.12450217 0.051524732 0.011404829 0.09875781 0.12396849 -0.0124346055 0.0058191284 -0.13400477
-0.057880145 0.02498694 -0.039209563 -0.07305377 -0.04788946 0.095757715 0.03260375 -0.042457998
0.1193281 0.031818897 -0.17474389 -0.016015297 -0.06973058 0.07080854 -0.08694291 -0.13404492
0.0787346 0.15477277 -0.25451452 -0.23698936 0.008096146 -0.0053386847 -0.063304976 -0.06387738
0.12244102 0.04772847 0.07435713 0.19227594 0.09998297 -0.073405296 0.09823807 -0.08251811
0.116057254 -0.03340572 -0.0032804958 -0.08292205 -0.0697161 0.031536587 0.05959845 0.06697139
0.03762762 0.056665473 0.12316061 -0.10028662 0.015942074 0.19495061 0.10810886 -0.09107657
0.038428895 -0.045102976 -0.07672505 -0.1302464 0.07114351 -0.014212886 -0.012052604 0.004288294
0.08598722 -0.12551314 0.06228904 0.035312667 -0.17070724 -0.13134234 0.08183529 -0.17034681
-0.06389148 0.025758257 0.13801906 -0.1694767 -0.054864377 0.0122285085 0.040588643 -0.045599937
0.031285495 0.07942049 -0.108489506 0.078864336 0.13905858 0.028695248 0.044011585 -0.046685975
0.03770451 0.040776297 0.051142324 -0.032182846 -0.016952043 -0.08873452 -0.03850571 0.06767019
0.12686503 0.09727993 0.015280897 -0.10266065 -0.14108123 -0.051365964 -0.06898691 0.11640585
-0.035898156 0.08273956 0.15574779 -0.17007539 0.06410356 0.09671595 -0.028777873 -0.05303878
-0.029591657 0.05833683 0.08330044 -0.030536054 0.08714726 -0.013725987 0.028841713 0.023333548
0.24442902 -0.007841827 0.04568403 0.015740898 0.033004295 0.03757032 -0.038321618 0.056647625
0.016648572 0.10145299 0.060772024 0.0439086 0.042498887 0.14125201 0.029233253 0.073945396
0.17175028 0.06294451 -0.07939582 0.08638955 -0.19534712 -0.03888426 -0.026577456 -0.20467319
0.04650372 0.06549952 0.14346844 -0.13756636 -0.05701136 0.1031349 0.041818153 0.102900214
0.064422466 -0.03037568 -0.015640013 -0.033083025 0.17494275 0.056712326 0.22713518 0.09256956
-0.004287032 -0.019946018 -0.118046254 0.09517375 0.035329487 -0.095038764 0.003736789 -0.16297664
-0.038778894 0.16101676 -0.05943042 0.110378005 -0.015742714 0.09741147 -0.0011519155 0.05729606
-0.10570356 0.07815537 -0.047121357 -0.2103244 0.048559282 -0.061465286 0.025999596 0.047567494
0.114828184 -0.040748626 0.1917623 0.06813209 -0.029499361 -0.018286977 0.09161242 0.19252232
0.1857507 0.0033087719 -0.025284946 -0.01823102 -0.093878 -0.053475708 -0.15824407 0.18812741
-0.007676313 -0.101985134 0.1983633 0.053208143 -0.043800898 -0.07744715 -0.07252555 0.15815704
0.12195318 0.07250064 0.1417398 -0.08823972 -0.16073373 -0.11854824 0.05254161 0.019650912
-0.008377797 0.027397657 0.012429209 0.042197466 -0.07971377 0.04860941 -0.06476671 -0.047960166
-0.045505617 -0.10950941 0.012484554 0.08523229 0.03721316 0.06607621 0.013889965 0.05936522
0.0801569 0.08148226 -0.017379677 0.016170071 -0.029650211 0.006238856 0.038639657 -0.08960803
0.013861823 0.02760105 0.064389415 0.070681885 -0.115618035 -0.00021198415 -0.026114248 0.09842076
0.04951436 -0.13231145 -0.07913631 0.019224256 0.0026085784 -0.00033817656 0.13273275 -0.061903317
00000000: fefa fe3d 990b 533d 52db 3a3c 8941 ca3d
00000010: 31e3 fd3d 84ba 4bbc 63ae be3b 8c38 09be
00000020: bb13 6dbd 69b1 cc3c 359a 20bd 379d 95bd
00000030: bd27 44bd 9f1c c43d 828b 053d 70e8 2dbd
00000040: 4a62 f43d 8854 023d 10f0 32be 8332 83bc
00000050: e8ce 8ebd 1104 913d 200f b2bd 1243 09be
00000060: 9b3f a13d c17c 1e3e ba4f 82be 57ad 72be
00000070: b3a5 043c 22f0 aebb 0aa6 81bd 25d2 82bd
00000080: 5cc2 fa3d ee7e 433d 8d48 983d fce3 443e
00000090: dfc3 cc3d 8455 96bd 0b31 c93d 41ff a8bd
000000a0: 6daf ed3d 70d4 08bd 96fd 56bb 09d3 a9bd
000000b0: 51c7 8ebd 822c 013d 811d 743d 4c28 893d
000000c0: 6b1f 1a3d 0e1a 683d a13b fc3d 1263 cdbd
000000d0: f498 823c 22a1 473e 2e68 dd3d 5a86 babd
000000e0: 9e67 1d3d e6bd 38bd 0622 9dbd 505f 05be
000000f0: b0b3 913d 2add 68bc 4978 45bc d184 8c3b
00000100: 111a b03d 8486 00be cb22 7f3d 04a4 103d
00000110: e1cd 2ebe 9b7e 06be 4399 a73d 656f 2ebe
00000120: 89d9 82bd fb02 d33c de54 0d3e 4d8b 2dbe
00000130: 78b9 60bd 155a 483c 4740 263d 00c7 3abd
00000140: 3825 003d 36a7 a23d bf2f debd a083 a13d
00000150: 5f65 0e3e 4c12 eb3c 7e45 343d cb39 3fbd
00000160: 0b70 1a3d 0c05 273d 9d7a 513d 29d2 03bd
00000170: 03df 8abc 72ba b5bd 2ab8 1dbd ab96 8a3d
00000180: e8e8 013e b33a c73d ba5c 7a3c bf3f d2bd
00000190: 9977 10be 1e65 52bd 0249 8dbd 3166 ee3d
000001a0: f209 13bd 5c73 a93d 597c 1f3e 3e28 2ebe
000001b0: ba48 833d 0313 c63d 93bf ebbc 313f 59bd
000001c0: 346a f2bc 9af2 6e3d 6c99 aa3d bf26 fabc
000001d0: 437a b23d f6e2 60bc 7545 ec3c ff25 bf3c
000001e0: 9a4b 7a3e 027b 00bc 2d1f 3b3d 0ef3 803c
000001f0: 832f 073d 56e3 193d 21f7 1cbd 5707 683d
00000200: 9662 883c 96c6 cf3d 16ec 783d 81d9 333d
00000210: 5013 2e3d 5ea4 103e 937a ef3c af70 973d
00000220: 4edf 2f3e 0de9 803d 479a a2bd 01ed b03d
00000230: 1309 48be 1a45 1fbd f7b8 d9bc d995 51be
00000240: af7a 3e3d 9d24 863d 64e9 123e 32de 0cbe
00000250: be84 69bd 6438 d33d 8349 2b3d 59bd d23d
00000260: edef 833d 6bd6 f8bc 7c1f 80bc 1182 07bd
00000270: 3124 333e 2f4b 683d 2096 683e 1c95 bd3d
00000280: 3b7a 8cbb d565 a3bc 3cc2 f1bd 74ea c23d
00000290: a7b5 103d afa3 c2bd ebe4 743b 59e3 26be
000002a0: 9ed6 1ebd 94e1 243e 506d 73bd dd0d e23d
000002b0: ddf6 80bc aa7f c73d dffb 96ba 46af 6a3d
000002c0: 1c7b d8bd ec0f a03d 5302 41bd 485f 57be
000002d0: 19e6 463d 06c3 7bbd 1bfd d43c 22d6 423d
000002e0: 0a2b eb3d 08e8 26bd 565d 443e d688 8b3d
000002f0: a5a8 f1bc 92ce 95bc 4b9f bb3d 9224 453e
00000300: 6e35 3e3e fbd7 583b 6022 cfbc 3859 95bc
00000310: 1c43 c0bd 5809 5bbd bc0a 22be 79a4 403e
00000320: 9589 fbbb 95dd d0bd c01f 4b3e c8f0 593d
00000330: 9268 33bd 9d9c 9ebd 4788 94bd ebf3 213e
00000340: 97c2 f93d 377b 943d 3d24 113e 07b7 b4bd
00000350: 6297 24be 6bc9 f2bd df35 573d f3fa a03c
00000360: 0743 09bc 0d71 e03c e2a3 4b3c 40d7 2c3d
00000370: f940 a3bd a91a 473d 69a4 84bd e171 44bd
00000380: 1964 3abd 7846 e0bd 048c 4c3c 448e ae3d
00000390: d46c 183d f752 873d bc92 633c f228 733d
000003a0: 4d29 a43d 2ce0 a63d d35f 8ebc 1977 843c
000003b0: 00e5 f2bc 516f cc3b 9e44 1e3d 6a84 b7bd
000003c0: b31c 633c 991b e23c 99de 833d aac1 903d
000003d0: 26c9 ecbd 1048 5eb9 8ced d5bc d390 c93d
000003e0: 92cf 4a3d a77c 07be 3812 a2bd 307c 9d3c
000003f0: aff4 2a3b 4a4d b1b9 18eb 073e 558e 7dbd
