Assets/ML-Agents/results/Andrew ML/results/sc_01 - Copy/SimpleCollector/SimpleCollector-499952.pt (torch, 218055 bytes, 34 tensors)

discrete_act_size_vector f4 [1, 3]
000000 00 00 40 40 00 00 40 40 00 00 40 40
       3.0 3.0 3.0

network_body._body_endoder.seq_layers.0.weight f4 [256, 27]
000000 03 43 1b be da ad cd bd 3a 7c 9d be 51 26 be 3e
       -0.15162282 -0.10042925 -0.3075884 0.37138608
000010 4f a2 7d be 83 b1 64 bd 84 d0 8d be 71 92 8c 3e
       -0.24768947 -0.05583335 -0.27698147 0.27455476
000020 e2 43 a4 3d e2 1a 70 bd eb 42 81 3d f9 49 97 3c
       0.0802076 -0.058619387 0.06311592 0.01846789
000030 51 fb 07 be 56 4a 76 3d d9 ca 93 3d ba 58 f9 3d
       -0.13279463 0.060129486 0.072164245 0.121751264
000040 36 98 0c be d2 06 bf be c4 03 00 3b b5 05 a4 3c
       -0.13729939 -0.3730989 0.0019533494 0.020022253
000050 be 13 a2 bd 08 9c 52 be 73 39 2d 3e 93 54 05 3e
       -0.07913922 -0.20567334 0.16916446 0.13020544
000060 1a 9c 6b 3d 14 d3 1b 3e b5 99 ec 3d 61 20 b5 bd
       0.057521917 0.15217239 0.11552755 -0.088440664
000070 8a be a2 3e a5 7b a4 3e b1 69 76 3c 59 25 df 3e
       0.31785995 0.32125583 0.015039847 0.43583182
000080 c1 88 2d be df 93 8e 3d 04 91 e3 3d b8 f7 52 3e
       -0.16946699 0.06961798 0.11111644 0.2060231
000090 4d b8 86 be 01 cb 07 be 64 fb 0f 3d 7d 47 69 3e
       -0.26312485 -0.13261034 0.035151854 0.22781177
0000a0 ee b2 73 bd 3b e4 9c 3c 78 36 0c bd b4 c4 67 bd
       -0.059496813 0.019151798 -0.034231633 -0.056584075
0000b0 b3 d9 ea 3d e0 8c 0a 3d 51 f1 84 be 42 b8 a3 be
       0.11467304 0.033825755 -0.2596536 -0.31976515
0000c0 21 40 58 bc 3b 79 76 be c7 10 f1 bc d1 53 05 3e
       -0.013198883 -0.24069683 -0.029426945 0.13020255
0000d0 a7 3b 06 3e 5f a4 51 3e 7c 79 b8 bd 99 83 43 3e
       0.13108693 0.20472859 -0.09007546 0.1909317
0000e0 9d 67 33 3e 12 15 83 bd a7 46 8d 3e eb 71 8d bc
       0.17519994 -0.06400503 0.27592966 -0.017266234
0000f0 d9 35 87 be 53 c1 7f 3c 05 1c 61 3e 47 71 1a 3e
       -0.2640827 0.015610057 0.21983345 0.15082274
000100 9f a9 31 be f4 de d1 3b 45 ce 90 3c e6 f2 91 3e
       -0.17349862 0.006404752 0.017676482 0.2850563
000110 96 f7 60 bd 9d f0 1f be a9 79 4a 3c f1 9d 31 3e
       -0.054923616 -0.1561913 0.012358108 0.17345406
000120 69 f7 58 bd 70 82 56 bc f2 7b 6b 3d 18 73 c5 3e
       -0.052970324 -0.013092622 0.05749125 0.38564372
000130 7e e9 17 be 6b 38 4d 3d e7 61 b6 bd 14 d0 7e bc
       -0.14835164 0.050102632 -0.08905392 -0.015552539
000140 f2 15 9a bd 06 89 39 3e 61 ae ad be b8 3c bc bc
       -0.07523717 0.18118677 -0.33922103 -0.022978172
000150 31 83 9e be b8 80 16 3b 44 00 85 be 89 94 cf 3c
       -0.30959466 0.0022964906 -0.25976765 0.025339382
000160 e2 7a fc 3e 91 42 85 3e 14 ba 8f 3d cc 84 92 bd
       0.49312502 0.2602735 0.070179135 -0.07154235
000170 82 81 ce 3e 62 39 83 3e 7d 0a cf be 4b f3 f2 be
       0.40333182 0.25629717 -0.4043769 -0.47451243
000180 ee dc b3 3e 0d 2e 17 be ad 04 ae be 90 43 42 3e
       0.35129493 -0.1476366 -0.33987942 0.18971086
000190 96 97 b4 3e 27 d1 48 be 31 37 47 3d 20 33 c2 3e
       0.352719 -0.19611035 0.04863662 0.3792963
0001a0 84 cb 5b be d6 43 84 be 27 eb cb 3e 32 81 a2 3d
       -0.21464354 -0.25833005 0.39827845 0.07934798
0001b0 3d 96 c2 bd 73 e5 09 bd e3 21 a7 3d 4a 0d 34 be
       -0.09501312 -0.033666085 0.0816076 -0.17583194
0001c0 e1 b5 90 be d2 e7 4e 3d 21 cf f3 3b 06 e7 93 3c
       -0.28263763 0.05051405 0.007440463 0.018054496
0001d0 1f 2d f5 bc e9 0e 15 be 38 d0 b2 3e 88 33 b7 3c
       -0.029928742 -0.14556469 0.34924483 0.02236344
0001e0 41 f6 4a bd b3 77 06 be 50 d9 17 be 93 91 a1 bd
       -0.049551252 -0.13131599 -0.14828992 -0.07889094
0001f0 55 19 23 3e 0c 0b 95 bb 94 d8 ce bd 0b cd 78 bd
       0.15927632 -0.004548436 -0.10099903 -0.06074242
000200 46 77 9d 3e 5a 93 b5 bd 7a fe f3 3d f4 9c b0 3d
       0.3075506 -0.08865996 0.11913772 0.086236864
000210 9d 2f 40 3e 9f 3b 6a bd 0e 18 04 3b c3 37 f5 3d
       0.18768163 -0.057185765 0.002015594 0.11973526
000220 76 0c e6 3d 3e 30 a3 3e c9 1e 82 be b5 e9 71 3d
       0.112328455 0.31872743 -0.25414112 0.05906077
000230 69 63 25 be 68 52 3c be fe 20 ab 3e 2a 49 3c 3d
       -0.16151203 -0.1839081 0.3342361 0.045968212
000240 3b 1e 0b be 37 6e d8 3d bb b5 d4 3d 70 36 ff 3d
       -0.13585751 0.10567897 0.10386225 0.12461555
000250 8f 37 13 3e 71 b2 9c bc b5 43 c8 bd 82 5e 1e be
       0.14376663 -0.019128056 -0.09778539 -0.1546574
000260 a7 f2 b3 bb 7f 3b 8f 3e 61 6b 8f be 83 51 8f be
       -0.005491573 0.2797508 -0.2801161 -0.27991876
000270 1b db 3b 3e a9 55 64 bd 26 41 b7 be f7 0d 5a bd
       0.18345301 -0.055745754 -0.35791892 -0.053235974
000280 d4 28 79 be e3 70 f9 bd 48 4e 6f bd dd b5 72 3d
       -0.24331981 -0.121797346 -0.058424264 0.05925547
000290 20 d6 47 3c 78 f7 19 be da 72 1f 3d 87 69 82 be
       0.0121970475 -0.15035808 0.03892789 -0.25471136
0002a0 1d fc 92 3d a2 89 0c 3d 50 55 02 3e 06 d8 b6 3d
       0.07176993 0.034310944 0.12727857 0.08927922
0002b0 e9 96 54 be f6 6a 70 be 36 72 54 3d 5a 86 ae 3d
       -0.20760693 -0.23478302 0.051866733 0.08521719
0002c0 08 8c 89 3e 18 13 8a 3e 87 49 08 be 34 2f 60 be
       0.26864648 0.26967692 -0.13309298 -0.21893007
0002d0 44 fe 1c be 2f 65 f1 3d 01 74 e7 bd da 2f 8e 3d
       -0.1533137 0.11786877 -0.11301423 0.06942721
0002e0 79 ad 13 bf 28 b4 7a 3e 4d 88 6b bd 5e eb fb 3d
       -0.57686573 0.24482787 -0.057503033 0.12300752
0002f0 53 a9 8c bd 9c 1d 2e bd 66 8f a0 3e 85 08 4f 3e
       -0.068682335 -0.042508706 0.31359404 0.20218094
000300 b1 75 fe 3d 90 61 69 be d0 0f 8b 3c d3 cf 56 be
       0.124247916 -0.22791123 0.016975313 -0.20977716
000310 43 47 d1 3d 78 6f 5f 3e a0 9f 0a bc 48 d0 54 be
       0.1021867 0.21819866 -0.008460909 -0.20782578
000320 78 eb 77 be 0a e7 e9 bd f3 8f d5 3e 81 8f 82 bd
       -0.24210918 -0.1142102 0.41711387 -0.063750274
000330 b0 76 f3 3d 7e b9 f0 be f2 c6 9b be 8d ac 89 3d
       0.11887872 -0.4701652 -0.3042522 0.067223646
000340 63 ee a7 be 1a 1c a5 3d f2 20 be be 08 37 ca 3e
       -0.32799062 0.080620006 -0.3713451 0.3949511
000350 ba 0c a1 be 2d ef 24 bd ad a8 25 3e cf a6 53 3c
       -0.31455022 -0.04026716 0.16177626 0.012918188
000360 5f 85 e3 bc 06 75 17 bf 31 b3 84 3e be d2 ed be
       -0.027773557 -0.5916294 0.25917962 -0.46449846
000370 a6 4e 91 3e 16 7b 1a bd 24 5e e1 3d de eb 2d 3d
       0.28380316 -0.03771504 0.11004284 0.04246127
000380 77 fa 61 3d 3e a2 d9 bc 67 20 24 be 15 61 1f 3e
       0.055170503 -0.02656662 -0.16027986 0.15564378
000390 bc 3a bb 3a d8 5f c2 be b7 d5 b2 3e 7b 9a e0 bd
       0.0014284472 -0.37963748 0.34928676 -0.10966965
0003a0 66 15 b1 3d dc 33 61 3e b8 01 3d 3e 15 51 d9 3e
       0.086466596 0.21992439 0.18457687 0.42444673
0003b0 e1 6e bc bd 4e fb b8 3d bf 07 80 3e db 2f 5e 3e
       -0.09200836 0.090323076 0.2500591 0.21697943
0003c0 32 34 9d bb d9 81 bb 3c 71 5a 57 be cd 85 d6 b9
       -0.004797482 0.022889065 -0.21030594 -0.0004091695
0003d0 ae 46 a2 bb 9d 72 52 3c 6f b4 df bd 92 11 2f be
       -0.0049522733 0.012844709 -0.10923087 -0.17096546
0003e0 48 36 ac 3d 3b d6 40 3e 6c 3b 6f be d4 38 8a 3d
       0.08408791 0.18831722 -0.23362511 0.0674912
0003f0 85 70 ea 3c 97 c0 99 3c 56 97 2d 3e 3d 0b 28 3e
       0.028618107 0.018768592 0.16952261 0.16410537

network_body._body_endoder.seq_layers.0.bias f4 [256]
000000 82 b5 36 3d bb 2b 82 ba 17 49 21 bc 2e dc d5 3b
       0.044606693 -0.0009931246 -0.009844086 0.0065264916
000010 8d a1 dc bc 4d 83 2d 3d 96 33 4f 3c 28 7c e6 3c
       -0.026932502 0.042361546 0.012646576 0.028135374
000020 8d ba 6e bc b8 20 ac bb 85 c8 98 ba 1b 72 5c bc
       -0.014570844 -0.005252924 -0.0011656439 -0.013454939
000030 f2 e8 22 3c ec ae 95 ba df ef da ba 6a 25 09 bc
       0.009943234 -0.0011419929 -0.0016703567 -0.008370737
000040 fc 2b 7a 3c 9e ac 34 bc c2 f7 95 3c 30 df 78 ba
       0.015269276 -0.011027483 0.018306617 -0.0009493707
000050 be d1 5c 3b bb 02 99 ba 29 d9 6d 3c 3b 6d 02 3c
       0.0033694352 -0.0011673787 0.014517107 0.007960613
000060 13 b0 63 3c c5 c8 23 bc 8c 47 cb 3b 3b 57 70 bc
       0.01389696 -0.009996598 0.0062035974 -0.014669235
000070 c8 5a 94 3c c1 6b 3d bc 95 fa 03 bc 6c e3 a8 bb
       0.018109694 -0.011561335 -0.008055349 -0.005154064
000080 8a b1 1c bc e3 f6 18 3d bc cd 24 bc 8d 37 83 bc
       -0.009563813 0.037344825 -0.0100588165 -0.0160177
000090 7b f9 40 bc 2e d4 34 3c fd 55 4b bc 99 6b 69 bc
       -0.011778231 0.011036916 -0.012410638 -0.014246845
0000a0 eb 29 0d bc 36 88 0f bc 47 f4 c7 bb 65 32 22 bc
       -0.008615951 -0.008760503 -0.006102118 -0.00989971
0000b0 8a 86 86 bb e8 eb 07 3c 12 b2 81 bc 5d b5 8a bc
       -0.004105394 0.0082959905 -0.01583198 -0.016932184
0000c0 ea 56 9b 3b 7a 48 8e 3c 33 ca 64 3c a7 a9 a9 3b
       0.0047405856 0.017368544 0.013964224 0.005177695
0000d0 2c 98 0c 3d 3e 38 01 bc 64 5a 04 bc 02 b0 d3 3b
       0.03432481 -0.007886944 -0.008078191 0.0064601908
0000e0 5a 09 7c 3b 9a 70 05 3d c3 c3 12 bc 75 47 40 bc
       0.0038457722 0.03257809 -0.008957806 -0.011735787
0000f0 13 df 1b 3c 08 48 92 3c b5 66 a5 3a c0 c4 90 bc
       0.009513634 0.017856613 0.001261911 -0.017671943
000100 02 95 42 bc b9 0c 2c 3c 2b 24 f2 3b f5 18 b7 bc
       -0.011876347 0.01050108 0.0073895655 -0.022350768
000110 6a b8 bc bc bf f1 c4 bc b6 be 02 bb 6d 33 34 bb
       -0.023037154 -0.024041055 -0.0019950098 -0.0027496472
000120 0a 78 1c bc 18 6f 89 3c 39 8a 74 bc e0 b6 13 bc
       -0.009550104 0.016776606 -0.014925533 -0.009015769
000130 5f 51 03 bc 1e 2b 4b bc 4b 75 a9 3c f0 34 cb 39
       -0.008015006 -0.012400417 0.020685812 0.0003875862
000140 dd 37 b3 3c d4 e2 7e ba 24 cc a1 ba cc 21 c7 bc
       0.021877224 -0.0009723131 -0.0012344164 -0.024308108
000150 9c bf c0 3b e1 29 19 bc 47 d6 c7 3b ae 5f 3e bb
       0.0058822166 -0.009348364 0.006098542 -0.0029048729
000160 36 e4 8f 3b c2 fa 98 bc e5 a6 7b 3a c3 cb c6 3c
       0.0043912185 -0.018674258 0.00095997594 0.024267083
000170 12 9c 9e 3c 23 4d d1 ba ab 69 3e bc 36 09 f4 3c
       0.01936153 -0.0015968423 -0.011621873 0.029789548
000180 69 4e 9a bc a5 4f 07 3b ec c8 3f 39 0f 94 43 3c
       -0.018836217 0.0020646837 0.00018290029 0.011937155
000190 f9 17 a2 3c 11 4e 9e 3c 78 9b 35 b9 0a e7 98 3c
       0.019786822 0.019324334 -0.00017319422 0.018664856
0001a0 24 d2 c9 3b 92 85 a9 bc fd 8c b0 bc 6d a2 1f bc
       0.006159084 -0.020693574 -0.021551603 -0.009743315
0001b0 d7 70 21 3c b3 12 51 ba 90 fa de bb a2 fb 0e bc
       0.009853563 -0.00079755037 -0.0068047717 -0.008726986
0001c0 08 a9 1a 3c 41 af 0c bd 06 91 76 bc 99 87 17 3b
       0.009439714 -0.034346823 -0.015049225 0.0023121594
0001d0 e5 ab a7 bc b0 0f 37 bc d0 d9 b3 bb fc 30 95 3b
       -0.020467708 -0.011173174 -0.0054886118 0.0045529585
0001e0 aa 24 4f 39 02 33 6a bc ca 93 3b 3c 42 fe 26 3a
       0.00019754717 -0.014294388 0.01144881 0.0006370285
0001f0 9a ee 9f 3c 11 03 04 bb b8 cc fd 3b 00 10 d9 3c
       0.019522954 -0.002014343 0.0077453516 0.026496887
000200 7b 38 01 bc c6 ab ae bb 62 0a 78 bb 76 b0 8a bc
       -0.007887001 -0.0053305356 -0.0037847986 -0.016929846
000210 7e 39 bd 3c 6e fb b7 3c 64 55 40 3c d9 7b 0a bc
       0.023098703 0.022458758 0.011739109 -0.008452379
000220 d1 58 6b bb 7f 90 ca 3c 64 38 1a 3c 96 61 71 3c
       -0.0035911093 0.024727104 0.009412859 0.014732739
000230 95 2b 92 bb c9 7e 4d 3c b4 c2 46 3b bc 28 8d 3c
       -0.004460762 0.012542435 0.0030328454 0.017231338
000240 61 09 96 3b d0 3e d3 3c 1a da ce bb 80 84 9b 3b
       0.004578755 0.025786787 -0.006312621 0.00474602
000250 63 4a 48 bc 48 25 ae 3c db 9a 69 bc 6b 8d ba 3b
       -0.012224766 0.021258011 -0.014258112 0.005693128
000260 a8 c3 46 3c e8 50 71 3c 43 81 89 ba 3d 1f 5e bc
       0.012131609 0.014728762 -0.0010490794 -0.0135572525
000270 d4 89 e3 3c ea 54 5f 3c 02 14 35 3c d6 b9 3a bb
       0.027775683 0.013631085 0.0110521335 -0.0028492115
000280 ab 62 99 bc e9 ea 8f bb fe 1f 81 3c 89 8f bc 3b
       -0.018723806 -0.004392017 0.015762325 0.0057544154
000290 cd c5 44 bc a2 6e 41 3b f3 d4 b4 ba 1d 07 ce 3c
       -0.01201005 0.0029515405 -0.0013796374 0.025149876
0002a0 ba 55 a9 bc c6 1e 66 3c 18 48 18 bc 3a 08 c4 ba
       -0.02067076 0.014045423 -0.009294532 -0.0014956065
0002b0 6b 2e e9 3b 64 3c da 3a d6 2f ba 3b b8 df 19 3c
       0.007116129 0.0016650078 0.005681972 0.009391718
0002c0 57 46 30 3d 45 12 a7 bc 2b f4 80 3c ba 57 7b bc
       0.04303583 -0.020394454 0.015741428 -0.01534074
0002d0 ae 66 71 bc 92 dd ef bb 75 3f 01 bc 42 81 ba bb
       -0.014733953 -0.0073201144 -0.0078886645 -0.0056916783
0002e0 01 c0 b3 3c ff 9e 9f 3b 63 c1 2f 3b d7 b3 31 3c
       0.02194214 0.0048712487 0.0026818148 0.0108461
0002f0 81 0a ba bb 2f 7d 8a 3c b1 2d 03 3c 49 cc 9b 3c
       -0.0056775217 0.016905395 0.008006499 0.01901831
000300 2e 97 9b 3c 1f 3a 1b bc d9 28 c0 3c ad 83 6e bb
       0.018992987 -0.009474306 0.023456978 -0.0036394403
000310 29 56 cb bb 2f b2 0c bc c1 83 4b bc ec 2f ae b7
       -0.0062053395 -0.008587404 -0.012421549 -2.0764732e-05
000320 df b2 1b 3b 0e d4 8b bc f7 aa c7 3c 0d 4c 56 bc
       0.0023757739 -0.017068889 0.024373515 -0.013079655
000330 8c eb 7d ba 0a 4c 90 ba d1 b3 1d bc bd 46 15 3b
       -0.00096862833 -0.001100899 -0.009625391 0.002277776
000340 85 fc 26 bc ab f1 ec 3c 13 d9 cc 3a 8f 24 90 bc
       -0.010192041 0.02892383 0.0015628658 -0.017595557
000350 8b 96 9f bb c1 90 7d 3b ff 6d e2 3c 14 df 93 bc
       -0.004870241 0.0038691016 0.02764034 -0.018050708
000360 6b 63 4e bc 66 4b e2 39 3b 06 84 3c e6 fd 4a 3c
       -0.012596945 0.00043162255 0.016116252 0.012389636
000370 fb df b6 bc e9 16 ff 3c 17 4f 0d 3d 69 ba 81 bc
       -0.0223236 0.031138854 0.034499254 -0.015835958
000380 78 c5 11 3c 63 e8 a3 3c 8a ce 96 39 96 35 49 3b
       0.008897178 0.020008272 0.00028764113 0.0030702106
000390 38 c5 39 3c ab 8e 8a 3c d0 f9 5e 3b fc da 03 3d
       0.0113385245 0.016913733 0.0034023412 0.03219126
0003a0 a3 2a af 3a 53 50 d9 bc 73 a4 7f bc 54 fd 17 bc
       0.0013364147 -0.02652756 -0.015603173 -0.009276707
0003b0 8e 67 3d bc 9f d8 dd 3c 40 2f 83 bb 7c 27 07 bb
       -0.011560334 0.027080832 -0.0040034354 -0.00206229
0003c0 d3 8d 11 bd ba 5b f0 bb c4 70 01 3b 07 aa cc ba
       -0.035535645 -0.0073351534 0.0019751051 -0.0015614637
0003d0 3f 02 30 bb 59 05 d4 39 f6 f8 9d 3b be 31 64 3a
       -0.0026856808 0.00040439775 0.004820938 0.0008704922
0003e0 a3 e9 71 bc 6b f4 11 3c 5a 2c 41 3c 7b 15 90 3c
       -0.014765176 0.008908371 0.011790359 0.017588368
0003f0 99 f8 53 bb 0a 19 92 bc e1 71 f7 3b 03 f6 06 3c
       -0.003234422 -0.017834205 0.007551417 0.008237365

action_model._discrete_distribution.branches.0.weight f4 [3, 256]
000000 74 33 7b 3a 8f 23 77 bc af 93 7a ba 3b 72 0c 3c
       0.0009582557 -0.015084161 -0.000955875 0.008572157
000010 b1 ab f3 3a 30 73 3b bc f7 6a be ba 63 63 d5 bb
       0.0018590597 -0.011441037 -0.0014527728 -0.006512092
000020 f5 74 3a 39 19 c9 22 3c e4 10 e9 bb e5 ec 37 bb
       0.00017781912 0.009935641 -0.007112609 -0.0028064784
000030 f2 ed ee bb 3d 29 bb bb 62 b8 29 39 46 56 a3 3b
       -0.007291549 -0.005711703 0.00016185784 0.00498465
000040 6b f2 e5 ba 98 f2 06 3b 0c 2c aa bb ce 3b 96 ba
       -0.001754356 0.0020591374 -0.005193239 -0.0011461915
000050 51 9b 20 bc 00 4f 18 3b 8c cf f2 bb a7 36 ee bb
       -0.009802655 0.0023240447 -0.0074099954 -0.0072696987
000060 19 9e 94 bc 6d 84 45 bc 96 06 0d bc 64 dd 47 bb
       -0.018141793 -0.012055499 -0.008607527 -0.003049695
000070 90 50 cf 3b dd 1f b5 39 66 a3 1f bc 02 58 7a 3c
       0.0063267425 0.0003454675 -0.009743547 0.015279772
000080 59 9c 11 bc ff d6 e4 3a be 8c 21 3c c4 0f 53 bb
       -0.008887374 0.0017459093 0.009860216 -0.0032205442
000090 87 fe b6 3b 5b aa 24 bb 2f b4 7d 3b eb d8 28 bb
       0.0055845412 -0.0025125954 0.0038712134 -0.0025764059
0000a0 de 2f 55 b9 06 3d cd 3b 05 16 a4 3b 61 5c 01 bb
       -0.00020331095 0.006263378 0.0050075077 -0.00197389
0000b0 a5 02 7f bb 74 33 1f bc 00 86 83 bc 3b 60 e6 3a
       -0.0038911488 -0.009716857 -0.016055107 0.0017576286
0000c0 a8 78 ea bb e6 72 3b 3c ce 53 08 3b 5b 7c 16 3c
       -0.0071554966 0.011440968 0.0020801905 0.009184922
0000d0 7f d6 b2 bb 91 ee 70 3b 52 55 8c 3b ff 98 16 3c
       -0.005457699 0.003676329 0.004282632 0.009191751
0000e0 c1 12 27 3b dd 92 c3 ba b6 4e 3a 3b c2 b7 51 3b
       0.0025493356 -0.0014921088 0.0028428263 0.0032000397
0000f0 32 f0 1f 3c d6 eb 60 bc 48 1f 52 bc dd 5b 06 3b
       0.009761857 -0.013728103 -0.012824841 0.0020501532
000100 bd 3c 07 3b 2e 44 ef ba 0b 63 03 bc 52 d3 40 ba
       0.0020635568 -0.0018254572 -0.008019219 -0.0007355708
000110 c7 c7 e2 bb d3 ae 10 3b d3 44 6f bb 50 72 16 3c
       -0.006920788 0.002207686 -0.0036509528 0.009182528
000120 a0 23 34 3a 6d 2e ac 3b 12 60 cc 3b bb 90 26 3b
       0.00068717636 0.005254558 0.0062370384 0.0025415856
000130 74 04 aa 3c fb 6b c6 3b d5 88 87 bc eb 5c 83 b9
       0.020754077 0.0060553527 -0.016544739 -0.00025055496
000140 df 77 30 bc a3 cb c4 3b 30 f8 14 3c c0 a4 5d b7
       -0.010770767 0.0060057207 0.009092376 -1.3210985e-05
000150 bb 7e a8 bb 54 99 86 bb eb b8 0a 3b b0 e0 c4 3c
       -0.0051420606 -0.0041076336 0.0021167349 0.02403292
000160 ed e6 46 bb 39 7d d9 bb a1 c9 33 3a 4f 43 a7 bb
       -0.0030350045 -0.006637242 0.0006858353 -0.0051044594
000170 ab 79 7f 3c ca 12 a0 bc 38 3b 84 bc 46 4f 98 bb
       0.015592973 -0.01954021 -0.016141519 -0.004648122
000180 f1 12 04 bb 6d 0d 16 bb bf f1 1e 3c 79 50 87 3b
       -0.0020152892 -0.0022896186 0.009701191 0.004129466
000190 fc 13 33 bb 71 87 97 39 9c 00 35 3c 6a 8a 2e 3b
       -0.0027325144 0.00028901876 0.011047509 0.0026632794
0001a0 5a 51 8a 3b 9f 57 36 3b 5f 3b 34 bb e3 6f c2 3b
       0.0042211236 0.0027823222 -0.0027501208 0.005933748
0001b0 d1 be 6e 3b e3 e4 74 3c 59 8b bf 3b f0 c3 37 3c
       0.0036429653 0.014947149 0.005845469 0.011216149
0001c0 56 d4 07 3c 93 11 47 bb 3c f2 f8 3a bf e9 36 bc
       0.008290371 -0.0030375465 0.001899309 -0.011164128
0001d0 4d 73 74 bb e7 a2 29 bb 1e 5a 0b bc 0c 08 dc bb
       -0.003730017 -0.002588445 -0.008505372 -0.0067148264
0001e0 0e f8 21 3c 40 5b 23 bc ae 80 2d bc cc 9f d5 3b
       0.009885801 -0.009970486 -0.010589762 0.0065192934
0001f0 fd 1e 15 bc 01 49 1a 3a 49 b2 2f bc 5a 43 55 bb
       -0.009101626 0.0005885512 -0.010723659 -0.0032541365
000200 3f 76 88 bb 06 3d 8c ba 4d 6c 5d 3b 50 e8 a9 3b
       -0.0041644867 -0.0010699339 0.0033786476 0.0051851645
000210 65 8e e7 ba e9 85 0c 3c 37 61 83 3b fb 52 1e 3c
       -0.0017666338 0.008576849 0.0040093916 0.009663339
000220 c6 4d 94 bb cd 91 c3 3a ab fa 45 bc 2a c0 29 bc
       -0.004525873 0.0014920771 -0.01208369 -0.010360757
000230 10 8d 30 3c 93 ce 49 3b 6e 93 6f bc ab b1 38 bb
       0.010775819 0.0030793294 -0.014622552 -0.002818207
000240 e8 ee f2 3a 54 98 88 bb 54 26 bc 3b 27 df 85 3a
       0.0018534334 -0.0041685496 0.0057418738 0.0010213599
000250 26 02 2c 3c e4 d6 03 3c dd c5 09 3c 46 38 0f bc
       0.010498559 0.008046839 0.008408991 -0.008741444
000260 5b f5 5c bb 35 9a 16 bc a5 04 72 3c 3a 61 88 3c
       -0.003371558 -0.009192039 0.014771615 0.016647924
000270 52 9e 8b bb e3 8d 01 3c 0a d4 ab 39 41 6d 38 bc
       -0.0042608166 0.007907364 0.00032773643 -0.011256517
000280 49 8a 7f 3b b6 7e 17 3b e1 2d 63 39 70 23 33 3b
       0.0038992336 0.0023116297 0.00021665498 0.0027334355
000290 23 ff 3b bb 3a 33 85 ba ec 0a 35 3c 7a 2f 19 3b
       -0.002868601 -0.0010162361 0.011049967 0.0023374246
0002a0 02 f8 44 3b c2 a8 06 3c 91 e0 08 3c c3 33 ab 3b
       0.003005505 0.008218946 0.008354322 0.0052246763
0002b0 b0 ba 29 3c fe 95 ec bb 6d 44 9f bb ad ee 0c bc
       0.010359451 -0.007220029 -0.004860452 -0.008601827
0002c0 10 1e 57 bc 7c 3e a1 bb e3 87 de bb f4 10 63 bb
       -0.013129726 -0.004920779 -0.0067911013 -0.0034647556
0002d0 bf 14 c4 bb c8 ef 1d 3c a6 9d 79 ba a1 42 41 3b
       -0.0059839184 0.009639688 -0.00095220876 0.0029489177
0002e0 1e 35 6e 3b 23 4c 8a bb 17 af 48 ba cd 2a 0c bc
       0.0036347578 -0.004220502 -0.0007655485 -0.008555126
0002f0 3e 68 0b 3c f9 ab e5 b9 d9 7e 0c bb de 25 15 b9
       0.00850874 -0.00043806413 -0.0021437912 -0.00014223854
000300 24 f7 de bb f7 95 9b bb e4 f0 46 3c 6a 21 1e 3c
       -0.006804364 -0.004748102 0.012142394 0.009651521
000310 5b e4 77 3b eb ca 20 bb 05 33 15 3c fd 41 31 bc
       0.003782532 -0.002453501 0.009106402 -0.0108189555
000320 6f fa 2c bc 3d 81 b8 ba d8 b2 89 ba 8c b7 36 3b
       -0.010557755 -0.0014076602 -0.001050557 0.0027880399
000330 a2 73 00 3c 66 3d db ba 50 55 87 3a a7 a6 21 bc
       0.007840069 -0.0016726672 0.0010325108 -0.009866393
000340 10 ec 9e 3b 5c 80 4b bc 04 47 47 3a 36 d6 ee 3b
       0.004849918 -0.01242074 0.000760183 0.0072887195
000350 cf 97 b6 3a a5 12 cb bb 9b 54 af 3b 65 ec 2d 3b
       0.001393074 -0.006197291 0.005350662 0.0026538607
000360 4a e1 27 bc 72 3f 66 3c ff 44 3f bb e7 e0 42 ba
       -0.010246584 0.0140532125 -0.0029185412 -0.0007434026
000370 b5 7e a2 ba 0d 57 87 3b 8f 25 85 3c 76 3e dd bb
       -0.0012397381 0.0041302503 0.01625326 -0.0067518307
000380 90 e8 0a 3b bd 35 ff 3a 20 56 be bb c9 7a 45 bc
       0.0021195747 0.0019470971 -0.0058086067 -0.0120532
000390 92 fc 0a bb 85 91 0d bc 91 5e c1 bb 13 86 bd bb
       -0.0021207673 -0.008640652 -0.005901166 -0.005783805
0003a0 1f 17 0b bc 75 44 8c ba 29 d6 00 3c e6 aa c5 3b
       -0.008489399 -0.0010701554 0.00786356 0.0060323356
0003b0 f6 3b 29 bc 53 67 a2 bb d5 07 15 bb 94 87 d4 3b
       -0.010329237 -0.004956165 -0.0022740264 0.0064858887
0003c0 78 dd 25 bc 70 c8 4a 3c a5 67 5b bc c0 81 1d 3b
       -0.010123603 0.01237689 -0.01339141 0.0024033636
0003d0 db 22 83 3c 7e 5a 8c 3a bd a7 9f bb db ac 05 bc
       0.016007831 0.0010708121 -0.004872291 -0.008158888
0003e0 96 78 4e 39 30 57 24 bc 34 29 20 bc 96 75 b9 3a
       0.00019690613 -0.010030553 -0.009775449 0.0014149423
0003f0 62 d1 59 3b 6b 76 d5 bb 3f 3b 53 3c 5b df 0a 3c
       0.0033236374 -0.0065143607 0.012892543 0.008476104

action_model._discrete_distribution.branches.0.bias f4 [3]
000000 c0 b2 74 3b ad 7d 91 3b 10 26 dc bb
       0.0037337989 0.0044400305 -0.0067184046

action_model._discrete_distribution.branches.1.weight f4 [3, 256]
000000 11 94 05 bc 58 e6 88 3c 1a c7 3e 3c 9c 4e c1 b9
       -0.008152978 0.016711399 0.011644149 -0.00036870397
000010 c3 a9 03 bb 95 1a a0 3c 1c ec a9 bb 10 03 3b bb
       -0.00200902 0.019543925 -0.005185617 -0.002853576
000020 c6 fe 86 bb 40 f5 c8 ba 05 1f 29 3c 7c da e4 bb
       -0.004119727 -0.0015331879 0.010322337 -0.006984053
000030 7d a7 d3 bb 25 9a 14 3a 4a d4 f7 3c db 0d 04 3c
       -0.006459175 0.0005668721 0.030252595 0.008059944
000040 8d 93 55 3c 46 56 a1 bb 8e 70 52 bc 5a 81 ac bb
       0.013035667 -0.0049236147 -0.012844218 -0.0052644433
000050 36 14 49 bb f4 1a df 3b ea 49 6b bb 73 c2 d7 3c
       -0.0030682213 0.006808633 -0.003590221 0.026337838
000060 d9 98 41 bb d9 90 9c 3c e4 9b 45 bb 3a c6 44 3b
       -0.0029540567 0.019112037 -0.0030152733 0.0030025379
000070 d8 7b b4 bb 81 10 4b bc be da 45 3c 7f 80 ae 3b
       -0.0055079274 -0.012394072 0.012076078 0.0053253765
000080 9e c0 8a 3c 7a 3a 32 bc 0f 12 97 3c be 71 5c bc
       0.01693755 -0.0108782 0.018441228 -0.013454853
000090 94 45 6f 39 dd df ec bb 0b 48 81 3b 98 8b b5 3a
       0.00022818736 -0.007228835 0.003945356 0.0013850806
0000a0 52 fc 7e 3c f8 1b 78 3b 09 d2 60 3c 6c 06 94 3b
       0.015563088 0.0037858468 0.013721951 0.004517367
0000b0 1a 35 4b 3c 90 34 00 38 f0 90 9e 3a 07 aa 55 3b
       0.012402797 3.056653e-05 0.0012097638 0.0032602565
0000c0 86 f5 55 3c bb 3a c6 3b a1 a5 a4 3b 78 71 32 bc
       0.013059026 0.0060494817 0.0050246273 -0.010891311
0000d0 dc 1d 85 3c a8 d5 12 bc 0b 63 b1 ba 4a 35 70 3c
       0.01624959 -0.008962072 -0.0013533545 0.014661143
0000e0 eb 7e 76 3b a1 76 4e 39 13 b8 80 bb e7 5b 4f bc
       0.003761227 0.00019689884 -0.0039281934 -0.012656189
0000f0 7f 83 03 bc f0 27 96 bc cb 03 07 3c 02 b7 38 3c
       -0.008026957 -0.01832959 0.00824065 0.011274101
000100 d9 e4 02 3c bb 76 1a 3b 7a 92 62 bc e4 6c e6 ba
       0.007989132 0.0023569304 -0.013828868 -0.0017580059
000110 a8 97 d2 37 90 61 04 bc f3 6b 9e 3c 5c 9e 0d 39
       2.5104571e-05 -0.008079901 0.019338584 0.00013505801
000120 02 73 2c 3c 4b ca 8f bc 2a d0 06 bc f0 b8 02 3c
       0.010525467 -0.017552515 -0.008228341 0.007978663
000130 ff 48 89 bb fe 29 32 3a 32 08 61 3c de 79 8a bb
       -0.00418961 0.00067964185 0.013734864 -0.0042259535
000140 a4 01 30 3c 9b ae 62 3c 28 90 4c 3c 20 ca b9 bb
       0.010742579 0.0138355745 0.012485541 -0.005669847
000150 92 2f 60 3a 77 5f db 3a 65 54 28 bc d8 97 04 3c
       0.00085520104 0.0016736825 -0.0102740275 0.008092843
000160 34 d6 cd 3c 0c 3d 2e bb 57 d0 c7 bc ec 5a 32 bc
       0.025126554 -0.002658668 -0.024391336 -0.010885935
000170 85 a8 d5 bb 70 da 82 bb a8 d9 b9 bb 0a 52 ff ba
       -0.0065203332 -0.003993325 -0.0056716986 -0.0019479406
000180 51 cd a7 ba 51 45 28 bc 4e 5e d2 3c 7e 30 9f b9
       -0.0012802278 -0.010270433 0.025679734 -0.00030362973
000190 bd 40 b0 bc 38 6b ad bc 69 e3 61 bc a7 f5 55 3c
       -0.021515245 -0.02116929 -0.013787129 0.013059056
0001a0 b8 03 f8 bb 4e bd 40 bb bc 7f 1c bb 00 7e 58 bc
       -0.0075688027 -0.002940971 -0.0023879847 -0.0132136345
0001b0 85 3f 14 bc 48 fb 2c 3c 71 fe 6b 3c ab 38 0d bc
       -0.009048347 0.010557957 0.014403925 -0.008619468
0001c0 03 9a b5 3b 39 64 0e 3b e0 45 4c 39 53 b2 2b bc
       0.0055420413 0.0021727218 0.00019480987 -0.0104795275
0001d0 a9 78 f0 bb 23 47 be 3b 4b 3e 02 bb 79 d5 5a bc
       -0.0073386026 0.00580682 -0.0019873555 -0.01335656
0001e0 6a f1 f3 3b 07 ff b0 ba 70 e3 78 3c 79 74 4d 3c
       0.0074445503 -0.0013503738 0.015190944 0.012539976
0001f0 11 ff 76 bc 34 8d 0a bc 00 e2 90 bb 08 81 a0 3b
       -0.015075461 -0.008456517 -0.0044214725 0.004898194
000200 d1 4a 27 3c 45 1b 9c bc 0b dc 9d bb 15 f7 d2 3b
       0.010210709 -0.019055972 -0.004817491 0.006438146
000210 f5 89 07 3c 11 4c 74 3c 65 72 15 bc 2a 66 89 3c
       0.008272638 0.014910714 -0.009121512 0.016772348
000220 2b 0f bb 3c 82 ae 33 3c fc 8e 8e 3c 1b ce ac 3c
       0.022834381 0.010966899 0.017402165 0.021094372
000230 4f 01 30 bc a2 db 94 bb eb 85 ee ba 7b 46 2c bc
       -0.0107424995 -0.004542784 -0.001819787 -0.010514851
000240 88 27 8b bc bd c5 87 3b 87 9b d7 3b 07 84 ba bc
       -0.016986623 0.0041434453 0.0065798196 -0.022768034
000250 cc 86 ec 3b dd e5 cd 3b 66 07 dd bb 25 c9 ab 3b
       0.0072182175 0.0062835054 -0.0067452667 0.005242484
000260 7a c0 1a 3b 54 0c 48 bb 33 59 0e 3c a1 9f eb 3b
       0.002361326 -0.0030524926 0.008688259 0.00719066
000270 69 dc 69 bc cb 81 09 3c 51 ae 66 bc a6 49 4a 3c
       -0.014273741 0.008392761 -0.014079646 0.012346661
000280 3e a5 8c 3a 33 4b 06 bc 48 d5 be 3c cb 9e d1 3a
       0.0010730398 -0.00819664 0.02329506 0.0015992759
000290 55 9c 94 bb ef 96 08 bb 24 da 8d 3b 64 76 b2 bb
       -0.004535238 -0.0020841917 0.004328983 -0.005446242
0002a0 01 17 52 bb 33 29 98 3b b9 d1 1e 3b 9f 1d 09 bc
       -0.0032057168 0.004643583 0.002423389 -0.008368879
0002b0 cd be 79 3c 81 3d 24 3a 48 50 04 bc be d9 4c bb
       0.015243244 0.00062652683 -0.008075781 -0.0031257714
0002c0 e8 43 35 3c 08 82 aa 3b fb d4 8c bc 22 78 e2 3a
       0.011063553 0.005203489 -0.0171914 0.0017278234
0002d0 84 04 76 3b ca 21 dc 3b 3d ff 22 bb 72 ed 25 bc
       0.0037539313 0.006717895 -0.0024871372 -0.010127412
0002e0 c2 9a 94 bc 26 4a 92 b9 9a d8 06 bd 27 3c 48 bb
       -0.0181402 -0.00027902535 -0.03292141 -0.0030553432
0002f0 ec f2 f6 3b e0 82 59 3c 3f 3d 87 b9 2a f5 f8 3b
       0.0075362828 0.013275832 -0.00025794838 0.007597585
000300 46 42 78 3c ae 2f 8f 3c 06 05 b5 bb c9 81 34 3c
       0.01515252 0.01747879 -0.0055242805 0.011017271
000310 bb d3 99 3a 6f c7 3b bc f1 57 bc 3b 0f 2e 63 bc
       0.0011736074 -0.011461123 0.005747788 -0.013865962
000320 9c f1 6c bc 43 f5 a9 bb fe 84 27 bb 42 76 02 3b
       -0.014461901 -0.005186708 -0.0025561447 0.0019906913
000330 bd 8b 25 3c 3c ea 83 3b 60 0c 50 bc 61 21 40 bb
       0.010104117 0.0040257256 -0.012698263 -0.002931677
000340 de da 86 bc fd af ee 3a 1a ab 73 bc a0 1b a2 3b
       -0.016461786 0.0018210408 -0.014872337 0.004947141
000350 6c 04 6f bc 50 fc f1 bc fb 34 48 3b ba d0 cb 3a
       -0.014588457 -0.029539257 0.0030549157 0.0015549876
000360 ad 54 45 bc 03 17 c7 ba 6f bd 94 3a c2 48 a6 bb
       -0.012044114 -0.0015189353 0.001134796 -0.0050745914
000370 53 70 8c bb 29 9c 9f 3b 73 e3 69 bc 90 48 6e 3b
       -0.004285851 0.0048709107 -0.0142754195 0.0036359169
000380 fe 99 ca bb ca 3d dc 3b 69 17 5d 3b fc db 7c bc
       -0.006182908 0.006721233 0.0033735877 -0.015433308
000390 65 e7 2d 3c 1e 71 d6 3b b8 59 06 3c f1 67 d4 3b
       0.010614251 0.0065442463 0.008200102 0.0064821173
0003a0 90 17 0d 3a 44 bf 4c 3b a9 b8 2b bb f7 e7 09 3b
       0.0005382234 0.0031241933 -0.0026202595 0.0021042803
0003b0 63 54 2e bb be 07 28 3c 8d 36 c1 3a 3c 3f 5a bc
       -0.0026600591 0.010255752 0.0014740989 -0.01332074
0003c0 02 d0 d4 bb 16 92 1e bb 98 01 97 bb 60 3f ef 3b
       -0.006494523 -0.002419596 -0.0046083443 0.007301256
0003d0 89 0b 3b ba 7e 7c 2d 3c 32 f6 2c 3c 8c c2 1d 3a
       -0.0007135203 0.010588763 0.010556744 0.00060180645
0003e0 49 b5 93 3c 81 c3 d2 3c 81 d2 1e bd 5d 80 c7 3a
       0.01803078 0.02572799 -0.03877497 0.001522075
0003f0 0f 15 e2 bb 37 92 8f 3b 30 8d b2 bb 82 ea bd bb
       -0.006899483 0.004381444 -0.00544896 -0.005795778

action_model._discrete_distribution.branches.1.bias f4 [3]
000000 db 3e 29 3b 31 13 3d bb fe 5d 10 3b
       0.0025824818 -0.002885055 0.002202868

action_model._discrete_distribution.branches.2.weight f4 [3, 256]
000000 a3 53 ce 3a 99 d5 1b bc 71 d3 81 3b 79 f5 1c bb
       0.0015741478 -0.009511375 0.0039619734 -0.0023950024
000010 fc 08 4d bb 4c 89 5a bc ac 83 bd 3b 87 4d e6 bb
       -0.0031285873 -0.013338398 0.005783519 -0.007028285
000020 47 0f ce 3b 37 33 28 3b 90 a7 18 bc fe a4 e4 bb
       0.0062884423 0.0025665292 -0.009317294 -0.0069776764
000030 3a ca 90 3a 1f 07 3c bc eb c6 d6 bb 10 d7 58 b9
       0.0011046596 -0.011476307 -0.0065544746 -0.00020679482
000040 dc 4b 5f bc 31 f7 b5 3a 63 97 43 3b 2d 53 c3 3a
       -0.013628926 0.0013882873 0.0029844872 0.0014902108
000050 52 3d df bb 6b 13 92 3c 6f 95 cb 3c 59 29 6a bc
       -0.00681273 0.017831525 0.024851529 -0.014292085
000060 ea 4e 21 ba a4 44 94 bb c0 a7 30 bc c0 4e b7 ba
       -0.0006153422 -0.004524784 -0.010782182 -0.0013985261
000070 3b 61 86 ba df 65 34 3b 53 4c f9 bb 9f 82 d0 3b
       -0.0010252366 0.002752654 -0.0076079755 0.0063632275
000080 6d fe db ba b5 70 a2 bb 88 ee 74 3b 03 f3 2b bc
       -0.0016784199 -0.0049572834 0.003737362 -0.01049495
000090 aa 7e a8 3c 9c ff e3 ba 7e 7e de ba 2f f5 c3 3b
       0.02056821 -0.0017394903 -0.0016974953 0.005980156
0000a0 5b 29 89 38 12 62 1c 3b 8f 1d 31 bc ba ea 2b 38
       6.540372e-05 0.0023862165 -0.01081027 4.0988183e-05
0000b0 14 ad 01 bc 80 cc 82 bc 1d a2 29 3b 16 dc ad 3b
       -0.0079148 -0.015966654 0.002588398 0.0053057773
0000c0 02 ad e2 bb bf 66 6e 3c 31 ab ae bb 21 67 30 3c
       -0.006917597 0.014550864 -0.005330466 0.010766775
0000d0 73 fe 82 bb b2 f8 7c 3b b5 a5 59 3c 25 d2 a7 3b
       -0.003997618 0.0038600382 0.013284137 0.0051214867
0000e0 75 e4 28 bb 74 da 56 3a 7f 52 17 3c e2 42 cf 3b
       -0.0025770937 0.0008196004 0.009235977 0.0063251117
0000f0 52 53 c4 3b 75 69 06 3a b1 7a ec bb 90 e1 a4 bb
       0.005991378 0.00051274087 -0.0072167744 -0.005031772
000100 5e 70 a0 ba b0 14 a3 ba 31 9f 91 3b 53 c3 c2 3b
       -0.0012240519 -0.0012442078 0.004444026 0.0059436946
000110 ea 1c 3c 3b de 53 26 3b c6 39 b6 3b aa 03 b1 3b
       0.0028703758 0.0025379579 0.0055610863 0.005402048
000120 bd c2 c6 3b 2b ec c2 3a 2d e7 80 ba e1 05 3f ba
       0.006065695 0.0014871409 -0.0009834521 -0.0007286948
000130 3d 2b 2e 3b cd 3e 9b 3b 59 29 37 bc fc e1 bb 39
       0.0026576065 0.004737711 -0.011179292 0.0003583579
000140 92 a1 4d bc 1d db ef bb 69 d6 45 ba a3 c3 81 bb
       -0.012550728 -0.0073198215 -0.0007546903 -0.0039600893
000150 7b ad 0d bc 7a 59 4c 3b cc 80 79 ba 7a 15 6b 3b
       -0.008647318 0.0031181262 -0.00095177884 0.0035870955
000160 06 b2 44 b8 0e 28 21 3b 91 86 3c bc 9e 6f 70 3c
       -4.689584e-05 0.0024590525 -0.0115066925 0.014675049
000170 11 75 d0 3b 54 58 87 bb 83 5f cd bb a2 bc 3d 3c
       0.0063616117 -0.0041304026 -0.0062674894 0.011580618
000180 19 5e 90 3a 6d 84 a6 3b 56 23 14 bc 64 46 5a 3b
       0.0011014371 0.0050817044 -0.009041628 0.0033306116
000190 81 27 00 3a ed de 12 3c a6 52 31 3c bf f0 23 bc
       0.0004888699 0.008964282 0.010822928 -0.010006129
0001a0 fb 51 3d 3c a9 5b 16 bc 65 35 6c 3b 73 17 d5 bb
       0.01155519 -0.009177127 0.0036042568 -0.0065030395
0001b0 8e 1f 68 3c 0d 65 7c bb d8 7c 52 ba fa c8 80 3c
       0.0141676795 -0.003851238 -0.00080294674 0.015720833
0001c0 d7 eb 77 bc 48 d5 ff 39 3a 70 a7 3b 0a b1 c8 bb
       -0.015131912 0.00048796297 0.005109814 -0.0061246203
0001d0 c9 49 3c 3c f8 bd 21 3a 70 83 31 bb a4 c7 8c 3b
       0.011492201 0.000616997 -0.00270864 0.00429626
0001e0 f4 a7 3c 3c e8 ba 26 3b a4 61 1f 3a 18 c8 4e 3b
       0.0115146525 0.0025440995 0.0006079918 0.003155237
0001f0 c3 91 78 3a 8d bf 3f 3c 44 62 14 bb 4c bc 39 bc
       0.00094821694 0.011703384 -0.0022641579 -0.011336397
000200 9a 7e ee b9 4f 05 2f 3a 8f 87 91 bb 8a 8e 8c 3b
       -0.00045489223 0.0006676511 -0.0044412087 0.004289453
000210 e3 93 3c 3c 75 07 1c bb 71 9d ba bb e7 15 35 bb
       0.011509868 -0.0023808156 -0.005695038 -0.0027631463
000220 d0 f8 63 3b c2 25 80 3a b5 ba d1 bb 9f a4 fc bb
       0.0034785755 0.0009776878 -0.006400431 -0.007710054
000230 2c 69 99 3c 2d 82 34 3b fa a5 08 39 d6 b7 69 ba
       0.018726908 0.002754341 0.00013031802 -0.00089156383
000240 5f 2d df 3b ad 30 6c bb e6 cb a9 3b 65 33 e8 3c
       0.0068108286 -0.0036039755 0.0051817773 0.02834482
000250 15 c9 c9 3a 9a d5 bf bb b1 74 04 bb f2 cb 2d bb
       0.001539501 -0.0058543207 -0.0020211155 -0.0026519266
000260 58 7a 9b 3b 94 fb 11 3a e3 01 4a 3c 6b 48 82 3a
       0.004744809 0.0005568799 0.012329551 0.0009939795
000270 40 88 90 3c 51 64 91 3b 50 ee 25 3c d1 15 fa 3a
       0.017643094 0.0044370075 0.010127619 0.0019079988
000280 34 22 9c 3b b3 68 7e 3c 8a c1 a6 bc 88 eb fb 3a
       0.0047648195 0.015527892 -0.020355958 0.0019219974
000290 5c 7a b9 3b ca f6 fb 37 1e ee 81 3c d2 ba 2b bb
       0.0056603383 3.0036452e-05 0.015860613 -0.0026203883
0002a0 14 e6 de ba d2 96 a9 3b 73 0b e2 3a e1 03 32 3c
       -0.0017005824 0.00517545 0.0017245844 0.010865183
0002b0 87 5e a0 3c 65 8a 12 bc 04 dd cf bb 4c 5d f8 3b
       0.019576324 -0.008944129 -0.006343486 0.007579481
0002c0 2e 7a 08 bb e1 99 01 3b 56 a0 95 bc 4f a8 07 3c
       -0.0020824778 0.0019775557 -0.01826493 0.008279874
0002d0 1d 0c 6b b9 31 d8 81 bb 2b a5 12 bb 45 3a 97 3b
       -0.00022415859 -0.0039625396 -0.002237628 0.0046151006
0002e0 34 90 1a 3c 7d a9 1c bc bf 3a 42 3c 3b 29 3d 3c
       0.009433795 -0.0095618935 0.0118548265 0.011545475
0002f0 41 5c 95 3c b7 d0 48 bc da 24 01 3c 18 5c f9 bb
       0.018232467 -0.012256793 0.007882321 -0.0076098554
000300 8f 0a 92 bb 71 0f 21 3b 94 d2 b8 ba a0 b4 69 3a
       -0.004456825 0.0024575854 -0.0014100843 0.000891516
000310 bd 60 9d bb 07 ab a8 3b cf 7b 5e 3b c7 da 89 ba
       -0.004802792 0.005147341 0.0033948307 -0.0010517471
000320 2e 15 b6 ba f8 65 db 3a 95 3e ab bb de e6 42 ba
       -0.001389181 0.0016738763 -0.005225966 -0.00074349146
000330 07 3e 04 3c 76 d1 e0 bb 62 1f ee 3b b5 1b dd 3b
       0.008071429 -0.006860907 0.0072669247 0.0067476877
000340 1a f6 aa 3b 75 0f 38 ba 00 a0 27 3c e3 e1 a7 3a
       0.005217326 -0.0007021346 0.010231018 0.0012808408
000350 43 cb 9c 3a c0 d6 8d 3b fa 9b bf bb 4f 9e f3 3b
       0.0011962432 0.0043285787 -0.0058474513 0.0074346433
000360 d7 bb e0 3a 21 d3 c5 3b f8 b7 5c bb 83 2c f3 bb
       0.0017145824 0.0060371314 -0.003367899 -0.0074210777
000370 80 b4 dc ba 69 aa 34 bc 60 ea 69 bb 8a b6 66 bc
       -0.0016838461 -0.011026957 -0.0035692677 -0.014081607
000380 b7 90 52 3c 58 16 cc bb 15 09 12 b9 66 8a a9 3a
       0.0128518855 -0.0062282495 -0.00013927028 0.0012934923
000390 85 f3 5f bc 44 44 08 bb d5 1e 3a ba f8 6d dc bb
       -0.013668899 -0.0020792643 -0.0007099931 -0.0067269765
0003a0 49 30 94 bb 1b 5d aa 3a d6 a8 f8 bb 49 da 17 3c
       -0.0045223576 0.0012997718 -0.007588486 0.009268352
0003b0 24 a2 75 bb af 32 00 bc 6b 67 8c bb df 65 e4 3b
       -0.0037480677 -0.007824584 -0.0042847893 0.006970152
0003c0 f0 14 71 3b c0 56 51 3c b4 d1 d7 3b 27 ce 02 bc
       0.0036786161 0.0127770305 0.006586278 -0.007983721
0003d0 26 04 92 bb 02 33 68 bb 15 4c 02 3c e8 23 bb ba
       -0.004456061 -0.0035430794 0.00795271 -0.0014277669
0003e0 29 99 24 3c f5 73 51 bc 14 b2 94 3b 40 c0 80 bb
       0.010046282 -0.012783994 0.00453783 -0.003929168
0003f0 42 59 88 3b e0 4c a1 bb ad 3e 71 3c fb 9e 80 3c
       0.004161031 -0.0049224943 0.014724416 0.015700808

action_model._discrete_distribution.branches.2.bias f4 [3]
000000 c5 a3 a0 3a 1c ab 14 3b a4 ca 4b bb
       0.0012255838 0.0022684997 -0.0031096125

exp_avg f4 [256, 27]
000000 a3 58 cc 35 86 aa 06 38 cf 70 0a 38 f7 78 60 36
       1.5224981e-06 3.2106902e-05 3.3006825e-05 3.3449012e-06
000010 78 0b fe 37 97 4c 04 38 48 84 70 35 3a 4b 09 38
       3.02845e-05 3.1542582e-05 8.959946e-07 3.2733406e-05
000020 93 1b 0b 38 ad ba 6e b5 37 c8 10 38 43 f5 0e 38
       3.3165863e-05 -8.893356e-07 3.451874e-05 3.4083856e-05
000030 ba a3 d1 35 2c 80 06 38 8e bc 08 38 14 4e fe 36
       1.5619364e-06 3.206746e-05 3.2600532e-05 7.5788794e-06
000040 0d 87 da 37 18 79 f2 37 cd ec 1a 36 7a 5e 03 38
       2.6050513e-05 2.8905037e-05 2.3085624e-06 3.1320822e-05
000050 38 90 05 38 ff ad 68 35 91 6a 09 38 4e 72 0a 38
       3.1843985e-05 8.667993e-07 3.2762593e-05 3.300822e-05
000060 51 d3 cc 36 c6 e5 e6 37 c6 de f2 37 ce 96 28 b6
       6.1042742e-06 2.7525133e-05 2.8952385e-05 -2.512173e-06
000070 8d 3e 76 b8 bc d5 7b b8 2c c8 3f b6 79 cb 74 b8
       -5.8709225e-05 -6.004212e-05 -2.8577733e-06 -5.8363632e-05
000080 83 3e 79 b8 9a 02 1c 34 ff b1 80 b8 ac 82 80 b8
       -5.9424445e-05 1.4529579e-07 -6.13667e-05 -6.127855e-05
000090 88 07 40 35 0c e4 81 b8 66 82 7f b8 54 9a b7 b5
       7.1536533e-07 -6.1936764e-05 -6.091818e-05 -1.3679478e-06
0000a0 29 0b 7b b8 57 8d 7c b8 31 1c 3d b7 ed 80 51 b8
       -5.9853457e-05 -6.0213115e-05 -1.1271842e-05 -4.9949555e-05
0000b0 cf fa 63 b8 ea 65 26 b6 9c 61 76 b8 f2 67 76 b8
       -5.43546e-05 -2.479525e-06 -5.8741876e-05 -5.8747777e-05
0000c0 bf 08 5f b6 6d d7 72 b8 06 2c 76 b8 1c 30 a6 b7
       -3.323468e-06 -5.7897927e-05 -5.869197e-05 -1.9811145e-05
0000d0 ec af 2d b8 7e b2 41 b8 08 39 23 b6 f8 af 16 b7
       -4.1410254e-05 -4.618102e-05 -2.432209e-06 -8.981668e-06
0000e0 ec 1a 2e b7 5e 1d ab b5 8c 1a 2a b7 14 08 32 b7
       -1.0377476e-05 -1.274904e-06 -1.01389705e-05 -1.0611508e-05
0000f0 89 ec c5 b5 b4 c0 26 b7 c8 c3 31 b7 fd 67 c8 35
       -1.4746485e-06 -9.939238e-06 -1.0595606e-05 1.4931426e-06
000100 48 8b 58 b7 00 56 4c b7 48 3d e4 b4 52 5c 38 b7
       -1.2907032e-05 -1.2179371e-05 -4.2512897e-07 -1.098875e-05
000110 e6 52 39 b7 2d ac 0f b7 40 48 3f b6 dc ee cc b6
       -1.1046161e-05 -8.563552e-06 -2.8503273e-06 -6.1074807e-06
000120 6c b5 9a b5 84 27 2c b7 66 44 2f b7 72 28 a4 b6
       -1.1526695e-06 -1.0261199e-05 -1.0446738e-05 -4.8922893e-06
000130 fc d3 da b6 92 6c 02 b7 00 b1 1c b7 00 35 0b b6
       -6.5215845e-06 -7.773882e-06 -9.339536e-06 -2.0743464e-06
000140 b0 bd 8a b6 ab b7 c4 b5 28 cd 62 b8 c4 27 65 b8
       -4.134803e-06 -1.4656592e-06 -5.4073666e-05 -5.463489e-05
000150 db 1a 4c b4 cb 26 68 b8 45 49 68 b8 0e ef 34 35
       -1.900875e-07 -5.534924e-05 -5.5381348e-05 6.7403096e-07
000160 a2 c6 6b b8 39 18 6a b8 bf ee d9 34 c3 a6 6a b8
       -5.6213357e-05 -5.5812507e-05 4.059311e-07 -5.5945256e-05
000170 55 24 69 b8 88 90 d6 b3 9c 87 68 b8 4c 89 68 b8
       -5.5585366e-05 -9.9914416e-08 -5.5439406e-05 -5.5440978e-05
000180 1e c9 9f b6 c1 f9 54 b8 3b 90 5a b8 a0 6c 30 b5
       -4.7619824e-06 -5.077734e-05 -5.2109575e-05 -6.572318e-07
000190 34 31 66 b8 d8 77 66 b8 d6 73 70 b6 a7 eb 59 b8
       -5.4882097e-05 -5.4947886e-05 -3.5830212e-06 -5.19563e-05
0001a0 4a eb 5e b8 0e 0f 55 b6 f6 a1 5b b8 03 85 5e b8
       -5.3148055e-05 -3.1748236e-06 -5.2364507e-05 -5.30528e-05
0001b0 ea 03 15 36 1a 82 08 38 7c 87 0d 38 ba 9e 67 35
       2.2205008e-06 3.2546093e-05 3.37432e-05 8.6285183e-07
0001c0 e2 33 0e 38 e9 91 0f 38 3a 17 21 b3 9d fa 11 38
       3.3903758e-05 3.4229746e-05 -3.7506858e-08 3.4804096e-05
0001d0 83 7e 11 38 60 76 a8 33 1f 7e 11 38 dc 6d 11 38
       3.4688517e-05 7.844642e-08 3.4688153e-05 3.467301e-05
0001e0 84 ee 04 b5 14 e6 13 38 1a ef 12 38 8f c5 5e 36
       -4.952092e-07 3.5261808e-05 3.5031793e-05 3.3195572e-06
0001f0 01 e6 03 38 ce 7f 0a 38 90 bc d6 b4 d3 7f 13 38
       3.144704e-05 3.302079e-05 -3.9997803e-07 3.5166577e-05
000200 af a0 12 38 58 25 98 35 31 11 0d 38 d0 71 0e 38
       3.495876e-05 1.1335751e-06 3.363303e-05 3.3961434e-05
000210 23 52 0d 36 39 fd 08 38 7a 2e 0a 38 fe ca 9c b4
       2.1058447e-06 3.266076e-05 3.294505e-05 -2.920496e-07
000220 21 21 14 b7 73 78 16 b7 f6 cc 66 b4 43 6c 15 b7
       -8.829201e-06 -8.968741e-06 -2.1494984e-07 -8.906299e-06
000230 53 08 17 b7 96 0d 09 34 ac 2b 1b b7 26 dd 19 b7
       -9.0022395e-06 1.2764062e-07 -9.248888e-06 -9.171001e-06
000240 ae ce e8 34 ea 4d 20 b7 cb a3 1a b7 be 17 f4 34
       4.3363747e-07 -9.554884e-06 -9.217251e-06 4.5465816e-07
000250 31 a8 20 b7 a3 6e 1d b7 95 b9 98 b6 60 55 99 b6
       -9.575903e-06 -9.383689e-06 -4.5515576e-06 -4.5696943e-06
000260 b4 03 cf b6 d8 6b 56 b5 bf a0 0b b7 ac 7f 0b b7
       -6.169512e-06 -7.9878146e-07 -8.322472e-06 -8.314772e-06
000270 7b 85 46 b6 40 cc ce b6 3c 0a e3 b6 c6 73 0e b7
       -2.9581995e-06 -6.1630562e-06 -6.7663186e-06 -8.490815e-06
000280 60 3b 29 b5 f8 c3 31 b6 7e 65 ad b5 6c b0 49 35
       -6.304381e-07 -2.6489124e-06 -1.2919043e-06 7.513506e-07
000290 00 4d 83 b1 94 8e e3 b3 6a 51 e9 b4 8a 43 02 b5
       -3.8213557e-09 -1.0596446e-07 -4.3458869e-07 -4.8527056e-07
0002a0 70 14 af 33 f8 fc 26 b5 ca 49 12 b5 dd 00 1a b5
       8.15279e-08 -6.2207937e-07 -5.4496616e-07 -5.7370727e-07
0002b0 70 66 0e 33 56 21 8f b4 6b 6d e5 34 9c e8 81 b5
       3.3155118e-08 -2.666008e-07 4.2734186e-07 -9.678947e-07
0002c0 6b 66 52 b5 20 6c ef 33 17 08 2f b5 88 4b 8a b5
       -7.8380134e-07 1.11489726e-07 -6.520435e-07 -1.0303784e-06
0002d0 18 a0 f5 34 54 f5 85 b5 41 1e 69 b5 8e 07 f4 35
       4.575129e-07 -9.980672e-07 -8.684329e-07 1.8181615e-06
0002e0 64 4a 1e b6 68 26 e6 b5 5d 41 fd 34 89 dd 87 b5
       -2.3587136e-06 -1.7147513e-06 4.717248e-07 -1.0122759e-06
0002f0 f8 24 4e b5 dd cc bf 35 16 2b 2b 38 02 b2 2e 38
       -7.6794777e-07 1.4290232e-06 4.0809704e-05 4.1650615e-05
000300 58 be 6f 36 95 2d 22 38 0a ec 27 38 e3 1c e9 35
       3.572457e-06 3.866626e-05 4.003573e-05 1.736826e-06
000310 96 e0 29 38 ed 85 2d 38 c5 41 1f b6 9a 1d 3b 38
       4.0501902e-05 4.1371142e-05 -2.373113e-06 4.4611843e-05
000320 4d ce 37 38 8e 7b c1 35 9f 1d 2b 38 da 32 2d 38
       4.3822733e-05 1.441558e-06 4.0797164e-05 4.1293773e-05
000330 8a 60 12 37 59 91 0c 38 56 4b 1a 38 02 b0 24 36
       8.724755e-06 3.3513967e-05 3.6786623e-05 2.4540354e-06
000340 7b de 26 38 e5 76 28 38 7a 23 f0 34 35 49 2f 38
       3.9784685e-05 4.016505e-05 4.4729296e-07 4.179143e-05
000350 20 ef 2f 38 c6 f4 8f 36 e0 2a 1f 38 f0 6f 23 38
       4.1945954e-05 4.2902275e-06 3.7948485e-05 3.896648e-05
000360 48 0a bb 35 14 23 9a 37 9e 9b 9f 37 d6 88 3e b4
       1.3935578e-06 1.8374565e-05 1.9026742e-05 -1.774491e-07
000370 c4 50 a7 37 50 36 a7 37 23 fc c3 b5 74 13 b2 37
       1.994556e-05 1.9933243e-05 -1.4602014e-06 2.1228312e-05
000380 e8 23 aa 37 97 f6 17 35 07 14 a1 37 9c 40 9f 37
       2.02823e-05 5.661072e-07 1.9202022e-05 1.8984363e-05
000390 51 06 08 b6 80 d4 b6 37 2b 6c b0 37 d7 bd 4e 36
       -2.0269256e-06 2.1795044e-05 2.1031205e-05 3.0806893e-06
0003a0 fd fb 8b 37 a6 a7 96 37 2c 17 25 b4 e8 1d a7 37
       1.6687432e-05 1.795946e-05 -1.5375252e-07 1.9921878e-05
0003b0 5b 3f a6 37 20 e7 10 36 d3 b6 93 37 7c ae 97 37
       1.9818244e-05 2.1592205e-06 1.76089e-05 1.8081853e-05
0003c0 92 0d a4 35 de 92 9b 37 1b b7 9a 37 9c 78 fd b4
       1.2222902e-06 1.854583e-05 1.8443496e-05 -4.7212677e-07
0003d0 17 a8 8e b8 98 1b 8f b8 fa 2c 0c b6 29 44 8b b8
       -6.802397e-05 -6.823911e-05 -2.0887805e-06 -6.640732e-05
0003e0 a1 de 8c b8 ef 24 e3 b2 5d 97 8f b8 04 cb 8f b8
       -6.717188e-05 -2.6443074e-08 -6.846965e-05 -6.856586e-05
0003f0 47 6d cf 35 45 e3 92 b8 d8 e9 91 b8 92 74 71 b6
       1.5454506e-06 -7.004155e-05 -6.9576956e-05 -3.5979651e-06
