Assets/ML-Agents/results/Andrew ML/results/sc_01 - Copy/SimpleCollector/SimpleCollector-18432.onnx (onnx, 302052 bytes, 9 tensors)

action_model._discrete_distribution.branches.0.bias f4 [3]
00000000: 3b82 643b 7034 97bb a405 8c3a
0.0034867662 -0.0046144053 0.0010682833

action_model._discrete_distribution.branches.0.weight f4 [3, 256]
00000000: 5d81 38bc 07f6 f1bb b57d 5ebc e7eb 4d3b
00000010: 6f3f 8e3b 4ff7 4abc e2a5 253c f329 b2bb
00000020: 221e 00bc 4dfc aebb 68fa ba3c 3415 9abc
00000030: 94c0 21bb c290 eb3b ec40 03bc 3e3e a6ba
00000040: 58c4 213c cc5b 7d3c 44aa e23b 7edc 1c3c
00000050: 4ca1 553a d066 e0ba d25b 483c af63 b63a
00000060: beaf 2a3b e000 913c 05b9 09bc 2459 9f3b
00000070: c306 853c 4e70 e9ba e9c8 64bc b26b 16bc
00000080: fef9 a23a 8600 3f3c ffc6 bdbc 783a 1f3a
00000090: 4963 c2bb 65be b73b 48e8 1dbb c8f0 1dbc
000000a0: bd89 e1ba eafe 363c b430 96b9 4638 ac3c
000000b0: 4966 a3bb 9617 7f3c 8e32 f9bb a7e9 43bb
000000c0: 9ca0 133c 4c9b 51bc 84de 923b ef12 27bb
000000d0: 62ca 09bb 1f17 cb3b d5e3 9c3a 2672 2b3b
000000e0: f20b dabb 3359 ce3a 912e 51bc b256 fdba
000000f0: 442c 373c 1237 d3ba 38e1 313b 45e7 143c
00000100: 4d43 d2bb 5793 a8bb 0145 433c 7426 2cbb
00000110: bcb8 6abc 14e0 b9bb 9b82 1eba 0d49 d8bb
00000120: 2157 a03b ff63 22bc ab05 b8bb 9c4c 123b
00000130: fc06 1dbc 18fe c53b 59dc 4d3a 60a6 64bc
00000140: 7746 423c 5e5a 10bb 0466 a9bc 5bca 9d3c
00000150: 19e3 ae3b f0c9 98ba c5a7 a0bb d568 48bc
00000160: 1206 94bb 1245 04bb 2f20 b23b 32cd dd3a
00000170: ab4d 60bc b9e0 f43a 126a 13ba d8be 9dbc
00000180: 3ab2 63bc 6aa6 8fbb 7cfa 823a cd15 393c
00000190: 7400 b83c 6c0a 29bc 1a79 e7bc c2e7 3d3c
000001a0: 3b20 873a e45c 5dbc ca3e 07bc e351 9dbb
000001b0: 0044 06bb 0517 14bc 1ec4 b6b9 d613 79bc
000001c0: 4d72 35bc 3d2e debb 3079 c0bb 26de 55bb
000001d0: d7d8 94bb e57d 30b9 a4d2 3abc 2ca8 d8ba
000001e0: 2ea0 5d3b 9da9 883c 2faa dabc 378f 8a3b
000001f0: 9b00 ce39 7cfe 853c d84f ed3b ec0e e9bb
00000200: ddf6 5d3c eb71 333c 722c 383c 8e64 023c
00000210: ce2e a9bb b66d 593c 04a9 873c 4438 b53c
00000220: 16b5 21bc 9a06 47bb 8ce0 5bbc 4f89 e73b
00000230: a49b c0b9 8bf1 c0bc 4455 72bc 8fe9 b5bb
00000240: d3dc 983c 05e2 cf3a 7295 5c3c a39a a5bb
00000250: cf0e 1e3c 59ba 30bc fec9 b83b 186e 92bb
00000260: d5d7 9b3b bc38 c1bb a767 80bc 9c80 2a3c
00000270: f060 05bc 66bf 94bb 72b5 6bbb 3ad3 aebc
00000280: 3c15 90ba 1e61 d43b f9f4 83bc ad89 4cbb
00000290: 7cc5 be3b 7897 ad3c a15e 793b 87b1 b2bb
000002a0: 638d a5bb e8ff 4fbc e600 77bb 44d2 bb3b
000002b0: 37d9 a3bb 943c 8cbb beed ebba 60b2 513b
000002c0: 0bbd 2d3c d37c 99ba 22ad 51bb 709b ffbb
000002d0: ab3d f8b9 4caa 3a3a a797 973a f412 a3b9
000002e0: abb1 023c d55c 5c3c 9393 38ba 31b9 8b3b
000002f0: febf 0cbc 21ed 1dbc b4a7 68ba a2a6 f73b
00000300: da6a 9d3b 3600 ddbb bcda 7a3c a2ed 80bc
00000310: 86ef 29bc 1e0e d03b 6bc6 40bc 6c5e 8f3c
00000320: a8a2 893b b9f6 0f3a e36c bd3b deba d33a
00000330: e0ee b3bb 93fd 153c 3399 5e3c 3de8 d1bc
00000340: f2c5 8b3c ccae 31bb 9bb0 bdbb 4da9 5f3c
00000350: 0504 09ba 461b 0ebb b452 753b 8bfb d33b
00000360: 9cbd 6837 abe0 1dbc 3a70 393a f118 f3bc
00000370: 80ae d13c 4a19 daba 4c87 f4ba 3bbf 43bb
00000380: 5abf aa3c 38fe 633b f224 9cba 28e7 6abc
00000390: 84e2 9a3b ed1f 49bc 2f60 2c3b a7b8 283c
000003a0: 1669 2f3b 497b 9ebb fc4d f9bb ce94 3b3c
000003b0: 691e 433c 6039 40bc 79e3 f8bb 1dd0 8b3b
000003c0: 873a 0cbc c16a 43bc 8356 fa3b cb6b 1ebb
000003d0: 1f96 efbc 9fc0 0e3c f355 afbb 71c8 343c
000003e0: dffb 993b 3c9b 5b3a 3ebc acbb 8505 103c
000003f0: 5525 0e3c fc31 723a 41a2 e7ba 291f de3a
-0.011261311 -0.007384065 -0.013579776 0.0031421126 0.004341058 -0.0123880645 0.01011035 -0.0054371296
-0.007819684 -0.005340135 0.022824481 -0.018808939 -0.0024681436 0.0071888873 -0.008011084 -0.0012683345
0.009873472 0.015463781 0.00691727 0.009574054 0.000814934 -0.0017120484 0.012228923 0.0013915206
0.0026044692 0.017700613 -0.0084059285 0.0048629213 0.016238576 -0.0017809959 -0.013963916 -0.00918095
0.0012434123 0.01165784 -0.023166178 0.0006074081 -0.005932246 0.0056074136 -0.002409475 -0.009639926
-0.0017207187 0.011169175 -0.00028646516 0.021022927 -0.0049865586 0.015569588 -0.0076049035 -0.0029893906
0.00901046 -0.012793373 0.0044820923 -0.0025493463 -0.002102517 0.0061978246 0.0011969755 0.0026160567
-0.006654256 0.0015743136 -0.01276745 -0.0019328205 0.011179987 -0.0016114435 0.0027142297 0.009088342
-0.0064167143 -0.0051445174 0.011918307 -0.0026268037 -0.014326271 -0.005672464 -0.00060466834 -0.006600505
0.004893199 -0.009911536 -0.00561591 0.0022323495 -0.009584185 0.006042253 0.0007852964 -0.0139556825
0.01185762 -0.002202652 -0.020678528 0.01926153 0.0053371307 -0.0011656862 -0.004902812 -0.012232025
-0.004517325 -0.002018277 0.0054359655 0.0016922115 -0.0136903925 0.0018682695 -0.00056234107 -0.01925604
-0.013897473 -0.004383852 0.0009992863 0.011296702 0.022461154 -0.010317426 -0.028255988 0.0115909
0.0010309288 -0.013510916 -0.008254716 -0.0048010214 -0.0020487309 -0.009038691 -0.00034859864 -0.015202483
-0.011074615 -0.0067804144 -0.0058738217 -0.0032633631 -0.004542451 -0.00016831567 -0.01140276 -0.0016529611
0.0033817398 0.01668244 -0.026692478 0.0042284983 0.00039291833 0.0163567 0.007242184 -0.0071123745
0.013547626 0.010952453 0.011241065 0.007958544 -0.0051630503 0.013270786 0.016560085 0.022121556
-0.009869834 -0.0030368925 -0.013420235 0.007065929 -0.00036737055 -0.023552677 -0.014790837 -0.005551524
0.018659985 0.0015860206 0.013463365 -0.0050538345 0.009647085 -0.010786616 0.0056393137 -0.0044686906
0.004755954 -0.005896656 -0.015674425 0.010406639 -0.0081407875 -0.004539418 -0.0035966304 -0.021340955
-0.0010992656 0.006481304 -0.016108023 -0.003120999 0.005821882 0.02119039 0.0038050788 -0.005453292
-0.005052255 -0.01269529 -0.0037689744 0.0057318527 -0.0050002593 -0.0042796824 -0.001799993 0.003199719
0.010604153 -0.0011710174 -0.0031994064 -0.007800512 -0.00047348192 0.0007120713 0.0011565582 -0.00031103904
0.00797693 0.013449867 -0.0007041033 0.00426402 -0.008590696 -0.0096390555 -0.00088750874 0.007557706
0.0048039975 -0.00674441 0.015310939 -0.015738312 -0.010372048 0.006349339 -0.0117660565 0.017501079
0.0042002983 0.00054917816 0.0057808026 0.0016153713 -0.0054911226 0.009154695 0.01358633 -0.025623435
0.017062161 -0.0027112244 -0.0057888753 0.013651204 -0.0005226734 -0.0021683737 0.0037433328 0.0064691952
1.38724245e-05 -0.009636085 0.0007073913 -0.029674979 0.025595903 -0.0016639617 -0.0018656044 -0.002986862
0.020843197 0.0034788977 -0.0011912866 -0.0143373385 0.00472671 -0.012275678 0.0026302447 0.010297931
0.0026765517 -0.004836474 -0.0076081734 0.011449052 0.011909106 -0.011732429 -0.007595476 0.0042667524
-0.008558876 -0.011927308 0.0076397075 -0.0024173136 -0.029246388 0.008712917 -0.005350822 0.011034117
0.004699215 0.0008377319 -0.0052714637 0.008790378 0.008675893 0.00092390156 -0.0017672257 0.0016946542

action_model._discrete_distribution.branches.1.bias f4 [3]
00000000: f9dc d73b 4879 ddb9 0a5e b5bb
0.0065876213 -0.00042242766 -0.005534892

action_model._discrete_distribution.branches.1.weight f4 [3, 256]
00000000: ec33 0a3d 51d2 573b d4b5 593c fab6 1dbc
00000010: a53d 763b 180b 4b3c 2aef f1bb 86d9 edba
00000020: 8b9a b03c 3352 6f3b 7e00 b5bc 0488 09bb
00000030: 3416 163c 5f4f 2abc 8430 5d3c 6e1f 723b
00000040: 8d3e 283c fe76 243a 4fbd acbb 5cec 58bb
00000050: 88a5 48bc ebbb 8a39 c0fd 283c f23e 473b
00000060: 809a 5cbc 88dd 7bbc 3c88 24bc 5c12 a6bb
00000070: 590f 273c 714d 96ba 9cd8 6f3c f17b e93c
00000080: 611f 093c 72a6 613a 8d87 6d3c 1637 8d3c
00000090: 84f5 ee3a 2932 33bc af4e 6b3b 927b ff3b
000000a0: cd23 62bc 3586 08bc 2f3d 203c d1dc bf3b
000000b0: 847a a73c ab32 9bbc 901b a7bb 3bf3 27bb
000000c0: c0f1 4ebc 5596 31bc 1eea 12bc 4c90 f3bb
000000d0: c377 113a 63db 683b 6724 8fba 3415 bc3b
000000e0: cd2f dcba 7d5a 48bb faba 023c 97cd 80bb
000000f0: 4432 2ebc fe46 9f3c cce0 a7bb a9e9 3ebc
00000100: 7c00 9ebc 8ef0 eebb 5b7e a33b 46b0 1b39
00000110: 38eb 14bb 8765 063c 978d 01bc 026c d53c
00000120: e617 a73b 8dbb 6a3c 9718 60bc c849 e637
00000130: cdea 673a c805 003c a4d4 b2bb 7a7b a6ba
00000140: 210d 3dbc 1891 a33c 2fe0 9c39 e639 e5bb
00000150: 00e9 3d3b 368b 82b9 4f9b a03c 35bb 543a
00000160: 81b4 0fbb 4145 8f3b 3512 d7b9 8048 2ebc
00000170: 249e a93c 3840 c0bb c47e 0dbc f0f0 6f3c
00000180: 59c4 933c bcbc 92bc cb65 7cbc ea78 65bc
00000190: 8b06 91bb a6b1 ed3b cc44 ad38 4388 b63b
000001a0: b3b6 43ba cd18 563b 3093 34bc 0a45 193c
000001b0: 5c8b d03a cf51 ab3c c639 a339 3454 523a
000001c0: 890d 68bb ee04 d63c 2244 d5ba a2c1 0bbb
000001d0: c23d 16bc 53fd 8c3b d310 aab9 e3c6 7b3c
000001e0: d4e6 8dbc afb2 36bb 12c2 623c f79f 2b3b
000001f0: 21a4 03bb 57e7 72bb 8231 3cbc f7b0 44bc
00000200: 82fc f33b cb38 2bbc a7c5 fcba 4e3e 553b
00000210: 1755 98bb dbc6 083c d50d 82bc 07c7 64bc
00000220: 1843 9abb e5fb 463b fcd2 b93b c09c 183c
00000230: 8b83 5abc b4e7 933c 9dec 16bc 5269 143c
00000240: 30a1 babb 1bea 393c 93a4 bfbb b564 1abc
00000250: e8bc 91bb c332 523c b4ed 2e3c f284 86bb
00000260: f7f8 1bbc 0f7e 9bbb 43dc 9ebc a833 47bb
00000270: 3796 103c 41c3 8f3c 5c88 e93b 3081 7ebb
00000280: e1e4 acbb 0d0e b73c bad1 603c d74e de3a
00000290: 649a 943b 8668 15bb 4f62 5dbc 0e6d 5fbc
000002a0: 6917 643c 3723 ae3b aa1a 63ba 3119 d33a
000002b0: 1b5b 173c d5ca a139 8b81 22bc d653 a7bb
000002c0: 73eb 1a3c f8d5 b53c 8e37 183c 1dfc cbba
000002d0: ed49 d23c a474 d53b 8804 2b3c 0904 8f3c
000002e0: ecee 30bc a1b7 3dbc a7a9 25bb 5a33 953b
000002f0: 09df 2c3c 56ff 92bb 56e7 373c 48a7 febb
00000300: 0e40 df3c 4f97 3e3b c7f8 45bb 8bfa 7e3c
00000310: 24fa 21bc 340e 5bbc 9587 5dbc 19a3 b5bc
00000320: 6d89 c83b f6a7 f7bb cf41 303c d688 183c
00000330: 8c80 4fb9 1a04 1a3c 72ce 4d3c a7d1 d6ba
00000340: d9cf 6dba 2e94 2b3c cd1c 1d3b 47fd 25bc
00000350: bdb7 2f3b 2417 ab3c 5bfd 4e3c 1237 f1bb
00000360: d1f5 ff3b 9184 673b a033 18bb be17 fa3b
00000370: f3b3 7b39 8cd7 8dbb d7b5 91bc 693b 503c
00000380: da12 f6bb 4962 613c 0497 82bc 8b60 16bc
00000390: 8368 373c 6096 763c 6256 213c 638c e6ba
000003a0: 5fa9 463c 9f7d 8cbc 107c f13b c3a0 21bc
000003b0: 6f4b 61bb 64b7 843c 69da a6bb d03c 47bb
000003c0: 5275 903c 40bf 003c 324d 573b 6831 12bc
000003d0: be46 913c 6c71 87bc c376 453b 5123 5bbb
000003e0: f192 d3bb 6388 8a3c a197 e5bb 0683 1cb9
000003f0: 147a 153c 0a3f 0cbc 667a 43bc 0839 343b
0.033740923 0.0032931755 0.01328798 -0.009626145 0.0037573364 0.012392782 -0.007383247 -0.0018146492
0.021558067 0.00365175 -0.022094961 -0.0020985613 0.009160567 -0.0103949 0.013500337 0.0036945003
0.0102688195 0.0006273835 -0.005271591 -0.0033099866 -0.012246497 0.0002646142 0.010314405 0.0030402509
-0.01346457 -0.015372641 -0.010042246 -0.0050681066 0.01019653 -0.0011467171 0.014639046 0.028501483
0.008369298 0.0008607871 0.01449765 0.017238181 0.0018231128 -0.010937252 0.0035905053 0.007796713
-0.013802481 -0.008332779 0.009780212 0.005855181 0.020444162 -0.018945059 -0.0050997213 -0.0025627154
-0.01263088 -0.010839065 -0.008966951 -0.007432973 0.0005549157 0.0035531155 -0.0010920883 0.0057398323
-0.0016798914 -0.0030571513 0.007979149 -0.003930758 -0.010632101 0.019443031 -0.0051232334 -0.011652389
-0.01928734 -0.00729186 0.004989428 0.00014847619 -0.002272321 0.008202917 -0.007907293 0.026052479
0.0050992845 0.014326942 -0.013677738 2.7452494e-05 0.0008846939 0.007813878 -0.0054574776 -0.0012701594
-0.011538775 0.019966647 0.00029921668 -0.0069954274 0.002897799 -0.00024899252 0.019605307 0.0008115054
-0.0021927657 0.0043722694 -0.0004102156 -0.010637403 0.02070529 -0.0058670305 -0.00863618 0.014644846
0.018037962 -0.017912261 -0.015405129 -0.014005879 -0.004425829 0.0072538434 8.262097e-05 0.005570443
-0.0007465884 0.003266859 -0.01102142 0.009354839 0.0015910673 0.020913033 0.00031132827 0.00080234115
-0.0035408458 0.026125398 -0.0016270916 -0.002132513 -0.009169998 0.0043026595 -0.00032437462 0.0153672425
-0.017321981 -0.00278775 0.013840215 0.0026187876 -0.0020086842 -0.0037064159 -0.011486413 -0.012005082
0.0074458728 -0.010450552 -0.0019284979 0.0032538357 -0.0046488154 0.008348192 -0.015875736 -0.013963467
-0.004707705 0.0030362543 0.0056709033 0.009314716 -0.013337026 0.01805482 -0.009211686 0.009058313
-0.0056954846 0.011347319 -0.005848476 -0.0094234245 -0.004447568 0.012829485 0.01067679 -0.004105204
-0.009519807 -0.004745252 -0.019392138 -0.003039578 0.0088248765 0.017549159 0.007126851 -0.0038834326
-0.005276308 0.022345567 0.013721878 0.0016960752 0.0045350064 -0.0022797897 -0.013512208 -0.0136368405
0.013921597 0.0053142565 -0.0008663336 0.001610553 0.00923803 0.00030859435 -0.009918581 -0.0051064296
0.0094555495 0.022196755 0.009290589 -0.0015562807 0.025670016 0.006514149 0.010438092 0.017457979
-0.010799151 -0.011579425 -0.0025278123 0.0045532407 0.010551223 -0.004486005 0.011224588 -0.0077714063
0.027252223 0.0029081886 -0.0030208097 0.015562664 -0.009886298 -0.0133700855 -0.013521095 -0.022172498
0.006119898 -0.0075578643 0.0107578775 0.009309968 -0.00019788946 0.009400392 0.012561427 -0.0016389386
-0.0009071804 0.0104723405 0.0023973465 -0.010131187 0.0026812397 0.020885058 0.012633647 -0.007361301
0.007811286 0.0035326818 -0.002322413 0.007632225 0.00024004262 -0.0043286737 -0.017786903 0.012709477
-0.0075095715 0.013756343 -0.01594115 -0.009178291 0.011194351 0.015050501 0.009847255 -0.0017589446
0.012125342 -0.017149745 0.0073695257 -0.009864989 -0.0034377237 0.016200729 -0.0050919545 -0.0030401237
0.017634068 0.007858098 0.0032852408 -0.008922912 0.017733928 -0.016533576 0.0030130602 -0.0033437798
-0.0064567258 0.016910737 -0.007006601 -0.0001492613 0.009123344 -0.008559952 -0.0119310375 0.0027499814

discrete_action_output_shape f4 [1, 2]
00000000: 0000 4040 0000 4040
3.0 3.0

network_body._body_endoder.seq_layers.0.bias f4 [256]
00000000: 0ddb 67bb 291e 01bb be56 8dba 98b9 9c3a
00000010: e002 c63b e049 6fbb 41c2 a23b 2c9d 623b
00000020: 319b 073b 3b5e 003c 5bae 5abb bf30 47bb
00000030: 0bd4 873c 9436 203c 4e3e 0a3a f743 503a
00000040: 63c4 f1ba 7a5f d73b 60c0 8aba d7fd d83b
00000050: b5b6 18bb 673d 283c e604 8d3a 5f56 0ebb
00000060: 49da 383b 91ba 783b 4038 9bb9 1eef 123b
00000070: 53af 0e3c 4971 4bba 5b0d 093c f497 973a
00000080: 97ce 9f3b e4b3 fd3b 94c5 20ba 1d5d 6ebb
00000090: 183b 003c f2a2 feb7 aab8 573a 400a 1ebb
000000a0: 128c 19bb 2c8b 123b 9576 1ebb 9e7c eeba
000000b0: 7d2f 92bb 38cd f5bb 4980 beba 8f33 963a
000000c0: a571 13ba c502 673b 9e81 24b9 b454 3b3b
000000d0: 8f9d c1bb 8fd4 9f38 3be6 8bba 20a3 763a
000000e0: 2769 7d3a b8ba bc3b e820 09bb ca2d b33b
000000f0: 1d78 bcbb 5442 08ba 1576 823b 53db 2bba
00000100: 6478 3abb 583f b4bb be79 bebb c2ea a5bb
00000110: 52ec 31bb 1f86 43bb f75c c23b bb8b 22bb
00000120: d536 613a 7c4b 2e3c 93d2 c839 b4f5 84bb
00000130: 0be8 4ebb 15ed da3b d498 a5bb 9f1e 8bbb
00000140: 5731 d63b e27a f239 bb0c 12bc 6dfb 513b
00000150: e441 043c 878a e43b 6c79 1a38 ff31 163b
00000160: a809 f5ba c4e8 053a 6f75 03bc 668d e239
00000170: 81c2 813b 8cb7 6a3b 90a5 7f3b 596e aa3b
00000180: 40f5 28bb 076e c43b ce89 9cba 264d fa3b
00000190: b484 263c 3011 993b e5a9 d2b9 1603 0ebb
000001a0: 1875 0f3b 81b3 7c3a a816 ed3a 8c31 343b
000001b0: a672 3e3c 3fa5 64bb 34d0 ebba 6ea6 2b3c
000001c0: d2c8 db3b 8608 d73b 5ccb 633b 6f0e 2aba
000001d0: ea21 173c 028b 383c 2401 f83a ed1f 1b3c
000001e0: da68 60ba 6a84 313c f7e1 423c f9b0 9eba
000001f0: 9775 b139 0617 9ebb ea83 39bc 7102 e83a
00000200: 1184 853b 88a6 313b 469d 043c 388c 8ebb
00000210: f291 68ba 934b 3a3c d14c 10bc 037d 02bb
00000220: ab9c 293c 81e7 0b3b 9a0f 1a3b fa89 89bb
00000230: 6218 ba3a 3868 b13b 56f7 57bb 3405 5f3b
00000240: f5ac 0dbb a5fd 453c 6847 dbba 5a19 c8ba
00000250: 4502 06bc 11c2 213b cef8 c73b d1b2 0dbc
00000260: 8264 f63b 1c3f ddbb 6ddd 4dbb afed 393c
00000270: 3827 d03a cef1 42bb 3f3f 59bb 0998 6b3b
00000280: d786 76b9 d625 423c b311 dfbb 17c1 903b
00000290: 8aad 9dbb 7246 a33b f472 663b 6466 1e3b
000002a0: eb3c acba 3a2a 7f3b ee17 5c3b 5ead a5bb
000002b0: c8cf d4bb 0639 0bbc 5e9d 023c 8928 0e3a
000002c0: 678a 253c 3ad2 253b e975 a1ba e2d6 033b
000002d0: 510f 1e3c 4273 f13b 14e9 16bb c002 9abb
000002e0: eb74 323b e64b 46bb f022 3e3c 9ff7 d33b
000002f0: 442d 133c 5ee9 a0b9 f4dd 29bb fd9a 1b3c
00000300: 48c8 f339 32f0 ae3b 6e02 e9b9 4fd2 9a3b
00000310: 2026 df3b c70e dd3b 3a19 283c d5b7 903a
00000320: d8b8 38bb 3fec 233b 5ecf 05bb d028 923b
00000330: 19f3 e0ba 0c9b 693b 04a0 d63a 1bf2 663b
00000340: aa8a ef3b 7958 38bb 1fdd 273b 46e9 7b3b
00000350: e16a 543a daf0 3c3c 68a0 bbbb 35e4 b2ba
00000360: 50f4 4e3b a5b9 4ab9 a4ab 1c3a 1494 2139
00000370: 0009 73ba 07c8 91bb 2415 e23b f8da a43b
00000380: 0fcf 873b aae2 e4bb 8729 023c 7ed8 9639
00000390: 558c 143c e066 9cba 69e2 c7bb e339 3cbb
000003a0: 458b 643b 90dc 04ba d6a0 dfba 8769 863c
000003b0: bbba 5eba 6c26 3fbc 6076 03ba c91d dd3b
000003c0: 1556 81bb 8f41 2e3b 7864 8c3a faf8 0f3a
000003d0: 59e7 083b 472a 913a 181a 8fb8 8986 e83a
000003e0: df74 7b3a 3257 f5b9 a6c3 bf3b 4f48 3c3c
000003f0: 7024 933b ec6f 413a 4d2d 793a 5dd3 4e3b
-0.0035378367 -0.0019701815 -0.0010783297 0.0011957167 0.006042823 -0.0036512539 0.0049670045 0.0034578545
0.0020691867 0.007834966 -0.0033368084 -0.0030394045 0.016580602 0.009778637 0.00052735663 0.0007944698
-0.0018445369 0.006572661 -0.0010585897 0.006622057 -0.0023302261 0.010268546 0.0010758906 -0.0021718962
0.002820628 0.0037953 -0.00029605813 0.0022420357 0.008708793 -0.0007760716 0.008365001 0.0011565671
0.0048769224 0.007742392 -0.0006132957 -0.0036371418 0.007826589 -3.0355037e-05 0.0008229116 -0.0024114996
-0.0023429436 0.0022360785 -0.0024179567 -0.0018195098 -0.0044612275 -0.0075012706 -0.0014534082 0.0011459457
-0.00056245393 0.0035249454 -0.00015688545 0.0028584423 -0.005908675 7.621303e-05 -0.0010673472 0.0009408463
0.0009666853 0.0057595633 -0.0020924155 0.005468105 -0.0057516233 -0.0005197872 0.0039813616 -0.0006555814
-0.0028453106 -0.005500715 -0.0058128526 -0.0050633857 -0.0027148915 -0.002983458 0.0059314924 -0.0024802524
0.00085912395 0.010638114 0.00038303863 -0.0040576104 -0.0031571414 0.0066810944 -0.005053619 -0.0042455937
0.0065366435 0.00046249392 -0.008914168 0.003204073 0.00807235 0.0069745216 3.6829544e-05 0.0022917984
-0.0018694894 0.0005108232 -0.008023604 0.0004321143 0.0039599543 0.003581497 0.0039008595 0.0052011427
-0.0025780946 0.0059945616 -0.0011942924 0.0076385913 0.010163475 0.0046712384 -0.00040180903 -0.002166932
0.0021889862 0.0009639785 0.0018088417 0.0027495353 0.011624014 -0.0034888533 -0.0017991127 0.010476692
0.0067072893 0.0065622954 0.0034758663 -0.0006487136 0.009224394 0.011263611 0.0018921238 0.009468061
-0.0008560546 0.010834793 0.0118946945 -0.0012107185 0.00033847682 -0.004824522 -0.011322955 0.0017700923
0.0040745814 0.0027107317 0.008094138 -0.0043502115 -0.0008871845 0.011370557 -0.008807377 -0.0019910939
0.010352294 0.0021347704 0.0023507834 -0.0041973563 0.001419794 0.005414035 -0.003295382 0.00340302
-0.0021617983 0.012084399 -0.0016729655 -0.0015266344 -0.008179252 0.0024682323 0.006102658 -0.00864859
0.0075193057 -0.006751908 -0.0031412498 0.011348172 0.0015880829 -0.0029746178 -0.003314927 0.0035948774
-0.0002351062 0.011849841 -0.00680753 0.0044175494 -0.0048119472 0.004982763 0.0035163732 0.0024169916
-0.0013140714 0.003893508 0.00335836 -0.0050560674 -0.006494496 -0.008497482 0.00797209 0.00054229103
0.0101037985 0.0025302307 -0.0012318465 0.0020117094 0.009647206 0.007368476 -0.002302711 -0.004700035
0.0027230333 -0.0030257641 0.011605009 0.0064687277 0.00898296 -0.0003069145 -0.0025919648 0.009497401
0.00046497793 0.005338692 -0.00044443033 0.004724778 0.006809965 0.0067461464 0.010259921 0.0011041114
-0.0028186347 0.002501264 -0.002041779 0.0044604316 -0.0017162292 0.0035645394 0.0016374593 0.003523952
0.007310231 -0.0028128906 0.0025613976 0.0038438602 0.00081030844 0.011532033 -0.005725909 -0.0013648333
0.0031578727 -0.00019333379 0.0005976504 0.0001540932 -0.00092710555 -0.004448894 0.006899493 0.005030986
0.0041445564 -0.0069850283 0.007944471 0.0002877153 0.009066661 -0.0011932515 -0.0060999882 -0.0028721027
0.003487305 -0.0005068267 -0.0017061483 0.016407741 -0.0008496453 -0.011666875 -0.00050148927 0.0067479354
-0.0039470294 0.002658937 0.0010711094 0.00054921175 0.0020889847 0.0011075222 -6.823632e-05 0.001774029
0.0009592305 -0.00046795007 0.0058521805 0.011491849 0.0044904277 0.00073790434 0.00095053465 0.0031559088

network_body._body_endoder.seq_layers.0.weight f4 [256, 28]
00000000: f4a2 38bd 4f54 a43d 158c 3abe 8c36 32be
00000010: df69 5bbd 6a1e 983c 8f2c 873e 7f6a 84be
00000020: 62f3 37be ea0f 7a3e b838 863d 0f35 493e
00000030: a851 013d 9374 0abe 6868 973e bfc1 bb3d
00000040: f223 be3e e3e1 803e 3711 d2bd 01fd 39be
00000050: 6122 ec3d a1f0 51be b162 623e b7f3 53be
00000060: 1837 a0bd 13d5 e0bc 30aa 69be f5bb 103e
00000070: 8349 903c 8850 1cbe 3e8c a4be 1b37 bb3d
00000080: 9fc1 293c 408f 053d 7cab 6dbe a912 1c3e
00000090: 905c c1be c29f 17bc 02dd 713d e181 2f3e
000000a0: b3e8 24be fa23 9b3e 5d07 09bd 0465 61bd
000000b0: 2055 eebd c37e 36be 32af 713e 2fba 5abd
000000c0: 059c 39be fe30 0c3e a859 0dbe 417b 0e3e
000000d0: e3a1 2d3e a7f4 e4bd 0504 213e 573a 883d
000000e0: cbe4 b13e 107c a23e 47fd abbc 5dc9 4e3e
000000f0: b792 d2bc 9bed dd3d ce66 97be 5983 803e
00000100: 4947 73bd 9a83 3c3e 0260 57be 50a2 443e
00000110: 6e4a 6dbe 22ab 5c3e bf0a 43bd 15be b83d
00000120: ec9d efbd b8e6 00ba 59f0 8cbc c3f4 4dbe
00000130: 3d6e a93e 39cc 823d ba5b 66be 0721 8abd
00000140: 1f30 eb3e b715 8e3e fec0 cd3d de0d 7dbe
00000150: f88e 38be 310b 073e 76c5 5e3e a181 983e
00000160: 9692 1ebe 4edc fabd a3d3 70bd 4c93 813e
00000170: 4e94 b13c 8cc4 ed3e 763d 8d3e 8599 633e
00000180: 5ec4 33be e38e 22be d192 003e a35e 663d
00000190: f705 fc3c f0b8 453e b9c6 cd3d ce40 ddbd
000001a0: 132c 61be 4858 d9bd 6a7c bd3d 6a6f 4ebc
000001b0: 4947 09be 9a25 e13d 3f29 bbbe bc6c 1f3e
000001c0: 7f15 8cbe 3b84 65be 1c2c 3fbe d0bd b5be
000001d0: 0e90 2f3e 98ad a0bd 7712 67be ca87 b53d
000001e0: a20b 0e3f 1f9d e43d 7f76 93be e68d 6bbc
000001f0: 5484 c63c 6c59 ed3d cb11 a4bd 0c7f 013e
00000200: c51b 7abd 28fb 933c 61de 01bd 33a6 a8bc
00000210: cf0f 5bbe 9344 fcbb f19e 073f 0f8d 403e
00000220: 29ae 55be bcd5 573c 20d2 83bd 448e 82bd
00000230: 65b4 8e3d d059 023e 9d72 323e e45c 683d
00000240: b3c8 67be c075 df3d 9dc9 3ebd 6ed1 073f
00000250: 478f 1e3c 7877 f33d 507b 843d 77cd ebbd
00000260: 82a2 d4bc 713e a23e dcdf f53d 64d6 6c3e
00000270: 9029 dbbd 1570 a03e 2790 2e3d f21d abbc
00000280: 1c8d 1f3d b374 c7bd 7c67 a7be 3e0f 09be
00000290: f9b1 27be 6747 a3bd 7f6b e2bb 078a 0abe
000002a0: 8c82 d33e 465a b03c 3a04 0a3e f5f7 9fbc
000002b0: c7fc bbbc 3b6e ebbd b5fc 1d3e b28a 9fbe
000002c0: 3b01 f5bd 0a27 fd3d 3bea d9bc 0a58 313e
000002d0: 9df8 3cbd 3ed5 3d3e a878 363e 4733 96bd
000002e0: fd95 5e3e ed72 323e 201f e5bd 9a2f 6abd
000002f0: 2fcb 0cbe e6cb 0d3e 76e1 13bd df15 06bf
00000300: 8700 48bd 52c1 19be 72e5 d53d 9136 b8be
00000310: fc73 5e3d e15f 973e 34de 50bd 29c8 9bbd
00000320: 3a54 a03d aaa1 113e 2d29 a9bd 9fd1 ae3d
00000330: 8bf8 ddbd 2d3d 3c3e 2e69 823e abd8 8a3d
00000340: 5f1f 493d 8493 273e 4f50 42bb 4f2a 843c
00000350: 1645 90bb a010 533e 92a3 81bc a19a 8f3d
00000360: cdef e83c 4009 753e cee4 38be 69b4 a93d
00000370: 8b49 203e b8bf f43d cf09 68bd c878 11bc
00000380: 4d45 dc3c 9ad1 613d 82d5 813e c161 7dbd
00000390: 7020 8dbe f261 b03e 9d87 bbbd 39ac ae3e
000003a0: 0c47 6f3e f8f4 0dbc b838 59be 80c9 d73e
000003b0: cae2 c23d 7070 cd3d 762e 25be 07c1 5f3b
000003c0: d37f f33d 3df5 57be 3b2a efbd b16c 5f3e
000003d0: 9d17 42be f912 973e 07b9 aebd 4ac9 bc3b
000003e0: bebb a1be 44ea 15bd c29a fbbd 0b28 47be
000003f0: 453d 5a3e a7e0 39be 287f e73d a1b7 933c
-0.04507728 0.08023893 -0.182175 -0.1740362 -0.053567763 0.01856919 0.26401183 -0.258625
-0.17963937 0.24420133 0.06553787 0.19649146 0.031572014 -0.13521032 0.29571843 0.091678135
0.371368 0.25172338 -0.1025719 -0.1816292 0.11529995 -0.20501949 0.2210796 -0.20698439
-0.07823008 -0.027445352 -0.22818828 0.141342 0.017613178 -0.15265095 -0.32138246 0.0914137
0.010361104 0.032607317 -0.23209947 0.15241493 -0.37765932 -0.009254398 0.05904866 0.17139389
-0.16104393 0.30300885 -0.033454288 -0.055027977 -0.1163733 -0.17821793 0.23601988 -0.053400215
-0.18125923 0.13690564 -0.13803732 0.13914205 0.16956286 -0.11179476 0.1572419 0.066517524
0.34744868 0.31735277 -0.020994795 0.20194001 -0.025704725 0.10836335 -0.2957062 0.2510021
-0.059394155 0.18409577 -0.21032718 0.19202542 -0.23172924 0.21549657 -0.04761767 0.0902063
-0.11700043 -0.0004917192 -0.01720445 -0.201129 0.33091918 0.06386609 -0.22495928 -0.06744581
0.4593515 0.27750942 0.10046576 -0.24712321 -0.18023288 0.13187863 0.21755013 0.297864
-0.15485606 -0.12249051 -0.058795583 0.2530769 0.021677162 0.46439016 0.27585953 0.22226532
-0.17555377 -0.1587482 0.12556006 0.056242596 0.030764563 0.1930883 0.10047669 -0.10803376
-0.21989469 -0.106125414 0.09252246 -0.012599805 -0.134061 0.109935 -0.36554906 0.15568823
-0.2736015 -0.22413723 -0.1866917 -0.35496378 0.17144796 -0.078456104 -0.22565638 0.0886379
0.554865 0.11162781 -0.28801343 -0.014377093 0.02423302 0.115893215 -0.08011206 0.12646121
-0.06106164 0.018064097 -0.031706218 -0.020587062 -0.21392749 -0.0076986044 0.529769 0.1880381
-0.20867218 0.013173517 -0.064365625 -0.06374791 0.06968001 0.12729573 0.17426534 0.056729212
-0.22635154 0.10911131 -0.046578992 0.5305394 0.009677715 0.11888021 0.064688325 -0.11513799
-0.025956396 0.31688264 0.120055884 0.23128659 -0.10701287 0.31335512 0.042617943 -0.020888302
0.03895293 -0.097390555 -0.3269614 -0.1338472 -0.16376485 -0.07972603 -0.006909787 -0.13529216
0.41310537 0.02152742 0.13478175 -0.019527415 -0.022947682 -0.11495634 0.15428431 -0.31160504
-0.11963125 0.12360962 -0.026600948 0.1731874 -0.046135534 0.18538377 0.17819464 -0.07333999
0.21736903 0.17426653 -0.11187577 -0.057174303 -0.13749383 0.13847312 -0.03610369 -0.5237712
-0.048828628 -0.15015152 0.10444154 -0.3597913 0.05430983 0.29565337 -0.05099316 -0.07606537
0.07828565 0.14221826 -0.08259807 0.08536076 -0.108384214 0.18382712 0.2547087 0.067796074
0.049102183 0.16364866 -0.0029649918 0.016133456 -0.004402767 0.2061181 -0.015825067 0.07011915
0.028434658 0.2392931 -0.18056032 0.08286364 0.15653054 0.1195063 -0.05664998 -0.008878894
0.026888514 0.055131532 0.25358206 -0.061860804 -0.2756381 0.34449726 -0.091567256 0.3411577
0.23366946 -0.008664362 -0.21213043 0.4214592 0.09515913 0.100312114 -0.16131005 0.0034142153
0.11889615 -0.21089645 -0.11677977 0.21818806 -0.1895432 0.29506662 -0.08531385 0.0057613
-0.31588548 -0.036600366 -0.12285377 -0.19448869 0.21312435 -0.18152104 0.1130355 0.018031897

network_body._body_endoder.seq_layers.2.bias f4 [256]
00000000: 8c78 bd3b 75bb ba3b cd4b 2abb 41fc 96bb
00000010: d048 a439 0481 f43b dd8e cfbb a1d9 f83b
00000020: 5c03 7e3b 9a25 023b 15cd 58bb fa7a fd3a
00000030: 820b 013b 2bc8 ccbb b7ba 133b e754 cf3a
00000040: 4a0f 05b9 c6ab be3a c5c0 b63a e3ee 9239
00000050: ac90 1d3a c685 0b3c 1a45 523b dcb2 1e3b
00000060: e057 06bb 52a7 803b f890 18bb 5195 39ba
00000070: 10a6 6abb 4bb4 1b3b d85e 6f3a 845d cd3b
00000080: c113 cb3a 263a e9b9 de8d e23b 66d5 a93a
00000090: a0a8 83bb 1f8d 8a3a 7406 3b3c cab0 4d3c
000000a0: c1fc 76bb 19d0 9abb a3a4 c53b c592 abb9
000000b0: 8183 c13b dca6 96bb 6d78 b8bb d861 82bb
000000c0: 3516 12bb 4fd8 46bb 76a0 3fbb b6d4 3fbb
000000d0: 7465 d23b 08bb 9fbb 8acf 97bb fca9 3abb
000000e0: 0d33 0f3c 2b6c 8bba 487f 083c 170f 9f3b
000000f0: f7e5 a2bb ad64 ac3b f9bb a83a 35a8 d93a
00000100: 0311 1bbb 9933 b23b 3dab 85bb 9474 d4bb
00000110: ae5b c3ba 87ba d6ba 6228 8f3a 930e d83b
00000120: a8be d53a bd8e b13b 7b72 44bb 9b27 75bb
00000130: d0ca 28bb 659a e23a cf92 153c 5603 5c3b
00000140: e88b 733a 2a5a ec3b 2484 a13b fbaa 4ebb
00000150: 61f6 57ba 0e9a 8e3b a834 003c c0e0 143c
00000160: 881d 153b 72ab 4cba 5ca7 f9bb 7b8f 2cb9
00000170: 6f56 ac3b bc17 66ba 686c 6f38 721e 103c
00000180: 52f8 5e3a 90a6 34ba 4d0b 48bb f332 9fbb
00000190: 0f2e 5a3b d586 433c 08f1 6b3b 359c 953a
000001a0: e48e a33b 7347 bbb8 77b5 1e3a 1b98 2c3c
000001b0: c788 623b 06d3 0dbb b13b 5abb 92d3 f73b
000001c0: 1423 4fbb bc0f a63b 8bae b5ba 078b e5bb
000001d0: 9b5f 75bb b4d0 9a3b 6c7f 8c3b 2ce0 513b
000001e0: 598c 53bb 3935 273b b924 f9b9 a282 11bb
000001f0: 07eb ce3a 0445 7b3b 6bd5 2bbb 4298 5cbb
00000200: f412 a13b 2fbb 2abb f0d3 54ba ac19 52b9
00000210: b0fa 5dbb bd68 103b 2b16 8abb e48d e63b
00000220: 3797 87bb 640d c83b dee6 a53b 9d13 0b3b
00000230: 5e5e 2cbb d852 823b 1fe5 0e3a 9654 233b
00000240: 51f1 a53b 2625 033b 8dfa 8339 ebd2 833b
00000250: a955 1cbb 7fc6 593a f5ee 523b 172c 17bc
00000260: 7664 47bb 54b6 693b 5c5b 50ba 9778 803b
00000270: daa1 bd3a f59d ae3b c6d5 963b 24dc c03b
00000280: a505 42b9 ae02 a33b 3199 963a f172 f23a
00000290: 29ec d5ba 4a4e 963a 7692 3f3a 52e4 c4bb
000002a0: 5719 973b 79ac ed39 3e82 6e3b afac b73b
000002b0: 84f7 e7b9 dde6 bdbb acf1 a1bb a812 db3b
000002c0: 2888 bc3a d8fe e83b ab13 01bb 04c7 af3b
000002d0: ae9d c93b 219e 083b b1f5 423b ab28 723b
000002e0: 21cd b63a e466 bc3b 5fbe 59ba 2376 1b3c
000002f0: 9303 183b 501e caba 488f 7c39 fe31 03bb
00000300: f745 8b3b 911b 193c c7a9 083b e356 c03b
00000310: 151f e73a 5d7f 483b 552d 2c3b 0c87 253a
00000320: 7590 c33b 9e71 45bb a074 353b 1aea ec3b
00000330: d10d b0ba 1117 df3b 9bfc cc3a 8b37 813a
00000340: 6dd6 403b e944 85ba 6572 5b3b 7c04 823b
00000350: 2e8b 943b 857f e2ba dcc1 1e3c 03af 5cbb
00000360: 2429 c8b8 bdf0 9a3b e2a1 5ebb 5e93 d93b
00000370: ac80 173c 0196 f23b cdbf 85bb 3ad3 af3b
00000380: 6cee a1bb a8ef 853b 5bf2 80bb a0dd 98bb
00000390: cbef c13a 8a3d ac3b ca5b f9b9 5db2 6eba
000003a0: 3a43 da39 c879 a5bb 4f6f bd3a f363 fcbb
000003b0: 6082 c1ba 6486 b93a 93b3 01bb c8c9 cc3b
000003c0: ebff 953b d7fa 263a c729 a13a 5e4c 88bb
000003d0: e478 1f3c e12f 79bb eed4 a8b9 434c c3bb
000003e0: 94df 02bb 5253 573b 38af bfb9 31a5 813b
000003f0: 1e9a 243b d986 f6b9 96fb e7bb ad9b dbb9
0.0057821926 0.005698616 -0.0025985122 -0.0046077077 0.00031334767 0.007461669 -0.0063341693 0.0075943028
0.0038759327 0.0019858838 -0.0033081223 0.0019339018 0.0019690697 -0.006249448 0.002254171 0.001581815
-0.00012689564 0.0014547042 0.0013942948 0.00028025275 0.00060106325 0.008515781 0.0032084645 0.0024215495
-0.0020499155 0.003926196 -0.0023279767 -0.000707944 -0.0035804547 0.0023758586 0.0009131259 0.0062672514
0.0015493558 -0.00044484547 0.0069138845 0.0012957274 -0.0040179044 0.0010570622 0.011415113 0.012554357
-0.0037687274 -0.004724514 0.006031589 -0.00032725013 0.005905569 -0.004597528 -0.0056295902 -0.003978949
-0.0022291068 -0.0030341332 -0.002923993 -0.0029271073 0.0064207856 -0.004874591 -0.004632895 -0.0028482666
0.008740199 -0.0010637095 0.008331127 0.004854094 -0.0049712616 0.005261025 0.0012873403 0.0016605916
-0.0023661263 0.00543828 -0.004079251 -0.0064836238 -0.0014904642 -0.0016382494 0.0010922069 0.0065935343
0.001630743 0.005418627 -0.0029975462 -0.003740764 -0.0025755651 0.0017288445 0.00912924 0.0033571324
0.0009290562 0.007212897 0.0049290825 -0.0031535018 -0.00082383124 0.004351861 0.007825054 0.009086788
0.0022753198 -0.000780753 -0.0076188277 -0.00016456649 0.005259327 -0.00087773404 5.7083e-05 0.008796321
0.00085056305 -0.0006891275 -0.0030524314 -0.0048583685 0.0033291613 0.011934002 0.003600182 0.0011414351
0.004991399 -8.930163e-05 0.0006054262 0.010534312 0.003456639 -0.0021640672 -0.003329974 0.007563063
-0.0031606602 0.0050677937 -0.0013861222 -0.0070050987 -0.0037441019 0.0047245864 0.004287651 0.0032024486
-0.0032279699 0.00255139 -0.00047520341 -0.0022203107 0.0015786596 0.0038340697 -0.0026219736 -0.0033660089
0.0049155895 -0.0026051512 -0.00081187394 -0.00020036724 -0.0033871345 0.0022035085 -0.0042140684 0.0070359576
-0.0041378993 0.006105112 0.005062922 0.0021221407 -0.0026301364 0.003977161 0.0005451012 0.0024922243
0.0050641675 0.0020011156 0.00025172942 0.004022946 -0.0023854768 0.0008307471 0.0032185887 -0.00922682
-0.003042487 0.0035661655 -0.0007948184 0.0039206254 0.0014467791 0.0053288885 0.0046031205 0.005885618
-0.00018503384 0.0049746847 0.0011489746 0.001849739 -0.0016320992 0.0011467424 0.0007307896 -0.006008663
0.004611175 0.00045332665 0.0036393548 0.0056053023 -0.00044244167 -0.0057953433 -0.0049421396 0.0066855736
0.001438384 0.007110458 -0.001969556 0.0053643007 0.00615283 0.0020846205 0.0029748494 0.003695051
0.0013946631 0.00574957 -0.00083062606 0.009488615 0.002319549 -0.0015420411 0.00024085969 -0.0020018811
0.004250284 0.009344951 0.0020853148 0.0058697327 0.0017633165 0.0030593493 0.0026272137 0.0006314374
0.0059681484 -0.0030127536 0.0027687922 0.0072300555 -0.0013431852 0.0068081697 0.0015639247 0.0009858472
0.0029424683 -0.0010167632 0.0033484933 0.0039678197 0.004533193 -0.0017280435 0.009689774 -0.003367365
-9.544406e-05 0.0047284053 -0.0033971001 0.006639882 0.009246986 0.0074031358 -0.0040817023 0.0053657563
-0.004941752 0.004087407 -0.003935141 -0.0046650916 0.0014796195 0.0052563595 -0.0004756137 -0.00091055577
0.00041630288 -0.005049918 0.0014452728 -0.0077023446 -0.0014763586 0.0014154431 -0.0019790872 0.00624964
0.004577627 0.00063697755 0.0012295776 -0.0041594943 0.009733412 -0.0038022923 -0.00032202102 -0.005960019
-0.0019969689 0.003285606 -0.00036560907 0.00395646 0.0025116275 -0.00047021246 -0.007079552 -0.00041886923

network_body._body_endoder.seq_layers.2.weight f4 [256, 256]
00000000: 9ab5 b93c 7f48 153d 1523 88bd b529 99bb
00000010: a98f 5f3d baae 693d 00d7 1abd af27 91bc
00000020: 87f2 b0bd eb67 f53b 0e3b 1c3d 95c9 cdbc
00000030: 64f0 79bd aa23 aa3d 124f 973d c8c0 a3bd
00000040: 0618 673b 95d7 393c fcad 4bbd f471 ecbb
00000050: 00f5 b0bd 12f7 093e d770 b3bd a2fb 6f3a
00000060: b8af 8d3b 006b 57bd 3a49 1c3d 1e6e a13c
00000070: 4fa6 cf3c 4117 3d3d 1818 1cbd cefe e83c
00000080: 23f5 12bd 18e3 86bc 9730 a8bc d02f de3c
00000090: eae0 be3a 77fa ccbc 2307 7dbc 5956 ed3c
000000a0: 8ae5 cc3d 81cd 9abb 0d29 89bd 6ddc 2abc
000000b0: 7a9b 253d 3d26 fabc e572 b53c 7edd ae3d
000000c0: f942 bf3d bd86 8d3d c134 cfbc 5b47 4f3d
000000d0: 045e d3bd 371f ebbc a3d6 093d 397f a5bd
000000e0: 3348 053e bb22 583c 8921 b93d 0bc9 3b3d
000000f0: 9cfa 4a3c 9dfd 1dbb 2d41 e93b d5d5 fd3b
00000100: 4617 313e 9d91 c3bd 7901 6c3d 6fd9 37bb
00000110: 7117 8dbd 63c8 64bd 4d2d 47bd 65e0 22be
00000120: 8c05 5dbc e1d5 193c 0494 843d 7ce6 03bd
00000130: 4880 fcbc 8285 3f3d 4118 c7bc 3547 013e
00000140: 3249 863c eb16 183d 2648 e9bc b6bd 0c3e
00000150: 4747 583d 99ea 70bd ab9d 85bd 4f46 ed3d
00000160: 9c91 ad3c 9cc4 613d 7377 9ebd 9201 a1bc
00000170: ea7e 253c 4140 af3d c8b0 083d e78c 19bd
00000180: fe6e 4ebd dc92 d6bd 2f26 213b 6c3d 09bd
00000190: 80c2 4f3e ef09 4ebd 0c70 78bd bb32 edb9
000001a0: c218 0d3c 8a6b adbc 9ea8 183b 6a86 2ebd
000001b0: 3f75 423e 8149 fbbd c95a 8f3d 9a78 93bd
000001c0: 956d 19be f5fc 463d 2d70 57bd e940 623d
000001d0: eff6 423d b108 e3bd 5d6b 613d 896e ddbd
000001e0: 4497 f23b 5562 343d 1501 383d 3fcf 7ebc
000001f0: 71ae c6bc 9c10 dabd d825 29bc 4175 7e3d
00000200: e2bb 883d c4af 193d 979f 573d 4732 6abd
00000210: ab2a 4abc 04a4 1fbc 682c a8bd 009c 3fbc
00000220: 0d41 6abd fc6c 443c 9944 56bd 22bc febc
00000230: 07bf 0cbe fe7b d2bd 6c2a 7fbd 1de2 f03d
00000240: 50e2 d43c 356f cc3c 20dd 79bd 2927 2dbd
00000250: 734b ca3b 8adb 93bd 7b9d 09bd 9179 61bd
00000260: e242 c63d 56e7 1fbd 87fd dcbd 7de2 08bd
00000270: 0cef 32bd 416c 6bbe 53b5 813d 2611 6d3d
00000280: 0308 26bd e803 533d b12b 113c f68b d03d
00000290: ffdb 67bd fd68 de3d c706 b83d a000 9a3d
000002a0: 74aa 893d 44a0 1cbb 7c7b 083d 2a3e 923d
000002b0: 610a ebbc b5f7 61bc 61b3 36bd 7da7 ef3c
000002c0: de74 7a3c 92d7 9ebc 9375 573c 6ffa 133d
000002d0: 1136 76bc 4edd 703c 2d1f 413d 931b a5bd
000002e0: 6b1a 773d 7a92 efbd db76 df3c 9d0b 1ebd
000002f0: 1ceb 7b3d 18bc 34bd 5b16 da3d c9ed e0bc
00000300: 4d7b 143d a216 323d 0556 a6bb 1d0f be3c
00000310: 3980 cd3d 3c54 f9bc 8ccc 533d 06fe fc3c
00000320: 48ac 89bb fed2 bcbc f799 10bc d4ae 62bd
00000330: b80f 81bd 75e7 b23d 31ab 1b3d fe20 1ebe
00000340: 8975 c4bd 1739 0b3e 6928 713b 81f1 893d
00000350: 2c58 c43c 0656 d13d 97f7 f4bc 8a11 8c3d
00000360: 484c b8bd c521 d2bb b494 8f3d ceea b23d
00000370: de30 a33d 98f0 2b3d 4591 98bc 29dc 733d
00000380: deb2 29ba 9372 8b3d d814 893a c89a 63bb
00000390: 3f13 903c 1f27 5abd b7b6 83bd b37d 4fbb
000003a0: 8e4c 0d3d 309e ec3c 4f8a 7b3c 0a88 7bbc
000003b0: 7742 9a3d b2a7 3c3b bd66 103d 299c b9bc
000003c0: 6fa9 8ebc 3fa9 abbc ebd2 3bbd 5997 50bd
000003d0: ebe9 c93d 08bd 313d e1ae 303d 9017 8a3d
000003e0: 1add b43c cbfd 43bd 3cf8 293d e94e 38bd
000003f0: 9260 79bc cdce 57bd c57d 6e3d f002 82bd
0.022669602 0.03644609 -0.06647316 -0.0046741613 0.054580364 0.057051398 -0.037802696 -0.017719118
-0.086400084 0.0074891946 0.038142256 -0.025120536 -0.06102027 0.08307584 0.07388128 -0.079957545
0.0035262122 0.011342903 -0.04972647 -0.0072157327 -0.0864048 0.13473156 -0.08761757 0.00091546227
0.004323926 -0.052592278 0.03815577 0.019705828 0.025347857 0.046164755 -0.038108915 0.028441813
-0.03587831 -0.016465709 -0.020530982 0.027122408 0.0014562879 -0.025021775 -0.015443596 0.028971838
0.100047186 -0.004724205 -0.06697283 -0.01042853 0.040431477 -0.030535812 0.022149513 0.0853834
0.09338946 0.06910465 -0.02529371 0.05060516 -0.103206664 -0.028701408 0.03365196 -0.080809064
0.13015823 0.013191874 0.090395994 0.045846026 0.0123888515 -0.0024107464 0.0071183653 0.007746438
0.17294034 -0.09549258 0.057618592 -0.0028053185 -0.06889237 -0.055855166 -0.048627187 -0.15905912
-0.013490092 0.009389372 0.06473544 -0.03220223 -0.030822888 0.046758182 -0.024303557 0.1262482
0.016392324 0.03713123 -0.028476786 0.13744244 0.05280235 -0.05881748 -0.065242134 0.11585676
0.021187596 0.055119142 -0.07737627 -0.01965407 0.010101059 0.08557177 0.033371717 -0.03748789
-0.05039882 -0.1047723 0.002458941 -0.033505842 0.2028904 -0.050302442 -0.06065373 -0.0004524196
0.00861186 -0.021169443 0.0023293863 -0.042608656 0.18990038 -0.12269879 0.06999738 -0.07200737
-0.14983208 0.048581082 -0.052597214 0.055237684 0.047598775 -0.11085642 0.05503403 -0.108120985
0.007403286 0.04403909 0.044922907 -0.015552341 -0.024253102 -0.10647699 -0.010323964 0.06212354
0.06676461 0.03752114 0.05264243 -0.057176854 -0.012339274 -0.009743694 -0.08211595 -0.011694908
-0.057190944 0.0119888745 -0.052311514 -0.031095568 -0.13744746 -0.10277556 -0.062296316 0.11761878
0.02598682 0.024955371 -0.061001897 -0.042273674 0.006173545 -0.07219608 -0.03359745 -0.055047575
0.09680726 -0.03903898 -0.10790544 -0.03341912 -0.043685004 -0.22990514 0.06333413 0.057877682
-0.040534984 0.051517397 0.0088605145 0.101829454 -0.05660629 0.10859869 0.08985668 0.075196505
0.067219645 -0.0023899237 0.03332089 0.07140763 -0.028691472 -0.013791968 -0.044604663 0.02925467
0.015286652 -0.019389901 0.0131505905 0.036127504 -0.015027539 0.014701201 0.047148872 -0.080619
0.06032793 -0.1169786 0.027278354 -0.038585294 0.061503515 -0.044124693 0.10648795 -0.027457135
0.0362504 0.043478616 -0.0050761723 0.023200566 0.10034222 -0.030435674 0.051708743 0.030882847
-0.0042014457 -0.023049828 -0.008825771 -0.05534251 -0.06301826 0.08735553 0.038005058 -0.15442273
-0.095927306 0.13595997 0.0036797768 0.06735516 0.023967825 0.10221486 -0.029903216 0.06839283
-0.089989245 -0.006412717 0.07010785 0.08736192 0.07968305 0.041977495 -0.018623957 0.059536133
-0.00064734917 0.06808963 0.0010458482 -0.0034729708 0.017587302 -0.053259965 -0.064313345 -0.0031660616
0.034496836 0.028884023 0.0153528 -0.015352258 0.075322084 0.0028786478 0.03525423 -0.02265747
-0.017414777 -0.020954726 -0.045855444 -0.050925586 0.098590694 0.043393165 0.043135528 0.067427754
0.022078086 -0.047849458 0.0414965 -0.04499713 -0.015220778 -0.052687455 0.058225412 -0.063482165
