Assets/ML-Agents/results/Andrew ML/results/sc_01 - Copy/SimpleCollector/SimpleCollector-1519.onnx (onnx, 321380 bytes, 11 tensors)

action_model._discrete_distribution.branches.0.bias f4 [3]
00000000: 0000 0000 0000 0000 0000 0000
0.0 0.0 0.0

action_model._discrete_distribution.branches.0.weight f4 [3, 256]
00000000: 03b2 863b 939c 2fbc ac8a 9e3b 0f08 063c
00000010: 6a48 74bb c8ac f23a cb2c bf3a b7f5 8a3b
00000020: b04e 14ba 5816 d6ba 3442 063c fd83 65ba
00000030: 6878 123b fd89 413b c10b b73a 081e b03b
00000040: 8cc4 873b c53e 5a3c 4c05 47bc 91e1 aebb
00000050: 4b89 15bc 07d6 143b 5656 94bc 75db 433b
00000060: a02c 76bb 9d40 d43a 3f07 30ba a7c9 693b
00000070: 5f79 28bb d766 e03a 4a2d 67bb 0cc1 b5bb
00000080: 8739 b8bb 6b5a a3b9 6621 aabb af88 b73c
00000090: b338 083c e31e 7d3b 823f 4eba ff55 eb3b
000000a0: c442 1c3c 4031 a63b 4a86 aabb 6e84 a5bb
000000b0: e939 1bbb c725 313b 2ba8 65bb baeb 013b
000000c0: 7b22 dc39 dafb f93b d6d6 063c 2de7 ee3b
000000d0: 3dc6 703c 2a65 e0bb 32e4 58bc 63e1 efba
000000e0: 4592 df3b d30b 383b 5865 6939 ebdb 03ba
000000f0: 7ad4 563b cff2 853c e3ba 123c b7ad d339
00000100: 0580 5f3b 9260 113c 9cc1 003c 0ff6 223b
00000110: 341e 46bc 4a83 20bc 60b3 9c38 8705 f93a
00000120: 33fb 44bb 645d 33bb 9498 0abb f21a 09bb
00000130: 6786 c039 220b fd3a cf1f 1bbb 6fb2 1d3c
00000140: c78c f5bb 48c8 4d3c d7c5 113c 6e44 24bb
00000150: 3166 af3b e7b4 853b d8ab 8cbb 2d80 a2bb
00000160: 1775 f13a 28f2 c3ba dd41 a8bb abf9 fa3b
00000170: 5fcb 073b 45a3 ec3b 83b5 be39 92f6 45bb
00000180: 0af9 1dbb 501e f63b 4f5b d5bb 98f1 5f3a
00000190: b1d8 883b 3f31 963a 5c66 0e3c 2477 8cbb
000001a0: fdb4 253b 63e0 8636 c3cf f2ba 876f d6bb
000001b0: 538f 813b 83ae 233c 9212 62bb d0f1 67bb
000001c0: 7b94 88ba d4ac 0e3b 7352 453b 0e9f 3dbc
000001d0: a4c4 81bb cd99 0cbb bb5a 29bb c7b8 54bb
000001e0: 3bba cabb 1359 a6bb cb80 9c3c 6766 7dba
000001f0: aa69 863a a4de adba 08d8 2bbc 8539 a2bb
00000200: a9f2 29bb cc03 3239 69b8 893b a08d c03b
00000210: db5d 253b 5db1 fb3b 74e3 8b3c 93cd 9fbb
00000220: 0a25 78bc b918 343c e0c4 4dbc 621b f33b
00000230: 1b5f d1bb 646f 4a3c 8bcb 143b 2fd5 ae3b
00000240: 20a4 cbbb be01 8cbb 020e 6e3b ffce eeb9
00000250: 3452 a5bb b5d3 493c c2da 0e3c 30e7 e3bb
00000260: bbf8 79bb a61f 97bb 2bb2 db3b d73c 11bb
00000270: 4f12 b53b f5b6 9a3b 084b 9c3b 6351 a23b
00000280: 4be1 a2ba 028c 763b 5c32 08bc 335d d63b
00000290: dc25 16bc ef08 f7ba 6278 6b3b bda4 e4bb
000002a0: 42f5 0dbc 4a80 bbbb c846 1abc ec3c 333a
000002b0: 1f52 213a b673 81ba a591 f53b b24a 6abc
000002c0: ed03 e4b9 3886 843b f716 afbb f259 7db9
000002d0: 73ca d1bb db7b 73bb 320a 9eba 2bc4 5bbb
000002e0: 9f5d 123b 382b e839 2f77 78bb 8aca 4e3b
000002f0: cf8d d8bb 13ed f73b db2e 9339 11e1 243a
00000300: 279f b1bb 48db 703b 03e3 19bc b16f 123c
00000310: db9e b83b 1e79 843c aa7c 743c 3284 dab9
00000320: 33f4 1bbc e7dc 7b3b 2b68 3a3b 1ffa 203c
00000330: b56f 89bb 3737 85bb 4fa0 5fbb 4800 c9bb
00000340: 902d dabb f37d 82bb 0177 343c 595f 05bb
00000350: 8718 8e3b 1628 b43b 53f3 303a 14b3 093c
00000360: df2f f4ba 209a 38ba 94ac 273b af25 463b
00000370: e318 a3bb b2df e139 18f8 333c 73d7 f13b
00000380: d7b1 ea3b a3c3 153b 034b b73b d766 df3a
00000390: ab01 2f3c 749b 883a fd21 903a 6428 0e3c
000003a0: 42ce 6dbb 36e7 493b 356d 9fbb fdd8 4b3b
000003b0: 1ba2 953a a7eb 383b 4fb2 44bc e582 933b
000003c0: f204 2739 e860 9339 c896 b2bb f59e 083b
000003d0: 35a1 563c 1b1a ab38 ccc4 83b8 3468 aa3b
000003e0: e837 1d3b bb4d 963b 7ff9 61bb 3bf0 1cbc
000003f0: 72fe f7bb 1178 1bbc e012 403c 4faa a23b
0.004110576 -0.010718483 0.0048383083 0.008180632 -0.0037274607 0.0018514628 0.0014585493 0.0042407173
-0.00056574773 -0.0016333563 0.008194495 -0.00087553245 0.00223496 0.002953171 0.0013965295 0.0053746738
0.0041433033 0.0133206295 -0.012147259 -0.005336948 -0.0091269715 0.0022710578 -0.018107574 0.0029885445
-0.003756322 0.0016193573 -0.0006714947 0.0035673173 -0.0025707108 0.0017120492 -0.0035274797 -0.0055466946
-0.005622092 -0.0003115715 -0.0051919697 0.022404043 0.008314299 0.0038623146 -0.000786774 0.0071818824
0.009537403 0.005071789 -0.005203997 -0.0050511872 -0.002368564 0.0027030574 -0.0035042863 0.0019824342
0.0004198736 0.0076289 0.008229932 0.007290742 0.014695701 -0.006847997 -0.013238 -0.0018301423
0.0068228566 0.002808322 0.00022258365 -0.0005030024 0.0032780454 0.016351132 0.00895569 0.00040374484
0.0034103405 0.008873122 0.00785866 0.00248659 -0.012092162 -0.009796927 7.472071e-05 0.001899884
-0.0030056953 -0.0027368898 -0.0021148073 -0.0020920602 0.0003672123 0.0019305686 -0.0023670082 0.009625061
-0.0074935886 0.012559958 0.008897266 -0.0025065201 0.0053527583 0.004080403 -0.0042929463 -0.0049591274
0.0018421736 -0.0014949488 -0.0051348046 0.0076591573 0.0020720584 0.0072216117 0.0003637486 -0.0030206782
-0.0024104738 0.0075109378 -0.006511129 0.0008542775 0.0041762223 0.0011458768 0.008691397 -0.0042866636
0.002528488 4.0196333e-06 -0.0018525053 -0.006544057 0.003953853 0.009990337 -0.0034495932 -0.0035391934
-0.0010420227 0.0021770494 0.0030108958 -0.011573566 -0.003960209 -0.0021453977 -0.0025841433 -0.0032458769
-0.006186751 -0.0050765364 0.019104382 -0.0009666443 0.0010254879 -0.0013265205 -0.010488518 -0.0049507045
-0.002593199 0.00016976817 0.0042028916 0.005876258 0.0025232944 0.0076810555 0.017076232 -0.0048768013
-0.01514555 0.010992222 -0.012559146 0.007419036 -0.0063895113 0.012355659 0.002270433 0.005335472
-0.0062146336 -0.0042726686 0.0036324267 -0.00045549122 -0.0050451998 0.012318541 0.008719148 -0.00695505
-0.003814264 -0.004611927 0.006704589 -0.0022161508 0.005525864 0.004721517 0.0047696866 0.0049535497
-0.0012426762 0.0037620072 -0.008312788 0.006541872 -0.0091643 -0.0018847267 0.0035929908 -0.006977646
-0.008664431 -0.0057220804 -0.00941629 0.0006837386 0.00061538996 -0.0009876403 0.007494169 -0.014300035
-0.00043490474 0.0040443204 -0.005343314 -0.00024161467 -0.0064023077 -0.003715268 -0.0012057482 -0.0033533673
0.0022333635 0.0004428269 -0.0037912836 0.0031553828 -0.006608702 0.0075661032 0.00028072935 0.0006289641
-0.0054205838 0.0036751796 -0.009392503 0.008937762 0.0056341714 0.016171034 0.0149223 -0.00041678693
-0.009518671 0.0038431229 0.0028443437 0.0098252585 -0.0041942247 -0.00406542 -0.003412265 -0.0061340667
-0.0066582635 -0.0039822995 0.011014701 -0.002035102 0.00433642 0.0054979427 0.00067501253 0.008404512
-0.0018629989 -0.00070420094 0.0025585042 0.0030234864 -0.004977332 0.0004308201 0.010984443 0.00738042
0.0071623134 0.0022852204 0.005593659 0.0017044198 0.01068155 0.0010422305 0.0010996457 0.008676622
-0.003628627 0.0030807978 -0.0048653134 0.0031104677 0.0011416109 0.0028216632 -0.012005403 0.004501688
0.00015928203 0.00028110226 -0.0054501034 0.00208467 0.013099958 8.158778e-05 -6.283223e-05 0.0052004103
0.0023989622 0.004586903 -0.0034480987 -0.00957876 -0.007568174 -0.009489075 0.01172325 0.00496415

action_model._discrete_distribution.branches.1.bias f4 [3]
00000000: 0000 0000 0000 0000 0000 0000
0.0 0.0 0.0

action_model._discrete_distribution.branches.1.weight f4 [3, 256]
00000000: 69a0 47bb 0681 a2b9 070f 2e3b 0800 4ebb
00000010: 0cac 433b 333d 06bb 3afb 1bba 4707 c8bb
00000020: 3033 ccbb 33c0 883b dfc0 31bb 1da6 72bb
00000030: 5223 c1bb 67ed 83b8 319f 44bb 35a2 993a
00000040: 6b3d 15bc 17a7 4d3c 25c9 633c 4765 29bc
00000050: 9f4b 1cbb 4624 b4bb cc6b b8bb 70f4 f2bb
00000060: 2770 97ba 7659 c2bb db40 3bbc f56b b1bb
00000070: e9a6 923b 360e aabb afdc a237 3edc 803a
00000080: 722d 89bb db1d 41bc b699 93bb 4774 4abb
00000090: af28 653b b3a6 5dbc ff13 e8bb a48e 92bb
000000a0: 9aa6 c33a 78a0 9bbb 7ec1 113b 264c bb3b
000000b0: abdf 0fbb f9ee 11bb d96d 9139 9b11 003c
000000c0: 0d39 663a 271c eb3b ee01 bb3b fb8c 03bc
000000d0: dc2a 9bbb 83c7 173c b3aa ca3b 77c9 d13b
000000e0: 5fb4 3dbb a50e d339 4561 f03b 912b 143c
000000f0: b355 1f3c d24b d3bb 7f38 123c a246 e339
00000100: d1b2 a5ba fc76 b1bb 2732 e2bb e7eb 0abc
00000110: a3d9 1dbc 7bf3 fc3a 4aa8 c1bb e389 10bc
00000120: b960 bd3b d8e4 db39 4c87 92b6 bf0c 77b9
00000130: b37c d43b 9990 3bbb 6210 4e3b 924d 703a
00000140: 2382 0bbc fd94 07bc 8c38 a03b 8b25 3fbc
00000150: a150 8bbb 28c5 d8bb 656c 7fbc 18dc 3b3c
00000160: 7fa1 393b bc7b 963a 15a0 0dbc 1fe0 0d3c
00000170: 0775 64ba d7c9 fbbb ddf0 3d3b 40c6 48bb
00000180: d24f 1bba 1295 4cbc 89e5 833a 70b0 a43b
00000190: 68f0 c33a e208 183c 0e23 b0bb 8caa c93b
000001a0: 21c5 3cbb 39f6 183c cae3 83bb df34 fcb8
000001b0: 8215 7abb b7ee 5ebc 618d a13b 6b67 d13b
000001c0: 63eb 2eba 5251 cd39 b334 553b ec50 06bc
000001d0: abce 6c3b ae05 b6ba 9b75 30bc 2753 0ebc
000001e0: 48bc fd3a 51a6 0d3c e066 303b 48bb e6bb
000001f0: 93f0 483b 3255 943b 7805 9c3a 9520 653b
00000200: dac4 0e3c b502 9abb 3dc7 babb 8303 a3bc
00000210: d060 213c e51d c33b 4562 e0ba 3f42 bdbb
00000220: a738 523b 1007 0f3c 774c 873b 9b47 fa3b
00000230: e940 173c 1c3a 9b3b 9834 71bb 56dd 323c
00000240: 1b57 aebb 3576 193b 2bab dabb 309d feba
00000250: 2368 a43b b583 9f3b cbae bcbb a70a 933b
00000260: 8556 e83b 45ee 50bc 6a55 e3bb cb0b d83b
00000270: 6e20 2b3c 9f16 b6bb 35e6 873b 1f43 263c
00000280: 15c8 f0ba 4296 df3b 30a3 ecba a865 223c
00000290: 6788 023c 41de c33b ba4d 34bb a85e 3ebc
000002a0: 18ca 4f3c 0004 73bb 1daf 543b 6184 aabb
000002b0: 1db7 b43b 6097 f8bb 52bd e2ba 8d28 8a3b
000002c0: a550 af3b f009 413c 672c 963b 9314 59bb
000002d0: 3619 9aba 2b84 443b 9517 4f3b 4452 4cbc
000002e0: 056f d83b 8884 efba 3347 363b ec44 9339
000002f0: 265e 29ba 956a e539 cb90 59bb 3f07 653c
00000300: 1f8e 67bb 8ff3 5bbb a4f1 28b8 fd73 073c
00000310: 5fb6 b8b9 965a 97bb f2d6 8dbb bb2e 00bb
00000320: bdac 54bb 351e f6ba 671f 13bc d291 c23b
00000330: a87b 523b 4bed cd3b 2c54 483a 4cf7 8bbb
00000340: cf43 323c 87ae c3ba 4bd0 acbb cc95 1fbc
00000350: 74b0 47b9 b095 df3b 03b7 8739 ac4c 02bc
00000360: 3fde 1b3c 8077 f33b 2180 be3b 5e78 0ebc
00000370: 8a95 3bbb ce28 b83b 57d8 e33b b79c 433b
00000380: d092 5a3b 00f7 873b df51 ad39 8ae6 02b9
00000390: 96a7 2fbc 8b82 f13b 5b99 edbb e0ac 7b3c
000003a0: 4fa3 a635 0521 dabb 810e 37bc 052b dc3b
000003b0: 381f fdb8 9bd4 853b 9090 2a3c d381 e3ba
000003c0: 3d4d f3ba 0f64 4ebb b74a 1d3c 6848 053b
000003d0: 3099 d239 b647 b737 5b24 233c 33c5 0cbc
000003e0: 393c 34bc 3f29 063b 7321 8c3a 12c1 ce3b
000003f0: 0855 96bb 3e63 8d3b b103 acba f799 163b
-0.0030460602 -0.00030995178 0.002655925 -0.0031433124 0.0029857187 -0.0020483255 -0.00059502164 -0.006104383
-0.006231688 0.0041733026 -0.0027123017 -0.003702528 -0.005894103 -6.2907864e-05 -0.0030002112 0.0011721315
-0.0091088815 0.012552044 0.013902937 -0.010339088 -0.0023848785 -0.005497488 -0.0056280848 -0.007414393
-0.001155381 -0.0059310747 -0.011429037 -0.005414481 0.0044754636 -0.0051896824 1.9414669e-05 0.0009831262
-0.0041863257 -0.011786903 -0.0045044078 -0.003089206 0.0034966876 -0.013528514 -0.007082462 -0.0044725705
0.001492697 -0.004749354 0.0022240574 0.0057158647 -0.0021953385 -0.0022267683 0.00027738398 0.0078166975
0.0008782305 0.007174987 0.005707017 -0.008029218 -0.004735334 0.009263876 0.0061848997 0.0064021903
-0.002894662 0.00040255967 0.007335814 0.00904359 0.009725022 -0.0064482475 0.0089246025 0.0004334944
-0.0012641792 -0.0054157954 -0.0069029513 -0.008479095 -0.009634408 0.0019298637 -0.005909954 -0.008821937
0.0057793525 0.00041941437 -4.3668897e-06 -0.00023560504 0.006484592 -0.0028620122 0.003144287 0.00091668323
-0.008514914 -0.008275268 0.0048895534 -0.011666666 -0.004251555 -0.0066152997 -0.015589808 0.011466049
0.002832502 0.0011480968 -0.008644124 0.008659392 -0.0008714948 -0.0076839733 0.0028982677 -0.0030635744
-0.0005924675 -0.012486713 0.0010062914 0.005025916 0.0014948966 0.009279462 -0.0053752726 0.006154364
-0.0028804021 0.009336048 -0.0040249573 -0.000120261444 -0.0038159792 -0.013606719 0.0049301838 0.006390502
-0.00066726486 0.00039161235 0.0032532632 -0.008198004 0.0036133926 -0.0013887191 -0.010770227 -0.008686817
0.001935848 0.00864561 0.0026916787 -0.0070413686 0.0030660972 0.0045267576 0.0011903485 0.0034962047
0.008713925 -0.0047000297 -0.0057000206 -0.019899135 0.009849742 0.0059544914 -0.001711913 -0.0057757194
0.0032077224 0.008729711 0.0041289884 0.0076379306 0.009231784 0.004737152 -0.003680503 0.010917028
-0.0053204424 0.0023416404 -0.006673237 -0.0019425508 0.005017297 0.0048679956 -0.0057581416 0.004487354
0.007090392 -0.01275212 -0.0069376724 0.0065932027 0.010444744 -0.005556896 0.004147316 0.010147839
-0.0018370176 0.006823332 -0.0018054005 0.009911932 0.007967091 0.0059774225 -0.002751215 -0.0116192475
0.01268246 -0.0037081242 0.0032453008 -0.005203769 0.005514993 -0.0075864047 -0.0017298853 0.00421626
0.0053501897 0.011782154 0.00458293 -0.0033123835 -0.0011756781 0.0029986005 0.003159975 -0.0124707855
0.0066050314 -0.001827375 0.0027813434 0.00028089376 -0.00064608676 0.00043757693 -0.0033197876 0.013978778
-0.0035332514 -0.003356192 -4.0279367e-05 0.0082674 -0.00035231092 -0.004618953 -0.004328602 -0.0019559104
-0.0032451593 -0.0018777313 -0.008979655 0.0059377933 0.0032117162 0.006284391 0.0007641937 -0.0042714234
0.010880425 -0.0014929333 -0.005273854 -0.009740304 -0.00019043853 0.006823264 0.0002588556 -0.00795285
0.009513437 0.007430017 0.005813614 -0.00869569 -0.0028623068 0.0056200987 0.00695328 0.0029848048
0.0033351667 0.0041493177 0.0003305813 -0.00012483649 -0.010721108 0.0073702983 -0.0072509474 0.015361041
1.2415493e-06 -0.0066567683 -0.011172892 0.0067189955 -0.00012069795 0.0040841824 0.010410443 -0.0017357416
-0.0018562448 -0.0031492745 0.009600333 0.0020337347 0.00040168455 2.1848693e-05 0.009957398 -0.008591938
-0.011000686 0.0020471362 0.0010691121 0.006309637 -0.0045877732 0.004314809 -0.0013123659 0.0022979954

action_model._discrete_distribution.branches.2.bias f4 [2]
00000000: 0000 0000 0000 0000
0.0 0.0

action_model._discrete_distribution.branches.2.weight f4 [2, 256]
00000000: 32c3 1fba 05c5 9c3a d663 923b 27a3 c2bb
00000010: eb9b 763b ec43 143c d12c b93a 8621 19bb
00000020: 1df4 17bc 4b9c 2abb f755 cebb 3b48 4fba
00000030: 5bd2 943a 9c79 00bb b743 7dbb 034c a43b
00000040: d811 22bb e313 683b df01 68bb 6d29 b0bb
00000050: 1880 03bb b514 623b 1b6f 423b 5658 0e3c
00000060: f870 1bbc 7352 b73a cb10 fe3a 92d4 d1bb
00000070: e87e 35bb cb7e 563b 4d0a 13bc eb6a 2c3b
00000080: 8df0 8ebb 6036 c43a 47e0 0dbb ab26 a4ba
00000090: 1481 b8bb 97cc 22bb 557f 23bc bb81 7ebb
000000a0: 680f 0e3c 18d2 883b 62c7 883b c771 2fbb
000000b0: 47b3 68bb 25bf e83b bfd7 e73b 5c7a 13bb
000000c0: 74ea 2dbc 93f2 f63a d36d 853a 6e18 c13a
000000d0: 92e2 c93b ffcb 66b9 00e6 aebb 2ec7 803a
000000e0: cc8b 843b 62b2 f6bb 177b ecb9 9155 143c
000000f0: f44c 06bb 0fc4 643b 25af bdbb 2df4 d2ba
00000100: 8f95 973b 0313 41bc 8c17 80ba f5dd 80ba
00000110: 78b2 6e3b e256 bc3a 1540 baba 60cb bf3b
00000120: 6359 cdbb ec2a 8637 9ab5 2cbb 0298 3ebb
00000130: b866 6cbc 92c7 d5ba 6c43 97bb 8840 1d3b
00000140: 6cb0 caba 534c 43bc af4e e23a 1779 ea39
00000150: ab78 0abc 3df1 6b3b b3cd 26bb 97e3 a3bb
00000160: 2569 673b d8e3 823c 3f87 0a3b 4373 1d3b
00000170: 53bf 413c 1bf7 e8bb ed0c 10bc 1018 25bc
00000180: 8565 3e39 e2c1 243c fc62 aabb d8bb 31bc
00000190: a108 06bb cdf9 17ba 7ae8 26ba e288 713c
000001a0: 0ea3 aa3b 8db7 c338 527a c83b 3d2c 333b
000001b0: 9b1b 353b 03ce 513b 5f0c 3e3b a138 92bb
000001c0: 8036 6b39 475b 1b3b a782 08bb 306e cfbb
000001d0: 0a57 ac3b 27d4 f6bb 3feb e23b c508 f8bb
000001e0: e5af b2bb 4a55 d0ba e166 a73b 503b df3a
000001f0: 9783 233c ce98 2cbc f450 9dbc 2bdd 023a
00000200: 9860 31bb bbd8 3a3b 1e62 9a3b 706c ea3b
00000210: 49de a7bb 0d71 a63b f3a6 b9b9 8f7a 64bb
00000220: 2564 593a a479 473b 108f 4d39 7549 cebb
00000230: fb87 5c3b b1b4 1b3c 32ff 913b 894e 42ba
00000240: 085f 003c 8be7 ffba e7f0 aa3a 1bd7 7cbb
00000250: a21d efbb 21cc 8fbb c2d1 6e3b 8a3f 13bc
00000260: f752 60bc ce85 9dbb 9323 b1bb 9d6a ef3b
00000270: 37e1 a4bb ffb7 a0bb 9bb0 863a 9c60 27bb
00000280: 3b04 21bb 29f6 11bc 3bd0 6fbb fdf9 e4bb
00000290: 4333 81bb d0c6 e4ba f9ba 8aba c757 0d3c
000002a0: 1c7a 323c 47e0 853b 0ee5 1f3c 423d 673b
000002b0: c23d fd3b 58af 9e3b 08fa 47bb a2ec 03bc
000002c0: 3650 963b b7f9 b53b 4bb2 f83a 1a72 49bc
000002d0: 9e2b 3ebc 4b69 143c fbef f3ba d82e 6fbb
000002e0: d82f f33b 4613 09bc 0a36 5fbb 539e 353c
000002f0: 972e 9b3a 0bd3 d63b c476 08bc 52da f839
00000300: b788 fbba 6738 9a39 bb95 e1bb 64a9 b83b
00000310: 2aea f1bb 6b25 813b 03b5 47bb f0c0 6cbc
00000320: d799 25bb bb01 55bc 35b2 e7bb a384 c23b
00000330: fde6 bb3a b7b9 30bb a70a 4abc ffbc 853b
00000340: e36b 15bb 777d 58bc fcbc 0f3c 0d12 0e37
00000350: 9f1f 0f3a 484f c03a 4bd8 2c39 5f53 84bb
00000360: 0f80 2e3c 9dab 6b3b 4ceb 0dbc c546 e33b
00000370: 2b75 edba f32f 90bb 4b70 9a3a 5e23 14bc
00000380: 3376 b1bb fbff b23b 9f4e 273c 920e 7f3b
00000390: 7378 15ba a329 3ebb 4cc3 c6ba 28f2 d0bb
000003a0: 1a84 eabb 1e3a a5bb 1de7 4bb9 4a4f 9abb
000003b0: b7c1 0d3c ca81 9e3b cf75 46bc a0ad 063b
000003c0: 9aea 1d3b 2f00 1abc 4016 79bb 579b 08bb
000003d0: b0aa 1c3b a1e0 a83b 1849 a83b 6da4 28bc
000003e0: eda1 f63b 134e 3cbc fd48 f73b 43b8 483b
000003f0: df24 b43b 58f5 e3bb c1af c5bb e75f 143c
-0.0006094455 0.0011960572 0.004467468 -0.0059398594 0.0037629555 0.009049397 0.0014127736 -0.0023365929
-0.00927451 -0.00260331 -0.006296869 -0.00079071865 0.0011354195 -0.0019603735 -0.0038645098 0.005013944
-0.0024729874 0.0035412244 -0.0035401506 -0.005376032 -0.0020065363 0.0034497206 0.0029668275 0.008688053
-0.009487383 0.0013986364 0.0019383667 -0.006403514 -0.002769405 0.0032729383 -0.008974624 0.0026308845
-0.004362172 0.0014969818 -0.0021648572 -0.0012523731 -0.0056306217 -0.0024841183 -0.009979089 -0.003883465
0.008670665 0.0041754358 0.004174159 -0.0026770697 -0.0035507248 0.0071028643 0.0070752795 -0.0022503352
-0.01061498 0.0018840603 0.0010179825 0.0014732012 0.0061610425 -0.00022010504 -0.0053374767 0.0009824985
0.0040449854 -0.007528589 -0.00045105137 0.009053604 -0.0020492645 0.00349069 -0.005788701 -0.0016094499
0.004625983 -0.011784318 -0.0009772643 -0.0009831773 0.0036422294 0.0014369155 -0.0014209772 0.0058531016
-0.0062667592 1.5994032e-05 -0.002635336 -0.0029082303 -0.014428787 -0.0016310087 -0.0046161916 0.0023994762
-0.0015463955 -0.011920053 0.0017265881 0.00044722177 -0.008451621 0.0036001944 -0.0025452196 -0.005001496
0.0035310474 0.015977785 0.0021137742 0.0024025 0.0118254 -0.0071095354 -0.008792144 -0.010076538
0.00018157631 0.010055991 -0.005199788 -0.010848008 -0.002045192 -0.0005797416 -0.0006367039 0.014742108
0.005207426 9.3325136e-05 0.0061180973 0.00273396 0.0027634862 0.0032013662 0.0028999073 -0.004462317
0.00022431649 0.0023705529 -0.0020829828 -0.006330274 0.0052593993 -0.0075326147 0.006925016 -0.007569405
-0.005453097 -0.0015894559 0.0051086997 0.0017031226 0.009980104 -0.010534478 -0.01920364 0.0004992063
-0.002706563 0.002851053 0.0047114035 0.00715404 -0.005122934 0.0050793947 -0.00035410337 -0.003486309
0.0008292816 0.0030437494 0.00019603618 -0.006295378 0.0033650387 0.009503529 0.0044554705 -0.00074122153
0.007835157 -0.0019523961 0.0013041765 -0.0038580361 -0.0072972337 -0.0043883477 0.0036440943 -0.008987317
-0.013691655 -0.0048072105 -0.005405852 0.0073064105 -0.0050317305 -0.0049047465 0.0010276021 -0.0025539761
-0.0024569172 -0.008908787 -0.003659262 -0.0069878087 -0.0039428785 -0.001745427 -0.0010584287 0.008626885
0.010893371 0.004085574 0.009759201 0.0035284315 0.0077283094 0.00484268 -0.003051402 -0.008052023
0.0045871986 0.00555345 0.0018974034 -0.01229527 -0.011607079 0.009058307 -0.0018610948 -0.0036496427
0.007421475 -0.008366412 -0.003405931 0.011085111 0.0011839446 0.00655592 -0.008329097 0.00047464907
-0.0019190524 0.00029415192 -0.0068843043 0.0056354273 -0.007382651 0.003941228 -0.0030472882 -0.014450297
-0.0025268698 -0.013000901 -0.0070708045 0.0059362217 0.0014335808 -0.0026966163 -0.012331641 0.004081368
-0.0022799901 -0.013213507 0.008773085 8.468062e-06 0.0005459729 0.0014672065 0.00016483774 -0.004038259
0.010650649 0.0035960444 -0.008662056 0.0069359266 -0.0018116584 -0.0044002472 0.0011782733 -0.009041635
-0.005415702 0.005462644 0.010211616 0.0038918597 -0.0005701847 -0.0029016517 -0.0015164404 -0.0063765235
-0.007156861 -0.0050423285 -0.00019445685 -0.004709159 0.008652142 0.0048372494 -0.012113049 0.0020550266
0.0024096132 -0.009399458 -0.0038007647 -0.0020844543 0.0023905449 0.005153731 0.0051356666 -0.010293108
0.0075266273 -0.011493224 0.0075465427 0.0030627407 0.0054975594 -0.0069567375 -0.0060329144 0.009056068

discrete_action_output_shape f4 [1, 3]
00000000: 0000 4040 0000 4040 0000 0040
3.0 3.0 2.0

network_body._body_endoder.seq_layers.0.bias f4 [256]
00000000: 0000 0000 0000 0000 0000 0000 0000 0000
00000010: 0000 0000 0000 0000 0000 0000 0000 0000
00000020: 0000 0000 0000 0000 0000 0000 0000 0000
00000030: 0000 0000 0000 0000 0000 0000 0000 0000
00000040: 0000 0000 0000 0000 0000 0000 0000 0000
00000050: 0000 0000 0000 0000 0000 0000 0000 0000
00000060: 0000 0000 0000 0000 0000 0000 0000 0000
00000070: 0000 0000 0000 0000 0000 0000 0000 0000
00000080: 0000 0000 0000 0000 0000 0000 0000 0000
00000090: 0000 0000 0000 0000 0000 0000 0000 0000
000000a0: 0000 0000 0000 0000 0000 0000 0000 0000
000000b0: 0000 0000 0000 0000 0000 0000 0000 0000
000000c0: 0000 0000 0000 0000 0000 0000 0000 0000
000000d0: 0000 0000 0000 0000 0000 0000 0000 0000
000000e0: 0000 0000 0000 0000 0000 0000 0000 0000
000000f0: 0000 0000 0000 0000 0000 0000 0000 0000
00000100: 0000 0000 0000 0000 0000 0000 0000 0000
00000110: 0000 0000 0000 0000 0000 0000 0000 0000
00000120: 0000 0000 0000 0000 0000 0000 0000 0000
00000130: 0000 0000 0000 0000 0000 0000 0000 0000
00000140: 0000 0000 0000 0000 0000 0000 0000 0000
00000150: 0000 0000 0000 0000 0000 0000 0000 0000
00000160: 0000 0000 0000 0000 0000 0000 0000 0000
00000170: 0000 0000 0000 0000 0000 0000 0000 0000
00000180: 0000 0000 0000 0000 0000 0000 0000 0000
00000190: 0000 0000 0000 0000 0000 0000 0000 0000
000001a0: 0000 0000 0000 0000 0000 0000 0000 0000
000001b0: 0000 0000 0000 0000 0000 0000 0000 0000
000001c0: 0000 0000 0000 0000 0000 0000 0000 0000
000001d0: 0000 0000 0000 0000 0000 0000 0000 0000
000001e0: 0000 0000 0000 0000 0000 0000 0000 0000
000001f0: 0000 0000 0000 0000 0000 0000 0000 0000
00000200: 0000 0000 0000 0000 0000 0000 0000 0000
00000210: 0000 0000 0000 0000 0000 0000 0000 0000
00000220: 0000 0000 0000 0000 0000 0000 0000 0000
00000230: 0000 0000 0000 0000 0000 0000 0000 0000
00000240: 0000 0000 0000 0000 0000 0000 0000 0000
00000250: 0000 0000 0000 0000 0000 0000 0000 0000
00000260: 0000 0000 0000 0000 0000 0000 0000 0000
00000270: 0000 0000 0000 0000 0000 0000 0000 0000
00000280: 0000 0000 0000 0000 0000 0000 0000 0000
00000290: 0000 0000 0000 0000 0000 0000 0000 0000
000002a0: 0000 0000 0000 0000 0000 0000 0000 0000
000002b0: 0000 0000 0000 0000 0000 0000 0000 0000
000002c0: 0000 0000 0000 0000 0000 0000 0000 0000
000002d0: 0000 0000 0000 0000 0000 0000 0000 0000
000002e0: 0000 0000 0000 0000 0000 0000 0000 0000
000002f0: 0000 0000 0000 0000 0000 0000 0000 0000
00000300: 0000 0000 0000 0000 0000 0000 0000 0000
00000310: 0000 0000 0000 0000 0000 0000 0000 0000
00000320: 0000 0000 0000 0000 0000 0000 0000 0000
00000330: 0000 0000 0000 0000 0000 0000 0000 0000
00000340: 0000 0000 0000 0000 0000 0000 0000 0000
00000350: 0000 0000 0000 0000 0000 0000 0000 0000
00000360: 0000 0000 0000 0000 0000 0000 0000 0000
00000370: 0000 0000 0000 0000 0000 0000 0000 0000
00000380: 0000 0000 0000 0000 0000 0000 0000 0000
00000390: 0000 0000 0000 0000 0000 0000 0000 0000
000003a0: 0000 0000 0000 0000 0000 0000 0000 0000
000003b0: 0000 0000 0000 0000 0000 0000 0000 0000
000003c0: 0000 0000 0000 0000 0000 0000 0000 0000
000003d0: 0000 0000 0000 0000 0000 0000 0000 0000
000003e0: 0000 0000 0000 0000 0000 0000 0000 0000
000003f0: 0000 0000 0000 0000 0000 0000 0000 0000
0.0 0.0 0.0 0.0 0.0 0.0 0.0 0.0
0.0 0.0 0.0 0.0 0.0 0.0 0.0 0.0
0.0 0.0 0.0 0.0 0.0 0.0 0.0 0.0
0.0 0.0 0.0 0.0 0.0 0.0 0.0 0.0
0.0 0.0 0.0 0.0 0.0 0.0 0.0 0.0
0.0 0.0 0.0 0.0 0.0 0.0 0.0 0.0
0.0 0.0 0.0 0.0 0.0 0.0 0.0 0.0
0.0 0.0 0.0 0.0 0.0 0.0 0.0 0.0
0.0 0.0 0.0 0.0 0.0 0.0 0.0 0.0
0.0 0.0 0.0 0.0 0.0 0.0 0.0 0.0
0.0 0.0 0.0 0.0 0.0 0.0 0.0 0.0
0.0 0.0 0.0 0.0 0.0 0.0 0.0 0.0
0.0 0.0 0.0 0.0 0.0 0.0 0.0 0.0
0.0 0.0 0.0 0.0 0.0 0.0 0.0 0.0
0.0 0.0 0.0 0.0 0.0 0.0 0.0 0.0
0.0 0.0 0.0 0.0 0.0 0.0 0.0 0.0
0.0 0.0 0.0 0.0 0.0 0.0 0.0 0.0
0.0 0.0 0.0 0.0 0.0 0.0 0.0 0.0
0.0 0.0 0.0 0.0 0.0 0.0 0.0 0.0
0.0 0.0 0.0 0.0 0.0 0.0 0.0 0.0
0.0 0.0 0.0 0.0 0.0 0.0 0.0 0.0
0.0 0.0 0.0 0.0 0.0 0.0 0.0 0.0
0.0 0.0 0.0 0.0 0.0 0.0 0.0 0.0
0.0 0.0 0.0 0.0 0.0 0.0 0.0 0.0
0.0 0.0 0.0 0.0 0.0 0.0 0.0 0.0
0.0 0.0 0.0 0.0 0.0 0.0 0.0 0.0
0.0 0.0 0.0 0.0 0.0 0.0 0.0 0.0
0.0 0.0 0.0 0.0 0.0 0.0 0.0 0.0
0.0 0.0 0.0 0.0 0.0 0.0 0.0 0.0
0.0 0.0 0.0 0.0 0.0 0.0 0.0 0.0
0.0 0.0 0.0 0.0 0.0 0.0 0.0 0.0
0.0 0.0 0.0 0.0 0.0 0.0 0.0 0.0

network_body._body_endoder.seq_layers.0.weight f4 [256, 44]
00000000: 46af 083d 14c5 b8bd 4415 27be 8104 373e
00000010: 186a 92be b664 c63d 1f22 d83d 25c1 06be
00000020: 2b3a 2c3e 1bac db3e 8ef8 30bd b011 143e
00000030: d38a 163e e0a4 4b3e 2e5d b53d 8b78 633d
00000040: b06b 28be 6053 e13b cd29 3c3d dc5f 0e3d
00000050: a98e 2fbe bbc4 43be 7d9e 323d 8da0 013e
00000060: 392c 433e abfd 053d 6fa6 8fbe f77b 8dbd
00000070: 6f67 633e 5275 f2bd c498 fc3d 7551 c23c
00000080: 9224 c03d 38e1 333c 624e ecbd 2a35 0e3d
00000090: 07b0 46bd 5150 943d 133e 77be 18c6 eabc
000000a0: 89c5 243d 2dcd 18be db02 0abd a976 9a3c
000000b0: ba08 d9bc 3d4e e6bc e267 febc a961 423e
000000c0: 9787 8c3e 6f53 243d 40d3 02be b99c 8c3d
000000d0: 007d ac3d 6bcf 823e 5c22 043d 5268 6f3d
000000e0: 9d3a c4be 64a6 3abe a8ec a5bc 4b96 febd
000000f0: 3900 07bb f2d8 1dbe 23a8 5cbe c1f7 71be
00000100: b9dd 73bc 3ea3 223e 4cd3 9b3c eb65 923d
00000110: ee11 06bd eeb3 8d3e 4161 f13d 1ad9 3abe
00000120: 79c9 02bb 993b 0abd 3a23 85be 3055 dabe
00000130: 20b6 74bd c565 503e 6195 d13d 9638 8cbe
00000140: cab6 823e 59e9 1dbc d461 313d 7f13 9a3d
00000150: 4d38 533e 91b7 ed3d 9c09 2d3e d65d 273e
00000160: c747 543d 6a4a 93bc 2c16 533d e7e2 03bd
00000170: 4d37 813c cc7f aebb bd41 053d f1be 893e
00000180: 813a 413e d086 1fbe 3a69 c7bd ce2d 60bd
00000190: 8306 8abe 4088 a53c 71e4 ba3c 3e86 23be
000001a0: af57 a6be 64b5 e6bd bc81 06be 5053 8dbd
000001b0: 1785 ee3d c07f b63c 5e98 553e 80fe 363d
000001c0: a7ad 933e 43c9 2fbe a8bc 8dbe 85fc 913d
000001d0: 38dc c63d 9bbd 0c3e 4d3d ffbc 3f5f e0bd
000001e0: ec51 12be ba0a 823d 509b 89be b3b6 36bd
000001f0: 5a78 65bd d345 92ba 330c 5abe b4be ad3d
00000200: 5c9f 8ebe df8f 673c 1cf3 81bd 524e 623e
00000210: 39ca 103e f8d5 9bbd 24bc 513e ad73 c83d
00000220: bdcf 78be ae9e 353d f3d4 ddba be40 2abe
00000230: c78e 5e3c 9524 7c3d 080f 00bd 2c2c 6ebe
00000240: 6a9b 29bb 7fcd 883d c293 c13d 9b1c 5a3d
00000250: 2487 713e 4691 b9bc 0178 0cbd 5a71 9cbb
00000260: 1e83 943d d412 bfbc 9576 88bc 64eb 063c
00000270: dcf2 b8bc 8f38 60be a713 943c d5bc afbd
00000280: 5683 b2bd eb59 3a3e 4c14 18be a285 1abe
00000290: 44c7 e53c 44cf 993e 05d3 bcbd ac8a 17be
000002a0: 9421 76be 5d6e 463e ee7d 4dbe 8575 ee3d
000002b0: 39cd b23d 698d 153e 17c2 90bd 5c67 b23d
000002c0: 3b62 b23d cdc3 21bc 44e8 45be 4986 ed3c
000002d0: 0464 433d f797 063e 2c3c 953e 7c8d 923d
000002e0: 4db4 af3d 0be0 b53d 3866 1e3e 3a6e 1e3e
000002f0: b5c7 98bc 13b5 103d cdaa 1bbe 1371 aa3c
00000300: 7ff7 e9bc be95 d4bd 1e89 8c3b 3202 91be
00000310: 3f3f 19bd 5f35 593c a9f5 e4bd 2640 793e
00000320: aa5b d9bd 22a0 683d ff08 30bd 360d 253e
00000330: e667 203e 2d3a 8d3d 1b4f 573d b2af 65be
00000340: d955 25bd 413c 51bd 3cf6 9abe b480 a43d
00000350: 78df 2cbd 6d58 003e 024c 583e 0452 4bbd
00000360: b818 923e d792 bb3c 9e00 2dbe 2d70 77be
00000370: 4d2f 903d e49d 59be 4129 e3bc 3eb2 d23d
00000380: 078f b63d e8cd 393d dce3 ea3c f2de 1d3e
00000390: c501 b93d a991 daba 89b6 ee3d ab78 4bbe
000003a0: 48a0 acbd 0322 ec3d 6a9a 2b3e 9382 89bd
000003b0: 3a88 54be 106a 92be 89b8 1bbe 175a 33be
000003c0: cb54 85bd 8065 e73e e3ee bdbd 9f0b a33d
000003d0: b2a7 8a3d 0859 8fbd 5a58 e2bd c596 0fbe
000003e0: a1aa 6f3e 4c5f bebd 6c24 7bbd d7bd 853e
000003f0: ef3a 843e aed3 06be b963 363e ab5a 20be
0.03337028 -0.09021965 -0.16316706 0.17872812 -0.28596568 0.09687178 0.10553383 -0.13159616
0.16819064 0.42904744 -0.04320579 0.14459872 0.14701395 0.19887114 0.08855663 0.05553488
-0.1644733 0.006876394 0.0459383 0.034759387 -0.17144264 -0.19118015 0.043608177 0.12658902
0.19059838 0.03271262 -0.28056666 -0.0690841 0.22207426 -0.11838783 0.12333825 0.023720482
0.09381975 0.010978989 -0.11538388 0.03471867 -0.048507717 0.07241882 -0.24144773 -0.028658912
0.040227447 -0.14922018 -0.03369413 0.01885541 -0.026493419 -0.028113479 -0.031055395 0.18982567
0.27447197 0.04011863 -0.12775898 0.0686583 0.08422279 0.25548872 0.03225933 0.058449097
-0.38325968 -0.18227535 -0.020254448 -0.1243101 -0.0020599498 -0.1541479 -0.21548514 -0.23629667
-0.014884406 0.15882584 0.019021653 0.071483456 -0.032731943 0.27676338 0.11786128 -0.1824688
-0.0019956513 -0.033748243 -0.26003438 -0.42643118 -0.059744 0.20351322 0.1023357 -0.27386922
0.25530082 -0.009638154 0.043306187 0.0752325 0.20626946 0.11607278 0.16898197 0.1634439
0.051826265 -0.01797982 0.051534817 -0.032198813 0.01577344 -0.005325293 0.032533396 0.2690349
0.18869974 -0.1557877 -0.09736867 -0.054731183 -0.26958093 0.02020657 0.022814007 -0.15969178
-0.32488772 -0.11265066 -0.13135427 -0.06900656 0.116464786 0.022277713 0.20858905 0.044676304
0.28843424 -0.17166619 -0.27682996 0.071282424 0.09709972 0.13744204 -0.03115716 -0.10955667
-0.14289063 0.06349702 -0.26876307 -0.04460783 -0.05602298 -0.0011159725 -0.21293716 0.08483639
-0.27855957 0.014133423 -0.063451976 0.2210019 0.14139642 -0.07609171 0.20481926 0.097876884
-0.24297996 0.044340782 -0.0016924426 -0.1662626 0.013583845 0.061558325 -0.031264335 -0.23259038
-0.0025879988 0.0667982 0.09452011 0.053249937 0.23586708 -0.02265228 -0.034294132 -0.0047742547
0.07251571 -0.023324408 -0.016658107 0.008234832 -0.022576742 -0.21896575 0.018075777 -0.08580939
-0.087164566 0.18198363 -0.14851493 -0.1509004 0.028049119 0.30040944 -0.09219936 -0.14798993
-0.24036247 0.19378038 -0.2006757 0.11643509 0.08730549 0.14604725 -0.0706827 0.087111205
0.08710142 -0.009873343 -0.19326884 0.028994696 0.047702804 0.13143907 0.2914747 0.07155892
0.085793115 0.088806234 0.15468681 0.15471736 -0.018649915 0.035328936 -0.15201874 0.020805871
-0.028560398 -0.103801236 0.0042888066 -0.28321987 -0.03741383 0.013257354 -0.111796685 0.24340877
-0.10613187 0.05679334 -0.04297733 0.16118321 0.15664634 0.06895862 0.052565675 -0.22430304
-0.040365074 -0.051082853 -0.30265987 0.08032361 -0.042205304 0.12533732 0.21122745 -0.049638763
0.28534484 0.022897167 -0.16894767 -0.24163885 0.07040272 -0.21251637 -0.027729632 0.10287903
0.08913999 0.045362383 0.028673105 0.15417078 0.09033541 -0.001667549 0.116559096 -0.1987025
-0.08429009 0.11529925 0.16758123 -0.06714358 -0.20755091 -0.28596544 -0.15207113 -0.17514835
-0.065103136 0.45194626 -0.0927408 0.07961201 0.067702666 -0.06999403 -0.11052008 -0.14022358
0.23404934 -0.0929552 -0.06131403 0.261214 0.25826213 -0.13166687 0.17811479 -0.15659587

network_body._body_endoder.seq_layers.2.bias f4 [256]
00000000: 0000 0000 0000 0000 0000 0000 0000 0000
00000010: 0000 0000 0000 0000 0000 0000 0000 0000
00000020: 0000 0000 0000 0000 0000 0000 0000 0000
00000030: 0000 0000 0000 0000 0000 0000 0000 0000
00000040: 0000 0000 0000 0000 0000 0000 0000 0000
00000050: 0000 0000 0000 0000 0000 0000 0000 0000
00000060: 0000 0000 0000 0000 0000 0000 0000 0000
00000070: 0000 0000 0000 0000 0000 0000 0000 0000
00000080: 0000 0000 0000 0000 0000 0000 0000 0000
00000090: 0000 0000 0000 0000 0000 0000 0000 0000
000000a0: 0000 0000 0000 0000 0000 0000 0000 0000
000000b0: 0000 0000 0000 0000 0000 0000 0000 0000
000000c0: 0000 0000 0000 0000 0000 0000 0000 0000
000000d0: 0000 0000 0000 0000 0000 0000 0000 0000
000000e0: 0000 0000 0000 0000 0000 0000 0000 0000
000000f0: 0000 0000 0000 0000 0000 0000 0000 0000
00000100: 0000 0000 0000 0000 0000 0000 0000 0000
00000110: 0000 0000 0000 0000 0000 0000 0000 0000
00000120: 0000 0000 0000 0000 0000 0000 0000 0000
00000130: 0000 0000 0000 0000 0000 0000 0000 0000
00000140: 0000 0000 0000 0000 0000 0000 0000 0000
00000150: 0000 0000 0000 0000 0000 0000 0000 0000
00000160: 0000 0000 0000 0000 0000 0000 0000 0000
00000170: 0000 0000 0000 0000 0000 0000 0000 0000
00000180: 0000 0000 0000 0000 0000 0000 0000 0000
00000190: 0000 0000 0000 0000 0000 0000 0000 0000
000001a0: 0000 0000 0000 0000 0000 0000 0000 0000
000001b0: 0000 0000 0000 0000 0000 0000 0000 0000
000001c0: 0000 0000 0000 0000 0000 0000 0000 0000
000001d0: 0000 0000 0000 0000 0000 0000 0000 0000
000001e0: 0000 0000 0000 0000 0000 0000 0000 0000
000001f0: 0000 0000 0000 0000 0000 0000 0000 0000
00000200: 0000 0000 0000 0000 0000 0000 0000 0000
00000210: 0000 0000 0000 0000 0000 0000 0000 0000
00000220: 0000 0000 0000 0000 0000 0000 0000 0000
00000230: 0000 0000 0000 0000 0000 0000 0000 0000
00000240: 0000 0000 0000 0000 0000 0000 0000 0000
00000250: 0000 0000 0000 0000 0000 0000 0000 0000
00000260: 0000 0000 0000 0000 0000 0000 0000 0000
00000270: 0000 0000 0000 0000 0000 0000 0000 0000
00000280: 0000 0000 0000 0000 0000 0000 0000 0000
00000290: 0000 0000 0000 0000 0000 0000 0000 0000
000002a0: 0000 0000 0000 0000 0000 0000 0000 0000
000002b0: 0000 0000 0000 0000 0000 0000 0000 0000
000002c0: 0000 0000 0000 0000 0000 0000 0000 0000
000002d0: 0000 0000 0000 0000 0000 0000 0000 0000
000002e0: 0000 0000 0000 0000 0000 0000 0000 0000
000002f0: 0000 0000 0000 0000 0000 0000 0000 0000
00000300: 0000 0000 0000 0000 0000 0000 0000 0000
00000310: 0000 0000 0000 0000 0000 0000 0000 0000
00000320: 0000 0000 0000 0000 0000 0000 0000 0000
00000330: 0000 0000 0000 0000 0000 0000 0000 0000
00000340: 0000 0000 0000 0000 0000 0000 0000 0000
00000350: 0000 0000 0000 0000 0000 0000 0000 0000
00000360: 0000 0000 0000 0000 0000 0000 0000 0000
00000370: 0000 0000 0000 0000 0000 0000 0000 0000
00000380: 0000 0000 0000 0000 0000 0000 0000 0000
00000390: 0000 0000 0000 0000 0000 0000 0000 0000
000003a0: 0000 0000 0000 0000 0000 0000 0000 0000
000003b0: 0000 0000 0000 0000 0000 0000 0000 0000
000003c0: 0000 0000 0000 0000 0000 0000 0000 0000
000003d0: 0000 0000 0000 0000 0000 0000 0000 0000
000003e0: 0000 0000 0000 0000 0000 0000 0000 0000
000003f0: 0000 0000 0000 0000 0000 0000 0000 0000
0.0 0.0 0.0 0.0 0.0 0.0 0.0 0.0
0.0 0.0 0.0 0.0 0.0 0.0 0.0 0.0
0.0 0.0 0.0 0.0 0.0 0.0 0.0 0.0
0.0 0.0 0.0 0.0 0.0 0.0 0.0 0.0
0.0 0.0 0.0 0.0 0.0 0.0 0.0 0.0
0.0 0.0 0.0 0.0 0.0 0.0 0.0 0.0
0.0 0.0 0.0 0.0 0.0 0.0 0.0 0.0
0.0 0.0 0.0 0.0 0.0 0.0 0.0 0.0
0.0 0.0 0.0 0.0 0.0 0.0 0.0 0.0
0.0 0.0 0.0 0.0 0.0 0.0 0.0 0.0
0.0 0.0 0.0 0.0 0.0 0.0 0.0 0.0
0.0 0.0 0.0 0.0 0.0 0.0 0.0 0.0
0.0 0.0 0.0 0.0 0.0 0.0 0.0 0.0
0.0 0.0 0.0 0.0 0.0 0.0 0.0 0.0
0.0 0.0 0.0 0.0 0.0 0.0 0.0 0.0
0.0 0.0 0.0 0.0 0.0 0.0 0.0 0.0
0.0 0.0 0.0 0.0 0.0 0.0 0.0 0.0
0.0 0.0 0.0 0.0 0.0 0.0 0.0 0.0
0.0 0.0 0.0 0.0 0.0 0.0 0.0 0.0
0.0 0.0 0.0 0.0 0.0 0.0 0.0 0.0
0.0 0.0 0.0 0.0 0.0 0.0 0.0 0.0
0.0 0.0 0.0 0.0 0.0 0.0 0.0 0.0
0.0 0.0 0.0 0.0 0.0 0.0 0.0 0.0
0.0 0.0 0.0 0.0 0.0 0.0 0.0 0.0
0.0 0.0 0.0 0.0 0.0 0.0 0.0 0.0
0.0 0.0 0.0 0.0 0.0 0.0 0.0 0.0
0.0 0.0 0.0 0.0 0.0 0.0 0.0 0.0
0.0 0.0 0.0 0.0 0.0 0.0 0.0 0.0
0.0 0.0 0.0 0.0 0.0 0.0 0.0 0.0
0.0 0.0 0.0 0.0 0.0 0.0 0.0 0.0
0.0 0.0 0.0 0.0 0.0 0.0 0.0 0.0
0.0 0.0 0.0 0.0 0.0 0.0 0.0 0.0

network_body._body_endoder.seq_layers.2.weight f4 [256, 256]
00000000: 3f79 85bd 3205 3c3d 29a1 0bbc f8c8 12bd
00000010: 57bd 683d 4c88 383b c92b 29bd e762 053d
00000020: ef27 8ebd 08c4 bc3d 9897 32bd 18fd 35bd
00000030: e8cc bebb f03b db3c e67b a73d bdeb 72bd
00000040: 61fa e8bc 0b42 ab3d 67e8 8d3d 8c56 2f3d
00000050: 5fde 0f3d ceeb e03c ed26 8b3d 2bd3 b6bc
00000060: fa5c 903d 6df6 503d 03de 623c 0372 493d
00000070: aa3d e4bd 4f3b b2bd 2529 cc3d f1bf 043d
00000080: b4bb 383c c22c c7b8 e3cc b63d 512d 14bc
00000090: 6a1d 013d a4d8 c23d 5e0c e9bc 85c0 ff3c
000000a0: 863d e83d 03e4 263d 1c45 d8bd 7337 163d
000000b0: dd4d 6dbc 54c7 20bd 6384 4e3c e1d2 103c
000000c0: 97f7 8f3d 6264 2b3a fa8d 993d 4243 03be
000000d0: 703a 483d f047 083d 40c9 263d 6aab 39bc
000000e0: f45a f53d 3a9b 913c daf6 933d 92e2 0f3c
000000f0: 3509 873d ab7b cf3c d2c4 0dbd dd1d a73a
00000100: 957d 6b3c 5a91 f43c ea93 b5ba a771 55bd
00000110: c238 c93c 5777 6dbd e167 5ebd 1e6f b43d
00000120: 9748 dc3c 5023 c33c 19f4 55bd 66fd a93d
00000130: a90c 25bc 7d5e 34bd 6af0 533d b7c6 91bd
00000140: 198d 52bc 7584 c83d 1f07 9f3c 819b a9bd
00000150: e1f8 2dbd 239b 983d 1776 8cbc 542f d13b
00000160: e062 0ebd 3348 9a3d d696 4cbd f109 363d
00000170: 79de 91bb 1323 64bd ebef 9a3d 59a7 283d
00000180: 1812 65bd 8f4f 503d e63b 8a3d 416e cc3d
00000190: 32fb a8bd 569a 153d 6e08 ac3d 3fdf c33d
000001a0: b803 1b3c 4c43 57bd cd43 9d3d 4f0f 88bc
000001b0: 24c7 8b3d 541a a1bd 80a4 2b3e ddcf 943d
000001c0: 5d95 80bc 1950 89bd 2265 99bd 0929 3dbd
000001d0: 6ee2 b9bc 001b 7cbd 265f 813c 170e 1cbd
000001e0: d11a 80bd c011 bb3d dfdb a1bc cd15 a5b8
000001f0: f72a e93c 9b6b 923d 6760 8dbb ab37 003d
00000200: 7209 f9bc 44e2 afbc f438 11bd e2c0 443e
00000210: 94e9 913d 3394 e33d 0088 b5bb fbcc fc3b
00000220: c6ff 8cbd 42af ce3d 7c84 d1bd 7bd1 053e
00000230: 6bc7 d2bd dd61 913d a264 ab3d 15ac 44bd
00000240: 66ac 39bd c94f 46bd 6722 d53c a46b 843d
00000250: df8f c23c 5068 12bd a295 1c3d 893d 063c
00000260: b791 42bd 4bac f1bc 3230 b6bd 6a4f 3cbc
00000270: 2085 093d f76a ddbc ebd9 313a 4eb8 883d
00000280: 0b9f 033d 0bce 7cbd d465 eebc 16c9 073e
00000290: 2eba 523d c765 03bd 5293 4dbd 0802 9d3d
000002a0: 51f6 5ebc 2317 02bd ece1 e3bb 09a4 e73c
000002b0: 3acc 6bbc 6ca1 c73d 45d5 793d 4376 523d
000002c0: 9c5d 8cbd 67ef 1cbd 3eaf 1b3d 49b7 203c
000002d0: 3ed4 393c 3e82 c23d 75e3 dc3d c602 b1bd
000002e0: d76b f8bd 0886 873c c84a 913c 34fc a83c
000002f0: f9de 823d c219 38bd 4508 1eba 4af5 adb9
00000300: 2cdf 3dbd 4385 2fbd 00eb 1d3d 1425 06bd
00000310: bb7b c33d abea 8f3d 9c79 39bd 00ee e53d
00000320: 363e d4bd b563 9e3d 2c5e ec3c 5479 17be
00000330: 4492 adbd cdc2 4fbd 35fa e33c 31cd ba3c
00000340: e444 cfbd 2d33 c5bd c1bc 88bd 33b6 a13d
00000350: f428 8dbd fd0b adbd 6c31 55bd 3ddf 58bc
00000360: a78e 463d 4420 d5bb 9e04 8a3d b30e 1dbe
00000370: 70ff bbbd 0fa5 17bd 059c 59bd c629 6ebd
00000380: 875a 183c 5e03 003b 2b4b dbbd d8b4 a13d
00000390: 2818 13bd a8ed c9bd 8619 c6bd c3ac 743b
000003a0: ff93 abbc 60eb bb3c 8c44 8c3c a7da 0dbe
000003b0: 0036 ff3c 0043 1ebe 14d4 02bc 7fd4 ee3d
000003c0: 3cec 8bbd dbd8 783d 65d7 aebd f472 36bd
000003d0: b5b8 d73c b085 203d ec53 bcbc 122d c53d
000003e0: fd45 a93d a37d b33d c89b 8fbc 97c6 b43d
000003f0: 1cfa be3c 1553 28bd c685 863c 77f6 ac3d
-0.065172665 0.045903392 -0.00852231 -0.03583619 0.056821194 0.002815741 -0.041301522 0.032565024
-0.069412105 0.092170775 -0.043601602 -0.044430822 -0.0058227666 0.026761979 0.081779286 -0.05930685
-0.028439702 0.08362206 0.06929093 0.042807147 0.03512418 0.02745619 0.06794534 -0.02231749
0.07048984 0.05101626 0.013846877 0.049180996 -0.11144574 -0.087027185 0.09968785 0.032409612
0.011275221 -9.497396e-05 0.08925798 -0.009044007 0.031522192 0.09513977 -0.02844828 0.03121973
0.1133986 0.040744793 -0.105600566 0.036673974 -0.014483896 -0.039252594 0.012604806 0.00883934
0.07029646 0.00065380905 0.07497783 -0.12818626 0.048883855 0.03327173 0.04071927 -0.011332372
0.119802386 0.017774213 0.072248176 0.008782046 0.06593553 0.025327524 -0.03461153 0.0012749989
0.014373203 0.029854465 -0.0013853286 -0.05211034 0.024563197 -0.05797514 -0.054298285 0.088102564
0.026890082 0.02382055 -0.052234743 0.08300285 -0.010073819 -0.044035424 0.05174295 -0.0711798
-0.012851023 0.09790889 0.019412575 -0.08281613 -0.042473678 0.07451465 -0.017146153 0.006383816
-0.034762263 0.07533302 -0.049948536 0.044443075 -0.0044515696 -0.055697512 0.07565292 0.04117522
-0.05592546 0.050857123 0.06749706 0.09981967 -0.08251037 0.03652414 0.08400045 0.09564065
0.009461336 -0.052554414 0.076789476 -0.016608862 0.068250924 -0.0786635 0.1676197 0.07266209
-0.015696222 -0.067047305 -0.07489993 -0.046181712 -0.022690978 -0.061549187 0.01579244 -0.038099375
-0.06255115 0.09134245 -0.019758163 -7.871874e-05 0.02846287 0.0714943 -0.0043144706 0.03130309
-0.030400012 -0.021470197 -0.035454705 0.19214204 0.071246296 0.11112251 -0.005539894 0.0077148653
-0.068847224 0.100920215 -0.102303475 0.13068192 -0.10291942 0.07098744 0.083688036 -0.048015673
-0.045330428 -0.048415933 0.02601738 0.06465843 0.023750244 -0.03574401 0.03822864 0.008193382
-0.047502246 -0.029501101 -0.08895911 -0.011493543 0.033574224 -0.027028544 0.00067844865 0.06675778
0.032134097 -0.061719935 -0.02910129 0.13260302 0.051447086 -0.032079484 -0.050189324 0.07666403
-0.013608531 -0.031760346 -0.006954422 0.02827646 -0.014391953 0.09747586 0.060994405 0.051382314
-0.06853792 -0.03831425 0.03800892 0.009809324 0.011342106 0.09497498 0.107855715 -0.08643107
-0.12129944 0.016543403 0.017735854 0.020628072 0.06390185 -0.04494644 -0.0006028454 -0.00033179886
-0.04635541 -0.042851698 0.03855419 -0.032750204 0.09545084 0.07027181 -0.04528199 0.112270355
-0.10363428 0.07733861 0.028853498 -0.14792377 -0.084751636 -0.050722886 0.027829269 0.022802921
-0.10120562 -0.09628902 -0.06676627 0.0789608 -0.06892577 -0.08449552 -0.052049085 -0.013236818
0.048475888 -0.0065040905 0.06739162 -0.15337639 -0.0917958 -0.037022647 -0.053127307 -0.058145307
0.009298927 0.0019533257 -0.107076965 0.07895821 -0.03591171 -0.098597825 -0.09672837 0.003733442
-0.020944593 0.022939384 0.01712253 -0.1385294 0.031153679 -0.15455246 -0.007985134 0.11661624
-0.068321675 0.060753684 -0.08537177 -0.04454322 0.026333192 0.039189994 -0.022989236 0.09627737
0.08265302 0.08764198 -0.017530337 0.088269405 0.02331262 -0.04109486 0.01642121 0.08445447
