Assets/ML-Agents/results/Andrew ML/results/sc_01 - Copy/SimpleCollector/SimpleCollector-85349.onnx (onnx, 305000 bytes, 11 tensors)

action_model._discrete_distribution.branches.0.bias f4 [3]
0.010390246 0.0027266783 -0.016594285
00000000: da3b 2a3c 12b2 323b bdf0 87bc

action_model._discrete_distribution.branches.0.weight f4 [3, 256]
0.010095953 -0.0067785503 -0.007221275 -0.023241032 -0.0041792667 0.020738546 0.022162111 -0.0029923627
0.0016099936 0.0075497865 -0.0115009975 -0.022627171 0.005472349 0.010100356 3.157158e-05 -0.018153746
-0.0143862665 0.012488364 -0.016770994 -0.015877455 0.00830959 -0.008963118 -0.017945714 -0.023867697
0.0081003895 0.028206147 0.024664115 0.02567376 0.00874138 0.0031020853 0.018411715 -0.0010180677
0.000490111 0.012229946 0.015147092 -0.016650587 0.001048504 -0.02505332 0.0040077735 0.00056811806
0.01123774 -0.0024131418 -0.004305445 -0.010597178 -0.0013642428 0.0034421787 0.009353347 0.015151993
0.010457441 0.004893085 0.013737691 -0.013597675 0.004384169 -0.005904856 -0.006636637 -0.012690144
-0.004058615 0.006560146 -0.0019354986 -0.005026901 0.00026760777 0.015109757 -0.0063472637 0.0017744238
-0.0094462 0.009363227 0.0002631393 0.006251539 0.004403426 0.032729212 0.003648168 0.0066348766
0.021647714 -0.003788031 -0.019375212 -0.0061521423 0.009130432 0.007749265 0.018024754 0.013913506
0.021381926 -0.009761535 -0.005255996 -0.0066464627 -0.008912047 0.009525099 -0.007742739 -0.012335453
0.014180904 -0.008058703 0.0073438515 0.0053486535 0.00076718844 -0.0023628327 0.021488216 -0.021439495
0.0059507554 -0.013545101 0.01867536 -0.009747245 0.005321786 0.01359188 -0.007937552 0.0077021034
-0.011113536 -0.022501167 0.009992362 -0.0072650183 0.0074687693 0.033203732 0.018056948 0.0015135051
0.022581082 -0.0034886522 -0.019651674 -0.013216775 -0.00064003514 -0.013986234 0.0002802508 0.014451216
-0.021965602 -0.0063954373 0.018423004 0.0043867226 -0.0046442505 -0.016738664 0.011061916 0.011762511
-0.007876433 0.023664797 -0.0043722265 0.007271958 -0.009874903 0.0065801893 -0.0003164333 0.014626389
0.014244739 0.0028579328 -0.010529472 0.016917365 0.0050140996 0.02570632 -0.0003339473 0.013642817
0.017336683 -0.00480828 0.0074431836 -0.007430385 -0.01920143 0.009865606 -0.01759491 -0.017331302
-0.00626311 -0.00106774 0.015058142 0.013234561 0.0026470744 8.257042e-05 0.017696582 -0.0039636996
0.009439849 -0.013850411 0.010453425 0.005042153 -0.036490858 0.0075284727 -0.013829655 -0.0033413575
-0.024448622 -0.0022230698 -0.009354883 -0.014135826 0.004397413 -0.009635077 0.008060927 0.002104242
-0.0068506417 0.02637539 -0.0015700327 -0.008195061 -0.010776378 0.019080587 0.010866996 -0.01800808
0.01267901 -0.004333669 0.014182897 0.0019957223 0.01684767 -0.0049539064 0.006834807 0.0116455015
0.0008109904 0.01142137 0.016492475 -0.0035815814 -0.01120155 0.008779751 -0.017843828 -0.018092716
0.01853844 -0.0121374605 0.00080739387 -0.006442969 -0.0044524716 -0.012915397 0.01048255 0.013330232
0.012885424 0.0047421046 -0.010648119 -0.018323403 0.0020529004 0.005094083 0.011591375 -0.01313219
-0.0025718508 0.002003296 0.0044571715 0.0021761437 -0.0039881878 0.0064881677 0.0091523025 0.0024168112
0.012614539 -0.0056805527 -0.00010023987 -0.0062363734 -0.0056090816 0.013093352 0.013910348 0.0010984231
0.010214433 0.0040345145 -0.004274066 0.0156080555 -0.0037586766 0.013848088 -0.00781524 0.0048935413
0.0033704054 -0.0039585624 -0.016469857 0.022651933 0.01617177 0.0015814018 -0.01604086 -0.018922342
-0.0062452676 0.010747603 -0.027326213 -0.0022438 -0.0011720541 0.007999262 -0.012918212 -0.010770469
00000000: 7f69 253c 9a1e debb 72a0 ecbb fa63 bebc
00000010: 3bf2 88bb e2e3 a93c 518d b53c 841b 44bb
00000020: 6c06 d33a 3364 f73b ae6e 3cbc 9e5c b9bc
00000030: 6451 b33b f77b 253c ba6b 0438 2ab7 94bc
00000040: 60b4 6bbc ff9b 4c3c 5363 89bc 7011 82bc
00000050: f224 083c 0bda 12bc e402 93bc 3086 c3bc
00000060: 7fb7 043c 9410 e73c 660c ca3c c751 d23c
00000070: 0138 0f3c 5b4c 4b3b 2ad4 963c af70 85ba
00000080: cb7a 003a 1d60 483c 822b 783c d066 88bc
00000090: f56d 893a 9f3c cdbc a453 833b c2ed 143a
000000a0: 7f1e 383c cd25 1ebb b114 8dbb c99f 2dbc
000000b0: 64d0 b2ba 2d96 613b c83e 193c 1140 783c
000000c0: b055 2b3c 2c56 a03b 0d14 613c c8c8 5ebc
000000d0: 13a9 8f3b 867d c1bb 2578 d9bb 52ea 4fbc
000000e0: 21fe 84bb 7ef6 d63b 8eb0 fdba b4b8 a4bb
000000f0: b54d 8c39 ea8e 773c b5fc cfbb c893 e83a
00000100: 3cc4 1abc 3868 193c f6f5 8939 b6d9 cc3b
00000110: 9d4a 903b 110f 063d 1a16 6f3b 6169 d93b
00000120: 8c56 b13c 9d40 78bb c4b8 9ebc e997 c9bb
00000130: cf97 153c 8ced fd3b a6a8 933c 79f5 633c
00000140: 2629 af3c d8ee 1fbc 7d3a acbb 92ca d9bb
00000150: d603 12bc 290f 1c3c cdb6 fdbb a41a 4abc
00000160: 0657 683c a608 04bc b1a4 f03b c243 af3b
00000170: 251d 493a c1d9 1abb 0e08 b03c e1a1 afbc
00000180: 8efe c23b 45ec 5dbc 12fd 983c e9b2 1fbc
00000190: 6062 ae3b 7ab0 5e3c 820c 02bc ed61 fc3b
000001a0: 8c15 36bc 5e54 b8bc 01b7 233c 640f eebb
000001b0: 94bc f43b a300 083d 2aec 933c ce60 c63a
000001c0: f6fb b83c dfa1 64bb 8cfc a0bc 2c8b 58bc
000001d0: 08c8 27ba 8426 65bc a0ee 9239 cbc4 6c3c
000001e0: 35f1 b3bc d190 d1bb d7eb 963c 7fbe 8f3b
000001f0: cc2e 98bb 861f 89bc 0a3d 353c 8cb7 403c
00000200: 280c 01bc addc c13c e544 8fbb 9b49 ee3b
00000210: 58ca 21bc a19e d73b f5e6 a5b9 86a3 6f3c
00000220: c462 693c 284c 3b3b ce83 2cbc 4996 8a3c
00000230: 514d a43b 0f96 d23c a615 afb9 1f86 5f3c
00000240: a905 8e3c c78e 9dbb f3e5 f33b 967a f3bb
00000250: 514c 9dbc 5aa3 213c 3323 90bc 60fa 8dbc
00000260: c63a cdbb 69f3 8bba 6db6 763c c6d5 583c
00000270: 8a7a 2d3b a829 ad38 6cf8 903c ece1 81bb
00000280: 99a9 1a3c d6ec 62bc d844 2b3c a538 a53b
00000290: 7077 15bd 68b1 f63b c795 62bc adfa 5abb
000002a0: 7a48 c8bc ecb0 11bb 3945 19bc f499 67bc
000002b0: 2d18 903b 71dc 1dbc fa11 043c 53e7 093b
000002c0: 597b e0bb 3411 d83c 8ec9 cdba 9444 06bc
000002d0: 688f 30bc e44e 9c3c 7c0b 323c ae85 93bc
000002e0: 9fbb 4f3c 7301 8ebb 625f 683c aaca 023b
000002f0: 2004 8a3c 6154 a2bb 84f6 df3b c6cc 3e3c
00000300: a598 543a b320 3b3c 3a1b 873c f7b8 6abb
00000310: b586 37bc f2d8 0f3c 382d 92bc 2d37 94bc
00000320: eddd 973c 33dc 46bc 49a7 533a 8b1f d3bb
00000330: 0ae6 91bb 1a9b 53bc 00bf 2b3c 0c67 5a3c
00000340: 631d 533c a863 9b3b 7375 2ebc f61a 96bc
00000350: f489 063b 44ec a63b c0e9 3d3c 6628 57bc
00000360: 7f8c 28bb bb49 033b 770d 923b a29d 0e3b
00000370: 58af 82bb b29a d43b 8af3 153c 5d63 1e3b
00000380: 36ad 4e3c ee23 babb df37 d2b8 7e5a ccbb
00000390: 63cc b7bb 8085 563c 3ae8 633c f7f8 8f3a
000003a0: 705a 273c f633 843b 770d 8cbb eeb8 7f3c
000003b0: 2154 76bb 17e3 623c 7e0b 00bc 005a a03b
000003c0: 05e2 5c3b d4b6 81bb cbeb 86bc 8c90 b93c
000003d0: a97a 843c 0a47 cf3a 1f68 83bc 0703 9bbc
000003e0: 1aa5 ccbb b716 303c 39db dfbc b80c 13bb
000003f0: 9c9f 99ba 560f 033c e9a6 53bc 9f76 30bc

action_model._discrete_distribution.branches.1.bias f4 [3]
0.013767319 -0.0046753543 -0.007401853
00000000: 5290 613c b733 99bb 3e8b f2bb

action_model._discrete_distribution.branches.1.weight f4 [3, 256]
0.040500645 0.004886562 -0.010276217 -0.022843866 -0.008159355 -0.0021070368 0.012319683 0.014081446
-0.016071286 0.016704975 -0.023372948 -0.01340335 -0.0031705434 0.0024102458 -0.011298729 -0.0051900423
0.022567948 0.009239215 0.004005944 0.031129753 0.0069326255 0.012517853 -0.011303426 0.0014058646
-0.012993947 0.009482051 -3.7772763e-05 -0.0044762595 0.0066595315 -0.012268651 0.006489836 0.0031565276
-0.017434351 0.012549257 0.0011133292 -0.02350484 0.008307457 -0.00067734293 0.029767474 -0.009618115
0.002428898 -0.011656549 -0.014073314 -0.013607898 -0.0065648225 -0.0045947568 0.021903291 0.011426312
-0.007659461 -0.015060065 0.0318044 -0.020900238 0.020379359 -0.006674375 -0.015749916 0.007843507
-0.000899809 -0.013040364 0.0076380386 -0.004377532 0.018344214 -0.018904544 -0.003837288 0.038091384
-0.016814249 -0.002020935 -0.0019126518 0.016423712 -0.016470715 0.0059774756 0.011390508 -0.0027259935
-0.0043272427 -0.0023724104 -0.0024058325 -0.024671834 0.0043371217 0.0058986903 0.020553628 0.012675356
-0.004694029 -0.021318335 0.022380374 0.028882828 -0.018087862 -0.014418078 0.015590767 -0.006709346
0.00052469556 -0.0013690778 0.0003609058 0.013637224 -0.012768005 0.005041127 0.011369434 -0.0032783046
0.012909095 -0.007178834 0.015657999 -0.002974725 -0.018816609 0.0082351435 -0.020457383 -0.019830097
0.013828175 0.009506522 -0.004966784 0.007897336 -0.008554026 0.005190064 -0.0015777303 0.008391283
-0.021731123 0.019146292 -0.0029886218 -0.010413392 -0.006651998 0.021102156 -0.016199863 0.017405001
-0.023327976 0.012312127 0.004632014 -0.019176789 0.003408981 -0.027296258 0.004055509 -0.016370798
-0.019692643 0.010338723 0.021190548 -0.002878819 -0.007276872 -0.01162399 -0.0028751686 0.031451657
0.03836025 0.013376306 0.01646727 -0.015409304 -0.018625736 0.009049043 0.02988753 0.0071793366
0.0108681265 0.005780912 -0.001510391 -0.019139893 0.014004218 -0.0029138916 -0.00875534 0.0074131414
-0.019383298 0.028524404 -0.0075819613 -0.0026625788 -0.0015226686 0.0052593444 0.017694676 0.0137812495
0.0049175248 -0.00027414737 -0.02242502 -0.014632936 0.018084299 0.010651213 -0.00802749 -0.015745748
0.003388476 -0.000631232 -0.009002983 -0.017778173 0.00022944414 -0.029181229 -0.009087393 -0.024888657
0.0064994954 0.0047614174 0.023040157 0.00025117534 0.0009157929 -0.0110338135 0.01002855 0.0034790144
0.0046787574 -0.008449443 -0.005734621 -0.03213226 -0.013346915 -0.014290474 0.010477741 -0.0053690467
0.0026676136 0.02386594 0.010966283 0.025230963 0.011887422 0.001101189 -0.0021694526 -0.0013640623
-0.0015877279 -0.019136308 0.00237675 -0.00899489 0.013355126 -0.026116226 0.015363103 0.029618993
-0.0036503773 0.01923987 -0.017018145 -0.008469809 -0.008440992 0.013508288 0.009373601 -0.0027131212
-0.008688971 0.016992657 0.013620335 0.005471941 -0.009592895 0.041203417 -0.00053555565 0.0075880596
-0.004145803 -0.015940093 0.016764684 0.014999389 -0.026428519 -0.0032244942 0.0047607436 0.00083665905
-0.015292334 -0.013255676 0.036791753 0.038654618 0.017590053 0.0005979403 -0.0090603195 -0.023975015
-0.013545516 -0.0070129037 -0.003957561 -0.016340325 0.008757192 -0.019713 0.008975063 -0.025730195
9.609345e-05 -0.0031257893 -0.0061168484 -0.003318265 0.009101074 0.01110601 -0.022312408 -0.010802055
00000000: 01e4 253d 741f a03b 945d 28bc 0f23 bbbc
00000010: d1ae 05bc 3616 0abb 7fd8 493c deb5 663c
00000020: eea7 83bc dfd8 883c a078 bfbc b999 5bbc
00000030: e4c8 4fbb 37f5 1d3b 4e1e 39bc 3b11 aabb
00000040: 6be0 b83c 1460 173c 4b44 833b d303 ff3c
00000050: 142b e33b ae17 4d3c 0132 39bc fd44 b83a
00000060: 90e4 54bc 9b5a 1b3c 326e 1eb8 96ad 92bb
00000070: 3338 da3b 7402 49bc b1a8 d43b bfdd 4e3b
00000080: 7cd2 8ebc 669b 4d3c 21ed 913a 398d c0bc
00000090: 001c 083c b78f 31ba ebda f33c 4c95 1dbc
000000a0: 252e 1f3b 1cfb 3ebc c293 66bc a9f3 5ebc
000000b0: b91d d7bb 9d8f 96bb 886e b33c 6d35 3b3c
000000c0: 37fc fabb 7ebe 76bc 5545 023d fa36 abbc
000000d0: 9df2 a63c b7b4 dabb f805 81bc 0e82 003c
000000e0: 29e1 6bba 40a7 55bc 8348 fa3b 6671 8fbb
000000f0: 9b46 963c b4dd 9abc 027b 7bbb b605 1c3d
00000100: 09be 89bc aa71 04bb f2b1 faba 058b 863c
00000110: 98ed 86bc b3de c33b 419f 3a3c 95a6 32bb
00000120: 8bcb 8dbb 717a 1bbb 2cab 1dbb 961c cabc
00000130: 6a1e 8e3b cd49 c13b 1560 a83c 4cac 4f3c
00000140: 5fd0 99bb caa3 aebc 0c57 b73c ae9b ec3c
00000150: ff2c 94bc cd39 6cbc 6b70 7f3c 13da dbbb
00000160: b98b 093a a172 b3ba f537 bd39 aa6e 5f3c
00000170: e530 51bc 0a30 a53b dd46 3a3c d3d8 56bb
00000180: ab80 533c 6d3c ebbb 3445 803c 9bf3 42bb
00000190: 4a25 9abc b2ec 063c 3e96 a7bc ba72 a2bc
000001a0: 928f 623c 3ec1 1b3c 67c0 a2bb d463 013c
000001b0: 2f26 0cbc 6a11 aa3b d8cb ceba 987b 093c
000001c0: 7805 b2bc afd8 9c3c c1dc 43bb ef9c 2abc
000001d0: 01f9 d9bb 6ede ac3c 93b5 84bc ef94 8e3c
000001e0: 501a bfbc ceb8 493c 26c8 973b a418 9dbc
000001f0: 3669 5f3b 679c dfbc 13e4 843b 0d1c 86bc
00000200: 7752 a1bc bf63 293c cd97 ad3c 91aa 3cbb
00000210: d472 eebb 8c72 3ebc 536d 3cbb 74d3 003d
00000220: a31f 1d3d 4b28 5b3c 5ee6 863c 4e77 7cbc
00000230: 0095 98bc 7042 143c b1d6 f43c a440 eb3b
00000240: 3a10 323c ce6d bd3b 50f8 c5ba 44cb 9cbc
00000250: f371 653c fdf6 3ebb 8f72 0fbc f0e9 f23b
00000260: b9c9 9ebc 03ac e93c 1a72 f8bb a97e 2ebb
00000270: 4894 c7ba 9456 ac3b 6df4 903c c0ca 613c
00000280: 3023 a13b 70bb 8fb9 adb4 b7bc fbbe 6fbc
00000290: 8625 943c 6d82 2e3c bc85 03bc 3afd 80bc
000002a0: 3211 5e3b 4379 25ba 3f81 13bc 88a3 91bc
000002b0: f196 7039 790d efbc 4ae3 14bc 4ce3 cbbc
000002c0: b8f9 d43b aa05 9c3b b6be bc3c 2fb0 8339
000002d0: d211 703a 2bc7 34bc ca4e 243c 2d00 643b
000002e0: 4350 993b 886f 0abc 7de9 bbbb 1e9d 03bd
000002f0: 05ad 5abc 9822 6abc d5aa 2b3c d4ee afbb
00000300: 21d3 2e3b 8182 c33c edab 333c 2ab1 ce3c
00000310: 76c3 423c c555 903a 602d 0ebb 56ca b2ba
00000320: 4f1b d0ba bfc3 9cbc 40c3 1b3b 4e5f 13bc
00000330: 75cf 5a3c b2f1 d5bc 86b5 7b3c 88a3 f23c
00000340: 2b3b 6fbb ef9c 9d3c a369 8bbc f4c4 0abc
00000350: 164c 0abc de51 5d3c bb93 193c 9fce 31bb
00000360: 305c 0ebc 2f34 8b3c d327 5f3c f84d b33b
00000370: 852b 1dbc eac4 283d 8864 0cba 42a5 f83b
00000380: 84d9 87bb cc94 82bc 1756 893c ffbf 753c
00000390: 9f80 d8bc 0952 53bb 0300 9c3b 3d53 5b3a
000003a0: b38c 7abc 562e 59bc f3b2 163d 4e54 1e3d
000003b0: 0419 903c 18bf 1c3a bc71 14bc 4067 c4bc
000003c0: 03ee 5dbc 80cc e5bb 6eae 81bb 25dc 85bc
000003d0: 537a 0f3c 287d a1bc 250c 133c 21c8 d2bc
000003e0: c785 c938 0bda 4cbb d86f c8bb 4077 59bb
000003f0: ac1c 153c fbf5 353c 83c8 b6bc 1afb 30bc

action_model._discrete_distribution.branches.2.bias f4 [3]
0.0011226295 -0.004810506 0.004834661
00000000: 3225 933a 73a1 9dbb 136c 9e3b

action_model._discrete_distribution.branches.2.weight f4 [3, 256]
0.041827224 0.023651345 -0.028904311 -0.020520685 -0.018776702 -0.006182851 0.0075876317 0.011166821
0.01999388 -0.0024861845 -0.010254179 -0.019174911 -0.0036359949 -0.013240031 0.0055611553 -0.007887479
-0.0047133476 -0.009461654 0.005833416 0.003251815 -0.0067356015 -0.003874133 -0.0027700725 -0.0008424364
-0.014519639 -0.0010067932 -0.0056743724 0.0063763084 0.0050449735 0.023900418 0.0039539714 0.012776516
-0.011366768 0.004981047 0.00014252703 -0.008251178 -0.007555845 0.012336833 0.0062448415 -0.032037012
0.017631989 -0.0018842259 -0.00013074475 0.002969748 0.013168888 -0.011512761 -0.0040616384 -0.022028172
-0.0049519087 0.0012623135 0.022694098 0.0028255805 0.021678215 -0.013233496 0.012911155 0.0030822703
0.01921369 -0.00016222199 -0.022201497 -0.011978787 -0.008303976 -0.015846383 -0.013103552 0.042102363
-0.02638201 0.0014534808 0.016004471 0.024490118 -0.0070239953 0.0054455018 -0.014764651 0.010563309
-0.012331258 -0.010397939 0.017132992 -0.0029270984 -0.002552465 -0.0127606075 0.00824114 -0.00044896532
-0.00025508154 0.00091227563 0.03129425 -0.010889331 0.008856585 -0.015471037 -0.0089322515 -0.0072730845
-0.009711815 -0.0017153422 -0.020044213 -0.0055066682 -0.0038414525 0.013092679 0.004167613 0.012990254
-0.020396464 0.02436981 0.0062745526 0.0036184925 0.017906541 -0.0062830644 0.024553884 0.0036800287
-0.004269978 0.0015782404 -0.019608058 0.008615075 0.002013332 -0.017751167 -0.02481473 -0.018694997
0.0039412896 0.0009556446 0.010753651 0.0073563037 -0.010457008 -0.012293477 -0.00911548 0.0054103374
2.7839546e-05 0.005445419 0.00605869 0.012540887 -0.007633441 -0.025831105 -0.01372744 -0.015851935
0.019050904 -0.0028306397 -0.0009640205 0.019060574 0.015677227 -0.0061078556 0.019117184 0.003143447
0.0113229025 0.020115828 0.028528893 -0.023145637 -0.013691611 -0.008250248 0.008478623 -0.0073815575
0.017014919 0.015300624 0.019398296 0.002037859 -0.013033965 0.0018663298 -0.0024594397 0.009333955
-0.0016186861 0.028907282 0.015267845 -0.0058495346 -0.0069937315 0.03281447 0.014473244 0.00977689
0.005076829 0.0006802036 -0.009032723 -0.008449632 -0.001384256 0.026504796 0.008199067 -0.024873976
-0.0141815 0.012195672 0.0044982866 -0.012308739 0.0053566433 0.0070025553 -0.0071690558 0.018351458
-0.009943817 -0.020929439 -0.02922098 -0.025306182 -0.0053222044 -0.005208361 0.00076639536 -0.00045208272
-0.005423985 0.00156098 -0.0029640612 -0.011451515 0.008399197 0.011725004 0.023107555 -0.014516875
-0.0058856355 0.010826716 0.0038197502 0.016288606 -0.019827418 -0.015731124 0.003983332 0.009722894
0.009850794 -0.0047093215 0.0031681487 0.011301718 0.013185132 0.006555279 0.0003140788 0.030147184
0.009317777 -0.0010935164 0.0126447445 -0.015253133 -0.012406481 -0.0066318107 0.008379815 -0.001386345
-0.007857281 -0.013790075 -0.02219494 0.00336576 0.016056824 0.040445484 -0.013178068 0.020608218
-0.024648579 0.0017180298 -0.013807149 0.0016798041 -0.012858006 0.0029447011 0.015885502 0.028837366
0.006474954 -0.010508864 0.017732317 0.02338615 0.015865568 -0.0022156655 -0.015513157 -0.022885153
-0.02129192 -0.007841207 0.0031347272 0.004131523 0.007168168 -0.009260587 0.0023855285 0.008314971
-0.011100018 -0.0049807243 -0.027033277 -0.009793598 0.0182412 -0.020194765 0.0014388635 0.0031269044
00000000: 0653 2b3d 77c0 c13c bcc8 ecbc ff1a a8bc
00000010: 99d1 99bc 8399 cabb aba1 f83b 0bf5 363c
00000020: 35ca a33c 41ef 22bb 2501 28bc b414 9dbc
00000030: df49 6ebb b7ec 58bc 5a3a b63b 7c3a 01bc
00000040: 6d72 9abb 0e05 1bbc 3d26 bf3b 671c 553b
00000050: 52b6 dcbb 2be5 7dbb 1b8a 35bb f3d6 5cba
00000060: c8e3 6dbc 60f6 83ba 16f0 b9bb 5af0 d03b
00000070: 4e50 a53b cfca c33c 5190 813b 9854 513c
00000080: ae3b 3abc 0d38 a33b 4f73 1539 f32f 07bc
00000090: 0697 f7bb 6e20 4a3c 87a1 cc3b 3e39 03bd
000000a0: f670 903c 21f8 f6ba 8718 09b9 1ba0 423b
000000b0: 52c2 573c 05a0 3cbc 7e17 85bb 6d74 b4bc
000000c0: 9f43 a2bb 3674 a53a f9e8 b93c 602d 393b
000000d0: 8396 b13c 4ed1 58bc 4f89 533c eaff 493b
000000e0: 0766 9d3c 221a 2ab9 eadf b5bc ad42 44bc
000000f0: 660d 08bc 46d0 81bc 48b0 56bc 8773 2c3d
00000100: 161f d8bc b982 be3a cf1b 833c 809f c83c
00000110: 8b29 e6bb 2e70 b23b 6fe7 71bc bb11 2d3c
00000120: 0b09 4abc 1e5c 2abc 7d5a 8c3c 90d4 3fbb
00000130: 4247 27bb de11 51bc d905 073c 1b63 ebb9
00000140: 77bc 85b9 c825 6f3a 662e 003d 2a69 32bc
00000150: 361b 113c 3b7a 7dbc 9458 12bc 0e53 eebb
00000160: 4e1e 1fbc 55d5 e0ba c333 a4bc 4871 b4bb
00000170: e1c0 7bbb ad82 563c 7990 883b 13d5 543c
00000180: 7c16 a7bc 32a3 c73c c39a cd3b 3b24 6d3b
00000190: bdb0 923c 2ae2 cdbb 3a25 c93c a32c 713b
000001a0: 2ceb 8bbb f6dc ce3a 14a1 a0bc 3e26 0d3c
000001b0: 1bf2 033b e56a 91bc 4348 cbbc 4026 99bc
000001c0: ef25 813b 3984 7a3a 1530 303c 260d f13b
000001d0: df53 2bbc 946a 49bc 1859 15bc 3349 b13b
000001e0: f888 e937 7c6f b23b fa87 c63b 4b78 4d3c
000001f0: f221 fabb c19b d3bc 0ee9 60bc ebdb 81bc
00000200: a410 9c3c 4182 39bb 52b6 7cba ec24 9c3c
00000210: 876d 803c 6824 c8bb a49b 9c3c 4a02 4e3b
00000220: b283 393c f3c9 a43c 6db5 e93c eb9b bdbc
00000230: c752 60bc 0c2c 07bc ece9 0a3c fee0 f1bb
00000240: df62 8b3c 78af 7a3c 2de9 9e3c 9a8d 053b
00000250: 698c 55bc a39f f43a 8d2e 21bb 72ed 183c
00000260: 182a d4ba f7ce ec3c fc25 7a3c 74ad bfbb
00000270: ac2b e5bb 7768 063d 2f21 6d3c 402f 203c
00000280: 875b a63b b14f 323a fcfd 13bc 5370 0abc
00000290: ec6f b5ba 9620 d93c 6155 063c 82c4 cbbc
000002a0: 8659 68bc 5bd0 473c 5d66 933b 98aa 49bc
000002b0: c886 af3b b175 e53b 66ea eabb cc55 963c
000002c0: 64eb 22bc 3774 abbc d660 efbc e94e cfbc
000002d0: e365 aebb e6aa aabb ece7 483a 8405 edb9
000002e0: afbb b1bb cc99 cc3a b240 42bb 239f 3bbc
000002f0: c99c 093c 3b1a 403c 0e4c bd3c 30d8 6dbc
00000300: 4adc c0bb 8a62 313c c654 7a3b af6f 853c
00000310: 1c6d a2bc 8fde 80bc 9c86 823b c64c 1f3c
00000320: 3a65 213c a750 9abb b7a0 4f3b d72a 393c
00000330: 7406 583c aacd d63b f1aa a439 3af7 f63c
00000340: 97a9 183c 5254 8fba e72b 4f3c 47e8 79bc
00000350: 8e44 4bbc a94f d9bb 7e4b 093c 05b6 b5ba
00000360: d3bb 00bc c4ef 61bc 2ad2 b5bc 1594 5c3b
00000370: 9a89 833c 2aaa 253d d3e8 57bc 91d2 a83c
00000380: d1eb c9bc 842f e13a 6137 62bc df2c dc3a
00000390: 63aa 52bc e3fb 403b 5022 823c 573c ec3c
000003a0: da2b d43b 5f2d 2cbc 5d43 913c 5094 bf3c
000003b0: 82f8 813c b334 11bb e52a 7ebc a579 bbbc
000003c0: 656c aebc 6878 00bc ff6f 4d3b ba61 873b
000003d0: f4e2 ea3b b8b9 17bc 8756 1c3b 843b 083c
000003e0: dadc 35bc 5835 a3bb e474 ddbc 5475 20bc
000003f0: 926e 953c 7e6f a5bc 3f98 bc3a c0ec 4c3b

discrete_action_output_shape f4 [1, 3]
3.0 3.0 3.0
00000000: 0000 4040 0000 4040 0000 4040

network_body._body_endoder.seq_layers.0.bias f4 [256]
0.0153372735 -0.0057081585 0.008510031 -0.018451888 -0.008261116 0.010353131 -0.021445202 -0.010010875
-0.00090627366 -0.0006546788 -0.00017947306 0.0003972834 0.00865336 -0.008772231 0.0079652965 -0.014109394
0.0069994656 -0.011813646 -0.0074380683 0.013061719 -0.007922379 0.013387375 -0.034585517 -0.016629115
-0.024924817 0.019392721 -0.0042999145 0.026492639 -0.011068093 -0.003627241 0.0007080927 0.011623747
-0.002686741 0.009139099 0.015288033 0.017523866 -0.0046053063 0.016709607 0.009253855 -0.012770276
0.0045277225 -0.008387669 -0.019135531 -0.0049668415 0.0011525784 0.010513921 -0.01894109 -0.028695125
-0.011815699 -0.015387229 0.0055063725 0.02583006 0.016002893 0.013449482 6.133915e-05 0.012027667
0.035914365 0.0010278239 0.02041383 -0.02244071 -0.022938814 0.01745008 0.005094612 -0.01097688
0.0048460034 0.016733615 -0.0131356595 -0.005193817 0.0069188154 0.014688129 0.006470544 0.015737826
-0.023501469 -0.008853951 0.002691146 -0.0066540088 0.008564945 0.019501477 0.008196263 -0.006681496
0.0033179552 0.04570301 0.004636504 0.022359518 0.011239266 -0.010417713 -0.0064475685 -0.0073815966
0.026585637 0.009905752 0.0011355886 0.009337097 0.044660635 0.00697085 -0.008842247 0.011999967
0.010752943 0.00838063 0.0033967944 0.04403408 -0.009531968 0.009615122 0.007914796 -0.007046439
0.002683031 0.014957578 0.016236264 0.0023927158 -0.0074412893 -0.026348224 0.0034851618 -0.008605883
0.022673922 0.0013441214 -0.0027708726 0.0042513916 0.008802507 -0.0036336659 0.016586859 0.020627497
-0.0071291747 -0.004215362 -0.005323701 0.013662008 -0.016607862 0.06912308 -0.014647763 0.016114697
0.00039031182 -0.0058185775 0.004513854 0.004863311 0.012696056 0.0060750237 -0.01959165 0.0053275507
-0.015737306 0.029413065 -0.0019439374 -0.014246696 -0.009850217 0.01083366 -0.0009815131 -0.0023625866
0.01764183 0.0041612335 0.032765124 0.037036788 -0.0088883545 0.0035003682 -0.00238499 -0.01896676
0.0074644564 0.025928905 -0.008347495 0.0010594393 0.005446598 -0.014193935 0.0007739035 -0.00037475646
-0.012079507 0.04144672 -0.0010836865 0.029466487 0.01123707 -0.022434687 0.0032147833 -0.019575156
0.01761589 -0.024891695 0.0024582855 -0.014199323 0.0018521056 -0.00074272766 0.030973965 -0.011238764
-0.018834997 -0.00014028115 0.0071208444 -0.014304858 -0.007799765 -0.01544983 -0.018110922 0.03651797
0.00018366698 0.022554325 0.010137881 0.021242626 -0.012085345 -0.001466296 0.027746921 -0.0058725206
-0.03011955 -0.007001136 -0.0014285464 0.005535914 0.0076548303 -0.01242467 -0.0049999976 -0.0115912715
-0.006605074 0.0018346785 0.012884634 -0.006187366 0.01116414 0.009356407 -0.0020613994 0.0050439197
-0.0017803044 -0.023177207 -0.0052798563 -0.0154366605 -0.0051816492 0.030641794 -0.0073939767 -0.008604503
0.0031601423 -0.0120849665 0.017283784 0.0089163305 -0.0068071247 -0.0054046107 -0.009804075 0.03348316
0.0033130005 -0.0014423542 0.0028534883 0.012601945 0.018225951 -0.018121386 0.003140349 -0.017272968
0.023867318 0.031074444 -0.006546599 -0.0012789032 -0.019662 0.02311288 0.019411853 -0.0061293854
0.017540952 -0.015768193 0.015538833 0.050500017 0.0278836 0.0067020836 -0.007476998 0.01787443
0.0018331569 0.046512593 0.0144746145 -0.010455276 0.00682675 -0.007844409 -0.0044012144 -0.02018107
00000000: 3049 7b3c 810b bbbb a86d 0b3c 6a28 97bc
00000010: a259 07bc 2ea0 293c d9ad afbc a704 24bc
00000020: ff92 6dba c09e 2bba ef30 3cb9 7a4a d039
00000030: d3c6 0d3c 67b9 0fbc e080 023c 162b 67bc
00000040: c65b e53b 068e 41bc 0abb f3bb d200 563c
00000050: decc 01bc b856 5b3c 8ba9 0dbd c839 88bc
00000060: 212f ccbc 7cdd 9e3c 4ce6 8cbb 1707 d93c
00000070: f256 35bc 01b7 6dbb 4c9f 393a 8771 3e3c
00000080: 0914 30bb 29bc 153c a87a 7a3c 368e 8f3c
00000090: 1ce8 96bb 96e2 883c 7b9d 173c 6b3a 51bc
000000a0: 4a5d 943b 6f6c 09bc 1ec2 9cbc e3c0 a2bb
000000b0: 1d12 973a 9542 2c3c 582a 9bbc 0a12 ebbc
000000c0: a296 41bc b71a 7cbc cd6e b43b 9099 d33c
000000d0: 8018 833c 375b 5c3c 35a3 8038 b10f 453c
000000e0: f11a 133d 0cb8 863a e83a a73c 94d5 b7bc
000000f0: 2eea bbbc 78f3 8e3c b4f0 a63b 5fd8 33bc
00000100: 39cb 9e3b ef14 893c f336 57bc e530 aabb
00000110: 3bb7 e23b 7aa6 703c db06 d43b 9dec 803c
00000120: 2786 c0bc 2910 11bc f05d 303b df09 dabb
00000130: fc53 0c3c 90c1 9f3c 9e49 063c 73f0 dabb
00000140: 0d72 593b 1433 3b3d d1ed 973b 4f2b b73c
00000150: e624 383c 0eaf 2abc 2046 d3bb 52e1 f1bb
00000160: 1fca d93c bc4b 223c 08d8 943a a0fa 183c
00000170: 12ee 363d ba6b e43b 12df 10bc 829b 443c
00000180: 1d2d 303c e94e 093c c19c 5e3b 145d 343d
00000190: f92b 1cbc bf88 1d3c 0fad 013c d1e5 e6bb
000001a0: cad5 2f3b a110 753c ea01 853c 1ccf 1c3b
000001b0: 0fd6 f3bb 3bd8 d7bc 5067 643b b1ff 0cbc
000001c0: a9be b93c 3b2d b03a 8797 35bb 424f 8b3b
000001d0: 6438 103c cc22 6ebb 2ae1 873c fffa a83c
000001e0: da9b e9bb 0521 8abb 7172 aebb 9dd6 5f3c
000001f0: 360d 88bc 6790 8d3d 2cfd 6fbc f802 843c
00000200: c4a2 cc39 c4a9 bebb f4e8 933b 695c 9f3b
00000210: 1e03 503c fe10 c73b ab7e a0bc bc92 ae3b
00000220: 86eb 80bc abf3 f03c b7cb feba f96a 69bc
00000230: ce62 21bc aa7f 313c 1da6 80ba a0d5 1abb
00000240: 9985 903c f55a 883b b934 063d e3b3 173d
00000250: 76a0 11bc 6f66 653b 7e4d 1cbb 2e60 9bbc
00000260: 6698 f43b db68 d43c efc3 08bc e2dc 8a3a
00000270: 6079 b23b ae8d 68bc c9df 4a3a f67a c4b9
00000280: 20e9 45bc 09c4 293d 7c0a 8eba b463 f13c
00000290: b01b 383c f3c8 b7bc 1daf 523b 145c a0bc
000002a0: 334f 903c abe9 cbbc 301b 213b 47a4 68bc
000002b0: 5ac2 f23a 9cb3 42ba 1dbd fd3c cb22 38bc
000002c0: da4b 9abc 6f18 13b9 f955 e93b ec5e 6abc
000002d0: 2c95 ffbb 4921 7dbc 5b5d 94bc de93 153d
000002e0: bb96 4039 d9c3 b83c 5b19 263c 0405 ae3c
000002f0: 9c01 46bc bb30 c0ba 834d e33c 466e c0bb
00000300: 46bd f6bc c969 e5bb 103e bbba 9d66 b53b
00000310: 5fd5 fa3b d890 4bbc 05d7 a3bb 51e9 3dbc
00000320: 606f d8bb 9879 f03a 121a 533c 63bf cabb
00000330: cce9 363c 9e4b 193c 8b18 07bb 7747 a53b
00000340: 1a59 e9ba 20de bdbc a502 adbb 0cea 7cbc
00000350: d3ca a9bb 8004 fb3c 2c49 f2bb e7f9 0cbc
00000360: 641a 4f3b 0600 46bc b996 8d3c cd15 123c
00000370: 4d0e dfbb 2919 b1bb 45a1 20bc a325 093d
00000380: ed1e 593b 600d bdba 9701 3b3b 6378 4e3c
00000390: 974e 953c 4d73 94bc 50ce 4d3b 0a80 8dbc
000003a0: 6585 c33c d58f fe3c da84 d6bb dfa0 a7ba
000003b0: 3412 a1bc 3957 bd3c 9b05 9f3c 03d9 c8bb
000003c0: 0bb2 8f3c 4c2c 81bc 9796 7e3c 1bd9 4e3d
000003d0: 266c e43c 279d db3b 9b01 f5bb 666d 923c
000003e0: 8a46 f03a fd83 3e3d ef26 6d3c 9b4c 2bbc
000003f0: eeb2 df3b d685 00bc 1038 90bb c552 a5bc

network_body._body_endoder.seq_layers.0.weight f4 [256, 27]
0.21391204 -0.035595346 0.049610123 0.06593461 0.19463246 0.09237586 0.3605029 -0.065533236
-0.24326797 0.035431486 -0.26731822 0.01577412 0.16437554 -0.09127722 0.06646134 0.7852189
0.06361513 -0.23057263 -0.014568042 -0.17171822 -0.0034892324 0.0043965364 -0.048172317 -0.07907833
-0.03811541 0.18386757 0.020653082 0.37860775 -0.015732136 0.3398083 -0.10945666 0.27952954
0.21415251 0.1137297 0.055232227 -0.05213454 -0.44174916 0.17860797 -0.097275205 0.044535305
-0.28357205 0.34369212 -0.11441882 0.11172037 0.17524761 -9.2278395e-05 0.105554484 -0.1270028
-0.08883023 0.07809471 -0.15846781 0.18842945 -0.44159737 -0.07409812 0.27343938 -0.27805033
0.20924412 -0.030959424 -0.308077 -0.07638239 0.39820173 -0.07698211 -0.0426509 0.3442639
0.017256398 -0.13817103 0.056490477 -0.18751131 -0.060404282 0.003087259 0.029823653 -0.36636484
-0.005597331 0.3239423 0.058477834 0.073242515 -0.09732455 -0.43967268 0.039191764 -0.16880108
0.12633674 -0.3141178 -0.028635165 0.33515748 -0.33328375 -0.1695269 0.39418074 -0.01213425
-0.102704585 0.2660821 0.122112915 0.049567062 0.16096257 0.17587464 -0.29403377 0.19444263
0.01100254 0.020660171 0.28649583 0.34788743 -0.19125888 0.06346047 0.15708306 -0.23311703
0.09693447 0.41535112 0.23622024 -0.3358252 -0.3255814 -0.008464099 -0.13274553 -0.24274458
0.19072911 0.21095179 0.00078982284 -0.061331723 -0.22958875 0.23797445 -0.040629018 0.054786265
0.04160746 -0.11384657 -0.22278833 -0.01944889 0.06881153 0.19578095 0.14565177 -0.09704273
0.0954273 0.23009525 0.1382754 0.19869077 0.099966116 0.01820641 0.1348432 0.08554359
0.12861022 -0.39769146 0.05868927 -0.063333 0.31523484 -0.1259468 0.09551833 -0.0010625038
0.06459582 0.0145098325 0.053639006 0.08829789 -0.2258296 -0.29885277 -0.18923761 0.16930678
-0.19391946 0.017995683 0.107208654 -0.042711765 -0.12123423 -0.092209615 -0.09619999 0.1841352
0.08704607 -0.23053822 -0.141746 0.03238218 0.027775843 0.10452293 -0.014523176 0.120359495
-0.050381288 -0.091580786 0.09234436 0.01955733 0.25538066 0.1676595 0.055619687 -0.326133
-0.065920874 0.02807944 -0.20687918 -0.070941485 0.035555214 -0.00091702543 -0.04040279 -0.16662061
0.011539025 0.15347077 0.118257314 0.13704383 0.29219237 0.10228791 0.19725294 0.1790085
0.29534316 0.0875456 -0.06679362 0.22463968 0.11027369 0.3851533 -0.28007904 -0.25614214
0.08626538 0.035006754 -0.050615758 -0.21221763 0.0015952602 -0.049799394 -0.048544444 0.11376702
-0.16465253 -0.010177879 0.17170504 -0.39014757 0.109833 -0.13759804 0.05723809 -0.047988955
0.1355677 -0.05027853 0.45728946 0.12658454 0.0876042 -0.22049676 -0.264114 0.02139533
0.056342695 0.12495743 -0.13777225 -0.12586665 0.0006551768 -0.17862912 0.014092596 -0.17001493
-0.16366982 0.528459 -0.0056703896 0.102963924 -0.35939127 0.25762615 0.07132163 -0.04906291
-0.0041362382 -0.08850484 -0.091958016 -0.38273114 -0.15253107 0.063255146 -0.13119328 0.058432847
-0.552517 -0.06974334 -0.015528201 0.23945896 -0.24823004 0.100521594 -0.058659874 0.29991865
00000000: c20b 5b3e 6dcc 11bd fc33 4b3d ba08 873d
00000010: bb4d 473e 8e2f bd3d d693 b83e 4a36 86bd
00000020: 3d1b 79be 9b20 113d efdd 88be ba38 813c
00000030: 1052 283e 8def babd e21c 883d 1b04 493f
00000040: a648 823d 3b1b 6cbe ccae 6ebc e7d6 2fbe
00000050: 9bab 64bb d210 903b 5650 45bd d2f3 a1bd
00000060: e71e 1cbd c847 3c3e a730 a93c e0d8 c13e
00000070: aee0 80bc 5afb ad3e d02a e0bd 7f1e 8f3e
00000080: cc4a 5b3e 1eeb e83d 303b 623d 078b 55bd
00000090: f22c e2be 02e5 363e 3938 c7bd a76a 363d
000000a0: 5b30 91be 6af8 af3e 6a54 eabd a6cd e43d
000000b0: 1c74 333e 9685 c1b8 f32c d83d 060d 02be
000000c0: a0ec b5bd 1ff0 9f3d 6345 22be a6f3 403e
000000d0: 0d19 e2be c1c0 97bd 3f00 8c3e 9d5c 8ebe
000000e0: 1744 563e 9e9e fdbc 45bc 9dbe 5f6e 9cbd
000000f0: 19e1 cb3e cca8 9dbd b6b2 2ebd 5c43 b03e
00000100: 4a5d 8d3c b57c 0dbe 8f62 673d f702 40be
00000110: 7b6a 77bd 9c53 4a3b bc50 f43c 2c94 bbbe
00000120: d169 b7bb c4db a53e 7486 6f3d 2c00 963d
00000130: 1852 c7bd c71c e1be 8b87 203d 31da 2cbe
00000140: 6b5e 013e 0cd4 a0be 4b94 eabc c399 ab3e
00000150: 2ba4 aabe 7698 2dbe 0fd2 c93e bcce 46bc
00000160: c856 d2bd ea3b 883e 5616 fa3d d506 4b3d
00000170: 5fd3 243e 7b18 343e 988b 96be f81b 473e
00000180: ff43 343c 853f a93c 95af 923e 4d1e b23e
00000190: 5ed9 43be 90f7 813d 62da 203e 3bb6 6ebe
000001a0: 9485 c63d e7a8 d43e b8e3 713e 48f1 abbe
000001b0: 9bb2 a6be 01ad 0abc 72ee 07be 0992 78be
000001c0: 7e4e 433e bf03 583e 1d0c 4f3a f936 7bbd
000001d0: 5019 6bbe 93af 733e 9d6a 26bd 9067 603d
000001e0: 956c 2a3d 6428 e9bd a022 64be 4753 9fbc
000001f0: 0fed 8c3d cd7a 483e bd25 153e 57be c6bd
00000200: 636f c33d 179e 6b3e 1198 0d3e 9875 4b3e
00000210: 09bb cc3d 9c25 953c 5614 0a3e 7a31 af3d
00000220: 66b2 033e 379e cbbe 2964 703d bbb4 81bd
00000230: 7666 a13e 33f8 00be 1d9f c33d b643 8bba
00000240: d04a 843d a6ba 6d3c 93b4 5b3d 86d5 b43d
00000250: e03f 67be 3b03 99be 81c7 41be c25e 2d3e
00000260: d392 46be af6b 933c 3690 db3d 88f2 2ebd
00000270: a749 f8bd 65d8 bcbd 8004 c5bd f08d 3c3e
00000280: 3645 b23d 3612 6cbe dd25 11be 2da3 043d
00000290: 2a8a e33c 1e10 d63d 9df2 6dbc 0a7f f63d
000002a0: 9c5c 4ebd b58e bbbd 0a1f bd3d b236 a03c
000002b0: 41c1 823e efae 2b3e 78d1 633d e8fa a6be
000002c0: 8601 87bd db06 e63c 23d8 53be c549 91bd
000002d0: 58a2 113d 8964 70ba 657d 25bd 989e 2abe
000002e0: 2e0e 3d3c 7127 1d3e e430 f23d 3855 0c3e
000002f0: 3d9a 953e 537c d13d adfc 493e 014e 373e
00000300: 3837 973e 1c4b b33d 18cb 88bd f207 663e
00000310: 2cd7 e13d d032 c53e 8566 8fbe 1025 83be
00000320: e7ab b03d 3e63 0f3d 7852 4fbd 944f 59be
00000330: 0d18 d13a 73fa 4bbd 8ad6 46bd affe e83d
00000340: ac9a 28be 1ec1 26bc 72d3 2f3e 6cc1 c7be
00000350: 20f0 e03d 80e6 0cbe 7d72 6a3d 1190 44bd
00000360: 42d2 0a3e dcf0 4dbd d821 ea3e 619f 013e
00000370: d569 b33d e7c9 61be f339 87be 4245 af3c
00000380: 99c7 663d aee9 ff3d 2b14 0dbe 30e3 00be
00000390: 2cc0 2b3a 8dea 36be a2e4 663c 6518 2ebe
000003a0: 1099 27be 1749 073f adce b9bb c0de d23d
000003b0: 2202 b8be 93e7 833e 1311 923d 31f6 48bd
000003c0: 4889 87bb 0742 b5bd 7c54 bcbd 56f5 c3be
000003d0: 1b31 1cbe ea8b 813d 8857 06be 4857 6f3d
000003e0: c171 0dbf 99d5 8ebd ff69 7ebc bb34 753e
000003f0: 0430 7ebe 44de cd3d 5645 70bd f08e 993e

network_body._body_endoder.seq_layers.2.bias f4 [256]
0.006373634 -0.0021130717 -0.008644872 -0.0036752229 -0.008808634 0.004504684 0.002879724 0.00042579081
0.009294276 -0.0028570432 -0.004866565 -0.000248637 -0.006233499 -0.007083804 0.0076749767 -0.003780122
0.00046241737 -0.007022773 -0.009177533 -0.005808516 -0.000113933864 -0.0007271888 -0.0035466612 0.00015172815
-0.0046598525 0.005749147 0.004151144 0.01158672 -0.0043036942 0.008713572 0.012892212 0.0043075574
0.00084996724 0.0049881674 -0.0006999909 -0.0041476474 -0.0074091027 0.015435855 0.011150715 -0.003573008
0.0137605695 0.009497302 0.003550972 -0.0088684 0.0038168845 -0.0030500197 0.0020294718 0.008558834
-0.0013069758 -0.00037933933 0.0029906495 0.0044595175 -0.0022166132 -0.004807199 0.004854333 -0.013597993
0.01446954 0.009606751 -0.004099327 -0.007362191 -0.013070252 0.0030729857 -0.005689427 0.010952559
-0.012035295 0.0050991545 0.009117201 0.01418007 0.009722251 0.0019416418 -0.008745895 -0.009158422
0.009861181 -0.0030267278 -0.003987953 -0.0123621775 0.0014274089 -0.005628471 0.0047296407 -0.0030098292
0.0041950727 0.011461799 0.0021122033 -0.0023771552 0.0038665603 -0.0075020627 -0.005989137 -0.005216958
0.0005436794 0.0029179326 -0.0022205987 0.012965979 -0.0071633677 0.0051775305 0.003955201 0.00450507
0.0026394764 0.015909461 0.010084165 -0.00075440423 0.017580425 0.0052505634 0.021817995 0.008462244
-0.0029750923 -0.0028630337 -0.008081421 -0.0004143729 -0.012096535 0.00822222 -0.0042284206 -0.002090981
0.01006973 0.008680071 -0.00032514447 0.0028417192 -0.0057463474 -0.01274667 0.005835175 -0.0027959317
-0.0071985396 -0.0067849676 0.0005325471 0.01682821 -0.014549497 -0.0097716125 -0.0035740149 -0.0037171456
0.00759439 0.0066045295 -0.004995013 0.01024377 0.0029824337 0.0008278934 0.012126943 0.0060993508
0.009153113 0.008316815 0.0033198784 -0.0013874737 0.0021388389 0.0077740895 -0.004318369 0.00027416847
0.010709575 -0.004488132 0.016550636 0.0041234326 -0.010421541 0.017876701 -0.006663691 0.008268987
0.014860632 0.010719828 0.018926505 -0.00017727884 2.0000982e-05 0.027160015 0.011383534 -0.004612293
0.006796805 0.007090985 0.0061638304 0.0070658335 0.0036702852 0.018995801 -0.007825409 -0.004970712
-0.0060548456 0.00825243 0.002969732 -0.008203672 0.009955236 0.00039961527 -0.0027943314 0.029127555
-0.0012224012 0.0037338762 -0.008363032 -0.008303394 -0.0030844249 -0.0030249446 -0.0055957087 -0.00770232
-0.0038337435 -0.0054409024 0.0030754004 0.003425546 0.008015984 -0.0011651198 0.014833395 -0.0074663125
-0.0047017806 -0.00045700156 0.0059751663 0.0003581945 -0.0065784273 -0.0068795704 0.004033017 0.003685353
0.0039981036 -0.014780683 -0.004682437 0.0063216104 0.004951589 -0.0015193915 -0.0037679935 0.016020203
0.016384901 0.00046964257 -0.0040109768 -0.0026917767 -0.013931346 0.0016272007 0.009628001 -0.033726558
-0.00774662 -0.0031708577 -0.006245457 -0.0068096514 0.0075741783 0.011109371 -0.0026909686 0.022097923
0.0069508767 -0.0019486081 -0.00020385507 0.0046738517 -0.0029869452 0.010456767 0.018589888 0.018493498
0.01128146 -0.0064414744 0.009908545 0.003619133 0.0031653326 -0.003953598 0.0020584238 -0.0048284843
-0.00062130776 -0.008488807 0.015274485 0.0069222585 0.014580877 0.012976569 -0.004770197 -0.0005274066
0.0011242233 0.0018821859 -0.008885562 -0.0073594744 0.0013610524 0.00039838423 -0.01049972 -0.0067530163
00000000: ebd9 d03b 767b 0abb 39a3 0dbc 02dc 70bb
00000010: 1752 10bc 079c 933b c0b9 3c3b ad3c df39
00000020: 0547 183c 3b3d 3bbb b577 9fbb 7e5b 82b9
00000030: 6142 ccbb 411f e8bb 5f7e fb3b ecbb 77bb
00000040: 9c70 f239 4a1f e6bb 5d5d 16bc 5d55 bebb
00000050: c7ef eeb8 d0a0 3eba 1a6f 68bb 3719 1f39
00000060: adb1 98bb 5763 bc3b 5206 883b 3ad6 3d3c
00000070: 0106 8dbb 5fc3 0e3c db39 533c 6926 8d3b
00000080: 56d0 5e3a c873 a33b 987f 37ba fde8 87bb
00000090: 0fc8 f2bb abe6 7c3c 7db1 363c 2129 6abb
000000a0: 0374 613c 929a 1b3c 6db7 683b c44c 11bc
000000b0: b224 7a3b d7e2 47bb e300 053b 5a3a 0c3c
000000c0: d54e abba 10e2 c6b9 c6fe 433b 2521 923b
000000d0: 9944 11bb b585 9dbb 1911 9f3b 1eca 5ebc
000000e0: a611 6d3c a265 1d3c a653 86bb 893e f1bb
000000f0: 9c24 56bc 2564 493b 5f6e babb 5d72 333c
00000100: b02f 45bc cf16 a73b 5060 153c 8653 683c
00000110: 144a 1f3c b07e fe3a f14a 0fbc 350d 16bc
00000120: ca90 213c 115c 46bb 60ad 82bb bb8a 4abc
00000130: e517 bb3a 096f b8bb 1afb 9a3b 8e40 45bb
00000140: d276 893b 45ca 3b3c e46c 0a3b 0cca 1bbb
00000150: 1e66 7d3b ddd3 f5bb 8640 c4bb 04f3 aabb
00000160: b585 0e3a c93a 3f3b 7787 11bb 426f 543c
00000170: afba eabb 46a8 a93b a19a 813b 449f 933b
00000180: 11fb 2c3b 8f54 823c 0e38 253c 36c3 45ba
00000190: d304 903c eb0c ac3b a7bb b23c 39a5 0a3c
000001a0: c4f9 42bb bca1 3bbb f067 04bc 3040 d9b9
000001b0: 8c30 46bc 7eb6 063c 908e 8abb d708 09bb
000001c0: 82fb 243c db36 0e3c 2778 aab9 233c 3a3b
000001d0: db4b bcbb 69d7 50bc ff34 bf3b f33b 37bb
000001e0: bae1 ebbb 6f54 debb a29a 0b3a 50db 893c
000001f0: 0361 6ebc 1d19 20bc 053a 6abb 5b9b 73bb
00000200: 5cda f83b cf6a d83b 35ad a3bb 7cd5 273c
00000210: ef74 433b fc06 593a 16b0 463c 10dd c73b
00000220: f0f6 153c 4043 083c 5192 593b e4db b5ba
00000230: c32b 0c3b cabd fe3b 1b81 8dbb 45be 8f39
00000240: 3777 2f3c 2e11 93bb 3395 873c dc1d 873b
00000250: 1cbf 2abc 2972 923c 175b dabb a57a 073c
00000260: 027a 733c 38a2 2f3c c20b 9b3c ede3 39b9
00000270: c8c7 a737 ae7e de3c 0182 3a3c b822 97bb
00000280: bcb7 de3b 7e5b e83b f5f9 c93b 8288 e73b
00000290: 2b89 703b 159d 9b3c 2536 00bc 5be1 a2bb
000002a0: ba67 c6bb 3335 073c d69f 423b b268 06bc
000002b0: 491b 233c 7483 d139 1a21 37bb e99c ee3c
000002c0: fa38 a0ba 0cb4 743b 1905 09bc f50a 08bc
000002d0: 1024 4abb 263e 46bb 355c b7bb be63 fcbb
000002e0: 8b3f 7bbb 9949 b2bb a88c 493b 207f 603b
000002f0: 7955 033c efb6 98ba c507 733c f8a7 f4bb
00000300: 6511 9abb b699 efb9 54cb c33b 0dcc bb39
00000310: d98f d7bb 056e e1bb 6627 843b f785 713b
00000320: 8602 833b ae2a 72bc 216f 99bb 8325 cf3b
00000330: f040 a23b 5226 c7ba 71f0 76bb cd3c 833c
00000340: a139 863c 5c3a f639 836e 83bb 8568 30bb
00000350: 4d40 64bc cc47 d53a c3be 1d3c dc24 0abd
00000360: 5cd7 fdbb 2ace 4fbb b1a6 ccbb 7f23 dfbb
00000370: d030 f83b 1404 363c f65a 30bb b406 b53c
00000380: 2ec4 e33b 7068 ffba eec1 55b9 1c27 993b
00000390: a0c0 43bb dc52 2b3c d249 983c ad7f 973c
000003a0: dfd5 383c 0113 d3bb 7357 223c fa2e 6d3b
000003b0: 7871 4f3b 2f8d 81bb 9fe6 063b 4338 9ebb
000003c0: 42df 22ba a314 0bbc d541 7a3c 1dd4 e23b
000003d0: a1e4 6e3c ad9b 543c 504f 9cbb a841 0aba
000003e0: ad5a 933a aeb3 f63a c094 11bc bf27 f1bb
000003f0: 5765 b23a 3ade d039 0507 2cbc 6848 ddbb

network_body._body_endoder.seq_layers.2.weight f4 [256, 256]
-0.10453805 0.030362865 0.05104446 0.027477005 0.018806601 -0.097209305 -0.068587005 0.026248846
0.10731127 -0.010319192 0.00041250326 -0.03853993 -0.043583564 0.031313222 -0.019817548 -0.12332113
0.027665826 0.0047632004 0.03508003 0.15330786 0.047650136 -0.012672054 -0.05776498 -0.04473263
-0.06552061 0.0346542 -0.004761021 -0.033118784 0.030605998 0.06346367 0.14991996 0.13986567
-0.058443986 -0.054579593 -0.05138495 -0.112488165 -0.019421136 -0.027488252 -0.02497178 -0.074327275
-0.0708067 -0.021673946 0.028380781 -0.027053507 0.118465915 0.06246983 0.05541072 0.004961316
-0.05642463 0.0077502746 -0.008000882 0.015585458 -0.11835992 0.0038580599 0.04028817 -0.021293268
0.057007216 0.021613209 -0.085462734 0.09422409 0.0146702975 -0.028860716 0.06525741 0.034180135
-0.17260729 -0.05054191 -0.022121212 -0.0052026967 -0.049759272 -0.036999945 -0.08914057 0.045602698
0.13520086 -0.02153114 0.10798496 0.08946204 0.007983166 0.053273607 0.15434751 -0.09126838
-0.08511983 0.011159242 -0.01352539 -0.018844657 -0.028210519 0.024325691 0.0005641065 0.0039658584
0.0369244 -0.052567612 -0.042350665 0.044714503 -0.021194398 -0.061927464 0.013848282 -0.020061081
0.02576343 0.03241899 0.017700354 -0.034191594 -0.0074481866 0.03496871 -0.06179032 0.06926738
0.020064926 -0.03194 -0.03765948 -0.06544035 0.099527776 -0.104426794 -0.077853054 -0.034071255
0.077442974 -0.071047336 -0.00078134896 0.043194503 0.0058053387 -0.025775827 -0.0330156 0.0682207
-0.028409302 0.055606976 -0.00560002 -0.09355996 -0.02264722 0.048646264 -0.10502965 -0.028541364
-0.060144316 0.11601176 -0.08018786 0.06128816 -0.07345558 -0.08128109 -0.13339339 0.026744287
0.026187021 -0.071799986 0.010937795 0.022541814 0.009737655 0.10211193 -0.0036954512 0.0040969853
-0.0882331 0.097744375 -0.011359631 -0.05762667 -0.118499644 -0.029823296 -0.06261241 -0.10170474
0.04771536 -0.02343169 0.006891996 -0.039966043 -0.02970481 0.029032664 0.12923428 0.03935072
0.0143510355 -0.05322918 0.0019765869 0.03323574 0.022419164 0.0088949585 0.053009562 -0.004736699
-0.032009516 0.0089972345 0.058972925 0.03409745 0.047896013 0.0012473685 0.124247104 -0.051754296
-0.029649805 -0.016004987 0.13325982 -0.005615339 -0.121490985 -0.052797023 -0.04574347 0.14986427
-0.06307183 0.049863573 0.12480239 -0.04338512 0.034274578 -0.07146344 0.005469837 -0.08545156
-0.11225611 0.08423174 0.07545157 -0.073336914 -0.14970542 0.113047145 0.046184685 0.07356088
-0.057421878 0.066993564 -0.025355855 -0.06546439 0.091723725 -0.039760664 -0.120975815 0.09212145
0.01053745 0.0620419 -0.016578328 -0.09512131 0.050454743 0.0272436 -0.01838477 0.108720906
0.023883887 -0.03068687 0.11843365 0.0051486148 0.036139898 0.04003852 0.06703556 -0.03829085
0.11661769 0.059289407 -0.017163275 -0.046038534 0.029020565 -0.063122764 0.0061290753 0.038857296
0.01052529 -0.16548258 -0.03394707 0.101762824 -0.002200424 0.11451132 -0.09263295 -0.09324044
-0.0780839 -0.060985312 -0.014413638 0.023139969 -0.07348417 -0.02143363 -0.028709251 0.096157715
-0.0033459403 0.08939648 0.12273169 0.012168886 0.089582756 -0.04737949 -0.019687468 0.004787053
00000000: 0c18 d6bd 8bbb f83c ff13 513d 7517 e13c
00000010: 4d10 9a3c ac15 c7bd 5877 8cbd d207 d73c
00000020: 03c6 db3d d411 29bc 4045 d839 0cdc 1dbd
00000030: ae84 32bd 4b42 003d 6958 a2bc ca8f fcbd
00000040: 71a3 e23c 9f14 9c3b 14b0 0f3d bcfc 1c3e
00000050: ca2c 433d 729e 4fbc f99a 6cbd 9039 37bd
00000060: ab2f 86bd 90f1 0d3d 5702 9cbb 90a7 07bd
00000070: 6eb9 fa3c 3ef9 813d 9e84 193e f238 0f3e
00000080: f662 6fbd da8e 5fbd 0679 52bd 3260 e6bd
00000090: 1319 9fbc 0b2f e1bc 9e91 ccbc e638 98bd
000000a0: 1a03 91bd 8f8d b1bc d07e e83c 519f ddbc
000000b0: 429e f23d 5de0 7f3d 5af6 623d 8992 a23b
000000c0: 831d 67bd 04f6 fd3b 2216 03bc 265a 7f3c
000000d0: b066 f2bd 81d7 7c3b 3505 253d 386f aebc
000000e0: 6680 693d 2f0e b13c 1607 afbd 8ff8 c03d
000000f0: b05b 703c 4f6d ecbc ada5 853d 7800 0c3d
00000100: f7bf 30be 0905 4fbd 8b37 b5bc 627b aabb
00000110: 61d0 4bbd 418d 17bd 558f b6bd e5c9 3a3d
00000120: 1872 0a3e 1362 b0bc 3827 dd3d e037 b73d
00000130: d3cb 023c 6d35 5a3d 460d 1e3e ebea babd
00000140: 4e53 aebd 41d5 363c 9999 5dbc 1c60 9abc
00000150: bf19 e7bc ac46 c73c 8ce0 133a 08f4 813b
00000160: 0a3e 173d 2351 57bd e477 2dbd 8e26 373d
00000170: e09f adbc a7a7 7dbd e8e3 623c 2357 a4bc
00000180: d40d d33c c6c9 043d 5500 913c 7c0c 0cbd
00000190: eb0f f4bb 5a3b 0f3d d917 7dbd 0edc 8d3d
000001a0: 335f a43c 84d3 02bd d440 1abd 9705 86bd
000001b0: 38d5 cb3d b7dd d5bd 6c71 9fbd 4d8e 0bbd
000001c0: 6c9a 9e3d 4481 91bd 71d3 4cba b8ec 303d
000001d0: b63a be3b d427 d3bc 5e3b 07bd 4bb7 8b3d
000001e0: a0ba e8bc 24c4 633d 5f80 b7bb 5d9c bfbd
000001f0: aa86 b9bc 4e41 473d c919 d7bd 94cf e9bc
00000200: e359 76bd 9397 ed3d 8839 a4bd 4b09 7b3d
00000210: e16f 96bd b376 a6bd 4798 08be d616 db3c
00000220: 2a86 d63c df0b 93bd 7034 333c 9ca9 b83c
00000230: af8a 1f3c 0f20 d13d 622f 72bb 0140 863b
00000240: 8eb3 b4bd 342e c83d bf1d 3abc f109 6cbd
00000250: f1af f2bd fc4f f4bc ef3a 80bd 934a d0bd
00000260: 2e71 433d d1f3 bfbc 41d6 e13b 6fb3 23bd
00000270: 8057 f3bc e9d5 ed3c fe55 043e 382e 213d
00000280: 9b20 6b3c d706 5abd a089 013b 3322 083d
00000290: 65a8 b73c 29bc 113c 8e20 593d 5036 9bbb
000002a0: 691c 03bd 2369 133c 988d 713d c5a9 0b3d
000002b0: 9c2e 443d be7e a33a 4475 fe3d 50fc 53bd
000002c0: 26e4 f2bc e41c 83bc 4375 083e e100 b8bb
000002d0: 44d0 f8bd b141 58bd 815d 3bbd 0576 193e
000002e0: ce2b 81bd bf3d 4c3d 6598 ff3d 98b4 31bd
000002f0: 8063 0c3d 6d5b 92bd 523c b33b 3a01 afbd
00000300: 88e6 e5bd b181 ac3d 5a86 9a3d aa31 96bd
00000310: 614c 19be 4385 e73d 272c 3d3d 16a7 963d
00000320: 3433 6bbd ec33 893d 15b7 cfbc 3212 86bd
00000330: a6d9 bb3d 14dc 22bd 2bc2 f7bd 2caa bc3d
00000340: 45a5 2c3c a61f 7e3d 46cf 87bc f6ce c2bd
00000350: a2a9 4e3d f82d df3c a89b 96bc 11a9 de3d
00000360: 24a8 c33c 0863 fbbc 578d f23d b6b5 a83b
00000370: 6e07 143d 6eff 233d f149 893d ded6 1cbd
00000380: 41d5 ee3d 73d9 723d ff99 8cbc e792 3cbd
00000390: 89bc ed3c 8246 81bd 69d6 c83b d428 1f3d
000003a0: 4472 2c3c 4474 29be 150c 0bbd 0769 d03d
000003b0: fd34 10bb e984 ea3d 58b6 bdbd d8f4 bebd
000003c0: 74ea 9fbd bccb 79bd 2e27 6cbc 0890 bd3c
000003d0: de7e 96bd 9495 afbc aa2f ebbc 56ee c43d
000003e0: 9047 5bbb 8015 b73d c15a fb3d 0260 473c
000003f0: 2a77 b73d ff10 42bd 9d47 a1bc b6dc 9c3b
