Assets/ML-Agents/results/Andrew ML/results/sc_01 - Copy/SimpleCollector/SimpleCollector-33807.onnx (onnx, 305000 bytes, 11 tensors)

action_model._discrete_distribution.branches.0.bias f4 [3]
0.0126174465 -0.0077661565 -0.0049804095
00000000: 68b9 4e3c 3e7b febb b432 a3bb

action_model._discrete_distribution.branches.0.weight f4 [3, 256]
0.0005351521 -0.0026493403 -0.002223112 0.009683646 0.022136925 -0.01717242 -0.015240348 -0.0037551261
0.024458326 0.004545904 -0.01054805 0.005588031 0.0033484655 0.0030160905 -0.0016780912 0.00047475944
-0.016493414 -0.0145536335 0.0012235929 0.008809299 0.00530074 -0.019919768 -0.0031099312 -0.015599176
0.007741984 0.009835175 -0.0051725884 -0.014702017 0.0033955777 -0.0056165755 0.00087458885 -0.0032734917
-0.021651872 0.027912961 -0.005030605 -0.022470217 -0.005641943 -0.0156001095 0.010986346 -0.0034631698
-0.007368197 0.017378712 -0.009848498 0.00073865126 0.016202433 -0.023627037 0.0016257657 -0.0028916495
8.460978e-06 0.0022486064 0.003687885 -0.020594023 -0.01467019 0.011996046 -0.017548444 -0.0045008715
0.00047359543 -0.015673988 -0.0075719496 0.0010895754 0.004081146 0.0030053633 -0.0021422675 0.011445076
0.0036577538 -0.012406968 -0.013600011 0.01326154 0.0007694695 0.003970463 0.003418495 -0.0011640881
0.007680513 0.0045295684 -0.0008184562 -0.012524651 -0.0030322326 0.0149279665 0.013261539 0.013635777
0.0022362038 -0.0006108594 -0.0026337537 -0.0025337467 0.0113106845 0.007585027 -0.007116641 0.016858457
0.0038447403 -0.02200425 -0.015132758 -0.013157427 -0.009669759 0.017005732 -0.012129634 -0.004552915
0.016971095 -0.028184382 0.0034703026 -0.007863222 -0.015328618 0.01131336 0.0014504452 0.0062901443
-0.014427176 -0.0060833585 -0.01819369 0.011857983 0.00981715 0.006313341 0.00092233875 0.008701422
-0.018553207 0.011597674 0.005742983 0.014045354 -0.0120258685 0.0041907444 -0.008150912 0.002660307
0.0013993906 -0.009191372 0.0041349474 -0.014153668 -0.0070889667 -0.0060578887 0.005252536 0.0073067294
-0.0040428787 0.022218613 0.011268898 0.00025164356 -0.010257645 0.001099272 0.0010577826 0.005213402
0.013172107 0.0055881958 0.005596949 0.0034807618 0.003935927 0.0003665419 0.013878152 -0.0030168816
-0.0064676963 0.0016630611 -0.0037007076 0.0121949185 0.017389705 -0.0059736995 -0.015423729 0.021460688
0.005721585 -0.010433788 0.0044501047 -0.020071348 0.0015370975 -5.182676e-05 0.0017871474 -0.003846232
0.01168086 -0.0037298512 -0.0036646966 -0.016949108 0.007363788 -0.013669954 0.0014853927 -0.018320242
-0.0063399286 -0.012616732 -0.024763687 -0.02370015 -0.022001423 -0.0037885332 -0.007824889 0.007966336
0.0038388725 0.0047724983 0.007914185 -0.014293944 0.0076256623 -0.0016539849 0.0032198783 -0.009988261
-0.0003563732 0.007849997 -0.0035289633 -0.0018436464 0.0037630997 -0.002284325 0.0051767696 0.004157556
0.0068011056 -0.017064275 -0.0050505036 0.0015459219 0.005948805 -0.015970811 -0.0017307837 -0.003601562
-0.0020637184 -0.026384363 0.019031879 -0.0021551712 0.0037916503 -0.0013682548 0.0017523103 -0.0003172651
0.004349606 -0.0033092818 0.0072918255 0.017206794 0.013229115 0.0033920396 0.009227373 -0.005727778
-0.011314562 -0.011890403 -0.010861006 -0.009174476 0.012223356 0.015262605 0.01136654 0.0006897161
-0.014785774 0.013381094 0.024754306 0.014108929 0.009569194 -0.023235267 0.0037156418 0.0051818583
-0.0028214075 0.0023230258 0.006871969 -0.015393851 0.004509251 -0.006003807 -0.0005383162 0.0076690274
-0.01465327 0.011347011 -0.0062702936 -0.0072642094 -0.010734079 -0.0115918955 -0.01051772 -0.0025765025
-0.009991723 -0.0010868722 0.0044365716 0.012937792 -0.01167098 0.004673832 0.010871516 0.0008681173
00000000: 7349 0c3a 8ea0 2dbb a1b1 11bb 28a8 1e3c
00000010: 7f58 b53c 2dad 8cbc a7b2 79bc 9018 76bb
00000020: d45c c83c cff5 943b bad1 2cbc cd1b b73b
00000030: ee71 5b3b 9aa9 453b 66f3 dbba 22e9 f839
00000040: 321d 87bc 5d72 6ebc f760 a03a e154 103c
00000050: d4b1 ad3b c82e a3bc fdcf 4bbb b093 7fbc
00000060: 78b0 fd3b b723 213c d17e a9bb bbe0 70bc
00000070: 5788 5e3b 400b b8bb aa44 653a 1488 56bb
00000080: 445f b1bc b9a9 e43c c6d7 a4bb 7613 b8bc
00000090: 0ce0 b8bb 9a97 7fbc 1300 343c 59f6 62bb
000000a0: eb70 f1bb cd5d 8e3c 985b 21bc 0ca2 413a
000000b0: f7ba 843c 7d8d c1bc a517 d53a d481 3dbb
000000c0: a0f3 0d37 5b5d 133b 71b0 713b ccb4 a8bc
000000d0: 3d5b 70bc 108b 443c c1c1 8fbc 0c7c 93bb
000000e0: e74c f839 bc66 80bc 1e1e f8bb 15d0 8e3a
000000f0: 22bb 853b a1f5 443b 4965 0cbb 2184 3b3c
00000100: edb6 6f3b 9846 4bbc 95d2 5ebc ee46 593c
00000110: 39b6 493a a81a 823b d408 603b 5194 98ba
00000120: d0ac fb3b c66c 943b aa8d 56ba 3234 4dbc
00000130: 6cb8 46bb 6e94 743c ed46 593c 9868 5f3c
00000140: 468d 123b 1522 20ba 0e9b 2cbb 370d 26bb
00000150: 7350 393c d18b f83b b632 e9bb bf1a 8a3c
00000160: 0af8 7b3b 4242 b4bc 63ef 77bc 4092 57bc
00000170: e96d 1ebc 9b4f 8b3c 5fbb 46bc 9f30 95bb
00000180: f706 8b3c efe2 e6bc 046e 633b bed4 00bc
00000190: e224 7bbc ac5b 393c dd1c be3a 8e1d ce3b
000001a0: f65f 6cbc e956 c7bb ef0a 95bc fc47 423c
000001b0: 1dd8 203c 25e0 ce3b 1bc9 713a 6990 0e3c
000001c0: e5fc 97bc 2c04 3e3c a22f bc3b 7c1e 663c
000001d0: 2608 45bc 8352 893b 678b 05bc 8c58 2e3b
000001e0: c26b b73a 6997 16bc 747e 873b c9e4 67bc
000001f0: 904a e8bb 4181 c6bb 771d ac3b 4a6d ef3b
00000200: 207a 84bb cf03 b63c 2fa1 383c 07ef 8339
00000210: ae0f 28bc 7315 903a 4ba5 8a3a 30d5 aa3b
00000220: d2cf 573c 2f1d b73b 9c66 b73b 7e1d 643b
00000230: f3f8 803b 6c2c c039 3061 633c e0b6 45bb
00000240: f8ee d3bb 12fb d93a 9287 72bb 32cd 473c
00000250: db74 8e3c 06bf c3bb cfb3 7cbc 53ce af3c
00000260: 227c bb3b 7bf2 2abc 2fd2 913b ab6c a4bc
00000270: 6f78 c93a 8f60 59b8 b73e ea3a 1111 7cbb
00000280: 1461 3f3c 8570 74bb 682b 70bb dbd8 8abc
00000290: ee4b f13b f1f7 5fbc 82b1 c23a 5514 96bc
000002a0: 2dbf cfbb 69b6 4ebc 37dd cabc d126 c2bc
000002b0: 543c b4bc 0a49 78bb f733 00bc 3c85 023c
000002c0: 9895 7b3b 9e62 9c3b 7faa 013c 2631 6abc
000002d0: b1e0 f93b 86ca d8ba 9804 533b cea5 23bc
000002e0: 9ad7 bab9 469d 003c 2e46 67bb 82a6 f1ba
000002f0: 569e 763b 9db4 15bb e4a1 a93b 1c3c 883b
00000300: cfdb de3b 61ca 8bbc b27e a5bb 88a0 ca3a
00000310: 31ee c23b 38d5 82bc 77db e2ba 2f08 6cbb
00000320: 733f 07bb 0524 d8bc bee8 9b3c c63d 0dbb
00000330: 567d 783b 0357 b3ba c7ad e53a 9a56 a6b9
00000340: 2487 8e3b 89e0 58bb 44f0 ee3b 43f5 8c3c
00000350: eebe 583c fb4c 5e3b 682e 173c 16b0 bbbb
00000360: b660 39bc f7cf 42bc 5cf2 31bc 8b50 16bc
00000370: 7944 483c 0110 7a3c b93a 3a3c 10ce 343a
00000380: 0840 72bc 603c 5b3c 8bc9 ca3c 2329 673c
00000390: 1cc8 1c3c e357 bebc 2082 733b 94cc a93b
000003a0: 5de7 38bb e83d 183b 412e e13b 7e36 7cbc
000003b0: 57c2 933b 95bb c4bb ca1d 0dba 774c fb3b
000003c0: 4514 70bc d0e8 393c 0977 cdbb 9b08 eebb
000003d0: fedd 2fbc efeb 3dbc 8452 2cbc 8ada 28bb
000003e0: 53b4 23bc 6175 8eba a960 913b 08f9 533c
000003f0: a337 3fbc f226 993b 711e 323c 5e92 633a

action_model._discrete_distribution.branches.1.bias f4 [3]
-0.005725068 0.00061240984 0.005669959
00000000: 5a99 bbbb 218a 203a 10cb b93b

action_model._discrete_distribution.branches.1.weight f4 [3, 256]
-0.008965038 -0.0042663775 -0.012373295 -0.00934312 -0.016190553 0.010539319 0.0047505475 0.012939303
-0.011329771 0.002329189 0.006325506 -0.014861489 -0.0071464907 -0.011511508 0.008608483 0.0070697814
0.022896228 0.00038190867 -0.016576098 -1.6958511e-06 -0.008966544 0.003154013 0.01470015 0.0027988995
-0.03185597 0.0029802942 0.0058115437 0.018833159 -0.014768683 0.008889769 0.009664546 -0.024721432
-0.0053943056 -0.025843415 -0.008706116 0.0053662 -0.013334846 0.021005517 -0.0053764144 -0.018485636
-0.004768478 -0.017919803 0.00034730285 0.008855314 -0.012856707 0.029635819 -0.0032891468 0.007496919
0.00044198014 -0.015351929 0.009402788 0.0069467095 0.024472924 -0.004598283 0.0021286134 0.03208089
0.004861362 -0.008510196 -0.00023586632 0.0013005653 -0.008268963 0.010537432 0.006144656 0.009085818
-0.018997913 -0.00684465 0.01096371 0.022639366 0.0034089647 -0.026116516 0.009686351 -0.0022856283
-0.009793242 -0.016637996 -0.004144155 0.009831451 0.016563544 -0.0008386076 -0.015886223 0.0074065365
0.022595914 -0.009994315 0.0025205372 0.026303107 -0.025546208 -0.0144247115 0.011228507 0.002896108
0.005820378 0.0068379524 0.0073672216 0.019925287 -0.01414047 0.018248746 0.005475696 0.00792053
-0.011575447 0.009316202 0.0029463165 -0.0075392867 -0.0010410903 0.0041225865 0.021187956 0.017685112
-0.00020295558 0.0046272534 0.019978575 0.002399083 0.01006256 -0.008452212 0.014877427 0.006696604
0.012173908 0.005911267 -0.023670409 0.008075983 0.027222121 0.0036543699 0.010780512 -0.005690621
0.023640307 0.015312414 0.0152394185 -0.01554978 0.018802667 -0.0021567745 -0.011157568 0.0019966825
-0.009261226 -0.009387939 -0.0027546529 -0.004192107 0.01817926 -0.002519458 0.016073113 0.011458957
-0.012508869 -0.0023856657 -0.0035086297 0.018395571 -0.0040871627 -0.00019848833 0.0067674266 -0.0012614927
0.0005522468 0.0058862427 0.004265266 -0.024622854 -0.0064466214 0.024830908 -0.0066267434 -0.0012973933
-0.009082066 0.0067725647 0.0116856145 -0.009505158 -0.009952795 0.0033266984 -0.003892812 0.00047609647
-0.001297927 0.027737424 -0.018349193 0.0039750873 -0.0050468785 -0.010657036 -0.015880749 0.00077609683
-0.002165481 0.007857836 0.011132323 -0.013106167 0.016426746 0.019090796 0.009649472 0.00060091267
0.009929984 -0.017982781 -0.006119694 -0.0071638417 -0.02370878 0.0036789977 -0.022510903 -0.008030213
-0.0053233486 0.009259231 0.0067970506 0.013664462 0.015966535 -0.0085078925 -0.0049211215 -0.013290059
-0.009823073 0.016331198 -0.010696871 -0.0051137647 -0.012485695 0.0010381093 0.0014141249 -0.007568216
-0.017014427 0.009545917 -0.0075347736 0.010386195 -0.0066947467 -0.012926526 -0.018746186 0.0006004494
0.002973891 -0.013730322 -0.015417599 -0.01635947 -0.0019612594 0.021605149 0.009962289 0.014394469
0.016931137 -0.013425692 0.022424582 0.0024394128 -0.00068115524 -0.010348843 -0.0038294287 -0.011503176
-0.0011967429 -0.0027438395 -0.011475423 -0.010580827 0.010770356 -0.008664202 0.002696025 -0.0011070027
0.025233764 0.00847268 -0.00088504964 0.010671771 -0.0013575379 -0.006101527 -0.0054739546 0.0033614428
-0.0059335777 -0.0116728665 -0.014299826 -0.00064447935 0.015233863 0.010023149 0.0029391046 0.016762909
0.008474353 0.028034376 -0.0021255366 -0.00042311056 -0.010904967 -0.0036614295 0.02476643 0.005366278
00000000: 18e2 12bc f8cc 8bbb 5cb9 4abc e313 19bc
00000010: 0da2 84bc 1cad 2c3c 7baa 9b3b 5fff 533c
00000020: 81a0 39bc 4fa5 183b 3146 cf3b 9a7d 73bc
00000030: 1c2d eabb c49a 3cbc 980a 0d3c a0a9 e73b
00000040: df90 bb3c ea3a c839 99ca 87bc 009d e3b5
00000050: 69e8 12bc 8fb3 4e3b e6d8 703c be6d 373b
00000060: 687b 02bd 0a51 433b c36e be3b ff47 9a3c
00000070: 59f8 71bc 65a6 113c 0b58 1e3c 9a84 cabc
00000080: b7c2 b0bb 92b5 d3bc 19a4 0ebc f3d6 af3b
00000090: 667a 5abc c313 ac3c a22c b0bb 306f 97bc
000000a0: e540 9cbb 8dcc 92bc 3316 b639 e115 113c
000000b0: f0a4 52bc d1c6 f23c ba8e 57bb b7a8 f53b
000000c0: 92b9 e739 a886 7bbc 270e 1a3c 39a1 e33b
000000d0: 717b c83c 32ad 96bb 3580 0b3b 4067 033d
000000e0: 0f4c 9f3b 596e 0bbc e252 77b9 bb77 aa3a
000000f0: 8b7a 07bc 31a5 2c3c 1c59 c93b afdc 143c
00000100: 83a1 9bbc 1649 e0bb 22a1 333c 3176 b93c
00000110: f068 5f3b 4ef2 d5bc 80b3 1e3c 7bca 15bb
00000120: d673 20bc 684c 88bc b1cb 87bb 1814 213c
00000130: 45b0 873c 01d6 5bba d323 82bc 88b2 f23b
00000140: 111b b93c 32bf 23bc 992f 253b 9d79 d73c
00000150: 4846 d1bc a055 6cbc c6f7 373c a1cc 3d3b
00000160: dfb8 be3b e710 e03b bc68 f13b 5b3a a33c
00000170: 6ead 67bc 657e 953c 786d b33b 1cc5 013c
00000180: f2a6 3dbc fca2 183c fd16 413b 1f0c f7bb
00000190: 3275 88ba c316 873b 5d92 ad3c 5ee0 903c
000001a0: 79d0 54b9 37a0 973b 1caa a33c ef39 1d3b
000001b0: 70dd 243c 267b 0abc 74c0 733c 306f db3b
000001c0: 1275 473c 4db3 c13b 72e8 c1bc 2151 043c
000001d0: ed00 df3c 277e 6f3b bfa0 303c 6478 babb
000001e0: 51a9 c13c ebe0 7a3c c1ae 793c 81c4 7ebc
000001f0: 0d08 9a3c ac58 0dbb 3bce 36bc c6da 023b
00000200: 66bc 17bc dfcf 19bc 6887 34bb f15d 89bb
00000210: acec 943c 7e1d 25bb c3ab 833c 59be 3b3c
00000220: 00f2 4cbc d458 1cbb 0af1 65bb 4fb2 963c
00000230: 9bed 85bb 4e21 50b9 4ac1 dd3b ac58 a5ba
00000240: a8c4 103a 62e1 c03b a5c3 8b3b deb5 c9bc
00000250: 2e3e d3bb 306a cb3c 2725 d9bb 4c0d aaba
00000260: f2cc 14bc 64ec dd3b 0575 3f3c 86bb 1bbc
00000270: 0c11 23bc bd04 5a3b 8c1e 7fbb 969c f939
00000280: 341f aaba 9839 e33c 0c51 96bc 7341 823b
00000290: 4960 a5bb d99a 2ebc 5818 82bc fa72 4b3a
000002a0: beea 0dbb 27be 003c 5964 363c 40bb 56bc
000002b0: 6291 863c 4d64 9c3c d218 1e3c 9186 1d3a
000002c0: 5fb1 223c a050 93bc b787 c8bb a9be eabb
000002d0: ea38 c2bc 571b 713b c968 b8bc 2891 03bc
000002e0: 7c6f aebb 08b4 173c cbb9 de3b e8e0 5f3c
000002f0: 40cc 823c b064 0bbc 5c41 a1bb 8cbe 59bc
00000300: f4f0 20bc 01c9 853c ee41 2fbc 5e91 a7bb
00000310: cd90 4cbc 2b11 883a 285a b93a ccfe f7bb
00000320: d761 8bbc 7a66 1c3c 43e6 f6bb dc2a 2a3c
00000330: 9b5f dbbb c8c9 53bc 9a91 99bc 7a67 1d3a
00000340: 9de5 423b 25f5 60bc 199a 7cbc 4c04 86bc
00000350: 7988 00bb 48fd b03c de38 233c c7d6 6b3c
00000360: 2bb3 8a3c 6ff7 5bbc c2b3 b73c 8ede 1f3b
00000370: 8e8f 32ba 328e 29bc 27f7 7abb d177 3cbc
00000380: 07dc 9cba fdd1 33bb 6a03 3cbc 345b 2dbc
00000390: 2676 303c 4cf4 0dbc cbaf 303b d918 91ba
000003a0: 0ab7 ce3c ffd0 0a3c ad02 68ba a7d8 2e3c
000003b0: 6aef b1ba 51ef c7bb dc5e b3bb a74b 5c3b
000003c0: 756e c2bb 8d3f 3fbc d149 6abc 47f2 28ba
000003d0: 7497 793c 2238 243c fe9d 403b 5e52 893c
000003e0: 03d8 0a3c 59a8 e53c 964c 0bbb f0d4 ddb9
000003f0: bfaa 32bc 98f4 6fbb f8e2 ca3c 9ad7 af3b

action_model._discrete_distribution.branches.2.bias f4 [3]
-0.007182742 0.0027841127 0.00543052
00000000: 355d ebbb a975 363b 81f2 b13b

action_model._discrete_distribution.branches.2.weight f4 [3, 256]
0.0014078822 -0.017039713 -0.023605442 -0.030726979 0.00047632496 0.0049639298 0.0005239309 0.0066432096
-0.0074501573 -0.013073754 0.00026575904 -0.0043764967 -0.0031695685 0.00088937406 0.0031999482 -0.0025376994
0.014562516 -0.002404839 0.0013719872 -0.015897691 -0.001923185 0.007873409 -0.01072732 0.005603695
-0.0043536634 0.001229269 0.0009550775 0.005587423 -0.0037257606 0.0031156612 -0.004162852 -0.007780682
0.006992691 -0.009325213 0.011623202 0.012318464 -0.00860975 0.023007872 -0.018681122 -0.0049449955
0.0015445583 -0.015723707 0.018103769 -0.0015479991 -0.0009585905 -0.005064566 -0.018407708 0.0048488732
-0.0014544174 0.009208339 0.003498702 0.01119075 0.0063070664 -0.0024226897 0.017257452 0.001355556
0.0053580166 0.010573646 0.0032681422 -0.0040768352 -0.0065173605 -0.0020071028 0.014076388 0.017025817
-0.0037709645 0.0034545425 0.015679043 -0.008509665 0.0046414156 -0.01851726 -0.01871316 0.0011692642
-0.015512561 0.005504321 -0.006118162 0.019536255 -0.0032776298 -0.009748389 -0.021227278 -0.0048762797
-0.0006099307 -0.005596767 0.009272878 0.013168726 -0.0007204264 -0.00231791 0.02043673 -0.011327929
-0.0071997843 0.014953939 0.0006436643 0.007599731 -0.0064128917 0.0010342455 0.0024792987 0.002846925
-0.003128397 0.005127986 -0.010368371 0.007979759 0.009507695 0.005199935 0.014523977 -0.0124494545
-0.0016857367 0.004970589 -0.00317247 0.001618046 0.0064331396 0.00072927354 0.008423629 -0.010369603
0.010041141 -0.017462175 -0.0028664845 -0.008086018 -0.0002705753 -0.008463367 -0.00026722226 -0.008776219
0.017278526 0.005073894 -0.0062541277 0.010596653 0.0029642594 0.0029690345 0.0065495255 -0.0026742895
-0.00742578 -0.027465528 -0.007834892 0.003473006 -0.004387794 -0.014965307 0.004664257 -0.0022337858
0.004169923 0.009568584 -0.0019741699 -0.009789875 -0.016386557 -0.013946918 0.0030108637 -0.030448262
-6.352115e-05 -0.0069939294 -0.012453522 -0.002602001 -0.011068727 0.012844367 0.023151979 -0.009595533
-0.0009722853 0.006322824 -0.0016356312 0.0042973147 0.00053847785 -0.00047732357 -0.015853103 0.0155304065
-0.014187189 0.0027701021 0.0018013157 0.0051321047 0.009791844 0.011072481 -0.008956682 -0.0044836802
0.014446953 -0.009643347 0.0035056027 -0.013557159 0.018680027 0.009471825 0.008998441 0.0022998448
0.015434928 0.016741412 -0.0014258778 -0.003439318 -0.013962879 0.01237059 -0.0075555528 -0.011923167
-0.011759442 0.006118852 0.00087954703 0.010574534 0.01258899 0.006671508 -0.007574711 -0.00091308396
-0.0043066666 0.010493714 0.0020880918 0.0018789374 -0.002252891 0.0028259128 0.013441576 -0.0017562633
-0.008686585 0.003936338 -0.0010541329 0.0011232499 0.005420673 -0.01132279 -0.009634371 -0.005412136
-0.0007602428 -0.012614552 -0.007898168 -0.0139611475 0.0077234837 0.008943018 0.0032219964 0.00036867938
0.021731123 0.004288308 0.018363083 -0.0031027477 0.009603892 -0.0100757 -0.00812453 -0.0011640936
0.025589297 -0.0058191936 -0.020121558 -0.00032025122 -0.017294064 0.01199483 -0.012817327 -0.013830162
0.006673115 0.016460465 -0.0062667243 0.011672788 -0.00017073091 0.011634091 -0.004668265 0.009139837
0.0039542895 0.0029411882 -0.01403714 0.0018093896 0.0076221097 0.01315862 0.008370122 -0.005849581
0.010109734 0.008945415 -0.005335606 0.005116016 0.0014237112 -0.0043395385 -0.0028349326 0.010679413
00000000: b088 b83a de96 8bbc 3360 c1bc 25b7 fbbc
00000010: 41bb f939 76a8 a23b 6858 093a 48af d93b
00000020: 7320 f4bb 4c33 56bc 9355 8b39 b768 8fbb
00000030: 89b8 4fbb e224 693a 39b6 513b 884f 26bb
00000040: 9e97 6e3c 819a 1dbb 40d4 b33a e03b 82bc
00000050: 6113 fcba 79ff 003c a4c1 2fbc 339f b73b
00000060: 2da9 8ebb 6c1f a13a 2b5e 7a3a b416 b73b
00000070: e42b 74bb 1f30 4c3b 8968 88bb 17f5 febb
00000080: f222 e53b c7c8 18bc 3e6f 3e3c 62d3 493c
00000090: e90f 0dbc 017b bc3c 2709 99bc a109 a2bb
000000a0: c772 ca3a 01cf 80bc 5b4e 943c 3be6 caba
000000b0: eb49 7bba a9f4 a5bb c3cb 96bc 4ce3 9e3b
000000c0: 26a2 beba 93de 163c 7b4a 653b 6859 373c
000000d0: 82ab ce3b fdc5 1ebb 805f 8d3c e9ac b13a
000000e0: 4d92 af3b 163d 2d3c 542e 563b f996 85bb
000000f0: 958f d5bb 9989 03bb a7a0 663c ba79 8b3c
00000100: 4922 77bb 9b65 623b 5671 803c 1f6c 0bbc
00000110: 0417 983b 82b1 97bc 574c 99bc ff41 993a
00000120: 6628 7ebc 975d b43b dd7a c8bb 7f0a a03c
00000130: 81cd 56bb b5b7 1fbc d4e4 adbc 33c9 9fbb
00000140: c2e3 1fba 1665 b7bb 45ed 173c a4c1 573c
00000150: ffda 3cba 14e8 17bb ee6a a73c c798 39bc
00000160: 2bec ebbb 5e01 753c 94bb 283a 2a07 f93b
00000170: 3c23 d2bb 858f 873a bb7b 223b 7a93 3a3b
00000180: cb05 4dbb aa08 a83b 1ae0 29bc 89bd 023c
00000190: 2ac6 1b3c 3764 aa3b faf5 6d3c ccf8 4bbc
000001a0: f0f3 dcba 53e0 a23b 37e9 4fbb 9d14 d43a
000001b0: 16cd d23b b82c 3f3a 4303 0a3c 44e5 29bc
000001c0: 9983 243c d60c 8fbc a1db 3bbb 387b 04bc
000001d0: 01dc 8db9 efa9 0abc f719 8cb9 21ca 0fbc
000001e0: b28b 8d3c e842 a63b 6def ccbb 969d 2d3c
000001f0: 0544 423b 2294 423b 679d d63b 2243 2fbb
00000200: f553 f3bb 63ff e0bc eb5d 00bc 5f9b 633b
00000210: 7cc7 8fbb 0c31 75bc a0d6 983b b564 12bb
00000220: d9a3 883b 8dc5 1c3c 1361 01bb b665 20bc
00000230: 1a3d 86bc 9d81 64bc e951 453b a26e f9bc
00000240: a836 85b8 552d e5bb db09 4cbc 5586 2abb
00000250: 9b59 35bc 2e71 523c 38a9 bd3c 9536 1dbc
00000260: f6e0 7eba b12f cf3b ad62 d6ba 7dd0 8c3b
00000270: a328 0d3a 4941 fab9 5ede 81bc 3f73 7e3c
00000280: 6271 68bc 9a8a 353b 201a ec3a 372b a83b
00000290: f86d 203c 5a69 353c 0cbf 12bc d6eb 92bb
000002a0: eab2 6c3c 21ff 1dbc 41be 653b d91e 5ebc
000002b0: db06 993c b72f 1b3c 326e 133c feb8 163b
000002c0: c8e2 7c3c 4925 893c 85e4 baba 2e66 61bb
000002d0: 8fc4 64bc 04ae 4a3c 9294 f7bb 6359 43bc
000002e0: adaa 40bc a780 c83b 6791 663a cf40 2d3c
000002f0: 0d42 4e3c aa9c da3b 4835 f8bb 075c 6fba
00000300: f01e 8dbb d4ed 2b3c 5ed8 083b ad46 f63a
00000310: 3da5 13bb f332 393b 0e3a 5c3c 6b32 e6ba
00000320: 2e52 0ebc 65fc 803b d52a 8aba 033a 933a
00000330: e79f b13b 3983 39bc 7bd9 1dbc 4a58 b1bb
00000340: 084b 47ba 44ad 4ebc 5167 01bc 4cbd 64bc
00000350: 4715 fd3b bc85 123c 2128 533b 4f4b c139
00000360: 7805 b23c ef84 8c3b 2d6e 963c 7857 4bbb
00000370: a559 1d3c 8c14 25bc c01c 05bc 8094 98ba
00000380: a5a0 d13c efae bebb f7d5 a4bc 64e7 a7b9
00000390: 48ac 8dbc f785 443c c4ff 51bc e797 62bc
000003a0: 25aa da3b 19d8 863c 1859 cdbb 393f 3f3c
000003b0: 3b06 33b9 ea9c 3e3c 3ff8 98bb 41bf 153c
000003c0: fc92 813b f3c0 403b 08fc 65bc 0a29 ed3a
000003d0: e4c2 f93b 4197 573c d622 093c d8ad bfbb
000003e0: 4ca3 253c ca8f 123c 4fd6 aebb 41a4 a73b
000003f0: d29b ba3a b032 8ebb 47ca 39bb b4f8 2e3c

discrete_action_output_shape f4 [1, 3]
3.0 3.0 3.0
00000000: 0000 4040 0000 4040 0000 4040

network_body._body_endoder.seq_layers.0.bias f4 [256]
0.012278264 0.0059551336 0.004031044 -0.0015781702 0.0035428293 0.011558785 0.0025009771 0.003328136
0.020755798 -0.0036372119 0.008791338 0.012047837 0.006724572 -0.007402789 0.0034822647 -0.0047491374
-0.010599302 -0.009586981 0.0009192747 0.002305683 0.004465868 -0.008812166 -0.0052048806 0.00058973744
-0.016916698 0.0035632965 0.0023182968 0.007624511 0.0122772595 -0.0059514414 0.0020648448 -0.0048253173
-0.0005740763 -0.017691102 0.0059396382 -0.0047246977 0.0077990703 -0.005107185 -0.013098261 0.014479412
-0.00039306807 0.0030620913 -0.0032525742 0.0012033461 0.0057148715 -0.010975115 0.0053638206 0.003916015
-0.0033816234 0.0011669567 0.0021209565 -0.003666458 0.0011644216 -0.0010761282 0.016302353 -0.0030028909
0.02389005 -0.0030964997 0.0040252204 5.9198137e-06 -0.007832508 0.0133260945 0.00946759 0.015192606
0.019684142 -0.004321502 -0.0069118766 -0.0047424203 -0.0002923922 0.0027512072 0.005753302 0.0026045274
0.0136330305 -0.01823306 -0.002710923 0.014682744 -0.004692961 -0.0037635858 -0.0064878 0.0020465818
0.00017391494 0.00034826365 0.012718421 -0.029282203 -0.0062889005 0.011642627 -0.00259857 0.0035654276
0.006689863 0.0017033805 0.025926357 0.011118815 0.0067602405 0.011447488 0.02194939 -0.0051757526
-0.004828699 0.014683621 -0.0038649766 -0.0028954227 0.009234243 0.00364049 -0.0031192983 0.011596892
0.019121584 -0.010000713 0.00096012437 -0.0068941363 -0.0016966022 0.00213371 0.001991824 9.006464e-05
-0.011410004 -0.034630205 0.00694534 -0.0017126303 -0.0018515406 0.01564501 0.0049334094 0.0187834
0.0037953013 -0.001115935 0.0057764305 0.007489497 0.0011909882 0.022705516 -0.011545552 -0.0012156684
0.009479923 -0.0029705437 0.0078082564 0.010397637 0.0041095316 -0.0137498 -0.0020673322 0.002157287
0.013066354 -0.005613658 0.027484685 0.0025427223 0.017795334 0.005909463 -0.0034372369 -0.013565685
-0.00840567 -0.005997055 -0.0048149494 0.005066449 0.008681148 -0.012048541 -0.003507757 0.005384968
0.0020110905 0.0057358174 0.020705966 0.008003977 0.0126884645 -0.008668884 -0.004419409 0.021653388
-0.0069334526 -0.010208195 -0.010805811 -0.0008229796 0.0029706971 0.010732404 0.004151506 -0.0006119935
-0.0044404157 -0.00053782423 -0.0061505786 0.008994959 -0.0042308853 -0.007682978 -0.0057973573 0.006909251
0.000572666 -0.0068004816 0.01079113 -0.0025726948 0.0014000674 0.036361624 -0.011759486 -0.0034324345
0.0011435399 -0.0024021852 0.0024018239 0.0025371865 -0.011717145 0.008914726 0.009219734 -0.02677901
0.0017320666 0.0055432892 -0.010199916 -0.007190167 0.0012713074 -0.0014144519 0.003901686 -0.0048230607
-0.012712667 0.006170975 0.011334612 -0.00028425403 0.009941491 -0.0019089276 0.018612696 0.004836967
0.0014533607 0.00499081 0.0057219067 -0.0011100026 -0.015810067 0.0054377844 0.021709757 0.0057754563
-0.0055402457 0.0071439375 -0.0032765984 0.011358785 0.0027996236 0.009839308 -0.0051546698 0.003956853
0.008206806 0.0030305716 0.0063448586 0.007617118 -0.002525625 0.0038292208 -0.0038399994 -0.002618608
0.0012736077 -0.0013806093 0.00879731 -0.0007844241 -0.014310977 0.015586288 0.021201326 -0.00024315082
-0.0009577968 -0.017112028 0.014946757 0.00022023838 -0.0044339267 0.0043720957 0.0036369918 0.00039038644
0.001284876 0.010849497 0.018804938 0.0037337597 0.021314705 0.004636104 -0.002215351 -0.004713929
00000000: c62a 493c 4823 c33b d916 843b 9bda ceba
00000010: d02e 683b 0f61 3d3c 6fe7 233b db1c 5a3b
00000020: 1008 aa3c 4a5e 6ebb 8b09 103c 4a64 453c
00000030: cc59 dc3b 1893 f2bb b536 643b a79e 9bbb
00000040: b2a8 2dbc b612 1dbc 7bfb 703a f11a 173b
00000050: 6b56 923b e760 10bc b48d aabb 9c98 1a3a
00000060: e394 8abc 3286 693b 91ee 173b 09d7 f93b
00000070: 8f26 493c 4f04 c3bb 5952 073b b21d 9ebb
00000080: 9c7d 16ba eeec 90bc 4ca1 c23b a3d1 9abb
00000090: 588f ff3b 2c5a a7bb 179a 56bc 0e3b 6d3c
000000a0: b414 ceb9 5ead 483b 2429 55bb 98b9 9d3a
000000b0: d143 bb3b f8d0 33bc fdc2 af3b ea51 803b
000000c0: 3a9e 5dbb 92f4 983a bfff 0a3b f548 70bb
000000d0: 819f 983a df0c 8dba 838c 853c 26cc 44bb
000000e0: 11b5 c33c a5ee 4abb ffe5 833b d0a2 c636
000000f0: eb53 00bc b155 5a3c f31d 1b3c 68ea 783c
00000100: a340 a13c 639b 8dbb 067d e2bb 4e66 9bbb
00000110: 374c 99b9 994d 343b 3286 bc3b b8b0 2a3b
00000120: 135d 5f3c 805d 95bc bea9 31bb e48f 703c
00000130: 69c7 99bb 7ea6 76bb 9c97 d4bb f21f 063b
00000140: f05c 3639 2897 b639 ed60 503c 3be1 efbc
00000150: 1f13 cebb b8c0 3e3c c54c 2abb f3a9 693b
00000160: a336 db3b f743 df3a 8363 d43c b12b 363c
00000170: 0285 dd3b 3f8e 3b3c 35cf b33c 5c99 a9bb
00000180: 103a 9ebb 9293 703c 8c4b 7dbb 22c1 3dbb
00000190: 394b 173c 4995 6e3b 246d 4cbb e400 3e3c
000001a0: dea4 9c3c 08da 23bc dbb0 7b3a 35e8 e1bb
000001b0: 8660 deba b7d5 0b3b 4389 023b 16e1 bc38
000001c0: 07f1 3abc 67d8 0dbd bc95 e33b 567a e0ba
000001d0: 65af f2ba f729 803c 70a8 a13b a5df 993c
000001e0: 97ba 783b 9144 92ba 3648 bd3b 746a f53b
000001f0: ef1a 9c3a eb00 ba3c 8e29 3dbc 1057 9fba
00000200: ae51 1b3c 74ad 42bb 67dc ff3b da5a 2a3c
00000210: 40a9 863b d746 61bc 147c 07bb 4561 0d3b
00000220: 4314 563c c7f2 b7bb 9027 e13c cda3 263b
00000230: 85c7 913c 2ba4 c13b 4443 61bb 9b42 5ebc
00000240: efb7 09bc f282 c4bb b9c6 9dbb 7404 a63b
00000250: 603b 0e3c 3e67 45bc 66e2 65bb 6374 b03b
00000260: 80cc 033b 86f3 bb3b 8f9f a93c 1d23 033c
00000270: 47e3 4f3c ef07 0ebc b1d0 90bb 7262 b13c
00000280: 0432 e3bb 4640 27bc db0a 31bc 3abd 57ba
00000290: 07b0 423b f7d6 2f3c 5b09 883b 306e 20ba
000002a0: e880 91bb c6fc 0cba cb8a c9bb 985f 133c
000002b0: 3da3 8abb 7ec1 fbbb c2f7 bdbb 0067 e23b
000002c0: f71e 163a 93d6 debb 48cd 303c a89a 28bb
000002d0: 7782 b73a edef 143d dcaa 40bc b2f2 60bb
000002e0: d5e2 953a fb6d 1dbb eb67 1d3b ed46 263b
000002f0: 45f9 3fbc 120f 123c 5e0e 173c a85f dbbc
00000300: 8306 e33a 7ba4 b53b 8c1d 27bc 7e9b ebbb
00000310: ffa1 a63a 2165 b9ba 6eb3 7f3b c40a 9ebb
00000320: ca48 50bc e435 ca3b cfb4 393c ee07 95b9
00000330: a3e1 223c fb34 faba a779 983c 6c7f 9e3b
00000340: b17e be3a f389 a33b d57e bb3b 827d 91ba
00000350: 1d84 81bc 712f b23b a9d8 b13c 0a40 bd3b
00000360: f38a b5bb b117 ea3b 33bc 56bb 331a 3a3c
00000370: e479 373b 0d35 213c 81e8 a8bb 7da8 813b
00000380: d775 063c 8e9c 463b 88e8 cf3b 0499 f93b
00000390: f584 25bb aaf3 7a3b 80a8 7bbb f49c 2bbb
000003a0: 2fef a63a 90f5 b4ba 9822 103c cfa1 4dba
000003b0: 9778 6abc a15d 7f3c 67ae ad3c 4df6 7eb9
000003c0: a814 7bba 862e 8cbc 3ee3 743c caef 6639
000003d0: 794a 91bb cc43 8f3b 995a 6e3b c8ac cc39
000003e0: 4969 a83a 17c2 313c d00c 9a3c 18b2 743b
000003f0: 2d9c ae3c 76ea 973b 6c2f 11bb 4d77 9abb

network_body._body_endoder.seq_layers.0.weight f4 [256, 27]
0.004052479 0.4833256 -0.024523634 -0.05947273 -0.04172273 0.0210775 -0.017007716 0.42665553
0.1302288 0.07668962 0.14196673 0.038177833 0.09006663 0.31843895 -0.07581624 -0.10195111
0.31997895 0.08281384 -0.1624908 -0.09647412 -0.22319368 0.29254785 -0.28117818 -0.49110028
-0.12337004 -0.0020559854 0.07149185 -0.090724826 -0.1337724 0.022837145 0.13419878 -0.2197348
-0.012950384 0.23019736 -0.042312037 -0.18104611 -0.074844904 -0.09216505 0.17502841 -0.15232784
0.19968937 0.1706124 -0.050470762 -0.12121177 0.029270642 -0.06343205 0.31573978 0.16305852
0.3937167 0.044962652 -0.33861753 0.19693074 0.021247344 0.10283778 -0.042658962 0.40207016
-0.0063992767 -0.04103892 0.20472628 0.07443653 -0.31176752 -0.15031365 0.18567865 0.21633284
-0.09750383 0.10529474 0.08961625 0.12880418 -0.3059676 0.09089466 -0.00406372 0.05509226
0.09800835 -0.3058386 0.19391032 -0.1634834 -0.27622175 -0.015327487 -0.10944892 -0.27026108
0.1476458 -0.03572592 0.040207524 -0.081744306 0.15155558 0.30097437 -0.2573553 -0.21570873
0.12817751 0.0052206945 -0.17600173 -0.33104968 0.1745544 0.10520214 0.20566638 -0.14331612
-0.15571111 0.11827093 0.29113623 -0.045735966 0.29143202 0.1765173 0.14998579 0.11903223
-0.21707027 -0.01419434 -0.44471693 -0.1587607 0.020789979 0.037788294 -0.09652151 -0.26328844
0.14060248 -0.27351904 0.0073312246 -0.011346078 -0.17633843 -0.026478047 0.19767818 0.038598623
0.073252425 0.0015718227 -0.1418839 -0.09953919 -0.15666503 -0.14247319 -0.22619624 0.028756956
-0.05594625 -0.26796132 0.13351734 0.48192963 0.35046825 -0.003610398 -0.07406253 0.023836443
0.30494657 0.057446055 0.010766883 0.23201865 -0.29097998 -0.1175786 0.028325396 -0.012170076
-0.14318149 -0.058833465 -0.36683238 0.1207674 -0.13636446 -0.465578 0.20047283 0.12815957
0.37816945 0.15403968 0.24614441 0.14817376 -0.0753713 -0.11609097 -0.108374305 0.10819949
0.26022935 -0.06008684 -0.043494474 -0.227944 -0.34841976 -0.15097892 -0.13124321 -0.22172941
-0.21243416 -0.08067709 -0.00925128 0.15417401 -0.12707876 -0.15494162 -0.036012083 -0.25600752
0.23612218 -0.24044158 0.34703267 0.08805594 -0.106876425 -0.046384558 0.21964167 -0.20941964
0.02077165 -0.050969843 0.26592937 0.08640558 -0.37751555 -0.04877993 -0.02653656 0.06446614
-0.23952495 0.2802083 -0.08450977 -0.111611106 -0.08696202 -0.21858531 -0.19938888 0.10260583
-0.24527563 0.20561443 0.12579785 -0.06900367 -0.08262446 -0.12441512 -0.12860702 -0.11892497
0.22932799 -0.059205968 -0.03341391 -0.18151304 0.19281484 -0.20815244 0.18042146 -0.27825534
-0.16367118 -0.003930658 -0.030810745 0.41953436 -0.25301585 -0.09446216 -0.13742016 0.39660588
-0.27804008 0.23057029 0.19930294 0.052425116 -0.042705555 -0.047629647 0.0053322786 -0.036315475
-0.24782012 -0.2866021 0.104644775 0.29351258 -0.009883033 0.17494641 0.13973866 -0.29762813
0.22926538 -0.08032236 0.24740584 -0.19933927 0.18961579 0.19838189 -0.037480045 -0.124615505
0.20128968 -0.26119354 -0.012216413 0.008544611 0.09411501 -0.11289226 -0.18528295 -0.15588835
00000000: a8ca 843b 7476 f73e cae5 c8bc ad99 73bd
00000010: 74e5 2abd b9aa ac3c c453 8bbc 9872 da3e
00000020: b35a 053e 730f 9d3d ba5f 113e 5c60 1c3d
00000030: da74 b83d 6e0a a33e 8b45 9bbd becb d0bd
00000040: 48d4 a33e 4d9a a93d fd63 26be 3994 c5bd
00000050: e28c 64be d5c8 953e 96f6 8fbe 7f71 fbbe
00000060: 6ea9 fcbd b6bd 06bb 526a 923d f0cd b9bd
00000070: a2fb 08be f714 bb3c 686b 093e 2902 61be
00000080: d92d 54bc dbb8 6b3e 634f 2dbd 2764 39be
00000090: 4948 99bd 08c1 bcbd a63a 333e d4fb 1bbe
000000a0: 5f7b 4c3e 04b5 2e3e 6eba 4ebd e03d f8bd
000000b0: fcc8 ef3c aae8 81bd a5a8 a13e d0f8 263e
000000c0: 3c95 c93e c22a 383d 475f adbe 36a8 493e
000000d0: e90e ae3c 9d9c d23d 2abb 2ebd 24dc cd3e
000000e0: 06b1 d1bb 6d18 28bd c4a3 513e 2e72 983d
000000f0: fe9f 9fbe d2eb 19be 8b22 3e3e 5b86 5d3e
00000100: 17b0 c7bd c5a4 d73d b988 b73d 3ee5 033e
00000110: c9a7 9cbe fb26 ba3d f428 85bb 6ca8 613d
00000120: 9ab8 c83d e196 9cbe 6d90 463e 3168 27be
00000130: f06c 8dbe 2420 7bbc c126 e0bd a95f 8abe
00000140: 7630 173e 5855 12bd a5b0 243d 8f69 a7bd
00000150: 6331 1b3e 5019 9a3e 13c4 83be c0e2 5cbe
00000160: f740 033e 5c12 ab3b cc39 34be 587f a9be
00000170: 63be 323e 3874 d73d 359a 523e 76c1 12be
00000180: bc72 1fbe 0838 f23d cf0f 953e a355 3bbd
00000190: 9436 953e f3c0 343e e095 193e 2bc7 f33d
000001a0: ab47 5ebe 618f 68bc f0b1 e3be 2a92 22be
000001b0: bf4f aa3c e6c7 1a3d 12ad c5bd becd 86be
000001c0: 19fa 0f3e b00a 8cbe c53a f03b e6e4 39bc
000001d0: 1092 34be 7de8 d8bc 266c 4a3e 9719 1e3d
000001e0: 5e05 963d 9e05 ce3a 034a 11be 34db cbbd
000001f0: cc6c 20be 7ee4 11be fd9f 67be b593 eb3c
00000200: e527 65bd 3a32 89be c5b8 083e 7bbf f63e
00000210: 9370 b33e 6d9c 6cbb 19ae 97bd a544 c33c
00000220: f521 9c3e 8e4c 6b3d 9567 303c 4c96 6d3e
00000230: 54fb 94be 0dcd f0bd a90a e83c 0065 47bc
00000240: 2b9e 12be 5cfb 70bd 74d1 bbbe e654 f73d
00000250: 20a3 0bbe 3d60 eebe c048 4d3e 433c 033e
00000260: 6d9f c13e 94bc 1d3e 480d 7c3e ddba 173e
00000270: 455c 9abd 1ac1 edbd 59f3 ddbd b297 dd3d
00000280: c83c 853e 9e1d 76bd 4327 32bd 276a 69be
00000290: 1364 b2be 389a 1abe 9f64 06be 090d 63be
000002a0: 5788 59be 083a a5bd ae92 17bc cbdf 1d3e
000002b0: ef20 02be 04a9 1ebe 6881 13bd 6b13 83be
000002c0: 03ca 713e 5136 76be 44ae b13e ac56 b43d
000002d0: 07e2 dabd bcfd 3dbd bfe9 603e 1a72 56be
000002e0: 4f29 aa3c c1c5 50bd e527 883e 69f5 b03d
000002f0: b849 c1be 77cd 47bd 3363 d9bc d306 843d
00000300: 0746 75be 7677 8f3e 7513 adbd 5d94 e4bd
00000310: 2519 b2bd d4d4 5fbe 992c 4cbe 0123 d23d
00000320: 8929 7bbe 978c 523e 27d1 003e cc51 8dbd
00000330: 0337 a9bd 5bcd febd 8fb1 03be ef8e f3bd
00000340: f5d4 6a3e f581 72bd 06dd 08bd 8ede 39be
00000350: 4171 453e ea25 55be 67c0 383e 7c77 8ebe
00000360: 6b99 27be c0cc 80bb d166 fcbc 35cd d63e
00000370: 4b8b 81be 6075 c1bd dfb7 0cbe ed0f cb3e
00000380: 455b 8ebe 9e1a 6c3e 1216 4c3e b8bb 563d
00000390: 05ec 2ebd 4e17 43bd 65ba ae3b 89bf 14bd
000003a0: 8fc4 7dbe 83bd 92be 0050 d63d 4847 963e
000003b0: 72ec 21bc 2725 333e a717 0f3e b762 98be
000003c0: 8bc4 6a3e 0d80 a4bd f557 7d3e 981f 4cbe
000003d0: a42a 423e 9f24 4b3e ad84 19bd 6a36 ffbd
000003e0: e21e 4e3e 29bb 85be 5a27 48bc b2fe 0b3c
000003f0: 5fbf c03d 0f34 e7bd d0ba 3dbe 32a1 1fbe

network_body._body_endoder.seq_layers.2.bias f4 [256]
-0.0019288643 0.0019942853 -0.0019149625 0.011576965 0.0066418415 -0.0013728021 -0.0031019528 0.0007619695
0.0022943635 -0.0002317596 -0.00040543347 0.00038007478 0.002288215 0.00095932645 0.0036046538 0.015421473
-0.0020821218 -0.00032819703 -0.0020926862 0.0025588814 0.0030956133 -0.00069354475 -0.00195666 -0.012962721
0.0015538308 0.0021522876 -0.0035239055 0.00023978423 0.0034446912 0.004421508 -0.0017446157 -0.004211835
-0.0042442903 0.011280878 -0.005984429 -0.005303852 -0.0067319246 -0.0047620116 -0.004495653 0.000383378
-0.0002500263 0.003509082 -0.0036796262 -0.0016873545 0.011032574 0.0038378034 -0.0015876605 -0.0024285114
-0.0052021807 0.0033732497 -0.000430637 -0.007543493 -0.0029476138 0.0012198999 -0.010468612 0.003385764
0.008580428 -0.003829009 0.009843863 -0.000405373 0.008429548 -0.0034396052 -0.0013249646 -0.00030242145
0.0063219587 -0.0025461877 -0.0018830018 0.0037302347 0.0010463541 0.0040279096 0.010012891 0.0016052157
0.00079775817 -0.0022519976 -0.004801032 -0.00053442945 0.014291462 0.0076603987 0.010648483 0.0003376164
0.01138506 0.005358639 -0.004603579 0.0046047973 0.005958586 0.0017419606 -0.0057686577 0.00031268323
-0.001485427 -0.0038395305 -0.0118955495 0.0033399218 -0.004261648 0.007157599 0.011645871 -0.005511831
0.0014790941 -0.006558649 0.0021980563 -0.0071032792 0.0020949831 -0.00089385104 -0.0023804053 0.004013944
-0.007312854 0.00039570243 -0.0024138591 0.003495114 0.0008723807 -0.00090445625 -0.00444646 -0.0024762775
-0.0022908999 0.009174351 0.004440411 0.008195784 0.0079828845 0.001508488 -0.0045697717 0.011655682
0.0042280145 0.0016620386 -0.0029081295 -0.00013850162 -0.0023238354 -0.008357041 0.0036022787 0.0031183988
-0.0031242375 0.010668494 -0.0001085475 0.00047659897 -0.006949761 0.006958282 0.0047040777 0.004310637
0.0055855694 0.005031193 0.0013625647 0.008244373 0.002778349 6.1763705e-05 -0.00046749852 0.0012867139
-0.00189801 0.0012158351 0.004670258 0.004872717 0.008049937 0.006845258 -0.0048947986 0.008367678
-0.0014322621 -0.004401503 0.005047256 -0.0031851192 -0.0026152823 2.4017378e-05 0.0012779327 -0.0033182865
-0.003429551 0.010336137 0.0072318404 -0.009105149 0.0032086635 -0.0085397335 0.00015915291 0.0021342323
0.007928443 -0.009831878 -0.012494783 -0.003799306 -0.0071023554 0.0048386916 -0.003465305 0.0030887919
0.0018697005 -0.001174108 -0.0039017969 -0.0045112413 0.009896263 -0.0029236327 -0.0008608 -0.0064219213
0.0016897781 0.0010254103 0.008473256 0.00795644 -0.0021504748 -0.009096349 0.0105046285 -0.00016536353
0.002424685 -0.0051661567 -0.0084759155 0.0038527346 -0.002858517 0.0023287202 -0.0028705134 -0.010812811
-0.004424561 -0.0059982412 0.0014349445 0.0056843967 -0.002812866 0.00065207784 0.0036631746 0.002011735
-0.0053788894 0.0027659198 0.00058787415 0.0109905135 0.005998007 -0.0016095419 -0.0020242736 0.0034944722
0.0014859139 0.00240254 -0.00312725 0.0030018012 0.0020024583 0.0048650913 0.00591556 -0.0071361773
-0.0028442452 0.005212053 0.00904019 -0.0004772077 0.0018397704 -0.0055218544 -0.0011764858 -0.0018079298
0.006168857 0.0068257703 0.013194472 0.0037058482 0.0004460237 -0.0027965282 -0.0070616663 -0.0051161335
-0.0020045307 -0.0013797644 -0.0018159123 0.0034181518 -0.0034869506 -0.0036585396 0.0003821847 0.0019117899
-0.00037265592 -0.0032562078 2.2403643e-05 -0.0047380845 0.0011102434 0.00038730673 0.003919521 0.0021969287
00000000: f2d1 fcba 8eb2 023b 7bff faba 50ad 3d3c
00000010: cea3 d93b 98ef b3ba 224a 4bbb e8be 473a
00000020: 085d 163b 7e04 73b9 5c90 d4b9 c644 c739
00000030: e1f5 153b 4f7b 7b3a 0e3c 6c3b 59aa 7c3c
00000040: 3574 08bb dc11 acb9 7325 09bb e8b2 273b
00000050: c6df 4a3b 00cf 35ba 4f3b 00bb 9861 54bc
00000060: e9a9 cb3a 650d 0d3b 53f1 66bb 976e 7b39
00000070: 54c0 613b 4ce2 903b 97ab e4ba 6f03 8abb
00000080: b013 8bbb 6fd3 383c 0719 c4bb efcb adbb
00000090: 7a97 dcbb a60a 9cbb 4550 93bb 2000 c939
000000a0: f615 83b9 a0f8 653b e225 71bb 392a ddba
000000b0: f8c1 343c a883 7b3b 0c19 d0ba a927 1fbb
000000c0: 0e77 aabb bd11 5d3b 1fc7 e1b9 682f f7bb
000000d0: c12c 41bb 0ce5 9f3a 8b84 2bbc b2e3 5d3b
000000e0: ec94 0c3c 1cf0 7abb 2748 213c 3e88 d4b9
000000f0: 161c 0a3c 006b 61bb 6faa adba 528e 9eb9
00000100: 6f28 cf3b f1dd 26bb 0ecf f6ba f476 743b
00000110: d125 893a 8efc 833b 1c0d 243c 1a66 d23a
00000120: a520 513a 4096 13bb fa51 9dbb f418 0cba
00000130: bc26 6a3c 1504 fb3b fa76 2e3c 1b02 b139
00000140: 6788 3a3c 8697 af3b 9fd9 96bb d7e3 963b
00000150: 3e40 c33b 8052 e43a 0207 bdbb a2ef a339
00000160: a9b2 c2ba a2a0 7bbb 8de5 42bc 97e2 5a3b
00000170: 4ba5 8bbb 4b8a ea3b 53ce 3e3c 979c b4bb
00000180: 2ade c13a efe9 d6bb 440d 103b a0c2 e8bb
00000190: fc4b 093b 5451 6aba 9300 1cbb 6787 833b
000001a0: aaa0 efbb 4876 cf39 d631 1ebb 480e 653b
000001b0: 7ab0 643a 0819 6dba 9cb3 91bb 0b49 22bb
000001c0: ec22 16bb 0450 163c de80 913b 9c47 063c
000001d0: a5ca 023c 75b8 c53a 06be 95bb 79f7 3e3c
000001e0: 288b 8a3b c3d8 d93a 5196 3ebb bf3a 11b9
000001f0: 7d4b 18bb f8eb 08bc 3514 6c3b 0d5e 4c3b
00000200: 02c0 4cbb e8ca 2e3c ffa3 e3b8 08e0 f939
00000210: d2ba e3bb 4d02 e43b aa24 9a3b 3e40 8d3b
00000220: 2707 b73b b5dc a43b 1698 b23a 6813 073c
00000230: f614 363b 2387 8138 971a f5b9 f4a6 a83a
00000240: a6c6 f8ba a85c 9f3a f708 993b 50ab 9f3b
00000250: e2e3 033c 304e e03b 8c64 a0bb 9618 093c
00000260: beba bbba 7c3a 90bb 7463 a53b 6fbd 50bb
00000270: 2865 2bbb ed78 c937 4e80 a73a 9c77 59bb
00000280: 51c2 60bb e758 293c 13f9 ec3b c32d 15bc
00000290: 7148 523b 3dea 0bbc 49e2 2639 7ade 0b3b
000002a0: 4de6 013c e315 21bc ebb6 4cbc c7fd 78bb
000002b0: e0ba e8bb e38d 9e3b 2c1a 63bb 546d 4a3b
000002c0: bd10 f53a 87e4 99ba 4ab5 7fbb 09d3 93bb
000002d0: ef23 223c 6b9a 3fbb 4fa7 61ba fb6e d2bb
000002e0: 8b7b dd3a 0f67 863a 69d3 0a3c ba5b 023c
000002f0: fbee 0cbb da08 15bc 9b1b 2c3c 6f65 2db9
00000300: 77e7 1e3b dd48 a9bb 91de 0abc 297e 7c3b
00000310: f555 3bbb 719d 183b 391f 3cbb 3728 31bc
00000320: e8fb 90bb e58c c4bb bf14 bc3a 2d44 ba3b
00000330: 0f58 38bb 34f0 2a3a df11 703b 50d7 033b
00000340: 6541 b0bb 6f44 353b 911b 1a3a 8e11 343c
00000350: ee8a c43b 44f7 d2ba ada9 04bb 8403 653b
00000360: ffc2 c23a ef73 1d3b 8cf2 4cbb deb9 443b
00000370: ad3b 033b 586b 9f3b 50d7 c13b 98d6 e9bb
00000380: 8466 3abb dfc9 aa3b 4e1d 143c bc31 fab9
00000390: 7324 f13a acf0 b4bb 5034 9aba 0ff8 ecba
000003a0: 2024 ca3b b6aa df3b a02d 583c d1dd 723b
000003b0: 4ad8 e939 f545 37bb 8d65 e7bb 3da5 a7bb
000003c0: 725e 03bb 36d9 b4ba e803 eeba 1203 603b
000003d0: 5385 64bb 1cc4 6fbb f65f c839 0695 fa3a
000003e0: 0861 c3b9 1a66 55bb 75ef bb37 ef41 9bbb
000003f0: 9685 913a 6e0f cb39 536f 803b 59fa 0f3b

network_body._body_endoder.seq_layers.2.weight f4 [256, 256]
-0.03338621 -0.039160363 -0.011093625 0.022360839 -0.04723516 0.081634045 -0.017248306 0.06647087
0.038319908 0.013137846 -0.06379335 -0.014984716 0.029734056 0.037962247 0.07154741 0.007012191
-0.030479625 -0.09222811 -0.10711576 -0.089964494 0.02640679 0.040471643 0.019480929 -0.005421261
0.056157358 0.10377689 0.10620618 0.111923195 0.005295653 0.047135957 0.009092349 -0.070281535
-0.10993098 0.014670967 -0.0018083289 -0.003955142 -0.09218459 0.015929038 0.04457875 -0.0098523935
0.026543986 -0.028815135 0.026959393 0.06865829 -0.06735831 0.059558015 0.05678593 0.02635414
-0.004326315 0.03665968 -0.04908201 -0.10452331 -0.1399008 -0.042512257 -0.07190353 0.04633707
0.08069931 -0.019369157 0.018537289 -0.0069169295 0.057970013 -0.073185965 0.09385361 -0.041520756
-0.04768811 -0.04144261 -0.029455656 -0.14866245 -0.042740256 -0.04129447 0.00447634 -0.045705054
1.0893316e-05 -0.027762666 -0.036155537 -0.01359029 -0.048630487 0.06714492 -0.061255436 0.04368162
-0.0469445 0.015579823 -0.004108471 -0.096978374 -0.0073401146 0.10445348 -0.013649624 0.12624432
-0.04903071 -0.036073025 0.057287235 -0.122302696 -0.038472757 -0.024211517 -0.045481205 0.17098594
0.106938325 -0.00047663413 0.08829931 0.07914728 0.064204454 -0.0008773833 0.08773393 -0.020890232
-0.025818765 0.0043078307 -0.031171253 0.041294087 -0.14322641 -0.07691131 0.01517152 0.033182725
-0.03734129 -0.04470104 0.09429012 0.19620517 -0.00046301505 -0.05506262 0.0125687085 0.019423446
0.04231142 -0.0062292884 0.040830284 0.0006652502 -0.044849757 0.0883111 -0.035290632 0.081504196
-0.040605392 -0.121112525 0.091274 0.09066619 -0.040684346 0.07832983 -0.044045016 -0.042538125
-0.07971156 0.04134632 0.024636634 0.081785746 0.040311456 -0.038698375 0.05138556 0.0005841217
-0.09592154 -0.011139496 0.03388147 -0.099274784 0.011551474 0.0108503075 0.029923534 -0.0142766405
0.08454124 0.05906814 0.102034785 -0.015595848 -0.071653664 0.07234878 -0.025500543 0.030688716
0.072645605 -0.041229524 0.0006851383 -0.106111325 -0.042711716 -0.027533453 -0.070234545 0.13570186
0.019028876 -0.049970224 -0.010217665 -0.03424349 -0.06724645 -0.033740185 -0.019294577 -0.052068584
-0.08409431 -0.02950705 0.02103945 -0.088577434 -0.17128423 -0.038229283 0.076429665 0.05714543
0.07811762 -0.019813169 0.047960404 0.14780468 0.13828984 0.020780832 0.08454495 0.021621581
0.114307165 -0.02516595 0.076745495 0.08657787 0.047829807 0.07901896 -0.022897268 -0.03295908
0.07888623 0.046807405 -0.074214526 0.12810484 -0.082073286 0.07780304 0.013036462 0.015342025
-0.027932866 0.076910704 0.051336378 -0.00715873 -0.061579116 -0.08919483 0.026590103 0.027897792
-0.0025491451 0.03919446 -0.016516235 0.060596228 -0.05204079 0.016089339 0.0117832245 0.046487257
-0.086828716 -0.116117746 -0.04827867 -0.0065840455 -0.0169008 -0.06822824 0.05286781 -0.08607056
0.041203965 -0.09292287 0.014442842 -0.014639883 0.065313615 -0.02817907 0.02492306 0.0469988
-0.041752115 -0.006731437 0.14521538 0.019579342 0.022093715 -0.0037138313 -0.052054416 0.034155667
0.025339669 -0.0817842 -0.019774294 0.049110956 -0.14075644 -0.010762515 -0.058689486 -0.13811111
00000000: fbbf 08bd 9e66 20bd 09c2 35bc 142e b73c
00000010: a879 41bd c02f a73d 524c 8dbc e121 883d
00000020: 56f5 1c3d 1f40 573c 16a6 82bd 7482 75bc
00000030: d694 f33c 4d7e 1b3d 7387 923d 86c6 e53b
00000040: 68b0 f9bc 17e2 bcbd 825f dbbd 4e3f b8bd
00000050: 0d53 d83c 98c5 253d 7896 9f3c d5a4 b1bb
00000060: 4205 663d fa88 d43d a082 d93d fd37 e53d
00000070: 2887 ad3b a211 413d 13f8 143c c4ef 8fbd
00000080: 7e23 e1bd 7f5e 703c 7305 edba 239a 81bb
00000090: 46cb bcbd 9d7d 823c 3598 363d ef6b 21bc
000000a0: c672 d93c b80d ecbc f2d9 dc3c b89c 8c3d
000000b0: 27f3 89bd 1bf3 733d 5d98 683d a3e4 d73c
000000c0: c3c3 8dbb 7628 163d 380a 49bd 5110 d6bd
000000d0: 2842 0fbe 5521 2ebd 2842 93bd f1cb 3d3d
000000e0: ae45 a53d 11ac 9ebc 83db 973c 69a7 e2bb
000000f0: f771 6d3d 86e2 95bd 5236 c03d ab11 2abd
00000100: 9c54 43bd babf 29bd fd4c f1bc f83a 18be
00000110: 6810 2fbd 6424 29bd 43ae 923b 3935 3bbd
00000120: 70c2 3637 886e e3bc d417 14bd cfa9 5ebc
00000130: c330 47bd 4783 893d fbe6 7abd 80eb 323d
00000140: e048 40bd 8442 7f3c 5aa0 86bb 999c c6bd
00000150: 5885 f0bb b5eb d53d aca2 5fbc 3146 013e
00000160: 6dd4 48bd 4fc1 13bd 05a6 6a3d d679 fabd
00000170: 9c95 1dbd 3b57 c6bc 804a 3abd f016 2f3e
00000180: 7b02 db3d c0e4 f9b9 45d6 b43d f817 a23d
00000190: a07d 833d 3200 66ba d9ad b33d fe21 abbc
000001a0: e081 d3bc b428 8d3b db5a ffbc fd23 293d
000001b0: f2a9 12be ad83 9dbd f891 783c 9cea 073d
000001c0: 2ef3 18bd 7018 37bd 2e1b c13d 02ea 483e
000001d0: d4c0 f2b9 5889 61bd fcec 4d3c eb1d 9f3c
000001e0: bd4e 2d3d 0f1f ccbb a83d 273d 2f64 2e3a
000001f0: 61b4 37bd 73dc b43d e98c 10bd aceb a63d
00000200: d751 26bd d809 f8bd dded ba3d 32af b93d
00000210: a1a4 26bd 646b a03d 8c68 34bd 753c 2ebd
00000220: d03f a3bd c25a 293d c4d2 c93c 497f a73d
00000230: a01d 253d 3082 1ebd aa79 523d be1f 193a
00000240: 8372 c4bd 6f82 36bc 4cc7 0a3d 9450 cbbd
00000250: 6542 3d3c 7dc5 313c 3322 f53c 92e8 69bc
00000260: f523 ad3d 6ff1 713d 9df7 d03d ba85 7fbc
00000270: 28bf 92bd 992b 943d 84e6 d0bc e766 fb3c
00000280: 38c7 943d 4ae0 28bd da9a 333a e550 d9bd
00000290: 7bf2 2ebd d68d e1bc 21d7 8fbd 6ef5 0a3e
000002a0: 72e2 9b3c 94ad 4cbd fe67 27bc e742 0cbd
000002b0: 82b8 89bd 2633 0abd a90f 9ebc de45 55bd
000002c0: a339 acbd c5b8 f1bc ed5a ac3c 1668 b5bd
000002d0: 2265 2fbe 4f96 1cbd 2887 9c3d 5411 6a3d
000002e0: 21fc 9f3d 3a4f a2bc 2172 443d 1c5a 173e
000002f0: da9b 0d3e 903c aa3c e725 ad3d be1f b13c
00000300: e019 ea3d d328 cebc be2c 9d3d bd4f b13d
00000310: 30e9 433d b1d4 a13d 0d93 bbbc 1a00 07bd
00000320: 1b8f a13d 1fb9 3f3d c9fd 97bd ea2d 033e
00000330: 0a16 a8bd 3357 9f3d e296 553c 1e5d 7b3c
00000340: 77d3 e4bc 5c83 9d3d 1846 523d c893 eabb
00000350: 623a 7cbd c7ab b6bd 7dd3 d93c e989 e43c
00000360: 8f0f 27bb 5f8a 203d 0e4d 87bc c033 783d
00000370: b928 55bd cacd 833c 6d0e 413c 6c69 3e3d
00000380: 41d3 b1bd 24cf edbd dbbf 45bd fabe d7bb
00000390: 8c73 8abc 3fbb 8bbd eb8b 583d c345 b0bd
000003a0: 7dc5 283d 584e bebd aca1 6c3c 1fdc 6fbc
000003b0: 25c3 853d cbd7 e6bc 722b cc3c d081 403d
000003c0: 4404 2bbd 6393 dcbb 57b3 143e db64 a03c
000003d0: e1fd b43c c063 73bb 0337 55bd d0e6 0b3d
000003e0: 2395 cf3c 7a7e a7bd b3fd a1bc 9228 493d
000003f0: 7522 10be 4255 30bc 6364 70bd 006d 0dbe
