Assets/ML-Agents/results/Andrew ML/results/sc_01 - Copy/SimpleCollector/SimpleCollector-49217.onnx (onnx, 305000 bytes, 11 tensors)

action_model._discrete_distribution.branches.0.bias f4 [3]
0	0x3aae9ca0	0.0013321824
1	0xbb1d0e0f	-0.0023964678
2	0x3ab22ac9	0.0013593073

action_model._discrete_distribution.branches.0.weight f4 [3, 256]
0	0x3b054c36	0.0020339615
1	0xbbcfbb32	-0.006339454
2	0x3c4dcf31	0.012561605
3	0x3c3576b6	0.011075666
4	0x3bcc5e9d	0.0062368647
5	0xbc35daac	-0.011099499
6	0x3c4b8bcf	0.01242347
7	0xbb1027b7	-0.0021996328
8	0x3acf387a	0.0015809678
9	0xbbc8039e	-0.006103947
10	0xbb902c03	-0.004399778
11	0xbb987fbc	-0.004653899
12	0xbc9f137a	-0.019418467
13	0xbbc3885a	-0.005967182
14	0xbac3ae2a	-0.0014929224
15	0x3bb1b125	0.0054227286
16	0xbc3ad10c	-0.01140238
17	0xbb91a676	-0.0044448925
18	0x3c1b1904	0.009466413
19	0x3bc42bbe	0.00598666
20	0xbbfe6375	-0.007763321
21	0xbbdecf8d	-0.0067996443
22	0x3bf69869	0.007525493
23	0x3c1e439b	0.009659673
24	0xbc44251b	-0.011971737
25	0x3a8b0b4c	0.0010608225
26	0x3ac0ee6f	0.0014719496
27	0x3c149cdd	0.009070602
28	0x3761e222	1.3463696e-05
29	0xbbd84f4a	-0.006601249
30	0x3cfa8955	0.030583063
31	0x3c4b90be	0.012424646
32	0xbb90d873	-0.004420334
33	0xbbf7a390	-0.00755734
34	0xb637bb80	-2.7378264e-06
35	0x3b8e86aa	0.0043495493
36	0xbbfd7954	-0.0077354107
37	0xba00d844	-0.00049150386
38	0xbbfd06d5	-0.0077217617
39	0x3c8d2d70	0.01723358
40	0x3bf58669	0.0074928296
41	0x3be6e1cf	0.0070459615
42	0xbbd601c0	-0.0065309703
43	0xbc4f4a35	-0.01265197
44	0x3b62a8e8	0.003458554
45	0xbba283f5	-0.004959578
46	0x3bc29e72	0.0059392983
47	0x3b9ad264	0.0047247875
48	0xbbde949a	-0.006792617
49	0x3c443af6	0.011976948
50	0xbca3cefa	-0.019996155
51	0x3c257b19	0.01010015
52	0x3b64c366	0.0034906506
53	0x3a0c9bac	0.0005363773
54	0xbc83724f	-0.016045718
55	0xbc783399	-0.015149021
56	0x3bd0a3b7	0.0063671726
57	0x3b88a77f	0.0041703577
58	0x3b8e6e03	0.0043466105
59	0x3b71ef90	0.0036916472
60	0x3c5f234e	0.013619257
61	0x3bc2a21c	0.005939735
62	0xbbcf32a0	-0.0063231736
63	0xbc77464f	-0.0150924465
64	0x3aa15be7	0.0012310714
65	0xbc81b604	-0.015833862
66	0x3c1e123e	0.009647904
67	0x3c1ffc08	0.009764679
68	0xbc127ba2	-0.008940609
69	0x3c3372d0	0.010952666
70	0x3b1432b5	0.0022613232
71	0xbc23bf0b	-0.009994279
72	0xbc70489e	-0.014665751
73	0x3b60103b	0.0034189362
74	0x3be44cd2	0.0069671655
75	0xbc632a03	-0.013864997
76	0xbc2109d3	-0.009829002
77	0xbc1af7c7	-0.009458489
78	0x3c30ef7b	0.010799284
79	0xbc8faabc	-0.017537467
80	0x3c82c552	0.01596323
81	0x3c33dd97	0.010978124
82	0xbc8f7ac4	-0.017514594
83	0xbc2c32f4	-0.010510195
84	0x3b5cbd51	0.0033682177
85	0xbc40ce40	-0.011767924
86	0xbc1dae76	-0.009624114
87	0xb9cc0d5c	-0.00038919866
88	0xbb0f1cbb	-0.0021837193
89	0x3b40a4d4	0.002939512
90	0xbb7c1c36	-0.0038468963
91	0x3afc81bc	0.0019264738
92	0x3b3f8cb4	0.0029228153
93	0x3c717609	0.014737614
94	0x3c1401b3	0.009033608
95	0x3be15e21	0.006877676
96	0xbc05027d	-0.008118269
97	0x3c82615c	0.015915565
98	0xbcc54bf1	-0.024084063
99	0xbb8cbae6	-0.004294741
100	0xbc758a2f	-0.014986559
101	0x3a0b208d	0.00053072796
102	0x3c3bebf7	0.011469833
103	0x3c2ec75e	0.01066765
104	0xbb3a66fa	-0.0028442726
105	0xbc1fb62e	-0.009748025
106	0x3c156531	0.009118364
107	0x3c80bbd3	0.015714562
108	0x3c1bf369	0.009518483
109	0x3a0b02f2	0.0005302868
110	0xbc1891ee	-0.009312136
111	0x3c07c092	0.008285658
112	0xbb702fc1	-0.0036649557
113	0x3a111978	0.0005535106
114	0x3b3b81bb	0.002861126
115	0xbb3080cd	-0.002693224
116	0xbc3316fe	-0.010930775
117	0xbcb35b01	-0.02189398
118	0xba83961e	-0.0010039245
119	0x3c689d14	0.014197607
120	0x3b1fb4fa	0.0024369345
121	0xbc20f6a8	-0.009824432
122	0xbc6fcc41	-0.0146361
123	0xbb157efc	-0.0022811284
124	0x3c01f441	0.00793177
125	0x3c5faa04	0.013651375
126	0xbc81cf6b	-0.015845975
127	0x3c56dd58	0.013114296
128	0x3bec7562	0.0072161416
129	0x3b94a02f	0.004535697
130	0x3bddc6fc	0.0067681056
131	0x3c09ec52	0.00841816
132	0xbcc87749	-0.024470942
133	0x3c2c3c36	0.010512402
134	0x3b58b024	0.0033063972
135	0xbc63ad36	-0.013896277
136	0xbc4df040	-0.012569487
137	0x3c559fbd	0.013038573
138	0xbc1ceaf4	-0.009577502
139	0x3b501241	0.0031749161
140	0xbc25368f	-0.010083809
141	0xbb8e70df	-0.0043469514
142	0x3ae7ae72	0.001767589
143	0xbc626c94	-0.013819832
144	0x3c37ee82	0.011226298
145	0xba1ec574	-0.00060566445
146	0x3b917688	0.004439179
147	0x3b95d995	0.004573057
148	0x3b039118	0.0020075496
149	0xb9af618a	-0.00033451273
150	0x3bae00cf	0.005310155
151	0xbc9f1b4e	-0.0194222
152	0xbca8dd69	-0.02061339
153	0xbbd36f35	-0.006452466
154	0x3c15181c	0.009099986
155	0x3aa8e0ef	0.0012884418
156	0xbbe8fb5d	-0.007110043
157	0xbb4766c2	-0.0030426239
158	0xbc973738	-0.018458948
159	0xbcae6da4	-0.021292515
160	0x3ab1b822	0.0013558904
161	0x3b074488	0.0020640213
162	0xbc2f3146	-0.0106929
163	0xbc214ca6	-0.009844935
164	0xbb8e4691	-0.0043419083
165	0x3c51da79	0.012808436
166	0x3c1ec015	0.009689351
167	0x3c336641	0.010949672
168	0xba8e24fe	-0.0010844765
169	0x3b0e7cb9	0.002174182
170	0xbc930824	-0.017948218
171	0xbacb25db	-0.0015498953
172	0x3c119959	0.008886659
173	0xbc215e8a	-0.0098492
174	0x3cdb3d5b	0.026762655
175	0x3bba4a95	0.0056851604
176	0x3c6541fc	0.013992783
177	0xbbd0cd8d	-0.00637216
178	0xba914bb0	-0.0011085179
179	0xbb92d945	-0.004481467
180	0x3852a7d8	5.022422e-05
181	0x3b772414	0.0037710713
182	0x3a65748e	0.0008753025
183	0xbc4a23bd	-0.012337622
184	0xbca748a8	-0.020420387
185	0x3c0354f4	0.00801586
186	0xbc0c8e53	-0.008578855
187	0x3c82c2ee	0.01596209
188	0xbbe767dd	-0.007061942
189	0xbbadeb1d	-0.0053075687
190	0xbc7c7d24	-0.015410695
191	0xbcc0fba3	-0.02355749
192	0xb905cbe3	-0.00012759822
193	0xbb8a6670	-0.0042236373
194	0x3c53428d	0.012894285
195	0x3c609ed2	0.013709741
196	0xbb380fd9	-0.0028085618
197	0xbb16f09c	-0.0023031598
198	0x3ad0a29d	0.0015917603
199	0x3c48118c	0.012211215
200	0x3af0266d	0.0018321999
201	0xbc1919da	-0.009344542
202	0x3b81bd94	0.003959367
203	0x3a601158	0.00085475063
204	0xbc29fa68	-0.010374643
205	0x3b04a40c	0.002023938
206	0x3ad6a6e7	0.0016376645
207	0x3b324d1c	0.0027206605
208	0xbc224d5a	-0.009906137
209	0x3ad9f472	0.0016628637
210	0xbb296173	-0.0025845438
211	0x3a00fbde	0.00049203436
212	0x3cbb2cec	0.022848569
213	0xbc503f2e	-0.012710376
214	0xbc5dee79	-0.013545626
215	0x3c6b5a22	0.014364751
216	0xbc43f971	-0.011961327
217	0xbc0b9cb7	-0.00852125
218	0x3ba7ddd9	0.005122882
219	0x3c84a340	0.016191125
220	0x3bef668d	0.007305926
221	0x3bdb4ba3	0.006692366
222	0x3b90e777	0.004422124
223	0x3c17b775	0.009260048
224	0xbbd543ff	-0.00650835
225	0xbc8023b9	-0.015642034
226	0xbc8dc23e	-0.017304536
227	0xbb3d3a5e	-0.00288739
228	0x3ba8cf58	0.0051516704
229	0x3acde628	0.0015708851
230	0x3cbb9a2a	0.02290066
231	0xbad9c1cf	-0.0016613546
232	0xbb24e69a	-0.0025161863
233	0x3c20920e	0.009800447
234	0xbc2b1849	-0.010442802
235	0xbca22a3e	-0.019795533
236	0xbc9fda26	-0.019513201
237	0xbc36c26a	-0.01115475
238	0x3ab6cab9	0.0013945914
239	0xbb83a2a1	-0.0040171896
240	0x3c4a8259	0.012360179
241	0xbb7d5bf9	-0.0038659556
242	0xbc571da3	-0.013129625
243	0xbc587ab9	-0.013212853
244	0x3bed3272	0.0072386796
245	0xbc865226	-0.016396593
246	0xbc28a01c	-0.010292079
247	0xbb2f5ede	-0.0026759426
248	0xbc510b51	-0.012759046
249	0xbc7ee7c0	-0.015558183
250	0x3c4048f5	0.011736144
251	0x3beb6aec	0.007184377
252	0x3ba9433c	0.0051654857
253	0xbc150700	-0.009095907
254	0x3ad71af9	0.0016411237
255	0xbbed1aad	-0.007235846

action_model._discrete_distribution.branches.1.bias f4 [3]
0	0x3ba682fa	0.0050815316
1	0x3b8a07ce	0.004212356
2	0xbc02b36e	-0.00797735

action_model._discrete_distribution.branches.1.weight f4 [3, 256]
0	0x3b9af043	0.0047283485
1	0x3b953dd0	0.0045544878
2	0x3b406c1e	0.0029361318
3	0x3bfeec8e	0.0077796644
4	0x3bc4f454	0.0060105715
5	0xb9cac83f	-0.00038677637
6	0xbb26b9d4	-0.0025440352
7	0x3aa1e740	0.0012352243
8	0xbb55d11d	-0.0032625862
9	0x3c0155bf	0.007893979
10	0xbc10d356	-0.008839449
11	0xbca72c6b	-0.020406922
12	0x3beb782e	0.0071859574
13	0xbaad660a	-0.0013229263
14	0x3b4d0b27	0.0031287165
15	0x3c10cb66	0.0088375565
16	0xba18f8eb	-0.00058354315
17	0x3ae480f6	0.0017433453
18	0xbb87653a	-0.00413194
19	0x3ba267ad	0.004956207
20	0xbc1e4938	-0.009661011
21	0xbc091892	-0.008367674
22	0x3c344fae	0.011005325
23	0xbb8148d7	-0.0039454508
24	0x3aefbebc	0.0018291096
25	0xbc623dd5	-0.013808687
26	0xba565a1e	-0.00081768807
27	0xbbba8968	-0.0056926496
28	0x3b93e130	0.0045129284
29	0xbc0c99ad	-0.008581561
30	0x3af87f17	0.0018958774
31	0x3c38158c	0.011235606
32	0x3b95e31e	0.0045741936
33	0x3c3c15a4	0.011479769
34	0x3ca71fca	0.0204009
35	0x3bd6e3a0	0.0065578967
36	0x3bb1ce04	0.0054261703
37	0x3aaa6083	0.0012998733
38	0xbc2ba679	-0.010476702
39	0x3b1ca9db	0.0023904953
40	0x3a909898	0.0011031805
41	0x3a4cfbfe	0.0007819532
42	0xbbc8d13b	-0.006128458
43	0xbc8acb37	-0.016942604
44	0x3bff8bac	0.0077986326
45	0x3beaa0da	0.0071602883
46	0x3a25af5c	0.0006320381
47	0x3c39225f	0.011299699
48	0xbbeabed7	-0.007163863
49	0x3c0265b4	0.007958818
50	0xbc99870e	-0.018741157
51	0x3bbfcbe2	0.005853162
52	0xbaf029cf	-0.0018323007
53	0x3be046ae	0.006844363
54	0xbbd5166e	-0.006502918
55	0x394a76bd	0.00019308455
56	0xbb9e11d1	-0.004823901
57	0xbb902337	-0.004398729
58	0x3b867df9	0.0041043726
59	0x3be8a53b	0.007099775
60	0xbc0d4965	-0.008623456
61	0xbb171e61	-0.0023058879
62	0xbbe80439	-0.0070805815
63	0xbb0ece3e	-0.002179041
64	0x3ba54123	0.0050431653
65	0x3c1c4b22	0.009539397
66	0xb9d4e057	-0.00040602937
67	0x3be3c90d	0.0069514574
68	0xbbbc2408	-0.0057416
69	0xbb09c998	-0.00210247
70	0xbbf3ba01	-0.007437945
71	0x394261e8	0.00018537755
72	0x3c08ed4c	0.008357357
73	0x3b0e6766	0.002172911
74	0x3c543f2c	0.0129545145
75	0x3c2b7c47	0.010466642
76	0xbb1e54f4	-0.0024159523
77	0x3c5a9f95	0.013343711
78	0xbc2525b7	-0.010079793
79	0xbc016acf	-0.007899
80	0xbb3d243e	-0.0028860713
81	0x3afd0256	0.0019303064
82	0x3b76bedb	0.003765038
83	0xbc01eb8f	-0.007929697
84	0x3aad7792	0.0013234487
85	0xbb3d9e74	-0.0028933557
86	0xbb6b8ce1	-0.0035942125
87	0x3be45eea	0.0069693225
88	0xbb5b33e0	-0.0033447668
89	0x3bc7e9f7	0.006100889
90	0xb7ceb5cd	-2.4641771e-05
91	0xb9491f39	-0.00019180485
92	0x3c72a3e8	0.014809586
93	0xbb5fa261	-0.0034123885
94	0xbc17ab37	-0.009257129
95	0x3c836fa2	0.016044442
96	0x3c1e6836	0.0096684005
97	0x3aa8208a	0.001282708
98	0x3b90f783	0.004424037
99	0x3c790b9a	0.01520052
100	0x3a4f03aa	0.00078969693
101	0xbbe76f9e	-0.0070628664
102	0x3a464a03	0.0007564129
103	0xbb77f68e	-0.0037836167
104	0xbb497061	-0.003073715
105	0x3b4034d2	0.0029328358
106	0x3ba45a62	0.0050156573
107	0xbbdc1be4	-0.006717192
108	0x3b3f5cac	0.0029199524
109	0xba895d9e	-0.0010480171
110	0x3c675b0a	0.0141208265
111	0xbc06c266	-0.008225059
112	0xbc10d5b8	-0.008840017
113	0xbbeeada7	-0.0072838846
114	0xbb8e15de	-0.004336103
115	0x39bd695e	0.00036127394
116	0x3c0c5e5d	0.00856742
117	0xbcb29844	-0.021801122
118	0x3c02fc6f	0.007994755
119	0x3c0492fb	0.0080916835
120	0x3c43ba69	0.011946299
121	0x3b9bcecf	0.004754878
122	0x3ba3efe1	0.005002961
123	0xbc23eb83	-0.010004881
124	0x3a071b16	0.00051538774
125	0x3b1ff830	0.0024409406
126	0xbc4e59ba	-0.012594635
127	0xbbb40ce0	-0.005494699
128	0xbbd436cc	-0.006476259
129	0xb9e4813f	-0.00043583845
130	0xbbae1356	-0.0053123636
131	0x3b4bb7c3	0.0031084872
132	0x3b140050	0.0022583194
133	0xbbc128ae	-0.005894742
134	0x3b61d428	0.003445873
135	0xbc93e6c0	-0.018054366
136	0xbb51a047	-0.0031986402
137	0xbb81372a	-0.0039433436
138	0x3c14d086	0.009082919
139	0x3cd1b8ec	0.025600873
140	0xbc437520	-0.01192978
141	0xbc4cf926	-0.0125105735
142	0x3b6930a1	0.0035581964
143	0x3825acc9	3.9499984e-05
144	0x3a8a3c7f	0.0010546594
145	0xb97b8b1b	-0.00023989046
146	0xbb4cfa72	-0.0031277207
147	0x3938ae01	0.00017612429
148	0xbba715a3	-0.005099015
149	0xbbcc7cce	-0.006240464
150	0x3be4be99	0.006980729
151	0xba33b2bc	-0.00068549416
152	0xbb96e2d9	-0.004604679
153	0x3b7bff7d	0.0038451843
154	0xbc53589a	-0.012899542
155	0xbb5d0116	-0.003372257
156	0x3b79c5e4	0.0038112337
157	0xbb95c989	-0.004571144
158	0x3b81447a	0.0039449306
159	0xbb5a7f3f	-0.0033340005
160	0xbbb6be11	-0.005576857
161	0x3a456d16	0.00075312087
162	0x3b8204a9	0.0039678407
163	0x3b76a795	0.0037636508
164	0x3b794339	0.0038034453
165	0x3b901881	0.0043974523
166	0x38f0cad6	0.00011481873
167	0x3c25edc2	0.010127487
168	0xbbdd50bd	-0.0067540095
169	0x3c9126ea	0.017718751
170	0x3ac24b2b	0.0014823427
171	0xbb2416da	-0.0025038035
172	0x3c2ce82a	0.010553399
173	0x3c27d537	0.0102437055
174	0x3b67cc00	0.0035369396
175	0x3c09ae54	0.0084033795
176	0xbb0de319	-0.0021650253
177	0xbbbcf98c	-0.005767053
178	0x3b33a1cf	0.0027409678
179	0xbca7bdff	-0.02047634
180	0xba2fc996	-0.0006705759
181	0xbcc6ff1d	-0.02429157
182	0x3c46cf53	0.012134391
183	0xbb4fbe34	-0.0031699063
184	0xbaa02f6b	-0.0012221163
185	0xb7a21446	-1.9321345e-05
186	0xbc520d34	-0.012820531
187	0x3b48f3af	0.0030662825
188	0x3c189b6f	0.009314402
189	0x3b57e0e7	0.0032940449
190	0x3adffee1	0.001708951
191	0xbc12368e	-0.00892414
192	0xbc328a19	-0.010897183
193	0xbc17eab1	-0.009272263
194	0x3b3d6301	0.0028898122
195	0x3b4c539f	0.0031177772
196	0x3bcd08f9	0.006257173
197	0x3b720845	0.0036931199
198	0xba2df051	-0.0006635236
199	0xbb4599e4	-0.003015154
200	0xbbd5ae77	-0.006521042
201	0xbc39e4c1	-0.011346043
202	0xb9b98136	-0.0003538222
203	0x3bb9653b	0.0056578196
204	0x3c3c81f1	0.01150559
205	0xbc3d03d0	-0.0115365535
206	0xbbbfc54c	-0.005852377
207	0x3a87baa0	0.0010355301
208	0xb9997356	-0.00029268366
209	0x3bdf63bc	0.006817309
210	0xb9f9f51c	-0.00047675602
211	0x3ab17820	0.0013539828
212	0x3c14e0f4	0.009086836
213	0xbc90b64d	-0.017665053
214	0x3c20f455	0.009823878
215	0xb975f0c7	-0.00023454717
216	0xbc2845df	-0.010270565
217	0xbc0b5663	-0.008504483
218	0xbb0e0801	-0.0021672251
219	0xbb550e46	-0.0032509728
220	0x3c53ab44	0.012919251
221	0xbb501a3e	-0.0031753923
222	0x3be82a31	0.0070851077
223	0x3bb92be4	0.005650984
224	0xbb5e6df5	-0.0033940051
225	0xbc53a3ba	-0.012917453
226	0x3a05661b	0.0005088762
227	0x3c0e7c41	0.008696617
228	0xba8127eb	-0.0009853815
229	0x3aa13bf6	0.0012301195
230	0x3afaea63	0.0019143339
231	0x3b8107ce	0.003937698
232	0xbbb9bf26	-0.0056685386
233	0xbb5bf3ca	-0.0033562058
234	0xbaab907e	-0.0013089327
235	0xba537af2	-0.00080673315
236	0xbbba297b	-0.0056812144
237	0x3792c870	1.7497892e-05
238	0x38ff2832	0.000121668345
239	0x3be7c10b	0.007072573
240	0x3b852153	0.0040628104
241	0x3c7c5393	0.015400785
242	0x3b84c60a	0.0040519284
243	0x3b5eeedd	0.0034016885
244	0x3bd86119	0.006603372
245	0xbb67eb7d	-0.0035388165
246	0xbc6d96ca	-0.014501283
247	0xbbd4f7ed	-0.0064992816
248	0x3b4fa181	0.0031681957
249	0x3c9f829a	0.019471455
250	0x3b59f838	0.0033259522
251	0x3b47ff11	0.0030517022
252	0xbbebfb48	-0.007201586
253	0x3af23b53	0.0018480815
254	0xbb282905	-0.0025659215
255	0x3c94d5a3	0.018168276

action_model._discrete_distribution.branches.2.bias f4 [3]
0	0x3bf06250	0.0073359385
1	0xbb2aa786	-0.0026039793
2	0xbb449717	-0.0029997283

action_model._discrete_distribution.branches.2.weight f4 [3, 256]
0	0x3bb6f6b1	0.005583607
1	0x3d0251dc	0.03181635
2	0xba3c666d	-0.00071868935
3	0x3b9422f9	0.0045207706
4	0xbc01ce73	-0.0079227565
5	0x3c3e66e7	0.0116212135
6	0x3c09c344	0.008408371
7	0x3aeee6b2	0.0018226712
8	0x3c205dd0	0.009787992
9	0xbbe545af	-0.0069968323
10	0xbb9d1c6a	-0.004794647
11	0xbc8b83d0	-0.017030627
12	0xba0edb0a	-0.00054495095
13	0xbb8335af	-0.0040042023
14	0xbc91debf	-0.017806409
15	0x3beffc13	0.0073237508
16	0xbbdd1490	-0.006746836
17	0x3c1721eb	0.009224395
18	0x3ba01cdd	0.0048862533
19	0xbc85550a	-0.016275901
20	0x3bb76718	0.0055970065
21	0xbb095163	-0.0020953051
22	0xba252c91	-0.00063008914
23	0xbc9900e6	-0.018677186
24	0x3cc836bd	0.024440164
25	0xba87d426	-0.0010362908
26	0x3bcd500c	0.006265646
27	0xbb7afe0a	-0.0038298392
28	0x3c269398	0.010167025
29	0xbbf3c51c	-0.0074392688
30	0xbb832a4e	-0.004002846
31	0xbb318613	-0.002708797
32	0x3b570ce8	0.003281409
33	0x3cccc4a2	0.024996106
34	0xbb2bab52	-0.0026194644
35	0x3ceb4ed2	0.028724108
36	0xbbee5ef6	-0.007274504
37	0x3c5b2bc9	0.013377138
38	0x3c3d601f	0.011558562
39	0x3c1c670d	0.009546054
40	0xb822fb1f	-3.8857685e-05
41	0xbb344601	-0.0027507546
42	0x39a85bf6	0.00032111973
43	0x3ceb2879	0.028705822
44	0x39d99818	0.00041502784
45	0x3bd5105c	0.0065021943
46	0x3bcabebf	0.0061872895
47	0xbc0d47ac	-0.008623045
48	0x3d22d296	0.03975161
49	0xbbb1d6eb	-0.0054272315
50	0x3ced6eb3	0.02898345
51	0xbc0ebb56	-0.008711657
52	0x3c9a83fb	0.018861761
53	0x3ba25da6	0.0049550114
54	0x3cb9e3fe	0.022691723
55	0x3c39a9e5	0.01133201
56	0xbb923b77	-0.004462655
57	0xbc39c6cc	-0.011338901
58	0xbbbba1f4	-0.0057260934
59	0xbbe77868	-0.007063914
60	0x3a74c0d4	0.0009336595
61	0x3c6411ae	0.013920231
62	0xbbf87922	-0.0075827995
63	0x3c8f97c7	0.017528428
64	0xbbdb9f52	-0.006702342
65	0x3c902e60	0.017600238
66	0xbc015f70	-0.007896289
67	0xbb83166d	-0.004000476
68	0x3c5f1fdd	0.013618437
69	0xbb31065f	-0.0027011854
70	0xbc5dbbe7	-0.013533569
71	0xbbcacd39	-0.006189015
72	0xbb447021	-0.002997406
73	0xbc3bfc4a	-0.011473725
74	0xbaf044ec	-0.0018331087
75	0x3af7c5a4	0.0018903506
76	0x3cad4d9a	0.021155167
77	0x3b335f42	0.002737001
78	0xbc8381c0	-0.01605308
79	0x3cbf68bc	0.02336537
80	0xbbf08022	-0.0073394934
81	0x3be9744e	0.0071244603
82	0x3cc1f136	0.023674589
83	0xbb30570f	-0.002690736
84	0xbbc3925c	-0.005968375
85	0x3c8bfcd4	0.017088331
86	0x3c20afd1	0.009807543
87	0xbbdb9267	-0.006700802
88	0x3c8c879f	0.017154513
89	0x3b2ccf8d	0.0026368827
90	0x3ba63206	0.005071881
91	0x3b4f3ec6	0.003162311
92	0xbb44bf79	-0.0030021353
93	0x3bfdf4f7	0.0077501494
94	0xbbcaeb11	-0.006192573
95	0x3bcef7f6	0.0063161803
96	0x3c2322c4	0.009957019
97	0x3bf160fb	0.0073662973
98	0x3c15ff48	0.009155102
99	0xbc89d47e	-0.016824957
100	0xbc2899cd	-0.010290575
101	0xbbd2d029	-0.006433506
102	0x3c08a340	0.008339703
103	0xbbd1edb2	-0.0064065093
104	0x3cdf8802	0.027286533
105	0x3ca29403	0.019845968
106	0x3ba071ee	0.004896394
107	0xbad86a52	-0.0016511178
108	0xbc99dacf	-0.018781094
109	0xbaaac67d	-0.0013029125
110	0xbc078d9b	-0.0082735075
111	0xb935ca60	-0.00017336896
112	0x3c58bce8	0.0132286325
113	0x3ba9737c	0.0051712375
114	0xbaf707ac	-0.0018846891
115	0x3c40a957	0.011759124
116	0x3c3bf8fc	0.011472937
117	0x3c5c4b96	0.0134457555
118	0xbb90cbb2	-0.0044188136
119	0x3ba321a4	0.0049783755
120	0x3c39ac20	0.011332542
121	0x3ccca5d7	0.024981422
122	0xba88e9e6	-0.0010445684
123	0xbc32b4d7	-0.010907373
124	0x3aea3c67	0.0017870785
125	0x3c90dcb7	0.01768337
126	0x3c4a495f	0.012346595
127	0xbaed6c3b	-0.001811392
128	0x3b570dcf	0.0032814627
129	0xb993635c	-0.00028112053
130	0xba04fa31	-0.0005072682
131	0xbc1be202	-0.009514334
132	0x3a22f506	0.0006216321
133	0x398ae79b	0.0002649397
134	0xbc3627dd	-0.011117903
135	0x3bc42bc7	0.005986664
136	0xbbf7a53f	-0.0075575407
137	0x39284fcb	0.00016051454
138	0xbadd8768	-0.0016901316
139	0xbc224a8f	-0.0099054715
140	0xbc25896d	-0.010103566
141	0x3c08fff8	0.008361809
142	0xbb5c6145	-0.0033627313
143	0x3cc35f2f	0.023849098
144	0xbc4610e7	-0.012088991
145	0x3c95d4c3	0.01828993
146	0x3b8d7a3b	0.0043175495
147	0x3b5ab120	0.0033369735
148	0x3c541961	0.012945504
149	0xbba42a3f	-0.005009919
150	0xbbe13259	-0.006872457
151	0x3cd59905	0.026073942
152	0x3bbe33f4	0.005804533
153	0xbb4ab565	-0.0030930873
154	0xbb9dd4b4	-0.004816616
155	0x3c8df493	0.017328536
156	0xbbabd64c	-0.005244052
157	0x3c7ec12e	0.015548987
158	0x3a505cc6	0.00079483946
159	0x3cfec51f	0.031099854
160	0x3caa5002	0.020790104
161	0xbc65182a	-0.013982812
162	0xbc6d2dd6	-0.01447626
163	0x3c1c3290	0.009533539
164	0xbba9ac9b	-0.005178047
165	0xbaec92cf	-0.0018049123
166	0xbc2d2016	-0.010566732
167	0x3caf1876	0.021373969
168	0xba9fb6c9	-0.0012185212
169	0xbb8903ad	-0.0041813464
170	0x3cb35a23	0.021893566
171	0x3c1b9843	0.009496751
172	0x39e15054	0.00042975193
173	0x3c03d9a6	0.008047497
174	0xbc0f71f1	-0.008755193
175	0x3b6d8a44	0.0036245743
176	0xbcd4c64b	-0.02597346
177	0x3bfec649	0.0077751023
178	0xbc465193	-0.01210441
179	0x3a367276	0.0006959805
180	0x3ca6f3c9	0.020379918
181	0x3c62642f	0.013817831
182	0x3be6bb70	0.0070413873
183	0x3cee64af	0.029100744
184	0x3c518bb1	0.012789653
185	0xbc3ee6e5	-0.011651729
186	0x3cf3b70f	0.029750375
187	0xbc9320af	-0.01795992
188	0x3b788958	0.003792366
189	0xbb100164	-0.0021973485
190	0x3c90c257	0.017670793
191	0x3d0e3b19	0.03472433
192	0xbbb468e4	-0.005505668
193	0xbb4a9261	-0.0030910003
194	0xbc412f0c	-0.011791002
195	0xbba1b3bf	-0.0049347575
196	0x3c882868	0.01662083
197	0xbc675016	-0.014118215
198	0xbc2899b6	-0.010290554
199	0x3b009853	0.0019622042
200	0xbc7090c0	-0.014682949
201	0xbc07811b	-0.008270527
202	0x3c514726	0.012773311
203	0x3c917ece	0.01776066
204	0x3af4f275	0.001868798
205	0xbc868d1e	-0.016424712
206	0xbc486a5a	-0.012232387
207	0xbca54364	-0.020173736
208	0x3c208060	0.009796232
209	0xbb9dc2f7	-0.0048145014
210	0x3af669ad	0.0018799804
211	0x3c834fa1	0.016029181
212	0xbce30b54	-0.027715363
213	0xbba6fa76	-0.0050957752
214	0xbb79af25	-0.003809878
215	0xbc328f6a	-0.01089845
216	0xbb83d5bb	-0.0040232814
217	0x3c9e0e25	0.019293854
218	0xba17b9df	-0.000578789
219	0x3c8ccf65	0.017188737
220	0xbc61e689	-0.013787874
221	0x3c09d475	0.00841247
222	0xbc70e81b	-0.014703776
223	0xbbc2b5c1	-0.005942077
224	0xbc7c3a01	-0.015394689
225	0x3cb83a6a	0.022488791
226	0x3c88ab7c	0.016683333
227	0xbab093c3	-0.0013471771
228	0xbb68cf3f	-0.003552392
229	0xbb0f5894	-0.0021872865
230	0xbc4595eb	-0.012059669
231	0x3caca7c0	0.021076083
232	0xbc121287	-0.00891555
233	0x3bb21116	0.0054341657
234	0x3c6e3843	0.014539781
235	0x3c837d10	0.016050845
236	0x3caabc78	0.020841822
237	0x3cac6960	0.02104634
238	0x3c47c1ad	0.012192172
239	0xbb840153	-0.004028478
240	0x3c28dd64	0.01030669
241	0x3c74ef0b	0.01494957
242	0xbc3997fd	-0.011327741
243	0x3b714471	0.0036814476
244	0xbaff6b00	-0.0019486845
245	0x3d136ba7	0.035991337
246	0x3bfb4284	0.0076678414
247	0x3c88ce2a	0.01669987
248	0xba01ba7d	-0.00049487484
249	0xbb5db532	-0.0033829925
250	0xbbe1caa5	-0.006890612
251	0xbc1ba518	-0.009499811
252	0xbb48fa33	-0.0030666708
253	0x3bcc728d	0.0062392415
254	0xbc7ae1f8	-0.015312664
255	0xbb4a8e10	-0.003090743

discrete_action_output_shape f4 [1, 3]
0	0x40400000	3.0
1	0x40400000	3.0
2	0x40400000	3.0

network_body._body_endoder.seq_layers.0.bias f4 [256]
0	0xbc533af5	-0.012892474
1	0xbc804ed9	-0.015662597
2	0x3c8071bf	0.015679238
3	0xbc8ad82c	-0.016948782
4	0x3b2e198f	0.0026565527
5	0xba62c383	-0.00086503493
6	0xbaedd1a3	-0.0018144142
7	0xbc79dd70	-0.015250549
8	0x3c83ead0	0.016103178
9	0x3ab91326	0.0014120087
10	0x3c0bb1b3	0.0085262535
11	0xbc1d58d7	-0.009603701
12	0x3c4e4a56	0.012590965
13	0x3c3ebad8	0.011641227
14	0xbc2b18e2	-0.010442944
15	0xbb7e2519	-0.0038779436
16	0xbc5e8032	-0.013580369
17	0xbc8811c9	-0.016610043
18	0x3cfbd9c9	0.030743496
19	0xbc71d11d	-0.014759329
20	0x3af4b635	0.0018670025
21	0x3c229643	0.0099235205
22	0xba1e8e77	-0.00060484506
23	0xbc5020a2	-0.012703093
24	0xbc0377c6	-0.008024162
25	0x3b951642	0.0045497725
26	0xbb6078c8	-0.0034251679
27	0x3b03f99c	0.0020137792
28	0xbc9001dd	-0.017579013
29	0xbc35b2b3	-0.0110899685
30	0xbc51dc24	-0.012808833
31	0x3ba6be63	0.005088614
32	0x3cdc3352	0.02687994
33	0xbba36794	-0.0049867127
34	0xbbfefbb8	-0.007781472
35	0x3cb95c12	0.02262691
36	0x3c8162cf	0.015794186
37	0x3cbc606c	0.022995196
38	0xba31780e	-0.00067699037
39	0xbaad4546	-0.0013219498
40	0xbc1db1c4	-0.009624902
41	0xbbbeaa96	-0.0058186753
42	0x3913b119	0.00014084986
43	0xb9c87939	-0.0003823729
44	0x3b17d6ff	0.002316892
45	0x3c0d1e23	0.008613142
46	0x3c1ee37c	0.009697791
47	0xbaae5835	-0.0013301434
48	0xbc1331ce	-0.008984042
49	0xbc89acb6	-0.016805988
50	0xbab81d7c	-0.0014046873
51	0xba94fdd4	-0.0011367151
52	0xbbcd1bf3	-0.0062594353
53	0xbbc9e91c	-0.006161822
54	0x3ba1b903	0.004935385
55	0xbc2701e5	-0.010193323
56	0xbb13c0e9	-0.0022545403
57	0x3cc6879b	0.024234584
58	0x3b82943f	0.0039849575
59	0x3c3fcf2d	0.011707109
60	0x3b93b8d2	0.0045081163
61	0x3cdd4440	0.027010083
62	0x3caa3aee	0.020780053
63	0x3c8b79a2	0.017025772
64	0xbb8c2f30	-0.004278086
65	0xbb989ce0	-0.004657373
66	0x3bbee223	0.0058252974
67	0x3c94987d	0.018139118
68	0xbc130b94	-0.008974928
69	0x3bc233eb	0.0059265993
70	0xbc6368d3	-0.0138799725
71	0xbba5d75c	-0.005061073
72	0xbc47b27f	-0.012188553
73	0x3b8c02ae	0.0042727804
74	0xbb0a0b43	-0.0021063841
75	0x3ba6403b	0.005073575
76	0xbc8c7396	-0.01714496
77	0xba03f171	-0.0005033231
78	0xbb823e71	-0.0039747288
79	0x3b7c14cf	0.0038464551
80	0x3c8786ee	0.016543832
81	0x3b868f4f	0.004106439
82	0xbc156eca	-0.009120652
83	0x3c998f09	0.018744962
84	0xbc328a05	-0.010897164
85	0xbc4c402e	-0.0124664735
86	0x3c96d148	0.01841034
87	0x3c97e0e3	0.018539852
88	0x3b44a1f6	0.0030003763
89	0x3b87a512	0.004139551
90	0x3b84c9bf	0.0040523703
91	0xbc91b483	-0.01778627
92	0x3c41d058	0.011829458
93	0xbb03eb78	-0.0020129364
94	0xbc4169b1	-0.011804984
95	0x3c3a567c	0.011373159
96	0x3a96de8c	0.0011510416
97	0xbc35a14e	-0.011085821
98	0x3cafe298	0.021470353
99	0x39ddc3a9	0.00042298183
100	0xbb1c863e	-0.0023883726
101	0xbc3ef288	-0.011654504
102	0x3b7b283e	0.0038323547
103	0xbb9f24c0	-0.004856676
104	0x3c95ce87	0.018286956
105	0x3c0243c0	0.007950723
106	0xbc98268c	-0.018573068
107	0x3b0992b5	0.0020991985
108	0xbc00be15	-0.007857819
109	0x3c6612ba	0.014042551
110	0x3c2c873f	0.010530292
111	0xbc0f4c80	-0.008746266
112	0x3c462d7c	0.012095805
113	0xbbe926fd	-0.0071152435
114	0x3cb9a0c5	0.022659669
115	0x3c6dbd20	0.014510423
116	0x3c5f55e6	0.01363132
117	0xbcaf82c3	-0.021424657
118	0x3c9ad4f5	0.018900374
119	0xbc0af58e	-0.008481396
120	0xbbe8c130	-0.007103108
121	0x3ba2e198	0.0049707405
122	0x3acff5e8	0.0015866132
123	0xbc6a45df	-0.014298885
124	0xbcbee577	-0.023302777
125	0x3b95c2fd	0.0045703636
126	0x3c3b759b	0.011441614
127	0xbb54d111	-0.0032473246
128	0x3ca1eb4a	0.019765515
129	0xbb8e9bfc	-0.004352091
130	0x3c4ffb7a	0.012694234
131	0xba27d575	-0.0006402352
132	0x3b366a52	0.0027834368
133	0x3a52f04e	0.00080466724
134	0x3ca91c41	0.020643355
135	0x3bfe0de4	0.0077531207
136	0xbb8055ea	-0.0039164918
137	0x3b3f7f16	0.0029220036
138	0xbc34b679	-0.011029833
139	0x3cbf72ac	0.02337011
140	0x3c3ad982	0.011404397
141	0x3c1c73f9	0.009549134
142	0xbb72e861	-0.0037064778
143	0x3c55a2ba	0.013039285
144	0xbc1c57d5	-0.009542425
145	0x3b81827c	0.0039523225
146	0xbbb55756	-0.005534093
147	0x39e694cc	0.0004397988
148	0x3cdbb22c	0.026818357
149	0x3b2d6689	0.002645882
150	0xbb25d040	-0.0025301129
151	0xba36e4d6	-0.0006976848
152	0x3cb01a8a	0.02149703
153	0xbbd13818	-0.0063848607
154	0xbba38b6b	-0.004990985
155	0x3c15deda	0.00914737
156	0x3ba0955c	0.0049006175
157	0xbbd7b4b6	-0.0065828217
158	0x3c665f62	0.014060827
159	0xbbb5dc85	-0.0055499696
160	0x3c26cfe4	0.010181401
161	0xbc2200c3	-0.009887877
162	0xbb85e45d	-0.004086061
163	0x3be0fcca	0.0068660723
164	0x3a4c95d6	0.000780431
165	0x3c28b519	0.010297083
166	0x3a63fc77	0.0008696983
167	0xbc7ebed1	-0.015548424
168	0xbb2435b5	-0.0025056426
169	0x3c2d82b9	0.010590249
170	0xbbb2c4b3	-0.0054555773
171	0x3be173b1	0.0068802466
172	0xbba6a9a2	-0.00508614
173	0x3c57621b	0.013145949
174	0x3bc5798b	0.006026452
175	0x3bdbcd6c	0.006707838
176	0x3b898045	0.004196199
177	0xbc425cc6	-0.011862939
178	0xbc3487b7	-0.011018685
179	0x3c47179a	0.012151623
180	0x3bb1a34b	0.0054210774
181	0x3a36c813	0.00069725624
182	0x3bcce046	0.0062523214
183	0xbbe0fdf2	-0.00686621
184	0xbb1bf4cc	-0.0023797033
185	0xbc5d06b7	-0.0134903705
186	0xbb2446fb	-0.0025066722
187	0xbc2da7aa	-0.010599056
188	0x3b874a5f	0.004128739
189	0xbc1e2046	-0.009651249
190	0xbbda80d4	-0.0066681895
191	0xbc892b90	-0.016744405
192	0x3b43d885	0.0029883694
193	0xbc227398	-0.009915255
194	0x3c42d625	0.011891876
195	0xba4b8054	-0.0007762958
196	0xbc441376	-0.0119675305
197	0x3c18565b	0.0092979325
198	0xbc268d46	-0.010165518
199	0x3c603405	0.013684277
200	0x3ae81990	0.0017707814
201	0xbbd4fb47	-0.006499681
202	0xbc0c601a	-0.008567834
203	0x3c819749	0.015819209
204	0xbc171773	-0.009221899
205	0x3d11bbdc	0.035579547
206	0xbba88160	-0.005142376
207	0xbc4934b3	-0.012280631
208	0x3b931007	0.0044879946
209	0xbc3646ae	-0.01112525
210	0x39d0c622	0.00039820472
211	0xbc6d2939	-0.01447516
212	0xbb9cdfb1	-0.0047874083
213	0x3c54e928	0.012995042
214	0x3ca63414	0.020288505
215	0xbbd7d48a	-0.006586616
216	0x3c2f25bd	0.01069015
217	0xbbf493c8	-0.007463906
218	0x3c640d77	0.013919226
219	0xbbe1c717	-0.0068901884
220	0xbc3f6372	-0.011681424
221	0xba61168a	-0.00085864274
222	0xbc3144f8	-0.010819666
223	0xbbf8f53a	-0.0075975927
224	0x3aec3549	0.0018021251
225	0xbc4532d9	-0.012036049
226	0xbb8e2635	-0.0043380507
227	0x3c1515f2	0.00909947
228	0xbc93f282	-0.018059973
229	0x3c9c803c	0.019104116
230	0x3ca34e3d	0.019934768
231	0x3b535947	0.0032249258
232	0x3b25a373	0.0025274425
233	0x3b7b8d05	0.0038383615
234	0x3b5b182b	0.0033431153
235	0xbc80f4b3	-0.015741682
236	0xbc5db4b0	-0.013531849
237	0x3c441bef	0.0119695505
238	0x3c9c04fc	0.019045345
239	0x3d02fb57	0.031977978
240	0xbb8768ad	-0.0041323514
241	0x3b79803a	0.0038070814
242	0x3b9eea29	0.0048496914
243	0x3c8d3196	0.017235558
244	0x3bc737ae	0.0060796356
245	0x3c2e4dcf	0.010638668
246	0x3d0f05f5	0.03491779
247	0x3ca3d2e7	0.019998027
248	0x3b09ac5b	0.0021007273
249	0x3c25d530	0.010121629
250	0x3c0b8ef2	0.008517968
251	0x3c9630b5	0.018333772
252	0xbbe35864	-0.006938027
253	0x3bcbcd90	0.0062195733
254	0x3baacb9c	0.0052122604
255	0x3c0b12f2	0.008488404

network_body._body_endoder.seq_layers.0.weight f4 [256, 27]
0	0x3d24e5ff	0.040258404
1	0xbe1d57b9	-0.15365495
2	0x3e984994	0.29743636
3	0xbe5002f0	-0.2031362
4	0x3d5b4f43	0.053542387
5	0x3d8c0a6d	0.06837926
6	0xbdf29dd7	-0.11846512
7	0x3c86a73f	0.016437171
8	0x3e702a3e	0.23453614
9	0x3d6e3c03	0.0581627
10	0x3e5e8000	0.21728516
11	0xbe048140	-0.1293993
12	0xbe63e6c8	-0.22256005
13	0x3e946a9f	0.28987595
14	0xbdc4fa8e	-0.09618102
15	0x3c28c544	0.010300938
16	0xbdc7a89b	-0.09748956
17	0x3d8c66cb	0.06855544
18	0xbde75a85	-0.11296562
19	0x3e9557ed	0.29168645
20	0x3e4fe8d6	0.20303664
21	0x3ea1d897	0.31610557
22	0xbedda18c	-0.43287313
23	0x3cf82b1f	0.030294
24	0x3dfafd33	0.12255325
25	0xbe521f48	-0.20519745
26	0x3e1154c0	0.14192486
27	0x3e755a9e	0.23960349
28	0xbe3946cf	-0.18093418
29	0xbde4cd41	-0.111719616
30	0x3e48d732	0.1961334
31	0xbe3c7248	-0.1840297
32	0x3cc07117	0.023491425
33	0xbda15fc8	-0.07879597
34	0x3e4fa909	0.20279326
35	0xbe929d50	-0.28635645
36	0x3ec797c3	0.38982973
37	0x3e6280a8	0.22119391
38	0xbe9b8aa9	-0.30379227
39	0x3e6ed1fe	0.23322293
40	0x3ea41f68	0.3205521
41	0xbe8d6089	-0.27612713
42	0xbc79a0ae	-0.015236063
43	0xbbf70b8b	-0.007539218
44	0xbdb97b3a	-0.09056707
45	0x3e24a2ed	0.16077776
46	0x3dc73c51	0.09728301
47	0x3ed1fae2	0.4101172
48	0x3e226f00	0.15862656
49	0xbd41456a	-0.04718534
50	0x3e18af4c	0.1491062
51	0x3e9ba97b	0.3040274
52	0xbd9fd883	-0.07804968
53	0x3ef5aa35	0.4798142
54	0x3da36da4	0.07979897
55	0x3db66b28	0.08907157
56	0x3e5c3e0d	0.21508045
57	0x3eb5832f	0.35451648
58	0xbe67dd96	-0.22643122
59	0xbe8058fd	-0.25067893
60	0x3d30f9a0	0.04320681
61	0xbe4f44a7	-0.20241033
62	0xbea8a020	-0.32934666
63	0xbd89515b	-0.067049704
64	0x3a23d424	0.0006249568
65	0x3e5231a8	0.20526755
66	0x3d4272b9	0.04747269
67	0xbdd8661d	-0.105663516
68	0x3d2cb35b	0.042163234
69	0x3d2de13a	0.04245112
70	0xbe7ae9d0	-0.24503255
71	0xbe307216	-0.1723102
72	0x3dcb69ca	0.09932287
73	0x3d8300ad	0.06396613
74	0x3e1cadb3	0.15300636
75	0x3be0c0ae	0.0068589067
76	0x3e40924a	0.18805805
77	0x3e2776b4	0.16353875
78	0x3e655df0	0.22399116
79	0x3e873ad2	0.26412064
80	0x3cf2ca8d	0.0296376
81	0xbd6ae7d1	-0.057349984
82	0x3e0473c3	0.12934785
83	0xbe9ddc85	-0.30832306
84	0xbe839f81	-0.2570763
85	0x3ea55e27	0.32298395
86	0x3ee3de81	0.44505695
87	0xbc8544d9	-0.01626818
88	0x3bd3d0a3	0.0064640804
89	0x3d522766	0.051307105
90	0xbe7d0682	-0.24709514
91	0x3e30ffff	0.17285155
92	0xbd06ee96	-0.032942377
93	0xbb3853b8	-0.0028126072
94	0xbe68a08a	-0.22717491
95	0x3e3f272b	0.18667285
96	0xbe599710	-0.21249032
97	0x3e89fa7c	0.26948917
98	0x3ee9d618	0.45671153
99	0xbe8e4d86	-0.2779352
100	0x3ec131e1	0.37733367
101	0x3e5f9ff4	0.21838361
102	0x3c1dc8e9	0.00963042
103	0xbe04baee	-0.12961933
104	0xbe244697	-0.16042553
105	0xbd5a4c8a	-0.05329565
106	0xbd82616c	-0.06366238
107	0x3cee7b2f	0.029111473
108	0x3dd16f12	0.10226263
109	0x3eab2fdb	0.33434948
110	0x3ce72cdb	0.028219631
111	0x3df25298	0.1183216
112	0xbc092e6c	-0.008372884
113	0xbdaaea1a	-0.083454326
114	0xbced3488	-0.028955713
115	0x3d3499f1	0.044092122
116	0x3d3e1e5b	0.046415668
117	0xbe297e2a	-0.16552034
118	0x3ddefcc3	0.10888054
119	0xbbac1b09	-0.0052522463
120	0xbcf4122d	-0.029793823
121	0xbe9ad599	-0.30241087
122	0x3e63a463	0.22230677
123	0x3db432e5	0.0879877
124	0xbe3e4672	-0.1858156
125	0xbe221fdb	-0.15832464
126	0xbde72a90	-0.11287415
127	0x3d9b2e1a	0.075771526
128	0x3d0af4ab	0.03392474
129	0x3dd749b0	0.10512102
130	0xbdf487cc	-0.11939964
131	0x3e618af8	0.22025669
132	0x3bde6fe7	0.006788242
133	0xbd49c090	-0.049255908
134	0xbec209a0	-0.37897968
135	0xbe214ac9	-0.15751185
136	0x3db00ddc	0.085963935
137	0x3e2d184a	0.16903797
138	0x3e405a6a	0.1878449
139	0xbdcb91f4	-0.09939948
140	0xbd1ed19e	-0.038774125
141	0xbe936176	-0.28785294
142	0xbe8fe181	-0.28101733
143	0xbd5ee983	-0.054421913
144	0xbe1589a0	-0.14603281
145	0x3e3105fb	0.17287438
146	0xbd5709c8	-0.052499563
147	0xbd1b75fd	-0.03795432
148	0x3d13ba35	0.036066253
149	0x3e6f992b	0.23398273
150	0x3da3f0bb	0.080049
151	0xbe0245f8	-0.12722003
152	0x3ea50645	0.32231346
153	0x3e82e327	0.25563928
154	0xbe844c69	-0.25839546
155	0xbc704df6	-0.014667025
156	0x3d7c5cc6	0.061611913
157	0x3e83927a	0.2569769
158	0xbec2a14f	-0.38013694
159	0x3da47a38	0.08031124
160	0x3dee4fa1	0.11636282
161	0x3e1cd02b	0.15313785
162	0x3d3dc565	0.04633083
163	0x3dd73007	0.10507207
164	0x3c3d8004	0.011566166
165	0xbdade4f8	-0.08490938
166	0xbc3586cf	-0.011079504
167	0x3e6a76f0	0.22896934
168	0x3e974f3b	0.29552636
169	0xbd3b3253	-0.04570229
170	0x3ea83395	0.32851854
171	0x3e272f6c	0.16326684
172	0x3df35462	0.11881329
173	0x3d81a268	0.06329805
174	0xbcfb6430	-0.030687422
175	0x3ed6cb25	0.41951862
176	0x3e6b8fa7	0.23004018
177	0x3d9aeba4	0.07564476
178	0xbe995ffd	-0.29956046
179	0xbe2b0fd5	-0.16705258
180	0x3ebe40d6	0.3715884
181	0x3d8ab84b	0.06773432
182	0xbea1306f	-0.31482264
183	0xbcdf0e87	-0.027228607
184	0xbe635307	-0.22199641
185	0x3de450e5	0.11148242
186	0xbeabc5c0	-0.3354931
187	0x3e925840	0.28582954
188	0xbd303375	-0.043017823
189	0x3f00e9d7	0.5035681
190	0xbd3c3c8d	-0.045956183
191	0xbd0af054	-0.0339206
192	0x3e18fb76	0.14939675
193	0xbe1faa0b	-0.1559221
194	0x3d386d7c	0.045026287
195	0xbdbff7be	-0.09373425
196	0x3d0fa460	0.03506887
197	0xbea9ad1c	-0.33139884
198	0x3e1aef3c	0.15130323
199	0x3cff33dc	0.031152658
200	0x3d357706	0.044302963
201	0x3e0f8976	0.14017281
202	0xbeaf1fce	-0.34203953
203	0x3eb21263	0.34779653
204	0x3dc17f49	0.09448106
205	0x3e9781d1	0.2959123
206	0xbc95f171	-0.018303605
207	0xbdbb3ecb	-0.09142836
208	0x3dbdfaa6	0.09276323
209	0xbdbf651c	-0.09345457
210	0x3e276c2a	0.16349855
211	0x3d7fa91e	0.062417142
212	0x3ee70ba2	0.45126063
213	0x3de3c8d6	0.11122291
214	0xbdd75d0c	-0.10515794
215	0xbe28a507	-0.16469203
216	0x3ee67e90	0.45018435
217	0x3e52aa6f	0.20572828
218	0xbdc3e89a	-0.095658496
219	0xbe1d99f7	-0.15390764
220	0xbe5048b0	-0.20340228
221	0xbd98e90d	-0.07466326
222	0xbe76fa25	-0.2411886
223	0x3e75efe8	0.24017298
224	0xbd001c1c	-0.031276807
225	0xbc56d55c	-0.013112392
226	0xbdad6766	-0.08466987
227	0xbe55e6f8	-0.20888889
228	0x3e5b8a69	0.21439518
229	0x3e802341	0.25026897
230	0xbe4b8a55	-0.19876988
231	0x3e3f4e57	0.18682228
232	0xbe0c92fa	-0.13727942
233	0x3d5b2aa0	0.053507447
234	0x3e11ea9a	0.1424965
235	0x3e201aa6	0.15635166
236	0xbef3cd4c	-0.47617567
237	0xbdb3e804	-0.08784488
238	0x3e6c8618	0.23098028
239	0x3c727308	0.014797933
240	0xbcc42bc0	-0.023946643
241	0x3dab46c1	0.083631046
242	0x3d55ede5	0.052228827
243	0x3d510744	0.05103232
244	0x3e8128d8	0.25226474
245	0x3edc2f14	0.43004668
246	0x3e2e8a9f	0.17045067
247	0x3b1f52dc	0.0024310863
248	0x3b6f49a4	0.00365124
249	0x3c3bd1c8	0.01146359
250	0xbd4d1e6b	-0.050077837
251	0xbe46e398	-0.19422758
252	0x3e15f013	0.14642362
253	0xbe596ab7	-0.21232115
254	0xbbdb8e30	-0.0067002997
255	0xbe6e5856	-0.23275885

network_body._body_endoder.seq_layers.2.bias f4 [256]
0	0xbbe2bca6	-0.0069194613
1	0x3be39b7d	0.006946026
2	0xbbb48bec	-0.005509844
3	0x3a8a6e78	0.0010561487
4	0xbbc4044b	-0.005981957
5	0x3be43064	0.0069637764
6	0xbbb28ccc	-0.005448913
7	0x3c35e744	0.011102501
8	0xbbab5eca	-0.0052298056
9	0x3bcd2eae	0.006261668
10	0x3ba6e95f	0.005093738
11	0xbba4a7f3	-0.005024904
12	0x3ad69fea	0.0016374562
13	0x3ca6a247	0.020341052
14	0x3b5afaca	0.0033413642
15	0xbbc081bb	-0.00587484
16	0x3ca70cd2	0.020391855
17	0xbb731575	-0.0037091647
18	0xbbce6be8	-0.0062994845
19	0xbab5d048	-0.0013871277
20	0xbbd9396c	-0.0066291597
21	0x3c1a4f26	0.0094182845
22	0xbb8ad61c	-0.0042369496
23	0xbb0868c1	-0.0020814391
24	0x3bc80d27	0.0061050835
25	0x3b9aef33	0.004728222
26	0xbbc6e45d	-0.0060697035
27	0xba528bf1	-0.0008031717
28	0xb94ec7cc	-0.00019720121
29	0x3b5ba441	0.003351465
30	0xbb2e09c3	-0.0026556111
31	0xbbc8a6ce	-0.0061234003
32	0x3c124f84	0.008930091
33	0x3b144f3a	0.002263023
34	0x3b93626e	0.0044978177
35	0xbaa016ae	-0.001221379
36	0x3ba88ab0	0.005143486
37	0xbb091649	-0.0020917824
38	0x3b351a9c	0.0027634269
39	0xbb824330	-0.0039752945
40	0xbba24f6c	-0.0049533155
41	0xbb913b00	-0.004432082
42	0x3c80f923	0.015743798
43	0xbb1946bc	-0.0023388108
44	0xbbedb5e0	-0.007254347
45	0xbac2b63f	-0.0014855339
46	0xbbcec688	-0.006310288
47	0x3c0a90d1	0.0084573785
48	0x3bd8611b	0.0066033727
49	0xbb591bd0	-0.003312815
50	0xbb705d7e	-0.003667682
51	0xbacba584	-0.0015536998
52	0xbbb1ec13	-0.0054297536
53	0x3b41510c	0.002949777
54	0x3bf4f5c5	0.007475587
55	0xbbe4bc9e	-0.0069804927
56	0xbbfdb852	-0.00774292
57	0xbb9c6474	-0.004772717
58	0x3b0a20b8	0.002107663
59	0x3c2d25b6	0.010568073
60	0xbbef3f2d	-0.0073012323
61	0xbbef104a	-0.007295643
62	0x3bc9d0d3	0.006158927
63	0x3b01733e	0.0019752528
64	0x3bb6fe6b	0.005584528
65	0x3bb29368	0.005449701
66	0xbb9123c5	-0.004429313
67	0xbbfaad12	-0.007650026
68	0xbc04d223	-0.008106741
69	0xbb7e85ec	-0.0038837148
70	0xb9cb3619	-0.00038759483
71	0x3b89a642	0.0042007277
72	0x3b6b476c	0.0035900725
73	0x3b6f21f5	0.0036488746
74	0xbb129144	-0.0022364417
75	0x3c590d32	0.013247775
76	0xbaaeb856	-0.0013330083
77	0x3b89b616	0.0042026145
78	0xba7a83cb	-0.0009556382
79	0x3c62cd84	0.013842944
80	0xbbceee02	-0.006314994
81	0xbbb024ee	-0.005375496
82	0xba7a9b80	-0.00095599145
83	0xbbfd6a66	-0.007733631
84	0x3b7e18eb	0.0038772176
85	0x3b26241c	0.0025351113
86	0x3bf1c62d	0.0073783607
87	0xba9aed87	-0.0011820056
88	0xbb3cb273	-0.0028792887
89	0x39498e8a	0.00019221954
90	0x39eb3ed2	0.00044869498
91	0xbb7e8830	-0.0038838498
92	0x3ab01971	0.0013435317
93	0xbb8077b2	-0.003920519
94	0xbc36a066	-0.01114664
95	0xbb84122c	-0.0040304866
96	0xbb06671f	-0.0020508242
97	0xbc0999d1	-0.008398489
98	0x3bc50afc	0.0060132723
99	0x3c0224e7	0.0079433685
100	0xba20078f	-0.0006104642
101	0x3b025ad3	0.0019890561
102	0xbb8dcd70	-0.0043274686
103	0xbc49a27e	-0.012306808
104	0x3b0e740d	0.0021736652
105	0xb94a19c6	-0.00019273823
106	0xbbed1a4a	-0.0072358
107	0xbc07057b	-0.008241053
108	0xbb7534ea	-0.0037415572
109	0xbbe16271	-0.00687819
110	0x3c329b6f	0.010901316
111	0xbb818730	-0.003952883
112	0xbbb13287	-0.0054076347
113	0x3bb900a4	0.0056458283
114	0xbbd0fc37	-0.0063777226
115	0xbbc3e2e7	-0.0059779766
116	0xbbc937b7	-0.006140675
117	0x3b1dd2e1	0.0024081992
118	0x3cd4b67f	0.025965927
119	0xbbedf505	-0.0072618746
120	0x3b8e6261	0.004345224
121	0x3b986f5d	0.0046519474
122	0x3c33ae51	0.010966853
123	0x3b201726	0.002442786
124	0xbb93b862	-0.004508064
125	0xbbe62a1a	-0.007024062
126	0x3bd390fe	0.0064564934
127	0xbc00b2da	-0.007855142
128	0x3c22fb6c	0.009947639
129	0xbb658c30	-0.0035026185
130	0xbbb386d1	-0.005478718
131	0x3b7bc6aa	0.0038417974
132	0xbaff173a	-0.0019461878
133	0xbbc7984a	-0.0060911523
134	0xbc1f0681	-0.0097061405
135	0x3b95db1a	0.004573238
136	0x3c39e5c3	0.011346283
137	0xbbd15004	-0.0063877124
138	0x3c3ac9ec	0.011400681
139	0x3a7d7e21	0.0009669979
140	0x3b880063	0.0041504367
141	0xb9cd5efb	-0.00039171413
142	0xbac23c13	-0.0014818929
143	0x3b262334	0.0025350573
144	0xba0aa743	-0.0005289206
145	0xbbd38806	-0.0064554242
146	0x3ba2a2fd	0.0049632774
147	0xbc0c86fb	-0.008577104
148	0xbb0815ee	-0.0020765024
149	0x3b3eba6a	0.002910281
150	0xbbfc475d	-0.007698937
151	0x3c4332b1	0.011913941
152	0x3b031f40	0.002000764
153	0x3c28c6f2	0.0103013385
154	0xbc10ca7e	-0.00883734
155	0xbbdf61f8	-0.0068170987
156	0x3c2d9e95	0.010596891
157	0xbb8b68b7	-0.0042544263
158	0x39f7ea15	0.00047285916
159	0x3b9e0c47	0.004823241
160	0x3c08dfb1	0.008354113
161	0xbbc9e4a4	-0.0061612893
162	0x3986e29e	0.00025727315
163	0xbb74ab02	-0.0037333374
164	0x3c23f47f	0.010007023
165	0xbc1309ff	-0.008974551
166	0xbb027217	-0.0019904429
167	0x3ab40269	0.0013733628
168	0x3c183ab9	0.009291344
169	0xbc5722c8	-0.013130851
170	0x3bd340d2	0.006446936
171	0xbc1bfcce	-0.009520723
172	0xbc18e8a6	-0.009332811
173	0x3b9762e4	0.004619943
174	0xbb661a39	-0.0035110845
175	0xbc00ec0e	-0.00786878
176	0xb8924a9c	-6.9757196e-05
177	0xb9dc8041	-0.00042057227
178	0x3bf6d671	0.0075328876
179	0xbb15da9d	-0.00228659
180	0xbba52f99	-0.0050410745
181	0xbb34e658	-0.0027603116
182	0xbc2b5738	-0.010457806
183	0x3c8522d1	0.016251953
184	0xbb23d5d7	-0.0024999285
185	0x3b5dd72f	0.0033850183
186	0x3aa649b1	0.0012686757
187	0xbb7838dc	-0.0037875688
188	0x3aff577a	0.0019481026
189	0x3a5f0235	0.0008507104
190	0x3ca4bf9a	0.020110894
191	0x3ba9f6e8	0.005186904
192	0x39c5509e	0.00037634833
193	0x3c2dcc09	0.010607728
194	0x3bb986bb	0.005661813
195	0xbb563b71	-0.0032689238
196	0xbb9d7b0e	-0.004805929
197	0x3bd461ac	0.00648137
198	0xbaf7079f	-0.0018846876
199	0xbc048b56	-0.008089861
200	0xbb82c6d4	-0.0039909873
201	0xbb83920a	-0.004015212
202	0xbc165780	-0.009176135
203	0xba91874f	-0.0011102947
204	0x3c5414e4	0.012944434
205	0xbb1f1ae9	-0.0024277514
206	0xbb4f7a81	-0.0031658711
207	0x3a35d6e4	0.0006936623
208	0x3b9a93a7	0.0047173086
209	0x3b317d3c	0.0027082702
210	0xbb83a748	-0.004017744
211	0xbbc6db60	-0.006068632
212	0xbbf95a3c	-0.0076096337
213	0x3b7f5920	0.0038963035
214	0x3c0f11ca	0.008732269
215	0xbbcb3170	-0.006200962
216	0x3ba58356	0.005051057
217	0x3b879151	0.004137196
218	0xbb8f5972	-0.0043746764
219	0xbb016dab	-0.0019749205
220	0x3c11902f	0.008884474
221	0xbb045521	-0.0020192342
222	0x3c24eb0d	0.010065806
223	0xbb24c6e8	-0.0025142971
224	0x3bf455eb	0.0074565313
225	0x3c1413cd	0.009037924
226	0x38831177	6.24982e-05
227	0x3c3d89e6	0.011568522
228	0xbc15e7a6	-0.009149468
229	0xbb83bbbc	-0.0040201824
230	0xbb58a6e4	-0.003305846
231	0xbbc55bf3	-0.006022924
232	0xbbcc114a	-0.006227647
233	0xbbe91fdd	-0.007114394
234	0xbba253d8	-0.0049538426
235	0x3a9b51ef	0.001184998
236	0x3b9ca5a2	0.004780487
237	0xba543753	-0.0008095402
238	0xbc1c5787	-0.0095423525
239	0xbc0b460e	-0.008500589
240	0xbb3cd3b4	-0.0028812708
241	0x3c31de67	0.0108562475
242	0x3b882020	0.00415422
243	0x3b0f486d	0.0021863237
244	0xbbae88d0	-0.005326368
245	0x3c264e19	0.010150456
246	0xbb176f00	-0.0023106933
247	0xbb9a77ea	-0.004714002
248	0x3ca4b99d	0.020108039
249	0xbbc2d841	-0.0059461896
250	0xbb87a28a	-0.004139249
251	0xbaa4089a	-0.001251477
252	0xbc2227d7	-0.009897194
253	0x3bfcfa74	0.007720286
254	0x3a21d6ee	0.00061736896
255	0x3bdd55f0	0.0067546293

network_body._body_endoder.seq_layers.2.weight f4 [256, 256]
0	0x3d666238	0.056246012
1	0x3d426fe3	0.047469985
2	0xbd6af512	-0.057362624
3	0x3c3b90f6	0.011448136
4	0x3c15293b	0.009104068
5	0xbc971b1f	-0.01844555
6	0x3c93af3a	0.01802789
7	0xbd4dc301	-0.0502348
8	0x3da8b0c5	0.08236841
9	0xbcd18c2a	-0.02557953
10	0xbd58368f	-0.052786406
11	0xbd62af22	-0.0553428
12	0xbb479825	-0.0030455675
13	0xbc564a4c	-0.013079237
14	0xbce11d91	-0.027479919
15	0xbc7f00b5	-0.015564133
16	0x3df350ca	0.11880644
17	0xbc4ba3d6	-0.012429198
18	0xbdd365c5	-0.103221454
19	0x3cfc4d77	0.030798657
20	0x3d339317	0.043841448
21	0xbda1d4b9	-0.07901902
22	0xbd92bf2a	-0.07165368
23	0xbd89dbad	-0.06731353
24	0xbb2f9e4a	-0.0026797228
25	0xbbe16a52	-0.0068791294
26	0xbdb3bb21	-0.087759264
27	0x3d7a4aaa	0.06110636
28	0xbd2e07be	-0.042487852
29	0x3cd1195b	0.025524786
30	0xbd8d3371	-0.06894577
31	0x3c93e23c	0.018052213
32	0xbcf22782	-0.029559854
33	0x3d752efb	0.059859257
34	0x3d7e4403	0.06207658
35	0xbb9450ee	-0.004526249
36	0x3d603f5f	0.054747935
37	0x3dd120bb	0.10211321
38	0x3d73ae55	0.059492428
39	0x3d230037	0.039795127
40	0x3c9ed0ac	0.019386612
41	0x3cf62397	0.030046267
42	0x3dd7ee50	0.105435014
43	0xbe2c320c	-0.16815966
44	0xbd4cbd3f	-0.049985167
45	0x3dd12527	0.10212164
46	0xbdaf7e3e	-0.08569001
47	0x3e273034	0.16326982
48	0x3da9398b	0.082629286
49	0xbc7cfcfb	-0.015441175
50	0x3d1ef9a4	0.038812295
51	0x3d029e53	0.03188927
52	0x3d37f97d	0.044915665
53	0x3d4b78bd	0.049675692
54	0xbb3bd869	-0.0028662926
55	0x3db51735	0.08842317
56	0x3d8c608b	0.068543516
57	0xbda7be59	-0.08190603
58	0x3cc008c3	0.023441678
59	0xbc662454	-0.014046747
60	0x3b56a67a	0.0032753036
61	0xbd6a89a7	-0.05726018
62	0xbd5090fe	-0.050919525
63	0x3d16d610	0.03682524
64	0x3cae781c	0.021297507
65	0x3dd57008	0.10421759
66	0x3d291eeb	0.04128925
67	0xbd83d34c	-0.06436786
68	0x3d1c4ffd	0.03816222
69	0x3c38f463	0.011288735
70	0xbd88f9c6	-0.066882655
71	0x3d84c223	0.06482341
72	0xbce5491d	-0.027988965
73	0xbc05e478	-0.008172147
74	0xbd8ac9e1	-0.067767866
75	0xbcc3fa88	-0.023923174
76	0xbc8df52d	-0.017328823
77	0x3ca48c7c	0.02008652
78	0xbcd95bec	-0.02653309
79	0xbc06d75b	-0.008230056
80	0xbd2fbdfb	-0.04290579
81	0x3cd684e7	0.02618642
82	0xbe071b46	-0.13193998
83	0xbcfc70f6	-0.030815583
84	0x3d9a5b82	0.07536985
85	0x39a48bd1	0.0003138469
86	0xbcdec8d8	-0.02719538
87	0x3c05fbfc	0.008177754
88	0xbbe21c4e	-0.006900347
89	0x3d0269aa	0.03183905
90	0x3d0b6f09	0.03404144
91	0x3ca21d9a	0.019789506
92	0xbd921d02	-0.07134439
93	0x3e3756ff	0.1790428
94	0x3cfad0a8	0.030617073
95	0xbd432caf	-0.047650035
96	0x3cd1da13	0.025616681
97	0x3d437f82	0.047729023
98	0x3d9df4e2	0.07712723
99	0xbdd17452	-0.102272645
100	0xbd444f8f	-0.047927435
101	0x3dd6561f	0.10465645
102	0x3d8d307e	0.06894015
103	0xbd7eaece	-0.062178425
104	0x3bd88a2d	0.0066082687
105	0xbd205df2	-0.039152093
106	0xbcf7e120	-0.030258715
107	0xbd287132	-0.041123576
108	0xbd847255	-0.064671196
109	0xbd5c3026	-0.053756855
110	0xbd8a1954	-0.06743112
111	0x3b64cdcd	0.0034912706
112	0xbd4854d4	-0.048909023
113	0xbc701bd9	-0.014655077
114	0x3cd7ade3	0.026328033
115	0xbc984092	-0.018585477
116	0x3e078510	0.13234353
117	0x3a956694	0.0011398369
118	0xbdc66471	-0.096871264
119	0x38a97124	8.079622e-05
120	0x3d477177	0.048692193
121	0xbc89d289	-0.016824024
122	0xbdbefdc8	-0.09325749
123	0xbc280a28	-0.010256328
124	0xbccfea3b	-0.025380244
125	0x3e11cd4d	0.14238472
126	0xbd142c59	-0.036175106
127	0xbd863136	-0.06552355
128	0x3d1b79a4	0.037957802
129	0x3c837d1d	0.01605087
130	0xbdccbdd0	-0.09997141
131	0xbdbe65d6	-0.092967674
132	0x3db5f92a	0.08885415
133	0xbb2b1518	-0.0026105102
134	0xbc93ae60	-0.018027484
135	0x3c97989e	0.01850539
136	0xbdca91ae	-0.098910674
137	0xbd520079	-0.051269982
138	0x3d96fb67	0.0737217
139	0xbc83fc6f	-0.01611158
140	0x3d8296be	0.06376408
141	0xbd399194	-0.04530485
142	0xb9d0ebb1	-0.00039848455
143	0xbd7d76b0	-0.061880767
144	0x3d9756de	0.073896155
145	0x3d1d4371	0.038394395
146	0xbb8292f5	-0.003984804
147	0xbcc5647b	-0.024095764
148	0x3d7c6859	0.06162295
149	0xbd370a5e	-0.04468762
150	0xbd006ba6	-0.03135266
151	0x3d34ebbf	0.044170137
152	0xbd5cb895	-0.05388697
153	0x3bc15fd1	0.005901315
154	0x3d9703c6	0.073737666
155	0xbc4b7bbf	-0.01241964
156	0xbd92344e	-0.071388826
157	0x3d49acd9	0.049237106
158	0xbce1a846	-0.02754606
159	0xbc874615	-0.01651291
160	0x3d88f2c6	0.0668693
161	0xbd5bf145	-0.05369689
162	0xbcbc2b92	-0.022969995
163	0xbd29e4e3	-0.04147805
164	0x3d1a8f87	0.037734535
165	0xbc91afe3	-0.017784065
166	0x3cf6a38b	0.03010728
167	0xbcb6b8a9	-0.02230485
168	0xbc928bc4	-0.017888911
169	0xbd7860b4	-0.0606391
170	0xbd36f225	-0.04466452
171	0xbd28a04a	-0.04116849
172	0xbcb0323c	-0.021508329
173	0xbe161e01	-0.14659883
174	0xbd95b727	-0.07310324
175	0x3d126b5b	0.035746913
176	0x3d0849f2	0.033273645
177	0xbd1dda15	-0.038538057
178	0x3d481c90	0.048855364
179	0xbe0155be	-0.12630364
180	0xbc0a8d61	-0.008456559
181	0x3da1dd6f	0.07903563
182	0xbd861ef8	-0.065488756
183	0xbda11660	-0.07865596
184	0xbc475919	-0.012167239
185	0xbe053ff7	-0.13012682
186	0x3ce5aa71	0.028035374
187	0x3d7acca3	0.061230313
188	0x3de5f805	0.112289466
189	0x3d8bf50e	0.0683385
190	0xbbd8679b	-0.0066041476
191	0x3d85c77c	0.06532189
192	0x3cdc0243	0.026856547
193	0xbd7a3cbe	-0.061093085
194	0x3d472589	0.04861978
195	0x3d4f75df	0.05064952
196	0x3d6eca8f	0.058298644
197	0x3dbab8fc	0.09117314
198	0x3d808dae	0.06277023
199	0xbd76cd6a	-0.060254492
200	0x3d6cafdb	0.057784896
201	0x3c9b9694	0.0189927
202	0xbdfc4b68	-0.1231907
203	0x3e082d77	0.13298593
204	0x3ce1231b	0.02748256
205	0x3e4b409b	0.19848864
206	0x3ca8192b	0.020519814
207	0xbc12ff3f	-0.008971988
208	0xbd633188	-0.05546716
209	0x3da6efba	0.08151193
210	0xbdc7582e	-0.09733616
211	0xbd5d31a8	-0.054002434
212	0x3db88cf5	0.090112604
213	0x3de6fcba	0.112786725
214	0x3d554b92	0.052074023
215	0x3d19ff4f	0.037596997
216	0x3d6b1132	0.057389446
217	0x3d61b6da	0.05510602
218	0x3dae91dd	0.08523915
219	0x3db01925	0.08598546
220	0xbdbf6c75	-0.093468584
221	0x3da2e5fb	0.079540215
222	0x3c2b1a0f	0.010443225
223	0xbbcf12f6	-0.006319399
224	0xbd7a4ab1	-0.061106388
225	0x3d90c53c	0.070688695
226	0xbd2b16f7	-0.041769948
227	0x3e316ea1	0.17327358
228	0xbc3d5bbb	-0.011557515
229	0x3d4ed2c8	0.050493985
230	0xbdf300dc	-0.11865398
231	0x3c3d03fd	0.011536595
232	0x3de1f675	0.11033336
233	0x3ca45dc7	0.020064248
234	0x3af30d7c	0.0018543447
235	0xbdfc9386	-0.12332825
236	0xbe2254c7	-0.15852652
237	0xbd2b2564	-0.041783705
238	0x3dc94766	0.09828071
239	0xbcdf3580	-0.02724719
240	0xbccbdff3	-0.02488706
241	0xbd0bd311	-0.034136835
242	0xbd82414a	-0.06360109
243	0xbcbc9005	-0.023017893
244	0x3ca7ef9c	0.020499997
245	0xbbb7dd75	-0.0056111165
246	0xbdb2c9e3	-0.08729913
247	0xbb88c70c	-0.004174119
248	0xbdb9df1e	-0.09075759
249	0xbbac44f1	-0.005257242
250	0x3d473cca	0.048641957
251	0xbcc48c7d	-0.023992771
252	0x3d88b92e	0.06675945
253	0xbaac2006	-0.0013132102
254	0xbd177593	-0.036977362
255	0xbd9e1071	-0.0771798
