Assets/ML-Agents/results/Andrew ML/results/sc_01/SimpleCollector/SimpleCollector-1408.onnx (onnx, 305000 bytes, 11 tensors)

action_model._discrete_distribution.branches.0.bias f4 [3]
000000 00 00 00 00 00 00 00 00 00 00 00 00
       0.0 0.0 0.0

action_model._discrete_distribution.branches.0.weight f4 [3, 256]
000000 ab 06 d5 bb cf f6 67 3b 3d 3f 18 bb f0 66 be 3b
       -0.006501039 0.0035394912 -0.0023231052 0.005810611
000010 53 f4 1e bb 54 3c 27 3c 32 e1 09 bb 2d 21 cd 3b
       -0.0024254515 0.010207254 -0.0021038768 0.0062600584
000020 fb 33 cc 39 2a 65 a4 3b d3 c1 af 39 98 30 03 3b
       0.0003894864 0.0050169425 0.0003352301 0.0020017978
000030 b5 eb bd 3b 88 84 f5 bb b0 3a 6e bb 25 7d 88 bb
       0.0057959207 -0.0074926056 -0.0036350898 -0.004165309
000040 13 ef 05 39 29 02 37 bb ef 2a 43 3c 09 dc c6 bb
       0.0001277293 -0.0027924872 0.011912092 -0.0060687107
000050 65 76 f4 bb 41 9c b2 3b 5b d1 1e 3b 80 55 98 bb
       -0.007460403 0.005450756 0.0024233672 -0.0046488643
000060 12 7e a1 3b 35 23 1b bb 97 93 ec 3b d2 07 5b 3a
       0.004928359 -0.0023672108 0.0072197425 0.00083553523
000070 17 54 da 3b 7e b4 41 ba 2e 97 1b bc ed c6 98 3b
       0.0066628563 -0.0007389261 -0.009496493 0.0046623857
000080 5a a9 ce 3a e5 44 ce 3b 3b 6d 3b ba 90 f7 d0 3b
       0.0015767023 0.006294834 -0.00071497605 0.006377168
000090 13 cf 7e b8 2b eb 38 bc d4 00 be 3a 73 9b 55 bb
       -6.0751172e-05 -0.011286537 0.0014496096 -0.0032593876
0000a0 c1 75 30 3c 1f 91 27 3c e2 8c 00 bc 94 48 83 3b
       0.010770262 0.010227471 -0.007846089 0.0040064547
0000b0 78 ef 7b bb 48 a5 d5 3a 07 a0 83 bb 51 8b b6 3b
       -0.0038442295 0.0016299868 -0.0040168795 0.005570807
0000c0 93 ff 8e 3b 47 c3 fc 38 67 2b a4 3b 22 cf ee bb
       0.004363963 0.000120526696 0.005010057 -0.0072878757
0000d0 a7 ce 1f 39 f8 aa fc bb 80 42 aa 3b 6c 5c bb bb
       0.00015240406 -0.0077108108 0.0051959157 -0.0057178047
0000e0 6c 92 04 3b 3b 33 66 3c 90 e5 1f 3c 2d 7e 81 3b
       0.0020228876 0.0140503 0.009759322 0.003951809
0000f0 96 b8 39 3c 7e fb 0e 3c 24 e0 07 bc 87 8c f6 bb
       0.011335513 0.008726953 -0.008293185 -0.0075240764
000100 43 05 69 3b b8 93 60 3c 0a 6f 1f bb c5 5d fd 3b
       0.0035556115 0.013707094 -0.002432766 0.0077321255
000110 87 ba 0e 3b e6 6c 1b 3c 4d 54 67 bc 29 ce 23 3b
       0.002177866 0.009486413 -0.01411922 0.0024994707
000120 cd 18 bf 3b 77 41 ca 3b 8a 75 06 3b 97 95 bf 3b
       0.005831814 0.006172355 0.0020516836 0.00584669
000130 c5 da 1f 3a 66 c2 a1 3b 06 cd a4 ba 68 3f fb 3b
       0.0006097968 0.004936504 -0.0012573309 0.0076674707
000140 db 04 12 bb 5f e2 5a 3b f1 ab 1d 3c e0 4b 37 ba
       -0.0022280726 0.0033399088 0.009623514 -0.0006992202
000150 23 c0 f1 3b 8b a1 08 bc b7 1f 2f bc 7f ca c3 b9
       0.007377641 -0.008339296 -0.010688714 -0.0003734417
000160 0b d9 8c bb 7b a8 c2 b9 d7 b3 8f bb 1e d8 82 3b
       -0.0042983345 -0.0003712809 -0.0043854523 0.0039930483
000170 c3 30 c1 ba b6 17 1b 3c 8a a8 15 bc d4 18 17 bc
       -0.0014739264 0.009466102 -0.009134421 -0.009222228
000180 eb d0 af 3b 9b 63 a1 bb 5d fd 8a bc 0b b0 a8 3c
       0.005365481 -0.004925204 -0.016966516 0.020591756
000190 42 fc 21 bb fd 92 b7 b8 9f 13 60 bc 20 84 08 3c
       -0.0024717008 -8.753499e-05 -0.013676553 0.008332282
0001a0 59 26 13 3a 1e 39 05 3c 5d 75 95 3b de ba a0 bb
       0.0005613319 0.008131294 0.00456111 -0.004905089
0001b0 55 d3 63 3b 1b ee 51 3a a6 03 10 bb 20 fc f8 b9
       0.0034763415 0.0008008198 -0.002197483 -0.00047490094
0001c0 99 d9 11 3c 14 88 41 bc 40 63 52 ba c2 be 12 3c
       0.008901977 -0.011812229 -0.00080256537 0.008956613
0001d0 84 0f b2 bb ea 0f 01 bc 67 22 56 3b 27 de 3c bb
       -0.0054339785 -0.007877329 0.0032674314 -0.0028818937
0001e0 b7 ae 3c 3c dd 8d a7 bb 0e a8 b5 3b 67 4e 96 3a
       0.011516265 -0.005113347 0.0055437153 0.0011467458
0001f0 df 2f 94 3a a4 ef 9f bb e2 7e 7e 3a 8b 31 f4 3b
       0.0011305771 -0.0048808623 0.0009708238 0.007452195
000200 7b 65 ad bb 5c 2d 48 bb 05 a3 e7 3a 95 18 06 bc
       -0.0052916384 -0.0030544614 0.0017672485 -0.008184572
000210 4e 84 bd 3b f5 61 71 3c 1f 0a 16 3c 85 1b 54 39
       0.005783594 0.014732827 0.0091576865 0.00020228147
000220 6d e9 03 39 6c d5 1e bc 9f 12 8e ba 59 32 94 3b
       0.00012580091 -0.009694438 -0.001083929 0.0045226035
000230 f7 cc 2b 3c 13 d5 15 bb 8c 63 0e bb b4 25 35 3c
       0.010485879 -0.0022862598 -0.0021726815 0.011056352
000240 6c ac 86 b9 0f 45 25 bc 4b 2c 86 3b 2a c4 82 bb
       -0.00025686936 -0.010087266 0.0040946356 -0.0039906697
000250 31 b6 85 3b 07 99 85 bb d8 7e 4d bb 8f 88 05 3c
       0.004080557 -0.00407708 -0.0031356122 0.008150234
000260 d3 27 7f 3b 86 7b 1a 3b fa 2c f5 ba 2f ec 81 3b
       0.003893365 0.002357216 -0.0018705421 0.003964923
000270 af 90 6a bb 90 23 7b b7 e3 b6 40 39 9f 11 1d 3b
       -0.0035791805 -1.4969046e-05 0.00018378677 0.0023966802
000280 f9 20 b0 3b ef 80 04 3b df 81 0b 3a d3 e3 c3 bb
       0.0053750244 0.0020218452 0.00053217815 -0.0059780865
000290 27 b5 2b 3c 87 94 15 3c 17 d5 77 3a d0 16 b4 bb
       0.010480202 0.00912965 0.0009454055 -0.0054958835
0002a0 2b 96 61 3b 2a 45 d0 3a 17 77 03 3c c0 a8 54 ba
       0.0034421782 0.0015889753 0.008023999 -0.0008112304
0002b0 d9 70 4c 3b aa bd 24 b9 2a 14 de 3a 3b 36 ad 3b
       0.0031195192 -0.00015710914 0.0016943265 0.005286006
0002c0 e9 7e ba 3b b5 ad e1 3b 7f d7 b4 bb 5a 2b ee bb
       0.0056913984 0.0068871626 -0.005518853 -0.0072683515
0002d0 93 ee 24 3b bb d6 14 bc 95 8e 98 3a 46 ea 07 bc
       0.0025166615 -0.009084399 0.0011639172 -0.008295601
0002e0 a8 c1 86 3a 00 c2 f9 3b aa 3c b5 ba 3b 48 36 3b
       0.0010281103 0.0076220036 -0.0013827283 0.0027814049
0002f0 fb a5 d0 3b 47 2c 1c 3c 87 6b 71 bb 8f dc fc 37
       0.0063674427 0.009532041 -0.0036837773 3.0143447e-05
000300 0f c8 bd b9 21 e9 1b bb 2d 15 fa 3a f3 9a a2 3a
       -0.00036197944 -0.0023790079 0.0019079797 0.0012405798
000310 00 f7 52 bb 09 74 07 3c 12 cf 51 bb 9d af 3d 3b
       -0.003219068 0.008267411 -0.0032014293 0.0028943785
000320 2d f2 a8 b8 7a b0 56 bb 6b 46 28 3c d0 fd 29 3b
       -8.055973e-05 -0.0032758997 0.010270695 0.0025938638
000330 8a f4 3c 3b d0 3f eb bb 97 d0 87 39 43 ce 09 3c
       0.002883228 -0.007179238 0.00025904618 0.008410993
000340 94 b9 4a 3c 4b 8f 0d 3b 1c 3a 3c bb 6c 0f 0b 38
       0.012373347 0.0021600302 -0.002872116 3.3154545e-05
000350 cd 66 06 bc ff 98 1e 3b 8f a0 76 39 8a 8c 4d 3b
       -0.008203221 0.002420008 0.00023520201 0.0031364285
000360 f0 95 fd 3b f2 ca 51 bc b2 24 ce 3b 6d 6a 37 3c
       0.007738821 -0.012804734 0.0062909955 0.0111948075
000370 8d d6 26 ba af 76 3f 3c 8d 13 0f bc 50 ca f8 bb
       -0.0006364368 0.011686011 -0.008732689 -0.007592477
000380 9b a2 33 3c fa a3 ff 3a 87 e6 3d bb e8 98 1b bc
       0.010964061 0.0019503825 -0.0028976516 -0.009496905
000390 f0 b1 69 3b 2b 28 5b 3b 52 ba 82 bb ab 79 0d bb
       0.0035659038 0.003344069 -0.0039894963 -0.0021587412
0003a0 3f c0 3f bb ef 1a 9a b9 b7 2f b6 3b 24 60 c3 bb
       -0.0029258875 -0.00029393236 0.0055598873 -0.0059623886
0003b0 37 28 94 bb ef fd 1d bb 63 c7 62 bb 4a 90 5a 3b
       -0.0045213955 -0.0024107655 -0.0034603707 0.0033350163
0003c0 ea aa 5b 3b 14 3e 00 3b 90 03 92 3b 87 16 c3 bb
       0.003351862 0.0019568251 0.004455991 -0.005953613
0003d0 db 10 8c 3b c7 80 61 bb d3 4e a5 3c cf f3 91 bb
       0.0042744703 -0.0034409033 0.020179188 -0.004454113
0003e0 5f f9 3f bc f4 b0 0b bc bb 65 45 3b c7 52 6a bc
       -0.01171717 -0.008526076 0.003012045 -0.014301962
0003f0 47 c3 1f bc 15 d3 ee 3a 28 ce e9 3b 8a 3e 5f 3b
       -0.009751148 0.0018220866 0.0071351714 0.0034064376

action_model._discrete_distribution.branches.1.bias f4 [3]
000000 00 00 00 00 00 00 00 00 00 00 00 00
       0.0 0.0 0.0

action_model._discrete_distribution.branches.1.weight f4 [3, 256]
000000 32 d7 78 3b d3 cc e8 bb 17 b5 d5 3b 83 be d2 bb
       0.0037970063 -0.007104495 0.0065218317 -0.006431402
000010 60 6e 0f 3b 47 3d f6 bb b5 e0 fa 39 b1 1c 11 bb
       0.0021885857 -0.007514629 0.00047851136 -0.0022142346
000020 07 f5 34 3b 82 21 79 ba 29 45 ab 3b 3f f3 2a bc
       0.0027611868 -0.0009503589 0.0052267504 -0.010433971
000030 92 80 db 3a e2 b7 fa 3a b7 74 42 3c ef a2 67 39
       0.0016746691 0.0019128288 0.011868647 0.00022090574
000040 74 f0 8f 3a f8 dc 0e bc 50 99 7c 3a e8 3a d1 3b
       0.0010981695 -0.008719675 0.00096358825 0.006385196
000050 dd d5 ea 3b db e6 37 bc 04 51 8a 3b ca 9d 27 bc
       0.007166608 -0.011224474 0.0042210836 -0.010230491
000060 bc 58 96 bb 23 01 04 bb d6 a0 27 bb b0 7e 1a bc
       -0.0045882147 -0.002014228 -0.0025578043 -0.009429619
000070 2a 6f f6 3b 28 30 09 3b a6 f8 b8 bb d5 3e 12 3b
       0.007520576 0.0020933244 -0.0056448756 0.0022315283
000080 4f 0c b3 bb 12 98 cb bb 26 fa c4 bb 7f 94 d8 3a
       -0.005464114 -0.0062131966 -0.0060112653 0.0016523747
000090 c3 90 c1 39 12 22 db ba ea cc 57 3c 62 68 a0 3b
       0.00036919684 -0.0016718528 0.013171414 0.004895256
0000a0 c0 fa 15 bb 65 92 c3 3b 40 3b 63 3c 5b da e4 3a
       -0.0022885054 0.0059683793 0.013869107 0.0017460095
0000b0 00 07 11 ba 80 5c 85 bc c9 14 01 b9 0d 2f c9 bb
       -0.0005532354 -0.016279459 -0.00012310142 -0.006139642
0000c0 97 d7 93 b9 97 e6 35 bc f7 1a b3 bb 62 ed f0 bb
       -0.00028198652 -0.01110234 -0.005465861 -0.007352517
0000d0 af a3 11 bc 81 52 44 3b d0 57 11 ba b8 1d d8 bb
       -0.008889123 0.0029956403 -0.0005544396 -0.0065953396
0000e0 c4 51 a0 38 43 39 54 bc 45 51 db ba 02 9f db ba
       7.6446246e-05 -0.012953105 -0.0016732594 -0.0016755762
0000f0 0b 4d 2f 3b 4f ec 35 bb 5b e8 b2 bb 5f 96 00 3b
       0.0026748802 -0.002775926 -0.005459828 0.0019620878
000100 14 3f 8c bb 16 a2 bd 3b 7b 29 e4 3b 1f 25 4b bb
       -0.0042799804 0.0057871444 0.0069629527 -0.0030997468
000110 0b b8 d8 3b 66 47 28 3a 9d ba 73 3b 43 82 94 bb
       0.0066137365 0.00064193306 0.0037190088 -0.00453213
000120 c7 c8 a5 39 ac 4f 26 bc 03 66 c9 ba bd 99 27 3c
       0.00031620843 -0.010150831 -0.0015365485 0.010229525
000130 a5 39 d6 ba dc 33 1c bb 9d 58 68 bb eb 96 f4 bb
       -0.0016344084 -0.0023834622 -0.0035453208 -0.00746428
000140 51 4f 41 ba 04 0c 9a 3b 80 95 db 3b 90 5b cd bb
       -0.0007374185 0.0047011394 0.0067011714 -0.0062670186
000150 92 92 ce bb d2 24 f1 bb 0c 2d 19 bc 7a 06 d9 3b
       -0.0063040936 -0.0073591257 -0.009349119 0.0066230865
000160 68 8d 3e bc 6b 8d 2f bb c8 74 30 bb 78 6c 90 bb
       -0.011630394 -0.0026787173 -0.0026925076 -0.0044074617
000170 e3 2f be 3b f5 10 08 bc c4 f7 b3 3b 91 4b 2d 3b
       0.0058040484 -0.008304824 0.0054921824 0.0026442746
000180 a3 bf af bb 76 db c8 3a d7 56 d2 bb aa 21 64 3b
       -0.005363421 0.0015324194 -0.0064190435 0.0034810104
000190 77 eb ae 3b 19 13 18 bb 10 7a 57 bc d7 f7 6b bb
       0.005338128 -0.0023204742 -0.013151661 -0.0036005878
0001a0 2f a7 84 3b c5 9b 79 39 75 92 a2 3a 28 cf c7 39
       0.00404825 0.00023804519 0.0012403267 0.0003811058
0001b0 15 e3 f6 bb b9 12 8f bb 98 58 e7 3b a9 12 3f bc
       -0.0075343945 -0.0043662456 0.0070601217 -0.011662164
0001c0 2c 23 b0 3b 00 9a 83 3b ab a0 df 3b 94 0a 25 bb
       0.0053752866 0.004016161 0.006824573 -0.0025183307
0001d0 c0 2c 4d bc df 78 a4 bb ba 31 10 bc 6d 72 68 bc
       -0.012522876 -0.005019292 -0.008800918 -0.0141874375
0001e0 33 f9 9f ba 97 c2 91 3b 09 1b bb 3b 92 18 7e bb
       -0.0012205004 0.0044482457 0.00571001 -0.003877197
0001f0 bb 0c 63 bb d2 37 4d bb 0b 8a af 3b 23 c4 2f ba
       -0.003464504 -0.003131379 0.005357032 -0.0006704947
000200 16 26 b9 3a c9 aa bb ba 5a ce a4 3b a7 0d 01 bb
       0.001412573 -0.0014317866 0.005029482 -0.0019691975
000210 6f 20 e6 36 e3 ef c5 3a eb 63 cb ba 17 1f 35 bc
       6.85831e-06 0.0015101399 -0.0015517449 -0.011054776
000220 6c dc 89 ba 6d 03 c5 bb eb 29 1d 3c 50 92 5b bb
       -0.0010517961 -0.0060123713 0.009592514 -0.0033503957
000230 97 45 35 3b 0a 23 58 3c c5 97 01 bc e4 a4 82 3a
       0.0027659887 0.013191948 -0.00790972 0.0009967354
000240 3f 1b e4 3b 75 56 80 3a f2 40 17 3c 29 7e 48 3c
       0.006961256 0.0009791391 0.009231793 0.01223711
000250 f6 03 a5 3b e2 08 da ba 0c 3d ca bb 1b 10 07 3b
       0.0050358726 -0.0016634727 -0.006171828 0.0020608965
000260 80 4f 19 3a bf 2f f6 bb 62 d6 f3 bb 73 c4 8a 3b
       0.0005848333 -0.007513016 -0.007441328 0.0042348444
000270 f8 d2 14 3c d9 af 9d 3a 12 d3 f3 3b fd 44 01 ba
       0.009083502 0.0012030556 0.007440933 -0.00049312395
000280 cb 46 b9 ba 8e b4 88 3b 7a 68 a6 b8 59 e1 94 bb
       -0.0014135478 0.0041719144 -7.934957e-05 -0.004543465
000290 0b cf 13 bb 4a 8b f8 ba 49 4d 3a 3b 21 cc b5 36
       -0.0022553827 -0.001896241 0.0028427413 5.417984e-06
0002a0 f6 b2 29 3c 92 1e 1b bb d7 4a 81 bb fe 01 9d b9
       0.010357609 -0.0023669344 -0.003945689 -0.00029946858
0002b0 97 8e b0 3b e2 68 69 3c 97 b5 bf bb 38 a3 05 bc
       0.005388092 0.014246197 -0.0058505046 -0.00815659
0002c0 02 1e 36 ba 7e d4 ad bb bb 1a 76 bb 61 09 1e 3c
       -0.00069472205 -0.005304872 -0.0037552554 0.009645791
0002d0 f7 9e b2 3b e7 a2 44 3c 17 0b 04 bb db 78 a6 bb
       0.005451079 0.01200173 -0.0020148212 -0.005080325
0002e0 9b 3a 69 3b 1f 50 37 3b ee 31 8c bb 1b ff 19 ba
       0.003558791 0.002797134 -0.004278413 -0.00058745005
0002f0 e5 0b b4 ba 96 55 25 3c de e0 c6 3b 27 28 68 bc
       -0.0013736455 0.010091206 0.0060692867 -0.014169729
000300 60 d0 80 bc 9c d0 ba bb f7 1d 1a 3b f3 38 f7 39
       -0.015724361 -0.0057011377 0.0023516396 0.00047153942
000310 95 b3 6c bb b1 33 98 3b 92 85 f6 3b eb 7b 60 3b
       -0.0036117781 0.004644834 0.007523247 0.0034253548
000320 37 f9 f3 3a 2d 32 5b bc ff 8c b3 bb 63 f0 02 ba
       0.00186137 -0.013378662 -0.0054794545 -0.0004994927
000330 a3 e7 05 3a 9f 14 9a 39 13 9d be bb 9b 0f 25 3c
       0.0005108064 0.00029388533 -0.0058170645 0.010074521
000340 09 50 43 bc 33 76 8f 3a ca f2 39 3b fe e3 35 ba
       -0.011920937 0.001094526 0.0028373473 -0.00069385755
000350 57 7a 0c 3a b0 04 63 b9 b2 91 99 bb c2 ae f8 bb
       0.0005358806 -0.00021650153 -0.0046865577 -0.007589192
000360 78 e0 9d bb 0c 8b 48 3c 2f 7a 3d 3b cd 76 0e bc
       -0.0048180185 0.012240183 0.0028911938 -0.0086953165
000370 6b 56 de 3b ef 1d 00 bb 10 03 cc bb bf 61 48 bb
       0.006785204 -0.0019549092 -0.006225951 -0.003057584
000380 97 fc a1 bb 9e cb 28 3c 55 2d c6 3b eb c8 eb 3b
       -0.004943441 0.010302452 0.0060478845 0.007195582
000390 58 8c 12 3c 8a 8d 4c bc cd 84 2f 3b 0f d1 4c bb
       0.008944593 -0.012484917 0.0026782036 -0.0031252538
0003a0 b2 0d 8b bb 50 73 0c 3b bc f5 00 3c b6 4d 19 bb
       -0.004243576 0.0021431036 0.007871088 -0.0023392267
0003b0 28 ea ef 3b 6a fb e4 3b 7d 2a 84 3b 33 fd d0 bb
       0.007321615 0.0069879787 0.0040333853 -0.00637784
0003c0 44 47 27 bb ed 1b 21 3b a2 39 08 bb cd ac 6e 3b
       -0.0025524655 0.0024583295 -0.0020786305 0.0036418915
0003d0 59 ef 16 3c db 39 67 bb 51 9f 43 3c 57 0a 05 3a
       0.009212338 -0.0035282287 0.011939839 0.0005075088
0003e0 17 9d 21 bb d8 8c 72 bb 5b 3a 79 3c a8 7f 51 3b
       -0.0024660283 -0.003701022 0.015211667 0.0031966958
0003f0 09 d2 92 bb a0 e5 b8 3b 4f 5d 28 3a d3 0d b4 bb
       -0.0044806045 0.005642608 0.00064225955 -0.005494812

action_model._discrete_distribution.branches.2.bias f4 [3]
000000 00 00 00 00 00 00 00 00 00 00 00 00
       0.0 0.0 0.0

action_model._discrete_distribution.branches.2.weight f4 [3, 256]
000000 c7 f0 6b b8 f4 8b 38 bc 48 95 ce bb cf ea 66 3b
       -5.6252607e-05 -0.011263836 -0.006304417 0.0035235172
000010 1b 47 ec 3a 10 46 97 bb 58 9a 4a bc 57 17 94 3c
       0.0018026562 -0.0046165064 -0.0123659 0.018077536
000020 db c2 b7 ba 7d 25 a7 ba fb cc 90 bc 93 08 8c ba
       -0.0014019863 -0.0012752261 -0.017675867 -0.0010683708
000030 42 66 16 bc 53 69 7c 3b 05 9e 85 bc 6f ad 77 bc
       -0.009179654 0.0038514927 -0.016310701 -0.015117033
000040 33 c3 bd 3b 4f d1 92 ba 82 ea 58 bb 67 42 73 bc
       0.005791092 -0.0011201295 -0.0033098762 -0.0148473745
000050 14 ae 1d 3b 78 9f e1 bb e9 d4 01 3c 9c 15 9a bb
       0.0024060057 -0.0068854652 0.007924297 -0.004702283
000060 7c b2 48 3b f1 37 98 3c 75 8b 01 bc cd f1 6d bb
       0.0030623963 0.018581362 -0.007906784 -0.0036307455
000070 3d 0f 0f 39 52 49 cd 3b 1f 3b d6 3b 87 52 25 3c
       0.0001364322 0.006264844 0.0065378095 0.010090477
000080 93 98 fd ba b5 39 90 ba a0 44 bf 3b 64 7a 20 3b
       -0.0019347839 -0.0011003526 0.005837038 0.0024487013
000090 0f ad 3f 3b 2b c6 69 bb 53 78 23 39 a5 42 14 3c
       0.0029247438 -0.0035671096 0.00015589716 0.009049092
0000a0 30 2b 9a 3b 3a f0 48 3a fb 51 3a 3b 23 15 9a b9
       0.0047048554 0.0007665191 0.0028430212 -0.00029388917
0000b0 bd 52 66 3c bd b1 4f bb ea 1b 84 bb 5b 0b 51 3a
       0.014057812 -0.0031691634 -0.004031648 0.00079744094
0000c0 e9 e4 86 3b c0 73 b3 3b 27 dc f5 3b 37 ab 7f bc
       0.0041166437 0.005476445 0.007503051 -0.015604786
0000d0 92 52 b3 3b 3c 47 36 bb 13 cd e1 3b 9f f4 6f bb
       0.0054724896 -0.0027813455 0.006890902 -0.0036614311
0000e0 2d 97 0c 3b 3a 68 a9 ba 48 94 b8 3b fe 2c a4 bb
       0.0021452412 -0.0012924739 0.005632911 -0.0050102463
0000f0 a8 b5 4d 3b 98 df 94 3a d4 b4 09 bc b2 bf 98 3b
       0.0031388793 0.001135814 -0.008404929 0.0046615237
000100 55 50 e2 bb 03 91 59 bb 7b 98 8e 3b f5 85 38 3c
       -0.006906549 -0.0033198006 0.004351673 0.011262407
000110 b3 ab 30 3b 8d 81 1c 3c ac 38 af 3b 9c c3 44 3c
       0.002695781 0.009552372 0.005347332 0.0120095275
000120 e4 4e bc 3a 01 55 a5 bb cd 20 a1 3b 88 62 9f bb
       0.0014366773 -0.0050455336 0.0049172402 -0.0048640408
000130 82 3a 86 3b c6 71 29 bc 3e 66 31 bb ac ae 01 3c
       0.00409633 -0.010342067 -0.0027068998 0.00791518
000140 ef e2 af 3b 37 b3 19 3a eb ac 14 ba 8d 1d a8 ba
       0.0053676288 0.0005863192 -0.0005671519 -0.001282619
000150 fb 8f 2b bb 8f e4 da 38 72 e6 d4 bb 9b 2d 89 3b
       -0.0026178348 0.000104376224 -0.006497198 0.004186345
000160 e8 fb 8d 3b 79 76 8a ba d8 4d a5 bb f0 ab 07 3b
       0.004333008 -0.0010563872 -0.00504468 0.0020701848
000170 8b 7f c9 3a 67 f2 0b 3c 53 fd b2 3b bd 5b 8a 3b
       0.0015373094 0.00854168 0.0054623275 0.004222362
000180 80 42 0f bb 1d 14 d8 ba cb 21 6b bb d3 8a 00 ba
       -0.0021859705 -0.0016485486 -0.0035878296 -0.0004903499
000190 33 21 2a 3b fc 7f 80 bb 9c d5 85 3b 61 48 8a 3b
       0.002595973 -0.003921507 0.004084302 0.004220054
0001a0 5e dd b5 3b f3 31 0e 3c c7 c0 06 3c fc b5 22 bb
       0.0055500707 0.008678901 0.008224673 -0.002482771
0001b0 50 46 db ba 68 e2 8f bb 7d 06 6c 3b 25 58 b6 bb
       -0.0016729329 -0.0043910034 0.003601461 -0.005564707
0001c0 25 5f 03 bb e0 11 6f bb 32 3c ec bb 9a 22 3d bb
       -0.0020045724 -0.003647916 -0.0072093243 -0.0028859735
0001d0 c1 51 c5 ba 15 85 f0 bb e0 19 13 bc 82 ee 32 bc
       -0.0015054272 -0.0073400834 -0.008978337 -0.0109211225
0001e0 43 ae 31 bc 14 07 80 39 95 5a d2 bb 17 05 30 bb
       -0.01084477 0.00024419336 -0.0064194896 -0.0026858503
0001f0 24 9e 28 3c 6b 36 4a bb c0 26 e2 bb d5 5e 3d bb
       0.01029161 -0.003085519 -0.006901592 -0.0028895636
000200 08 af e0 ba 0b 6e ae ba 1d 7b 61 3b 75 e8 ac 3b
       -0.0017142007 -0.0013307942 0.0034405657 0.0052767345
000210 65 37 a9 bb b8 21 32 bb bb 6f 19 3b 4f f4 ff bb
       -0.0051640742 -0.0027180742 0.0023412544 -0.0078111063
000220 c7 ab 9b 3a 7d ce 12 bb e9 a7 89 bc 72 ba 18 bc
       0.0011876755 -0.0022400909 -0.016803699 -0.009321796
000230 29 ac 06 3c dd f3 8a bb f7 22 e5 bb e5 12 29 bc
       0.008219757 -0.0042404965 -0.0069926935 -0.010319446
000240 83 df 66 3b 0f ce 67 3b 83 e7 bf 3b da 63 4a ba
       0.0035228438 0.0035370623 0.005856456 -0.00077205675
000250 ba 37 d1 3b 6a 26 b6 bc 0a a9 81 3b 69 51 29 bc
       0.006384817 -0.022235114 0.0039569186 -0.010334351
000260 6e 94 34 bb c3 57 f2 3b 25 98 51 3c 3d 52 9b bb
       -0.0027554291 0.007395716 0.012792622 -0.004740028
000270 3b f9 11 3c 53 b8 df 39 fb 39 b6 bb 5c e0 07 3b
       0.008909519 0.00042671207 -0.005561111 0.0020733094
000280 28 23 76 3b fd 34 e3 bb cb da ea bb 31 89 12 bb
       0.0037557576 -0.006933807 -0.0071671954 -0.0022359604
000290 8b e8 0d 3c 1f f8 9f 3a 30 7d de bb 06 9f 31 bc
       0.0086614 0.0012204683 -0.006789826 -0.010841137
0002a0 a7 71 6d bb e3 6f 51 3b 40 8b b1 3b b5 13 d7 3a
       -0.0036231072 0.0031957559 0.005418211 0.0016409071
0002b0 cf 82 31 3b eb a1 78 bb a3 45 ca ba 58 0a 57 bc
       0.0027086025 -0.0037938308 -0.001543213 -0.013125025
0002c0 b7 05 1f bb 09 eb 0c bc da c0 e3 3b a9 69 30 bb
       -0.002426488 -0.008600959 0.00695048 -0.0026918447
0002d0 32 58 1f ba ab a6 f6 bb ef 17 4f bb 6f 03 e3 ba
       -0.0006078511 -0.0075271926 -0.003159996 -0.0017319749
0002e0 68 45 11 bb 32 92 87 bb 67 93 3d 3c 3f eb 41 3c
       -0.0022166613 -0.004137301 0.011570788 0.011835872
0002f0 ca 2c 78 ba 83 8c 23 bc c7 9a ca 3b 53 58 1a 3c
       -0.00094671233 -0.009982231 0.0061830017 0.009420472
000300 7f 3e 26 bc c3 3b 06 ba 8c 9f 29 3b a2 21 5a 3b
       -0.010146736 -0.00051205995 0.002588245 0.0033284207
000310 9f 24 83 3b 1f ff 8c 3b 0b 18 eb b9 12 f8 58 bc
       0.0040021683 0.0043028737 -0.00044840606 -0.013242738
000320 a7 e7 36 3b f5 47 30 3b 17 fd ce ba f7 69 6d bb
       0.0027909072 0.0026898358 -0.0015791979 -0.003622649
000330 76 07 36 bc 7c 4d 45 ba 97 67 2e b9 c2 35 b0 3b
       -0.011110177 -0.00075264997 -0.00016632523 0.005377502
000340 e2 a7 4a 3b eb a1 03 bc 30 66 24 3c 0b e3 08 bb
       0.003092282 -0.00803421 0.010034129 -0.0020887281
000350 27 9a 2d b8 f3 86 0f 3b bc 5b 10 3c ce 13 c2 ba
       -4.138998e-05 0.0021900504 0.008810934 -0.0014806928
000360 41 89 29 bc 2a 0b f7 3b a1 5c 10 3c f0 20 f2 bb
       -0.010347665 0.0075391727 0.008811147 -0.0073891804
000370 92 c8 02 bc 22 1c 39 3b 65 06 dc b8 85 4a ec ba
       -0.00798239 0.0028245528 -0.000104916086 -0.001802758
000380 cf 12 a4 39 75 15 d9 ba 08 1f f9 ba 5f ca 11 bb
       0.0003129453 -0.0016562181 -0.001900644 -0.0022245867
000390 c4 3b cb 3b c7 1b ad b9 ba a1 e2 3b 67 8c 0f bc
       0.006202193 -0.00033017827 0.006916252 -0.008761502
0003a0 02 08 62 3c 4f 7c 33 bb 5f 65 f1 bb 2e 67 3d bb
       0.0137958545 -0.0027387326 -0.0073668207 -0.0028900611
0003b0 52 d1 ed ba 3b ee dd 3b b3 22 d6 3b 23 2d 28 3a
       -0.0018144047 0.006772784 0.006534898 0.00064154173
0003c0 aa b8 32 3b e0 17 2b 3a 77 0f 9b 3b 06 00 37 3c
       0.0027270713 0.000652669 0.004732068 0.011169439
0003d0 36 29 4c 3a f4 de 45 3a 97 ad 03 bb 53 fe 19 bc
       0.00077881233 0.0007548176 -0.0020092481 -0.0093990145
0003e0 f3 fc 67 bb e1 0c 37 3c 62 1c 67 bb e3 67 65 bc
       -0.0035398572 0.011172504 -0.003526472 -0.014001819
0003f0 1a d8 22 bb 23 6b cf bb f2 f5 8c 3b c7 42 10 bc
       -0.0024848045 -0.0063299104 0.00430178 -0.008804983

discrete_action_output_shape f4 [1, 3]
000000 00 00 40 40 00 00 40 40 00 00 40 40
       3.0 3.0 3.0

network_body._body_endoder.seq_layers.0.bias f4 [256]
000000 00 00 00 00 00 00 00 00 00 00 00 00 00 00 00 00
       0.0 0.0 0.0 0.0
000010 00 00 00 00 00 00 00 00 00 00 00 00 00 00 00 00
       0.0 0.0 0.0 0.0
000020 00 00 00 00 00 00 00 00 00 00 00 00 00 00 00 00
       0.0 0.0 0.0 0.0
000030 00 00 00 00 00 00 00 00 00 00 00 00 00 00 00 00
       0.0 0.0 0.0 0.0
000040 00 00 00 00 00 00 00 00 00 00 00 00 00 00 00 00
       0.0 0.0 0.0 0.0
000050 00 00 00 00 00 00 00 00 00 00 00 00 00 00 00 00
       0.0 0.0 0.0 0.0
000060 00 00 00 00 00 00 00 00 00 00 00 00 00 00 00 00
       0.0 0.0 0.0 0.0
000070 00 00 00 00 00 00 00 00 00 00 00 00 00 00 00 00
       0.0 0.0 0.0 0.0
000080 00 00 00 00 00 00 00 00 00 00 00 00 00 00 00 00
       0.0 0.0 0.0 0.0
000090 00 00 00 00 00 00 00 00 00 00 00 00 00 00 00 00
       0.0 0.0 0.0 0.0
0000a0 00 00 00 00 00 00 00 00 00 00 00 00 00 00 00 00
       0.0 0.0 0.0 0.0
0000b0 00 00 00 00 00 00 00 00 00 00 00 00 00 00 00 00
       0.0 0.0 0.0 0.0
0000c0 00 00 00 00 00 00 00 00 00 00 00 00 00 00 00 00
       0.0 0.0 0.0 0.0
0000d0 00 00 00 00 00 00 00 00 00 00 00 00 00 00 00 00
       0.0 0.0 0.0 0.0
0000e0 00 00 00 00 00 00 00 00 00 00 00 00 00 00 00 00
       0.0 0.0 0.0 0.0
0000f0 00 00 00 00 00 00 00 00 00 00 00 00 00 00 00 00
       0.0 0.0 0.0 0.0
000100 00 00 00 00 00 00 00 00 00 00 00 00 00 00 00 00
       0.0 0.0 0.0 0.0
000110 00 00 00 00 00 00 00 00 00 00 00 00 00 00 00 00
       0.0 0.0 0.0 0.0
000120 00 00 00 00 00 00 00 00 00 00 00 00 00 00 00 00
       0.0 0.0 0.0 0.0
000130 00 00 00 00 00 00 00 00 00 00 00 00 00 00 00 00
       0.0 0.0 0.0 0.0
000140 00 00 00 00 00 00 00 00 00 00 00 00 00 00 00 00
       0.0 0.0 0.0 0.0
000150 00 00 00 00 00 00 00 00 00 00 00 00 00 00 00 00
       0.0 0.0 0.0 0.0
000160 00 00 00 00 00 00 00 00 00 00 00 00 00 00 00 00
       0.0 0.0 0.0 0.0
000170 00 00 00 00 00 00 00 00 00 00 00 00 00 00 00 00
       0.0 0.0 0.0 0.0
000180 00 00 00 00 00 00 00 00 00 00 00 00 00 00 00 00
       0.0 0.0 0.0 0.0
000190 00 00 00 00 00 00 00 00 00 00 00 00 00 00 00 00
       0.0 0.0 0.0 0.0
0001a0 00 00 00 00 00 00 00 00 00 00 00 00 00 00 00 00
       0.0 0.0 0.0 0.0
0001b0 00 00 00 00 00 00 00 00 00 00 00 00 00 00 00 00
       0.0 0.0 0.0 0.0
0001c0 00 00 00 00 00 00 00 00 00 00 00 00 00 00 00 00
       0.0 0.0 0.0 0.0
0001d0 00 00 00 00 00 00 00 00 00 00 00 00 00 00 00 00
       0.0 0.0 0.0 0.0
0001e0 00 00 00 00 00 00 00 00 00 00 00 00 00 00 00 00
       0.0 0.0 0.0 0.0
0001f0 00 00 00 00 00 00 00 00 00 00 00 00 00 00 00 00
       0.0 0.0 0.0 0.0
000200 00 00 00 00 00 00 00 00 00 00 00 00 00 00 00 00
       0.0 0.0 0.0 0.0
000210 00 00 00 00 00 00 00 00 00 00 00 00 00 00 00 00
       0.0 0.0 0.0 0.0
000220 00 00 00 00 00 00 00 00 00 00 00 00 00 00 00 00
       0.0 0.0 0.0 0.0
000230 00 00 00 00 00 00 00 00 00 00 00 00 00 00 00 00
       0.0 0.0 0.0 0.0
000240 00 00 00 00 00 00 00 00 00 00 00 00 00 00 00 00
       0.0 0.0 0.0 0.0
000250 00 00 00 00 00 00 00 00 00 00 00 00 00 00 00 00
       0.0 0.0 0.0 0.0
000260 00 00 00 00 00 00 00 00 00 00 00 00 00 00 00 00
       0.0 0.0 0.0 0.0
000270 00 00 00 00 00 00 00 00 00 00 00 00 00 00 00 00
       0.0 0.0 0.0 0.0
000280 00 00 00 00 00 00 00 00 00 00 00 00 00 00 00 00
       0.0 0.0 0.0 0.0
000290 00 00 00 00 00 00 00 00 00 00 00 00 00 00 00 00
       0.0 0.0 0.0 0.0
0002a0 00 00 00 00 00 00 00 00 00 00 00 00 00 00 00 00
       0.0 0.0 0.0 0.0
0002b0 00 00 00 00 00 00 00 00 00 00 00 00 00 00 00 00
       0.0 0.0 0.0 0.0
0002c0 00 00 00 00 00 00 00 00 00 00 00 00 00 00 00 00
       0.0 0.0 0.0 0.0
0002d0 00 00 00 00 00 00 00 00 00 00 00 00 00 00 00 00
       0.0 0.0 0.0 0.0
0002e0 00 00 00 00 00 00 00 00 00 00 00 00 00 00 00 00
       0.0 0.0 0.0 0.0
0002f0 00 00 00 00 00 00 00 00 00 00 00 00 00 00 00 00
       0.0 0.0 0.0 0.0
000300 00 00 00 00 00 00 00 00 00 00 00 00 00 00 00 00
       0.0 0.0 0.0 0.0
000310 00 00 00 00 00 00 00 00 00 00 00 00 00 00 00 00
       0.0 0.0 0.0 0.0
000320 00 00 00 00 00 00 00 00 00 00 00 00 00 00 00 00
       0.0 0.0 0.0 0.0
000330 00 00 00 00 00 00 00 00 00 00 00 00 00 00 00 00
       0.0 0.0 0.0 0.0
000340 00 00 00 00 00 00 00 00 00 00 00 00 00 00 00 00
       0.0 0.0 0.0 0.0
000350 00 00 00 00 00 00 00 00 00 00 00 00 00 00 00 00
       0.0 0.0 0.0 0.0
000360 00 00 00 00 00 00 00 00 00 00 00 00 00 00 00 00
       0.0 0.0 0.0 0.0
000370 00 00 00 00 00 00 00 00 00 00 00 00 00 00 00 00
       0.0 0.0 0.0 0.0
000380 00 00 00 00 00 00 00 00 00 00 00 00 00 00 00 00
       0.0 0.0 0.0 0.0
000390 00 00 00 00 00 00 00 00 00 00 00 00 00 00 00 00
       0.0 0.0 0.0 0.0
0003a0 00 00 00 00 00 00 00 00 00 00 00 00 00 00 00 00
       0.0 0.0 0.0 0.0
0003b0 00 00 00 00 00 00 00 00 00 00 00 00 00 00 00 00
       0.0 0.0 0.0 0.0
0003c0 00 00 00 00 00 00 00 00 00 00 00 00 00 00 00 00
       0.0 0.0 0.0 0.0
0003d0 00 00 00 00 00 00 00 00 00 00 00 00 00 00 00 00
       0.0 0.0 0.0 0.0
0003e0 00 00 00 00 00 00 00 00 00 00 00 00 00 00 00 00
       0.0 0.0 0.0 0.0
0003f0 00 00 00 00 00 00 00 00 00 00 00 00 00 00 00 00
       0.0 0.0 0.0 0.0

network_body._body_endoder.seq_layers.0.weight f4 [256, 27]
000000 32 a8 93 be 03 30 40 be bb b4 02 3f 95 e0 97 3c
       -0.2883926 -0.18768315 0.5105702 0.018539706
000010 b8 a5 1a 3e df a1 96 3b 5d 79 cf 3e a6 6e 31 bd
       0.15102279 0.0045969333 0.4052228 -0.043318413
000020 d7 9c 2f 3e ae cb d1 3d 7b b0 16 bd 61 b4 7b 3e
       0.17149673 0.10243927 -0.0367894 0.24580528
000030 f6 e4 99 3b 39 7f 94 3e 47 21 74 3d ca fd 8e bb
       0.0046964837 0.29003313 0.05960205 -0.00436375
000040 51 0b a7 3e ab 43 88 3c af 44 c2 3d 63 50 e6 bd
       0.3262582 0.01663383 0.094857566 -0.11245801
000050 28 b0 96 3d 75 2c bd 3d 20 cb e0 3d 04 42 b6 bd
       0.07357818 0.09236995 0.10976243 -0.0889931
000060 1f b5 e4 bd cb 91 22 be af 52 31 3e 7b a6 a2 3c
       -0.111673586 -0.15875928 0.17316698 0.019854775
000070 84 6b a3 3c 28 54 ff 3c c1 3e 31 bd f2 dd be 3c
       0.019948728 0.031168059 -0.043272737 0.023299191
000080 a3 aa a3 be da ec c7 3a cf 26 0d be 4d 0a fb 3c
       -0.31966123 0.0015253082 -0.13784336 0.03064456
000090 47 97 e2 be 80 e2 23 3e 4a 72 87 ba 42 d8 2b bc
       -0.4425604 0.16004372 -0.0010333743 -0.010488572
0000a0 4e 42 63 3e 1e 02 94 3e 7d f3 d7 bd 8b bb 81 3d
       0.22193262 0.28907865 -0.105444886 0.06334599
0000b0 ed af 85 bd c4 4c 26 3e 74 e1 96 be 5d e6 c3 3d
       -0.06527696 0.16240221 -0.29468882 0.09565423
0000c0 76 ba 80 be c8 26 b0 bc 2c 20 03 be e3 43 90 bc
       -0.25142258 -0.021502867 -0.12805241 -0.017610496
0000d0 59 85 55 3e e6 4a 03 be d4 ce ab bd 4b bc 57 3e
       0.2085165 -0.1282154 -0.08389059 0.21067922
0000e0 b7 09 5a 3e 6f ef 86 be 95 a4 1a be b5 ae 36 3e
       0.21292768 -0.26354548 -0.15101846 0.17840083
0000f0 5e 48 98 be b8 0b 0b 3e 72 43 af 3c 51 f4 2c be
       -0.29742712 0.13578689 0.021394465 -0.16890074
000100 2f 06 09 bd 83 8d d9 bd d7 4b 53 3b 05 79 93 bd
       -0.033453163 -0.10622694 0.003224125 -0.07200817
000110 9b e9 23 3d 62 ec 62 be 60 b0 c8 3e 72 1a 86 be
       0.040017705 -0.22160485 0.39197063 -0.2619205
000120 f9 b4 dd bd 7a b7 3f be ce ff 5b bd c7 fc 57 be
       -0.108255334 -0.18722335 -0.05371075 -0.2109252
000130 28 70 e4 3d 05 85 36 bd 27 09 f8 bb 80 31 7a 3e
       0.111542046 -0.04456045 -0.0075694504 0.24432945
000140 19 86 e4 bd 53 f2 68 be 50 88 46 3e 6e 7b 11 bd
       -0.111583896 -0.2274869 0.19387937 -0.035518102
000150 d9 34 38 3e c0 c1 00 3f 41 ce af 3e 1d fe f1 bd
       0.1798891 0.5029564 0.34337047 -0.118160464
000160 7d f6 23 3d b5 9b 9c 3c e0 76 61 be e3 69 8d be
       0.04002999 0.019117216 -0.22018003 -0.27619848
000170 eb ea 3c bd eb 85 ec bd 0a 4f 78 3e 4b 77 f0 3d
       -0.046122473 -0.1154898 0.24248901 0.11741503
000180 af 13 fc 3e 31 34 54 3e e0 5f 28 3e 86 3a fe be
       0.49233767 0.20723034 0.16442823 -0.49654025
000190 68 af 5a 3e 24 90 54 3e 14 de 18 3c be 56 0c be
       0.21355975 0.2075811 0.009330291 -0.13704965
0001a0 63 04 e6 3d ef e9 81 3d ba af 44 3e fd 89 12 3e
       0.112313055 0.063434474 0.1920766 0.14310451
0001b0 23 c1 a2 be 52 15 54 bd 20 1f 74 3e 90 e9 12 be
       -0.31787977 -0.051778145 0.23839998 -0.1434691
0001c0 96 22 c8 bd cf e8 9e 3e d2 09 b2 3d a5 19 a1 3e
       -0.09772222 0.31036994 0.08693279 0.31464878
0001d0 16 58 81 be 55 63 2e be 9c f0 a6 be 0b 04 de bd
       -0.25262517 -0.1703008 -0.32605445 -0.10840615
0001e0 d7 a7 36 bd 0a d1 c0 3e cc 82 99 3d 4c e9 9c bd
       -0.04459366 0.37659484 0.07495651 -0.07661685
0001f0 a3 4e 92 3e 32 24 0c bd 04 7d 33 bc e5 49 aa 3e
       0.2857562 -0.034214206 -0.010955099 0.33259502
000200 c7 43 31 be 55 28 35 be 41 d4 94 3e d5 53 32 be
       -0.17311011 -0.17691167 0.29068187 -0.17414792
000210 cd be 30 3d 33 06 82 3d 7a c5 46 be d4 97 4d be
       0.04315071 0.06348839 -0.19411269 -0.20077449
000220 49 c5 e1 bc a8 d8 df bd 69 d8 e1 3d 40 f3 00 3e
       -0.027559893 -0.10929996 0.11027605 0.12592793
000230 92 50 37 be b2 b3 a4 bd 8e ac 12 be ba 72 b2 bb
       -0.17901829 -0.08042087 -0.14323637 -0.0054458054
000240 9b 6c 2e be af 7d 3c 3d 47 03 bf 3a f6 73 13 3e
       -0.17033617 0.0460183 0.001457312 0.14399704
000250 96 b3 00 bd e8 e6 85 be b2 50 d6 bd 3a eb 1a be
       -0.031421266 -0.2615273 -0.1046461 -0.15128794
000260 4d 7d 80 3d 81 fb 72 3d 80 0e 37 3d e5 9e a6 3d
       0.06273899 0.059321884 0.044691563 0.081357755
000270 ac ba 17 3d b6 e4 a0 bd 2e 06 b9 3e 13 6e c4 be
       0.03704326 -0.07856123 0.36137527 -0.3836523
000280 2c 07 20 be 7b 56 31 3e 98 82 8a 3e 36 b2 54 be
       -0.15627736 0.17318146 0.2705276 -0.20771107
000290 81 c3 ff bd ef 59 eb bd 3d f9 d6 bd 1d 16 89 3d
       -0.12488461 -0.11491763 -0.10496757 0.06693671
0002a0 87 d5 6f 3e 9d 6f 47 be 92 69 be 3e e3 9d b5 be
       0.23421298 -0.19476171 0.3718992 -0.3547202
0002b0 c6 24 25 3d 6b e3 d4 3c 45 1b 7c bc 7e 57 ce bc
       0.040318273 0.025987348 -0.015387361 -0.025188204
0002c0 f8 df 4f be 96 fd 0e 3e ec 88 a8 bd 84 e5 d1 3d
       -0.20300281 0.13963923 -0.08229241 0.10248855
0002d0 66 cf f9 3d 28 b8 17 3d c2 51 77 3e cd f9 8c 3e
       0.12197761 0.03704086 0.24152282 0.27534333
0002e0 bf 3d 94 bc 62 49 d7 3e 60 80 8b 3c 9f 15 86 3e
       -0.01809585 0.42048174 0.017028987 0.2618837
0002f0 8a d9 9a 3e f4 58 9f 3d c9 cb 86 be 38 8f d7 3e
       0.30244094 0.07780638 -0.2632735 0.42101455
000300 c0 a5 75 be 33 e8 f8 3c f8 4a e0 bd e3 ae c8 3b
       -0.2398901 0.030384159 -0.10951799 0.0061243637
000310 be 8f b9 3d ce e0 09 3d 60 5c f7 3d c6 00 1a be
       0.0906062 0.033661656 0.12078166 -0.15039358
000320 c5 3e f6 3d 96 d8 ea 3d e0 c4 51 3e 46 60 f9 bc
       0.12023691 0.11467092 0.20485258 -0.030441415
000330 2e 55 fc 3d 5d c3 14 3d e9 62 96 bd e6 a0 7a 3e
       0.12320934 0.036319125 -0.07343084 0.2447544
000340 b9 e9 58 bb 63 52 9d bd 74 04 37 bd 14 d1 5f 3e
       -0.0033098294 -0.0768173 -0.04468198 0.218571
000350 17 12 39 bd 8b dc db bd cc 68 7d 3e ee b4 dd bd
       -0.045183267 -0.107354246 0.24747008 -0.10825525
000360 e4 0f 38 be 7e cb c0 3e 8e 2c 39 3e 53 03 f9 bd
       -0.17974812 0.37655252 0.18083403 -0.12158837
000370 45 9f 1d 3c ca 08 df be bb 4a 07 3e 6e b6 9f 3d
       0.009620492 -0.43561393 0.13212101 0.077984676
000380 eb 38 c9 bd ac 79 1e be 1e 39 33 bd 4a b0 49 bc
       -0.09825309 -0.15476102 -0.043755643 -0.012310097
000390 7b b9 2e 3d f9 e0 c7 be c9 de a5 3e 0c 6d 15 3b
       0.042657357 -0.39038828 0.32396534 0.0022800593
0003a0 4b 6a 95 be 67 7a 96 3e 17 c9 1a 3e 67 d5 8b bd
       -0.29182658 0.2939026 0.15115772 -0.06827813
0003b0 cb 20 b2 be 2b 44 07 be 2a 5c ea 3d 1a fe 75 be
       -0.34790644 -0.13209598 0.1144336 -0.24022713
0003c0 ec d7 28 3e 0b df 90 3e 97 1c 01 3d 05 72 a5 3d
       0.16488618 0.28295168 0.031521406 0.08078388
0003d0 aa 33 d3 bc b8 35 b0 3e 76 b7 a7 be da b6 e4 bd
       -0.025781471 0.34415984 -0.32757157 -0.11167689
0003e0 21 7c 97 bd 6c 48 da 3c b1 ee fa 3d 4a fb 88 3e
       -0.073967226 0.026645862 0.12252558 0.26754218
0003f0 f1 d8 0f 3e bc e5 33 3e f0 fc 93 bd b9 4b 44 3e
       0.140476 0.17568105 -0.072259784 0.19169511

network_body._body_endoder.seq_layers.2.bias f4 [256]
000000 00 00 00 00 00 00 00 00 00 00 00 00 00 00 00 00
       0.0 0.0 0.0 0.0
000010 00 00 00 00 00 00 00 00 00 00 00 00 00 00 00 00
       0.0 0.0 0.0 0.0
000020 00 00 00 00 00 00 00 00 00 00 00 00 00 00 00 00
       0.0 0.0 0.0 0.0
000030 00 00 00 00 00 00 00 00 00 00 00 00 00 00 00 00
       0.0 0.0 0.0 0.0
000040 00 00 00 00 00 00 00 00 00 00 00 00 00 00 00 00
       0.0 0.0 0.0 0.0
000050 00 00 00 00 00 00 00 00 00 00 00 00 00 00 00 00
       0.0 0.0 0.0 0.0
000060 00 00 00 00 00 00 00 00 00 00 00 00 00 00 00 00
       0.0 0.0 0.0 0.0
000070 00 00 00 00 00 00 00 00 00 00 00 00 00 00 00 00
       0.0 0.0 0.0 0.0
000080 00 00 00 00 00 00 00 00 00 00 00 00 00 00 00 00
       0.0 0.0 0.0 0.0
000090 00 00 00 00 00 00 00 00 00 00 00 00 00 00 00 00
       0.0 0.0 0.0 0.0
0000a0 00 00 00 00 00 00 00 00 00 00 00 00 00 00 00 00
       0.0 0.0 0.0 0.0
0000b0 00 00 00 00 00 00 00 00 00 00 00 00 00 00 00 00
       0.0 0.0 0.0 0.0
0000c0 00 00 00 00 00 00 00 00 00 00 00 00 00 00 00 00
       0.0 0.0 0.0 0.0
0000d0 00 00 00 00 00 00 00 00 00 00 00 00 00 00 00 00
       0.0 0.0 0.0 0.0
0000e0 00 00 00 00 00 00 00 00 00 00 00 00 00 00 00 00
       0.0 0.0 0.0 0.0
0000f0 00 00 00 00 00 00 00 00 00 00 00 00 00 00 00 00
       0.0 0.0 0.0 0.0
000100 00 00 00 00 00 00 00 00 00 00 00 00 00 00 00 00
       0.0 0.0 0.0 0.0
000110 00 00 00 00 00 00 00 00 00 00 00 00 00 00 00 00
       0.0 0.0 0.0 0.0
000120 00 00 00 00 00 00 00 00 00 00 00 00 00 00 00 00
       0.0 0.0 0.0 0.0
000130 00 00 00 00 00 00 00 00 00 00 00 00 00 00 00 00
       0.0 0.0 0.0 0.0
000140 00 00 00 00 00 00 00 00 00 00 00 00 00 00 00 00
       0.0 0.0 0.0 0.0
000150 00 00 00 00 00 00 00 00 00 00 00 00 00 00 00 00
       0.0 0.0 0.0 0.0
000160 00 00 00 00 00 00 00 00 00 00 00 00 00 00 00 00
       0.0 0.0 0.0 0.0
000170 00 00 00 00 00 00 00 00 00 00 00 00 00 00 00 00
       0.0 0.0 0.0 0.0
000180 00 00 00 00 00 00 00 00 00 00 00 00 00 00 00 00
       0.0 0.0 0.0 0.0
000190 00 00 00 00 00 00 00 00 00 00 00 00 00 00 00 00
       0.0 0.0 0.0 0.0
0001a0 00 00 00 00 00 00 00 00 00 00 00 00 00 00 00 00
       0.0 0.0 0.0 0.0
0001b0 00 00 00 00 00 00 00 00 00 00 00 00 00 00 00 00
       0.0 0.0 0.0 0.0
0001c0 00 00 00 00 00 00 00 00 00 00 00 00 00 00 00 00
       0.0 0.0 0.0 0.0
0001d0 00 00 00 00 00 00 00 00 00 00 00 00 00 00 00 00
       0.0 0.0 0.0 0.0
0001e0 00 00 00 00 00 00 00 00 00 00 00 00 00 00 00 00
       0.0 0.0 0.0 0.0
0001f0 00 00 00 00 00 00 00 00 00 00 00 00 00 00 00 00
       0.0 0.0 0.0 0.0
000200 00 00 00 00 00 00 00 00 00 00 00 00 00 00 00 00
       0.0 0.0 0.0 0.0
000210 00 00 00 00 00 00 00 00 00 00 00 00 00 00 00 00
       0.0 0.0 0.0 0.0
000220 00 00 00 00 00 00 00 00 00 00 00 00 00 00 00 00
       0.0 0.0 0.0 0.0
000230 00 00 00 00 00 00 00 00 00 00 00 00 00 00 00 00
       0.0 0.0 0.0 0.0
000240 00 00 00 00 00 00 00 00 00 00 00 00 00 00 00 00
       0.0 0.0 0.0 0.0
000250 00 00 00 00 00 00 00 00 00 00 00 00 00 00 00 00
       0.0 0.0 0.0 0.0
000260 00 00 00 00 00 00 00 00 00 00 00 00 00 00 00 00
       0.0 0.0 0.0 0.0
000270 00 00 00 00 00 00 00 00 00 00 00 00 00 00 00 00
       0.0 0.0 0.0 0.0
000280 00 00 00 00 00 00 00 00 00 00 00 00 00 00 00 00
       0.0 0.0 0.0 0.0
000290 00 00 00 00 00 00 00 00 00 00 00 00 00 00 00 00
       0.0 0.0 0.0 0.0
0002a0 00 00 00 00 00 00 00 00 00 00 00 00 00 00 00 00
       0.0 0.0 0.0 0.0
0002b0 00 00 00 00 00 00 00 00 00 00 00 00 00 00 00 00
       0.0 0.0 0.0 0.0
0002c0 00 00 00 00 00 00 00 00 00 00 00 00 00 00 00 00
       0.0 0.0 0.0 0.0
0002d0 00 00 00 00 00 00 00 00 00 00 00 00 00 00 00 00
       0.0 0.0 0.0 0.0
0002e0 00 00 00 00 00 00 00 00 00 00 00 00 00 00 00 00
       0.0 0.0 0.0 0.0
0002f0 00 00 00 00 00 00 00 00 00 00 00 00 00 00 00 00
       0.0 0.0 0.0 0.0
000300 00 00 00 00 00 00 00 00 00 00 00 00 00 00 00 00
       0.0 0.0 0.0 0.0
000310 00 00 00 00 00 00 00 00 00 00 00 00 00 00 00 00
       0.0 0.0 0.0 0.0
000320 00 00 00 00 00 00 00 00 00 00 00 00 00 00 00 00
       0.0 0.0 0.0 0.0
000330 00 00 00 00 00 00 00 00 00 00 00 00 00 00 00 00
       0.0 0.0 0.0 0.0
000340 00 00 00 00 00 00 00 00 00 00 00 00 00 00 00 00
       0.0 0.0 0.0 0.0
000350 00 00 00 00 00 00 00 00 00 00 00 00 00 00 00 00
       0.0 0.0 0.0 0.0
000360 00 00 00 00 00 00 00 00 00 00 00 00 00 00 00 00
       0.0 0.0 0.0 0.0
000370 00 00 00 00 00 00 00 00 00 00 00 00 00 00 00 00
       0.0 0.0 0.0 0.0
000380 00 00 00 00 00 00 00 00 00 00 00 00 00 00 00 00
       0.0 0.0 0.0 0.0
000390 00 00 00 00 00 00 00 00 00 00 00 00 00 00 00 00
       0.0 0.0 0.0 0.0
0003a0 00 00 00 00 00 00 00 00 00 00 00 00 00 00 00 00
       0.0 0.0 0.0 0.0
0003b0 00 00 00 00 00 00 00 00 00 00 00 00 00 00 00 00
       0.0 0.0 0.0 0.0
0003c0 00 00 00 00 00 00 00 00 00 00 00 00 00 00 00 00
       0.0 0.0 0.0 0.0
0003d0 00 00 00 00 00 00 00 00 00 00 00 00 00 00 00 00
       0.0 0.0 0.0 0.0
0003e0 00 00 00 00 00 00 00 00 00 00 00 00 00 00 00 00
       0.0 0.0 0.0 0.0
0003f0 00 00 00 00 00 00 00 00 00 00 00 00 00 00 00 00
       0.0 0.0 0.0 0.0

network_body._body_endoder.seq_layers.2.weight f4 [256, 256]
000000 f7 b7 59 3d f9 96 0a 3d c6 98 62 bc 90 eb 61 bd
       0.05315396 0.033835385 -0.013830369 -0.05515629
000010 bb 2c 26 bd 54 d2 65 bc 95 e9 92 bb ea c4 be 3c
       -0.040570002 -0.014027197 -0.0044834116 0.023287255
000020 da 1e e6 3c 69 1d af bd b3 89 a0 bd 84 1c e1 3c
       0.028090883 -0.085505314 -0.07838764 0.027479418
000030 c1 19 98 3d 50 aa a3 bc 53 77 a9 bc 43 21 29 3d
       0.07426787 -0.019978672 -0.020686781 0.041291486
000040 72 f2 0e 3e cb 9c 30 bd 34 43 ad 3c 12 03 99 3d
       0.13959673 -0.04311828 0.021150209 0.07471289
000050 4b c0 98 bd d6 cd 0f bd 9c 45 db 3c f2 4c 02 3d
       -0.07458552 -0.03510841 0.02676659 0.031811662
000060 54 0f 03 3c 5c a5 0f 3d 9c 01 dc 3b 95 fd c0 3c
       0.00799926 0.03506981 0.006714059 0.023558417
000070 df 8d 29 3d 97 f4 c9 3b 9e ad 36 bd 60 51 07 38
       0.041395064 0.0061631906 -0.044599168 3.2262295e-05
000080 05 8a 92 bc 9a 49 b7 3c 1d 7a 26 bc 2e 5a b5 bc
       -0.017888078 0.022373963 -0.01016095 -0.022137728
000090 1a b5 f1 bd c7 bf 88 bd c1 8f 68 3d 7d 2a 3e bd
       -0.118021205 -0.066772036 0.05677772 -0.04642724
0000a0 fe 49 1a bd 19 21 ef 3b 5b 52 c7 bd 45 28 2b 3d
       -0.03766822 0.0072976467 -0.09732505 0.04178645
0000b0 b6 b6 fd 3d 0c 65 9d 3d 00 4f 3c 3c d3 6b bc bd
       0.12388365 0.07685289 0.011493444 -0.09200253
0000c0 f6 17 3f bd 92 74 50 3d 8b 8a 0b bb 5a 4e f6 3d
       -0.04665371 0.05089242 -0.0021292295 0.12026663
0000d0 f1 48 25 3d 2c 8f 16 3d 72 be 94 bc 4a cb 88 bc
       0.040352765 0.036757633 -0.018157218 -0.016698498
0000e0 56 93 cc 3d be fa b8 bd ff 66 e9 3d 82 00 3e bd
       0.099890396 -0.090322 0.11396598 -0.046387203
0000f0 b8 e1 4e bd f5 b7 40 bd 24 63 37 bc 97 68 20 3e
       -0.05050823 -0.047050435 -0.011193071 0.15664898
000100 cd 77 9c 3d c1 d9 59 bd 4d 44 39 bd 54 24 e3 bd
       0.07640038 -0.053186182 -0.045231152 -0.110909134
000110 1b 62 05 3c fa cb b4 3c 24 4f 5c 3c 0b 76 3d be
       0.008141066 0.02206992 0.013446603 -0.18502061
000120 cf 37 05 bd c9 e3 2d 3c 04 0c f0 3d 41 3b 00 3d
       -0.032523926 0.01061339 0.11721042 0.03130651
000130 d6 11 60 bd 1c 4f a3 bd b8 61 cc 3d 22 38 5e 3d
       -0.05470451 -0.07974073 0.09979576 0.05425275
000140 ed 8b de 3b 81 45 66 3d 07 6f d3 bc 78 81 bf 3c
       0.006791583 0.056218628 -0.025809778 0.023377165
000150 d6 23 75 bc 75 c2 ac bb 75 27 50 bd 36 cd 9f 3d
       -0.014962157 -0.0052722045 -0.05081888 0.07802813
000160 5a c5 b7 3c 49 4a b9 bb 68 c7 a4 bd 19 20 a7 3d
       0.022432972 -0.0056546074 -0.08045846 0.08160419
000170 82 33 26 bd 22 6b ce 3c 32 69 39 3d b9 10 8e 3d
       -0.040576465 0.02519757 0.045266338 0.06936783
000180 d3 e1 77 3d 4a 3c 02 bd a6 a0 0b be ea dd 63 bd
       0.060518097 -0.031795777 -0.13635501 -0.055631556
000190 ee a9 3f bd 0f 97 58 bd 36 f0 a0 bd aa 61 b0 3d
       -0.046792917 -0.052878436 -0.078583166 0.08612378
0001a0 1a 5e 7b 3d 27 58 bb bb 05 53 60 3d ae 99 eb bd
       0.06136904 -0.0057172957 0.054766674 -0.115039214
0001b0 b0 96 83 bd 91 88 c5 bd 8c ae 88 bd b5 20 5e 3d
       -0.06425226 -0.096451886 -0.06673917 0.05423041
0001c0 da 3e bb bd 2f 17 0f bd 4b 90 23 bd 7e 48 e6 3a
       -0.09142847 -0.03493422 -0.03993253 0.0017569212
0001d0 c9 c8 16 bc c1 ba 81 3c 89 cf 22 3c b7 b7 a3 3d
       -0.009203144 0.015836122 0.009937176 0.07994025
0001e0 d2 42 f7 bd 43 3b 0f 3b b7 15 e6 bc 7e 6a 0f bd
       -0.12073292 0.002185539 -0.028086526 -0.03501367
0001f0 5e 10 ce 3d 8e da 9b 3c d5 f7 de 3c b5 6d 69 bd
       0.100617155 0.019025113 0.027217785 -0.05698939
000200 1d e2 2a bd 80 cb 95 bc 97 8f 04 bd f6 0c 38 bc
       -0.041719545 -0.018285513 -0.0323635 -0.011233559
000210 ae b1 d8 3d 9f b7 05 3d f3 be 28 bd 6d 7b 4e 3d
       0.10580765 0.032645818 -0.04119773 0.050410677
000220 23 61 71 bc 35 bc 32 be f8 33 9b 3c 8b e9 07 be
       -0.014732632 -0.17454608 0.018945679 -0.13272683
000230 8b 39 6c bd 7d e9 7d 3d 99 77 fa 3c ca e3 84 bb
       -0.057672065 0.06199025 0.030574607 -0.004055475
000240 4e 51 8b bd c2 39 de 3c cf 75 62 3c 76 bb 0d be
       -0.06802617 0.02712715 0.013822033 -0.13841042
000250 54 18 1e 3c cd ce 76 3c 9a 97 58 bd 90 9d 70 bc
       0.009649355 0.015063954 -0.052878954 -0.014686003
000260 56 60 be bb c4 b7 43 bd be a3 96 3c e7 fb b0 bd
       -0.005809824 -0.047782674 0.018388625 -0.086417966
000270 f6 db 80 bb 13 06 35 bc 1d b6 a9 3d 5f 8f c6 bd
       -0.0039324714 -0.0110488115 0.082866885 -0.096953146
000280 2b ca 8d bd cf d1 0b bd 9c 2d b7 bd 95 d1 12 3d
       -0.06923326 -0.034135636 -0.08944246 0.035844404
000290 19 08 23 bd 48 24 87 3d d3 67 9a bd 79 ce 56 3c
       -0.039802644 0.06598717 -0.07539334 0.01311075
0002a0 0d c4 07 3d 83 fe 9d bd 6a 62 70 bd dd 7a 1a 3d
       0.033145953 -0.0771456 -0.058687605 0.037714828
0002b0 a4 62 a3 3d 19 59 bb 3c ab 53 b3 bd ac e6 2a 3d
       0.079777986 0.022869634 -0.08756193 0.041723892
0002c0 7f b7 38 bd 95 93 7d 3c 6a f7 6d bd 32 29 ad 3c
       -0.04509687 0.015477081 -0.05809728 0.021137808
0002d0 1c 81 ed 3c e5 44 67 bd 51 64 8a bd ca 88 83 bd
       0.028992228 -0.056462187 -0.06757415 -0.06422575
0002e0 19 86 9e 3c 57 44 3f bc c6 3f 71 bd e8 7a cc 3c
       0.019351052 -0.011674008 -0.05889871 0.02496095
0002f0 87 59 13 bc 6c 39 a9 3c 32 ed 15 3d 5e 1c 72 3d
       -0.008993513 0.020657264 0.03660316 0.059109084
000300 60 8e 89 bd 6e 7d 3a bc 88 b9 86 bc d0 c0 2f 3d
       -0.06716609 -0.011382444 -0.01644589 0.04290849
000310 01 0b 4f 3c 3e b4 af 3b 1d 67 67 bc 16 f1 8b 3d
       0.012636901 0.0053620627 -0.014123705 0.06833093
000320 a8 83 06 3d 20 e1 e4 3b 4d d8 95 3d d5 81 89 3d
       0.0328404 0.006984845 0.07316647 0.067142166
000330 c8 e1 2e bc 64 30 92 3d 48 bc ae 3d f7 46 84 3d
       -0.010673948 0.07138136 0.085320055 0.06458848
000340 31 ac c7 3d f9 7c 4e 3d 5b 2c c3 3c b3 e6 5a bd
       0.0974964 0.050412152 0.023824861 -0.05344267
000350 6e 6a e7 3c f7 9d 43 ba 94 43 ea bd ae 43 cf 3d
       0.028248992 -0.0007462198 -0.11438671 0.10120331
000360 d6 7d 18 3b f2 7b 30 3d b0 ec 16 3d f5 73 cd bc
       0.0023268363 0.043086953 0.036846817 -0.025079707
000370 1e 0e d4 3d 4c a2 a1 bc 4e 15 98 bd f0 f8 0a 3c
       0.10354255 -0.01973071 -0.074259385 0.008482203
000380 66 3c 49 3d 6a 05 1d 3c de ed 2a bd 1a c5 cf bd
       0.049129866 0.00958381 -0.041730754 -0.10145016
000390 92 f2 ee 3d 65 fc 8e 3d b3 60 82 3c 69 72 1a bd
       0.1166736 0.06981734 0.01591525 -0.037706766
0003a0 3e bf 4f bc 55 b8 2d 3d 58 d6 7b bd 15 35 d5 bc
       -0.012679873 0.04241212 -0.06148371 -0.026026288
0003b0 e2 27 82 3d de 69 1d 3c f4 03 03 bc af 1b 9e bb
       0.06355263 0.00960776 -0.007996548 -0.0048250775
0003c0 98 0c 29 3d af a8 11 3b a3 2e 13 bc 60 c3 16 bd
       0.041271776 0.0022225787 -0.008983287 -0.036807418
0003d0 0c 22 fb 3b 1e 82 da 3c 77 3b a7 3a e7 9e 0d 3d
       0.007663971 0.026673373 0.0012758811 0.03457537
0003e0 d1 02 da bc 20 6e 82 3b 4b 2d d6 bd f9 6d c4 3d
       -0.026612671 0.003980413 -0.10457858 0.09591288
0003f0 81 42 78 bd c1 23 33 3d b5 fb 7e 3d 85 9d ec 3c
       -0.060610298 0.04373527 0.062251765 0.028883705
