Assets/ML-Agents/results/Andrew ML/results/sc_01/SimpleCollector/SimpleCollector-90563.onnx (onnx, 305000 bytes, 11 tensors)

action_model._discrete_distribution.branches.0.bias f4 [3]
0	0x3c6dc9c6	0.014513439
1	0xbb168f85	-0.0022973728
2	0xbc7ef15e	-0.015560476

action_model._discrete_distribution.branches.0.weight f4 [3, 256]
0	0x3c210dae	0.009829922
1	0xbc29061b	-0.010316397
2	0xbc1d1941	-0.0095885405
3	0xbcd7e9e9	-0.026356654
4	0xbb816409	-0.0039486927
5	0x3ccd1972	0.025036547
6	0x3cb9e933	0.022694206
7	0xb9fc3a86	-0.0004810879
8	0x3c241828	0.010015525
9	0x3be56bac	0.007001361
10	0xbbd17d94	-0.006393144
11	0xbcba2ce3	-0.022726482
12	0x3ba78d30	0.0051132664
13	0x3c2e8bef	0.01065348
14	0xba7d7310	-0.000966833
15	0xbcaedabf	-0.02134454
16	0xbc79cf03	-0.015247109
17	0x3c6c35c2	0.014417114
18	0xbc893766	-0.016750049
19	0xbc8f11b1	-0.01746449
20	0x3c098141	0.008392633
21	0xbc2b43b3	-0.0104531525
22	0xbc99d1df	-0.018776832
23	0xbcd57787	-0.026057972
24	0x3bf5ac58	0.0074973516
25	0x3d0624cc	0.032749936
26	0x3ce7a27e	0.028275725
27	0x3cf4bec2	0.029876117
28	0x3c47fd79	0.012206429
29	0x3c25fb89	0.010130771
30	0x3c981758	0.018565819
31	0xbbdf704b	-0.0068188063
32	0x3b2b5a0d	0.0026146204
33	0x3bdefadd	0.0068048076
34	0x3c8a6dcb	0.016898056
35	0xbc6b465b	-0.014360036
36	0x3b25d215	0.002530222
37	0xbcc4a5ad	-0.024004782
38	0x3ab91f94	0.0014123791
39	0x3bba17b8	0.005679097
40	0x3c783ad8	0.015150748
41	0x3b8a2fce	0.0042171245
42	0xbbd9bc9f	-0.0066448
43	0xbc658c71	-0.014010535
44	0x3abf6a9a	0.0014603913
45	0x3b969202	0.004595042
46	0x3bd14d72	0.006387406
47	0x3c9275e7	0.017878486
48	0x3c295161	0.010334344
49	0x3c8538b0	0.016262382
50	0x3c3df07b	0.01159298
51	0xbc641a9c	-0.01392236
52	0x3b0d8236	0.0021592504
53	0xbc257fa3	-0.010101232
54	0xbbb7a970	-0.0056049153
55	0xbc867342	-0.016412381
56	0xba342f7d	-0.00068735314
57	0x3b886f27	0.004163641
58	0xbb0b0cc7	-0.0021217333
59	0xbbfd6c1e	-0.007733836
60	0xb8592caf	-5.1778447e-05
61	0x3caae9d7	0.020863457
62	0xbbfb0286	-0.007660213
63	0xba66ba33	-0.00088015496
64	0xbc301e72	-0.010749446
65	0x3c19fb46	0.009398287
66	0xba37c2af	-0.0007009906
67	0x3bf1e4fe	0.0073820343
68	0x3bd7d3c3	0.0065865233
69	0x3d08469f	0.033270475
70	0xba9a368f	-0.0011765527
71	0x3c0f9e2b	0.0087657375
72	0x3cee6581	0.029101135
73	0xbbe49061	-0.006975219
74	0xbcad57e4	-0.021160074
75	0xbc1c4c4d	-0.009539676
76	0x3c423693	0.011853832
77	0x3be13244	0.006872447
78	0x3c78e12c	0.015190404
79	0x3c7d2cf1	0.015452609
80	0x3cbed189	0.023293274
81	0xbbca98fe	-0.006182789
82	0xbc0553d0	-0.008137658
83	0xbbf6b360	-0.0075287074
84	0xbbdc657e	-0.006725966
85	0x3c289050	0.010288313
86	0xbc3cef22	-0.011531623
87	0xbc7948c2	-0.015215101
88	0x3c954269	0.018220143
89	0xbc545720	-0.012960225
90	0x3c1e7c40	0.009673178
91	0x3c027786	0.007963067
92	0x3b97a35c	0.0046276283
93	0xbb58fa92	-0.0033108336
94	0x3cc62998	0.024189755
95	0xbc752dcd	-0.014964533
96	0x3c073f53	0.008254844
97	0xbb995598	-0.004679393
98	0x3ca028ee	0.019550767
99	0xbc2ddc8f	-0.010611667
100	0x3c3adebb	0.011405642
101	0x3c9636f2	0.018336747
102	0x3a7c6098	0.00096274307
103	0x3c54ee55	0.012996276
104	0xbc539003	-0.012912753
105	0xbccca77a	-0.024982203
106	0x3c50e1d0	0.01274915
107	0xbc07c11c	-0.008285787
108	0x3c487444	0.012234751
109	0x3d124d61	0.035718326
110	0x3c956701	0.018237593
111	0x3aa29056	0.0012402635
112	0x3d063794	0.032767847
113	0xb896b9ee	-7.1871895e-05
114	0xbc8bccdf	-0.017065464
115	0xbbc76417	-0.0060849297
116	0x3a7f98b0	0.000975023
117	0xbc8b95e0	-0.01703924
118	0x3a92182c	0.001114612
119	0x3c339066	0.01095972
120	0xbcb8bf83	-0.022552257
121	0xbc0f3974	-0.008741725
122	0x3cb67b93	0.022275722
123	0x3c5e6e05	0.013576035
124	0xbc14e21e	-0.009087114
125	0xbc8b93de	-0.017038282
126	0x3c00384d	0.007825923
127	0x3c5997b2	0.013280796
128	0xbb1335e6	-0.0022462546
129	0x3cc0cde7	0.023535682
130	0xbc2231a9	-0.009899535
131	0x3beddd85	0.007259073
132	0xbc31e1c6	-0.010857051
133	0x3c291ecf	0.010322287
134	0x3b4bc3ed	0.0031092123
135	0x3c5b7159	0.013393723
136	0x3c4c388e	0.012464656
137	0x3ba45a75	0.005015666
138	0xbc32ae00	-0.010905743
139	0x3c963ddd	0.018340046
140	0x3ba60c90	0.0050674155
141	0x3cd9a823	0.026569432
142	0x392fdd34	0.00016771705
143	0x3c893ef3	0.01675365
144	0x3c65d7d6	0.01402851
145	0xbc0b9a38	-0.008520655
146	0x3c31f875	0.010862459
147	0xbbf36f8d	-0.0074290694
148	0xbcb628f9	-0.022236334
149	0x3c6527a9	0.0139865065
150	0xbca18ea5	-0.019721339
151	0xbcaa85cb	-0.02081575
152	0xba8cf2b8	-0.0010753488
153	0xbb287097	-0.0025701874
154	0x3caa0e86	0.020758878
155	0x3c5cddb6	0.013480594
156	0x3ab11164	0.0013509211
157	0x3bb93e4e	0.0056531793
158	0x3c95540a	0.01822855
159	0xbab0cdcb	-0.0013489065
160	0x3c240b82	0.010012509
161	0xbc851731	-0.01624641
162	0x3c96bc2a	0.01840027
163	0x3c3d260d	0.011544717
164	0xbd168ee8	-0.03675738
165	0x3be5a5aa	0.007008274
166	0xbc853f88	-0.016265646
167	0xbb98a510	-0.004658349
168	0xbcdbe6c7	-0.026843442
169	0xbb0c7cda	-0.0021436722
170	0xbc3009a7	-0.010744489
171	0xbc860f79	-0.0163648
172	0x3ba3b2ab	0.004995664
173	0xbbc289b3	-0.005936825
174	0x3c1231eb	0.008923034
175	0x3c63c2f2	0.013901459
176	0xbc4b59ec	-0.012411576
177	0x3ce9e437	0.028551204
178	0xbaaf920a	-0.0013394963
179	0xbbee47ca	-0.0072717415
180	0xbc2fe9a5	-0.010736858
181	0x3ca45e7e	0.020064589
182	0x3c633f6a	0.0138701
183	0xbcadd338	-0.021218881
184	0x3c6e6c8a	0.014552245
185	0xbc063784	-0.008191947
186	0x3c938c13	0.018011129
187	0x3bc94cdc	0.0061431956
188	0x3caf29dd	0.021382267
189	0xbaf232c0	-0.001847826
190	0x3c01dee7	0.007926679
191	0x3c764389	0.01503075
192	0xba1a5605	-0.00058874517
193	0x3c1c60ba	0.009544546
194	0x3c7c4da1	0.015399368
195	0xbad79ea6	-0.0016450479
196	0xbc6ec2c0	-0.014572799
197	0x3c1839e0	0.009291142
198	0xbcac29da	-0.02101605
199	0xbc96a688	-0.018389955
200	0x3cb47360	0.022027671
201	0xbc867860	-0.016414821
202	0xba086f88	-0.0005204608
203	0xbb5e18b7	-0.0033889243
204	0xbb611938	-0.0034347307
205	0xbc4a51fb	-0.012348647
206	0x3c3c7ee8	0.011504866
207	0x3c3398f2	0.010961758
208	0x3c95ec5f	0.018301187
209	0x3b1514ac	0.0022747917
210	0xbc6948f3	-0.014238584
211	0xbc9fab8b	-0.019490978
212	0x3b426fd0	0.0029668696
213	0x3bc61539	0.0060450104
214	0x3c488a46	0.012239998
215	0xbc8db0c1	-0.017296197
216	0xba90b92e	-0.0011041516
217	0x3b8876e9	0.004164566
218	0x3b42ba20	0.002971299
219	0x3aefb373	0.0018287733
220	0xbb9b8eb5	-0.0047472366
221	0x3bd572af	0.0065139155
222	0x3c31f96a	0.010862688
223	0x3aeaa0a9	0.0017900664
224	0x3c8c3d07	0.017118944
225	0xbbfd2467	-0.0077252868
226	0x3aa897c0	0.0012862608
227	0xbc1f73b3	-0.009732175
228	0xba4697a5	-0.00075756974
229	0x3c900c4f	0.017583994
230	0x3c6c0752	0.014406042
231	0x3bb57930	0.0055381283
232	0x3c415fe2	0.011802645
233	0x3bc5de80	0.006038487
234	0xbbc0d1a5	-0.0058843666
235	0x3c75ba70	0.014998063
236	0xbbaf4961	-0.0053493236
237	0x3c6c49ad	0.014421863
238	0xbbb1c46b	-0.005425026
239	0x3bdd9a4a	0.0067627775
240	0x3b9f73d2	0.004866102
241	0xbc00672a	-0.007837096
242	0xbc908039	-0.017639266
243	0x3ce26ced	0.02763983
244	0x3c851fb7	0.016250474
245	0x3c575683	0.013143185
246	0xbc97653f	-0.018480895
247	0xbc9588dc	-0.018253736
248	0xbbeb4dbf	-0.007180899
249	0x3c47614f	0.012169196
250	0xbcf7a72c	-0.030231081
251	0xbb5d71c1	-0.0033789726
252	0xbb3130df	-0.0027037186
253	0x3c158ef1	0.009128318
254	0xbc8b05c3	-0.01697052
255	0xbc4ca032	-0.012489365

action_model._discrete_distribution.branches.1.bias f4 [3]
0	0x3c5a8360	0.013336986
1	0xbb9e5323	-0.004831688
2	0xbbdf7bc2	-0.006820173

action_model._discrete_distribution.branches.1.weight f4 [3, 256]
0	0x3d224a7d	0.03962182
1	0x3baa66d0	0.0052002445
2	0xbc2ddad5	-0.010611256
3	0xbcb62b7b	-0.02223753
4	0xbc0a830c	-0.008454096
5	0xbbbfd8f0	-0.0058547184
6	0x3c115841	0.008871139
7	0x3c88618e	0.01664808
8	0xbc6a10da	-0.014286244
9	0x3c9ccea4	0.019141503
10	0xbcb31882	-0.021862272
11	0xbc4e9bd6	-0.012610396
12	0xbb7eb69d	-0.003886617
13	0xba0e24c9	-0.00054223515
14	0xbc3500fa	-0.011047596
15	0xbb9837b4	-0.004645312
16	0x3cdc2d09	0.026876943
17	0x3c13a9c8	0.009012647
18	0x3c2e4f45	0.0106390165
19	0x3cfa9fa1	0.030593695
20	0x3bffb290	0.0078032687
21	0x3c5811e8	0.013187863
22	0xbc34fb6c	-0.011046272
23	0x3b94a5df	0.004536375
24	0xbc7b78ff	-0.015348672
25	0x3b8da51f	0.0043226625
26	0xbbabab32	-0.005238914
27	0xbbb80a40	-0.0056164563
28	0x3b8f1039	0.0043659476
29	0xbc556204	-0.013023857
30	0x3bbb25e1	0.0057113026
31	0x3aca000f	0.0015411394
32	0xbc9ebd62	-0.019377414
33	0x3c35434c	0.011063408
34	0x398f9540	0.00027386285
35	0xbcd5908a	-0.026069898
36	0x3c097a8f	0.008391037
37	0x3bd806a7	0.00659259
38	0x3d0a2c42	0.033733614
39	0xbc3c30c7	-0.011486239
40	0x3bb90b9c	0.005647136
41	0xbc8d8f8d	-0.017280364
42	0xbc769da5	-0.015052234
43	0xbc5ecc4d	-0.013598514
44	0xbbb6f4ba	-0.005583373
45	0xbbbd03c6	-0.005768272
46	0x3ca443cc	0.02005186
47	0x3c2c0fed	0.010501844
48	0xbc312d31	-0.010813997
49	0xbc82ddc5	-0.015974889
50	0x3cfefecd	0.031127358
51	0xbcae79aa	-0.021298248
52	0x3ca2e6ea	0.019885499
53	0xbbceb5f6	-0.0063083125
54	0xbc757490	-0.014981404
55	0x3c1614c5	0.009160225
56	0x3b1928aa	0.0023370185
57	0xbc77b050	-0.01511772
58	0x3beab113	0.007162222
59	0xbbafd593	-0.005366036
60	0x3c8fe297	0.017564101
61	0xbcb17ec0	-0.021666884
62	0xba85e006	-0.0010213859
63	0x3d220103	0.039551746
64	0xbc8cf5ae	-0.017206993
65	0xb9d0c4ee	-0.00039819576
66	0xbbe9a73f	-0.007130533
67	0x3c993d74	0.018706061
68	0xbca82b6e	-0.020528521
69	0x3b3c6dac	0.0028751893
70	0x3c399f49	0.01132948
71	0xbbd7e8f6	-0.0065890504
72	0xbbe68b1b	-0.0070356256
73	0xbb399844	-0.0028319517
74	0xba6c40e2	-0.0009012354
75	0xbcc86596	-0.024462502
76	0x3b230875	0.0024876867
77	0x3b95df1d	0.0045737163
78	0x3ca7f671	0.020503255
79	0x3c212c13	0.009837168
80	0xbbf0a91d	-0.0073443786
81	0xbca3f55d	-0.02001446
82	0x3cc65b5f	0.024213491
83	0x3ceac26d	0.028657163
84	0xbc97648c	-0.018480562
85	0xbc5d090e	-0.013490928
86	0x3c7c7630	0.0154090375
87	0xbc0dcbf7	-0.008654586
88	0xbb76a4b1	-0.0037634785
89	0x3a9a3304	0.0011764471
90	0xbb145d06	-0.0022638454
91	0x3c868e04	0.01642514
92	0xbc8213fd	-0.015878672
93	0x3bc98a59	0.0061505255
94	0x3beff2e2	0.007322655
95	0xba259581	-0.00063165283
96	0x3c51ebf5	0.012812604
97	0xbb4bda25	-0.0031105366
98	0x3c7eef0a	0.015559921
99	0xbaf082b5	-0.0018349501
100	0xbc89a81f	-0.0168038
101	0x3bd4486c	0.00647836
102	0xbc8e428d	-0.017365718
103	0xbc916f08	-0.01775314
104	0x3c89f918	0.01684241
105	0x3c4248a3	0.011858138
106	0xbb8ff59e	-0.0043932935
107	0x3b9a96e5	0.004717695
108	0xbc3b80ae	-0.011444254
109	0x3ad481c9	0.0016212995
110	0xbbb344a1	-0.0054708277
111	0x3c05a118	0.0081560835
112	0xbce448b6	-0.027866703
113	0x3cb16dcd	0.021658802
114	0x3a86adbc	0.0010275166
115	0xbc1594a4	-0.009129677
116	0xbc116ec9	-0.008876511
117	0x3cb841ce	0.022492316
118	0xbc8437f0	-0.016139954
119	0x3c8e1d6d	0.017348016
120	0xbcb6d028	-0.022316054
121	0x3c5f9146	0.013645476
122	0x3ae5eb87	0.0017541506
123	0xbca86c31	-0.020559402
124	0x3b3b456d	0.0028575317
125	0xbce5b995	-0.028042594
126	0x3b07ad67	0.002070272
127	0xbca3cf31	-0.019996257
128	0xbcaa08f0	-0.020756215
129	0x3c13fbe1	0.009032221
130	0x3ca0c35b	0.019624403
131	0xbb63beeb	-0.0034751247
132	0xbbfd3926	-0.00772776
133	0xbc19a3e2	-0.009377452
134	0x3a93d5af	0.0011278893
135	0x3d0165cf	0.031591233
136	0x3d203dc0	0.03912139
137	0x3c8b6fad	0.017021025
138	0x3c9b0169	0.01892157
139	0xbc8db5d6	-0.01729862
140	0xbca5843b	-0.020204654
141	0x3bd6dcca	0.006557082
142	0x3d004249	0.031313214
143	0x3bd02c9b	0.0063529736
144	0x3bb1ba3d	0.0054238127
145	0x3aa7f25c	0.0012813318
146	0xbb42d4c8	-0.0029728878
147	0xbca1624a	-0.019700188
148	0x3c8113dc	0.01575654
149	0xbb2e4635	-0.002659214
150	0xbc16429f	-0.009171157
151	0x3c489ff4	0.012245167
152	0xbcba6497	-0.022753043
153	0x3ceab373	0.028650021
154	0xbc0ec8ec	-0.008714896
155	0xba8048ea	-0.0009787355
156	0xbac7a810	-0.0015232582
157	0x3c07ce4d	0.008288932
158	0x3c4c3044	0.012462679
159	0x3ca4d6eb	0.020122012
160	0x3b0cab3d	0.002146437
161	0x3b2d66a1	0.0026458877
162	0xbcccee2f	-0.025015919
163	0xbc4a5a58	-0.012350641
164	0x3cc00abd	0.02344262
165	0x3bca6534	0.006176615
166	0xbc007ab2	-0.007841753
167	0xbc85cef1	-0.016334029
168	0x3b5d2411	0.003374342
169	0x3b4c6be3	0.0031192235
170	0xbb833169	-0.004003693
171	0xbc9ccd69	-0.019140916
172	0x363c4ce0	2.805893e-06
173	0xbce14a05	-0.027501116
174	0xbc01a8dc	-0.007913794
175	0xbcc7d111	-0.024391683
176	0x3c0f5d7b	0.008750315
177	0x3b8e80d9	0.004348856
178	0x3cb8c35a	0.022554088
179	0xb9b225e6	-0.00033979042
180	0xbb16a5fb	-0.0022987116
181	0xbc6c6de5	-0.014430498
182	0x3be28cee	0.006913773
183	0x3b87a0bc	0.004139034
184	0x3b30b2ed	0.0026962117
185	0xbc0934ea	-0.008374432
186	0xbb903a3b	-0.004401473
187	0xbd0cbf37	-0.034362044
188	0xbc743be0	-0.014906853
189	0xbca6544f	-0.020303873
190	0x3c612fce	0.013744308
191	0xbbd7a650	-0.0065811053
192	0x3b49ef79	0.0030812903
193	0x3cc7f4bd	0.024408692
194	0x3c116950	0.008875206
195	0x3cdfddfa	0.027327526
196	0x3c8b654d	0.017016077
197	0xba14a939	-0.0005670968
198	0x3a48c59e	0.0007658842
199	0xb802dcab	-3.119993e-05
200	0xbc015542	-0.007893862
201	0xbc961a43	-0.01832307
202	0x3adf1ab6	0.001702151
203	0xbbbc6627	-0.005749482
204	0x3c696136	0.014244368
205	0xbcdd180e	-0.02698901
206	0x3c74fe1d	0.014953163
207	0x3cf44c62	0.029821578
208	0xba985f46	-0.0011625073
209	0x3cab3223	0.02089793
210	0xbc85f544	-0.016352303
211	0xbbc56abf	-0.006024688
212	0xbc070935	-0.008241941
213	0x3c7cf537	0.015439323
214	0x3c3f980a	0.011693964
215	0xbb2494a1	-0.0025113004
216	0xbc199519	-0.009373927
217	0x3c84a9e8	0.016194299
218	0x3c4afaf8	0.012388937
219	0x3b403953	0.0029331043
220	0xbc2ddc39	-0.010611587
221	0x3d32e14a	0.043671884
222	0xbabf8c93	-0.0014614038
223	0x3bcce9c4	0.006253453
224	0xbba42b96	-0.0050100787
225	0xbc9263ba	-0.017869819
226	0x3c9278e5	0.017879913
227	0x3c8ed99c	0.017437749
228	0xbcea2f7c	-0.028587095
229	0xbc2c5c65	-0.010520075
230	0x3b68b594	0.003550862
231	0x3b6e6462	0.003637575
232	0xbc6f23bf	-0.014595925
233	0xbc6a3adf	-0.0142962625
234	0x3d23daf1	0.04000372
235	0x3d25789a	0.040398218
236	0x3c93a227	0.018021656
237	0xbad432c7	-0.0016189449
238	0xbbef1e0b	-0.0072972826
239	0xbcda51f7	-0.026650412
240	0xbc6d4613	-0.014482039
241	0xbc036dce	-0.008021785
242	0xbadca16d	-0.0016832777
243	0xbcae0d20	-0.021246493
244	0x3c0518dc	0.008123603
245	0xbc88023c	-0.016602628
246	0x3c1bcae4	0.009508822
247	0xbcd9fbe6	-0.026609372
248	0xba1e441e	-0.0006037372
249	0xbb829e81	-0.0039861803
250	0xbbdb75b8	-0.006697383
251	0x39561c5f	0.000204192
252	0x3bfba601	0.0076797013
253	0x3c303d95	0.01075687
254	0xbcb31674	-0.021861292
255	0xbc2bfd48	-0.010497399

action_model._discrete_distribution.branches.2.bias f4 [3]
0	0x3ac3257e	0.0014888493
1	0xbb4d05e8	-0.0031284038
2	0x3b36b914	0.0027881311

action_model._discrete_distribution.branches.2.weight f4 [3, 256]
0	0x3d298064	0.04138221
1	0x3c9feef5	0.019523123
2	0xbcd1978f	-0.025584964
3	0xbc8c2a23	-0.017109936
4	0xbc9e88a7	-0.01935227
5	0xba6cf69a	-0.0009039432
6	0x3c1c9883	0.009557846
7	0x3bf3fefc	0.007446168
8	0x3c81f116	0.015862029
9	0xbbba77d0	-0.0056905523
10	0xbc4944b2	-0.012284445
11	0xbc81af6f	-0.015830724
12	0xbb171fee	-0.0023059803
13	0xbc0477ca	-0.008085201
14	0x3bc4804f	0.005996741
15	0xbbb83795	-0.0056218603
16	0xbc1a0a47	-0.009401864
17	0xbbf982d4	-0.007614473
18	0xbb2a5540	-0.0025990754
19	0x3c188888	0.009309895
20	0xbc0cf959	-0.008604371
21	0x3a3ef354	0.00072841835
22	0x3a4da0e0	0.00078441016
23	0x39bd27d8	0.00036078575
24	0xbc21bab1	-0.009871171
25	0x3b9625e7	0.004582155
26	0x39f884c2	0.00047401158
27	0x3bbfe04a	0.0058555948
28	0x3be2f5a2	0.0069262544
29	0x3cc3a32a	0.023881514
30	0x3b7ef269	0.0038901812
31	0x3c2c4b1c	0.010515954
32	0xbb89b48f	-0.0042024325
33	0x3b2951ea	0.0025836178
34	0x3ac3f2db	0.0014949696
35	0xbb5d6976	-0.0033784783
36	0xbb9ed41d	-0.004847063
37	0x3b96ff46	0.0046080677
38	0x3b10b6ec	0.0022081686
39	0xbce6efbc	-0.028190486
40	0x3c475813	0.012166995
41	0x3b83f9bb	0.004027573
42	0x3ae7cc45	0.0017684778
43	0x3b9c1be1	0.0047640656
44	0x3c2df176	0.010616651
45	0xbbe10822	-0.0068674246
46	0xbb57c792	-0.003292535
47	0xbca7dcdb	-0.020491054
48	0x3b809396	0.0039238436
49	0x3bc7c148	0.006096039
50	0x3ca3d157	0.019997282
51	0x3bb21c9f	0.005435541
52	0x3ca48454	0.02008263
53	0xbc573ff4	-0.013137806
54	0x3c261f0f	0.010139241
55	0x3aa69f26	0.0012712225
56	0x3c3f4715	0.011674662
57	0x3baf72e3	0.0053542717
58	0xbc9937ec	-0.018703423
59	0xbbdd037d	-0.0067448006
60	0xbbdcbb3f	-0.0067361887
61	0xbc306acb	-0.010767649
62	0xbc5008c2	-0.0126974005
63	0x3d1ca138	0.038239688
64	0xbccdcc65	-0.025121877
65	0x3b63d949	0.0034766963
66	0x3c96725d	0.01836508
67	0x3c8e7bc1	0.017392995
68	0x39bf6cd2	0.00036511436
69	0x3bc74e6a	0.0060823457
70	0xbc842933	-0.016132927
71	0x3c605363	0.013691756
72	0xbbfdc843	-0.0077448203
73	0xbc01ba90	-0.007918015
74	0x3c80fe03	0.015746122
75	0xbb2d7489	-0.0026467165
76	0xbb29a445	-0.0025885266
77	0xbbff1bc0	-0.0077852905
78	0x3bdb5937	0.006693985
79	0x3ade6ae4	0.0016969112
80	0x3bb56508	0.0055357255
81	0x3b975874	0.0046186987
82	0x3cd6c616	0.026217502
83	0xbc2e24ce	-0.010628892
84	0x3c4386e5	0.011934017
85	0xbc749a72	-0.014929401
86	0xbc0b7f41	-0.008514226
87	0xbb7fc2ef	-0.0039026102
88	0x3ac58555	0.0015069643
89	0xbafc6838	-0.0019257134
90	0xbc7da5df	-0.015481441
91	0xbc2e1a40	-0.010626376
92	0x3b236c34	0.002493632
93	0x3bdcb9f3	0.006736034
94	0x3c0a1e7b	0.008430119
95	0x3bf1c2b9	0.007377949
96	0xbc9b3716	-0.018947165
97	0x3c8beff6	0.017082196
98	0x3ba36b60	0.0049871653
99	0x3a529144	0.00080325105
100	0x3c807005	0.015678415
101	0xbbaa5fe8	-0.005199421
102	0x3c9f59e0	0.019452035
103	0x3911b528	0.00013895764
104	0xbc12db4e	-0.008963419
105	0xb94f1d58	-0.0001975199
106	0xbca34409	-0.019929903
107	0x3c6652ed	0.014057857
108	0x3be195f6	0.006884332
109	0xbc595339	-0.013264471
110	0xbc80ff12	-0.015746627
111	0xbc86832f	-0.016419975
112	0x3c621aeb	0.013800363
113	0xbaf2ca67	-0.0018523455
114	0x3ba653fa	0.0050759288
115	0x3b9b6bd0	0.004743077
116	0xbba62cd0	-0.00507126
117	0xbc5fc9f2	-0.013658987
118	0xbbe21901	-0.0068999534
119	0x3b7f2bac	0.0038935943
120	0x39dca996	0.0004208802
121	0x3b70166a	0.0036634454
122	0x3bf2c097	0.0074082124
123	0x3c66079d	0.014039901
124	0xbbf32ced	-0.007421127
125	0xbcc72fdc	-0.024314813
126	0xbc19aa04	-0.009378914
127	0xbc0552b0	-0.00813739
128	0x3ca40227	0.020020558
129	0xb9b2dd3a	-0.00034115632
130	0xb968f80d	-0.0002221765
131	0x3c854db9	0.016272413
132	0x3c824aac	0.015904747
133	0xbbe9870d	-0.007126695
134	0x3c591dfa	0.013251776
135	0x3a194f3a	0.00058482925
136	0x3c0d51e5	0.008625482
137	0x3c6a0a54	0.014284689
138	0x3cd27ad0	0.025693327
139	0xbca81f7c	-0.020522825
140	0xbbdf872e	-0.0068215346
141	0xbbc959b2	-0.0061447257
142	0x3c17b39c	0.009259131
143	0xbba785b6	-0.005112375
144	0x3ca18576	0.01971696
145	0x3c5c6c50	0.013453558
146	0x3c935485	0.017984638
147	0x3ba20a89	0.0049451035
148	0xbc34be46	-0.011031693
149	0x3a124e64	0.0005581139
150	0x3ada38c1	0.0016648994
151	0x3b135ad0	0.0022484548
152	0x3b990f3e	0.0046710065
153	0x3cc08548	0.023501053
154	0x3c6fa752	0.014627295
155	0xbb8ce4e9	-0.004299749
156	0xbb891f34	-0.004184628
157	0x3cdc8454	0.026918568
158	0x3c78f0c7	0.015194125
159	0x3ada39c7	0.0016649299
160	0x3b770880	0.0037694275
161	0xb9aeb124	-0.00033319846
162	0xbbb8f124	-0.0056439806
163	0xbc404d46	-0.011737173
164	0xbba2bd6f	-0.00496643
165	0x3ccd667c	0.025073282
166	0x3c092197	0.008369825
167	0xbcaab310	-0.020837337
168	0xbc5680bf	-0.013092219
169	0x3bdc8cd1	0.006730654
170	0xbb0616a0	-0.0020460263
171	0xbc1d5508	-0.009602793
172	0x3b929dfc	0.0044743996
173	0x3bac4f9e	0.0052585145
174	0xbc137451	-0.0089999
175	0x3ca59db9	0.02021681
176	0xbc2923fa	-0.010323519
177	0xbca2290a	-0.01979496
178	0xbcea7b4c	-0.028623246
179	0xbcc35452	-0.023843918
180	0xbb0b70af	-0.0021276881
181	0x3abd9a09	0.0014465462
182	0x3bb1e067	0.005428362
183	0xb9aa7577	-0.00032512445
184	0xbb7d7c6f	-0.0038678905
185	0x3aa0b16d	0.0012259908
186	0xbb945cf1	-0.004527681
187	0x3abac26b	0.0014248615
188	0x3bf3accc	0.0074363705
189	0x3c8f2817	0.017475171
190	0x3c841ec1	0.016127946
191	0xbc528096	-0.01284804
192	0xbc12b393	-0.008953947
193	0x3c04134c	0.008061241
194	0x3bb8aef9	0.0056360927
195	0x3c403282	0.011730792
196	0xbcccd6ec	-0.025004826
197	0xbc498047	-0.01229865
198	0x3a74f89c	0.0009344907
199	0x3c528db6	0.012851169
200	0x3c5cacd6	0.013468942
201	0xbbb72a10	-0.005589731
202	0x3b08c882	0.0020871465
203	0x3c0183c7	0.007904953
204	0x3c4f0bd0	0.012637094
205	0x3c373230	0.011181399
206	0x3a3409e2	0.0006867928
207	0x3cdde5a6	0.027087044
208	0x3ba44311	0.0050128778
209	0xbb8009cf	-0.0039074193
210	0x3c6177d5	0.01376148
211	0xbc999eb7	-0.018752439
212	0xbc3a5309	-0.011372336
213	0xbc15d65f	-0.009145348
214	0x3b55cc7e	0.0032623108
215	0xbb05bee7	-0.0020407976
216	0xbba020d3	-0.0048867255
217	0xbc3921e0	-0.01129958
218	0xbc9df9fc	-0.01928424
219	0x3bda6ac3	0.006665559
220	0x3c786668	0.015161134
221	0x3d15f3b7	0.036609378
222	0xbc17a676	-0.009255996
223	0x3caf977a	0.021434534
224	0xbcba15d8	-0.022715494
225	0x3ba93e77	0.005164917
226	0xbc6f0c6b	-0.014590363
227	0xbb7fabbe	-0.0039012278
228	0xbbfbc59f	-0.0076834704
229	0x3c1e6914	0.009668607
230	0x3c86c59d	0.016451651
231	0x3cbb7253	0.022881662
232	0x3c0462fc	0.00808024
233	0xbb8d5c8e	-0.004314012
234	0x3c77a98c	0.015116107
235	0x3ca27e1e	0.019835528
236	0x3c5559a9	0.013021865
237	0x394e8204	0.00019694126
238	0xbc8dddf3	-0.017317748
239	0xbc7e9497	-0.015538356
240	0xbc92790f	-0.01787999
241	0xbbc45006	-0.005990985
242	0x39ca9c2e	0.00038644805
243	0x3c477e0c	0.012176048
244	0x3ba5964f	0.0050533186
245	0xbc38328a	-0.011242518
246	0x3b917c0f	0.0044398378
247	0x3c37dd68	0.011222221
248	0xbbd7f3d2	-0.006590345
249	0xbaff70a8	-0.001948853
250	0xbcd1cd36	-0.025610548
251	0xbc312532	-0.010812091
252	0x3c841d51	0.01612726
253	0xbca0516f	-0.01957008
254	0x3a8456a7	0.0010096625
255	0x3b807c64	0.0039210785

discrete_action_output_shape f4 [1, 3]
0	0x40400000	3.0
1	0x40400000	3.0
2	0x40400000	3.0

network_body._body_endoder.seq_layers.0.bias f4 [256]
0	0x3c4d4402	0.012528421
1	0xbbbf9d64	-0.00584762
2	0x3c01a9de	0.007914035
3	0xbc90dc51	-0.01768318
4	0xbc2c3c6c	-0.010512453
5	0x3c557d64	0.013030384
6	0xbca1777b	-0.019710293
7	0xbc02b829	-0.0079784775
8	0x3aa2f8a6	0.0012433722
9	0x39b9fe6a	0.00035475503
10	0x3ad5d5bf	0.0016314312
11	0xbad47460	-0.0016208999
12	0x3bcdda9f	0.006282165
13	0xbbef7735	-0.0073079118
14	0x3bed250e	0.0072370833
15	0xbc8141fc	-0.015778534
16	0x3becbc59	0.007224601
17	0xbc3156b8	-0.010823898
18	0xbc1472f7	-0.009060613
19	0x3c6f3c4d	0.014601779
20	0xbc143d96	-0.009047886
21	0x3c49b8b6	0.012312105
22	0xbd099d65	-0.03359737
23	0xbc8953df	-0.016763626
24	0xbcce3b58	-0.025174782
25	0x3cb4cebe	0.022071239
26	0xbb9d6185	-0.004802885
27	0x3ccbc35e	0.024873432
28	0xbc3dc847	-0.011583394
29	0xbb31c380	-0.0027124584
30	0xbacfe8eb	-0.0015862262
31	0x3c5db3f3	0.013531673
32	0xbb8c7cac	-0.004287323
33	0x3c15d114	0.009144086
34	0x3c457dc8	0.012053914
35	0x3c938f06	0.018012535
36	0xbb33b53e	-0.0027421261
37	0x3c8be380	0.017076254
38	0x3c016eb2	0.007899927
39	0xbc3f4b0b	-0.0116756065
40	0x3b8a27fa	0.0042161914
41	0xbc12a4cc	-0.008950423
42	0xbcb455dc	-0.022013597
43	0xbbdba2a8	-0.0067027397
44	0x3a215a8c	0.0006155155
45	0x3c2baa49	0.010477611
46	0xbca5c542	-0.020235661
47	0xbcf2dfd1	-0.02964774
48	0xbc75e874	-0.015009034
49	0xbc984e78	-0.018592104
50	0x3b341f53	0.002748449
51	0x3cda109c	0.026619248
52	0x3c7939ec	0.015211564
53	0x3c62fd61	0.013854356
54	0xb80af800	-3.3132732e-05
55	0x3c3818fc	0.0112364255
56	0x3d121edc	0.03567396
57	0xba992597	-0.0011684176
58	0x3cbedd7c	0.023298971
59	0xbcc093d0	-0.023507982
60	0xbcc8904c	-0.024482869
61	0x3c9a68ff	0.018848894
62	0x3b97027f	0.004608452
63	0xbc2457c5	-0.0100306915
64	0x3b6a9657	0.0035795176
65	0x3c993f35	0.018706897
66	0xbc72aa8d	-0.01481117
67	0xbbe9d00d	-0.0071353973
68	0x3bee625e	0.00727491
69	0x3c56b06e	0.013103588
70	0x3bb10fc9	0.005403493
71	0x3c86d3a7	0.016458346
72	0xbcbf0b51	-0.023320826
73	0xbc3c77e3	-0.011503193
74	0x3be87632	0.007094168
75	0xbc392f63	-0.011302802
76	0x3c0f8b50	0.008761242
77	0x3c9b5ab5	0.01896415
78	0x3c01ce73	0.0079227565
79	0xbbd8f01e	-0.006620421
80	0x3b45576d	0.0030111924
81	0x3d3dca7d	0.046335686
82	0x3b40a204	0.0029393444
83	0x3caef336	0.021356206
84	0x3c5287ee	0.012849791
85	0xbc355911	-0.011068598
86	0xbbdd3d04	-0.0067516584
87	0xbbd36bd8	-0.006452065
88	0x3cd24dc6	0.02567185
89	0x3c0f192b	0.008734028
90	0x3ae4307b	0.0017409468
91	0x3c0763c6	0.008263534
92	0x3d5e0a2b	0.054208916
93	0x3becedc5	0.007230493
94	0xbc0591e5	-0.00815246
95	0x3c73c8e4	0.014879439
96	0x3c3a83c7	0.011383957
97	0x3bc2a4d7	0.0059400606
98	0x3be1292f	0.0068713645
99	0x3d2e5c17	0.042568292
100	0xbc27f663	-0.010251614
101	0x3c307139	0.010769182
102	0x3c108479	0.008820646
103	0xbbf54e8c	-0.00748617
104	0x3b1e55f4	0.0024160119
105	0x3c29a474	0.01035415
106	0x3c7c4a0c	0.0153985135
107	0x3b40a241	0.0029393586
108	0xbc215b1c	-0.009848382
109	0xbce90e0a	-0.028449077
110	0x3b209373	0.002450195
111	0xbc1e9cbc	-0.009680923
112	0x3cbe063b	0.02319633
113	0x3b006706	0.0019592657
114	0xbab3915c	-0.0013699937
115	0x3b420b33	0.0029608726
116	0x3c063076	0.008190265
117	0xbb95ea7d	-0.0045750723
118	0x3c84f9b4	0.016232349
119	0x3cab3639	0.020899879
120	0xbbecbaf2	-0.007224434
121	0xbb07a49e	-0.0020697485
122	0xbb88569f	-0.0041607167
123	0x3c4d8620	0.012544185
124	0xbc9f991e	-0.019482192
125	0x3d8eb9d5	0.069690384
126	0xbc829303	-0.015939241
127	0x3c9279b0	0.01788029
128	0x3a2a4397	0.0006495057
129	0xbbd1fbe9	-0.006408204
130	0x3b6d5f88	0.003622027
131	0x3ba25838	0.004954364
132	0x3c4258fd	0.011862037
133	0x3b8d5ce8	0.004314054
134	0xbcbfcc41	-0.023412826
135	0x3b2ba29d	0.0026189454
136	0xbc825b30	-0.015912622
137	0x3d0c0bb5	0.034190852
138	0xbb6aa379	-0.0035803004
139	0xbc743618	-0.014905475
140	0xbc1b2a20	-0.009470493
141	0x3c57a947	0.013162917
142	0xbb2f5563	-0.0026753775
143	0xbb6823d9	-0.0035421757
144	0x3c886259	0.016648458
145	0x3baafa35	0.0052178153
146	0x3d00707f	0.031357285
147	0x3d265897	0.04061183
148	0xbc110e8c	-0.008853566
149	0x3b85e012	0.004085549
150	0xbb7da75a	-0.0038704486
151	0xbc8ec653	-0.017428553
152	0x3bcae192	0.006191441
153	0x3cdeb575	0.027186135
154	0xbc16d676	-0.009206405
155	0x391352fe	0.0001404993
156	0x3b2f680a	0.0026764893
157	0xbc70e0dd	-0.014702049
158	0x399eaa16	0.00030262832
159	0x3a5dc72d	0.00084601605
160	0xbc6e79bc	-0.014555391
161	0x3d21814d	0.03942995
162	0xb803fb9f	-3.1467174e-05
163	0x3cf3ad19	0.029745625
164	0x3c2cb941	0.010542215
165	0xbcc9f20c	-0.02465155
166	0x3bcf74ce	0.006331063
167	0xbc9f608b	-0.019455215
168	0x3c941b2a	0.01807936
169	0xbcc869c8	-0.024464503
170	0x3bfb9891	0.0076780994
171	0xbc878b62	-0.016545955
172	0x3af7cbe9	0.0018905374
173	0xbaf132da	-0.0018401996
174	0x3ce8a6b2	0.028399799
175	0xbc452caa	-0.0120345745
176	0xbcb90d3c	-0.022589318
177	0xbacc5024	-0.0015587849
178	0x3bcd1262	0.006258295
179	0xbc6fd190	-0.014637366
180	0xbc1f5c85	-0.009726648
181	0xbc8513a3	-0.016244715
182	0xbc8a531c	-0.016885333
183	0x3d17c223	0.037050378
184	0x37d40fee	2.5279787e-05
185	0x3cb59dd9	0.022169994
186	0x3c31de34	0.0108562
187	0x3cb46079	0.022018658
188	0xbc3ec4b1	-0.011643575
189	0xbb8c0db6	-0.0042740954
190	0x3ce8de75	0.028426388
191	0xbbf443a6	-0.0074543534
192	0xbcf383cb	-0.02972593
193	0xbc0350b3	-0.008014846
194	0xbaa5554c	-0.0012613921
195	0x3bf9f492	0.007628032
196	0x3bf0d743	0.00734988
197	0xbc570868	-0.013124563
198	0xbb6cf2a6	-0.0036155372
199	0xbc6ae851	-0.014337615
200	0xbc2b4bf9	-0.010455125
201	0x3a8db4a0	0.0010811277
202	0x3c60a976	0.013712278
203	0xbbf32b96	-0.0074209673
204	0x3c56de28	0.01311449
205	0x3c28ca3f	0.0103021255
206	0xbb156299	-0.0022794364
207	0x3ba954db	0.0051675863
208	0xbbb260d7	-0.005443673
209	0xbccd9903	-0.025097376
210	0xbba3ce52	-0.0049989605
211	0xbc6b2413	-0.0143518625
212	0xbbb6d5e5	-0.0055796974
213	0x3cf444dd	0.029817993
214	0xbc171d63	-0.009223315
215	0xbc31fc55	-0.010863383
216	0x3bbee108	0.0058251657
217	0xbc61dac0	-0.013785064
218	0x3ca78685	0.020449886
219	0x3c04e8bb	0.008112128
220	0xbbec858d	-0.007218069
221	0xbc0d1f18	-0.00861337
222	0xbc383c54	-0.011244852
223	0x3d0a2777	0.033729043
224	0x3b7101c9	0.0036774746
225	0xba4abefd	-0.0007734148
226	0xbb595fdc	-0.003316871
227	0x3c282d6e	0.0102647375
228	0x3c8c3720	0.01711613
229	0xbccda417	-0.025102658
230	0x3b2594ea	0.0025265762
231	0xbc9f5692	-0.01945046
232	0x3cbcedbb	0.023062577
233	0x3cfae3d1	0.03062621
234	0xbbd4cf0e	-0.0064944094
235	0xba1af3b8	-0.0005910951
236	0xbcae9e63	-0.021315759
237	0x3cd10805	0.02551652
238	0x3c98003d	0.018554801
239	0xbc098ff8	-0.008396141
240	0x3cb8e7b6	0.022571426
241	0xbc9002ec	-0.017579518
242	0x3c6de9ef	0.014521106
243	0x3d4b38bf	0.049614664
244	0x3d09866b	0.033575457
245	0x3b8b9a53	0.0042603402
246	0xbba7e209	-0.005123381
247	0x3cb103d9	0.02160828
248	0x3b35473f	0.0027660874
249	0x3d3bf1dd	0.045884956
250	0x3c7716cd	0.01508112
251	0xbc4e6f44	-0.01259977
252	0x3beb7ce4	0.007186519
253	0xbc15b632	-0.009137677
254	0xbb7c3d4a	-0.003848868
255	0xbca8a172	-0.020584796

network_body._body_endoder.seq_layers.0.weight f4 [256, 27]
0	0x3e5cf5b3	0.21578102
1	0xbd2ad5cc	-0.0417078
2	0x3d391e6c	0.04519503
3	0x3d823073	0.06356897
4	0x3e455d09	0.19273771
5	0x3db64fad	0.08901916
6	0x3eb8ddc3	0.3610669
7	0xbd90b152	-0.07065071
8	0xbe7d5af3	-0.24741726
9	0x3d00f316	0.031481825
10	0xbe8967ec	-0.268371
11	0x3c56ca37	0.013109735
12	0x3e1e9b49	0.15488924
13	0xbdafdf2a	-0.08587487
14	0x3d8aa66b	0.06770023
15	0x3f486be7	0.78289646
16	0x3d7d942b	0.061908882
17	0xbe6ebe12	-0.23314694
18	0xbc5b1247	-0.013371057
19	0xbe3435b6	-0.17598614
20	0xbbed3e75	-0.0072401115
21	0x3b48e879	0.0030656143
22	0xbd4fe73b	-0.050757628
23	0xbda84303	-0.082159065
24	0xbd0ff5f9	-0.035146687
25	0x3e3805f4	0.17971021
26	0x3c8c5a57	0.017132921
27	0x3ebea024	0.37231553
28	0xbc59710a	-0.0132715795
29	0x3eae32db	0.34023175
30	0xbdd3a297	-0.10333746
31	0x3e8e07fa	0.2774046
32	0x3e5a8fbd	0.21343894
33	0x3deae587	0.1146956
34	0x3d601578	0.054707974
35	0xbd574101	-0.052552227
36	0xbedee23f	-0.43531987
37	0x3e354708	0.17702878
38	0xbdc8e269	-0.09808809
39	0x3d59db9c	0.05318795
40	0xbe92ebc4	-0.286955
41	0x3eaee0a6	0.34155768
42	0xbdfba567	-0.12287407
43	0x3de6ff4e	0.11279164
44	0x3e32ccd1	0.17460944
45	0x3b3f692c	0.0029206974
46	0x3dd5888e	0.10426436
47	0xbe03616a	-0.1283013
48	0xbdaaffe4	-0.083495885
49	0x3d9e362c	0.07725176
50	0xbe228c44	-0.1587382
51	0x3e3f3b85	0.18675049
52	0xbee1f283	-0.44130334
53	0xbd96b914	-0.073595196
54	0x3e8bd610	0.27311754
55	0xbe8efaf2	-0.2792583
56	0x3e53c07c	0.20678896
57	0xbd052ade	-0.032511584
58	0xbe9c74d4	-0.30557883
59	0xbd9d54f3	-0.076822184
60	0x3ecc322c	0.39882028
61	0xbda79dec	-0.08184418
62	0xbd3ab843	-0.045585882
63	0x3eb0395e	0.34418768
64	0x3c856f67	0.016288472
65	0xbe0ed0c5	-0.13946827
66	0x3d6310cb	0.055435937
67	0xbe3f39e3	-0.18674426
68	0xbd77d94d	-0.06050997
69	0x3b1dec19	0.0024097024
70	0x3cf2774d	0.029597903
71	0xbebbe63a	-0.36699086
72	0xbbb181c1	-0.005417079
73	0x3ea53ba7	0.32272074
74	0x3d6b9867	0.05751839
75	0x3d9673fa	0.073463395
76	0xbdc8b32a	-0.09799798
77	0xbee18993	-0.44050273
78	0x3d213ff3	0.039367627
79	0xbe2dac3c	-0.16960233
80	0x3e00c38c	0.12574595
81	0xbea30bb4	-0.31844866
82	0xbcd80532	-0.026369665
83	0x3eac4060	0.33642864
84	0xbea3eeaa	-0.32018024
85	0xbe3073c1	-0.17231657
86	0x3ec9920e	0.39369243
87	0xbc10b7ee	-0.008832915
88	0xbdd1e16a	-0.102480724
89	0x3e884ab0	0.26619482
90	0x3e021eb1	0.1270702
91	0x3d49eccd	0.049298096
92	0x3e25053d	0.1611528
93	0x3e3caf49	0.18426241
94	0xbe97d8ff	-0.29657742
95	0x3e46258b	0.19350259
96	0x3c4ddb70	0.012564525
97	0x3cada995	0.021199027
98	0x3e92c20a	0.28663665
99	0x3eb505c5	0.35355964
100	0xbe4508f1	-0.19241692
101	0x3d7fc422	0.062442906
102	0x3e24d98b	0.16098611
103	0xbe6e715e	-0.23285434
104	0x3dc890f2	0.09793271
105	0x3ed65a16	0.41865605
106	0x3e720ea2	0.23638394
107	0xbeaba884	-0.33527005
108	0xbea4cf53	-0.32189426
109	0xbc48f0bb	-0.012264426
110	0xbe0a5fe1	-0.13513137
111	0xbe7a4ee6	-0.2444416
112	0x3e4166f1	0.18886925
113	0x3e556763	0.2084022
114	0x39ee24e1	0.00045422374
115	0xbd81d5b5	-0.063395895
116	0xbe6da5ce	-0.2320778
117	0x3e7ab558	0.2448324
118	0xbd3663d3	-0.044528794
119	0x3d54ead5	0.051981766
120	0x3d1f7e8a	0.038939036
121	0xbdeabb3a	-0.11461492
122	0xbe65556a	-0.22395864
123	0xbc94de03	-0.01817227
124	0x3d894a5c	0.06703636
125	0x3e46f956	0.19431052
126	0x3e1770cf	0.14789127
127	0xbdcd3dbb	-0.1002154
128	0x3dbde9c9	0.092731066
129	0x3e6733f5	0.22578414
130	0x3e0c3e3f	0.1369562
131	0x3e49b04e	0.19696161
132	0x3dcd03fe	0.10010527
133	0x3c824fe4	0.015907235
134	0x3e072efe	0.1320152
135	0x3dabd834	0.08390847
136	0x3e087e30	0.13329387
137	0xbec9caca	-0.39412528
138	0x3d685706	0.056723617
139	0xbd709ebc	-0.05874513
140	0x3ea3217d	0.31861487
141	0xbdfd9f61	-0.12383915
142	0x3dc7f250	0.09763014
143	0x3ada1193	0.0016637318
144	0x3d86f341	0.06589366
145	0x3c8aebc0	0.016958117
146	0x3d63d7f4	0.05562587
147	0x3db640cf	0.0889908
148	0xbe636ba6	-0.22209033
149	0xbe971288	-0.29506326
150	0xbe3c9c07	-0.18418895
151	0x3e2e8892	0.17044285
152	0xbe44a463	-0.19203334
153	0x3c85764f	0.016291765
154	0x3de42224	0.11139324
155	0xbd20c018	-0.039245695
156	0xbdfb1bc5	-0.12261156
157	0xbdb63ad5	-0.0889794
158	0xbdc01818	-0.093795955
159	0x3e41beb1	0.18920399
160	0x3db2e32a	0.08734734
161	0xbe69c3ad	-0.2282855
162	0xbe1a32a1	-0.15058376
163	0x3d1e33d1	0.038623635
164	0x3cf7fad9	0.03027098
165	0x3dea17e1	0.11430336
166	0xbc883365	-0.01662607
167	0x3dfa033d	0.12207649
168	0xbd438f20	-0.047743917
169	0xbdb9c07b	-0.09069916
170	0x3dc0780b	0.093978964
171	0x3cc26534	0.023729898
172	0x3e832115	0.25611177
173	0x3e2d00d1	0.16894843
174	0x3d8d8dac	0.069117874
175	0xbea9da4e	-0.33174366
176	0xbd8b2309	-0.06793792
177	0x3c915c30	0.017744154
178	0xbe4efb3a	-0.20213023
179	0xbd8d5dd7	-0.06902664
180	0x3d13630c	0.03598313
181	0x39ae2fd7	0.0003322351
182	0xbd20934a	-0.039202966
183	0xbe21f8e5	-0.15817602
184	0x3c3e0d21	0.01159981
185	0x3e1e5264	0.15461117
186	0x3ded5686	0.11588769
187	0x3e0ed311	0.13947703
188	0x3e96da50	0.29463434
189	0x3dd24c6a	0.10268481
190	0x3e4c77ae	0.19967529
191	0x3e39dc4b	0.18150441
192	0x3e9e383d	0.3090228
193	0x3dacb2ae	0.08432518
194	0xbd884a68	-0.06654817
195	0x3e69f88b	0.22848718
196	0x3de49f77	0.11163228
197	0x3ec5f337	0.3866212
198	0xbe8f798d	-0.28022423
199	0xbe820032	-0.25390774
200	0x3db4bf4c	0.088255495
201	0x3d1cf148	0.03831604
202	0xbd4ad964	-0.049523726
203	0xbe57b3f9	-0.21064748
204	0x3ba3803c	0.004989652
205	0xbd4511d9	-0.048112724
206	0xbd408fa2	-0.04701198
207	0x3dfc4256	0.1231734
208	0xbe2a465c	-0.16628402
209	0xbc3329ab	-0.010935227
210	0x3e325632	0.17415693
211	0xbec6e450	-0.38846064
212	0x3de5a3bc	0.112128705
213	0xbe0d131b	-0.1377682
214	0x3d74616f	0.059663232
215	0xbd3b981b	-0.045799356
216	0x3e06cfd9	0.13165225
217	0xbd3bcc29	-0.045849
218	0x3eebbefd	0.4604415
219	0x3e0e8e1c	0.13921398
220	0x3dab4c81	0.08364201
221	0xbe61a9ff	-0.22037505
222	0xbe8595bc	-0.260908
223	0x3cbb6639	0.022875892
224	0x3d6d4a37	0.057932105
225	0x3e081b58	0.13291681
226	0xbe0d2c78	-0.13786495
227	0xbdff460e	-0.12464534
228	0x3c27b0a5	0.010234986
229	0xbe38ee9f	-0.18059777
230	0x3c659b27	0.014014042
231	0xbe30a634	-0.17250901
232	0xbe24acd2	-0.1608155
233	0x3f07c60e	0.5303658
234	0x3a11ce4b	0.0005562051
235	0x3dd1ea57	0.10249775
236	0xbeb7faa3	-0.35933408
237	0x3e873902	0.2641068
238	0x3d947a5a	0.07249899
239	0xbd3ec4cc	-0.0465744
240	0xbb515acf	-0.0031944995
241	0xbdb0c926	-0.08632116
242	0xbdb7ba39	-0.08971066
243	0xbec62451	-0.38699582
244	0xbe19556e	-0.14973995
245	0x3d847ac8	0.06468731
246	0xbe034d0c	-0.1282236
247	0x3d6f46f0	0.05841726
248	0xbf0cfda0	-0.550745
249	0xbd8f732b	-0.070043884
250	0xbc679dc3	-0.014136734
251	0x3e767995	0.24069817
252	0xbe71f386	-0.23628053
253	0x3dcb8b6b	0.09938701
254	0xbd6e707c	-0.058212742
255	0x3e9f5958	0.3112285

network_body._body_endoder.seq_layers.2.bias f4 [256]
0	0x3be1f93a	0.006896165
1	0xbaaf3571	-0.0013367367
2	0xbc1a5183	-0.009418848
3	0xbbbdc62a	-0.0057914453
4	0xbc24ac98	-0.010050915
5	0x3b9395ff	0.004503965
6	0x3b88e587	0.0041777524
7	0xb7cc1629	-2.4329014e-05
8	0x3c021099	0.0079385275
9	0xbb394c70	-0.002827432
10	0xbc0e0f7d	-0.008670685
11	0xbb2bcd36	-0.0026214845
12	0xbbdda565	-0.0067641013
13	0xbc1813a9	-0.009282031
14	0x3c1a2739	0.0094087655
15	0xbbb6f78c	-0.005583709
16	0x3adc2dfc	0.0016798372
17	0xbbf5611c	-0.007488383
18	0xbc2ee434	-0.010674525
19	0xbbb64abb	-0.005563108
20	0xba731a4e	-0.0009273634
21	0xb98313f9	-0.00025001148
22	0xbb4efa4d	-0.0031582296
23	0xbb17ec7e	-0.0023181732
24	0xbb85e819	-0.004086506
25	0x3bdeb3bf	0.0067963297
26	0x3b977a2c	0.0046227183
27	0x3c3e2023	0.011604342
28	0xbbaafdd0	-0.005218245
29	0x3c2055c6	0.009786075
30	0x3c57f26b	0.013180356
31	0x3bd795c6	0.0065791337
32	0xbb0768e4	-0.0020661885
33	0x3bc1a274	0.0059092585
34	0xbb1be5f4	-0.0023788186
35	0xbbe0a6c2	-0.0068558166
36	0xbc08317a	-0.008312577
37	0x3c5696db	0.01309749
38	0x3c3d5120	0.011554986
39	0xbb93f786	-0.004515591
40	0x3c7c6b65	0.015406464
41	0x3c26db02	0.0101840515
42	0x3bb83627	0.00562169
43	0xbbbed85a	-0.005824131
44	0x3bc10f69	0.0058917296
45	0xbb9bb670	-0.004751973
46	0x3b48bcb8	0.0030630063
47	0x3bf6b5d6	0.0075290008
48	0xbb3af2ec	-0.002852614
49	0x3a13fc61	0.00056452124
50	0x3b51e9d8	0.003203025
51	0x3c31cb61	0.010851712
52	0xb9bbbcb7	-0.00035808023
53	0xbbbcceab	-0.0057619414
54	0x3b447799	0.0029978512
55	0xbc66cc55	-0.0140868025
56	0x3c442517	0.0119717335
57	0x3c3926b0	0.011300728
58	0xbbe69da4	-0.007037835
59	0xbbf7e7fb	-0.007565496
60	0xbc42dd13	-0.0118935285
61	0x3adb1894	0.0016715699
62	0xbbd4392c	-0.006476542
63	0x3c305f10	0.010764852
64	0xbc70fe07	-0.014709002
65	0x3be42ff5	0.0069637247
66	0x3c541ea9	0.012946763
67	0x3c51c055	0.012802203
68	0x3c2a8aa2	0.010409029
69	0x3a5d10e8	0.0008433
70	0xbbed9fd8	-0.007251721
71	0xbbdaa2ef	-0.006672255
72	0x3c127608	0.008939274
73	0xbba7634f	-0.005108274
74	0xbb96d1af	-0.004602633
75	0xbc20a401	-0.009804727
76	0x3aa74330	0.0012761112
77	0xbbaeb9fc	-0.0053322297
78	0x3b8b923c	0.004259376
79	0xbb901864	-0.004397439
80	0x3baa97ab	0.0052060685
81	0x3c4de8b0	0.012567684
82	0x3b2e4016	0.002658849
83	0xbb974443	-0.0046162917
84	0x3b600da4	0.0034187818
85	0xbbd92792	-0.0066270316
86	0xbb9c3e7f	-0.0047681923
87	0xbb476380	-0.0030424297
88	0x3b1f63e6	0.0024321019
89	0x3b4b1546	0.0030988022
90	0xbba1f551	-0.004942574
91	0x3c72ef12	0.014827507
92	0xbbedbc51	-0.007255115
93	0x3b20d393	0.002454017
94	0x3b899836	0.004199053
95	0x3b0ed21f	0.0021792722
96	0x39802bd0	0.00024446705
97	0x3c5e5eca	0.013572404
98	0x3c1fd1cd	0.00975461
99	0x3ae2cee7	0.0017304093
100	0x3c98c5f4	0.018649079
101	0x3b23a188	0.0024968106
102	0x3cab2416	0.02089123
103	0x3bd92657	0.006626885
104	0xbb1b22b3	-0.0023671805
105	0xbbaa8929	-0.005204339
106	0xbc274b44	-0.010210816
107	0x3b349ca0	0.0027559176
108	0xbc0fa4da	-0.008767331
109	0x3be88d9b	0.007096959
110	0xbba1f117	-0.00494207
111	0xbb749cc8	-0.0037324894
112	0x3c512195	0.012764354
113	0x3c11103a	0.008853966
114	0xbb97543e	-0.0046181967
115	0x3ac294b4	0.0014845342
116	0xbc106839	-0.008813911
117	0xbc50dc2b	-0.012747805
118	0x3b2bf16f	0.0026236435
119	0xbafe751e	-0.0019413566
120	0xbc15ee89	-0.0091511095
121	0xbbe33f92	-0.0069350684
122	0x3a390e1f	0.0007059294
123	0x3c847825	0.01617057
124	0xbc529f52	-0.012855368
125	0xbc591e34	-0.01325183
126	0xbb8b762d	-0.004256031
127	0xba72e4e6	-0.0009265676
128	0x3bda4798	0.0066613667
129	0x3be24b2e	0.006905935
130	0xbb41b598	-0.0029557701
131	0x3c4ae89a	0.012384558
132	0x3bb96738	0.0056580566
133	0xbaec049f	-0.0018006748
134	0x3c5336ab	0.012891452
135	0x3bbdabb7	0.0057882923
136	0x3c219d3d	0.009864149
137	0x3c068968	0.008211471
138	0x3ba01862	0.004885719
139	0xbb6da62c	-0.0036262376
140	0x3b23cb14	0.002499287
141	0x3bfa11a9	0.0076315
142	0xbb8c29f4	-0.004277462
143	0xb9f961ef	-0.00047565947
144	0x3c5bf95f	0.013426154
145	0xbba4dd07	-0.0050312313
146	0x3c988582	0.018618349
147	0x3bc6d41e	0.006067767
148	0xbc561133	-0.013065624
149	0x3c81aabb	0.015828481
150	0xbb8b20ad	-0.0042458386
151	0x3c1e81aa	0.009674469
152	0x3c9650ec	0.018349133
153	0x3c1af8a4	0.009458695
154	0x3ca01516	0.019541305
155	0x39be794d	0.0003633
156	0x3aafcc39	0.0013412304
157	0x3ce3e52d	0.02781924
158	0x3c662dcb	0.014049004
159	0xbb9c3847	-0.004767451
160	0x3bca4262	0.006172464
161	0x3bcb1656	0.006197731
162	0x3b2e43ac	0.0026590629
163	0x3bc8ea0c	0.006131416
164	0x3b133a2c	0.0022465093
165	0x3ca2fb3c	0.019895189
166	0xbbf55870	-0.007487349
167	0xbbd7ddb5	-0.006587709
168	0xbbfebd36	-0.0077740205
169	0x3bf101c1	0.0073549454
170	0x3b7cd692	0.0038580042
171	0xbc215c14	-0.009848613
172	0x3c36d85d	0.011159983
173	0xba9e1f7a	-0.0012063824
174	0xb96932d4	-0.00022239547
175	0x3cf3d4de	0.029764589
176	0xb9abca5f	-0.0003276644
177	0x3b67a13c	0.0035343906
178	0xbc31e254	-0.0108571835
179	0xbc3786be	-0.011201559
180	0xbb77ab56	-0.0037791333
181	0xbb20a96d	-0.0024515048
182	0xbbad3c46	-0.005286726
183	0xbbe5f210	-0.0070173815
184	0xbb5ecc2e	-0.0033996212
185	0xbb7d0a66	-0.0038610934
186	0x3b0a9356	0.0021144948
187	0x3bcbc274	0.006218249
188	0x3c2ea55d	0.010659543
189	0x3b466944	0.0030275146
190	0x3c6c937b	0.014439459
191	0xbc1c64af	-0.009545489
192	0xbbdfb2c5	-0.006826731
193	0xba0ffeb1	-0.0005492969
194	0x3bc33fd8	0.0059585385
195	0xba01c8ef	-0.0004950901
196	0xbbae2c02	-0.0053153047
197	0xbbf1883e	-0.0073709777
198	0x3a6a519b	0.0008938552
199	0x3b6a8d6d	0.0035789863
200	0x3ba0ceaf	0.004907451
201	0xbc86c405	-0.016450891
202	0xbb439030	-0.002984058
203	0x3bd77049	0.0065746647
204	0x3bd60408	0.0065312423
205	0x3a18915b	0.00058199995
206	0xbbb8b09f	-0.0056362893
207	0x3c891ff5	0.016738871
208	0x3c78ad06	0.015177971
209	0x3a46263a	0.0007558797
210	0xbb4f7775	-0.0031656895
211	0xbb8f1cd9	-0.0043674526
212	0xbc82ced3	-0.015967762
213	0x3a94c9e6	0.0011351674
214	0x3c2cac74	0.010539163
215	0xbd0aa439	-0.03384802
216	0xbc0b1684	-0.008489255
217	0xbb8399b7	-0.004016127
218	0xbc08cde1	-0.008349867
219	0xbb2c7350	-0.0026313849
220	0x3c1bae6d	0.009502036
221	0x3c42ff3c	0.011901673
222	0xbb811444	-0.0039391834
223	0x3cbc5c33	0.022993183
224	0x3b91458d	0.00443334
225	0xba27bdb8	-0.0006398815
226	0xba4dc037	-0.00078487716
227	0x3bc8c864	0.006127404
228	0xbbb6d96b	-0.0055801175
229	0x3c6b3c6f	0.01435767
230	0x3cacd153	0.021095907
231	0x3c8a820c	0.016907714
232	0x3c84b432	0.016199205
233	0xbbb1c61b	-0.0054252273
234	0x3c1e8b69	0.009676793
235	0x3b9008ae	0.004395566
236	0x3aeed61e	0.0018221771
237	0xbb862e8a	-0.0040949034
238	0xba3c1bd6	-0.0007175779
239	0xbc01b254	-0.007916052
240	0xbb501c7d	-0.0031755262
241	0xbba0582e	-0.0048933243
242	0x3c31c439	0.010850006
243	0x3c394619	0.0113082165
244	0x3c59c3f9	0.013291352
245	0x3c39bfe1	0.011337251
246	0xbbb603ba	-0.0055546435
247	0xba72188f	-0.0009235227
248	0x3ab89f8c	0.0014085635
249	0x3abaf2bb	0.0014263013
250	0xbc3dec3b	-0.011591966
251	0xbbf6af84	-0.0075282473
252	0x3aefdb71	0.0018299652
253	0xba855701	-0.0010173024
254	0xbc545daa	-0.012961784
255	0xbbb56eb6	-0.0055368794

network_body._body_endoder.seq_layers.2.weight f4 [256, 256]
0	0xbdd63a8b	-0.10460385
1	0x3ce25b88	0.027631536
2	0x3d4f578a	0.050620593
3	0x3cf5b5e8	0.029993966
4	0x3ca1c2f1	0.019746276
5	0xbdc44336	-0.09583132
6	0xbd8230f6	-0.06356995
7	0x3d2b2aee	0.041788988
8	0x3de860dc	0.113465995
9	0xbaadb54f	-0.0013252887
10	0x3981de43	0.00024770395
11	0xbd1d6d7e	-0.038434498
12	0xbd2bce93	-0.04194505
13	0x3d0383d9	0.03210816
14	0xbca814df	-0.020517765
15	0xbdfa09c5	-0.12208895
16	0x3cfb93d4	0.030710138
17	0x3b7f1d4b	0.0038927372
18	0x3d149522	0.036275037
19	0x3e1768d5	0.14786084
20	0x3d36e429	0.044651184
21	0xbc85c1d2	-0.016327772
22	0xbd6ff2a8	-0.058581024
23	0xbd3a770d	-0.045523692
24	0xbd78a07f	-0.060699936
25	0x3d168ce2	0.03675545
26	0x3ae4204b	0.0017404644
27	0xbcfcc8f6	-0.030857544
28	0x3cece827	0.028919293
29	0x3d801df6	0.062557146
30	0x3e17e766	0.14834365
31	0x3e10a29c	0.1412453
32	0xbd6f1dc5	-0.058378
33	0xbd691c1e	-0.05691158
34	0xbd4f8281	-0.050661568
35	0xbde71066	-0.11282425
36	0xbc5c8d42	-0.013461413
37	0xbcb25068	-0.021766856
38	0xbccf5f74	-0.02531407
39	0xbd9c9523	-0.07645633
40	0xbd8a9685	-0.067669906
41	0xbcc06cc5	-0.023489365
42	0x3d01e145	0.031708974
43	0xbce7fd7e	-0.028319117
44	0x3df862b2	0.121282
45	0x3d6fc3e6	0.058536433
46	0x3d5ef022	0.054428227
47	0x3bedd873	0.007258469
48	0xbd6304af	-0.05542439
49	0x3bb50af5	0.005524988
50	0xbb3dfc96	-0.0028989664
51	0x3c7a0684	0.0152603425
52	0xbdf72782	-0.120680824
53	0x3b6f11f4	0.0036479207
54	0x3d38679b	0.04502068
55	0xbcb13f1d	-0.02163654
56	0x3d72bdc4	0.059263006
57	0x3cbc9f24	0.023025103
58	0xbdaaf6d9	-0.08347864
59	0x3dc6fca7	0.09716158
60	0x3c68e503	0.014214757
61	0xbd10d9a9	-0.035363827
62	0x3d903dd9	0.070430465
63	0x3d285745	0.04109885
64	0xbe3058d3	-0.17221384
65	0xbd5ccb32	-0.05390472
66	0xbcb9bf74	-0.0226743
67	0xbb9492da	-0.0045341076
68	0xbd44b7d9	-0.048026893
69	0xbd21a594	-0.03946455
70	0xbdb5459b	-0.08851167
71	0x3d3af81a	0.045646764
72	0x3e0aa1f3	0.13538341
73	0xbcaad8de	-0.020855363
74	0x3deb04c6	0.1147552
75	0x3db67d81	0.08910657
76	0x3b580717	0.003296321
77	0x3d568553	0.05237324
78	0x3e1b88b7	0.15188871
79	0xbdba038d	-0.090827085
80	0xbda74947	-0.081682734
81	0x3c8236bc	0.01589524
82	0xbc50a2f5	-0.0127341645
83	0xbc83049d	-0.01599341
84	0xbcf7d30d	-0.030252004
85	0x3cb6eac6	0.022328746
86	0x3a9f368f	0.0012146997
87	0xba0b7832	-0.00053203397
88	0x3d06f81e	0.032951467
89	0xbd52a1a4	-0.051423684
90	0xbd2313d5	-0.039813835
91	0x3d3b6626	0.045751713
92	0xbcc0e810	-0.023548156
93	0xbd79c08d	-0.060974646
94	0x3c49392d	0.012281698
95	0xbc4c40c7	-0.012466616
96	0x3ca51729	0.020152645
97	0x3ce061f3	0.027390456
98	0x3c9a9169	0.018868165
99	0xbd069c0a	-0.032863654
100	0xbbe88fc5	-0.007097217
101	0x3d01a84e	0.03165465
102	0xbd7e48ef	-0.062081274
103	0x3d977c5a	0.07396765
104	0x3c8a78a0	0.016903222
105	0xbd001df2	-0.031278558
106	0xbd09ff25	-0.03369059
107	0xbd86361f	-0.065532915
108	0x3dd219e0	0.102588415
109	0xbdd43341	-0.103613384
110	0xbda67dfe	-0.081295
111	0xbce4d720	-0.02793461
112	0x3d92146d	0.07132802
113	0xbd97134c	-0.073767275
114	0xbac5f756	-0.0015103619
115	0x3d1f9be8	0.038967043
116	0x3bbe64bd	0.005810349
117	0xbcbf5b7a	-0.02335905
118	0xbd088b24	-0.03333582
119	0x3d890bb4	0.06691685
120	0xbce8fd31	-0.028441044
121	0x3d6d62ae	0.057955436
122	0xbbb6013b	-0.005554346
123	0xbdc3a556	-0.0955302
124	0xbcabafa2	-0.020957772
125	0x3d325f6e	0.04354804
126	0xbddca6c7	-0.10773998
127	0xbce5e9a1	-0.028065505
128	0xbd85f2a8	-0.06540424
129	0x3dec21af	0.11529862
130	0xbdac1302	-0.08402063
131	0x3d81d16c	0.06338772
132	0xbd97b09b	-0.07406732
133	0xbdaa934c	-0.08328876
134	0xbe092858	-0.13394296
135	0x3cdd8916	0.027042907
136	0x3cd2933b	0.02570497
137	0xbda1c7d6	-0.07899444
138	0x3c0391ae	0.008030338
139	0x3cc0a026	0.023513865
140	0x3c261acf	0.010138228
141	0x3dd040ea	0.101686314
142	0xbbaa3657	-0.005194466
143	0x3b6cc9d0	0.0036131032
144	0xbdb5bc62	-0.08873822
145	0x3dc8c00d	0.09802256
146	0xbc33eaa0	-0.010981232
147	0xbd55da81	-0.052210335
148	0xbdf5ed74	-0.12008181
149	0xbd0bf342	-0.034167536
150	0xbd80922e	-0.062778816
151	0xbdc792c2	-0.09744789
152	0x3d545858	0.051842064
153	0xbcd777a7	-0.026302172
154	0x3bb15e28	0.0054128356
155	0xbd19dfce	-0.037566952
156	0xbcd30f73	-0.025764203
157	0x3cffb4c8	0.031214133
158	0x3e020012	0.1269534
159	0x3d1e4227	0.038637307
160	0x3c8cab8a	0.01717164
161	0xbd68b5e9	-0.056814108
162	0x3b1791f9	0.0023127778
163	0x3ceda4d7	0.029009266
164	0x3cc8e1e4	0.024521776
165	0x3c43dab8	0.011954002
166	0x3d5a7e28	0.05334297
167	0xbb505732	-0.0031790254
168	0xbd27e09f	-0.0409857
169	0x3c09a0bd	0.008400139
170	0x3d6f5faa	0.05844084
171	0x3d10ef2b	0.03538434
172	0x3d464975	0.048409898
173	0x3ac1f636	0.0014798108
174	0x3dff8a51	0.12477554
175	0xbd4df579	-0.05028293
176	0xbceffba6	-0.0292948
177	0xbc653dd5	-0.013991793
178	0x3e082431	0.13295056
179	0xbb7e011f	-0.0038757992
180	0xbdf2a538	-0.11847919
181	0xbd5372c9	-0.05162314
182	0xbd3ff7e8	-0.04686728
183	0x3e1be787	0.1522504
184	0xbd80e96a	-0.0629452
185	0x3d519231	0.05116481
186	0x3df9cd36	0.12197344
187	0xbd3a3e0e	-0.045469336
188	0x3d02b5ff	0.031911846
189	0xbd9528e2	-0.072831884
190	0x3b91ba62	0.0044472674
191	0xbdafa416	-0.08576219
192	0xbddf179d	-0.10893176
193	0x3db2feed	0.087400295
194	0x3d990fa1	0.07473684
195	0xbd83c52e	-0.064340934
196	0xbe1fa2b7	-0.15589415
197	0x3de8130c	0.11331758
198	0x3d453a84	0.048151508
199	0x3d9af1ea	0.07565673
200	0xbd5ed1e6	-0.054399393
201	0x3d9c1283	0.07620718
202	0xbcd16196	-0.025559228
203	0xbd72eb58	-0.059306473
204	0x3dc7b806	0.097518966
205	0xbd387bd5	-0.04503997
206	0xbdfa66e6	-0.122266576
207	0x3db9cfcb	0.090728365
208	0x3c49f6b1	0.012326882
209	0x3d85737f	0.0651617
210	0xbc8bd15b	-0.017067602
211	0xbdc36e63	-0.09542539
212	0x3d4af3a5	0.049548764
213	0x3cc99dcd	0.024611378
214	0xbca50e4b	-0.020148417
215	0x3dd9dd31	0.10637892
216	0x3cdbd14d	0.0268332
217	0xbcf90879	-0.030399548
218	0x3df0967f	0.11747455
219	0x3b400eca	0.002930569
220	0x3d3407cf	0.04395276
221	0x3d3042b2	0.043032356
222	0x3d8c3e25	0.06847791
223	0xbd276d4b	-0.040875714
224	0x3de9635f	0.11395907
225	0x3d6db44e	0.05803328
226	0xbc8e7d38	-0.017393693
227	0xbd40fd53	-0.04711659
228	0x3ce30e90	0.027716905
229	0xbd80e29e	-0.06293224
230	0x3b27f012	0.002562527
231	0x3d1bc9dc	0.038034305
232	0x3c192277	0.009346596
233	0xbe2bf8e9	-0.1679417
234	0xbcd40382	-0.025880579
235	0x3dce3898	0.10069388
236	0xbb8762cb	-0.00413165
237	0x3de797ad	0.11308227
238	0xbdb20bc5	-0.08693651
239	0xbdbdc83b	-0.092667066
240	0xbda32d4b	-0.07967623
241	0xbd7afc74	-0.061275914
242	0xbc399825	-0.011327778
243	0x3c972820	0.01845175
244	0xbd92648f	-0.07148086
245	0xbc88f24c	-0.016717099
246	0xbcf60ec7	-0.030036343
247	0x3dc4564e	0.09586774
248	0xbb3f5eea	-0.002920086
249	0x3da6b548	0.081400454
250	0x3df74902	0.12074472
251	0x3c2d18bd	0.01056498
252	0x3dbe8c0c	0.093040556
253	0xbd45230c	-0.048129126
254	0xbcbfb3fc	-0.023401253
255	0x3b80555b	0.003916425
