Assets/ML-Agents/results/Andrew ML/results/sc_01/SimpleCollector/SimpleCollector-768.pt (torch, 603751 bytes, 16 tensors)

discrete_act_size_vector f4 [1, 3]
000000 00 00 40 40 00 00 40 40 00 00 40 40
       3.0 3.0 3.0

network_body._body_endoder.seq_layers.0.weight f4 [256, 27]
000000 e3 ec 48 bd 30 fe df 3d d6 72 a3 bd 1c 9f 6e be
       -0.049054038 0.10937154 -0.079808876 -0.23302883
000010 c0 ab a8 be f1 f4 09 3e 06 cb 65 be b8 b1 b6 3d
       -0.32943535 0.13472344 -0.22440729 0.08920616
000020 1b a9 28 3e 20 a2 c8 bd 77 12 0e 3e 18 20 d7 3c
       0.16470759 -0.09796548 0.13874231 0.02626042
000030 d6 76 7e bd a4 8c 2d bd ea 0e bb be 96 99 80 be
       -0.06212505 -0.042370453 -0.36534816 -0.25117177
000040 6f a9 98 3e 7e e7 34 3e c9 2c c9 be f9 95 82 be
       0.29816768 0.17666432 -0.3929198 -0.25505045
000050 f5 b8 49 be db a6 a0 3d 7d 90 27 be 17 b7 22 3d
       -0.19699462 0.07844325 -0.16363712 0.03972539
000060 01 c1 65 be e7 af 19 3e d7 be 1b 3e 9f c9 b5 bd
       -0.22436906 0.15008508 0.15209518 -0.08876347
000070 77 8c 19 be 97 24 24 be 13 f9 2f be 9f 4d d8 bd
       -0.1499499 -0.16029583 -0.17184858 -0.1056168
000080 d2 e0 8b bb b9 8e 56 be ba 8c 76 3d e8 85 b2 be
       -0.004268744 -0.20952882 0.0601928 -0.34867787
000090 b4 ad 94 be 15 b5 ef bd fe 99 8c 3d d5 18 32 be
       -0.29038775 -0.117044605 0.06865309 -0.17392285
0000a0 3d d7 92 be e1 b4 f0 bd 4b 32 f9 bd c2 02 f6 3d
       -0.2867984 -0.1175325 -0.12167796 0.12012245
0000b0 85 8f c2 3e d0 6a c6 3d 47 fc b3 bc a2 a2 c3 3d
       0.38000122 0.096883416 -0.021970881 0.09552504
0000c0 b6 1f cd bc d8 71 d4 bc 1d 79 08 be 3c 49 05 3e
       -0.025039535 -0.025933191 -0.13327451 0.13016218
0000d0 60 ce 13 be 2b 99 3c 3e 2d 32 04 bd dd 73 3b bd
       -0.14434195 0.18417804 -0.032274414 -0.045764793
0000e0 19 0a 92 bd 3e a2 6b be aa 31 83 be 85 67 ce 3d
       -0.07130832 -0.23011109 -0.25623828 0.100783385
0000f0 8b 50 9c 3d 40 b4 91 bd 5c 1d f0 3d ef f5 74 be
       0.0763255 -0.07114458 0.1172435 -0.23921941
000100 c3 13 69 be fc aa 45 be 08 de 46 be 21 96 8e 3e
       -0.22761445 -0.19303507 -0.19420636 0.27848914
000110 1e d6 50 be 08 e3 fa ba 8b a5 a4 3d bb 69 1a 3d
       -0.20394179 -0.0019141147 0.08039387 0.03769849
000120 96 10 da bd 78 6f bd be 64 42 36 bc e3 e9 3f 3d
       -0.10647695 -0.36999106 -0.011124227 0.04685391
000130 c7 e1 2c 3e 7c 50 2e bd 79 92 32 3e 3a d4 64 3e
       0.16883002 -0.042557225 0.17438687 0.22346583
000140 79 f0 04 be ab d0 60 3e 32 17 2b be 13 e9 3d bd
       -0.12982358 0.219546 -0.16708067 -0.046364855
000150 80 d0 f0 3d c3 ff b4 3d a3 6b 5c be 8d 93 1f be
       0.11758518 0.08837845 -0.21525435 -0.1558363
000160 fc 0a a0 bd 0a 7f 0a be 79 61 3c be 4f 8b c7 be
       -0.07814595 -0.13525024 -0.18396558 -0.38973472
000170 62 38 3e 3e 14 71 85 bb 62 2a 12 3e 91 85 7b 3e
       0.18576196 -0.004072318 0.1427398 0.2456267
000180 70 16 f8 bd 2b 5a df 3d e6 b6 d5 3e 8a ea 01 3f
       -0.121136546 0.1090587 0.41741103 0.50748503
000190 34 97 1f be 70 e0 61 bd 93 94 01 3e 1e ce 0c 3b
       -0.15585023 -0.05514568 0.12654333 0.002148516
0001a0 6a 1a db 3d 6f 83 5b be 51 13 99 3d 9b 32 23 be
       0.106983975 -0.21436857 0.074743874 -0.15937273
0001b0 b2 a1 03 3e e4 9c 35 3e ad 0c d7 bc 85 79 18 be
       0.1285465 0.1773563 -0.026251161 -0.14890106
0001c0 60 33 0b 3e 1a fb b3 be c4 9e 57 3c b2 cc 2b be
       0.13593817 -0.35152513 0.013160411 -0.16777304
0001d0 41 36 6b 3e cd 36 95 be d6 9d 3a be f0 d8 43 be
       0.22969915 -0.29143372 -0.18224272 -0.19125724
0001e0 8a 1e 89 3d c8 a4 53 be 3b 25 02 bd e3 18 b3 be
       0.06695278 -0.20668328 -0.031773787 -0.34979925
0001f0 22 79 79 bd b1 3f 36 be 81 2d 13 b9 d7 6d b8 bd
       -0.060906537 -0.17797734 -0.00014035964 -0.09005325
000200 4a 3c 8d be 98 bb 32 bd 2a 5b 76 be 1f bc 89 3d
       -0.2758506 -0.043635935 -0.24058214 0.067253344
000210 88 00 db 3c 22 7b 02 be b8 04 dd bd b1 39 44 be
       0.026733652 -0.12742284 -0.10791916 -0.19162633
000220 b4 38 04 bd 75 4a 97 bc ce d6 fa bd ac a1 17 bd
       -0.03228064 -0.018468121 -0.12248002 -0.037019417
000230 d5 40 e1 be c2 94 4b bb af 75 1d bd 25 04 5a be
       -0.43994775 -0.0031064008 -0.03844231 -0.21290644
000240 99 01 98 be 22 51 c5 bd 7f 38 8f be 9d 6e b6 3d
       -0.2968872 -0.096346155 -0.2797279 0.089078166
000250 b4 27 c7 bd 77 4e 3c 3e 8c 55 74 3e aa 8f 5b 3e
       -0.0972437 0.18389307 0.23860759 0.21441522
000260 35 ab 27 3e 91 c8 06 3f b1 76 d5 3b 36 8b 15 3e
       0.16373904 0.5264979 0.0065143933 0.14603886
000270 f7 fd b2 bd a5 f5 5f 3d dd 0e a6 3d 5f 66 1d 3e
       -0.08739846 0.054677624 0.08108304 0.15371083
000280 48 21 b4 3e 21 79 30 bc aa ba c9 3d 23 ed a7 3e
       0.35181642 -0.010771067 0.098500565 0.32798108
000290 1d f2 f7 3d 4f 98 00 3f 05 99 61 3e 89 86 f1 bc
       0.12106726 0.50232404 0.22031029 -0.029483097
0002a0 4b 93 9e 3d 90 52 bb bd 56 59 c0 bd 2a 5e 3a 3e
       0.07742938 -0.09146607 -0.093920395 0.18199983
0002b0 1c de 98 bd a3 17 2b be e7 86 4b 3e 26 f5 25 bc
       -0.07464239 -0.16708235 0.1987568 -0.010129249
0002c0 d8 d1 44 3e 77 1c f4 3e 7e a3 1c 3e 59 e3 92 be
       0.19220674 0.47677967 0.15296742 -0.28689077
0002d0 76 d1 42 3e f2 62 e3 bd ea a0 27 3e ba 7d 52 3d
       0.19025216 -0.11102857 0.16369978 0.051389433
0002e0 89 ea 40 3c 76 db 1b bd 3d 87 a3 3d d0 cd 83 3d
       0.011774668 -0.03805109 0.07984779 0.0643574
0002f0 19 4d a0 bc 4e 0e 89 be 84 85 11 bc 31 6e ac 3e
       -0.019568013 -0.26768726 -0.00888193 0.3367782
000300 27 f9 f7 3d 30 91 3e 3e d1 1b 88 3e 1d b7 d5 3d
       0.12108069 0.18610072 0.26583722 0.10435317
000310 1c 1b 8a be 9f 5e eb bd 1a ad 23 bd 50 09 9d 3e
       -0.26973808 -0.11492657 -0.039960004 0.30671167
000320 3d 8b f3 b9 36 35 82 3e 62 ed 63 3e 87 be b8 3b
       -0.00046452312 0.25431222 0.22258523 0.005637947
000330 2f f7 a3 3d f4 95 81 be ee 0d 92 be a1 bc 60 3d
       0.08006131 -0.25309718 -0.28526253 0.05486739
000340 36 98 33 3d 80 21 5b 3e 2d 95 0b bd 7d 11 d1 be
       0.04384633 0.21399498 -0.034077812 -0.40833655
000350 9d 8b c5 bc 5b 29 4b bd ef 20 e9 3d 44 a6 60 3c
       -0.024114424 -0.049599987 0.11383235 0.013711516
000360 4c 8f 7c 3e 3c a1 55 3d 41 32 60 be 93 3c d1 3c
       0.24664038 0.05215572 -0.2189417 0.02554158
000370 7e 97 d9 3b fa 2e c7 bd df 6e 93 3e c9 c2 89 3d
       0.0066403737 -0.09725757 0.28795525 0.067266054
000380 c8 03 2e be 35 e7 2c be eb eb d5 3d 8e bb 16 bd
       -0.1699363 -0.16885073 0.104453884 -0.03679996
000390 f0 0a 89 3e 0b 7a ca 3d db ce 6b 3c dc f1 87 bc
       0.26766157 0.09886559 0.01439258 -0.01659482
0003a0 de 5d 10 3e 41 1c 5a 3d 7d 1b 79 3d 96 61 08 3e
       0.14098307 0.0532496 0.06081723 0.13318476
0003b0 22 f7 85 bc 07 2f 9c be 35 c6 b3 bd a8 16 d0 bd
       -0.016353194 -0.3050463 -0.08778039 -0.10160571
0003c0 1e 90 41 bd dd dc 2c be 3d 13 5e 3e 8e 9e 63 3e
       -0.04725658 -0.16881128 0.21687026 0.22228453
0003d0 00 b4 77 3e fa 03 22 3c 67 a9 e1 bd db 47 29 be
       0.24189758 0.009888643 -0.11018639 -0.16531317
0003e0 00 b3 ba 3d 49 11 8c be 2b 64 7f 3d c5 c4 d9 bc
       0.09116173 -0.27356938 0.062351387 -0.026583085
0003f0 4a 14 1d be f5 96 b7 be 66 8b 7f 3d 59 bc 08 be
       -0.15339771 -0.3585736 0.0623888 -0.13353099

network_body._body_endoder.seq_layers.0.bias f4 [256]
000000 00 00 00 00 00 00 00 00 00 00 00 00 00 00 00 00
       0.0 0.0 0.0 0.0
000010 00 00 00 00 00 00 00 00 00 00 00 00 00 00 00 00
       0.0 0.0 0.0 0.0
000020 00 00 00 00 00 00 00 00 00 00 00 00 00 00 00 00
       0.0 0.0 0.0 0.0
000030 00 00 00 00 00 00 00 00 00 00 00 00 00 00 00 00
       0.0 0.0 0.0 0.0
000040 00 00 00 00 00 00 00 00 00 00 00 00 00 00 00 00
       0.0 0.0 0.0 0.0
000050 00 00 00 00 00 00 00 00 00 00 00 00 00 00 00 00
       0.0 0.0 0.0 0.0
000060 00 00 00 00 00 00 00 00 00 00 00 00 00 00 00 00
       0.0 0.0 0.0 0.0
000070 00 00 00 00 00 00 00 00 00 00 00 00 00 00 00 00
       0.0 0.0 0.0 0.0
000080 00 00 00 00 00 00 00 00 00 00 00 00 00 00 00 00
       0.0 0.0 0.0 0.0
000090 00 00 00 00 00 00 00 00 00 00 00 00 00 00 00 00
       0.0 0.0 0.0 0.0
0000a0 00 00 00 00 00 00 00 00 00 00 00 00 00 00 00 00
       0.0 0.0 0.0 0.0
0000b0 00 00 00 00 00 00 00 00 00 00 00 00 00 00 00 00
       0.0 0.0 0.0 0.0
0000c0 00 00 00 00 00 00 00 00 00 00 00 00 00 00 00 00
       0.0 0.0 0.0 0.0
0000d0 00 00 00 00 00 00 00 00 00 00 00 00 00 00 00 00
       0.0 0.0 0.0 0.0
0000e0 00 00 00 00 00 00 00 00 00 00 00 00 00 00 00 00
       0.0 0.0 0.0 0.0
0000f0 00 00 00 00 00 00 00 00 00 00 00 00 00 00 00 00
       0.0 0.0 0.0 0.0
000100 00 00 00 00 00 00 00 00 00 00 00 00 00 00 00 00
       0.0 0.0 0.0 0.0
000110 00 00 00 00 00 00 00 00 00 00 00 00 00 00 00 00
       0.0 0.0 0.0 0.0
000120 00 00 00 00 00 00 00 00 00 00 00 00 00 00 00 00
       0.0 0.0 0.0 0.0
000130 00 00 00 00 00 00 00 00 00 00 00 00 00 00 00 00
       0.0 0.0 0.0 0.0
000140 00 00 00 00 00 00 00 00 00 00 00 00 00 00 00 00
       0.0 0.0 0.0 0.0
000150 00 00 00 00 00 00 00 00 00 00 00 00 00 00 00 00
       0.0 0.0 0.0 0.0
000160 00 00 00 00 00 00 00 00 00 00 00 00 00 00 00 00
       0.0 0.0 0.0 0.0
000170 00 00 00 00 00 00 00 00 00 00 00 00 00 00 00 00
       0.0 0.0 0.0 0.0
000180 00 00 00 00 00 00 00 00 00 00 00 00 00 00 00 00
       0.0 0.0 0.0 0.0
000190 00 00 00 00 00 00 00 00 00 00 00 00 00 00 00 00
       0.0 0.0 0.0 0.0
0001a0 00 00 00 00 00 00 00 00 00 00 00 00 00 00 00 00
       0.0 0.0 0.0 0.0
0001b0 00 00 00 00 00 00 00 00 00 00 00 00 00 00 00 00
       0.0 0.0 0.0 0.0
0001c0 00 00 00 00 00 00 00 00 00 00 00 00 00 00 00 00
       0.0 0.0 0.0 0.0
0001d0 00 00 00 00 00 00 00 00 00 00 00 00 00 00 00 00
       0.0 0.0 0.0 0.0
0001e0 00 00 00 00 00 00 00 00 00 00 00 00 00 00 00 00
       0.0 0.0 0.0 0.0
0001f0 00 00 00 00 00 00 00 00 00 00 00 00 00 00 00 00
       0.0 0.0 0.0 0.0
000200 00 00 00 00 00 00 00 00 00 00 00 00 00 00 00 00
       0.0 0.0 0.0 0.0
000210 00 00 00 00 00 00 00 00 00 00 00 00 00 00 00 00
       0.0 0.0 0.0 0.0
000220 00 00 00 00 00 00 00 00 00 00 00 00 00 00 00 00
       0.0 0.0 0.0 0.0
000230 00 00 00 00 00 00 00 00 00 00 00 00 00 00 00 00
       0.0 0.0 0.0 0.0
000240 00 00 00 00 00 00 00 00 00 00 00 00 00 00 00 00
       0.0 0.0 0.0 0.0
000250 00 00 00 00 00 00 00 00 00 00 00 00 00 00 00 00
       0.0 0.0 0.0 0.0
000260 00 00 00 00 00 00 00 00 00 00 00 00 00 00 00 00
       0.0 0.0 0.0 0.0
000270 00 00 00 00 00 00 00 00 00 00 00 00 00 00 00 00
       0.0 0.0 0.0 0.0
000280 00 00 00 00 00 00 00 00 00 00 00 00 00 00 00 00
       0.0 0.0 0.0 0.0
000290 00 00 00 00 00 00 00 00 00 00 00 00 00 00 00 00
       0.0 0.0 0.0 0.0
0002a0 00 00 00 00 00 00 00 00 00 00 00 00 00 00 00 00
       0.0 0.0 0.0 0.0
0002b0 00 00 00 00 00 00 00 00 00 00 00 00 00 00 00 00
       0.0 0.0 0.0 0.0
0002c0 00 00 00 00 00 00 00 00 00 00 00 00 00 00 00 00
       0.0 0.0 0.0 0.0
0002d0 00 00 00 00 00 00 00 00 00 00 00 00 00 00 00 00
       0.0 0.0 0.0 0.0
0002e0 00 00 00 00 00 00 00 00 00 00 00 00 00 00 00 00
       0.0 0.0 0.0 0.0
0002f0 00 00 00 00 00 00 00 00 00 00 00 00 00 00 00 00
       0.0 0.0 0.0 0.0
000300 00 00 00 00 00 00 00 00 00 00 00 00 00 00 00 00
       0.0 0.0 0.0 0.0
000310 00 00 00 00 00 00 00 00 00 00 00 00 00 00 00 00
       0.0 0.0 0.0 0.0
000320 00 00 00 00 00 00 00 00 00 00 00 00 00 00 00 00
       0.0 0.0 0.0 0.0
000330 00 00 00 00 00 00 00 00 00 00 00 00 00 00 00 00
       0.0 0.0 0.0 0.0
000340 00 00 00 00 00 00 00 00 00 00 00 00 00 00 00 00
       0.0 0.0 0.0 0.0
000350 00 00 00 00 00 00 00 00 00 00 00 00 00 00 00 00
       0.0 0.0 0.0 0.0
000360 00 00 00 00 00 00 00 00 00 00 00 00 00 00 00 00
       0.0 0.0 0.0 0.0
000370 00 00 00 00 00 00 00 00 00 00 00 00 00 00 00 00
       0.0 0.0 0.0 0.0
000380 00 00 00 00 00 00 00 00 00 00 00 00 00 00 00 00
       0.0 0.0 0.0 0.0
000390 00 00 00 00 00 00 00 00 00 00 00 00 00 00 00 00
       0.0 0.0 0.0 0.0
0003a0 00 00 00 00 00 00 00 00 00 00 00 00 00 00 00 00
       0.0 0.0 0.0 0.0
0003b0 00 00 00 00 00 00 00 00 00 00 00 00 00 00 00 00
       0.0 0.0 0.0 0.0
0003c0 00 00 00 00 00 00 00 00 00 00 00 00 00 00 00 00
       0.0 0.0 0.0 0.0
0003d0 00 00 00 00 00 00 00 00 00 00 00 00 00 00 00 00
       0.0 0.0 0.0 0.0
0003e0 00 00 00 00 00 00 00 00 00 00 00 00 00 00 00 00
       0.0 0.0 0.0 0.0
0003f0 00 00 00 00 00 00 00 00 00 00 00 00 00 00 00 00
       0.0 0.0 0.0 0.0

network_body._body_endoder.seq_layers.2.weight f4 [256, 256]
000000 e8 26 94 bc 13 3c d4 b9 87 df 3b 3c 51 95 97 3d
       -0.018084958 -0.0004048055 0.011466867 0.07401527
000010 2c bb a8 3c 20 6f 88 bd 13 b9 d7 bd 5a 19 f4 3c
       0.020597063 -0.066618204 -0.10533347 0.029797245
000020 c6 89 7a 3d e8 54 b7 3b 0b 8c 48 bc fb 88 56 3d
       0.061166547 0.0055948384 -0.01224042 0.05237673
000030 e9 27 1e be d7 c8 a0 3c df b7 5a bd ff 7c af bd
       -0.15444912 0.019627018 -0.05339801 -0.08568763
000040 e7 5d 02 3d 8e a8 91 bd c6 21 ea bb 9c fe 86 3d
       0.031827834 -0.071122274 -0.0071451394 0.06591532
000050 ca 25 01 3b 0c 8c f6 bb b8 b5 49 3c a4 14 17 bd
       0.0019706362 -0.007524019 0.0123113915 -0.03688492
000060 2c 6b 22 3c 20 68 cb 3d 7b a4 14 3d 7f f6 8a bc
       0.009913247 0.0993197 0.036289673 -0.016963242
000070 43 16 21 bd dd ab a7 3d 16 40 9b bd bc c3 5d 3d
       -0.03932787 0.08187077 -0.07580583 0.054141745
000080 81 c2 9c bd 63 42 52 3b 94 d5 b5 bd ae 98 bb bd
       -0.07654286 0.0032083027 -0.088786274 -0.09159981
000090 99 a9 69 3d 38 0f dc 3d 46 89 a0 3d 95 07 5e bd
       0.057046507 0.1074509 0.07838683 -0.05420645
0000a0 ac ee 8d 3c 78 12 4e 3d bd 6e 89 3d f4 78 ce bd
       0.017325722 0.050310582 0.06710575 -0.10081664
0000b0 1b e5 d7 bc 80 1a ed 3d 11 29 79 3c b1 dd 83 3d
       -0.026354363 0.1157732 0.015207545 0.06438769
0000c0 45 e5 35 3d 36 13 3c bc e9 ab a6 bc a3 60 95 3d
       0.0444081 -0.01147919 -0.020345645 0.072938226
0000d0 aa ee 7b bd 8e d6 c7 bc 9c 39 5b bd 96 5a 6e 3c
       -0.061506905 -0.0243943 -0.053521737 0.014547965
0000e0 a0 a6 8f 3c 7d 77 09 bd a1 c9 a4 bd d4 ab ec 3d
       0.017535508 -0.03356122 -0.0804627 0.11556211
0000f0 6f 38 a5 3c 6c fd 35 bc a0 9e 9e bd 41 9e 1a bc
       0.020168511 -0.011107784 -0.07745099 -0.009437145
000100 16 61 db bd d5 9d e4 bd b1 f3 1a bd 99 b5 8b 3d
       -0.10711877 -0.111629166 -0.03783006 0.068217464
000110 e8 38 4d bd 97 a2 cf 3c c0 11 fc bc 71 81 83 bd
       -0.0501031 0.025346084 -0.030770183 -0.06421173
000120 46 0b 93 3d 45 72 b7 bb 83 d9 a8 3d 15 90 a5 3c
       0.071798846 -0.005598339 0.08244612 0.020210305
000130 82 2b b9 bd 9c 12 8a bc 1e 14 9e bd 17 0f 7d 3c
       -0.090415016 -0.016854577 -0.07718681 0.015445492
000140 0c b0 cc bd b5 f8 81 bc 91 51 14 3d 65 5a e7 bd
       -0.09994516 -0.015865663 0.0362106 -0.11296538
000150 54 b8 8a 3b 26 37 de bd fd b1 69 bc 2d 4f 87 3b
       0.0042333994 -0.108503625 -0.014263627 0.0041293115
000160 cc fb ac 3d 68 b1 be 3d 9b bb 9e bb d7 e9 f1 3d
       0.08446464 0.09311181 -0.0048441417 0.118121795
000170 5f 8b 57 bd d0 91 07 3d 46 62 1b be 4f b7 92 3d
       -0.05262315 0.033098042 -0.15174207 0.071638696
000180 e8 aa 25 3d f2 58 11 3d 4d 5e 96 bc d4 ea 96 3d
       0.040446192 0.035485215 -0.018355513 0.07369009
000190 33 46 c6 3c 5f e6 9d bd 9d 00 81 3c 3e e0 8f bc
       0.024203395 -0.077099554 0.015747363 -0.017562982
0001a0 cf 78 82 bc 95 8d 79 bd ce e4 f5 bc 3d 6d 15 3d
       -0.015926747 -0.06092604 -0.03001633 0.03648113
0001b0 57 fa 94 bd 11 74 3a b9 38 08 07 3d 96 0d 9a 3d
       -0.07274311 -0.0001778158 0.032966822 0.075221226
0001c0 5b 40 fc 3b e2 42 7e 3b d0 82 97 3d 3a 07 05 3c
       0.0076981015 0.003879719 0.073979974 0.008119399
0001d0 53 e4 96 3d aa d1 9c 3d 22 79 d2 3d 40 cc 25 3d
       0.07367768 0.07657178 0.102770105 0.04047799
0001e0 d9 38 8a 3d 92 55 ed 3d 4a 08 85 bd f5 ed 9e bd
       0.06749124 0.11588587 -0.06495722 -0.077602305
0001f0 97 7d e2 3b 24 bf 19 3d 37 c1 14 bd 95 84 47 3d
       0.006911944 0.0375358 -0.036317077 0.048710424
000200 3d 8a b1 3d 00 00 8b 3c 8c 31 9d bc 05 80 3b 3c
       0.08668945 0.016967773 -0.019188665 0.011444096
000210 1d 50 4f 3c 71 2b af bd 7d a7 b3 bd cb f8 59 3c
       0.012653378 -0.08553208 -0.0877218 0.013303946
000220 ae 3b 99 bd 68 de 99 bd 68 2e 8f bc 58 c3 ac bd
       -0.07482086 -0.07513124 -0.017478183 -0.08435696
000230 2e 09 7b 3d 5a 87 e1 3d 29 b7 34 3d c0 e5 9f 3d
       0.06128805 0.110121444 0.044119988 0.07807493
000240 0b db a6 bc 88 ab 1b 3d b0 e7 58 bd 2f 4a 02 be
       -0.02036812 0.03800538 -0.05295533 -0.12723611
000250 e3 5a bb 3c d2 a4 8c 3d a8 6d de 3d 09 8e c4 bc
       0.022870487 0.068673745 0.10860759 -0.023993509
000260 e0 a3 8b bd b0 53 47 3c be 9d 58 3c a5 c6 19 be
       -0.06818366 0.012165949 0.013221202 -0.15017183
000270 b5 58 90 bc 69 b7 9e bd 77 58 5b 3d 14 94 85 3d
       -0.017620424 -0.077498265 0.053551164 0.06522384
000280 ed 78 97 bd 58 46 12 3d b2 de 8e 3d 2c 13 42 bc
       -0.07396112 0.035711616 0.069760695 -0.011845391
000290 4c 3f 42 3d 33 6d 0b 3d 68 48 07 3e f0 96 46 bd
       0.047423646 0.034039687 0.13211215 -0.04848379
0002a0 16 89 37 3d dc b0 0d 3d a6 05 3b bd cf 09 58 3d
       0.04480847 0.034592494 -0.045659684 0.05274373
0002b0 8f 85 42 bc e8 ca b4 3c 5d f5 0e 3c fd a8 c0 3d
       -0.011872663 0.02206941 0.008725491 0.09407232
0002c0 ab 77 97 bc 50 a1 8d bd 6b db 9b 3c be 23 d6 bc
       -0.01848968 -0.069155335 0.019025525 -0.02614009
0002d0 ca c1 03 bc 70 08 9e bd f1 be bd 3c ce 9f 13 bb
       -0.008041808 -0.07716453 0.023162337 -0.002252567
0002e0 15 99 88 3d bf 70 24 3c b9 cd 76 3d 5c 17 b6 bc
       0.06669823 0.010036646 0.060254786 -0.022227935
0002f0 b6 e2 8c 3d 52 35 1e bc 78 2d 40 3d ea d0 23 bd
       0.06879179 -0.009656267 0.046918362 -0.039994158
000300 44 4a 51 3d 0b f2 b9 bd 66 01 c5 3d 4b b8 29 bc
       0.051096216 -0.09079369 0.09619407 -0.01035888
000310 41 c4 11 bd 21 e1 a3 ba 22 5b 12 3d 74 6f 29 3d
       -0.035587553 -0.0012503007 0.035731442 0.041366056
000320 81 9d 33 bd 4a 94 b0 bd d6 b8 f6 3c 2b aa c2 bc
       -0.04385138 -0.08622034 0.030117434 -0.023762783
000330 8b 27 77 3d 3b c8 0d 3d 46 cb a5 3d 0a 4e 71 3d
       0.060340445 0.034614783 0.08095412 0.058912314
000340 1a a7 00 be 29 29 7d 3c 39 79 4b bd b7 fa cf bc
       -0.12563744 0.015451708 -0.049676154 -0.025388105
000350 8a 29 f4 3d 0d 95 d1 3b 0a 94 31 3d 0e b1 4a bd
       0.119219854 0.006395942 0.04335407 -0.04948526
000360 4b a9 12 3d 59 59 a7 bc 43 36 f8 3c 04 85 a9 bd
       0.03580598 -0.020428346 0.030299312 -0.08277324
000370 3f 71 56 3d fd 2a 19 3e 99 02 28 3d 3a 9c 65 3d
       0.052354094 0.14957805 0.041018102 0.056057192
000380 b5 63 65 3d 9b 48 88 3d b3 dd fb bd 42 ab 66 bc
       0.05600329 0.066544734 -0.12298145 -0.014078917
000390 f1 a9 d1 3c de d2 ed 3c d3 9e 05 bc 04 b1 a3 3d
       0.02559373 0.029031213 -0.008155542 0.079927474
0003a0 80 93 19 3c 59 e7 67 3d 1f 4f dd bd 1d a1 82 bd
       0.009373546 0.056617115 -0.10806107 -0.06378386
0003b0 c3 ed 0e 3d af 1f 70 bd 70 ba 25 3d 89 42 5c 3d
       0.034894716 -0.058623966 0.040461004 0.05377439
0003c0 f1 9b 86 bd 83 79 43 bd 4f 14 24 be 78 3b 72 bd
       -0.06572712 -0.047723304 -0.16023372 -0.059138745
0003d0 a4 0e de 3c 30 02 8c 3c 23 55 fc 3d 23 9c 9b bd
       0.02710659 0.017090887 0.12320926 -0.0759814
0003e0 9a 85 27 3d 42 db e4 3b d9 9c ee bd 02 e8 67 3d
       0.040898897 0.0069841454 -0.1165101 0.056617744
0003f0 30 3e 0a bc 61 7b f5 bc 0a 27 ed 3d 1e 51 c8 3c
       -0.008437678 -0.029966058 0.11579712 0.024452742

network_body._body_endoder.seq_layers.2.bias f4 [256]
000000 00 00 00 00 00 00 00 00 00 00 00 00 00 00 00 00
       0.0 0.0 0.0 0.0
000010 00 00 00 00 00 00 00 00 00 00 00 00 00 00 00 00
       0.0 0.0 0.0 0.0
000020 00 00 00 00 00 00 00 00 00 00 00 00 00 00 00 00
       0.0 0.0 0.0 0.0
000030 00 00 00 00 00 00 00 00 00 00 00 00 00 00 00 00
       0.0 0.0 0.0 0.0
000040 00 00 00 00 00 00 00 00 00 00 00 00 00 00 00 00
       0.0 0.0 0.0 0.0
000050 00 00 00 00 00 00 00 00 00 00 00 00 00 00 00 00
       0.0 0.0 0.0 0.0
000060 00 00 00 00 00 00 00 00 00 00 00 00 00 00 00 00
       0.0 0.0 0.0 0.0
000070 00 00 00 00 00 00 00 00 00 00 00 00 00 00 00 00
       0.0 0.0 0.0 0.0
000080 00 00 00 00 00 00 00 00 00 00 00 00 00 00 00 00
       0.0 0.0 0.0 0.0
000090 00 00 00 00 00 00 00 00 00 00 00 00 00 00 00 00
       0.0 0.0 0.0 0.0
0000a0 00 00 00 00 00 00 00 00 00 00 00 00 00 00 00 00
       0.0 0.0 0.0 0.0
0000b0 00 00 00 00 00 00 00 00 00 00 00 00 00 00 00 00
       0.0 0.0 0.0 0.0
0000c0 00 00 00 00 00 00 00 00 00 00 00 00 00 00 00 00
       0.0 0.0 0.0 0.0
0000d0 00 00 00 00 00 00 00 00 00 00 00 00 00 00 00 00
       0.0 0.0 0.0 0.0
0000e0 00 00 00 00 00 00 00 00 00 00 00 00 00 00 00 00
       0.0 0.0 0.0 0.0
0000f0 00 00 00 00 00 00 00 00 00 00 00 00 00 00 00 00
       0.0 0.0 0.0 0.0
000100 00 00 00 00 00 00 00 00 00 00 00 00 00 00 00 00
       0.0 0.0 0.0 0.0
000110 00 00 00 00 00 00 00 00 00 00 00 00 00 00 00 00
       0.0 0.0 0.0 0.0
000120 00 00 00 00 00 00 00 00 00 00 00 00 00 00 00 00
       0.0 0.0 0.0 0.0
000130 00 00 00 00 00 00 00 00 00 00 00 00 00 00 00 00
       0.0 0.0 0.0 0.0
000140 00 00 00 00 00 00 00 00 00 00 00 00 00 00 00 00
       0.0 0.0 0.0 0.0
000150 00 00 00 00 00 00 00 00 00 00 00 00 00 00 00 00
       0.0 0.0 0.0 0.0
000160 00 00 00 00 00 00 00 00 00 00 00 00 00 00 00 00
       0.0 0.0 0.0 0.0
000170 00 00 00 00 00 00 00 00 00 00 00 00 00 00 00 00
       0.0 0.0 0.0 0.0
000180 00 00 00 00 00 00 00 00 00 00 00 00 00 00 00 00
       0.0 0.0 0.0 0.0
000190 00 00 00 00 00 00 00 00 00 00 00 00 00 00 00 00
       0.0 0.0 0.0 0.0
0001a0 00 00 00 00 00 00 00 00 00 00 00 00 00 00 00 00
       0.0 0.0 0.0 0.0
0001b0 00 00 00 00 00 00 00 00 00 00 00 00 00 00 00 00
       0.0 0.0 0.0 0.0
0001c0 00 00 00 00 00 00 00 00 00 00 00 00 00 00 00 00
       0.0 0.0 0.0 0.0
0001d0 00 00 00 00 00 00 00 00 00 00 00 00 00 00 00 00
       0.0 0.0 0.0 0.0
0001e0 00 00 00 00 00 00 00 00 00 00 00 00 00 00 00 00
       0.0 0.0 0.0 0.0
0001f0 00 00 00 00 00 00 00 00 00 00 00 00 00 00 00 00
       0.0 0.0 0.0 0.0
000200 00 00 00 00 00 00 00 00 00 00 00 00 00 00 00 00
       0.0 0.0 0.0 0.0
000210 00 00 00 00 00 00 00 00 00 00 00 00 00 00 00 00
       0.0 0.0 0.0 0.0
000220 00 00 00 00 00 00 00 00 00 00 00 00 00 00 00 00
       0.0 0.0 0.0 0.0
000230 00 00 00 00 00 00 00 00 00 00 00 00 00 00 00 00
       0.0 0.0 0.0 0.0
000240 00 00 00 00 00 00 00 00 00 00 00 00 00 00 00 00
       0.0 0.0 0.0 0.0
000250 00 00 00 00 00 00 00 00 00 00 00 00 00 00 00 00
       0.0 0.0 0.0 0.0
000260 00 00 00 00 00 00 00 00 00 00 00 00 00 00 00 00
       0.0 0.0 0.0 0.0
000270 00 00 00 00 00 00 00 00 00 00 00 00 00 00 00 00
       0.0 0.0 0.0 0.0
000280 00 00 00 00 00 00 00 00 00 00 00 00 00 00 00 00
       0.0 0.0 0.0 0.0
000290 00 00 00 00 00 00 00 00 00 00 00 00 00 00 00 00
       0.0 0.0 0.0 0.0
0002a0 00 00 00 00 00 00 00 00 00 00 00 00 00 00 00 00
       0.0 0.0 0.0 0.0
0002b0 00 00 00 00 00 00 00 00 00 00 00 00 00 00 00 00
       0.0 0.0 0.0 0.0
0002c0 00 00 00 00 00 00 00 00 00 00 00 00 00 00 00 00
       0.0 0.0 0.0 0.0
0002d0 00 00 00 00 00 00 00 00 00 00 00 00 00 00 00 00
       0.0 0.0 0.0 0.0
0002e0 00 00 00 00 00 00 00 00 00 00 00 00 00 00 00 00
       0.0 0.0 0.0 0.0
0002f0 00 00 00 00 00 00 00 00 00 00 00 00 00 00 00 00
       0.0 0.0 0.0 0.0
000300 00 00 00 00 00 00 00 00 00 00 00 00 00 00 00 00
       0.0 0.0 0.0 0.0
000310 00 00 00 00 00 00 00 00 00 00 00 00 00 00 00 00
       0.0 0.0 0.0 0.0
000320 00 00 00 00 00 00 00 00 00 00 00 00 00 00 00 00
       0.0 0.0 0.0 0.0
000330 00 00 00 00 00 00 00 00 00 00 00 00 00 00 00 00
       0.0 0.0 0.0 0.0
000340 00 00 00 00 00 00 00 00 00 00 00 00 00 00 00 00
       0.0 0.0 0.0 0.0
000350 00 00 00 00 00 00 00 00 00 00 00 00 00 00 00 00
       0.0 0.0 0.0 0.0
000360 00 00 00 00 00 00 00 00 00 00 00 00 00 00 00 00
       0.0 0.0 0.0 0.0
000370 00 00 00 00 00 00 00 00 00 00 00 00 00 00 00 00
       0.0 0.0 0.0 0.0
000380 00 00 00 00 00 00 00 00 00 00 00 00 00 00 00 00
       0.0 0.0 0.0 0.0
000390 00 00 00 00 00 00 00 00 00 00 00 00 00 00 00 00
       0.0 0.0 0.0 0.0
0003a0 00 00 00 00 00 00 00 00 00 00 00 00 00 00 00 00
       0.0 0.0 0.0 0.0
0003b0 00 00 00 00 00 00 00 00 00 00 00 00 00 00 00 00
       0.0 0.0 0.0 0.0
0003c0 00 00 00 00 00 00 00 00 00 00 00 00 00 00 00 00
       0.0 0.0 0.0 0.0
0003d0 00 00 00 00 00 00 00 00 00 00 00 00 00 00 00 00
       0.0 0.0 0.0 0.0
0003e0 00 00 00 00 00 00 00 00 00 00 00 00 00 00 00 00
       0.0 0.0 0.0 0.0
0003f0 00 00 00 00 00 00 00 00 00 00 00 00 00 00 00 00
       0.0 0.0 0.0 0.0

action_model._discrete_distribution.branches.0.weight f4 [3, 256]
000000 2d 76 b5 bb 03 c7 df 3b 70 7b 57 3b 1f b3 48 bb
       -0.0055377693 0.006829144 0.003287997 -0.0030624343
000010 2c 63 9d 3a d0 37 9f bb fc 9c b2 bb 8a 18 b9 3a
       0.0012007705 -0.0048589483 -0.005450843 0.0014121693
000020 22 14 56 3a fb e2 2a 3c 90 2d e1 3b c2 df c6 bb
       0.0008166452 0.010430093 0.0068718866 -0.0060691545
000030 eb 19 12 bb 3a 48 74 3b a5 83 97 bb 9f 51 21 bb
       -0.002229328 0.0037274496 -0.0046238475 -0.00246153
000040 21 f8 b8 3a ec 0b 19 bb 17 ed 6b bb 5c 05 a9 bb
       0.0014112034 -0.0023353053 -0.003599947 -0.0051581096
000050 7b 88 59 3b 3b 7d 32 bc 97 70 0e 3c b6 fb 90 bb
       0.003319292 -0.010894115 0.008693836 -0.0044245375
000060 6f 36 a9 3b e5 46 09 bb 4b e3 42 3b d7 27 89 bb
       0.0051639597 -0.0020946797 0.0029737528 -0.0041856575
000070 7f f4 85 bb 8f 5e 26 3b 68 90 48 3c 9b 52 bc 3a
       -0.004087984 0.002538595 0.01224146 0.001436788
000080 ef 8e 9c 3b 6d ec de 3b 42 19 c6 bb 2f 69 4f 3b
       0.004777781 0.0068030865 -0.0060454914 0.0031648388
000090 6b ee 76 bb 8e 13 86 bb 17 a7 42 ba bd 68 e1 ba
       -0.003767873 -0.0040916866 -0.0007425411 -0.0017197352
0000a0 2e 14 01 3c 8d 9c c1 3b 24 7d 23 3c 4b c0 2e bc
       0.007878346 0.005908555 0.009978566 -0.010665963
0000b0 72 87 67 bb 04 28 82 3b c1 80 3a bb 71 af 0d bb
       -0.0035328534 0.0039720554 -0.002845809 -0.0021619464
0000c0 43 79 e6 3a cb 2b b4 3a 93 23 b4 39 1a 36 09 bb
       0.0017583746 0.0013745961 0.0003435878 -0.0020936788
0000d0 c4 b0 95 bb 18 a3 54 bb 2f ba 92 3b e7 57 8b 3b
       -0.0045681912 -0.0032445844 0.004477761 0.004252422
0000e0 bb cf 33 bc 6d bb 14 3b e7 16 d8 bb a7 06 39 bc
       -0.01097482 0.0022694722 -0.006594527 -0.01129309
0000f0 11 79 48 ba 7b 26 32 bc 72 b0 52 bc 55 c8 aa 3a
       -0.0007647435 -0.010873432 -0.012859451 0.0013029674
000100 78 6d bb 3b 9a 74 a3 bb 80 78 06 3b 27 09 f4 bb
       0.005719837 -0.004988265 0.00205186 -0.00744738
000110 7c c7 b4 ba b0 3c 84 3a 8c 37 8d bb bb 26 cd 3b
       -0.0013792361 0.0010088887 -0.0043096 0.0062607205
000120 94 d8 b7 3b 16 62 1f 3a 31 89 c7 bb ad 80 e4 39
       0.005610535 0.00060799846 -0.0060893525 0.0004358342
000130 63 9e 10 3b c7 5b 9a 3a 2f 47 8d bb 04 b5 b4 bb
       0.0022067062 0.0011776619 -0.0043114643 -0.005514743
000140 bb bd 58 3b e5 14 21 3b 7b 69 33 bc 5c 61 c2 3b
       0.0033072073 0.0024579105 -0.0109504415 0.0059320163
000150 85 41 d9 b9 6c a7 46 bb e0 65 1d bc 9d 53 3d 3c
       -0.0004143828 -0.0030312194 -0.009606808 0.0115555795
000160 a7 b6 4b ba f3 df 1f 3b 45 9d 7c bb c4 85 21 3c
       -0.0007771053 0.0024394959 -0.0038545888 0.009858552
000170 ce 9f 19 bc 0c bb 04 3b 23 8d 2f bb bd 1f 7a bb
       -0.009376479 0.002025309 -0.0026787005 -0.003816589
000180 a3 28 f3 bb 68 3f b0 3b 02 d1 a2 3b 22 7f 93 bb
       -0.0074206158 0.0053786524 0.0049687633 -0.0045012394
000190 78 59 eb bb 38 2c 73 ba 8b 6f b5 3b 3d 82 58 bb
       -0.0071822964 -0.00092763035 0.0055369786 -0.0033036612
0001a0 ed 3f e9 39 f8 cf ec 3b 14 4b 2c bb 45 39 a1 3b
       0.00044488852 0.0072269402 -0.0026289867 0.004920157
0001b0 9a ca 24 bc 8d fe a4 ba c3 e2 42 3c c7 bd de 3a
       -0.01005807 -0.0012588069 0.0118948845 0.0016993814
0001c0 5b e4 c2 b9 75 8e fa 3b 99 97 00 bb 12 4c 82 ba
       -0.00037172702 0.0076463767 -0.001962161 -0.0009940884
0001d0 63 71 a7 b9 64 b8 c3 bb af c1 3e bc b7 39 47 3b
       -0.00031937202 -0.005972909 -0.011642857 0.003039939
0001e0 e3 da 11 3c 6f 85 da b8 67 24 16 3b df aa a4 3b
       0.008902284 -0.00010419904 0.002290988 0.0050252522
0001f0 a0 50 97 bc 52 5b ba bb 34 36 8b bb c5 d8 e7 bb
       -0.018471062 -0.0056871558 -0.004248405 -0.0070754015
000200 4c 41 ae 3b d4 26 26 bc 29 19 19 bc 57 82 c2 bb
       0.0053178426 -0.010141093 -0.009344378 -0.005935948
000210 a1 38 0b 3c 42 70 74 bc bb 14 db 3b 23 4b c4 3b
       0.008497388 -0.0149193425 0.006685821 0.0059904023
000220 8d ba 81 b9 14 a8 ac 3b f3 50 42 3b 50 2a f8 3b
       -0.00024743789 0.00526906 0.00296503 0.0075734034
000230 65 57 69 ba 61 25 bf ba 22 b5 5b 3b 1c 17 28 bb
       -0.00089012674 -0.0014583283 0.0033524712 -0.002564854
000240 77 8a 1b bb 5f fd 1d 3b 03 99 18 bb 3b cd 63 bb
       -0.0023733655 0.002410732 -0.0023284561 -0.0034759778
000250 6d 74 53 bc 4a af 5d 3b dc 69 8e 3b 77 3f 97 3b
       -0.012906176 0.0033826404 0.0043461155 0.00461572
000260 3c 48 0b 3a 8c ff 89 bb a9 74 40 3a 85 af da 3b
       0.0005313193 -0.0042113718 0.00073416025 0.0066737556
000270 9f 47 2c 3b fb f7 fb 39 df 78 71 bb 3d fa 4f b9
       0.0026287807 0.0004805921 -0.0036845726 -0.0001983428
000280 17 40 f3 3b e0 5e 14 bb a3 87 f3 bb 3f 8f 2a 3b
       0.0074234116 -0.0022639558 -0.0074319406 0.0026025323
000290 d8 98 41 b9 a8 ca 51 3b 5d 87 0a 3c e5 f2 78 bb
       -0.00018462853 0.0032011662 0.008455125 -0.0037986573
0002a0 88 54 8a 3b 86 88 09 3c b5 c9 27 ba 5b 1f 4d 3b
       0.0042215027 0.008394366 -0.0006400601 0.0031299207
0002b0 6c be b0 3b da 16 7d bb 59 5a 1f 3c 17 62 6e 3b
       0.005393794 -0.0038618357 0.00972613 0.0036374384
0002c0 1a fc de bb 43 2f 09 bc 1d 48 f4 ba bd d3 7e bb
       -0.006804955 -0.0083730845 -0.0018637214 -0.003888353
0002d0 fb da d1 bb 5a e7 76 ba 88 42 e1 b9 fd cb 68 3b
       -0.0064042783 -0.00094186293 -0.00042964914 0.0035521977
0002e0 e6 2e 2f bc 8c d3 3c 3b b3 97 e8 3a c2 9f e7 bb
       -0.010692334 0.0028812615 0.0017745405 -0.007068605
0002f0 24 94 06 b6 2a b5 ae bb 63 9f 17 3b 0a 54 a1 bb
       -2.0053785e-06 -0.005331655 0.0023135773 -0.0049233483
000300 63 a1 d0 b9 0d 80 e5 bb 52 0d f2 ba d1 97 04 ba
       -0.00039793094 -0.0070037902 -0.0018467105 -0.0005058023
000310 52 43 01 3c 78 58 00 3c a3 f9 aa bb c8 ca 7b 3a
       0.007889586 0.007833593 -0.0052177473 0.0009605107
000320 1b fd 0c bc 65 a3 f9 3b 36 bc 01 3c 42 09 81 b9
       -0.008605267 0.007618355 0.007918408 -0.00024611695
000330 5f 03 8c 3c 68 a2 68 ba ad f0 6e bb db be bd bb
       0.017091451 -0.0008874298 -0.0036459372 -0.005790574
000340 b4 af 84 ba 63 94 3d 3a 72 3d 8e bb 90 c4 7f 3c
       -0.0010123164 0.0007231889 -0.004340821 0.015610829
000350 d7 27 08 bb 77 40 71 3b c7 48 fc bb c8 51 a5 3a
       -0.00207757 0.0036812106 -0.0076991054 0.0012612874
000360 85 a3 57 b9 3f 49 93 bb 1b 23 ca 3b 35 29 da bb
       -0.00020564914 -0.0044948156 0.0061687357 -0.0066577443
000370 d3 0f f0 bb 97 cb d0 bb f5 c7 40 3b 2c 18 b1 3b
       -0.007326105 -0.006371926 0.0029416059 0.005404493
000380 5c 61 1f 3b e6 bd bf 38 72 d4 4f b9 4a b1 19 3b
       0.0024319505 9.142961e-05 -0.000198202 0.002345162
000390 ff 83 cf bb 00 ba 38 bb d2 dc 07 3c 40 b5 b3 bb
       -0.006332874 -0.0028187037 0.008292394 -0.005484253
0003a0 6b 22 2e 3c 65 8b c5 bb 74 fa 02 bc d6 a2 09 bc
       0.010628323 -0.00602858 -0.007994283 -0.0084006395
0003b0 ea 52 2a 3b b2 ff cc bb a3 76 48 3b 42 b6 78 3b
       0.0025989362 -0.006256067 0.003058829 0.003795043
0003c0 7e 0f 33 3a 9f cf 4a ba 24 ca 2d 3c b6 13 90 3b
       0.00068306166 -0.00077366264 0.010607276 0.004396881
0003d0 8f a3 2c bc e7 5a eb 39 01 47 08 bc 59 3b 9c bb
       -0.010537042 0.0004489042 -0.00831771 -0.004767817
0003e0 59 21 1f 3c 8d 4c 7e bb eb 26 da 3a 85 ae 5a 3b
       0.009712541 -0.0038802952 0.0016643679 0.0033368182
0003f0 1b 15 f8 3b a7 9a 01 bb 81 83 48 3a b3 95 1a bb
       0.0075708753 -0.0019776018 0.000764899 -0.0023587763

action_model._discrete_distribution.branches.0.bias f4 [3]
000000 00 00 00 00 00 00 00 00 00 00 00 00
       0.0 0.0 0.0

action_model._discrete_distribution.branches.1.weight f4 [3, 256]
000000 cd c6 79 3b 6c d7 8d 3b 47 fd 32 3b 78 ef 66 bb
       0.003811288 0.004328659 0.002731161 -0.003523795
000010 51 6c 29 bc 9b db 16 bb 7d de dd bb fd 2c 4b bc
       -0.010340766 -0.0023019079 -0.0067709074 -0.012400863
000020 20 24 bb bb 0f 2b 24 bb 9f 3c 50 3c ed c7 51 b9
       -0.0057110935 -0.002505008 0.012709766 -0.00020006271
000030 fb 7d 7c 3b 12 ed 64 bb 72 c9 01 3c 6b 37 fd bb
       0.0038527239 -0.0034931344 0.007921563 -0.0077275536
000040 e0 1a 83 3c 78 f6 0b b9 a2 5c 6c bc 7e 09 02 3c
       0.016004026 -0.0001334789 -0.014426382 0.007936833
000050 27 55 58 3c 8b 46 fe bb 00 b7 0d 3c 16 d8 c4 3b
       0.013203896 -0.007759874 0.008649588 0.0060072048
000060 0a 35 1e 3c 58 4e 71 3b 1b 6c d1 bb fc f3 05 3c
       0.0096562 0.0036820378 -0.006391061 0.008175846
000070 03 af 5e 3b 5a 8f d2 3b c3 4a a1 bb 47 9c 31 3c
       0.0033978827 0.0064257802 -0.0049222424 0.010840482
000080 5d 5b 67 bc 6f 69 57 3b 77 fa bd bb ab b0 25 bb
       -0.014120904 0.003286924 -0.00579768 -0.0025282304
000090 9c ba 3b bb eb 30 2a bb 3a d9 d0 39 2b 34 b2 bb
       -0.0028645163 -0.0025969099 0.00039834698 -0.005438348
0000a0 da 92 67 3b 60 cc 99 bb 7a 68 11 3a b3 89 8d ba
       0.0035335333 -0.004693553 0.0005546879 -0.0010798484
0000b0 da d1 fa 3b a5 96 d8 bb a3 80 8a bb 97 e4 cd 3b
       0.007654411 -0.006609755 -0.0042267605 0.0062833535
0000c0 97 33 21 bb 93 a1 cf 3b 07 17 82 bc eb dd 4c bc
       -0.00245974 0.0063364 -0.01588012 -0.012504081
0000d0 c4 d9 49 3b 9b 8b 94 bb fa 1f c7 3b 58 96 95 3b
       0.0030799964 -0.004533244 0.00607681 0.0045650415
0000e0 8a 1d d0 3b 07 9c 10 bc b0 9e fe bb 30 f8 cc bb
       0.0063511776 -0.008826262 -0.007770382 -0.006255172
0000f0 88 04 c0 3a 40 c0 3d 3c 2d 0b f5 b9 97 ca 66 ba
       0.0014649788 0.0115814805 -0.00046738368 -0.0008803992
000100 96 a6 ab bb 5c 4f bf 3b 87 5f 10 bc b1 1f 87 3a
       -0.0052383645 0.005838318 -0.008811838 0.0010309127
000110 bc ea bd 3a cc dd 4b 3b c9 88 a2 3b 58 f6 8e bb
       0.0014489512 0.0031107543 0.0049601537 -0.0043628626
000120 47 a9 78 bb 8d 6d 60 3a 9e 6e 22 bb a7 b6 fc 3b
       -0.0037942694 0.0008561246 -0.0024785171 0.0077122035
000130 5b dc aa b9 4f e1 3a bb 43 dc b4 bb ef 78 8b 3b
       -0.00032589104 -0.0028515642 -0.0055194213 0.0042563598
000140 6b 14 82 3b 70 b3 1a bc 97 d8 c3 bb 17 60 fe 3b
       0.003969719 -0.009442195 -0.0059767473 0.0077629196
000150 53 6e 25 bb 69 7e 0f 3c 2d 8f 05 bc 0e bc a2 3b
       -0.002524276 0.008758166 -0.008151812 0.0049662655
000160 4b f4 53 bc 3b 0e 0c bb 47 c9 ae 3b c3 15 f7 3b
       -0.012936662 -0.0021370787 0.0053340527 0.007540436
000170 35 b9 da 3b 83 eb 1d bb 4f b2 be bb bc 60 89 3a
       0.0066749104 -0.0024096675 -0.005819596 0.00104811
000180 47 07 75 3b 37 91 b6 3a 67 25 ca 3a d7 8c 8b 3b
       0.003738837 0.0013928775 0.0015422524 0.004258733
000190 2c ed a4 b9 ee dd 3c 3b 3b 82 92 3b 96 bb 21 bc
       -0.00031457224 0.0028818804 0.004471091 -0.009871384
0001a0 ca 49 71 ba 44 47 cc bb ba 6b ee ba 9b 6f 13 3b
       -0.0009204416 -0.0062340815 -0.0018190064 0.0022496942
0001b0 3f 9f a7 bb 77 30 1a 3c 87 5c 11 3a b8 3f dc 3a
       -0.005115419 0.009410969 0.00055450987 0.0016803658
0001c0 63 a2 ae 3b 07 33 8d bb ed 91 14 3b f6 32 02 bc
       0.0053294166 -0.0043090614 0.0022669986 -0.00794672
0001d0 1c 1c 2d bc 03 5a a4 3a 15 41 82 3b 82 4c de bb
       -0.010565784 0.0012539033 0.0039750435 -0.006784023
0001e0 85 64 42 bb 09 2e 38 bb 07 04 c4 bb 1b 89 91 3b
       -0.0029661965 -0.002810361 -0.0059819254 0.004441393
0001f0 1a 3c 8c 39 48 e6 90 bb 73 e9 80 3b 53 e9 57 3b
       0.0002674766 -0.004421983 0.0039340793 0.0032945469
000200 7d cc e8 3b ad 20 95 bb 42 56 50 bb 3b b7 06 bc
       0.007104455 -0.0045510144 -0.0031789695 -0.0082223965
000210 0b f6 5b bb c3 cc 49 bb 03 7d 41 3a a8 06 73 3a
       -0.00335634 -0.0030792214 0.0007380994 0.0009270706
000220 53 e2 7f bb e2 7e 77 b9 33 14 e8 ba b2 de 59 3c
       -0.0039044812 -0.00023603023 -0.0017706215 0.013297724
000230 dd 79 7b bb 8a 78 12 3c ea 57 78 3b 4b 68 0e bc
       -0.0038372197 0.008939872 0.0037894198 -0.008691858
000240 d2 85 7b 3b bf e4 ca bb 63 f7 8b 3b df 58 7f 3c
       0.0038379324 -0.0061918194 0.004271434 0.015585153
000250 0a f7 f7 3b b0 eb 37 3b f3 d8 ce 39 39 11 3e bb
       0.007567291 0.0028064065 0.00039453022 -0.0029001965
000260 18 b7 eb 3a bd 6c aa ba 9f 86 c4 ba 48 fe cd 3b
       0.0017983643 -0.0013002377 -0.0014993733 0.006286416
000270 64 6f b7 3b 80 c0 88 ba f3 1f 9f bb 16 90 0b bc
       0.0055979956 -0.0010433346 -0.0048561036 -0.0085182395
000280 38 23 64 bc 7b 08 c5 bb 78 6b 95 3b 19 e3 a6 39
       -0.013924412 -0.006012974 0.0045599304 0.00031831188
000290 7f c4 89 bb 3a ed 16 bc 07 de 4a bb b5 e8 b9 3b
       -0.0042043324 -0.009211833 -0.0030955093 0.005673493
0002a0 63 3f fb 3b 3f c4 02 bb 3f fd 61 3c 84 5f 24 bb
       0.0076674684 -0.0019953398 0.013793289 -0.0025081346
0002b0 07 75 6b bb 38 d8 19 bb 25 a0 2e 3b b6 5f 43 ba
       -0.0035927908 -0.0023474824 0.0026645747 -0.0007452922
0002c0 6c a2 20 bb e6 d1 96 3b eb 79 e8 bb 45 71 0b bb
       -0.0024510873 0.0046026586 -0.007094612 -0.002127723
0002d0 37 5b 94 3b da fa 71 ba 41 2e 03 3b 88 4f 79 bc
       0.004527475 -0.00092308 0.0020016583 -0.015216716
0002e0 2f a0 15 bc ae b2 b5 3b 08 63 92 3b a1 d2 83 3b
       -0.009132429 0.005544982 0.004467372 0.0040229117
0002f0 f5 6a 11 bc 05 03 7d bc 52 10 ca 3b 48 60 6a 3a
       -0.008875598 -0.015442614 0.0061664963 0.00089407386
000300 17 88 c4 bb 28 50 30 3c 4a 61 e3 bb b8 b8 4f 3a
       -0.0059976685 0.010761298 -0.006939088 0.00079239486
000310 b7 1a 5d 3c d6 64 bb 3a 03 c0 21 bb f3 4f b8 3b
       0.013495139 0.0014297019 -0.0024681098 0.005624765
000320 8d 1d a5 bb ab ef 03 3c a3 c0 30 bb 57 26 34 3c
       -0.005038923 0.008052747 -0.002697029 0.010995469
000330 1f 40 19 bc 17 5a a6 3a 52 77 08 bc 08 a8 14 3b
       -0.009353667 0.0012691644 -0.008329229 0.0022683162
000340 17 eb 29 3c 19 7d 36 bb 85 bd ca 3b ba 50 48 bc
       0.010370991 -0.002784556 0.0061871433 -0.012226278
000350 8a 85 71 3c 58 50 14 3c c5 71 67 3b 35 67 9b bb
       0.014741311 0.009052359 0.0035315615 -0.004742528
000360 4d f1 8f 3c f5 d4 a5 bb f0 3f da 3b e8 7b cf ba
       0.017571116 -0.005060787 0.006660454 -0.0015829774
000370 6a dc a4 b9 07 eb b9 bb 57 08 92 3b dc 89 80 3c
       -0.0003144474 -0.0056737694 0.0044565606 0.015690736
000380 2c 06 86 bb 03 5a fe bb 59 48 49 bb 11 18 05 3b
       -0.004090091 -0.007762195 -0.0030713289 0.0020308534
000390 d7 78 61 bb 93 73 fa ba cb 44 a5 bb 26 b3 28 3c
       -0.0034404302 -0.001910793 -0.005043601 0.010296619
0003a0 6c fe 38 3a 9f d8 b2 3b 40 0e ad 3c dd ac 16 b5
       0.0007056955 0.005457952 0.021124959 -5.6130904e-07
0003b0 d5 51 fb 3a e6 fc 8f bb 8b 17 a1 3b 9f 24 a6 bb
       0.0019174168 -0.0043941615 0.0049161366 -0.0050702835
0003c0 8f 4e 70 3b 05 95 e7 bb 2b 05 a1 bb 4b 8f b4 3b
       0.0036667918 -0.007067325 -0.004913946 0.005510246
0003d0 12 41 ae bb fb c2 bd bb b3 2b 6c 3a 65 94 87 bb
       -0.0053178156 -0.0057910657 0.0009009197 -0.004137563
0003e0 72 9b df b9 1f 84 8d 3a 77 e3 c2 bb 8b a5 a3 b9
       -0.0004264969 0.0010796821 -0.005947526 -0.00031213122
0003f0 9a 48 86 3b 70 ee bc bb 7a 24 19 3b 47 b0 ae 3a
       0.0040980102 -0.0057657287 0.002336769 0.0013327681

action_model._discrete_distribution.branches.1.bias f4 [3]
000000 00 00 00 00 00 00 00 00 00 00 00 00
       0.0 0.0 0.0

action_model._discrete_distribution.branches.2.weight f4 [3, 256]
000000 77 6a 07 39 8a 27 ea bb 3f 1d f4 b9 d3 83 18 3c
       0.00012914265 -0.0071458267 -0.00046561097 0.009308773
000010 ee bd 20 3b a7 33 d1 ba 2e 10 47 3c fc ec a3 bb
       0.002452727 -0.0015960828 0.012149854 -0.005002616
000020 c5 e2 d2 3b 56 7a b1 bb 77 3b 4b ba e3 3f 37 bb
       0.0064357244 -0.005416195 -0.00077526964 -0.0027961663
000030 42 e1 75 3a 36 ad 12 bb 8e 2d 82 3a 10 00 19 bc
       0.00093795743 -0.0022381074 0.0009931789 -0.009338394
000040 63 1a 7e 38 e7 90 75 bc ce 8e ac 3b ba 2e 15 3c
       6.0582894e-05 -0.014988161 0.005266047 0.009105379
000050 68 b4 53 3b 09 86 09 bc 05 8c c2 bb a6 0f b5 3b
       0.0032303575 -0.008393773 -0.005937102 0.005525547
000060 1b 96 4c 3c c0 44 f9 39 0a 1c cf bb 73 27 76 3c
       0.01248696 0.00047544204 -0.006320481 0.015024054
000070 23 e4 7b 3b a4 df a0 3a 6b c0 97 bb 37 b1 dc 3b
       0.003843554 0.0012273681 -0.0046310923 0.006734993
000080 e0 3c 46 3c 5c 5e bd bb 01 6a ad 3b 88 97 5b bc
       0.012099475 -0.005779071 0.0052921777 -0.013402827
000090 ec 25 18 3a 6f a8 00 3c 62 3b 98 ba 7f 47 1c bb
       0.00058039906 0.007852658 -0.0011614377 -0.0023846326
0000a0 f3 ca 9f ba b5 92 f0 3a e8 97 2a 3a df c3 94 3a
       -0.0012191221 0.0018354269 0.0006507621 0.0011349878
0000b0 02 e0 95 3a 5f f6 47 3c fb 9f a6 b8 57 f1 a2 bb
       0.0011434557 0.012204736 -7.9452955e-05 -0.0049726176
0000c0 52 0b 11 3b 99 ab 33 3c 92 5b 36 bb 63 4b 1c 3c
       0.0022131992 0.010966205 -0.0027825576 0.009539458
0000d0 53 a0 ff bb b3 c1 6f ba e3 ae d4 3b a4 61 2d bc
       -0.0078010946 -0.000914599 0.0064905747 -0.010582361
0000e0 d7 49 21 bc 70 ec 61 bb f7 f7 76 bb eb 09 9a bb
       -0.009844265 -0.0034473203 -0.003768442 -0.0047008893
0000f0 80 11 32 bb 16 5d 0a bb a3 52 c6 bb 6a 40 d9 3a
       -0.0027171075 -0.0021112612 -0.0060523315 0.0016574983
000100 62 72 28 bc a0 bc 25 3b 07 ab c8 3b 45 43 91 ba
       -0.010281177 0.0025289431 0.0061239037 -0.001108267
000110 39 64 1f bb bd 3d 61 bb 00 da d7 bb f5 b2 4d 3a
       -0.0024321212 -0.0034369074 -0.006587267 0.0007846796
000120 ed 62 7a 3b e3 23 65 3b 22 f1 1e bc 5b 46 9c 3c
       0.0038205937 0.0034964017 -0.009701045 0.019076517
000130 d1 37 35 3c 38 fb 69 bb a3 35 d9 ba bc 65 04 3c
       0.011060671 -0.0035702717 -0.0016571771 0.008080896
000140 b1 76 12 bb 4f fe 10 3b 98 6e 0d bb cc 91 2c 3c
       -0.0022348578 0.0022124236 -0.0021580812 0.010532808
000150 e4 37 3c bc bd b6 a8 3b 6a 8f 54 bc 0e 17 23 bb
       -0.011487935 0.005148737 -0.012973646 -0.0024885568
000160 e5 b8 6b bb 4f ca 50 bc eb b7 c5 ba dd 01 5e bb
       -0.003596836 -0.012743547 -0.0015084719 -0.0033875622
000170 e4 9d 12 38 18 30 6f 3a 61 fd 39 3c 2d 2f e5 3a
       3.495616e-05 0.0009124293 0.011351914 0.0017485373
000180 8f c0 1e bb 20 99 3e 3c ed 60 1f bc 6c 57 36 bc
       -0.002422366 0.0116331875 -0.009727699 -0.011129241
000190 a0 8f d7 3b b0 be a9 b9 95 e0 5c 3b bf dc 10 3b
       0.0065784007 -0.00032376265 0.0033703197 0.0022104231
0001a0 4f bc 01 3c 03 8c 3c bb 9a 1b 54 bb d9 6f 2d 3b
       0.007918431 -0.0028769977 -0.0032365085 0.0026464371
0001b0 cc 3a 11 bc 97 2e 94 3b 10 c2 ec ba f7 dd 0c bc
       -0.008864116 0.0045221555 -0.0018063206 -0.008597842
0001c0 49 55 8f 3a 1e 01 48 ba 1b c5 b5 3a cf 0e 8a 3b
       0.0010935451 -0.0007629561 0.0013867946 0.004213191
0001d0 3e a2 13 3c d1 3f b3 bb 8f 01 b7 ba c5 d5 d2 3c
       0.0090108495 -0.005470254 -0.0013962256 0.025736699
0001e0 b8 91 3b 3b 89 86 00 3b 21 de 20 bb f0 76 fa bb
       0.002862079 0.001961144 -0.0024546462 -0.007643573
0001f0 98 03 ad 3b de d1 0f bb 79 18 9b 3a c7 05 b6 3a
       0.0052799694 -0.002194516 0.0011832855 0.001388722
000200 14 44 18 3a 17 72 4b 3c f2 03 77 38 17 08 22 bc
       0.0005808484 0.012417338 5.8893063e-05 -0.009889624
000210 44 d9 0a bb d7 d0 19 3c 44 1a 82 3a dd fa da bb
       -0.002118663 0.00938817 0.0009926041 -0.0066827373
000220 df 62 8f bc 05 91 15 3c 82 d2 94 3b 1d 2a 19 bb
       -0.0175032 0.009128814 0.004541696 -0.0023371049
000230 09 9c 4a 3a 4d d5 52 bb 57 ce 5a bb 96 26 10 3c
       0.00077289395 -0.0032170594 -0.0033387148 0.008798262
000240 d6 e7 3b ba 4f 39 72 bb 5d 80 a9 bb 8b 98 25 ba
       -0.000716803 -0.0036960428 -0.005172773 -0.0006316981
000250 22 11 5c bb ab 0b 11 3c 07 fd 60 3b cd 3b 56 3b
       -0.0033579548 0.0088528795 0.0034330504 0.0032689453
000260 2b 81 ce 3b aa 82 72 ba a2 01 63 ba 8d f4 56 3b
       0.006302019 -0.0009251038 -0.0008659606 0.0032799572
000270 6e ed 09 bc cd 87 3c 3b 41 62 ab bb 5f 38 56 ba
       -0.008418424 0.0028767467 -0.0052302186 -0.0008171852
000280 af ad 40 3b af 44 34 bb 2a 36 74 bb f0 1f 10 bc
       0.0029400398 -0.002750676 -0.003726373 -0.008796677
000290 6f b3 03 bc ba a3 65 3b 70 c3 72 3a 73 63 40 bb
       -0.008038386 0.0035040216 0.000926069 -0.0029356151
0002a0 41 2d 04 3b 03 8f 2b bc f2 2c 6e bc 43 14 18 bb
       0.0020168575 -0.010471108 -0.014537083 -0.0023205436
0002b0 fb 19 87 bb 2f 82 a7 bb cc 9c b2 3b 13 97 03 ba
       -0.00412297 -0.0051119546 0.0054508206 -0.0005019765
0002c0 52 9c 89 bb 0f 68 31 bc fe 2c 23 bb 1d 20 f6 bb
       -0.004199543 -0.010828032 -0.0024898644 -0.0075111524
0002d0 55 66 8c 3c 05 c9 58 bb 1b f4 33 3b 5e f7 b1 3b
       0.01713864 -0.0033078801 0.002745873 0.0054311
0002e0 3a 76 8d bb 9b 02 98 3b 83 b5 a9 bb 70 c9 28 3c
       -0.004317072 0.0046389825 -0.0051791086 0.010301933
0002f0 7b 83 9d 3c 57 32 99 3b 93 c5 d9 bb f6 a2 3a 3c
       0.019227734 0.0046751904 -0.006645867 0.011391392
000300 c7 8b 76 bc 89 95 92 3b c7 22 d7 3b e0 01 7a 3b
       -0.015047974 0.0044733924 0.006565425 0.003814809
000310 db 3b c2 bb 77 f1 de bb d3 cd c1 3b bf 8c a6 bb
       -0.0059275455 -0.006803687 0.0059144287 -0.005082696
000320 a0 2f ee ba f5 78 f2 3b f5 69 70 3b 05 4d 13 3c
       -0.0018172152 0.007399673 0.003668425 0.008990531
000330 1a 1d 03 3c 43 19 0e b8 40 08 0c bb ad 52 1f bb
       0.008002544 -3.3878965e-05 -0.0021367222 -0.0024310753
000340 64 90 ba bb 93 6a f1 ba c3 b5 13 bb ab be 74 b9
       -0.0056934822 -0.0018418602 -0.0022538758 -0.00023340683
000350 a1 4e 0a bb db b6 5d 3b 95 d0 74 ba bf c9 80 3a
       -0.0021103995 0.0033830914 -0.00093389425 0.000982575
000360 c1 6c b1 bb 3b ca 31 bc d0 90 19 3c af 81 01 3b
       -0.005414576 -0.010851438 0.009372905 0.0019761135
000370 c3 03 43 3c de 50 03 bc e0 c9 dc 3b 7b 42 d2 bb
       0.011902752 -0.008014886 0.0067379326 -0.0064166165
000380 9a 1d 28 3c 2d b6 0d 3b 1a 51 94 39 27 23 f2 ba
       0.010260964 0.0021623478 0.00028289185 -0.0018473611
000390 65 20 77 3b 11 ea 93 3b e6 be 2b bc d2 72 bd 3a
       0.0037708518 0.004513987 -0.010482525 0.0014453775
0003a0 06 ce 03 3c 4c 0c 3c 3b 21 8e 47 bc 47 2e 0e 3b
       0.008044725 0.0028693853 -0.012179882 0.0021695064
0003b0 b3 18 c6 bb 31 ea bd 3b 0d df 30 3c 70 bd 03 bb
       -0.006045425 0.00579574 0.010795367 -0.0020101927
0003c0 6a 5a 28 bc 37 c6 5e 38 3a b6 a2 b9 f2 ce e0 bb
       -0.010275463 5.3113527e-05 -0.00031034817 -0.0068606073
0003d0 8b 25 87 b9 73 fa d4 bb 1a 5b 09 bb 03 48 c4 3b
       -0.00025777178 -0.0064995824 -0.0020958842 0.00599003
0003e0 ff 68 b7 3a 83 68 a0 ba 96 3c 12 bc 03 31 78 bc
       0.0013993083 -0.0012238178 -0.008925578 -0.015148404
0003f0 9b 34 80 bb fd 64 a5 bb 2c 4d 45 3b 5b 95 bd ba
       -0.003912521 -0.005047439 0.0030105812 -0.0014464067

action_model._discrete_distribution.branches.2.bias f4 [3]
000000 00 00 00 00 00 00 00 00 00 00 00 00
       0.0 0.0 0.0
