Assets/ML-Agents/results/Andrew ML/results/sc_01/SimpleCollector/SimpleCollector-8108309.onnx (onnx, 305000 bytes, 11 tensors)

action_model._discrete_distribution.branches.0.bias f4 [3]
000000 35 a3 27 bd f6 09 84 3d 34 a1 c1 3b
       -0.04092713 0.064472124 0.0059091095

action_model._discrete_distribution.branches.0.weight f4 [3, 256]
000000 4c fc 45 bd a3 7b 96 bd 58 7a bb bc 40 0d 40 bc
       -0.048336312 -0.073478006 -0.022885486 -0.011721909
000010 a3 3c 96 3c 0e 19 3a bd bb d3 23 bd 52 eb 06 3d
       0.01833946 -0.04543405 -0.039996844 0.032939263
000020 d8 e9 03 3d a1 22 30 bd 68 b7 03 3d 54 cb 24 3d
       0.032205433 -0.043001775 0.03215733 0.04023297
000030 b1 b9 c8 3c e2 5e 29 3d f7 3b 05 bd a1 97 b9 bc
       0.024502607 0.041350253 -0.03252789 -0.02265531
000040 4c d7 f8 3c 2d 6d b1 bb 46 81 eb bc 70 8d 8c bc
       0.030376099 -0.005414626 -0.028748166 -0.017157286
000050 33 9d 99 bd 46 23 c8 bc 68 65 dc bc 59 36 1d 3c
       -0.075006865 -0.024430882 -0.026903823 0.009595477
000060 d8 0a 15 3c 8b 6f 29 bd e5 b8 85 3d a0 f1 39 3d
       0.009096824 -0.04136614 0.065294065 0.045396447
000070 6d fe 8d ba de 47 51 3c ae b7 ab 3d bc 84 45 3d
       -0.0010833271 0.012773482 0.083846435 0.04822229
000080 51 7e 88 3c 75 a5 a9 bc 54 31 8f 3b 5f f1 ec 3b
       0.016661795 -0.020708779 0.004369894 0.007230922
000090 d5 da c3 3b df 74 94 bd 09 20 0d 3d a5 17 83 bb
       0.0059770145 -0.07248854 0.03445438 -0.0040006214
0000a0 9d 4c e2 3c 62 d9 11 3d 4c 1d d5 3c 96 41 8c bd
       0.027624423 0.035607703 0.026014946 -0.06848447
0000b0 bd f5 30 bd b2 69 64 bd 37 c7 2a bc fb 71 37 bd
       -0.043203104 -0.05576486 -0.010423473 -0.044786435
0000c0 54 13 1a 3c 71 9b 5c 3c b8 2a 75 bb ef d7 5c bb
       0.009404022 0.0134647945 -0.0037409496 -0.0033698042
0000d0 5f 27 cb bb eb b4 27 3d 9a d1 0b 3d 14 02 02 bd
       -0.0061997618 0.04094402 0.03413544 -0.031740263
0000e0 00 90 cf bc c7 2e 22 3b 6e f3 64 bd e8 ce 91 bb
       -0.02533722 0.002474712 -0.055896215 -0.004449714
0000f0 db 1d bd bc 4a 96 5d bd 4d 9b 0a 3d 44 31 8a bb
       -0.023085525 -0.054098405 0.033839513 -0.0042172987
000100 72 95 8b 3a f2 71 8b bc fd 37 30 bd cf 98 bb bb
       0.0010649397 -0.017022107 -0.043022145 -0.0057250033
000110 a4 18 33 bd d6 ed c2 bb b6 79 51 bd 9c d6 18 3d
       -0.04372467 -0.0059487624 -0.051141463 0.037314042
000120 5b 00 73 3c c8 a4 b4 3d 66 c8 30 3c 8e 5e 3f bc
       0.014831628 0.08820492 0.010789966 -0.011680258
000130 66 0c a6 3d 11 27 6d bd 34 55 d4 bc 0f cc c7 bd
       0.081078336 -0.057898585 -0.025919534 -0.09755718
000140 10 4c 92 3d 1b 2f 81 3d ac be 9c bd 97 37 54 bd
       0.07143414 0.06307813 -0.07653555 -0.051810827
000150 dd 2e 5d 3d cc 7b aa bc ae d2 ce bc c7 b0 55 3d
       0.05399977 -0.020810984 -0.025246944 0.05217054
000160 06 8b 65 bc f5 6f a0 bb d7 f2 c0 bc 62 6f 3f bc
       -0.014010197 -0.004896159 -0.023553295 -0.011684271
000170 d9 3a a4 bd 0c f1 1d bd a5 82 98 bc e3 31 b9 bc
       -0.08019037 -0.03855996 -0.018616984 -0.022606796
000180 35 f2 52 bd fe f0 3a bd 90 ef f5 3c 82 ac 14 bc
       -0.051500518 -0.045639984 0.030021459 -0.009074332
000190 2b 25 c9 bc 5a 76 31 3c b9 96 0c bd aa 3a 04 bd
       -0.024553856 0.01083144 -0.034323428 -0.03228251
0001a0 23 da 2a 3d b2 10 32 bc 29 96 73 3d 28 37 00 3c
       0.041711938 -0.010868238 0.059469376 0.00782565
0001b0 37 a0 e0 3c 81 40 96 bb e9 f4 93 bc 77 10 6c 3d
       0.027420146 -0.004585326 -0.018061118 0.05763289
0001c0 49 10 7d 3d b4 ff c9 3c 9f f8 89 bc 27 19 94 bd
       0.06178311 0.024658062 -0.016842185 -0.0723136
0001d0 6c 8e 1e bc 6e 28 26 ba b8 14 8b bd e7 d7 9e bc
       -0.009677511 -0.0006338422 -0.06791061 -0.01939006
0001e0 11 43 1f 3b 2e dd a1 bd 8f d7 26 bd 59 c3 28 bd
       0.002430145 -0.07903515 -0.040732916 -0.041201923
0001f0 d3 d1 c9 3d 87 7e 2d 3d 57 e2 d6 3c 12 45 4d 3a
       0.09854474 0.042356994 0.026230974 0.00078304217
000200 77 d0 15 bd e5 e0 9e 3c 19 9b 51 3d 06 4c 25 3d
       -0.03657576 0.019394347 0.051173303 0.040355705
000210 85 18 01 bd df 4e 06 3d 23 39 a4 bc 3a e3 0e bd
       -0.031517524 0.03279006 -0.020046776 -0.03488467
000220 79 9b ac bc cf d0 b1 bc 93 9d 13 3c d5 eb b6 3c
       -0.021070229 -0.021706013 0.009009737 0.02232925
000230 9b 90 74 bc 2d 87 64 bd 07 83 6c 3d a7 0e ce 3b
       -0.014927055 -0.055792976 0.057742145 0.006288368
000240 58 1d 80 3d 65 e7 a9 bc b3 f0 db bc 51 8e 21 bd
       0.06255597 -0.02074022 -0.026848173 -0.039442364
000250 45 07 a1 bd 9f 8d a5 3c e0 23 27 3d c3 b1 f0 ba
       -0.07862715 0.020209132 0.040805697 -0.0018363524
000260 b5 78 ba bb 56 50 0c bd 5d 4d fd bc 87 f7 08 bd
       -0.005690659 -0.0342563 -0.030920679 -0.033439185
000270 8d 99 98 bc 13 ea 86 3c 56 9f b1 3c 60 7e 9b 3c
       -0.018627906 0.016469037 0.021682423 0.018981159
000280 3e 5e 03 bd d1 fd d4 3c 82 29 6d ba c0 ca 7d 3d
       -0.0320723 0.025999935 -0.00090470177 0.061960936
000290 a3 3d 2e 3d 03 49 51 bd 08 98 47 bd b4 fb 9a bc
       0.04253925 -0.05109502 -0.048728973 -0.01891885
0002a0 e7 2f 23 3d 84 7f ce bb 5b 7e a5 3d d2 33 ed 3b
       0.039840605 -0.006301822 0.08080741 0.0072388435
0002b0 57 a5 90 3c b1 19 5a 3d 74 16 e9 bc 7f 19 45 3d
       0.017656965 0.053247157 -0.02845309 0.048120018
0002c0 54 ef 89 3c 8f ef 9c 3b c0 18 01 bd 17 17 0b bd
       0.016837753 0.0047893 -0.031517744 -0.033957567
0002d0 1b 24 b3 bd fd fd ad bc 1c 2f 91 3d 7b 39 a8 3b
       -0.08747121 -0.021239275 0.070890635 0.0051338053
0002e0 41 66 16 bd f8 3f 9b bb e6 d2 b4 bb d7 76 8b 3d
       -0.03671861 -0.0047378503 -0.005518305 0.06809776
0002f0 41 0b b2 3c e2 95 ad bd 7a 26 1d bd cc ce 38 bd
       0.021733882 -0.084758535 -0.038366772 -0.045119092
000300 0b a9 e0 3c 4b 8e 06 3d 9a 73 a5 bd 99 dc 0a bd
       0.027424356 0.032850545 -0.0807869 -0.033901785
000310 41 95 29 bd 9a ed bb bc 3d 80 a6 bd a1 6a 4e bc
       -0.041402105 -0.022940446 -0.08129928 -0.0125986645
000320 5b 1d fd 3c 82 26 cc bc f8 c8 00 3d 5a c0 80 bc
       0.030897787 -0.024920706 0.03144166 -0.01571672
000330 46 ee 1c bd c1 03 c1 bc c9 98 b8 bc aa 55 b4 bd
       -0.038313173 -0.02356136 -0.022533791 -0.088054016
000340 b3 59 2d bb 5f a0 16 bd bc de a8 bd 63 a8 ac 3b
       -0.002645117 -0.036774036 -0.08245608 0.0052690967
000350 81 b1 b0 bd 77 44 c4 bc 18 72 a3 3c 2c 43 ab bc
       -0.08627606 -0.023958428 0.019951865 -0.020906053
000360 5c fa bd 3b 85 44 8e bc 55 0f 4a 3d 92 19 40 bc
       0.0057976674 -0.017366657 0.049331028 -0.011724846
000370 55 64 2f bc 49 87 a1 bc 4a bc 34 3d 53 21 b6 bd
       -0.010705073 -0.01971783 0.04412488 -0.08893075
000380 f0 62 8d 3d 3d 8f a3 3c d8 53 c4 3c d9 85 f0 3b
       0.069036365 0.019965762 0.023965761 0.0073401746
000390 62 d6 03 3d 2f fd 04 3d 56 d1 28 3d 4d 13 b0 3d
       0.032186873 0.032468017 0.041215263 0.08597431
0003a0 04 fe de 3c dc 6c 12 3b 44 b6 01 3c 77 72 dc bb
       0.027220733 0.0022342717 0.007916991 -0.0067275125
0003b0 93 56 09 bd ab ae 16 3d 7c ba 2f bc 80 12 77 bd
       -0.03352983 0.03678767 -0.010725614 -0.060320377
0003c0 cd 6b b6 bd cb 7e 02 3c 25 a3 17 3d 06 2c ad bc
       -0.0890728 0.0079648 0.03702082 -0.021139156
0003d0 a7 e0 6a bb c1 49 7c bc 8e 35 96 3c a7 44 3e 3d
       -0.003583947 -0.015398444 0.018336084 0.04645219
0003e0 33 48 b2 3c 11 9b 47 bd d3 50 92 3d 58 5e 68 3c
       0.021762943 -0.048731867 0.07144322 0.01418265
0003f0 b8 75 3b bc 58 63 43 3c 05 ab 89 bc 88 80 d2 3c
       -0.011441641 0.011925541 -0.016805181 0.025696054

action_model._discrete_distribution.branches.1.bias f4 [3]
000000 55 11 4a 3d 0d 0d e0 bd 31 2b 76 3d
       0.049332935 -0.10939989 0.060099784

action_model._discrete_distribution.branches.1.weight f4 [3, 256]
000000 56 32 34 3d fd a1 db 3d 50 b5 be 3d 18 74 13 bd
       0.043993317 0.10724256 0.09311926 -0.035999388
000010 4d df f7 3b e9 f0 00 3d f7 58 03 3e 9f 04 06 bd
       0.0075644613 0.03147975 0.12826906 -0.03271925
000020 be 70 92 bd 50 03 84 bc 48 dc 06 3d db dd 10 bc
       -0.0715041 -0.01611486 0.03292492 -0.008841957
000030 92 ea 46 3b 03 f1 81 bd c6 c1 cb bc 32 c3 92 3c
       0.0030352217 -0.063447975 -0.024872672 0.017915342
000040 50 f1 0c 3d 94 fb 65 3d 8a 76 24 3d c5 fd 9e bd
       0.03440982 0.056148127 0.04015211 -0.077632464
000050 e6 6c 5b bd c3 66 01 bd 22 38 25 bd b0 5c 95 3c
       -0.05357065 -0.03159214 -0.040336736 0.018232673
000060 aa c1 15 bd 6a 56 c7 3a df fe 08 3d ca 13 bc bd
       -0.036561646 0.0015208249 0.03344619 -0.09183462
000070 e9 62 5f bd c4 d5 48 3d 56 94 32 3c 13 ac 73 3c
       -0.054537687 0.049031988 0.010899624 0.014872569
000080 45 47 8b bc 98 16 93 3d 1a bb 49 bb a0 13 25 bc
       -0.017001757 0.07182044 -0.0030781687 -0.01007548
000090 e3 1f 6f 3d cf 72 11 3e a0 43 45 bc c1 15 bd bb
       0.05838002 0.14203952 -0.012040049 -0.0057704155
0000a0 41 26 17 bd cb 61 a8 bc 75 9f 08 bd 49 8e e0 3d
       -0.036901716 -0.020554444 -0.033355195 0.10964639
0000b0 29 96 64 3d d2 09 41 3e 27 ba fc 3c 97 ea cd bd
       0.055807266 0.18851402 0.030850483 -0.1005451
0000c0 e6 cc 6e bd c9 5a 29 3e 7d ab d4 3d 26 2d 1d be
       -0.058300875 0.16538538 0.10384271 -0.15349254
0000d0 0f 5f 95 3d 33 21 27 3d 5e e0 70 bc 33 3d bd bc
       0.072935216 0.040803146 -0.014701931 -0.023100471
0000e0 22 0f e8 bd 17 84 45 bd 3a cc 97 3c 77 a5 f5 bc
       -0.11331011 -0.048221674 0.01853 -0.029986126
0000f0 35 07 ac bd 01 5a 9b 3c fe 4a 53 bb 93 71 83 bc
       -0.08399812 0.018963816 -0.0032240744 -0.016045367
000100 54 89 2b 3d a1 6c ff 3c fa 6c 31 3e 4b 9f d9 bc
       0.041879013 0.031179728 0.17326728 -0.026565215
000110 8a 58 fa 3d a1 c7 d0 3c 48 a5 ac 3b 6f d8 6d bc
       0.12223919 0.025485815 0.0052687265 -0.014516934
000120 3d 92 49 bd 99 09 60 3c 00 d3 dd 3c a7 7a c5 3b
       -0.04921173 0.013674163 0.027078152 0.006026584
000130 eb 32 e6 3c 9b 32 6c bd e1 f6 2e bd d7 bc 8a 3d
       0.028100451 -0.05766545 -0.04271591 0.067742996
000140 bc 95 cf bc 7b 28 bf 3c fc 01 b9 3d c9 83 b5 bc
       -0.025339954 0.023334732 0.090335816 -0.022157567
000150 26 8c 8b 3c 4d c7 b3 3b 70 ae 84 bd 40 7c 10 3c
       0.017034601 0.005486405 -0.06478584 0.008818686
000160 6e 4c 11 bd 07 17 13 3e 37 eb 40 3d 91 68 66 bc
       -0.03547328 0.14364253 0.04709932 -0.0140630165
000170 76 76 b2 3d 28 7d 95 bd b3 3f 92 3c 03 ad f6 bd
       0.08714001 -0.07299262 0.01785264 -0.12044718
000180 be 38 68 3d b1 1d 98 bd 82 a9 c7 bc 00 48 66 3d
       0.05669474 -0.07427538 -0.02437282 0.05622101
000190 32 cb 3a 3d 50 f9 82 bd 58 8c 3c 3d 40 c5 d5 3d
       0.04560394 -0.06395209 0.04603228 0.10438013
0001a0 ba 1b 16 3c 56 cd 7e bd cc a2 a5 3b 82 b7 8b bb
       0.009161884 -0.062207542 0.0050548073 -0.004263819
0001b0 b5 9b 0d bd de 94 69 bd 7b a5 cb bd ac 72 17 bd
       -0.034572322 -0.057026736 -0.09943672 -0.036974594
0001c0 ed b6 f0 3c 0b b2 59 bd 35 d9 89 bc 34 39 89 3d
       0.0293841 -0.05314831 -0.016827205 0.06700364
0001d0 fc d2 9c bd 34 e0 aa bc 00 9f c8 bd 38 3c bd 3c
       -0.076574296 -0.020858862 -0.09795952 0.023100004
0001e0 43 54 ce bb 10 c8 88 3d ea 69 55 3d 3f d8 a5 bc
       -0.006296666 0.06678784 0.05210296 -0.020244716
0001f0 37 c4 27 3c de ce 14 be 63 d4 1f 3d a0 bb c4 3b
       0.010239652 -0.14532039 0.039020907 0.006003812
000200 f4 bf 22 3e 0f d6 92 3c a8 14 b9 3c 7a 33 71 bd
       0.15893537 0.017924337 0.022592857 -0.058886983
000210 14 bf 3a bd 3d ce 44 bd 29 fd 46 b8 ec e2 b7 bc
       -0.045592383 -0.048048247 -4.7442652e-05 -0.022447072
000220 37 87 ef bc 11 4d c1 3d 31 32 fa 3c fe 37 3a bd
       -0.02923928 0.094385274 0.030541511 -0.045463555
000230 57 33 9b 3b d2 b5 b0 3c 78 02 bd bc 66 00 97 3c
       0.004736345 0.021571074 -0.023072466 0.018432807
000240 fb 87 a3 3b 2f 2a a0 3d a5 cd 3a 3e 94 5d 22 bd
       0.0049905754 0.07820546 0.1824251 -0.039640024
000250 b4 aa c6 3d 77 85 9d 3c b5 40 8a bc 57 20 88 bc
       0.09700528 0.01922868 -0.016876558 -0.016616983
000260 87 32 77 bc 1e 9e cc bc f9 c7 33 3d b5 eb 45 bd
       -0.01508773 -0.02497774 0.04389188 -0.04832049
000270 af 6f 04 bc 99 07 a1 3b 56 bc b7 3c b7 9f 41 bd
       -0.008083268 0.004914236 0.022428673 -0.047271457
000280 8a d1 83 3b 33 12 86 bd 05 e6 4e 3d b8 9d eb 3c
       0.0040227817 -0.0654644 0.050512332 0.02876173
000290 4d ca 36 bd 0c 4f 02 be e8 20 83 3d 51 ee 38 3c
       -0.044626523 -0.12725466 0.06402761 0.011287288
0002a0 6c f6 3c bd 10 d1 77 bc 76 97 9a 3b f7 10 6b 3d
       -0.046133444 -0.015125528 0.0047177626 0.057389226
0002b0 7c 41 9b ba aa c2 58 bd ed e4 d1 bc 79 a4 2d 3b
       -0.0011845077 -0.05292002 -0.025621856 0.0026495738
0002c0 10 6b d9 b9 ee 23 06 3b 94 0d 95 3d df f6 ee 3d
       -0.00041469233 0.0020468193 0.072779804 0.11668181
0002d0 d4 5a 4e 3d a1 1e 05 3d de cc b0 3c 88 3d 96 bc
       0.05037959 0.032499913 0.021582063 -0.018339887
0002e0 a1 84 91 bb 47 54 6e bc 3f 43 2a 3c eb 06 92 3c
       -0.0044408594 -0.0145464605 0.010392009 0.017825564
0002f0 3f f2 53 bc 71 b7 4a bd 47 89 4e 3d f8 10 ad 3d
       -0.012936174 -0.04949135 0.050423887 0.08450502
000300 6f d4 8b bb d0 0d 32 bd 17 c9 9b 3d 4b d6 5b bd
       -0.0042672674 -0.043470204 0.07606714 -0.053671163
000310 f3 36 d9 bc 73 a8 fe bc d6 72 94 bd 68 27 e2 bd
       -0.02651546 -0.031086182 -0.07248466 -0.110426724
000320 f2 7e 91 3c 80 6b 75 bc 01 d6 2a bd 40 e6 fe 3d
       0.017760728 -0.014979243 -0.041707996 0.124462605
000330 c6 33 44 3d f0 77 c2 bb 49 db 26 3d 39 da 9e 3d
       0.047900937 -0.005934708 0.04073647 0.077564664
000340 4e d2 dd bc bd 35 39 3e ee d8 18 3e 6e 4f 84 bd
       -0.02707782 0.18086906 0.14926502 -0.064604625
000350 b1 e7 6c 3c ae 6a 21 3d e4 9c 88 bd 21 1f f8 3c
       0.014459536 0.03940838 -0.066705495 0.03028828
000360 31 3f 9d bc 04 e3 1b 3d dc cc b2 bb 1d 90 f3 ba
       -0.019195171 0.038058296 -0.00545655 -0.0018582378
000370 e4 b8 f1 3a 17 35 61 bd 54 dc b7 3c 89 51 23 3d
       0.0018441943 -0.05498227 0.022443928 0.03987268
000380 e5 2d 6e 3c f9 e8 7c 3c 43 e2 1c bd 3f 59 58 3d
       0.014537309 0.015436404 -0.038301717 0.052819487
000390 5a d7 6f bd 73 12 d6 3b 9f 27 fb 3a 89 c2 eb bc
       -0.058554985 0.006532961 0.0019161588 -0.028779285
0003a0 c2 08 5a 3b 3e 92 5e bc ab 6c 82 3c 72 b1 26 bd
       0.003326938 -0.013584672 0.015920958 -0.04069657
0003b0 c5 13 2f 3c bb 7c 58 bc c0 e8 da 3d 0b 6b 37 3d
       0.010685866 -0.013213332 0.10688925 0.04477982
0003c0 19 f2 23 3e c7 91 4e 3c 86 95 42 bc 80 e0 e6 bc
       0.16010322 0.012607998 -0.0118764695 -0.028183222
0003d0 3e 15 72 bc bb 20 7b bd ff 4f 29 bc 99 d8 e4 bc
       -0.014775572 -0.06131051 -0.010334014 -0.027935313
0003e0 8a 6a ba bc 06 73 5d bd 2e 2f 96 3c df dd 64 bc
       -0.02275588 -0.054064773 0.018333044 -0.013968914
0003f0 31 a4 5d bb fa f4 95 ba 69 b2 88 bd 90 db 48 bd
       -0.003381979 -0.0011440807 -0.06674654 -0.049037516

action_model._discrete_distribution.branches.2.bias f4 [3]
000000 4e 91 c4 3d e2 9d ec bd 41 cb 1d 3d
       0.09598027 -0.11553551 0.038523916

action_model._discrete_distribution.branches.2.weight f4 [3, 256]
000000 a4 85 fa 3b 7f 7d 81 3d 7a 28 4f 3c 07 8e 8c bc
       0.0076453257 0.063227646 0.012643928 -0.017157568
000010 ff 91 67 3c 32 d1 70 3d 1e bc 17 3b a4 64 ed 3c
       0.014133929 0.058793254 0.0023152898 0.028978653
000020 92 f9 0d bb 31 8b 70 bc 51 f4 e1 bc b9 25 0e bd
       -0.0021663648 -0.014681623 -0.02758232 -0.034703944
000030 35 53 5c bd c6 b0 6d bd ef 6a 76 3d 07 7d aa 3c
       -0.05379029 -0.058029912 0.060160574 0.02081157
000040 60 3a 8a bc 43 92 a5 3c e3 da 38 bc 64 d8 71 bd
       -0.016873538 0.020211345 -0.011282655 -0.059044257
000050 78 d9 4c 3d de 0f 49 bc c9 fc 82 3c 25 df df bc
       0.05001208 -0.012271849 0.015989678 -0.027328083
000060 92 19 28 3d a5 40 85 3b 59 f5 a7 3b f1 91 9c bd
       0.04104001 0.004066544 0.0051256833 -0.076450236
000070 54 c7 4f bc 65 a4 b8 3d 42 70 e6 bc 58 f2 46 bd
       -0.012681801 0.09015731 -0.0281297 -0.04857096
000080 fe 48 60 bc 80 34 04 3e a9 27 71 3c 0e 36 9a bc
       -0.013689278 0.12910652 0.014718928 -0.018824603
000090 5d c9 c7 bc a2 61 a5 3c f5 b1 1c bd b1 21 fd bc
       -0.02438801 0.020188157 -0.03825565 -0.030899854
0000a0 b3 eb 7a 3c b2 a2 7d bd cb cc 81 3d ab 28 a7 3d
       0.015314984 -0.061922736 0.06337889 0.08162054
0000b0 08 1d 2a 3a 63 02 a5 3c 1e 81 f5 bb 6c c0 af bb
       0.00064893113 0.02014274 -0.0074921986 -0.0053635146
0000c0 40 8e 50 bd 2f e5 c2 bc 93 8c ef bb e0 a0 e4 bd
       -0.05091691 -0.023790924 -0.007310459 -0.11163497
0000d0 9f ab 6e 3d 55 7c 2f bd 9a 7b 4f bd e2 86 6e 3c
       0.05826914 -0.04284318 -0.050654985 0.014558526
0000e0 14 c8 fa 3b cf b8 8d 3c a6 ce 54 3c 93 ed bd 3c
       0.0076532457 0.017300038 0.012988722 0.023184573
0000f0 52 2f 32 3d fc 77 bf bc 2d ee 96 bd f3 3b ab bc
       0.04350216 -0.023372643 -0.07369647 -0.02090261
000100 79 ca 27 bd 3e c3 06 bd 01 1b 93 3c 09 4c a0 3b
       -0.040964577 -0.03290104 0.017957212 0.0048918766
000110 57 5a b8 3c 3b c0 86 bc b9 44 62 bc 21 be d9 bc
       0.022504015 -0.016449085 -0.01381033 -0.026579918
000120 4c 54 4f 3d e7 a3 51 bd b7 41 e9 ba 70 d7 94 3c
       0.0506175 -0.0511817 -0.0017796074 0.018169135
000130 b6 eb be bc 3e 02 3f bc c6 5a 05 3d 59 86 d8 3c
       -0.023305755 -0.011658249 0.03255727 0.02643125
000140 e5 35 37 bd 92 4d 89 bc 04 b2 87 3d 3a 63 a7 bd
       -0.044729132 -0.016760621 0.06625751 -0.08173223
000150 88 34 8e bd bc ab dd bc 8f e5 b5 bc a3 a6 48 bd
       -0.06943613 -0.027059428 -0.022204189 -0.048987042
000160 5d 9a 46 bd b5 cc 56 3b c0 86 ff 39 2a 8b 4c bd
       -0.048487056 0.0032775823 0.00048737787 -0.049937405
000170 02 26 ed 3c 6e 65 5f 3b b2 aa 18 bb 2c 32 dd 3b
       0.028948788 0.0034087556 -0.0023295102 0.0067503657
000180 02 f8 86 3d 5e 17 68 3b a1 5e 59 3c 15 1f 54 3d
       0.065902725 0.0035414319 0.01326719 0.051787455
000190 fd 82 9e bc bf b9 c4 bc 83 51 0a bc 80 7e 17 3d
       -0.01934957 -0.024014352 -0.0084422855 0.036985874
0001a0 db a2 69 bd d0 9b 7a bd 63 a4 2a bd 01 de 2e bc
       -0.057040077 -0.06118375 -0.041660678 -0.010673047
0001b0 8b 47 97 bd 6a 83 ac bc 16 53 ad bd bd 0d 29 bd
       -0.073866926 -0.021058757 -0.08463113 -0.041272867
0001c0 f7 d8 2e bc b6 88 6a bd d6 00 4c bd 2d cb 99 3d
       -0.010671846 -0.057259284 -0.049805485 0.07509456
0001d0 7f 17 31 39 67 a4 5a 3c 13 fe 9d bb 0f 6b 9d bb
       0.00016888788 0.013344861 -0.004821548 -0.004804022
0001e0 58 3b 8e bc 16 40 c8 3c dc 56 f4 bb 4f 55 fd bb
       -0.017362282 0.024444621 -0.0074566435 -0.007731117
0001f0 14 58 82 bd 7c d4 a9 bd fe a9 4c bd 42 e7 3b bd
       -0.06364456 -0.08292481 -0.049966805 -0.04587484
000200 f6 9e 81 bb c8 6e 85 b9 cd 47 7f 3c 58 94 5e 3d
       -0.003955717 -0.00025450275 0.0155810835 0.05434069
000210 ed b5 eb bb 27 c8 3b 3b 01 91 42 3c f4 36 eb 3c
       -0.007193318 0.0028653236 0.011875392 0.028712727
000220 00 a2 a0 3b dd 90 d3 3c dc 27 25 bc 70 8e b3 bd
       0.0049021244 0.025825912 -0.010080304 -0.08767402
000230 25 c1 b4 bc fe e2 fc 3c 07 11 91 bc da 60 13 bd
       -0.022064755 0.030869957 -0.017708315 -0.035981037
000240 d0 32 71 bd 76 26 77 ba ad f9 43 3b 41 b3 1f 3d
       -0.05888635 -0.00094280334 0.0029903457 0.03898931
000250 82 1b e9 3c 71 8e ba bc 05 79 15 bd c6 1a bc 3c
       0.0284555 -0.022773 -0.036492366 0.022961985
000260 a7 80 a9 bd 0a a2 28 3d 1a b3 23 3c b8 4f a6 3c
       -0.082764916 0.041170157 0.009991432 0.020301685
000270 33 21 0d ba c3 c2 09 bd ed 75 66 3d 04 a7 d8 bc
       -0.000538367 -0.033633005 0.056264807 -0.026446827
000280 ae 5b 34 3c da 46 3f bc 52 4a 58 bd f3 95 97 3c
       0.011008186 -0.011674607 -0.052805252 0.018504119
000290 96 92 69 bd 3d 5b 0b bd 80 e4 f7 b8 0e 67 35 bd
       -0.05702456 -0.03402256 -0.00011820439 -0.044287734
0002a0 91 7a 81 bd 73 5f 50 3c 81 66 83 bd 62 7f 30 bd
       -0.06322206 0.012718069 -0.064160354 -0.04309023
0002b0 e1 7c 58 bc 84 c1 81 bc 08 0e 07 bd b1 3e 54 bd
       -0.013213367 -0.015839346 -0.032972366 -0.0518176
0002c0 80 88 13 bd 42 4b cf bc eb 01 48 3c f7 29 0c 3d
       -0.03601885 -0.02530444 0.0122074885 0.03421971
0002d0 68 79 1e 3e 34 77 68 bc de cc dc bc 6e 19 30 3d
       0.15476 -0.0141885765 -0.026953157 0.042993
0002e0 88 f4 08 bc 9e ee 0c bc f5 70 48 bd 34 00 3c bd
       -0.008359082 -0.008601813 -0.04893585 -0.04589863
0002f0 be bc 4f bd f8 e5 07 bb 5b 28 9a 3c d7 64 8f 3b
       -0.050717108 -0.0020736437 0.018818071 0.0043760347
000300 a9 29 4b 3b d6 f7 48 bd 71 98 58 3d ab c2 e6 bc
       0.0031000173 -0.04906448 0.052879754 -0.028168997
000310 72 a4 25 bd d1 58 64 bd 2c 2c 4e bd 32 75 4a bd
       -0.04044003 -0.055748764 -0.050335094 -0.049428172
000320 d0 32 5d bd 5c 34 3d 3c 17 df d8 bc 95 e5 c2 3c
       -0.054003537 0.011548128 -0.026473565 0.023791114
000330 23 e6 09 3d e9 b3 67 3b 1d 98 f2 3c 4e 62 85 3d
       0.03366674 0.0035355038 0.029613549 0.06512891
000340 7b 42 41 3c 7e 76 ac 3c 2d f2 c0 3c a1 2f c7 bb
       0.011795635 0.021052595 0.023552978 -0.006078676
000350 9a 06 a3 3c 06 c1 b2 3d dc 20 02 bc 68 a7 b3 3c
       0.019900609 0.087282225 -0.007942405 0.021930411
000360 da 12 2d 3b 54 cf 18 3d bc b7 16 bc 82 7d 69 3b
       0.0026408941 0.0373071 -0.009199079 0.0035627787
000370 24 ca cd bd 6d 04 44 bd 05 b8 36 bd a1 1d 49 3e
       -0.10048321 -0.047855783 -0.04460909 0.19640209
000380 68 4a 8a bd ba 25 5d bd 16 43 1e bc f2 29 3c bc
       -0.06752473 -0.053991057 -0.009659549 -0.01148461
000390 04 ba 9e bb 57 88 9c 3b e3 79 98 bc 5a 57 93 bc
       -0.004843952 0.004776995 -0.018612808 -0.017985988
0003a0 18 aa 52 bd 60 b4 5f bd e2 cb d9 bc 99 04 4c 37
       -0.051431745 -0.05461538 -0.026586477 1.2160418e-05
0003b0 e0 02 dd bc 41 68 46 bd 65 e2 62 bc f6 b9 25 3e
       -0.02697891 -0.048439268 -0.013847922 0.1618422
0003c0 88 6f 40 3c 7e c8 90 bd e9 f3 83 bc ce 14 89 3b
       0.011745341 -0.07069491 -0.016107516 0.0041833883
0003d0 29 1d dd bc 22 72 30 3d f1 2c 6f 3a bb de 66 bd
       -0.026991444 0.043077596 0.0009123823 -0.056364756
0003e0 db 6e 34 bd d6 0e 98 bd b1 a5 47 bd 2d bd 70 bd
       -0.044051033 -0.07424705 -0.048742 -0.058774162
0003f0 47 54 8d bc 17 4f 25 b8 ae 64 75 bd a5 15 31 bd
       -0.0172521 -3.9412724e-05 -0.05991047 -0.043233532

discrete_action_output_shape f4 [1, 3]
000000 00 00 40 40 00 00 40 40 00 00 40 40
       3.0 3.0 3.0

network_body._body_endoder.seq_layers.0.bias f4 [256]
000000 95 3c f6 3c 2d f4 87 3c 5e 52 92 bb 28 32 c3 bd
       0.030058185 0.016595924 -0.0044653853 -0.09531051
000010 10 4a 79 3d 43 83 82 3d 5a aa 07 3e c3 3d 5a 3d
       0.060861647 0.063726924 0.13248578 0.053281557
000020 cc d4 23 be 5c 3f 3c bd aa 24 1c bd df 5e f2 bc
       -0.15999144 -0.04595886 -0.038120903 -0.029586254
000030 95 97 b3 bc 89 a0 0d bd 92 1e 0f 3c 39 d5 12 3d
       -0.021922866 -0.034576926 0.008735316 0.035847876
000040 26 db a7 3d 8e 86 65 ba aa 87 b2 bc dc 8b 3d bc
       0.08196096 -0.0008755707 -0.021793205 -0.01156899
000050 e3 85 af bd bc 9d 2a 3d d0 63 4a 3d 9b 2d 83 bc
       -0.08570459 0.041654333 0.049411595 -0.016012957
000060 67 13 f8 3d 5c 0e 4d bd 0f 5c eb bb 6c fe 5b bd
       0.12113076 -0.050062522 -0.007182605 -0.053709432
000070 a4 2d 49 3d ea 4f 18 be 45 16 be bd f7 5a 7d 3c
       0.049115792 -0.14874235 -0.09281591 0.015463582
000080 8e 06 71 bd 15 6a a1 3d 67 68 80 3d 49 b1 82 3d
       -0.05884414 0.07881562 0.06269913 0.06381471
000090 92 aa 85 bc cd a5 5a 3d 8e 73 89 bd 62 62 57 bd
       -0.016316686 0.053380776 -0.067114934 -0.05258406
0000a0 6b 15 70 3c 62 83 81 bd 8a 5d 8a 3c 4b e8 14 3c
       0.014653544 -0.063238874 0.016890306 0.009088586
0000b0 d3 3c 28 bd 47 0e 99 bc e5 d6 b1 3d 87 19 1c bd
       -0.04107363 -0.018683566 0.08683566 -0.038110282
0000c0 c0 3d e7 bc 07 f7 e1 bb 54 46 aa bc 6d fe 9d 3d
       -0.028227687 -0.006895903 -0.020785488 0.077145435
0000d0 7c 22 db 3b 5b b4 df bd f9 3d 10 3c 7c 26 d7 bc
       0.0066874605 -0.10923072 0.008803838 -0.026263468
0000e0 48 1e b8 3c 01 ec 8f bc ac 9e 0c 3d 84 85 b1 3d
       0.022475377 -0.01756859 0.03433101 0.08668044
0000f0 de fe de 3c 67 57 de 3d 70 1f 11 ba e2 04 46 3d
       0.02722114 0.108565144 -0.00055359956 0.0483445
000100 84 a0 4a bc 02 fa 88 3c 14 ec 80 3d cd 72 c9 bc
       -0.0123673715 0.016720776 0.06295028 -0.024590874
000110 d7 de aa bc e7 a3 cb bc 49 a6 89 bc e7 75 9a bb
       -0.020858211 -0.024858428 -0.016802924 -0.004713762
000120 f8 32 ec 3c 1b 5d 2a be 1f 80 3c bd 85 b4 bf bb
       0.028832898 -0.1663708 -0.046020623 -0.005850377
000130 88 d1 7c bc 6f 2f 16 bd 12 19 72 3c c2 86 e0 bb
       -0.0154308155 -0.03666633 0.014776485 -0.006852002
000140 6a c7 06 3a 01 78 a4 3c 0f 47 bd 3c ae 98 1d 3e
       0.00051414093 0.020076754 0.023105172 0.15390274
000150 a3 59 4e bd 75 5c ee bd 30 e7 c9 3d 65 8e 78 3c
       -0.050378453 -0.116387285 0.09858549 0.015170668
000160 aa 95 5d bd 10 4b 9b 3d ff 0c 26 bd 24 00 c6 bc
       -0.05409781 0.075826764 -0.040539738 -0.024169989
000170 13 e1 f2 bb 7c 83 0d 3d 65 30 03 bd fa d3 1d bd
       -0.007412085 0.03454922 -0.032028574 -0.038532235
000180 ca ef 37 bc ca b5 7c bd fa ae 33 bd 71 dc 5f be
       -0.011226604 -0.061696805 -0.043868043 -0.21861435
000190 69 cc bf 3c 19 e6 a7 bb 4d 7b fb 3c e7 0e d7 bc
       0.0234129 -0.0051238653 0.030698443 -0.026252223
0001a0 1a bd af bd 06 83 2c bc 3b a0 21 be e4 72 ca 3b
       -0.0858099 -0.010529285 -0.1578378 0.006178247
0001b0 e4 f7 6d bc 8a 27 3b 3d 25 da 7e bd 6c 49 44 be
       -0.014524434 0.045692004 -0.062219758 -0.19168633
0001c0 60 c7 78 3d e8 35 4a 3d 37 20 04 bd 58 83 51 bd
       0.060737014 0.049367815 -0.032257285 -0.05115065
0001d0 d9 a6 15 bc 40 0b 82 3c 4f f6 1d be 4c c3 36 bd
       -0.009134018 0.015874505 -0.1542599 -0.044619843
0001e0 a3 99 89 3c cc 79 f3 3c 29 3b 1a 3d a8 54 95 bc
       0.016796893 0.029721163 0.037654076 -0.018228844
0001f0 62 ab 80 bc dc 65 6c 3c 1e 18 6c 3c 73 be 47 3d
       -0.015706722 0.014428582 0.014410047 0.04876561
000200 26 11 f6 bc 29 07 11 3d 53 0b 80 3d 10 01 40 3d
       -0.030037474 0.03540722 0.0625216 0.046876013
000210 8f f4 c4 3c ba a9 8d 3d f8 18 0e 3c 78 40 44 bd
       0.024042396 0.069171384 0.008672945 -0.047913045
000220 44 a7 37 bb ce 66 c0 bc d6 12 1d 3d 1b 3a fc bc
       -0.0028023282 -0.023486521 0.03834804 -0.030789426
000230 40 b6 28 3d 9c 48 0e bd 4d de d1 bc f7 cb 88 3c
       0.041189432 -0.034737214 -0.025618697 0.01669882
000240 9e 64 21 bb 89 f5 ce 3c 10 f0 9c 3c bc 8f f0 3c
       -0.0024626623 0.025263565 0.01915744 0.029365413
000250 b4 c6 89 3b 63 94 0d bd 84 43 ef bc 2a 73 fe 3c
       0.0042045955 -0.03456534 -0.029206999 0.031060774
000260 33 78 f8 bb 42 94 08 3d 6d 17 1d 3c 00 e6 dc bd
       -0.0075826882 0.033344515 0.009588105 -0.107860565
000270 05 14 d0 3c 6e 1d dd 3c 2e 96 b0 bb ad ef 85 3c
       0.025400171 0.026991572 -0.0053889966 0.016349638
000280 b7 39 12 bd 83 76 e0 3c 81 a6 44 3d 10 5e 50 be
       -0.035699572 0.02740026 0.048010353 -0.20348382
000290 4f 6f 0d 3d 19 9d e1 bd ce cd 2f bc 50 63 c5 3c
       0.03452998 -0.11016292 -0.01073022 0.024095207
0002a0 7b 87 3d bc 6c a0 9b 3d e6 f6 3a bc 9a 64 a0 3c
       -0.011567946 0.075989574 -0.011411404 0.01957922
0002b0 99 9d 89 3b e0 e8 26 3d a0 bd 9a bc 69 9a e0 3b
       0.0041996953 0.04074943 -0.018889248 0.0068543446
0002c0 35 7f 24 3c 13 e7 0d 3d 7e f3 eb 3b 08 f9 d6 3d
       0.010040094 0.034644198 0.0072006574 0.10496718
0002d0 5d 50 90 3d 50 ad e5 bc 88 9d 21 bc d7 35 23 3c
       0.07046578 -0.028036743 -0.0098642185 0.009961567
0002e0 d0 83 5a bc 7b c5 c4 3d 64 2a 97 bd 5f d7 8d 3d
       -0.013337091 0.09607979 -0.07381132 0.069258444
0002f0 38 77 dc bc 6d 87 f6 bc e4 f9 3c bc d9 e0 db bd
       -0.026912317 -0.030093873 -0.011534188 -0.10736246
000300 94 b5 d7 3c 26 6b 90 3d 0f e4 bb bb 5d 68 40 bd
       0.0263317 0.07051687 -0.005733974 -0.04697453
000310 3b 4a 61 3c 5f af 31 bd 7b 3f 5a 3c bd b1 00 3d
       0.013750608 -0.043380138 0.013320799 0.031419504
000320 3e 4d d9 bc b9 04 e3 bc 1e 30 5d bc 7a 24 b6 3c
       -0.02652609 -0.027712213 -0.013500242 0.02223419
000330 49 7f 9a 3d b7 5c c8 bd 3c 42 66 bc 03 ad 91 bb
       0.07543809 -0.09783309 -0.014053877 -0.0044456734
000340 b9 da b7 3c 5d 2f cf 3b 08 24 a8 bd 9f bb 1e bd
       0.022443162 0.006322785 -0.082099974 -0.03875315
000350 82 5a 98 bd aa 09 c6 3b fe f4 db bb 14 f9 93 3c
       -0.07439138 0.0060436325 -0.006712555 0.018063106
000360 66 12 c1 3c 04 55 b6 bc a3 9c 3a bd a1 a2 ea 3c
       0.023568343 -0.022257335 -0.045559537 0.028642
000370 e5 f7 b4 3d a8 28 30 bd 96 35 65 bd a6 29 07 be
       0.08836345 -0.043007523 -0.055959307 -0.13199481
000380 d1 47 84 3d ba 91 c7 3c 57 75 82 3d 6f b8 ae 3c
       0.064590104 0.02436148 0.06370037 0.02132818
000390 ab 30 29 3c 45 4e 83 bb 77 29 ab bc e1 36 8b bd
       0.010326545 -0.004007133 -0.020893795 -0.06797577
0003a0 cb 8b 6c 3b 26 e8 1e 3d 2c 54 32 3d de 2e 13 bc
       0.0036094065 0.038795613 0.043537304 -0.008983342
0003b0 fd 44 b2 3d 42 04 8f bc 79 1d ad bd 99 7d 18 3c
       0.08704565 -0.017458085 -0.08452887 0.009307289
0003c0 1d 34 4e bd 6b e9 5a bd 95 64 a1 3d 81 d1 e9 3c
       -0.050342668 -0.05344526 0.078805126 0.028542282
0003d0 e0 67 b2 3d e5 b2 82 bd 84 26 6f bd bd 2c 33 bd
       0.08711219 -0.06381778 -0.05838634 -0.043743838
0003e0 55 84 eb bc 57 e4 38 bd 73 d0 96 bc b2 50 88 3d
       -0.028749624 -0.045139637 -0.018409943 0.066560164
0003f0 c6 70 8c 3c 35 ca 02 bd fa 44 57 3d d5 92 90 bc
       0.017143618 -0.03193112 0.052556016 -0.01764814

network_body._body_endoder.seq_layers.0.weight f4 [256, 27]
000000 d3 29 1c bf 93 32 dd 3c 15 19 44 3d d5 01 41 be
       -0.6100132 0.027001655 0.047875483 -0.18848355
000010 a3 17 24 3d 4a 95 e7 3d c6 32 99 3d 3a fd 5a 3c
       0.040061604 0.113077715 0.074803874 0.013366038
000020 b0 19 f0 3e 30 0e a8 3e 57 d8 9f be ab c4 6d be
       0.46894598 0.32823324 -0.31219742 -0.23219554
000030 9b 10 0b 3e 68 d8 85 be 49 b4 97 be 69 61 4a be
       0.13580553 -0.26141667 -0.29629734 -0.19763722
000040 7a 9b 9e 3e 7f d9 42 3d a5 42 46 3e 31 f1 0d 3c
       0.30977994 0.0475707 0.1936136 0.008663462
000050 13 36 78 be 49 0c b4 bd 1e 54 d8 3d 0a 90 db bd
       -0.24239378 -0.08791406 0.10562919 -0.10720833
000060 72 9c 7b 3e 48 bb a7 3e 6c 26 f3 3d 2a d3 8f 3d
       0.24571398 0.32760072 0.11872563 0.07022698
000070 8a 5b 75 3e e3 99 65 bd 5f 1a 64 3e 95 a1 95 3e
       0.239607 -0.05605496 0.22275685 0.2922484
000080 28 65 a0 3e cb 24 c6 3e 9d d6 f3 bd 5e fa 21 3f
       0.31327176 0.38699946 -0.119061686 0.63272655
000090 61 99 d7 bd e6 88 48 be 65 a0 bb 3b 9b b3 13 3e
       -0.105273016 -0.19583473 0.0057259076 0.14423983
0000a0 54 43 24 be 86 7c 03 bd e8 ab 33 3e 69 ca 77 be
       -0.16041309 -0.032101177 0.17546046 -0.24198307
0000b0 d8 64 46 3e 73 49 53 3e fd 73 91 be 89 7d 31 be
       0.19374406 0.20633487 -0.28408805 -0.17333044
0000c0 ba 1e 86 3e dd 0e 80 be 6e 18 75 be d5 9a 13 3e
       0.26195318 -0.2501134 -0.239351 0.14414532
0000d0 d0 f9 d2 bd 2a 7d 0f 3d fb 71 19 be 85 53 bb 3e
       -0.10301554 0.035031475 -0.14984886 0.36587158
0000e0 f2 74 4b 3e 45 12 a8 bc eb aa aa bd 4d 70 17 be
       0.1986883 -0.020516524 -0.08333381 -0.14788933
0000f0 e9 cc 26 3e e4 e0 0c bf e5 d8 a6 3e 5c ef 9d 3d
       0.16289105 -0.55030656 0.32587352 0.0771167
000100 c8 9c 11 be 93 61 1a 3e 26 14 40 3e 5e 09 a5 be
       -0.14219964 0.15076284 0.18757686 -0.3223371
000110 c6 fd 35 be 66 04 f8 3e 8a 20 66 3e 92 2a 56 be
       -0.17772588 0.48440856 0.2247335 -0.20914677
000120 fe bd 2b be 0b 3a 8d be 8d 67 a3 b9 8a 47 c2 3e
       -0.16771695 -0.27583346 -0.00031166934 0.37945205
000130 14 79 44 3e df ae b8 3e f7 ee da be 05 fd b1 3e
       0.19186813 0.36070916 -0.4276044 0.3476335
000140 17 ac c4 bd 0a 31 8c be cd 90 4d 3e 22 71 17 3e
       -0.09603136 -0.27381164 0.20074768 0.1478925
000150 1b bf 9e 3d 33 84 aa be 5b a6 24 be 91 64 a6 3e
       0.07751294 -0.33303985 -0.16079085 0.324986
000160 66 3b 12 be c6 0a 43 3e 75 01 80 3e ca 0b 71 bd
       -0.14280471 0.19047078 0.25001112 -0.058849134
000170 63 55 2a bd d5 f7 bd bc a9 31 1e bd 94 ef 11 3e
       -0.041585337 -0.023189465 -0.03862158 0.14251548
000180 21 de 74 3d 90 aa 3b be 3a 86 4e be 98 2d 76 3d
       0.05978215 -0.18326783 -0.20168391 0.060102075
000190 23 c7 b1 3d 17 66 84 3e c4 f8 83 bb f4 55 de 3d
       0.086805604 0.25859138 -0.004027458 0.10856238
0001a0 de 64 00 3d 17 a1 24 bd f8 ce b1 bd a1 ed 57 3d
       0.031346194 -0.04019269 -0.08682054 0.052716855
0001b0 07 97 a2 3e c4 3d 0d be 4f c8 10 3e e9 7a 43 3f
       0.3175585 -0.13793093 0.14138912 0.7635942
0001c0 d8 9c b2 be eb 84 05 3d a3 cd 27 bb 93 60 18 3e
       -0.34885287 0.032597464 -0.0025604747 0.1488059
0001d0 48 ec 64 be d3 29 da bd 3a e2 db bd bf 20 23 3e
       -0.22355759 -0.106525086 -0.10736509 0.1593046
0001e0 92 5f ff bd 53 42 85 bd 7f 47 ba bc 1a 7b 51 3e
       -0.124694005 -0.06506791 -0.02273917 0.20457116
0001f0 83 0e 75 be d0 24 2e 3d 76 53 8b be cb b7 30 3e
       -0.23931317 0.042515576 -0.27212113 0.17257611
000200 d4 f1 af 3d c1 bc 1e be b2 ca 22 3e 2b e6 fa 3d
       0.08591047 -0.15501691 0.15897635 0.12250932
000210 16 a9 06 3c 0b 15 b8 3d a4 53 48 3d 1a 8f 14 bf
       0.008219024 0.08988389 0.04890789 -0.58030856
000220 13 1c 0a 3e 89 e8 77 3e d9 7c ef bd 41 aa 44 be
       0.13487272 0.24209799 -0.11693735 -0.19205572
000230 99 85 a4 3d 35 84 6a be 67 85 b4 bd 5f 6f fc bd
       0.08033294 -0.22901995 -0.08814507 -0.1232593
000240 75 02 e1 bd 99 86 65 3e c2 16 01 be b5 0f 89 3e
       -0.10986797 0.22414626 -0.12606338 0.26769796
000250 7b 99 c2 bd a8 fc a8 be 19 65 8b 3d 6d 04 ca 3d
       -0.0950193 -0.3300526 0.06806392 0.098641254
000260 22 90 c6 3e c9 1a b7 bc dd a5 d7 bd c3 9f bc bc
       0.3878184 -0.02235164 -0.10529683 -0.0230254
000270 56 ee c1 3e ef 35 02 be e8 cd 8e 3e c9 dd f9 bd
       0.37877148 -0.12715887 0.2789147 -0.12200505
000280 6f 00 8e 3d 13 d4 47 3d c0 8e 31 be 5f 09 a6 bd
       0.069336765 0.048786234 -0.17339611 -0.08107256
000290 1e 50 6d 3e d3 2f 12 3e 9c 4c 56 be fd 63 85 3d
       0.23175094 0.14276056 -0.20927662 0.06513212
0002a0 0e 2c e0 be 7a 5d bf bd 96 35 3a 3e 84 09 dd 3e
       -0.4378361 -0.09344001 0.18184504 0.43171322
0002b0 3c 68 1b 3b ca e9 12 be e1 8f 1d 3d cc 11 61 be
       0.0023713252 -0.14346996 0.03846729 -0.21979445
0002c0 7c e9 8e be ab 7e 44 be 38 f0 b1 bd ac ba 78 3e
       -0.2791251 -0.19188945 -0.08688396 0.2428996
0002d0 dd 0e cc 3c 0e 3c 06 be 43 57 46 3d 9b 91 ed 3d
       0.024909431 -0.13108847 0.048423063 0.11600038
0002e0 f7 86 2a 3e 7d c7 21 3e 11 44 fb bd ce c6 46 3e
       0.16653048 0.15798755 -0.12268842 0.19411775
0002f0 20 b3 bb 3e 16 b2 00 bf b8 fc 4e 3d a4 6b 57 3d
       0.366601 -0.5027174 0.05053398 0.05259289
000300 a7 b4 f7 3d 95 b4 35 3e b6 19 90 3e 4f 83 e4 3c
       0.120950036 0.17744668 0.28144616 0.027894644
000310 14 cc 8b 3e a3 98 f6 bd 27 0b 1f 3f 61 c6 d6 bd
       0.27304137 -0.12040832 0.6212639 -0.104870565
000320 fc 1f 18 be 41 4f ef bd 0e 17 17 be e0 5d 2f bd
       -0.14855951 -0.11685038 -0.14754888 -0.042814136
000330 4a 33 aa 3e cf e0 9c 3e 62 84 b3 3e e9 cd 12 3d
       0.33242255 0.30640265 0.35061938 0.035840902
000340 5f a3 95 be b6 f9 9a 3d 62 52 ab 3e 3d 26 5e 3d
       -0.29226205 0.0756716 0.3346129 0.054235686
000350 8c d8 c3 bd 4b d4 a4 bd cf bb 16 bd ad 55 fd bd
       -0.095627874 -0.08048304 -0.036800202 -0.12369857
000360 74 0e d8 bd a8 e9 53 be d2 91 8c be 71 8e 7b 3d
       -0.10549632 -0.20694602 -0.27455002 0.06141514
000370 6c 99 83 be 2c c2 49 bf 42 5b 02 be cc 4c 08 bb
       -0.2570299 -0.7881191 -0.12730125 -0.0020797728
000380 50 c6 59 be 02 62 3a 3e 3c 8f eb be f6 19 6f be
       -0.21267056 0.1820145 -0.46007717 -0.23349747
000390 8c eb d1 3e 61 0c 98 be a5 3b 72 3d f0 8d 2a be
       0.4100002 -0.29696944 0.059138913 -0.16655707
0003a0 cb 0d ed bd 42 c9 8a be 5d 14 9f be 91 0d 2d be
       -0.115748964 -0.27106673 -0.31070223 -0.16899706
0003b0 57 2a e0 be 1d 8a 1a 3d 30 7b 0a bd ae d5 92 be
       -0.43782303 0.03772937 -0.033808887 -0.2867865
0003c0 82 e1 44 be e2 f1 da bd a0 72 45 be 4e 71 91 3e
       -0.1922665 -0.10690667 -0.19282007 0.28406757
0003d0 70 6b 4f be dc 08 aa bc ee ad 21 bd 10 78 29 3d
       -0.20255828 -0.020756178 -0.039472513 0.041374266
0003e0 71 44 d7 3c c3 14 92 3e 39 ef bb bd be f3 ac be
       0.026277753 0.28531465 -0.091764875 -0.3377971
0003f0 d6 05 9e bd d9 96 06 3e 87 cc c0 3c 7e 76 3c bc
       -0.07715957 0.13143481 0.023535026 -0.01150286

network_body._body_endoder.seq_layers.2.bias f4 [256]
000000 5e d8 06 3a f1 dc 73 bd 87 2b cd bc 3f 71 de bb
       0.00051439356 -0.059536878 -0.02504517 -0.0067884023
000010 99 0a 85 3d b5 76 b4 bd cb fe 8d bc 7b 58 96 3b
       0.06496162 -0.08811704 -0.017333409 0.0045881844
000020 86 4a a9 3c 03 66 d9 bc 84 9d 53 bd ed 9f 0c bd
       0.020665418 -0.0265379 -0.05166389 -0.034332205
000030 70 2f 57 bd d8 16 8e bd a1 62 72 3d 24 53 a8 3c
       -0.052535474 -0.06937951 0.05917609 0.020547457
000040 d2 a2 eb 3c 08 1f 35 bb bd ae 9f bd 51 0d 63 bd
       0.028764162 -0.0027636904 -0.077970006 -0.05543262
000050 ed d2 89 3c d3 de 1e bd 68 aa ed 3c 0d 56 26 3d
       0.01682421 -0.03878672 0.02901192 0.04060941
000060 d5 b5 5b 3d 85 36 c3 3b fd e8 8a bd b8 83 94 bc
       0.053640205 0.005957427 -0.0678272 -0.018129215
000070 06 33 7d 3c a5 72 8f bc 70 3a e4 3c 8a 6d 8b bd
       0.0154540595 -0.017510721 0.027859896 -0.06808002
000080 e1 34 a0 ba 86 37 dd bc ae 94 04 3d fb 00 e9 3c
       -0.001222279 -0.027004015 0.032368354 0.02844285
000090 6e 15 b6 bd 4e 78 21 3b 22 b6 b5 bd 1b 7b 80 bc
       -0.08890806 0.0024638358 -0.0887263 -0.015683701
0000a0 1b d9 c9 3b 13 cd 4d be 99 66 6e 3d 02 dc 8a bd
       0.006159914 -0.20097761 0.058203313 -0.067802444
0000b0 7b f1 3b 3a 68 77 03 bc 66 2b da 3b 3f 8b 89 bc
       0.0007169467 -0.008024074 0.0066580055 -0.01679003
0000c0 1a 34 f3 bd 39 92 c9 bd 5f 64 92 bd 22 48 7e bc
       -0.11875172 -0.09842343 -0.071480505 -0.0155201275
0000d0 e7 41 3a 3b 96 50 25 3d 54 99 15 3c 3b 99 be 3b
       0.0028420629 0.040360056 0.009130795 0.0058166063
0000e0 19 2e 02 bd 06 c2 f6 bc 4f d4 6f bd 2f 26 c5 3c
       -0.031782243 -0.030121814 -0.058552083 0.024066059
0000f0 a4 fd 67 3d 78 62 44 bd 6c ef c6 bc 81 e9 b6 bc
       0.056638375 -0.04794547 -0.024284087 -0.02232814
000100 88 6e 19 bd f7 2b e0 bd 10 c0 a9 bc 80 53 fe bd
       -0.037458926 -0.10945886 -0.020721465 -0.1241827
000110 f1 8b 38 3b 89 bc 04 be 99 35 2b bd 2b 24 c4 bd
       0.0028159583 -0.12962545 -0.04179916 -0.09577211
000120 b2 bb 9c 3d e8 dc 7b 3d d7 65 6b 3d b5 cd 43 3d
       0.076529875 0.06148997 0.05747017 0.0478036
000130 0c 4c 28 3d f5 85 d9 bb 43 0f d1 bc 70 39 83 bc
       0.04108815 -0.0066382834 -0.025519973 -0.0160186
000140 f7 3c a5 bb b3 ac 4c 3d a3 31 56 bd e6 5a 73 bd
       -0.005042668 0.049969386 -0.05229343 -0.05941286
000150 72 1a 58 bd 01 3d 9a bc 5d 25 9e bb 73 02 80 bd
       -0.052759595 -0.018827917 -0.0048262314 -0.06250467
000160 77 3e 2a bc f0 91 86 bc 88 59 0a bd ec d3 f7 bd
       -0.010390869 -0.01642701 -0.03377679 -0.12100968
000170 31 56 ad bd d9 13 ab bb 66 55 0d bd 25 06 86 3b
       -0.08463705 -0.005220872 -0.03450527 0.004090088
000180 94 dd 8a bd 6e 33 88 3c 04 fd 8e 3d e5 08 b9 bd
       -0.06780544 0.016626086 0.06981853 -0.090348996
000190 8c 1a be bd bc 2d 65 3b 4a 44 d5 bd 16 23 bb bd
       -0.09282407 0.0034969887 -0.10413416 -0.091375515
0001a0 83 ae 69 bd 05 38 6e bd e3 dd b8 3c 11 24 17 3d
       -0.057051193 -0.058158893 0.022566741 0.03689963
0001b0 17 df 9e bc f1 cc 00 bc 7a 88 18 bd 63 fe 25 3c
       -0.019393487 -0.007861362 -0.03723953 0.010131451
0001c0 7d d9 8f 3d a5 fb a7 bd ea 0a c9 bd 2c 94 9b bd
       0.070239045 -0.08202294 -0.09816535 -0.07596621
0001d0 2a e0 72 3c 05 8c 45 bc 46 25 d0 3c b8 0c 1f bd
       0.014823953 -0.012057309 0.025408398 -0.03883049
0001e0 0b cd 32 bb 4b c4 09 3d 1c 50 f4 bc b3 7c 55 3c
       -0.002728286 0.033634465 -0.029823355 0.013030219
0001f0 fe 62 7a bc 00 dc 55 bd d2 4b c5 3c 91 fe ca bd
       -0.015282391 -0.05221176 0.024084006 -0.09911836
000200 02 20 bb bc f4 51 57 3d af b2 30 3d 89 e5 8d 3d
       -0.022842411 0.05256839 0.043139156 0.06928546
000210 17 ef 32 3a 17 43 a9 3a eb a3 bd 3c 60 d5 8d 3d
       0.00068257883 0.0012913671 0.023149451 0.06925464
000220 27 30 78 bd 7a 7c c1 bd 6c 10 83 bd 5a 39 50 be
       -0.060592797 -0.0944757 -0.063996166 -0.20334378
000230 40 dc d1 bd 6e d8 1d 3d 5d 3c 3b 3d 65 c6 f8 bc
       -0.102470875 0.03853648 0.045711864 -0.03036804
000240 84 f2 3d 3c 77 c5 95 bd 1e 39 22 bd e9 36 be bc
       0.011593465 -0.07313054 -0.039605252 -0.023219543
000250 0a 06 1b 3d 64 2b 97 bd 5a 81 17 bd d7 e8 ff 3c
       0.037847556 -0.07381323 -0.036988594 0.031238956
000260 f4 fa 91 bd ff ac 7e bc 2a 37 d1 3c 98 ff ce 3c
       -0.07127944 -0.015544175 0.025539 0.025268361
000270 a0 1d b7 bc dc b3 8c bd 1f ab 92 3d d8 b9 bf bd
       -0.022352993 -0.06870243 0.07161545 -0.09361619
000280 79 5a 56 3c 35 35 1e 3d f0 dd 78 bd a8 0e ba 3c
       0.013083094 0.03862496 -0.06075853 0.022712067
000290 3e 2f 91 bc 2e 56 99 bc 69 d1 da bd 79 ed d3 bd
       -0.017722722 -0.018717851 -0.10684473 -0.10348029
0002a0 c4 4a ee bc d9 e9 06 3c 0e ac ea 3c 3c 0f 84 bc
       -0.029088385 0.008234465 0.028646495 -0.016120546
0002b0 c5 5f 57 bd 13 27 77 bb 1a 2a 44 bd 1a 5a 67 3b
       -0.052581567 -0.00377125 -0.047891714 0.0035301507
0002c0 87 37 21 3d 8a c6 3b 3b 68 d1 eb bd de 2d 82 bd
       0.039359596 0.0028652274 -0.115145504 -0.06356405
0002d0 c5 64 d9 bc 69 47 26 bb 30 af 55 bd f5 ac bb 3d
       -0.026537308 -0.0025372154 -0.052169025 0.09163848
0002e0 f6 30 84 bb a2 78 23 3b 8a f2 1e bd 68 89 8e bd
       -0.004034157 0.002494373 -0.038805522 -0.06959802
0002f0 68 98 00 bd ae 1a 87 3b 52 07 12 3d 36 22 34 bc
       -0.031395346 0.0041230535 0.035651512 -0.010994485
000300 ac 99 67 3c fd 05 22 be 5d ed c3 bd d8 19 36 bd
       0.014135759 -0.15822597 -0.09566758 -0.04445824
000310 c2 0c f8 bd d4 78 8b bd 4d f4 75 bd d5 5d 9d bc
       -0.12111808 -0.068101555 -0.060047437 -0.019209782
000320 86 10 84 3c 11 73 af bc d4 7b 8e 3c e6 07 32 bd
       0.01612116 -0.021417173 0.01739303 -0.043464564
000330 eb ad bf bd 05 c9 5a bd 55 f5 60 3d c7 8f 29 bd
       -0.09359344 -0.053414363 0.054921467 -0.041396882
000340 e5 e9 b8 3c 43 76 06 bd bc f7 5f bc 8b 12 6d 3c
       0.022572467 -0.032827627 -0.013669904 0.014469753
000350 8b 07 9f 3c bc 98 b5 bd 66 59 8b 3d 18 40 17 ba
       0.019412776 -0.088670224 0.06804161 -0.00057697436
000360 6f f2 19 bd 96 61 89 bd 0a 79 6c 3d 41 6a dc bd
       -0.03758472 -0.06708066 0.05773262 -0.10762454
000370 26 e1 94 bd e3 ab 91 bd 71 1e 2c 3c a5 d2 dd bc
       -0.07269506 -0.07112863 0.010505305 -0.027077982
000380 27 12 ce bc 29 f8 84 bd a2 2d 61 3d a6 6c 73 bb
       -0.02515514 -0.06492645 0.05497516 -0.0037143617
000390 5b 2f 13 bd 9c 8f 21 bd 83 51 32 3d d3 52 94 3c
       -0.035933834 -0.039443597 0.043534767 0.0181059
0003a0 5a 91 88 bd 73 2b 49 bd 24 40 6e bd 37 44 ad 3b
       -0.066683486 -0.049113702 -0.058166638 0.005287673
0003b0 45 b0 3a bd fd 9b 9d bc 0e ca 80 bd c2 f6 c7 bb
       -0.04557826 -0.01923942 -0.06288539 -0.006102414
0003c0 3d 02 b5 bc a6 c5 28 bd f5 94 87 3d 35 1a 4a bc
       -0.022095794 -0.041204117 0.06620208 -0.01233535
0003d0 ac 8b 2f be 8c 9c 8c 3c c3 57 21 3d 5f fb 6f bc
       -0.17143124 0.017164491 0.039390337 -0.014647334
0003e0 8e 67 5e 3c a9 85 c2 bd 67 4a 52 bd ab af 59 bd
       0.013574494 -0.0949815 -0.051340487 -0.053146046
0003f0 b8 cc 94 bd 82 33 32 3d 95 43 fb bc 44 ec 4b bc
       -0.072656095 0.043506153 -0.030671874 -0.012446467

network_body._body_endoder.seq_layers.2.weight f4 [256, 256]
000000 5d bd 83 bd ed 50 72 bb ec 41 2b bc a5 1b 47 3e
       -0.064326026 -0.0036974505 -0.010452729 0.1944414
000010 e4 55 15 be 46 46 5b 3d 35 9a 36 3c 49 68 e7 bc
       -0.14583546 0.053533815 0.011145164 -0.02824797
000020 4e 7d 93 bc d8 b9 a6 3d 0c be e0 3d a2 b0 8b 3b
       -0.018004086 0.08140916 0.109737486 0.0042629996
000030 4f ad 8c bd 2f d7 6e bd f1 88 2f be b3 15 3e bd
       -0.068689935 -0.058310684 -0.17142083 -0.046407413
000040 ec c4 06 3c e0 ba a5 bc ca 86 03 3e 00 cc 1f 3e
       0.008225661 -0.02023071 0.12844387 0.15605164
000050 0c 34 b4 3d 5c 8e 3f bd 8c 66 dd bd 00 63 c6 3d
       0.0879899 -0.046766624 -0.10810575 0.096868515
000060 c1 a0 8c bc ff 68 cb 3d 2b 83 1f 3d df 5c e0 3c
       -0.017166497 0.09932136 0.03894345 0.027388034
000070 0b 75 69 3d 46 55 90 bc a4 4c d4 3c ad f3 d5 3c
       0.056996386 -0.017618787 0.025915451 0.02611717
000080 7b 92 3a 3d e8 40 25 3a f1 fd 64 bd 5a bb 97 bd
       0.04554985 0.0006303922 -0.05590624 -0.07408781
000090 79 e1 57 3d 95 f5 6c 3d 3f 1a fb 3b 3e dc 9c 3c
       0.05270526 0.057851393 0.007663041 0.019147988
0000a0 30 b6 cb bc 4f be 1b 3d 87 aa 00 3e 58 c7 c9 3d
       -0.024867147 0.03802329 0.12565051 0.09852475
0000b0 d4 65 08 3e f5 db 79 3d 39 e0 43 3d a4 e6 85 3d
       0.13320094 0.061000783 0.047821257 0.06538132
0000c0 e3 90 07 be 26 ce 8d bc 62 f5 79 3b 72 91 2a be
       -0.13238864 -0.017310213 0.0038140644 -0.16657045
0000d0 75 1c 08 3e a3 ac 71 bd ac 68 64 3e 48 ff 2c 3c
       0.13292105 -0.05900253 0.22305554 0.010558911
0000e0 2e 62 51 bd 90 27 bd bc aa c0 88 3d ae 46 ab bc
       -0.051119022 -0.023090154 0.06677373 -0.020907726
0000f0 65 ac 20 3d 2f 8d b6 bc 30 9d 43 ba 3b 98 d7 bd
       0.03922691 -0.022284118 -0.00074620824 -0.105270825
000100 1d 9b 1c 3e 4d 5c 05 be b2 ae 06 bc 71 b5 68 3d
       0.15293546 -0.13023491 -0.008220362 0.05681366
000110 f2 da bc bd c7 c1 07 be 26 3c df 3c 22 7c f5 3d
       -0.09221448 -0.13257514 0.02725036 0.11986567
000120 65 c6 0c 3e 98 57 8a 3c 35 92 5f 3d aa 21 68 3c
       0.13747557 0.016887471 0.054582793 0.014168182
000130 c2 e4 e8 bd fa 94 3f 3c 3f 6e 76 3d aa 9b 7f bd
       -0.11371757 0.011693234 0.060163733 -0.062404312
000140 ee e6 87 bc 77 b9 f5 bd ab 17 c8 bd f8 86 23 be
       -0.016589608 -0.11998265 -0.09770139 -0.15969455
000150 15 5d 79 3c 73 c7 a0 3c bc 93 c8 bd ed 49 ca 3d
       0.015219946 0.019626355 -0.09793803 0.098773815
000160 b8 17 36 3d 7c d1 6c 3e 5d d9 64 3d 13 3e 23 bd
       0.044456214 0.23126787 0.055871356 -0.03985412
000170 50 e2 32 be b7 cb a0 bc 89 9b 9f 3d 63 4d 5e bd
       -0.17469144 -0.019628389 0.07793338 -0.05427302
000180 fa 22 0d bd 09 64 ff 3c 20 bf f4 3c 1d 95 77 bc
       -0.034457184 0.03117563 0.029876292 -0.015111235
000190 d3 59 1c 3d a0 38 d3 3d 30 25 fc 3d 0a 68 7f bd
       0.0381716 0.10313535 0.123117805 -0.06235508
0001a0 e8 e1 e7 bd 32 27 50 bd 5b 52 70 bd c2 4c f4 bd
       -0.11322385 -0.05081863 -0.05867229 -0.11928703
0001b0 9e 9d a7 3d b5 4e 7a 3d d3 04 b9 bc 94 a7 16 be
       0.0818436 0.061110217 -0.022585308 -0.14712363
0001c0 34 7a 24 bb c1 24 3d 3d 53 e5 30 bc 12 33 d8 bc
       -0.0025097253 0.04617763 -0.010796863 -0.02639154
0001d0 0e c0 6a bd 09 35 36 3e 0a ed a6 bd 5a 94 56 bd
       -0.057312064 0.17793669 -0.0815068 -0.052387573
0001e0 96 9f a6 3d a3 32 e7 bd cb 73 30 bc 86 1a 90 bd
       0.08135907 -0.11288955 -0.010769795 -0.07036309
0001f0 27 11 6c bd 93 67 99 3d 2c 57 77 3d b6 3d d1 3c
       -0.057633545 0.07490458 0.060385868 0.025542121
000200 fd 20 93 bd f3 4c e2 3c e2 15 2d bd 47 c2 26 bd
       -0.071840264 0.027624583 -0.042257197 -0.04071262
000210 41 32 41 3d 16 a8 0d bc 7d 9b b1 bd 67 e8 1b 3d
       0.047167066 -0.008646032 -0.08672235 0.038063433
000220 1e de 4c bd 84 41 da bc fe 7e 1a be 14 3f 70 3d
       -0.050016515 -0.026642568 -0.15087506 0.058653906
000230 d6 bc 35 be ef f1 d7 bd d9 ce 6e bd 94 56 bf ba
       -0.17747816 -0.10544192 -0.058302734 -0.0014597946
000240 54 34 08 3d c1 2b 96 bd 0e f8 3b 3c 55 58 a1 bd
       0.03325303 -0.07332564 0.011472715 -0.07878176
000250 de 28 40 3e 7e 5c da bc 30 90 d9 3c 7f 96 66 bc
       0.1876559 -0.026655432 0.026558012 -0.014073967
000260 28 67 c2 bc 0f e3 0a bd 08 78 bb 3d 00 44 a6 3c
       -0.02373083 -0.033907946 0.091537535 0.020296097
000270 9f aa 8e 3d f4 c8 af bd 43 a2 4e bd 76 b9 10 be
       0.06966137 -0.08583251 -0.050447714 -0.14133248
000280 0c dc 6c bd ca 37 e0 bd b1 72 33 bc fe 60 d9 bd
       -0.05782704 -0.10948141 -0.0109526375 -0.10614203
000290 6c e9 e6 3d 99 b6 e5 bd a8 df f1 3d 2f 5a 47 be
       0.112749904 -0.11216468 0.11810237 -0.19467996
0002a0 38 05 05 bd c0 33 bf bd 0d 0e d0 bd 06 97 9b 3d
       -0.03247568 -0.093360424 -0.1015893 0.07597165
0002b0 b5 fc 43 be 47 83 4c be 36 cb 07 3d f0 47 cf bb
       -0.19139369 -0.19971953 0.03315278 -0.0063257143
0002c0 97 36 82 bd 4b 58 5d bd b1 f4 e0 3c 30 a6 1f be
       -0.063580684 -0.05403928 0.027460428 -0.15590739
0002d0 4b 15 cd bc 01 19 06 3d b8 96 eb 3d 6d 2e 35 3c
       -0.025034567 0.03273869 0.11503357 0.011058432
0002e0 8d 50 ea 3d a1 6c 69 bd ca 11 2f 3d 9e 9a c5 3d
       0.11441145 -0.056988362 0.042741574 0.096486315
0002f0 fa 9d 2e 3d 99 98 bb bc 7e 25 e6 bd c5 1e ba bc
       0.042631127 -0.022899913 -0.1123762 -0.02271975
000300 e6 a5 67 bd 14 9c 50 bc 74 bf cd 3d 64 9e 7b 3d
       -0.056554697 -0.012732524 0.100462824 0.06143035
000310 17 88 33 bd c7 c4 97 3d 8d 30 88 bd 0e 69 48 bd
       -0.043830957 0.07410579 -0.06649885 -0.048928313
000320 a0 b0 3d bd 2d 32 4e bc 96 33 18 be 05 44 ab bc
       -0.04631102 -0.012585205 -0.14863428 -0.020906458
000330 7f 15 94 bd ca 31 94 bd 09 12 8a 3d f0 82 05 3e
       -0.072306626 -0.07236059 0.06741721 0.1303823
000340 d7 1a 0a 3e 24 55 96 3d 44 a1 1d 3c 35 54 56 3b
       0.13486801 0.07340458 0.009620968 0.0032704
000350 9a 05 c1 3d d8 b4 0a bd ef 3e 5a 3e b1 c4 a8 3c
       0.094248965 -0.033863872 0.2131307 0.020601602
000360 fc 2b d4 3d 4e f4 61 3d e4 ac 06 bc 4f 34 07 3e
       0.10359952 0.055164628 -0.008219931 0.13203548
000370 59 15 bc 3d b1 6f ab bb 00 75 de bb 4a bf 0e be
       0.09183759 -0.0052318205 -0.00678885 -0.13940158
000380 4d e0 29 be dd f4 df bd 08 4a 97 bd 1c 7e 18 bd
       -0.1658947 -0.10935376 -0.07387167 -0.037229642
000390 55 c6 b2 bd a9 c1 28 3d 4c 67 fd 3d db a6 9f bd
       -0.08729235 0.041200314 0.12373218 -0.07795497
0003a0 17 cb 8c 3c 14 8d 15 bc 8f 4f 95 3c 98 38 87 3d
       0.017186685 -0.009127874 0.018226413 0.06602591
0003b0 0f 5b 4a be ca c2 00 bc 5d 47 9d bd b3 c4 38 3d
       -0.19761299 -0.007858941 -0.07679627 0.045109462
0003c0 ae a5 4b bd d8 a1 ea 3d 45 6c d5 bc 9b 98 15 3e
       -0.04971855 0.114566505 -0.026052603 0.14608996
0003d0 4a 71 0d be d4 3c 17 be 7c 78 94 3d ac 29 ac bd
       -0.13812748 -0.14769298 0.07249543 -0.08406386
0003e0 a3 45 a3 3c d4 33 15 3e ab 0f ae 3c 69 7b 83 bb
       0.019930666 0.14570552 0.021247705 -0.0040125144
0003f0 5e f9 13 3e a7 63 b3 3d 8a d1 3d 3d 9d d6 00 be
       0.14450595 0.087592416 0.04634241 -0.12581868
