Assets/ML-Agents/results/Andrew ML/results/sc_01/SimpleCollector/SimpleCollector-2688.onnx (onnx, 305000 bytes, 11 tensors)

action_model._discrete_distribution.branches.0.bias f4 [3]
00000000: 7bf8 28bb 1be0 643b 2a89 073a
-0.0025782872 0.0034923616 0.00051702803

action_model._discrete_distribution.branches.0.weight f4 [3, 256]
00000000: b34d 28bb d341 53b8 c01f 8cbb f184 273c
00000010: f8fa 4abb b146 863b 05a4 0dbb cb4b d73b
00000020: e683 e1b7 e5a6 60bb b7f6 273c c316 15ba
00000030: 958c d2ba 2f29 83ba 5f33 6f3a e9a0 74ba
00000040: f00f 8e3b 48d0 123b 9d6e aebb f9f5 5bbb
00000050: 6ff2 f0bb 3e07 013b bcc9 8c3a 2774 fc3a
00000060: 6b15 deba 9e99 be3b 0f7a 9c3b c435 1b3a
00000070: 3a27 9cba b3c5 fd39 f9e9 24bc c06b 193c
00000080: 6205 98bb 2f3d d3bb 2163 32bb 044a 42bc
00000090: c87c 5aba 2c53 86bc 7481 6cbb 2a95 22bc
000000a0: 414d 61bc ec6a eebb d03c a3bc 60e5 99bb
000000b0: b2bd 203c a115 32bc e89f 273a 01d9 e4bb
000000c0: 5926 b1ba c10c ca3b a70f 26bb 76c4 29bc
000000d0: d03b ca3b 8b41 cc3b 6716 aebb 60db 75bc
000000e0: 65ea 35bb 33fe 363a 146c b0ba c82d dcba
000000f0: 6ebf d0ba e0cb b9ba 64a7 823a 9768 20bc
00000100: 9c76 85bb ef28 c33b ca46 56bb a114 e83a
00000110: 6356 f439 3715 023c 3c76 f13a 1c7c 333c
00000120: e6b9 d6bb ea8d 1dbb 91ef 1f3c 7b45 8537
00000130: 2f56 0bbb ced0 503c aa28 d938 9356 74bc
00000140: 10ef 02bb 091f 8c3a 26c1 40bc 514c cebb
00000150: 54ce 013c 242d 2fbc 762b 8a3b 6546 8a3b
00000160: 106b d23b 90ce df3b fc5d aebb 2bcf c9ba
00000170: a130 dbba 9478 d43b 9fe9 48bc 7209 063c
00000180: 3d2e 873b f52f e839 8278 343c 8c18 b2bb
00000190: 412a 193c 95f8 443b 8ffb 1dbb af11 20bc
000001a0: 079c 6bba ec92 0a3c 8bc4 41bc de01 07bc
000001b0: f9ac a0b9 2c31 32bb 8334 59bb 8ca1 c3bb
000001c0: f403 6f3a 6887 0abc 5649 15b9 5908 d0bb
000001d0: 1506 43bb d5b1 503c 049c 403b b28e d63a
000001e0: 9bd0 89bb c82b 25bc 39b2 b6bb 6b96 3bba
000001f0: 6f32 72ba da5c 2f3a ab9a c8bb c305 203c
00000200: f84b ecbb b008 563c 9450 a83b e0c2 e1ba
00000210: 4cfb 6cbc 8c47 f9bb 06c1 2c3c 7cb9 7b3a
00000220: a78c ba3b 54cf ca3b 2a3b 6f3c 739d 59bc
00000230: 14d6 04bb c815 00bc ca3b aa38 d86e a33b
00000240: f81c d83b 3c7b 173c 54dc c93b fd81 4fbb
00000250: 7f11 77bb 0974 4f3b c69c 22bb 0534 413b
00000260: 4a52 723b 5639 fcbb fcec 7cba 87b2 89bb
00000270: 82a8 a03a b70d 58bb 9404 43bc 6a53 aabb
00000280: de08 5c3b 00f1 b039 82e7 76bb 896e 5a3c
00000290: bcbc 26bc 1ee8 8ebb 56ea 59bb d3f2 a5bb
000002a0: c058 433c 1c9b 00bc 4d7f bcba 8558 433b
000002b0: c184 b43b d61d 8d3c c1b3 8f3a eb6c d63b
000002c0: 99bc a13a 15d7 623c 9618 b6ba 36ee 13bb
000002d0: 9250 713b 1da1 4dba 4e19 e33a 8e9c 11bc
000002e0: e644 27bc 2ceb 85ba 8a04 b1bb 6ac6 e6bb
000002f0: 8030 723b 2117 183c 06e5 493a b38a bb3b
00000300: d200 d63a 70d9 ab3b 70a2 f4bb d5e3 9f3a
00000310: 2994 913c 09f5 33bc fa80 393b a0e0 e23a
00000320: 5d42 71b9 6a4d 0c39 f60b 85bb dd63 a2bb
00000330: b6d0 bbbb fc7f 25bb 366d 5abc 3558 2c38
00000340: a6c2 bf3b a619 fa3b e6c4 063c 651d 0cbc
00000350: e262 28bc 42b5 9abc 889a 123c 7fb4 ca3b
00000360: 7b23 9abb 742d 1fbc b233 9a3a 8ac8 c5bb
00000370: f4ab d5ba 63d7 563b ecbe 71bb c4fe af38
00000380: a292 2d3c f2ea 2c3c a582 29bc 4e87 273c
00000390: 4b6d b53b 557d c9bb b348 85bb c949 443a
000003a0: e662 6dbc f166 bcbb 2ae9 be3b 124c 4fba
000003b0: 8e3e b23b 55da 00bc 9802 503b 9a0b 183a
000003c0: b014 9b3b 97b5 453c 7688 29bb e29e 763a
000003d0: 62a6 b93b ce8d 1bbb 7f35 123b 34d7 6cbb
000003e0: cd51 00bc 3006 983b 67ef 133c be72 bb3b
000003f0: ac67 e1bb 8ddc 86bc fb9e 23bc d4b2 cbbb
-0.0025681078 -5.0367624e-05 -0.004276246 0.010224567 -0.0030972343 0.0040977825 -0.0021612656 0.0065703145
-2.688351e-05 -0.0034279164 0.0102516925 -0.00056872907 -0.0016063625 -0.001000678 0.00091247814 -0.0009331839
0.004335396 0.0022401977 -0.0053232447 -0.003356336 -0.007353119 0.0019688155 0.0010741274 0.001926069
-0.0016943639 0.0058166524 0.0047752927 0.00059207925 -0.0011913546 0.00048403218 -0.010065549 0.0093640685
-0.0046393136 -0.0064465026 -0.002721973 -0.011858467 -0.0008334634 -0.016397081 -0.0036087902 -0.009923259
-0.013751329 -0.0072759297 -0.019926459 -0.004696533 0.009810852 -0.010869415 0.00063943723 -0.0069838767
-0.0013515457 0.006166071 -0.002533892 -0.010361781 0.006171681 0.0062333993 -0.005312729 -0.015005916
-0.0027758118 0.00069806277 -0.0013459944 -0.0016798312 -0.0015926191 -0.0014175139 0.0009968099 -0.009790561
-0.004072977 0.0059558074 -0.0032696002 0.0017706343 0.0004660367 0.007939628 0.0018422077 0.010954883
-0.0065529225 -0.0024040886 0.009761707 1.588719e-05 -0.0021261086 0.012745095 0.000103549406 -0.014913219
-0.0019978918 0.0010690402 -0.0117648 -0.0062957187 0.007922728 -0.010691915 0.0042166067 0.0042198175
0.0064214543 0.006830044 -0.0053212624 -0.0015396824 -0.0016722867 0.0064841006 -0.012262731 0.008180963
0.004125385 0.0004428622 0.011015059 -0.005435055 0.009348453 0.0030055393 -0.002410624 -0.009769841
-0.00089877885 0.0084578805 -0.011826645 -0.008240191 -0.00030646453 -0.0027189953 -0.0033142872 -0.0059701856
0.00091177155 -0.008455135 -0.00014237067 -0.0063486514 -0.0029758264 0.012737711 0.0029389868 0.0016369431
-0.004205776 -0.010081239 -0.005575445 -0.0007155898 -0.00092390826 0.0006689556 -0.0061219535 0.009766999
-0.0072112046 0.013063595 0.005136559 -0.0017224215 -0.014464211 -0.007607406 0.010544067 0.00096025295
0.0056930366 0.006189266 0.014601508 -0.013282168 -0.0020269202 -0.007817693 8.117368e-05 0.004987579
0.00659525 0.00924569 0.0061602984 -0.0031663172 -0.0037699637 0.0031654856 -0.0024812683 0.002948047
0.0036975318 -0.0076972647 -0.00096483505 -0.0042021903 0.001225725 -0.003296716 -0.011902947 -0.005197932
0.0033574621 0.00033748895 -0.003767461 0.013332018 -0.010176834 -0.0043611666 -0.0033251247 -0.0050643473
0.011923015 -0.007849481 -0.00143812 0.00298074 0.0055089896 0.017226141 0.0010963605 0.0065437458
0.0012339532 0.013845225 -0.0013892825 -0.0022572405 0.0036821705 -0.0007844137 0.0017326267 -0.008887423
-0.010209298 -0.0010217181 -0.0054021524 -0.007042696 0.0036955178 0.009282858 0.00077016687 0.0057233213
0.0016327149 0.0052444264 -0.007465653 0.0012198637 0.017770844 -0.010983714 0.0028305636 0.0017309375
-0.00023008273 0.0001338028 -0.0040602637 -0.0049557523 -0.0057316674 -0.0025253287 -0.013331702 4.1090145e-05
0.0058520613 0.007632452 0.008225655 -0.00855193 -0.010277482 -0.018885259 0.008947976 0.0061860676
-0.0047039366 -0.009715427 0.0011764674 -0.006035869 -0.0016301856 0.003278219 -0.003688748 8.392104e-05
0.010594042 0.010554062 -0.0103460895 0.01022513 0.0055367104 -0.006148974 -0.0040675043 0.00074878015
-0.014488911 -0.0057495763 0.005826135 -0.00079077587 0.005439586 -0.007864554 0.0031739827 0.00058000686
0.0047326908 0.01206722 -0.002586869 0.00094078307 0.0056655863 -0.0023735645 0.0022309718 -0.0036139013
-0.007832003 0.0046394095 0.009029246 0.0057204654 -0.0068788137 -0.016462589 -0.009986634 -0.0062163863

action_model._discrete_distribution.branches.1.bias f4 [3]
00000000: 169a 0cbb f49e 703a 72bc 3d3a
-0.0021454147 0.00091789593 0.00072378584

action_model._discrete_distribution.branches.1.weight f4 [3, 256]
00000000: 012d bfbb a898 f2b9 cfd9 153b 7e98 ba38
00000010: 7c01 f0bb 648c 553b 8e44 06bb 2aaf ef3b
00000020: 6d78 243c 92bd 583c 63ba ad3b af40 30bb
00000030: 61f1 0d3a 9200 093b 7fbf f73b fba6 603b
00000040: b3a3 ed3a 3a5e 013a 9a69 b0bb 9568 74bb
00000050: 56c5 5dbb f580 2dbc a327 653a 255c aa3b
00000060: 5555 bc3b e87a ae3b 4bc7 973b 146b b93b
00000070: d16b 6cbc 6c1c a0bb a318 edba 7fb0 c1bb
00000080: 4a70 abb9 0a42 d13b ba2f 1239 d3d3 71bb
00000090: 29ad 313c 24ec 3b3c 126b 39bc 4015 5d3c
000000a0: 5aea 84bb 536f 463c 113b b33a f693 01bc
000000b0: 8e4d f7bb d3ba ec3b b907 2b3c 0a0e f9bb
000000c0: 5a6a be3b 355a b33c 966f de3b 77af 40bc
000000d0: 20f6 91bb f613 24bc 229d 67ba e549 df3b
000000e0: d0d7 d0bb 7cd1 bebb ce82 89bc ee83 eb3a
000000f0: 7ebe 01bc a10f 093c db1a 26ba 7f20 45bb
00000100: 42f6 78ba 5062 443b ad38 1abb 745d d83b
00000110: f61c 933c 5d5c f2ba 258e 143c b5f7 b9bb
00000120: 8f98 253a 8775 733a 81a4 78bb 81b5 b539
00000130: 71a6 a83a de11 e5ba b499 b4bb 7c9e b2ba
00000140: 2802 0dbc 5659 dabb e7c1 503b 6a4b 9abb
00000150: fa40 feba 5da0 8f3b c3dd d2ba 3eaa c73b
00000160: 483d 903b f259 04bc 3954 123a 089d e53b
00000170: 725f 4fbb b8d2 a4bb d359 91ba 8404 0bbc
00000180: ae82 73bb 8630 1bbb 0886 043b e310 36bc
00000190: 8e01 1f3a cfa0 92bb fcf7 61bb 042b 14bb
000001a0: ccf0 abba d999 13bc c9d8 41bc 79f8 9abb
000001b0: f6a4 5e3c 2552 8cbb fa4f 80ba ab45 1cbc
000001c0: 8fd1 c33b e2dd 9abb accd 37bc 5db5 5e3b
000001d0: 016c adba 6c51 98bb 70fd b63b ac7f 0a3c
000001e0: e437 cbbb 783f 0c3c 7cb2 87bb 6953 973b
000001f0: 64a6 17bc 7aa4 f63a e00d 543b 82c6 523c
00000200: e79c 63bc c353 203c 4176 183a dc65 623b
00000210: 991b abbb 3ab8 343b 41e0 003b 1545 3f3a
00000220: b523 2eba d52a 9bbb 23b1 29bc d359 57bb
00000230: e1ca d5bb a6ba d63b e577 023c 5006 a73b
00000240: e14d 2c3c 9c43 703a cf1b 343c 796c db3b
00000250: 9b7a bebb 5c2d 9cbb f325 59bc 40aa 463c
00000260: 5dae 963a 8f96 233b d848 313c af6b a23b
00000270: 53d9 6db9 0d3d f13b 2f6f b6ba ad31 9e3b
00000280: caab 0a3c f396 453b 6f92 f6ba 3452 e4bb
00000290: eda5 9339 d3eb 94bb 68bf 8aba a254 4fbc
000002a0: 6473 afbb 84be c5b9 0e94 03bc f3c7 5bba
000002b0: 089e a63b 3846 00ba 02e2 86bc 082c b63b
000002c0: f070 a4bb ffd9 893b a54f 4d3b 6316 ee3a
000002d0: 51b9 073c 5be2 163c 43ba bc3c e9d5 d1b9
000002e0: b5ef 47bb c788 5cbc c07a cebb 8f3a 323b
000002f0: 2a0b e0ba edf4 cf3b 5190 30bc 6360 ad3b
00000300: 1275 e53b 839e 7a3b 5090 4a3b 2e98 04bc
00000310: a942 afbb 7102 5c3b 96cb eb3b 2a44 46ba
00000320: c69e 9a3a bc8b 0c39 9c5b 83ba efd8 8cba
00000330: f7bd b3bb 6021 ccb8 ca7a a13b 342b 3bba
00000340: 3ca4 933b 9c4d 703b 34dd 473a cbf7 0fbc
00000350: b6fb bbbb 5889 363a 00bc 493c d10e 243c
00000360: 0d27 b1ba dc46 96ba ddb0 54bc 08bd 8ebc
00000370: af37 0f3c f14e b13b 987a 79bb 0aed ddbb
00000380: 3a69 81bb 7a86 61b8 7e6c 28bb c03c 10bc
00000390: dfa4 c03b 7a06 07bb 07d5 9f3a 617a efbb
000003a0: c7ae e3bb cc8a 033c 1413 c13a 951d 953b
000003b0: e32b 8cba be0b 323b d260 68b9 cbac 79bc
000003c0: a28e 463c dd03 bcba 9ace 0dbc fd49 b639
000003d0: 17d9 043c 8b61 a33b 878a 5ebb 7d76 fb39
000003e0: 2d82 9a3b da7b 4dbc ad75 383c 0c17 ac3b
000003f0: 61d2 903b e972 a1bb bf70 f5bb 2877 12bc
-0.0058342223 -0.00046271575 0.002286542 8.897575e-05 -0.0073243957 0.00325849 -0.002048764 0.0073145824
0.010038477 0.013228791 0.00530176 -0.0026894023 0.00054146914 0.002090488 0.00756067 0.0034279216
0.0018130451 0.00049350003 -0.0053836824 -0.003729378 -0.0033839545 -0.010589828 0.0008741563 0.0051989728
0.005747477 0.00532471 0.004631912 0.0056585167 -0.014430002 -0.0048862007 -0.0018089007 -0.0059109326
-0.00032699323 0.0063860463 0.00013941425 -0.0036899939 0.010844507 0.0114698745 -0.011317031 0.013493836
-0.004056257 0.012111503 0.0013674219 -0.007908812 -0.007547087 0.0072244196 0.010438853 -0.0076005505
0.005811018 0.0218936 0.0067882044 -0.011760584 -0.004454389 -0.010014525 -0.00088353653 0.006814229
-0.006373383 -0.0058233123 -0.016786005 0.0017968395 -0.007918952 0.008365543 -0.0006336399 -0.0030079184
-0.00094971445 0.0029965825 -0.0023532317 0.0066029374 0.017958146 -0.0018490661 0.009067093 -0.005675281
0.00063169835 0.00092872273 -0.003793985 0.0003465824 0.0012866986 -0.0017476638 -0.005511487 -0.0013627554
-0.008606471 -0.0066634817 0.0031853856 -0.004708697 -0.0019398027 0.0043831305 -0.0016087819 0.0060932925
0.0044018365 -0.008078085 0.0005582008 0.007007245 -0.0031642583 -0.0050300024 -0.0011089392 -0.008484963
-0.0037156749 -0.0023680045 0.002022149 -0.011112425 0.00060656003 -0.0044747363 -0.0034480086 -0.0022608647
-0.0013118028 -0.009008848 -0.011831471 -0.0047293273 0.013589134 -0.0042822533 -0.000978946 -0.0095380945
0.005975909 -0.0047261575 -0.01121847 0.0033982613 -0.001323104 -0.004648378 0.0055844113 0.008453291
-0.006201731 0.008560054 -0.00414115 0.0046180976 -0.009255979 0.0018817328 0.0032356903 0.012864711
-0.013892389 0.009785595 0.0005815961 0.0034545576 -0.0052217958 0.0027575628 0.0019664916 0.0007296366
-0.0006642894 -0.0047353306 -0.010357174 -0.0032859936 -0.006524429 0.006553012 0.007963155 0.005097188
0.010516615 0.0009165348 0.010992958 0.0066962806 -0.0058129556 -0.0047661494 -0.013253677 0.012125552
0.0011496056 0.0024961566 0.01082059 0.0049566845 -0.00022683041 0.007362014 -0.0013918633 0.004827699
0.008463809 0.0030149787 -0.0018811951 -0.006967807 0.0002816165 -0.004544714 -0.0010585608 -0.012654455
-0.005354332 -0.00037716713 -0.008030904 -0.0008383982 0.0050847568 -0.0004893276 -0.01646519 0.005559448
-0.005018346 0.0042068954 0.003132799 0.0018164631 0.008283929 0.009209241 0.023038035 -0.00040022962
-0.0030507867 -0.013460345 -0.006301254 0.0027195548 -0.0017093171 0.006346336 -0.010776595 0.005291031
0.0070024813 0.0038241453 0.003090877 -0.008092923 -0.0053485227 0.003357079 0.0071959 -0.0007563258
0.0011796586 0.00013403496 -0.0010021809 -0.0010745804 -0.005485292 -9.7336946e-05 0.0049279677 -0.00071399217
0.0045056622 0.0036667353 0.00076242094 -0.008787106 -0.0057367934 0.0006963215 0.012312889 0.010013298
-0.0013515666 -0.001146521 -0.012981621 -0.017424121 0.008741303 0.005411022 -0.0038067456 -0.006772642
-0.0039493116 -5.376942e-05 -0.0025699432 -0.008803546 0.005879029 -0.0020603226 0.0012194224 -0.00730829
-0.0069483253 0.008028697 0.0014730417 0.0045506456 -0.0010694232 0.0027167643 -0.00022161313 -0.015238951
0.012118967 -0.0014344413 -0.008655215 0.0003476887 0.008108399 0.0049859933 -0.003395708 0.0004796273
0.004715225 -0.012541736 0.011258525 0.005251771 0.0044196104 -0.0049270284 -0.007490247 -0.008939542

action_model._discrete_distribution.branches.2.bias f4 [3]
00000000: 67cc 3bbb ac55 5c39 8816 243b
-0.002865577 0.0002101275 0.0025037844

action_model._discrete_distribution.branches.2.weight f4 [3, 256]
00000000: ca51 b2bb eb00 2a3c 5d92 9e3b af1d 1a3c
00000010: d335 08bb 1cb6 9eba 47a1 033b 0331 14bb
00000020: a02e e5ba 7845 44bb b5e5 b7ba 57fd babb
00000030: aa41 533b 597b bdbb bb9d 893b df48 75bb
00000040: 00b9 1f3c 8579 473a 2b78 e6ba 4e5f 023b
00000050: 8e34 08bc 794a d13b ebfa 973a bd2f 433b
00000060: 2c99 0abc 2e68 54bc b680 023b e164 7bbb
00000070: 9819 1438 cc83 0d3b 319b 703c f947 453b
00000080: 724b 963c dd50 abba 5794 103c e430 c039
00000090: 179c 1f3b f7b4 73bb bea2 95b9 b6a5 7cbb
000000a0: e3b1 6f3b 9c5f c33b f7ea dcba bb4f cabb
000000b0: 57fa 8b3b f603 9c3b 8308 233a 1399 fb3b
000000c0: ca50 1ebc edc1 d4bb 5c84 e8bb 4c9e 8e3b
000000d0: b0d9 fd3b a0ba b73b 8bf9 23bc e2d3 363b
000000e0: 0235 f6bb ba0a 853c 8b96 a1bb 4c34 c43b
000000f0: 4218 ba3a 7828 e93b 569e 743c 2611 09bc
00000100: 4630 90bb 0bb8 dbbb 1401 a1bb 6f18 873c
00000110: 0d40 1f3c 835d fc3a 4c9d 4ebb 2033 dcba
00000120: b79d ce3b 3907 45bb 65b9 45bc d2d0 1cbc
00000130: dfbb d1bb 1ffc ab3b 6d2b 913a 4ec2 5dbc
00000140: 8906 07bc 19e1 613b 0748 17bb 4737 9ebb
00000150: 7e45 98bb 36d3 9dbb 524b 62ba 200f 7c3a
00000160: 5cd4 d73b dcbe d43b e68d 3a39 a1ac 803c
00000170: dcef dfbb 201d 53bc 192d 9e3b 1e80 4fbb
00000180: 1dbb 953b acf9 173c 3eb9 0e3c f4b4 1d3b
00000190: 08f7 5fbb cfac 75bc 2ebd dd3b 67fd 34bc
000001a0: 9daf ba3a 2b08 1bbc 2263 15bc b643 dcb9
000001b0: 8197 c23b c153 1ebb c7b9 f63b e788 163c
000001c0: fd1f 5f3a 0667 d33b 168e c13b a3d9 18bc
000001d0: e8e5 e839 9611 8bbb 8ba9 69ba fd67 443b
000001e0: aac7 e2b9 2e65 143c 5380 a3bb 031a d73a
000001f0: 9e12 2dbc fed5 2d3b 6d48 8fbb 5185 8e3a
00000200: 8793 2ebc 98aa 80ba e6f5 603b ff27 933b
00000210: 93dc 1ebc 4060 ed3b 7794 a93a 2d09 3b3b
00000220: 786f cbbb 0c3d aeba 5171 0f3b 2b70 4bba
00000230: 1858 da3b c643 eb3b afd5 d73a fd18 103c
00000240: b6ed b3bb 0f8c 4f3a 5d00 abbb d95d 06bb
00000250: 4ab1 70bb a50b f4ba f053 54b8 1da8 393b
00000260: 87cb cf3b 0271 a4ba 9971 a03a 33da 883b
00000270: 9727 29bc 038e b4bb f1fc 8938 8e93 543c
00000280: 90d0 8c3a 7b28 55bc 4dd0 603c 4cd9 263b
00000290: 91d0 5e3b 92a0 ae3b 2fdd 5a3a 49fc babb
000002a0: d024 ebbb 35b6 d6bb 4f04 cabb 6085 0f39
000002b0: c4cf 693c 4b3d cc3b 28bb 583b f2d2 8bbb
000002c0: 452d 25bc e623 533c f985 52bb d714 20bc
000002d0: 4c0d 0b3b db98 a53b af6a 353b 6bf2 183a
000002e0: eea0 56bc 459b 47bc cc24 493b 4625 113c
000002f0: a76c f13b 7989 84bb ffb4 6039 54ce d13b
00000300: 1332 883c 6548 113b 30a0 e2ba 09db 8cbb
00000310: 5fce ec3b 87c9 d83b 88d9 d23a ab70 643b
00000320: 7792 613c cd27 b539 5471 c33b 8d72 3fbc
00000330: 7134 2abc 191f 8f3b 65e9 2bbc 9322 e03b
00000340: dba0 33bb f4e9 9b3c fc7f 85bb 16fc 52ba
00000350: 97c9 ebbb 9839 903a e2f9 af3a 4e68 063c
00000360: 6feb 94bb 592a d6ba 4f5b edbb 250c 22bc
00000370: 46da 063b 7efb 46bb 01e0 00bc 9521 c3bb
00000380: c288 3c3c d93e aaba 16e3 453c f9b4 c43b
00000390: ff6e 613c 0162 f33a 9715 c4ba baaa 033c
000003a0: f112 51bb 1a74 81bb e610 a6b9 1d77 5c3c
000003b0: fa55 cd3b 3989 e43b 2796 013b 1d6d 9bba
000003c0: e123 b3bb a3b1 41bb ebf0 073b db61 f9bb
000003d0: 5b46 4e3b f329 523b 4232 eeba fa45 1b3b
000003e0: f389 0bbc 4980 663c ce8a 89bb 7f96 87bb
000003f0: 1e53 f23b d086 b9bb 37e8 dbba ceeb 76ba
-0.005441879 0.010376195 0.004839225 0.009406491 -0.0020784035 -0.0012108716 0.0020085142 -0.002261222
-0.0017485209 -0.0029948633 -0.001403025 -0.00570647 0.0032235184 -0.0057825265 0.004199711 -0.0037427468
0.009748697 0.00076093554 -0.001758342 0.0019893232 -0.008313311 0.0063870517 0.0011595165 0.0029783093
-0.008459371 -0.0129642915 0.0019913143 -0.003835969 3.5309786e-05 0.002159345 0.014685438 0.0030102713
0.018346522 -0.0013070364 0.0088244295 0.0003665752 0.0024354511 -0.003718672 -0.00028540747 -0.003855092
0.0036574535 0.0059623253 -0.0016854693 -0.0061740554 0.004271786 0.0047612144 0.0006219225 0.00767816
-0.009662816 -0.0064928443 -0.0070958566 0.0043523666 0.0077468976 0.005606964 -0.010008226 0.0027897288
-0.0075136432 0.016240466 -0.004931276 0.0059876796 0.0014197903 0.00711542 0.014930328 -0.008365905
-0.004400286 -0.0067052892 -0.0049134586 0.016491143 0.009719861 0.0019253943 -0.0031526862 -0.0016799904
0.006305422 -0.003006412 -0.012068127 -0.009571271 -0.00640057 0.005248561 0.0011075564 -0.013535095
-0.008241304 0.0034466444 -0.0023083703 -0.004828367 -0.004646956 -0.004816438 -0.00086324394 0.0009615291
0.0065865945 0.006492479 0.00017791204 0.015707316 -0.0068340134 -0.012885362 0.0048271534 -0.0031662057
0.004569425 0.009275835 0.008711157 0.0024064155 -0.0034174342 -0.014994814 0.0067669367 -0.011046744
0.0014243011 -0.009462397 -0.009117873 -0.00042012119 0.005938471 -0.0024158808 0.0075294706 0.0091879135
0.00085115415 0.0064514903 0.0059068305 -0.009329232 0.00044421782 -0.0042440398 -0.00089135085 0.0029969208
-0.0004325484 0.009057326 -0.0049896627 0.001641095 -0.010563521 0.0026525254 -0.0043726475 0.0010873472
-0.01065529 -0.0009816466 0.0034326254 0.004490852 -0.009696144 0.00724414 0.0012937923 0.0028539405
-0.0062083565 -0.001329334 0.002188761 -0.000776055 0.0066633336 0.00717971 0.0016466881 0.00879502
-0.005490984 0.00079172937 -0.005218549 -0.0020502715 -0.0036726766 -0.0018619193 -5.062291e-05 0.0028328963
0.006341401 -0.0012545886 0.0012240886 0.004176402 -0.01032438 -0.005510093 6.579783e-05 0.012974633
0.0010743309 -0.01301014 0.013721538 0.002545911 0.0033998827 0.0053292 0.0008348999 -0.0057063443
-0.0071760193 -0.0065524825 -0.0061650644 0.00013687229 0.014270727 0.0062328926 0.0033070538 -0.00426709
-0.010081594 0.012886977 -0.003212331 -0.009770594 0.0021217642 0.005053622 0.0027681997 0.0005834463
-0.013099892 -0.012183015 0.0030692099 0.008858984 0.0073676887 -0.0040447083 0.00021429731 0.00640277
0.01662544 0.0022168395 -0.0017290171 -0.004298572 0.00722675 0.006615821 0.0016086558 0.0034857194
0.01376783 0.00034552664 0.0059644375 -0.011685026 -0.01038848 0.004367721 -0.010492657 0.006840059
-0.002740911 0.019032456 -0.004074095 -0.0008048428 -0.0071956622 0.0011003492 0.0013425911 0.008203579
-0.0045446674 -0.0016339525 -0.007243551 -0.009890591 0.0020576878 -0.0030362303 -0.007865907 -0.005954931
0.011507215 -0.0012988701 0.012078067 0.006003019 0.013759374 0.0018568636 -0.0014960048 0.00803631
-0.003190216 -0.003950608 -0.00031674578 0.013456133 0.0062663527 0.006974366 0.0019773336 -0.001185808
-0.0054669236 -0.0029555343 0.0020742964 -0.0076105422 0.003147504 0.003206846 -0.0018172937 0.0023692832
-0.008516776 0.0140686715 -0.004197455 -0.0041378136 0.0073951622 -0.005661823 -0.001677758 -0.0009419293

discrete_action_output_shape f4 [1, 3]
00000000: 0000 4040 0000 4040 0000 4040
3.0 3.0 3.0

network_body._body_endoder.seq_layers.0.bias f4 [256]
00000000: b2f1 543b f735 c83a f2a2 b13a 937e 78bb
00000010: 6978 8139 3957 463b 0b07 22ba afac 243b
00000020: 540a b4ba 128b 593a 2c57 8f3a 0961 0f3b
00000030: 83d9 6a3b a78d 7a3b 57b5 8abb 9867 75ba
00000040: d7ef 6738 875f 32bb 736c bc3a 850b f5ba
00000050: 5501 013b 2224 1b3b f64c 95ba 5169 5fba
00000060: b95b ec3a 0cfb 90bb 5418 903b d464 08bb
00000070: 2d56 8cbb 329b 8fba 7844 e9ba f756 33bb
00000080: fa0c 0d3a 48e7 e3ba 4ce4 b3ba b80b 1b3b
00000090: 024c fbb9 b064 e5b8 833f b7b9 c641 8bbb
000000a0: aab0 4c3b c4c3 3a3a 0add 47bb e71c 0b3b
000000b0: a7d0 c238 fa52 263b 826a 8aba 7e0a a53b
000000c0: 7aeb 883a fb8d 79ba 0377 3e3b dafd 683b
000000d0: 363a 88bb 8cb4 363a 8802 e3ba a46f 76bb
000000e0: d230 4a3b 83ae c3b9 2ad4 4ebb bf6b d9b9
000000f0: 9bf3 a23a ebcd ddba 4345 01ba 7910 1a3b
00000100: c8af 093b a0a3 04bb 6a5c ddb9 2700 10ba
00000110: 941d cc39 5120 5f3a b8ce d9b9 daac 41bb
00000120: b1d6 0e3b 2e4a 0c3b ed79 103a 0695 003b
00000130: 26ce 9e3a 24b6 92ba 7ace 023b b320 063b
00000140: f13b 98ba 7e26 853b e841 853a fb9d 59bb
00000150: 4688 9839 199d 47bb ceb0 853b cb85 3b3a
00000160: 6a38 78b9 d8a9 94ba 779d 36b9 600b afb9
00000170: 1d26 433a fef9 00ba 7582 13ba 0031 98ba
00000180: 72e3 36bb 8c82 c0bb 0a69 76b7 b7e3 30bb
00000190: 204b 923b 63dd 873b 3eb0 abba 248a cbba
000001a0: daaa 523b a576 81ba 9e30 ea3a a683 373b
000001b0: 082d 7db8 4830 023b 3cc0 153b d7cf 97bb
000001c0: 97f0 fb3a d273 3839 a1ac 083a 6cfa 7b3a
000001d0: 7eee 473b e7a9 41ba 6968 273b 7bc4 17bb
000001e0: 73ae 95ba 546a 22bb 3cfc 3c3b 5c67 0e3b
000001f0: 63cb c339 df15 0b3a 7ab7 8aba 45bc c3b9
00000200: 85d1 9b3a 7edd 9a3a a842 3139 4d07 ebba
00000210: ab54 c53b 75f2 073b da34 723a 3afe 6cbb
00000220: cf42 6e3a 6ca2 84b9 b3b8 143b 67b7 2abb
00000230: 98a5 c73a b955 b9bb c074 9635 fd37 37bb
00000240: 6079 753a 19bd 96bb b28c 62bb 1658 8ebb
00000250: c1fa d9b9 68af 88ba 7807 a737 2311 fbba
00000260: 4294 8e3b c437 1b3b 99a5 aab9 9b01 c33b
00000270: bc79 223a a583 8d3a 5ae2 fbbb 0419 a23b
00000280: d89d 95ba a463 2abb 4538 c03a 5614 153b
00000290: f7d6 f0ba 962e 7a3b c7ba 1a3b 3c61 6d39
000002a0: c8f9 f53a 58ac 833a 5eb4 3eba bcb0 32bb
000002b0: 6e63 533b 85be 49ba 4564 833a f112 caba
000002c0: 80f2 babb b3ee bc3a de89 e239 5d40 c53a
000002d0: 8069 a93b c623 953a 06d0 4d3b a5a6 c3ba
000002e0: ac27 c43b 09a0 ca3a 187c 8ebb 24c3 43ba
000002f0: 5a66 87bb 9f31 c73a c2fa 833a a7a7 193b
00000300: 6c56 eb3a 2c9f 27b9 72a5 cab8 db2f 4bbb
00000310: f98e 0fbb 8cbc 133b 5bc3 05bc 4dac 9b3a
00000320: 47be f7ba ad99 ee3a c089 f3ba 1828 a93a
00000330: 0290 78ba e7e4 b9ba 08bb 603b 4e3d 58bb
00000340: fdeb 02bb 9db5 eeb9 cdf0 f63a b904 95ba
00000350: 86ad 9dbb c1ce 613b eda4 833a 69df ba3a
00000360: 0795 953b a4b9 c5ba 5391 acba eb7e e4ba
00000370: 90d2 57bb aa09 1a39 b4ad ce39 d065 73ba
00000380: 212f 7dbb 54b1 eeba 45f7 81ba 69fb 8d3b
00000390: 1879 67bb f0cb c13a 526b 09ba df05 4fb8
000003a0: eeee c8ba b846 123a d6a1 46ba 301a 0fbb
000003b0: cf3f d6b9 123c 05b9 0d77 61bb 12d6 863a
000003c0: aee0 88ba 984c 6b3b 5823 223b 3cc0 903a
000003d0: 637d 153b e489 633b d3a1 a33b 83fb 9b3a
000003e0: 5a06 91bb 00e3 5dba 110c e03a 263b 013b
000003f0: f615 f5ba e6dc 28ba 31e5 bbba d498 c2ba
0.0032492694 0.0015274872 0.001355259 -0.003791724 0.0002469451 0.003026439 -0.0006180859 0.0025127342
-0.0013735988 0.0008298616 0.0010936013 0.0021877906 0.0035835213 0.0038231404 -0.004233043 -0.0009361445
5.529806e-05 -0.0027217583 0.0014375582 -0.001869545 0.0019684632 0.002367266 -0.0011390734 -0.0008522468
0.0018032707 -0.0044244584 0.0043974314 -0.0020812051 -0.004282734 -0.0010956286 -0.0017796895 -0.0027365068
0.0005380657 -0.0017387653 -0.0013724654 0.0023658108 -0.0004793108 -0.000109383254 -0.000349518 -0.004249784
0.003123323 0.0007124508 -0.003049674 0.0021226944 9.2895054e-05 0.0025379048 -0.0010560306 0.005036651
0.0010446154 -0.0009519753 0.0029062636 0.0035551698 -0.00415733 0.00069696526 -0.001731948 -0.0037603164
0.0030851853 -0.0003732332 -0.0031559565 -0.00041469742 0.0012432219 -0.001692233 -0.000493128 0.0023508354
0.0021009315 -0.002023913 -0.0004222126 -0.0005493187 0.0003893195 0.00085115904 -0.00041543483 -0.002955249
0.0021795447 0.002140652 0.00055113324 0.0019620075 0.001211588 -0.0011193198 0.0019959495 0.0020466268
-0.0011614544 0.0040634265 0.0010166736 -0.0033205736 0.0002909323 -0.0030458628 0.0040799147 0.00071534206
-0.00023672139 -0.0011342121 -0.00017415533 -0.00033387076 0.0007444339 -0.0004920064 -0.00056270446 -0.0011611283
-0.0027906564 -0.0058749374 -1.4687199e-05 -0.0026991197 0.004464522 0.0041462644 -0.0013098789 -0.001552884
0.0032145292 -0.0009877278 0.0017867272 0.0028002053 -6.036184e-05 0.0019865204 0.0022850176 -0.0046329307
0.0019221482 0.00017590754 0.0005213712 0.0009612206 0.0030507143 -0.0007387683 0.002554441 -0.0023157883
-0.0011419788 -0.0024782615 0.0028836867 0.0021729087 0.00037344833 0.0005305688 -0.0010583245 -0.0003733357
0.0011888003 0.0011815277 0.00016904867 -0.0017931253 0.006022056 0.002074388 0.0009239443 -0.0036162273
0.0009088935 -0.00025298016 0.0022693097 -0.0026049258 0.0015231846 -0.005655971 1.120985e-06 -0.0027956956
0.00093640946 -0.004600179 -0.0034568724 -0.0043439968 -0.00041576292 -0.0010428252 1.991143e-05 -0.0019154887
0.00435117 0.0023684362 -0.00032548307 0.005951119 0.00061979494 0.0010796679 -0.0076868953 0.0049468298
-0.0011414839 -0.0025999332 0.0014665207 0.0022747717 -0.0018374611 0.003817474 0.0023609863 0.00022638304
0.0018766457 0.0010045869 -0.00072748016 -0.0027265986 0.003225531 -0.0007695931 0.001002439 -0.0015417022
-0.005705178 0.00144144 0.00043208798 0.0015049089 0.0051700473 0.0011378459 0.003140451 -0.0014926983
0.0059861746 0.0015459071 -0.004348289 -0.0007467738 -0.0041320743 0.0015197283 0.0010069238 0.0023445876
0.0017954833 -0.00015985657 -9.662927e-05 -0.0031003866 -0.0021905287 0.0022542803 -0.008164252 0.0011876911
-0.0018901312 0.0018203758 -0.0018580481 0.0012905626 -0.0009481908 -0.0014182598 0.0034291167 -0.0032995525
-0.0019977086 -0.0004553021 0.0018840075 -0.0011369205 -0.0048119454 0.003445551 0.0010043659 0.0014257255
0.0045648846 -0.0015085232 -0.0013165869 -0.0017432844 -0.0032931902 0.00014690185 0.000394208 -0.00092848856
-0.0038632827 -0.0018210807 -0.0009915611 0.004332949 -0.003531998 0.001478551 -0.0005242127 -4.9358114e-05
-0.0015329996 0.0005579996 -0.0007577216 -0.0021835677 -0.00040864802 -0.00012706246 -0.0034403235 0.0010287187
-0.0010442936 0.0035903808 0.0024740305 0.0011043618 0.0022810332 0.003471964 0.004993656 0.0011900518
-0.004425806 -0.00084643066 0.001709344 0.0019719093 -0.0018698561 -0.0006441608 -0.0014335272 -0.0014846572

network_body._body_endoder.seq_layers.0.weight f4 [256, 27]
00000000: 024c ecbe 6e31 703e 34c0 893d e799 b93e
00000010: 52f1 18bd 818f eabd 8286 ecbc 7364 423e
00000020: 7428 4c3d c179 edbd 14a7 7bbd 95e8 31bc
00000030: e1bb 583d 2433 f23d d1e6 cebd 92a5 96be
00000040: c583 a7bd e70e 983d 9d3d a83c 7af5 093f
00000050: 59cc 05bc 9c38 903e 0b86 33bf 9948 27be
00000060: f05a c53d 73e7 403e 68ee 1ebd 1782 c13d
00000070: 07f6 b4bd 1a8b 62be d759 353e 5a75 1abe
00000080: a1e1 a4be 3963 a93d 898f cd3e 62e1 253e
00000090: e160 b13d be71 353e 9d89 1abe 2bec bdbd
000000a0: c3a9 a93e 8b34 c83e 09cb a2be 67e4 cfbe
000000b0: 0e5d a0bd 6b17 52be eb1a dabd 78d6 74be
000000c0: 0c2b c2bd 84bb 7cbe 4f4d c33d 3b0f ad3d
000000d0: 55df 1b3e ac55 013e 9695 1fbe 9629 40be
000000e0: 0942 bf3c 227e ee3a 04cb a0bd 6cba 6d3d
000000f0: dbac 76bd aab9 423d 7f7e 093e b2ec 24be
00000100: f94d a13e 7db5 993b 975a 49be 55ab 7bbe
00000110: fc46 b6bd 5d7d f9bd be99 6f3e 446e 01be
00000120: 159e 2abe 6aa0 d23d 853a 05be 851b 503e
00000130: efbb 99be 3d07 a03e b872 e4bd 59a5 c8bd
00000140: d022 443e d442 cbbd 8c00 bfbe a51c a4be
00000150: 81db 69bd 6c6b 30be b988 56bd 773b 9f3c
00000160: bdd2 3c3e 4f9c 81bd 54ff 7abc e20d 91bd
00000170: 93de f43d 8cb8 d23d f9d5 8abe 8fd4 d03e
00000180: f652 2a3e 2465 9f3e 2f55 b33e fd19 b7be
00000190: 4ef1 e63d 6510 acbe c527 93bc 5ae5 813e
000001a0: f68d 21bc ba63 dbbd 43bf 9c3a 4de9 cfbd
000001b0: 176c 26be 5079 55bc 959c 1f3e 746b d33d
000001c0: 7286 b7bd e720 bfbe 297a 48bd cc91 0abe
000001d0: bcbd 76be 23c9 5a3d e736 133e 89e1 05bf
000001e0: 630b 8b3e 5150 2c3e adbf dc3d 9f83 25be
000001f0: 24e5 d8bd 83f9 2a3e 3fcc 07be 3887 f8ba
00000200: caea fbbd 2dc1 2f3d 73c1 df3e d408 5c3d
00000210: 6277 44bd 79d0 0f3e 5cb1 41bc e0d4 0e3d
00000220: 5a4d 383d 6fbc 00bd 0b9c 6d3e fa73 853e
00000230: e35e 203c 623f e4bd 44cd abbd 452c 95bc
00000240: 0df9 40be 49e2 3a3b 7213 13be 425f 12be
00000250: aca4 41be 70dc 3c3e 1fb3 4e3e 0dfe 193d
00000260: 512e 343c 6ddd f0bd 0242 bb3e 980b e7bc
00000270: d054 4c3e c925 2c3e 5cc9 29be 83ea ba3e
00000280: ef31 1f3e 0d76 febd e80d 6d3d 891f 9e3e
00000290: f670 8f3e 8b51 aa3e 3657 96be d9db 11bd
000002a0: 30cb b2be c8e7 a6bd b366 b33e a43f ad3e
000002b0: 24ea e53d f50d 623e 2ddb a63b ae40 1d3e
000002c0: 7726 c43d 4f28 9c3c d106 97be fe81 f13d
000002d0: 7461 31be 3672 c6bd d5d7 2a3e a055 4c3e
000002e0: 7696 d23d 2500 b23d 31f6 c5bb e763 a6bd
000002f0: 46be b2bd 8581 073e 6a67 0fbe ac2c 0bbd
00000300: b015 4cbe 3ef8 21bd 01c1 94be 3b06 0f3e
00000310: b0dd 13be 89a8 5b3e e6cf 7cbe 6df8 47bd
00000320: ee21 9bbd 5213 e5bc 877a 1dbf 88b0 b9bd
00000330: 84d8 203e 1626 c8bd 71e8 afbe 6491 113d
00000340: 432e 30bc 2433 d53e d5d4 1c3c 0c8e 63be
00000350: f1f3 9ebd fdc7 0abe c461 dbbd 3824 10bd
00000360: 8c3d 07be 5af6 063d b04b 6abe e313 0a3e
00000370: 829e 14be a7c2 6d3e f3a2 c3be f446 ba3e
00000380: ea8f 223d 4e9a 983e 125b e03d 1325 553d
00000390: f13f 773e 3988 c2bd 5dcd 983d b303 70be
000003a0: 0631 9abd 1daa 8a3e 1821 a23e 0f57 a9bd
000003b0: fae9 4abe 977a 543e 2c76 513e b2ae 74bd
000003c0: 5d0b c8bd 4b9d ff3d b8fa 8bbe 94d8 8abe
000003d0: 6000 5c3e 8ca4 9cbe 969d 253e c5c6 f43c
000003e0: a361 afbe 7a72 893e 197d fbbd eaf8 033f
000003f0: 7f71 0bbd 4e16 b23d 73ab 97be f2c6 98bd
-0.4615174 0.23456356 0.06726113 0.3625023 -0.037339516 -0.114531524 -0.028872732 0.18983631
0.049843267 -0.11595488 -0.061438635 -0.0108586745 0.05291355 0.118261606 -0.101026185 -0.29423195
-0.0817943 0.074247174 0.020537192 0.5389019 -0.008166396 0.2816819 -0.7012641 -0.16336288
0.096364856 0.18838291 -0.03880158 0.09448641 -0.088359885 -0.22123376 0.17710052 -0.15083829
-0.3220339 0.08270878 0.4014857 0.16199258 0.08661056 0.1771917 -0.15091558 -0.09273561
0.3313733 0.39102587 -0.3179553 -0.40603945 -0.07830249 -0.20516746 -0.106496654 -0.23909938
-0.09480867 -0.24680907 0.0953623 0.084501706 0.15221913 0.12630337 -0.15584406 -0.18765864
0.023346918 0.001819555 -0.07851222 0.058039114 -0.06022344 0.047540344 0.1342716 -0.16105917
0.315048 0.0046908245 -0.19663464 -0.24577077 -0.08900258 -0.12182114 0.23398492 -0.12639719
-0.16661866 0.10284503 -0.13010605 0.20322998 -0.30026194 0.31255522 -0.11154693 -0.097971626
0.19153905 -0.09924856 -0.37305105 -0.32053104 -0.0570941 -0.17228478 -0.052376483 0.019437535
0.18439765 -0.063286416 -0.015319664 -0.07082726 0.11956515 0.10289106 -0.27116373 0.4078717
0.1663321 0.31131852 0.35025927 -0.35762015 0.11276494 -0.33606258 -0.0179633 0.25370294
-0.009860506 -0.10712381 0.0011958856 -0.101519205 -0.1625217 -0.013029411 0.15587075 0.103232294
-0.0896119 -0.3732979 -0.048944626 -0.1353218 -0.24095815 0.053414475 0.14376412 -0.52297264
0.27157125 0.16827513 0.10778747 -0.1616349 -0.1059058 0.16696744 -0.13261507 -0.0018961197
-0.12300642 0.042908836 0.43702278 0.053719357 -0.047965415 0.1404437 -0.011822071 0.034870982
0.044995643 -0.031429704 0.23204057 0.26065046 0.009788248 -0.11144902 -0.08388761 -0.018209586
-0.18845005 0.0028516224 -0.14362887 -0.1429415 -0.18910474 0.18443465 0.20185517 0.037595797
0.010997371 -0.117609836 0.36573797 -0.02820377 0.19954228 0.16811289 -0.16580719 0.36507043
0.15546392 -0.1242486 0.05787459 0.30883434 0.2801587 0.33265337 -0.29363412 -0.035610054
-0.34920645 -0.081496775 0.3503929 0.33837616 0.112262994 0.22075637 0.0050920458 0.15356705
0.09577649 0.01906219 -0.29497388 0.11792372 -0.17322332 -0.09689753 0.16683896 0.19954538
0.102826044 0.08691434 -0.006041311 -0.081245236 -0.08727698 0.13233002 -0.14004293 -0.03397815
-0.19930148 -0.039543383 -0.290535 0.1396722 -0.14440036 0.2145101 -0.24688682 -0.0488209
-0.07574831 -0.027963314 -0.61515087 -0.09066874 0.15707594 -0.09772889 -0.34357026 0.035539046
-0.010753217 0.4164058 0.0095722275 -0.22222155 -0.07761372 -0.13552852 -0.10712007 -0.03519079
-0.13207072 0.032949783 -0.22880435 0.13484149 -0.14513591 0.23218785 -0.38210258 0.36382258
0.03968803 0.29805225 0.1095487 0.05203731 0.24145485 -0.09498639 0.07461045 -0.23438911
-0.07528882 0.2708291 0.31665874 -0.08268558 -0.19815817 0.2074989 0.20455235 -0.059736915
-0.097677924 0.12481173 -0.2733972 -0.2711836 0.21484518 -0.3059429 0.16173396 0.029879937
-0.34254178 0.2684515 -0.1227972 0.5155169 -0.034043785 0.086956605 -0.29622993 -0.07459821

network_body._body_endoder.seq_layers.2.bias f4 [256]
00000000: 7758 11b9 fd1a b6ba 8a9e 023b af1a 40bb
00000010: 92f5 4d3b 060f a1ba 7e6d 543b c926 e139
00000020: 46d4 2e3b dfed ccba e259 603b 2935 fd3a
00000030: d705 893b 688b 1fba 2358 9439 2125 e5b9
00000040: cec6 12bb 2e72 b4ba 9301 bc3a 8044 88bb
00000050: 2d9e 8f3b 641e 853a 971f d9ba 84f5 4cbb
00000060: 35a6 b6ba 5a47 ea39 02c5 1039 1609 f137
00000070: fff6 d33a bbdd de3a 8b3c dbba 62d2 54bb
00000080: 30a0 5bbb ed91 f53a 6074 8b3a ba0a 9fba
00000090: 49ad 9f3a eeae 423b d4ab 6b3a ad63 973a
000000a0: 7d08 a13a 2871 393a e769 283b 97dd 8138
000000b0: e0ab 9a37 f5d6 cb3a f33e 0fbb dd7c 4a3b
000000c0: c4ec adba 6743 0f3b 18d9 883a fcfe 143b
000000d0: f08a 5cba de09 8cba 2000 ae39 061c 06bb
000000e0: 914c 293b c0e7 1fbb 383c 003b 1fe3 e73a
000000f0: ead4 213b 7447 e938 cc82 13b9 9dcd 083a
00000100: 378e 513b 7bdc 39ba 338a c4ba 346e 18bb
00000110: a1ad 38bb 728b 52ba 8b21 883a 73de 133b
00000120: bfec a43b 4015 5b3b d6b1 c139 0297 3cb9
00000130: c48a 223a d7c2 c73a 1ff1 703b 267b 203b
00000140: c349 223b cc96 f9b9 f13c a0ba 1d52 343b
00000150: 2641 1abb d79f be3a d392 4b3b 9ab7 4539
00000160: e8aa 1cbb 3c63 a43a 192e 6e3a 3566 daba
00000170: c16b d53a 8953 763a 0dd9 313b f275 1d3a
00000180: b59b 38bb 565b 9a3a d4ca 39bb be79 ab3a
00000190: 8bd4 2ab9 f318 233b dfd4 05bb b1df 3c3b
000001a0: ca3e a03b da53 973b f016 c03a eca2 743b
000001b0: e2bd 7e3b c528 9aba ad61 75ba 67a6 2dba
000001c0: ad15 9cba 3f00 bb3a d138 c3ba d5d1 02bb
000001d0: 3088 8bba c1d7 123b e8f3 14ba 93f7 95bb
000001e0: 34b8 d939 43d4 d5ba fb89 a1ba 30d9 0c3b
000001f0: 6faf 363b 2dd3 3639 66a1 343b 01d4 ce38
00000200: e784 c63a 503d 8eba af49 613b f310 d4b9
00000210: b53a 1b3b 44e0 b4ba f64d 2e3b e095 293a
00000220: 6de1 093a 12f5 073a baf5 0dbb c261 3d3b
00000230: 95ca 60b9 ab39 b7b9 85c9 92bb a2eb 50bb
00000240: bea4 a83a 3a8e 84bb 5459 953a ee6c 78ba
00000250: 62c4 293b 8079 4938 d9ea 473b f4be 31b7
00000260: 43ed 23bb bd73 f8ba 2253 f2ba 69b0 683b
00000270: 0e03 ba3a ebbc b23b cd46 423a 8ac8 4eba
00000280: 64f5 7aba 9177 04bb d461 433b d8ec 5cba
00000290: 16a8 76ba 0910 c83a cd29 8e3b f1cc 913b
000002a0: 094b 8b3a f881 a4ba ad99 f6b9 dfe8 90ba
000002b0: c741 3d3a f89a 49b9 500b a03a 1533 23bb
000002c0: 53ad e6ba ab4f 9ebb 163c 94bb 1a4a 0e3b
000002d0: a680 9dba f051 74ba 949c dfba 2ea9 a0ba
000002e0: 13fb 033b 59c9 ff3a 3f3e 613b a1a2 043b
000002f0: dfa9 39bb bade c538 9507 0b3b 1a8e 72bb
00000300: e222 16bb d77f c4b9 a38b ebba e37b fd3a
00000310: 3717 f2ba 582d f63a f000 063b f614 763b
00000320: da13 de3a fa19 0a3b 2f3d e2b8 1180 3dba
00000330: e920 073b 1f16 74bb 76d3 4f3b 7b99 85ba
00000340: 0f9e 463b aea7 3dbb 94e3 dbb9 180b 253b
00000350: 7e60 bd3b 7e20 da3a 8635 8bba f8ec e3ba
00000360: aaeb 773a 10fc 68b9 3d5c 913a 76d1 d73a
00000370: c153 5eba 3539 183b c418 f6b9 e781 493b
00000380: a599 6dba 824a 0a3a fe31 203a d091 f83a
00000390: 9845 c0ba 866a 64ba f681 683b d4b9 f8b9
000003a0: f64e 783b a414 173b 9e27 30bb 54e9 3bbb
000003b0: bcfa 76bb 255f a4ba 21ee dbba 636c 273b
000003c0: fdb7 6ebb f30e 91b9 e0b3 a238 73a2 b63a
000003d0: c128 373a d8c8 c5ba a0b9 80b9 cd6e d9ba
000003e0: efa0 253b 754d 57ba 93fd 9f3a 1d6c bf3a
000003f0: 5e5c e939 c8b6 843b 0ff8 aa3a 4ddb c93a
-0.00013861233 -0.0013893541 0.0019930922 -0.002931278 0.003142689 -0.0012287803 0.0032413895 0.0004294424
0.0026676818 -0.0015634856 0.0034233262 0.0019318211 0.0041816044 -0.0006086142 0.00028294427 -0.00043705947
-0.002239633 -0.0013766938 0.0014343731 -0.0041585565 0.0043828697 0.0010156152 -0.0016565201 -0.0031274268
-0.0013935032 0.0004468512 0.00013806301 2.873367e-05 0.0016171633 0.0017003337 -0.0016726417 -0.003247403
-0.0033512227 0.0018735506 0.0010639541 -0.0012133934 0.001218238 0.0029706317 0.0008990143 0.0011550091
0.0012285855 0.00070740515 0.0025697888 6.192474e-05 1.8438266e-05 0.0015551733 -0.002185759 0.0030897178
-0.0013269414 0.0021860243 0.0010440676 0.002273499 -0.0008413037 -0.0010684093 0.0003318796 -0.002046348
0.002583299 -0.0024399608 0.0019567143 0.0017691589 0.0024693557 0.00011123615 -0.00014067738 0.0005218627
0.0031975636 -0.0007090044 -0.00149948 -0.0023259046 -0.0028179663 -0.0008031643 0.0010385973 0.002256301
0.005033105 0.0033429414 0.00036944327 -0.00017985332 0.0006200487 0.0015240562 0.0036764813 0.0024487465
0.0024763204 -0.00047605333 -0.0012225193 0.0027514764 -0.0023537367 0.0014543486 0.0031062856 0.00018855781
-0.002390558 0.0012541781 0.00090858486 -0.001666254 0.0016282724 0.0009396603 0.002713743 0.000600665
-0.002816898 0.0011776488 -0.0028349655 0.0013082547 -0.00016291642 0.0024886697 -0.002042107 0.0028819854
0.0048902975 0.00461815 0.0014655273 0.0037328554 0.0038870503 -0.0011761418 -0.0009360563 -0.0006624222
-0.0011908315 0.0014267041 -0.0014894252 -0.0019961495 -0.0010645445 0.0022406431 -0.0005682097 -0.0045766323
0.00041526707 -0.0016313869 -0.0012324447 0.0021491759 0.0027875563 0.00017435542 0.0027562021 9.862334e-05
0.0015145809 -0.0010852013 0.0034376194 -0.0004044842 0.0023686115 -0.0013799747 0.0026596761 0.00064691715
0.00052597263 0.00051863596 -0.0021661357 0.002889738 -0.00021437772 -0.00034947446 -0.0044795894 -0.003187873
0.001286648 -0.004045275 0.001139442 -0.0009476681 0.0025904407 4.803529e-05 0.003050497 -1.0594482e-05
-0.0025013245 -0.0018955391 -0.001848791 0.003550554 0.0014191584 0.0054546497 0.0007411063 -0.0007888159
-0.0009573309 -0.0020212869 0.0029812949 -0.00084276265 -0.0009409202 0.0015263568 0.004338479 0.0044494797
0.0010627221 -0.0012550941 -0.00047035274 -0.0011055729 0.00072195794 -0.00019226584 0.0012210403 -0.0024902273
-0.0017599262 -0.0048312745 -0.0045237644 0.0021711648 -0.001201649 -0.0009320071 -0.0017060214 -0.0012257451
0.0020138666 0.0019514962 0.0034369377 0.0020238536 -0.002833001 9.435178e-05 0.0021214236 -0.0037010969
-0.0022908975 -0.0003747928 -0.0017970692 0.0019339289 -0.0018470053 0.0018781824 0.0020447336 0.0037549115
0.0016943172 0.0021072612 -0.00010787916 -0.0007228861 0.0020618981 -0.003724463 0.0031711734 -0.0010192835
0.0030306613 -0.0028939056 -0.00041940494 0.0025183614 0.005779325 0.0016641764 -0.001062081 -0.0017389348
0.0009457419 -0.00022219145 0.0011090111 0.0016465622 -0.0008481108 0.0023227457 -0.00046939228 0.0030747594
-0.00090637273 0.0005275385 0.0006110965 0.0018964354 -0.0014669178 -0.0008713383 0.0035477853 -0.000474407
0.0037888861 0.0023053074 -0.0026879082 -0.002867301 -0.003768607 -0.0012540562 -0.0016779342 0.0025546781
-0.0036425584 -0.00027667693 7.758266e-05 0.0013933912 0.0006986969 -0.0015089763 -0.00024552364 -0.0016588807
0.0025272926 -0.0008213141 0.0012206308 0.0014604364 0.00044510042 0.0040501095 0.0013043898 0.001540044

network_body._body_endoder.seq_layers.2.weight f4 [256, 256]
00000000: b9cb 963d 2e73 8e3b f666 cbbd 8660 91bc
00000010: 61af 0abc 1609 dcbb 5958 29bc 30fb d33c
00000020: 81bb 463d aa63 143d 83ad b83d ac39 943c
00000030: ecc5 943d b72f 8c3d 34ff ce3a 09b3 8fbd
00000040: c0c1 01be 8a9a b9bc c827 603d d9b6 08be
00000050: e7e3 1a3d 1850 d03d 195e 74bd eca7 433c
00000060: a98a 83bc 4b85 9dbd 9c1d ef3c 783b ddbc
00000070: ed56 2c3d aacf f8bd 3262 013d 9e22 153d
00000080: 4f16 95bd 520e ebbc e0de 68bc df8b 903d
00000090: 4d03 71bd 341e 243d 5d40 08be a72c 4b3c
000000a0: 54cf a53c f23b 58bd 1602 dc3d 5bcc 86bd
000000b0: 3070 0abc a1f4 80bd bcd4 323c 0c4a 3f3c
000000c0: f42c 803b 8787 49bd addd 84bd 4953 a4bd
000000d0: d3a3 4e3e 5d26 1dbd 3c8f 5f3d 2630 bc3d
000000e0: 4194 653d 4c8c 3a3c 5331 d53d 592a 99bd
000000f0: d360 58bd ebe4 65bd fcfc deb9 e6db 183e
00000100: 42f2 34bd a8c0 8ebb 347e 9b3c 8839 653d
00000110: d2a4 9ebc d939 c7bc bbe2 843b 1c39 903d
00000120: 9d31 15bd 04d2 f0bd ebbf 5dbc 1ee5 5f3d
00000130: 16b9 a33d 57b0 aebc b664 9ebd 6c4d f33d
00000140: 64c3 be3d 3a1c 05bc c284 28bc 3a70 2d3b
00000150: 7ef5 21bd c7bb 1cbd 206e f13c cbbb 00be
00000160: 1dd3 863d 9ac6 b83d 71e2 65bd e5e0 ebbc
00000170: b5e7 29bc d304 95bb e91f 933d 59aa 0f3d
00000180: 55c1 853d 10b3 593c f2fa 70bd 3bc9 8a3c
00000190: fcab 6f3d c10d a8bd 6425 cebc 897f 533d
000001a0: 256d 73bd d53b fe3d d297 d43a 58b2 ce3c
000001b0: 1e7a bdbd 3b55 9d3c 15c3 243c 1901 9f3c
000001c0: d4d2 33bd dfba f63c f416 a53c 2100 793c
000001d0: 9233 bc3c 5489 f63c 41f8 9e3c 8d65 663d
000001e0: 1e41 48bc a7e8 88bb 82e0 e43b ec16 a7bd
000001f0: dcf2 01ba f50a 5e3d 3553 33bd 88a8 55bc
00000200: f5bd 363d 44f3 d7bd 23e8 de3d 3e03 07bd
00000210: e5d0 36bc 0d7f dfbc 48fe 6dbd 1129 3dbd
00000220: 724e 5fbd 44c0 053c 66a9 c5bc 81bd 06bd
00000230: 81cc 143c b899 fa3c cb6a 4b3c 567e 1e3e
00000240: e4c9 7b3c 2fa2 9a3d 4df7 7e3d fc17 f6bc
00000250: a207 cdbc 7e34 b8bb e99e 1f3d f41d 133d
00000260: 354c 063e 4a71 8b3c 3108 8c3c 677f 3d3c
00000270: 305d a3bb 1732 f53c 1b5f 1dbb 4bc0 d7bb
00000280: cba1 f4ba 0ece 3a3d 9eb0 b7bc 0c66 1f3d
00000290: fdf7 98bd 97ba bd3b db7e 20be 9aa1 fc3d
000002a0: 0b45 ae3c 23c2 16bd 8ccb 17bd 0e79 893d
000002b0: 734f 4bbd eff0 9bbd 6838 64bd bca3 72bd
000002c0: 2434 b03d 60c8 d7bc 7729 b33d 8319 8a3b
000002d0: 698d b33d 9f49 253d d336 a83c 65e1 1b3d
000002e0: 0b05 e1bd 34d4 7b3c 89f6 3fbd 6c49 3ebe
000002f0: 1679 51bd f2ec a6bd 6519 4f3d 2db9 8cbd
00000300: d326 af3d 250d fd3d d5de debd bb4c 31bd
00000310: 35f5 553d 8655 323e ff8b 80bd a2a2 183d
00000320: e67d 01b8 736a 373d c65e 88bd f225 013d
00000330: aa04 debd 0daa f0bc f8e0 523c b453 4ebd
00000340: b709 d7bb 6c91 7b3d 94e8 f83b ded0 843d
00000350: e289 bebc 261c 88bc 897a 1ebd 4867 f43d
00000360: 4297 26bd 596d 283d 554a 0bbc b2a8 febb
00000370: 555b 9c3d 9568 ae3b 522c 6d3d f00b a83c
00000380: 8dd2 75bd 98a7 31bd 7469 013e fa82 fd3b
00000390: 81b4 6dbc 2b74 aa3d 731d c13d 33d8 363c
000003a0: c9b1 febc 1be8 86bd 08fe 8d3d 70ae 96bc
000003b0: 7b0f 2bbd c001 18bd 7912 0b3d c50f cabd
000003c0: 96fb 4f3b 2942 11bd b76b b03d 08bd ce3c
000003d0: 33bf 033e fd9c 79bc 39c8 8a3d 33f5 183d
000003e0: 844c c93d caa3 413d 5da0 87bd 4660 87bb
000003f0: 0737 22bd fb91 e5bb 4b1a 493d 694e 623c
0.07363076 0.0043472266 -0.099317476 -0.017746221 -0.008464665 -0.0067149503 -0.010336005 0.025876611
0.04851866 0.03622786 0.0901747 0.018093906 0.07264313 0.068450384 0.0015792609 -0.0701657
-0.12671566 -0.022656698 0.05472544 -0.13351001 0.037815 0.10171527 -0.05966005 0.011941891
-0.01605733 -0.07691439 0.029188924 -0.027005896 0.042075086 -0.12148984 0.031587787 0.036409967
-0.07279646 -0.028693352 -0.014213294 0.07057928 -0.05884104 0.040067866 -0.13305803 0.012400783
0.020240463 -0.052791543 0.10742585 -0.065819465 -0.008449599 -0.06296659 0.010914978 0.011675369
0.003911609 -0.049201515 -0.06487594 -0.08023698 0.20179681 -0.038366664 0.05457996 0.09188871
0.05604959 0.011385988 0.104097985 -0.0747878 -0.052826714 -0.056126516 -0.00042531628 0.14927635
-0.044176348 -0.0043564625 0.018981077 0.05596307 -0.019365702 -0.024319576 0.0040553487 0.07042143
-0.036424268 -0.11758807 -0.013534526 0.054661863 0.07994287 -0.02132432 -0.07734053 0.118800014
0.093146116 -0.0081244055 -0.010285558 0.0026464597 -0.03954076 -0.038265016 0.029471457 -0.12571637
0.065832354 0.09022255 -0.056124154 -0.028793762 -0.010370185 -0.004547694 0.07183821 0.035074566
0.06531016 0.013287321 -0.05883307 0.016941657 0.058513626 -0.08205748 -0.025164314 0.0516353
-0.05943026 0.12413756 0.0016219562 0.025231525 -0.09251808 0.01920568 0.010056277 0.019409703
-0.043902233 0.030118404 0.020152546 0.015197785 0.02297381 0.03009478 0.019405486 0.05624919
-0.012222556 -0.004178125 0.006984771 -0.08158669 -0.00049571483 0.05420967 -0.043780524 -0.013040669
0.04461475 -0.10544446 0.1088412 -0.032962076 -0.011158203 -0.027282262 -0.05810383 -0.046181742
-0.05451817 0.0081635155 -0.024128627 -0.03289557 0.009081961 0.030590877 0.012415598 0.15477881
0.015367959 0.07550465 0.062247563 -0.030040734 -0.025028054 -0.005621492 0.038969908 0.035917237
0.13115008 0.017021794 0.01709375 0.01156602 -0.004985474 0.029931111 -0.0024012986 -0.0065842024
-0.0018663941 0.045606665 -0.022423085 0.03891568 -0.07469175 0.0057900655 -0.15673392 0.123355106
0.021273157 -0.036806237 -0.03705935 0.067125425 -0.049636316 -0.07614314 -0.055717856 -0.05923818
0.08603695 -0.026340663 0.08748143 0.004214467 0.08767206 0.040353414 0.020533955 0.03805675
-0.1098729 0.015370417 -0.046865974 -0.18582696 -0.051140867 -0.081506625 0.050561327 -0.06871257
0.08552327 0.12356023 -0.108823456 -0.043286067 0.0522358 0.17415437 -0.06276702 0.037264474
-3.087325e-05 0.044779252 -0.066587016 0.031530328 -0.10840733 -0.029377962 0.01287102 -0.050372794
-0.0065624374 0.061417982 0.007596085 0.06485151 -0.023259107 -0.016614985 -0.038691077 0.11933762
-0.040671594 0.041119907 -0.008501609 -0.007771575 0.07634608 0.0053225257 0.057903595 0.020513505
-0.06001525 -0.04337272 0.12637883 0.007736561 -0.0145083675 0.083229385 0.09429445 0.011159944
-0.031090634 -0.06587239 0.06933218 -0.018393725 -0.04176281 -0.037111044 0.033953164 -0.09866289
0.003173565 -0.035463486 0.08614295 0.025236621 0.12865905 -0.015235183 0.06776471 0.037343215
0.09829047 0.047275342 -0.06622384 -0.0041313497 -0.03960326 -0.0070059276 0.04909734 0.01381264
