Assets/ML-Agents/results/Andrew ML/Smaller (finished)/SimpleCollector/SimpleCollector-18999961.pt (torch, 249511 bytes, 70 tensors)

discrete_act_size_vector f4 [1, 3]
3.0 3.0 3.0
00000000: 0000 4040 0000 4040 0000 4040

network_body._body_endoder.seq_layers.0.weight f4 [50, 27]
-1.4822654 -1.5186822 -2.114365 -1.4807472 -1.3604532 -1.4490628 -1.9182266 -0.6828401
-0.8648792 -1.2476554 -2.1083086 -2.0449717 -2.028645 -1.0932568 -0.94439423 -1.1801381
-4.270567 -2.910477 -0.23845594 -0.25789127 -0.45587355 -0.648176 -0.63927954 -0.86538506
-1.4126849 -1.212706 -1.3231376 -1.686087 -1.393159 -1.3284554 -2.4577584 -0.28822902
-0.8981648 -0.4581909 -0.45376408 -1.152432 -1.5700642 -1.8157612 -1.3867933 -1.6278538
-0.7378663 -0.848599 -0.7679992 -2.0517728 -1.8913497 -0.032831416 -0.070139565 -0.7125564
-1.6198591 -0.18237573 -0.9196826 -0.96269995 -1.9052231 -1.8258747 0.72758794 0.074845605
-0.6824798 -1.3978846 -0.074186124 0.4944339 -0.2150277 -1.0959843 -1.4226539 -1.2456472
0.5198358 0.3214674 -0.37173492 -1.4711679 -0.94766563 -1.0035472 0.6799622 -0.13199419
0.60800457 -2.0376463 -1.4725093 -1.043477 -0.32671237 -0.5109447 -1.2812866 -0.103515685
-0.019850617 -0.5724963 -0.7454364 -0.4414088 -1.1785238 -0.4175051 -0.69946676 -0.451851
0.23438087 0.274296 -1.3446707 -0.91192627 -1.3078645 -0.72719187 -1.2024885 -1.1051241
-0.41876614 -0.8024103 -1.4320136 -1.7053038 0.5471113 0.07886592 -0.08512138 -0.65285283
-0.6478888 0.14565475 -0.5545671 -0.9022991 -1.0853899 -0.022916136 0.35911825 -1.7070603
-1.2115252 -1.3641672 -0.8674455 0.33594495 0.1965803 0.18960604 -0.8342706 -0.4759511
-1.298176 -0.3903193 -0.5214024 -0.8896947 -1.0286908 -0.90541404 0.5334983 -0.82395303
-0.9538527 0.81597507 -2.2420511 -2.1707056 -0.5784595 -1.1400722 -1.0017382 0.14366826
-0.02707494 0.26921806 -0.49241585 -0.8279618 -1.1361824 -0.21804516 1.0156145 1.0133919
-0.076747596 -0.3518766 -0.01710572 0.027541857 -1.4434443 -0.6923151 0.03637888 -1.4060941
-1.5599805 0.17126414 -0.41959602 -0.07650041 -1.8448575 -1.5659369 -2.0741255 -1.5738038
-0.20226796 -0.38429493 -1.2947962 -0.154653 -0.109160334 0.93531585 0.19889076 0.5116557
-0.47995573 0.15871999 0.2854803 -1.8820795 0.9911505 0.9839402 -1.8048893 -1.0220243
-0.7517021 0.47801936 -0.46979553 -0.36060145 -0.59155744 -0.5747565 -0.6631053 -1.2296894
0.32149088 -0.46063775 -0.6308442 -2.0933213 -1.7417691 -2.1630118 -0.4844486 -0.94394445
-1.5697771 -1.1148561 -1.4689002 0.3632376 -1.2082055 -3.1209147 -1.5414635 -0.8357994
-0.94945526 -0.6891231 -1.1572073 -1.40975 -1.9556111 -1.7420666 -1.8491672 -0.11550806
-1.4122947 -1.7039428 0.39140567 -1.3847246 -1.303654 0.21035959 -1.8561054 -1.8726282
-0.6339365 -1.0301832 -0.9905124 -1.502922 0.27022856 0.04241424 -0.547027 -1.1631835
-1.2501888 -0.11749841 -1.240726 -1.0736376 -0.46193382 -0.4351781 -0.39964923 -1.2334224
-1.3651153 -1.3387251 0.36177775 -1.3545839 -1.6995782 1.001326 -2.44379 -2.2734556
-0.8025973 -0.9424554 -0.7513644 -0.3772217 -0.33604136 -0.80256647 0.35716313 0.17300205
0.36477742 -0.19891712 -0.50961566 -1.0597144 0.17903416 -0.051893592 -0.22838682 -0.50044924
00000000: dfba bdbf 2e64 c2bf c251 07c0 2089 bdbf
00000010: 5523 aebf e47a b9bf 7388 f5bf 9cce 2ebf
00000020: b968 5dbf 2cb3 9fbf 87ee 06c0 d1e0 02c0
00000030: 52d5 01c0 d7ef 8bbf d2c3 71bf c40e 97bf
00000040: 7ca8 88c0 4145 3ac0 cb2d 74be 530a 84be
00000050: 4268 e9be ddee 25bf d3a7 23bf e089 5dbf
00000060: dcd2 b4bf f339 9bbf 935c a9bf b3d1 d7bf
00000070: 0953 b2bf d40a aabf ea4b 1dc0 c192 93be
00000080: 21ee 65bf ff97 eabe c453 e8be e482 93bf
00000090: ddf7 c8bf dd6a e8bf 7182 b1bf 835d d0bf
000000a0: cee4 3cbf c93d 59bf 989b 44bf 3f50 03c0
000000b0: bf17 f2bf 3c7a 06bd 55a5 8fbd 196a 36bf
000000c0: 8b57 cfbf b4c0 3abe 5270 6bbf 8173 76bf
000000d0: 5ade f3bf 43b6 e9bf 3443 3a3f a748 993d
000000e0: ffb6 2ebf e2ed b2bf e5ee 97bd 7126 fd3e
000000f0: 3930 5cbe 3749 8cbf 8619 b6bf 5e71 9fbf
00000100: f613 053f 6097 a43e 0a54 bebe 3b4f bcbf
00000110: 379a 72bf 3c74 80bf 0112 2e3f 7c29 07be
00000120: 30a6 1b3f cc68 02c0 2f7b bcbf a890 85bf
00000130: d846 a7be 46cd 02bf 3301 a4bf 0800 d4bd
00000140: c39d a2bc 1e8f 12bf ebd4 3ebf 5600 e2be
00000150: ded9 96bf 3ac3 d5be 4110 33bf 0459 e7be
00000160: 8a01 703e 8670 8c3e 2b1e acbf 0074 69bf
00000170: 1b68 a7bf 3f29 3abf 25eb 99bf b574 8dbf
00000180: 8468 d6be c36a 4dbf 394c b7bf 6547 dabf
00000190: 7c0f 0c3f 7584 a13d 1e54 aebd 5d21 27bf
000001a0: 0adc 25bf 8526 153e 1cf8 0dbf 13fd 66bf
000001b0: 0eee 8abf 9fba bbbc 59de b73e f480 dabf
000001c0: 4213 9bbf 089d aebf e910 5ebf fa00 ac3e
000001d0: 594c 493e 1628 423e c292 55bf ddaf f3be
000001e0: a22a a6bf eed7 c7be a17a 05bf 08c3 63bf
000001f0: 24ac 83bf 37c9 67bf 5893 083f 96ee 52bf
00000200: b12f 74bf bee3 503f c47d 0fc0 d7ec 0ac0
00000210: ec15 14bf e3ed 91bf f538 80bf c61d 133e
00000220: 44cc ddbc f3d6 893e ee1d fcbe 4ef5 53bf
00000230: 6d6e 91bf 3b47 5fbe a8ff 813f d3b6 813f
00000240: d82d 9dbd 2b29 b4be 4b21 8cbc 769f e13c
00000250: c8c2 b8bf 903b 31bf 0502 153d e4fa b3bf
00000260: 71ad c7bf de5f 2f3e 4ad5 d6be 3fac 9cbd
00000270: 4a24 ecbf 9f70 c8bf 79be 04c0 6772 c9bf
00000280: 551f 4fbe 4ec2 c4be e2bb a5bf 5b5d 1ebe
00000290: 748f dfbd dc70 6f3f 05aa 4b3e defb 023f
000002a0: c2bc f5be 7e87 223e 792a 923e fbe7 f0bf
000002b0: 0abc 7d3f 81e3 7b3f 9d06 e7bf b1d1 82bf
000002c0: 8c6f 40bf f4be f43e 0a89 f0be c1a0 b8be
000002d0: 4f70 17bf 3e23 13bf 45c1 29bf 7666 9dbf
000002e0: 749a a43e b6d8 ebbe 017f 21bf faf8 05c0
000002f0: 4af2 debf c96e 0ac0 a609 f8be 58a6 71bf
00000300: 75ee c8bf 9bb3 8ebf ec04 bcbf 47fa b93e
00000310: 7aa6 9abf 11bd 47c0 ad4e c5bf f3f6 55bf
00000320: 800f 73bf 5f6a 30bf 5e1f 94bf b072 b4bf
00000330: 7751 fabf 0afc debf 83b1 ecbf 7d8f ecbd
00000340: 13c6 b4bf cc1a dabf 5366 c83e a83e b1bf
00000350: 22de a6bf 8168 573e dd94 edbf 48b2 efbf
00000360: aa49 22bf 0bdd 83bf 3892 7dbf c05f c0bf
00000370: 665b 8a3e 8eba 2d3d f609 0cbf 32e3 94bf
00000380: 3006 a0bf 02a3 f0bd 1cd0 9ebf f56c 89bf
00000390: 9782 ecbe aacf debe d39e ccbe c9e0 9dbf
000003a0: 19bc aebf 585b abbf ef3a b93e 0163 adbf
000003b0: c78b d9bf 732b 803f 0e67 1cc0 4c80 11c0
000003c0: 0477 4dbf c244 71bf 6b59 40bf 3423 c1be
000003d0: 9d0d acbe ff74 4dbf 16de b63e 7327 313e
000003e0: 1bc4 ba3e eeb0 4bbe 2c76 02bf b9a4 87bf
000003f0: bb54 373e 608e 54bd 3cde 69be 711d 00bf

network_body._body_endoder.seq_layers.0.bias f4 [50]
-1.2772702 -2.205807 -1.3765012 -0.051916994 -1.6299678 -0.3792713 -0.40809685 -1.8701978
-1.4198402 -0.68129236 -0.8343737 0.09573637 -1.5763975 -0.4892942 -0.97101206 -0.57722825
-0.59730464 -0.8282078 -0.4950215 -0.39954847 -1.1498507 -0.1412862 -0.43457243 -0.14939089
-0.25010008 0.0062419362 -0.3007324 -1.6744431 -1.0625322 0.0014540954 -0.0002052059 -0.70502424
-0.2912558 -0.45030835 -0.38176045 -0.58262426 0.61746514 -0.2388877 -0.98345006 -2.143804
0.95599216 -0.49093738 -2.2478907 0.22292349 -2.3767345 -0.18827942 -0.19179827 -1.477458
-0.381213 0.2006944
00000000: 977d a3bf f12b 0dc0 3131 b0bf eaa6 54bd
00000010: c9a2 d0bf d92f c2be 12f2 d0be a462 efbf
00000020: 53bd b5bf 2d69 2ebf 8499 55bf 6e11 c43d
00000030: 65c7 c9bf c584 fabe 3f94 78bf 3bc5 13bf
00000040: f5e8 18bf 6d05 54bf 7573 fdbe 9e91 ccbe
00000050: 4f2e 93bf 54ad 10be 4780 debe edf9 18be
00000060: 1e0d 80be 2889 cc3b 99f9 99be 2754 d6bf
00000070: 0e01 88bf 5897 be3a 8a2c 57b9 787c 34bf
00000080: 7b1f 95be d18e e6be 1b76 c3be dd26 15bf
00000090: 3212 1e3f fa9e 74be 62c3 7bbf 1634 09c0
000000a0: e7bb 743f 255c fbbe 71dd 0fc0 0e46 643e
000000b0: 6b1c 18c0 52cc 40be c466 44be 581d bdbf
000000c0: 5a2e c3be d582 4d3e

network_body._body_endoder.seq_layers.2.weight f4 [50, 50]
1.5000151 1.76381 0.5205894 2.2506986 0.9896031 0.05652347 -1.6289216 0.89798534
0.38934338 0.84344304 -1.079379 0.60743254 1.3956151 0.69027716 0.121401794 1.1192181
1.6855624 0.8167708 1.0747465 0.86008674 0.4515607 1.6838712 0.26008767 1.3547498
2.2403412 -0.8977213 2.0627444 1.6542782 0.23820965 0.34742397 0.8140892 -2.0231647
1.163434 -0.25150144 0.303052 -0.6198856 0.33105773 0.45722237 1.3263851 1.0918298
0.030721737 0.8822941 1.1938456 -1.2051123 1.0581127 -0.81748563 -0.09814858 0.99625397
0.7624689 -0.009348345 1.072875 -0.098754704 1.8154217 1.4143951 1.66258 1.3321866
1.6676401 0.020272898 0.9986383 1.5550851 0.7839293 2.400159 0.04608347 0.8689677
1.4263188 -1.1400458 1.9086018 2.730835 1.0099148 2.6736734 1.2740197 2.118316
-0.4290518 2.4203062 0.67161185 1.4234643 1.6491507 0.6469688 1.0829414 -0.73001987
2.7614703 0.9468888 1.333295 1.335077 -0.5087955 0.9092985 1.3665392 1.1297427
1.6530137 0.22666977 -0.8254991 1.1812998 0.71298295 -0.5762045 -0.373756 -1.3399574
0.41855863 0.9652087 1.2031084 1.4944582 0.3606307 0.34735802 0.30628872 0.54222804
1.245459 -0.049290705 0.17223695 -1.2343824 0.30176553 -0.27180952 0.47240624 0.6382046
-0.096455514 -0.63571435 -0.004563059 0.21156459 1.5105568 0.5688677 0.5076244 1.3236079
0.87462455 -0.08731138 -1.4218858 0.6774327 0.17218167 1.4500251 0.28394783 -0.83877224
-1.0028024 -0.21234468 -1.6881204 -0.10802899 0.33103353 0.6969795 -0.4626229 0.31489584
0.5219169 0.80418044 0.09494889 -0.21701281 -0.45524257 -0.36818933 0.088377364 -1.1570728
0.216922 0.557603 0.46947762 0.0072235893 1.3165023 -0.97248876 0.2597159 -1.2704911
0.39703658 1.1294044 1.4442871 2.2614796 -0.9300679 0.3184491 0.79646546 0.79350924
0.12363712 2.2843068 -0.010458137 0.9779675 1.17294 -0.66966 -0.8728736 0.0016379356
-0.5175071 -0.616353 2.227128 0.33371395 0.17207706 0.054979064 0.1824881 1.0829864
-1.2351998 0.34037775 1.926483 0.27787903 0.4399338 0.020096865 1.134371 0.9387116
0.62726647 1.5660825 0.46665886 -1.2457023 1.5781455 0.8159872 0.36141768 -1.1054993
1.3956178 -1.3487737 2.4694855 -0.20426357 0.028462155 0.40246043 2.5608215 2.7441986
2.4154313 1.7201661 0.4213997 0.8738771 0.26916108 0.45119563 1.928724 0.57574666
0.055291127 1.0837374 0.86241496 0.4278506 1.9662794 1.4735665 0.025221651 -0.7163602
-0.4232047 2.3443773 1.192351 0.64982194 0.5041156 1.8257346 -0.36336544 1.9279901
1.2262437 1.2214115 0.8193753 1.3657353 1.3295331 0.011034927 1.8321791 0.17049438
0.71376014 0.9260411 1.6214889 -0.07266047 0.6308962 -0.07436525 1.3709803 0.10072758
-1.5333107 0.45818934 1.5378579 -0.39950365 0.30715957 -0.88223875 2.4275103 0.2866947
0.3801362 1.7430195 -1.0254984 -0.93403155 1.0791467 0.41800317 0.84079653 1.5591389
00000000: 7f00 c03f 87c4 e13f 5945 053f 720b 1040
00000010: a156 7d3f 2785 673d 8180 d0bf 5ee2 653f
00000020: 0458 c73e e2eb 573f 1729 8abf b380 1b3f
00000030: 84a3 b23f 01b6 303f 81a1 f83d 8a42 8f3f
00000040: 82c0 d73f e417 513f 4b91 893f a52e 5c3f
00000050: f732 e73e 1789 d73f 362a 853e 7168 ad3f
00000060: c061 0f40 10d1 65bf 0104 0440 63bf d33f
00000070: 3bed 733e 8ee1 b13e 2668 503f 887b 01c0
00000080: 68eb 943f ccc4 80be a229 9b3e d3b0 1ebf
00000090: 6680 a93e 0d19 ea3e fdc6 a93f 14c1 8b3f
000000a0: 27ac fb3c 07de 613f efcf 983f 1f41 9abf
000000b0: 3d70 873f bd46 51bf 1f02 c9bd 800a 7f3f
000000c0: 2931 433f cd29 19bc f853 893f e83f cabd
000000d0: bd5f e83f e60a b53f 6ccf d43f 1785 aa3f
000000e0: 3b75 d53f 5913 a63c c2a6 7f3f 070d c73f
000000f0: 97af 483f 349c 1940 05c2 3c3d ab74 5e3f
00000100: 9d91 b63f 05ed 91bf 104d f43f 00c6 2e40
00000110: e344 813f 771d 2b40 1413 a33f 7d92 0740
00000120: adac dbbe 4ce6 1a40 c1ee 2b3f 1434 b63f
00000130: 5f17 d33f bf9f 253f d39d 8a3f 95e2 3abf
00000140: eebb 3040 4e67 723f 69a9 aa3f cee3 aa3f
00000150: 6c40 02bf c9c7 683f c2ea ae3f 699b 903f
00000160: f495 d33f 1f1c 683e e953 53bf d534 973f
00000170: 0d86 363f 2382 13bf f25c bfbe b983 abbf
00000180: 514d d63e eb17 773f 75ff 993f 684a bf3f
00000190: 96a4 b83e e9d8 b13e e0d1 9c3e 75cf 0a3f
000001a0: 336b 9f3f 0de5 49bd e25e 303e 3e00 9ebf
000001b0: 0381 9a3e 9e2a 8bbe 3bdf f13e 6061 233f
000001c0: 788a c5bd 2dbe 22bf b785 95bb 63a4 583e
000001d0: ed59 c13f 50a1 113f acf3 013f fc6b a93f
000001e0: 65e7 5f3f 4fd0 b2bd 5b00 b6bf 3b6c 2d3f
000001f0: 6450 303e 6c9a b93f 9c61 913e c7b9 56bf
00000200: d45b 80bf e270 59be 5414 d8bf 4e3e ddbd
00000210: 3a7d a93e 406d 323f e9dc ecbe 073a a13e
00000220: 599c 053f c5de 4d3f 9074 c23d 9b38 5ebe
00000230: 8e15 e9be 5083 bcbe 31ff b43d f61a 94bf
00000240: cd20 5e3e 12bf 0e3f 5f5f f03e dcb3 ec3b
00000250: 2683 a83f 06f5 78bf 7cf9 843e 749f a2bf
00000260: 6148 cb3e 5390 903f 66de b83f 15bc 1040
00000270: ee18 6ebf c30b a33e 29e5 4b3f 6c23 4b3f
00000280: 7535 fd3d 1532 1240 9b58 2bbc 145c 7a3f
00000290: e622 963f d66e 2bbf a574 5fbf 00b0 d63a
000002a0: 587b 04bf 4fc9 1dbf 4489 0e40 8edc aa3e
000002b0: f834 303e ba31 613d 29de 3a3e 4c9f 8a3f
000002c0: 071b 9ebf fe45 ae3e ff96 f63f 2946 8e3e
000002d0: 013f e13e 2ea2 a43c 1233 913f 674f 703f
000002e0: 8994 203f 6475 c83f e9ed ee3e 2c73 9fbf
000002f0: ac00 ca3f 8ae4 503f bd0b b93e 0081 8dbf
00000300: 9ba3 b23f 9ea4 acbf 0d0c 1e40 782a 51be
00000310: 7729 e93c 4b0f ce3e 80e4 2340 f3a0 2f40
00000320: 6d96 1a40 672e dc3f b4c1 d73e 69b6 5f3f
00000330: 7bcf 893e 1d03 e73e 6ee0 f63f 2264 133f
00000340: f378 623d e8b7 8a3f 3ac7 5c3f 3c0f db3e
00000350: 0baf fb3f d49d bc3f a39d ce3c 6263 37bf
00000360: 49ae d8be 470a 1640 f59e 983f bb5a 263f
00000370: b80d 013f acb1 e93f 090b babe 61c8 f63f
00000380: 8ef5 9c3f 3657 9c3f 94c2 513f 6ad0 ae3f
00000390: 242e aa3f d7cb 343c d884 ea3f 1496 2e3e
000003a0: fcb8 363f 0811 6d3f f38c cf3f 03cf 94bd
000003b0: 6a82 213f cf4c 98bd 487c af3f 434a ce3d
000003c0: 8643 c4bf cb97 ea3e 87d8 c43f be8b ccbe
000003d0: 0544 9d3e 66da 61bf 545c 1b40 a6c9 923e
000003e0: 36a1 c23e 431b df3f 8843 83bf b11c 6fbf
000003f0: 7b21 8a3f 8304 d63e 713e 573f dd91 c73f

network_body._body_endoder.seq_layers.2.bias f4 [50]
-0.21106939 -1.9783199 -0.6389635 -0.2355528 -1.2521937 -1.149901 -0.87804157 -2.6127784
-0.16000673 -1.1428785 -1.7100475 -0.4086096 -1.4966989 -0.4950578 -1.6563953 -1.6383213
-0.6771291 -1.4246106 -1.0811293 -1.5166614 0.07006862 -1.7262008 -0.31026804 -1.2278562
-0.88639885 -1.6805753 -1.3267303 -2.257852 -1.2296044 -1.1742305 -0.13381352 -0.8581706
-1.2895129 -1.6702436 -1.8690273 -0.9877401 -1.374219 -1.3220106 -1.4574809 -1.4056592
-0.14818218 -1.5305799 -1.7219245 -0.95861286 -1.0784609 -1.0391383 -1.9121208 0.45960057
-1.2611308 -0.88326913
00000000: 9322 58be 9639 fdbf 1d93 23bf c134 71be
00000010: e247 a0bf f52f 93bf 55c7 60bf c337 27c0
00000020: ced8 23be d849 92bf d6e2 dabf 4735 d1be
00000030: d493 bfbf 3778 fdbe c304 d4bf 83b4 d1bf
00000040: 5558 2dbf a459 b6bf 7262 8abf f621 c2bf
00000050: 2380 8f3d 26f4 dcbf 74db 9ebe 642a 9dbf
00000060: 09eb 62bf 171d d7bf 4cd2 a9bf a680 10c0
00000070: ad63 9dbf 2f4d 96bf 6906 09be 12b1 5bbf
00000080: c20e a5bf 8bca d5bf 493c efbf 89dc 7cbf
00000090: 68e6 afbf a537 a9bf bc8e babf a4ec b3bf
000000a0: 12bd 17be 0bea c3bf 0668 dcbf a767 75bf
000000b0: 020b 8abf 7c02 85bf 60c0 f4bf c450 eb3e
000000c0: bc6c a1bf ed1d 62bf

network_body._body_endoder.seq_layers.4.weight f4 [50, 50]
1.720489 1.248548 1.2320812 -0.43674934 0.41283745 0.9153407 0.8796373 1.1226505
0.32888576 1.3159167 1.6590526 0.46456164 1.294983 0.09185296 2.497066 0.25845224
0.4078314 1.6155475 1.0066823 2.3966608 -0.11997146 1.3687617 -0.17535311 1.9746579
1.6078646 0.6720407 2.0629334 1.1788691 -0.0827272 2.3959951 0.72971267 0.69437546
2.0056992 1.2717341 1.9186234 1.2228683 1.1687593 1.5946307 2.741639 0.2978565
-0.008528389 1.7177376 0.22956774 1.7624223 1.3561006 -0.18886513 0.5966154 -0.82550025
0.38932055 2.004667 1.402422 1.3580077 2.0280254 -0.8965581 0.5620743 0.48412022
0.4373796 1.4773121 0.74811226 0.9762294 1.924614 1.2849822 2.598511 0.16122675
0.16327584 0.6976729 1.0214409 2.0741754 1.0710579 0.32696578 -1.1814892 2.0071964
-0.5800048 -0.8414036 0.97920424 1.439305 1.5238323 0.9957288 0.31417054 1.0304575
1.705961 1.8833975 2.2018745 1.5738184 1.4697084 1.8215158 1.4026628 2.9773698
-0.27592048 0.9250745 1.1777371 1.6317161 0.9801226 0.7031188 -0.45785373 0.94962245
0.168006 -0.53885317 2.4895754 -0.111894004 -0.19022638 0.0507251 0.54029304 -1.5327556
-0.816646 0.36269632 -0.38245448 0.4817407 0.18680654 -0.33883372 0.5269197 0.26429382
1.1916614 -0.95169395 0.29565638 0.21191522 0.44129142 0.3426406 0.6002216 0.44505852
-2.1289954 0.43761387 0.16284436 1.2077538 0.6664021 -0.20285198 1.2130897 0.26177058
-0.8505158 0.24127531 -0.118527785 0.099463925 0.71117616 -0.1852514 0.06681615 1.0133047
0.09577377 0.6610386 -1.3207675 -0.47379673 0.9260545 0.5710985 -1.235173 0.4361749
0.4679132 -1.1358536 -0.22354542 -0.46376652 0.23999825 1.1872602 1.2895533 -0.7424193
1.619005 -1.6460317 -0.22538918 -0.14042829 0.17691039 0.31206998 0.35568568 0.403731
-1.0757933 0.98073626 1.1812096 -0.23552507 0.66747683 -1.4761369 0.189331 1.4229002
0.9539056 0.17507364 -0.035209514 0.4712331 -0.43840092 0.24533634 0.82058305 0.3240683
1.7659763 0.90983266 0.5724243 -1.1797279 2.1718361 1.4439754 2.298335 0.89240265
0.33431378 1.2379235 1.2170175 0.31456754 0.47404283 0.6118834 0.24411146 1.2695861
-0.22483207 -0.23158331 0.3604298 0.27496758 -0.8518469 -0.53061265 0.8465162 1.8177761
0.56423944 -0.55663615 0.46964535 -3.0787203 1.2300689 -0.16669437 0.9263179 0.68901896
-1.3161869 0.27062565 -0.6463104 0.6084171 0.61097527 -0.7192953 -0.625942 0.08924285
-0.104296096 0.9017563 -0.06409955 -0.620359 -0.58462834 0.077927455 -1.416779 1.3227679
0.294291 0.569903 0.027643578 0.30922875 0.3550288 -0.3104433 -0.25999892 0.96158504
0.40543288 0.7006633 0.07429995 1.3135207 0.67675537 0.7779263 -0.6135089 0.6543959
-0.47024944 -0.005587952 0.22745347 -0.27339354 0.67594504 -0.032133125 -0.08876534 -1.0889525
-0.9136019 -1.4681021 1.198802 0.09450006 1.2509532 -0.611964 1.0671376 0.30199316
00000000: fc38 dc3f 6cd0 9f3f d6b4 9d3f 9c9d dfbe
00000010: 6e5f d33e c553 6a3f e92f 613f 03b3 8f3f
00000020: b763 a83e f56f a83f d65b d43f 06db ed3e
00000030: 01c2 a53f 681d bc3d eecf 1f40 da53 843e
00000040: 47cf d03e 43ca ce3f f7da 803f e462 1940
00000050: 99b3 f5bd 9533 af3f c48f 33be 97c1 fc3f
00000060: 82ce cd3f dc0a 2c3f 1a07 0440 2fe5 963f
00000070: e16c a9bd fc57 1940 73ce 3a3f 97c2 313f
00000080: 605d 0040 2fc8 a23f 7495 f53f f386 9c3f
00000090: e899 953f dc1c cc3f 0377 2f40 a680 983e
000000a0: a8ba 0bbc d3de db3f ce13 6b3e 0e97 e13f
000000b0: b494 ad3f dc65 41be c9bb 183f fc53 53bf
000000c0: 0655 c73e 774c 0040 9082 b33f 32d3 ad3f
000000d0: 2bcb 0140 d584 65bf 1ae4 0f3f 9bde f73e
000000e0: 38f0 df3e 9018 bd3f 4984 3f3f 2cea 793f
000000f0: c059 f63f 4c7a a43f 014e 2640 a018 253e
00000100: c831 273e b19a 323f 93be 823f 4abf 0440
00000110: 6d18 893f 0f68 a73e 0a3b 97bf e875 0040
00000120: 327b 14bf 3a66 57bf 21ad 7a3f 253b b83f
00000130: f00c c33f 15e8 7e3f f6da a03e 08e6 833f
00000140: ee5c da3f 2b13 f13f 83eb 0c40 e272 c93f
00000150: 681f bc3f 6e27 e93f 748a b33f 3a8d 3e40
00000160: 7345 8dbe afd1 6c3f 17c0 963f 13dc d03f
00000170: 51e9 7a3f 98ff 333f ce6b eabe 751a 733f
00000180: c409 2c3e 48f2 09bf 3455 1f40 af28 e5bd
00000190: b4ca 42be 1fc5 4f3d a550 0a3f 5631 c4bf
000001a0: b60f 51bf 55b3 b93e 13d1 c3be b8a6 f63e
000001b0: 374a 3f3e 9d7b adbe 36e4 063f 8551 873e
000001c0: 5c88 983f 37a2 73bf 4660 973e 4e00 593e
000001d0: f3f0 e13e 976e af3e 1fa8 193f b6de e33e
000001e0: 7641 08c0 ed0e e03e acc0 263e ad97 9a3f
000001f0: 5499 2a3f 6eb8 4fbe 8646 9b3f cb06 863e
00000200: 67bb 59bf e010 773e b2be f2bd beb3 cb3d
00000210: a40f 363f 8bb2 3dbe e8d6 883d f8b3 813f
00000220: 0a25 c43d d339 293f e90e a9bf 7c95 f2be
00000230: e811 6d3f 8333 123f 261a 9ebf 5152 df3e
00000240: 5292 ef3e a763 91bf 17e9 64be ce72 edbe
00000250: 1ac2 753e 24f8 973f 1510 a53f 310f 3ebf
00000260: 8e3b cf3f 2bb1 d2bf 6ccc 66be 6fcc 0fbe
00000270: ff27 353e a3c7 9f3e 6f1c b63e d4b5 ce3e
00000280: 98b3 89bf 8811 7b3f e031 973f 7c2d 71be
00000290: c3df 2a3f 0ef2 bcbf fcdf 413e 9821 b63f
000002a0: 2833 743f 8146 333e da37 10bd 7745 f13e
000002b0: 1676 e0be 7339 7b3e bb11 523f 48ec a53e
000002c0: 830b e23f cbea 683f 668a 123f 5301 97bf
000002d0: 5dff 0a40 30d4 b83f ec17 1340 8074 643f
000002e0: 2d2b ab3e 4774 9e3f 3bc7 9b3f ff0e a13e
000002f0: beb5 f23e 64a4 1c3f 5bf8 793e cc81 a23f
00000300: 613a 66be 2d24 6dbe 418a b83e 8dc8 8c3e
00000310: a312 5abf 3bd6 07bf 49b5 583f e3ac e83f
00000320: ff71 103f b57f 0ebf 5b75 f03e c109 45c0
00000330: e672 9d3f eeb1 2abe 2b23 6d3f 8c63 303f
00000340: d078 a8bf 728f 8a3e 9974 25bf 39c1 1b3f
00000350: e068 1c3f bd23 38bf bc3d 20bf f5c4 b63d
00000360: 3199 d5bd 80d9 663f a046 83bd d9cf 1ebf
00000370: 34aa 15bf 6e98 9f3d 0459 b5bf 7550 a93f
00000380: 4fad 963e 2ae5 113f c974 e23c 3b53 9e3e
00000390: 56c6 b53e 6df2 9ebe 941e 85be 702a 763f
000003a0: e694 cf3e ac5e 333f 922a 983d 7221 a83f
000003b0: d73f 2d3f 2e26 473f eb0e 1dbf 7d86 273f
000003c0: 89c4 f0be 241b b7bb 90e9 683e 3dfa 8bbe
000003d0: bc0a 2d3f 069e 03bd 9aca b5bd cc62 8bbf
000003e0: d0e1 69bf c5ea bbbf 5872 993f 3f89 c13d
000003f0: 3c1f a03f aca9 1cbf f797 883f d99e 9a3e

network_body._body_endoder.seq_layers.4.bias f4 [50]
-2.7753673 -2.5519261 -1.974425 -2.5768967 -1.4699299 -3.0805938 -3.024539 -3.1508205
-1.4093003 -1.3439548 -0.020556035 -0.6901765 -2.4046898 -1.2821996 -3.3240747 -0.43496656
-1.6003662 -0.81936306 -1.9746269 -0.05287559 -1.2011061 -2.4710848 -0.88698274 -1.4223963
-1.4049476 -2.3405032 -2.672041 -1.1304411 -0.16444236 -2.1196828 -2.1584713 -2.2154849
-0.8707765 -3.9013371 -1.5228181 -0.61812156 -2.1541224 1.5569355 -1.5942189 -1.3124559
-1.8251898 -1.5871246 -1.3409348 -2.2414339 -3.8475792 -2.4513664 -2.4126313 -0.5094047
-3.305121 -1.8200446
00000000: 9e9f 31c0 c252 23c0 f5b9 fcbf e0eb 24c0
00000010: aa26 bcbf 7328 45c0 0c92 41c0 0ba7 49c0
00000020: f463 b4bf b606 acbf 2165 a8bc 68af 30bf
00000030: 70e6 19c0 1e1f a4bf a4bd 54c0 f0b3 debe
00000040: cdd8 ccbf c7c1 51bf 93c0 fcbf 1394 58bd
00000050: d8bd 99bf 4126 1ec0 4d11 63bf 1511 b6bf
00000060: 53d5 b3bf ceca 15c0 b802 2bc0 4bb2 90bf
00000070: 9463 28be e2a8 07c0 6524 0ac0 81ca 0dc0
00000080: 35eb 5ebf 82af 79c0 b4eb c2bf 373d 1ebf
00000090: 24dd 09c0 aa49 c73f 5d0f ccbf 8efe a7bf
000000a0: d29f e9bf e626 cbbf c0a3 abbf a773 0fc0
000000b0: bd3e 76c0 30e3 1cc0 8d68 1ac0 5968 02bf
000000c0: 1a87 53c0 39f7 e8bf

network_body._body_endoder.seq_layers.6.weight f4 [50, 50]
-0.021303643 0.69503397 -0.3403151 1.2839565 0.4137075 -0.26319975 -0.007530821 0.26103744
-0.43376258 0.15072533 1.2105231 -0.84074014 -0.26997045 -0.349471 0.25267798 -2.0093076
0.14555147 -0.07865371 0.12099646 0.8113974 0.41418177 0.58175457 0.038431853 0.60201764
-0.31701502 0.066303745 1.0839638 0.46485892 -1.6076378 -0.090424255 0.32864586 1.136923
1.05768 -0.7340351 -0.36788088 -0.3361225 0.913073 -0.29654464 0.44947714 -0.17778105
0.24100454 -0.39806038 0.11562419 -0.096072584 0.49300057 0.5900112 -0.19527285 1.4900094
-0.3244466 -0.60924697 -0.0631056 0.11203003 1.5244975 0.9171725 -1.4432427 1.5346961
0.124245174 -0.3907126 0.31220025 0.5317619 0.560931 -2.4538658 0.1941178 -0.18416147
0.010974238 0.051240675 0.41322014 0.24928015 0.043099876 1.0482223 -1.8443857 0.45995012
0.34393036 0.02567763 -0.16563343 1.5137022 1.9405972 -2.6694298 -0.07975495 0.35608214
0.19602443 0.7346477 0.60993 0.57492226 -0.96324396 0.33103487 1.9032925 -0.23081975
-0.027631776 -0.3016975 1.1486999 1.1095244 1.9587939 0.7394412 0.40563717 1.2842532
2.2494988 0.99408245 0.52707094 1.5872542 -0.058482833 -0.065848 -0.77109224 0.5102295
-0.22972025 0.7262795 -0.06299989 1.4811726 -1.0447942 -0.19415976 0.24907506 -0.3964881
0.8358874 -0.7990938 -0.8662921 -0.87548536 0.9578607 -0.7528205 -0.73209995 0.77862686
-0.9469976 0.68170667 -0.3671169 -0.63587004 -0.4488236 0.03709227 1.0039929 0.46472025
-0.62417144 0.2852574 -0.7249544 -0.0656332 0.53117865 0.39005265 0.19699053 0.37176198
0.16589965 -0.8949524 0.55216515 -1.1613213 1.8464407 -0.09962816 1.0993 0.25888225
-0.49322775 0.9027598 -0.24247825 2.0382063 -0.6870191 -0.38278574 1.2750212 0.69293714
-0.61242414 1.5206653 0.27466035 1.1767504 0.43991062 2.1712797 -0.14425881 0.47351083
-2.4080536 1.1939753 1.7533306 0.4838697 0.48920515 0.32309225 0.72576785 0.45891333
-1.2123015 -0.13246694 0.27543858 1.0642639 1.0549635 1.9356681 -0.97127414 1.0199381
0.49163258 0.9963114 -1.4163209 1.4555558 0.5015426 0.267791 -0.84067017 -0.14024231
0.90432394 0.5381239 1.5721291 -0.329256 1.4939182 0.12156425 1.8426117 0.3899478
0.8701176 0.6697672 0.47965726 1.3994579 0.99270135 1.329087 0.5109958 0.0047198725
0.20158093 0.22401933 1.1119719 0.6264339 0.8333116 0.22421739 -0.66756386 1.2017084
0.46748495 1.0676142 0.30789015 -1.3503262 0.7636856 -0.6851029 0.55663985 0.976904
0.92626745 -0.06351816 1.5925024 0.0035730882 1.5425999 1.0887644 0.55933356 0.31653133
0.08938105 0.4847751 0.8887752 0.42397603 -1.1707547 -0.39650825 -1.196651 -0.2608354
0.39486226 1.0216022 1.0988625 0.65644795 -0.06373563 -0.09804387 -0.9558471 0.6171497
-0.08397279 0.7409462 1.6336656 -2.4937825 0.37218973 0.41436833 0.08244066 0.86648905
0.14926535 1.5660474 0.21987817 2.0265143 0.33082327 0.9455361 -0.6099922 1.5221366
00000000: fa84 aebc bfed 313f c83d aebe b058 a43f
00000010: 78d1 d33e 1ec2 86be 1bc5 f6bb b3a6 853e
00000020: 2116 debe be57 1a3e 6cf2 9a3f bf3a 57bf
00000030: 9139 8abe dded b2be 025f 813e 7f98 00c0
00000040: 720b 153e 3215 a1bd fecc f73d bdb7 4f3f
00000050: a20f d43e deed 143f b86a 1d3d d41d 1a3f
00000060: cb4f a2be 42ca 873d 53bf 8a3f fd01 ee3e
00000070: 13c7 cdbf 5a30 b9bd 4544 a83e b186 913f
00000080: 0f62 873f b9e9 3bbf e25a bcbe 4018 acbe
00000090: 27bf 693f b3d4 97be de21 e63e 3c0c 36be
000000a0: e5c9 763e 92ce cbbe 60cc ec3d b4c1 c4bd
000000b0: 926a fc3e f90a 173f 9bf5 47be a1b8 be3f
000000c0: dd1d a6be 9cf7 1bbf 823d 81bd 0070 e53d
000000d0: bc22 c33f d1cb 6a3f 2dbc b8bf ec70 c43f
000000e0: 4174 fe3d 7b0b c8be b6d8 9f3e 8c21 083f
000000f0: 2d99 0f3f 230c 1dc0 d1c6 463e d394 3cbe
00000100: 4acd 333c bee1 513d 9791 d33e 4c43 7f3e
00000110: 7f89 303d 262c 863f d514 ecbf 957e eb3e
00000120: a417 b03e e559 d23c cf9b 29be fec0 c13f
00000130: 7d65 f83f f0d7 2ac0 9056 a3bd 6650 b63e
00000140: a1ba 483e df11 3c3f 5f24 1c3f 1b2e 133f
00000150: 2897 76bf 677d a93e 179f f33f 035c 6cbe
00000160: 095c e2bc 1878 9abe 9908 933f e504 8e3f
00000170: c2b9 fa3f 054c 3d3f adaf cf3e 6962 a43f
00000180: caf7 0f40 307c 7e3f 1fee 063f 252b cb3f
00000190: b28b 6fbd 51db 86bd 4d66 45bf 679e 023f
000001a0: c93b 6bbe 74ed 393f 1606 81bd 1097 bd3f
000001b0: d1bb 85bf d1d1 46be 880d 7f3e 7d00 cbbe
000001c0: b7fc 553f 6991 4cbf 52c5 5dbf cf1f 60bf
000001d0: 5c36 753f d8b8 40bf e76a 3bbf 1754 473f
000001e0: 6f6e 72bf 5484 2e3f bff6 bbbe 61c8 22bf
000001f0: 35cc e5be 10ee 173d d782 803f d0ef ed3e
00000200: b3c9 1fbf 420d 923e 9d96 39bf b36a 86bd
00000210: 53fb 073f fbb4 c73e e3b7 493e 9657 be3e
00000220: 99e1 293e 9a1b 65bf b25a 0d3f 2da6 94bf
00000230: 2b58 ec3f d909 ccbd ddb5 8c3f 378c 843e
00000240: 5988 fcbe 441b 673f 384c 78be f971 0240
00000250: 7ce0 2fbf 7efc c3be e533 a33f 5464 313f
00000260: d4c7 1cbf 29a5 c23f 48a0 8c3e c29f 963f
00000270: f73b e13e 3ff6 0a40 95b8 13be 0370 f23e
00000280: 8d1d 1ac0 2fd4 983f 236d e03f c5bd f73e
00000290: 1979 fa3e 596c a53e eccb 393f b0f6 ea3e
000002a0: b22c 9bbf 6aa5 07be 4906 8d3e cd39 883f
000002b0: 0b09 873f f9c3 f73f 6ca5 78bf 558d 823f
000002c0: 44b7 fb3e 440e 7f3f 014a b5bf a74f ba3f
000002d0: 1965 003f e71b 893e 2936 57bf ae9b 0fbe
000002e0: c681 673f 7dc2 093f 873b c93f 3e94 a8be
000002f0: b638 bf3f adf6 f83d b3da eb3f 3da7 c73e
00000300: 07c0 5e3f dd75 2b3f a395 f53e 7021 b33f
00000310: ad21 7e3f 861f aa3f 9fd0 023f 29a9 9a3b
00000320: 3b6b 4e3e 5365 653e 1855 8e3f f95d 203f
00000330: e953 553f 3e99 653e 77e5 2abf 95d1 993f
00000340: 305a ef3e 95a7 883f c7a3 9d3e 7dd7 acbf
00000350: e680 433f e762 2fbf f37f 0e3f 6116 7a3f
00000360: dd1f 6d3f cf15 82bd 1ed7 cb3f 792a 6a3b
00000370: ea73 c53f a25c 8b3f 7c30 0f3f 6510 a23e
00000380: 690d b73d 7134 f83e c686 633f 6313 d93e
00000390: 4adb 95bf 2103 cbbe dc2b 99bf 388c 85be
000003a0: 632b ca3e dcc3 823f 87a7 8c3f f90c 283f
000003b0: d387 82bd 39cb c8bd 65b2 74bf 86fd 1d3f
000003c0: edf9 abbd a6ae 3d3f f41b d13f 229a 1fc0
000003d0: a78f be3e 1628 d43e a6d6 a83d 3ad2 5d3f
000003e0: 04d9 183e 3e74 c83f be27 613e 69b2 0140
000003f0: ab61 a93e a70e 723f 7328 1cbf 5fd5 c23f

network_body._body_endoder.seq_layers.6.bias f4 [50]
-0.5852026 -1.421349 -0.8874265 -1.7337375 -0.7411957 -1.331582 -0.8321861 -1.1910409
-1.2379041 -1.0894439 -0.82180864 -0.85227346 -1.9227185 -0.64441854 -0.559533 -1.7453283
-1.400337 -1.0789448 -0.83834773 -1.0953178 -1.0645422 -0.5524331 -0.6788508 -1.1406375
-1.207857 -0.9597833 -0.44371703 -0.47785807 -0.4291325 -1.5807586 -0.55229855 -1.1215805
-0.6802682 -0.46896842 -1.2358037 -0.39366457 -0.5643799 -1.1439009 -1.0030504 -1.0608168
-1.3855271 -1.137385 -1.3567712 -1.3420864 -0.71056557 -0.7892994 -1.3977311 -0.9610407
-1.2059811 -0.7391934
00000000: d6cf 15bf c4ee b5bf 622e 63bf 1ceb ddbf
00000010: 00bf 3dbf 4771 aabf 260a 55bf 0774 98bf
00000020: a473 9ebf e672 8bbf 0d62 52bf 982e 5abf
00000030: a41b f6bf 9df8 24bf 8e3d 0fbf eb66 dfbf
00000040: 3e3e b3bf dd1a 8abf f59d 56bf 6033 8cbf
00000050: eb42 88bf 416c 0dbf 2bc9 2dbf 6900 92bf
00000060: 0f9b 9abf 5cb4 75bf e12e e3be d0a9 f4be
00000070: 41b7 dbbe 4c56 cabf 7063 0dbf f38f 8fbf
00000080: 0f26 2ebf a11c f0be d12e 9ebf 678e c9be
00000090: 337b 10bf 586b 92bf f563 80bf d8c8 87bf
000000a0: f458 b1bf d595 91bf aeaa adbf 7dc9 abbf
000000b0: a0e7 35bf 870f 4abf dae8 b2bf c306 76bf
000000c0: 975d 9abf c73b 3dbf

action_model._discrete_distribution.branches.0.weight f4 [3, 50]
2.925071 -0.5053324 1.5232208 -0.32362992 -0.8333923 1.8419182 1.3463793 1.1492269
0.09284471 0.7262431 3.1793153 -0.6170105 -0.47792608 2.228605 -0.3922584 1.0389076
-0.2571969 1.6706549 0.08063543 1.1121126 1.443134 2.1524088 1.0338756 1.2600746
0.92153925 1.8133211 0.39016318 2.5236957 0.5173109 1.9052774 2.1475122 -0.39452124
2.0421393 -0.11336991 0.8418587 1.2924763 1.104914 -0.0738371 1.1227279 -0.17583828
1.4733425 1.7449812 0.96458024 2.2245755 0.9473522 0.06213103 1.3026806 0.71924025
0.6925715 0.78524506 -2.5728045 -2.0542552 -1.204989 0.4320574 -2.0150518 2.1042535
-1.1125247 -2.414969 0.6234685 -1.4484173 -1.7942317 1.0371305 0.11764425 -2.604783
-0.7476257 -1.275235 1.5463971 -4.1561165 -1.5190814 0.78608006 1.2225918 1.0021447
-2.7929978 -0.84893405 -1.6108053 -1.4172382 -1.2988935 -3.8177428 -2.276709 -0.63381076
-3.5641198 1.0913941 2.0729601 0.7594766 1.558575 -1.1408381 -1.2953024 -2.248836
-1.5837942 -1.1679299 -1.0339901 -3.7846024 -1.2080168 -3.156943 -1.4909254 0.21014115
-0.68319887 -2.1719396 -1.443979 -2.0116196 -0.07607966 3.1948214 0.95120114 -0.061535574
4.050665 -4.084414 0.67687815 1.6800075 -0.15436739 0.821574 -1.4862317 -0.3042722
1.1054505 1.0772834 1.7479037 0.76718277 -1.6536332 3.9497018 2.1818671 -1.5883195
-2.9775403 -2.9630725 2.0579307 -0.3780067 1.4285734 0.1379054 1.6536474 1.3149301
2.590291 -1.232106 2.5312307 -0.119207315 -4.039606 0.23761359 -2.459168 0.65335375
0.086934395 3.7179918 0.62212723 1.7676108 -0.56667036 3.1308775 0.17828263 1.5197643
1.2056456 -0.53441095 -0.7985059 2.7060812 0.8556454 1.0669239
00000000: 5d34 3b40 775d 01bf e6f8 c23f d2b2 a5be
00000010: 3359 55bf fac3 eb3f 2856 ac3f de19 933f
00000020: 5e25 be3d 11eb 393f e779 4b40 66f4 1dbf
00000030: bab2 f4be 77a1 0e40 18d6 c8be edfa 843f
00000040: 50af 83be 05d8 d53f 3024 a53d b559 8e3f
00000050: 9db8 b83f 11c1 0940 0956 843f 204a a13f
00000060: ffe9 6b3f e81a e83f 78c3 c73e 3b84 2140
00000070: 7d6e 043f 21e0 f33f d770 0940 b0fe c9be
00000080: 69b2 0240 7c2e e8bd 0d84 573f dd6f a53f
00000090: d26d 8d3f e837 97bd 8cb5 8f3f f30e 34be
000000a0: 7d96 bc3f 8b5b df3f bbee 763f 725f 0e40
000000b0: ac85 723f 1b7d 7e3d 3dbe a63f 2120 383f
000000c0: 5e4c 313f d205 493f d4a8 24c0 eb78 03c0
000000d0: 143d 9abf a136 dd3e 9cf6 00c0 17ac 0640
000000e0: 3667 8ebf da8e 1ac0 a29b 1f3f bd65 b9bf
000000f0: 62a9 e5bf b1c0 843f 78ef f03d c4b4 26c0
00000100: 6664 3fbf e73a a3bf 57f0 c53f e8fe 84c0
00000110: 4271 c2bf 8b3c 493f e37d 9c3f 4746 803f
00000120: 7ac0 32c0 be53 59bf de2e cebf 1068 b5bf
00000130: 2442 a6bf e655 74c0 9ab5 11c0 6c41 22bf
00000140: 8a1a 64c0 cdb2 8b3f 61ab 0440 0f6d 423f
00000150: 637f c73f fc06 92bf 78cc a5bf eeec 0fc0
00000160: c5b9 cabf ba7e 95bf ca59 84bf ed36 72c0
00000170: 4ba0 9abf 5b0b 4ac0 a5d6 bebf 3e2f 573e
00000180: 1fe6 2ebf 0f01 0bc0 4ed4 b8bf 60be 00c0
00000190: a7cf 9bbd f477 4c40 eb81 733f ba0c 7cbd
000001a0: 0c9f 8140 85b3 82c0 e347 2d3f 7c0a d73f
000001b0: 7c12 1ebe ac52 523f d73c bebf 91c9 9bbe
000001c0: 677f 8d3f 6ce4 893f 4fbb df3f 1766 443f
000001d0: 41aa d3bf eac7 7c40 b6a3 0b40 0e4e cbbf
000001e0: 0590 3ec0 fba2 3dc0 23b5 0340 188a c1be
000001f0: 7edb b63f 1337 0d3e b8aa d33f a14f a83f
00000200: 54c7 2540 a6b5 9dbf afff 2140 f722 f4bd
00000210: 7444 81c0 fa50 733e 0263 1dc0 3142 273f
00000220: a90a b23d 94f3 6d40 bb43 1f3f 1241 e23f
00000230: 4f11 11bf 4c60 4840 b98f 363e a387 c23f
00000240: 9852 9a3f 28cf 08bf e26a 4cbf 6f30 2d40
00000250: 940b 5b3f f690 883f

action_model._discrete_distribution.branches.0.bias f4 [3]
0.5338994 -1.0208666 0.83252895
00000000: a2ad 083f c2ab 82bf 9e20 553f

action_model._discrete_distribution.branches.1.weight f4 [3, 50]
1.2079536 1.3103783 0.8324871 2.103265 -0.37860364 0.17090642 -0.5419834 -4.203875
-2.8631287 -0.4771433 0.23464139 0.26181918 0.7987288 0.0525272 -1.6330584 -0.5112699
1.9592272 -0.2979886 -1.3208368 0.8537316 -0.039461162 0.37994587 0.9566353 -2.3185105
-4.716082 1.1570065 -0.9926404 0.8249515 -1.9490435 0.86414325 0.5674967 0.5073345
0.7627451 2.0538654 0.49440324 0.10110403 0.010903424 -2.552721 -0.48937786 -0.6632677
0.41788372 -1.9865463 -4.0201364 -0.953277 0.6373067 0.91868734 0.51652825 -1.4557599
-1.8600405 -1.8746053 0.24025343 1.8364936 -2.1439977 -2.4246213 0.111280814 0.046590038
0.08276145 1.6013186 1.1344848 -1.3074328 -1.3947308 -0.75827926 -0.3593249 -1.3472093
-0.35050917 0.41343364 -3.553303 1.3939512 -0.7888513 -1.9715507 -0.61625636 0.66186476
-1.1379395 2.49763 1.4464436 -1.6424222 -0.64226145 -0.7758628 -0.26528913 -1.3993719
-0.46375328 -2.5477161 -0.8339449 -1.2492305 -1.294137 -1.0140342 -0.37514746 2.5967698
-1.1354191 -0.7125734 -1.8244386 1.1467702 1.36314 -0.04108286 -1.4733113 -2.1923218
-1.554155 0.2623733 0.19950373 0.3000113 -1.4518654 -2.7513044 2.2106159 1.4184669
0.51993597 0.19239697 1.0380878 3.6472557 2.4233356 2.5139308 1.8541963 0.92187315
0.69067097 2.1009605 3.2470963 0.42842907 2.4389322 -0.7412881 2.122271 1.5429878
0.910859 -1.7325468 -0.66664153 1.1158531 3.3387432 0.93316877 2.4525638 1.0982666
3.4259312 1.4607971 -0.1691375 2.928739 0.93537754 -1.6988018 1.4007118 1.4953707
1.2359447 -0.027064128 2.4083865 1.6116606 2.3501322 0.79931444 2.970855 0.76153207
1.2834436 0.884944 2.2851393 2.480255 1.897321 2.5561607
00000000: 399e 9a3f 7aba a73f e01d 553f e59b 0640
00000010: 56d8 c1be 1802 2f3e 6dbf 0abf 2586 86c0
00000020: 803d 37c0 204c f4be d545 703e 2a0d 863e
00000030: 7e79 4c3f c326 573d 0f08 d1bf 96e2 02bf
00000040: f5c7 fa3f f691 98be 2e11 a9bf 278e 5a3f
00000050: 07a2 21bd 4488 c23e 0de6 743f 7a62 14c0
00000060: 25ea 96c0 ca18 943f ae1d 7ebf 0630 533f
00000070: 427a f9bf 7e38 5d3f 7747 113f ace0 013f
00000080: 4343 433f 8872 0340 6c22 fd3e a10f cf3d
00000090: 46a4 323c c85f 23c0 bc8f fabe e9cb 29bf
000000a0: dbf4 d53e 2647 febf f5a4 80c0 f609 74bf
000000b0: 8826 233f 182f 6b3f 323b 043f 5756 babf
000000c0: cf15 eebf 11f3 efbf ff04 763e 3912 eb3f
000000d0: 4237 09c0 ff2c 1bc0 32e7 e33d 32d5 3e3d
000000e0: d67e a93d 02f8 cc3f cc36 913f f559 a7bf
000000f0: 8a86 b2bf 971e 42bf 6ff9 b7be 5b71 acbf
00000100: f075 b3be 93ad d33e 5169 63c0 fe6c b23f
00000110: 29f2 49bf c65b fcbf fac2 1dbf f86f 293f
00000120: 00a8 91bf 2bd9 1f40 1025 b93f e43a d2bf
00000130: 3f6b 24bf f29e 46bf fad3 87be 9e1e b3bf
00000140: 1271 edbe c80d 23c0 6a7d 55bf c9e6 9fbf
00000150: 48a6 a5bf dfcb 81bf 5413 c0be 7a31 2640
00000160: 6a55 91bf 366b 36bf 3487 e9bf 5ec9 923f
00000170: 5f7b ae3f 8046 28bd 7795 bcbf 004f 0cc0
00000180: 8dee c6bf cb55 863e b54a 4c3e 159b 993e
00000190: bad6 b9bf 5f15 30c0 bb7a 0d40 5390 b53f
000001a0: 861a 053f b603 453e 10e0 843f a36c 6940
000001b0: ee17 1b40 3ee4 2040 4e56 ed3f e1ff 6b3f
000001c0: d0cf 303f 2376 0640 6dd0 4f40 0e5b db3e
000001d0: 7717 1c40 0fc5 3dbf 4ad3 0740 a080 c53f
000001e0: 0e2e 693f 18c4 ddbf 05a9 2abf 46d4 8e3f
000001f0: f8ad 5540 26e4 6e3f cef6 1c40 0094 8c3f
00000200: 7542 5b40 66fb ba3f 6132 2dbe 7670 3b40
00000210: e774 6f3f 5672 d9bf 864a b33f 4f68 bf3f
00000220: 7033 9e3f 97b5 ddbc 0123 1a40 e54a ce3f
00000230: 9168 1640 df9f 4c3f 7d22 3e40 c4f3 423f
00000240: e147 a43f b18b 623f b93f 1240 7fbc 1e40
00000250: 6adb f23f 2398 2340

action_model._discrete_distribution.branches.1.bias f4 [3]
-0.12522154 -1.0018789 1.6823314
00000000: 133a 00be 913d 80bf a356 d73f

action_model._discrete_distribution.branches.2.weight f4 [3, 50]
0.3657202 1.180159 0.6925879 0.37236002 0.22997619 0.8866391 0.8361114 0.5828056
-0.052183475 -1.0337248 0.90405643 -2.0986865 0.47669291 0.3030979 -2.172878 0.0993936
-0.8633055 -0.22902396 -0.8887064 0.04361826 -0.8191239 1.8748707 0.83812374 -0.03834477
-0.12608173 -0.27772382 -0.5389668 0.3209337 -1.3387806 -0.21481387 0.6424464 0.14824554
2.4453266 -1.3682228 1.2023596 -1.0300508 1.2962015 0.101065695 -0.18476948 -1.3545041
1.0493933 0.5978545 0.17153983 0.70324135 1.7561421 0.15900356 -0.104942985 -0.91606385
-1.0275745 -0.33075312 0.14956465 0.9200708 -0.015986511 -0.507951 -1.1259977 -1.0326605
0.7658596 0.29356062 -0.60849005 1.8722054 -0.652272 0.8806724 0.4263473 -0.3891982
-0.16291317 0.38507655 1.3509507 -0.34268478 -0.44610974 1.0285094 1.7481285 -0.76619226
1.1674383 0.40816763 -0.6293242 1.1198915 0.43277052 -0.090645626 1.0337396 -0.92941034
0.08760413 1.424066 -0.1976528 0.81483215 1.0689579 1.8826385 0.61771214 -0.12405408
-0.19704874 1.3620903 -1.5411582 -0.85258025 -0.36795476 -1.4760869 0.025435349 2.208009
0.44069156 -0.061254077 0.19845885 -0.120231226 -0.7653921 -2.1460295 -0.9103432 0.4365325
0.96421117 1.0478204 -1.8566474 -0.5071435 0.8635444 -0.9232345 0.11286113 1.1222608
-0.7336271 -0.2090106 1.9003373 -0.13131648 -0.6096977 -0.04879157 1.2220138 -1.3346146
0.2939627 -0.57926834 -1.6975743 0.70132285 0.43188107 -1.3696959 0.25329697 -0.61697406
0.12838942 0.6034721 -0.5207789 -1.3232012 -1.3784196 0.557967 -1.9975729 -0.44375166
-1.3483672 -0.6303688 0.79777867 0.19488843 0.23586571 -0.10091056 0.33414894 0.476184
-1.4055243 -2.4688118 -0.7237517 0.53619957 0.5871702 0.21851063
00000000: ae3f bb3e 730f 973f 714d 313f f9a5 be3e
00000010: e17e 6b3e c8fa 623f 660b 563f bf32 153f
00000020: 57be 55bd 1851 84bf 3e70 673f e150 06c0
00000030: 1811 f43e a62f 9b3e 6f10 0bc0 df8e cb3d
00000040: 9701 5dbf 4285 6abe 4382 63bf 10a9 323d
00000050: 1bb2 51bf c3fb ef3f 478f 563f 680f 1dbd
00000060: 921b 01be d131 8ebe baf9 09bf 6c51 a43e
00000070: 2a5d abbf 2bf8 5bbe 5e77 243f aecd 173e
00000080: 3b80 1c40 ed21 afbf ebe6 993f b4d8 83bf
00000090: eee9 a53f 88fb ce3d 3634 3dbe 6460 adbf
000000a0: 8552 863f fe0c 193f 23a8 2f3e a007 343f
000000b0: 44c9 e03f d4d1 223e 59ec d6bd 2983 6abf
000000c0: 9087 83bf 7958 a9be 7a27 193e c389 6b3f
000000d0: 25f6 82bc 1409 02bf b120 90bf 382e 84bf
000000e0: 600f 443f 944d 963e 01c6 1bbf 6da4 ef3f
000000f0: 4cfb 26bf bf73 613f 314a da3e fd44 c7be
00000100: b6d2 26be c128 c53e f4eb ac3f 6174 afbe
00000110: 7f68 e4be 32a6 833f adc2 df3f 2d25 44bf
00000120: 9e6e 953f 59fb d03e 641b 21bf 9b58 8f3f
00000130: 1994 dd3e 6aa4 b9bd 9451 843f d6ed 6dbf
00000140: cb69 b33d cb47 b63f 7f65 4abe d798 503f
00000150: 9dd3 883f 4cfa f03f 6222 1e3f 1110 febd
00000160: 25c7 49be fa58 ae3f ac44 c5bf b342 5abf
00000170: 9164 bcbe 6af0 bcbf cb5d d03c 0550 0d40
00000180: 53a2 e13e 8ee5 7abd cc38 4b3e ca3b f6bd
00000190: bdf0 43bf 8c58 09c0 410c 69bf 3081 df3e
000001a0: 8bd6 763f fb1e 863f 9fa6 edbf 28d4 01bf
000001b0: 3f11 5d3f 1959 6cbf bc23 e73d 3ea6 8f3f
000001c0: fcce 3bbf e006 56be 413e f33f d477 06be
000001d0: 2615 1cbf abd9 47bd f36a 9c3f a7d4 aabf
000001e0: 4782 963e ee4a 14bf 1d4a d9bf e589 333f
000001f0: 841f dd3e 3252 afbf 24b0 813e 03f2 1dbf
00000200: 8478 033e 267d 1a3f c451 05bf a85e a9bf
00000210: 0e70 b0bf edd6 0e3f 78b0 ffbf 6b33 e3be
00000220: 4c97 acbf da5f 21bf 393b 4c3f d590 473e
00000230: c886 713e 32aa cebd 9215 ab3e 64ce f33e
00000240: 38e8 b3bf 0301 1ec0 cb47 39bf 6044 093f
00000250: c950 163f 40c1 5f3e

action_model._discrete_distribution.branches.2.bias f4 [3]
0.19027536 0.5995808 -0.113966264
00000000: 8bd7 423e 217e 193f 2567 e9bd

exp_avg f4 [50, 27]
-7.406798e-11 -8.2187756e-13 -5.463635e-09 -3.4394527e-12 -6.8805725e-11 -3.885571e-09 -1.6555574e-12 -8.07523e-07
-8.863235e-07 -2.8850986e-13 9.997481e-10 -1.7660433e-09 -3.721951e-12 -2.419717e-06 -2.4188016e-06 -3.374585e-14
-3.7202327e-08 -3.8114294e-08 9.2949286e-08 -5.0011613e-07 -5.4055636e-07 4.7143333e-14 -1.955861e-06 -1.9478027e-06
-1.2912348e-08 -1.3208804e-06 -2.0498433e-06 2.6818479e-09 -6.6178642e-12 -1.491653e-08 -1.7009975e-10 3.6877756e-09
-9.215736e-09 2.4803752e-09 -4.4444175e-07 -4.6109258e-07 3.5196387e-11 8.22113e-08 6.8790456e-08 2.4704674e-09
-2.5268218e-06 -2.5278457e-06 -4.6666976e-12 -4.966552e-07 -5.1234235e-07 -3.8556983e-08 -2.1990409e-06 -2.3123496e-06
-2.8950332e-12 -2.0132732e-06 -2.024846e-06 -1.9920957e-08 -1.3778092e-06 -2.325042e-06 -0.0005538405 -5.698462e-07
-2.997919e-05 -0.00018382209 -0.00038530835 -0.00038945573 -0.0005536878 -2.3989255e-06 -2.5543664e-05 -1.6993683e-07
-0.0005814839 -0.000581624 -0.00054894306 -7.7607e-06 -3.3049742e-05 -5.1086044e-08 -0.00058400555 -0.0005840926
0.00028265658 -0.0008375036 -0.0008381355 5.313696e-06 -0.0006060187 -0.0006032 6.7519046e-05 -0.00064220396
-0.00064166053 -8.03136e-06 -5.9146583e-07 -1.2525984e-06 -7.0749684e-07 -7.681202e-06 -7.65344e-06 -7.1707004e-06
-1.8923001e-05 -1.8100796e-05 -1.1432313e-06 -7.180455e-06 -7.703963e-06 -6.895507e-06 7.1663253e-06 6.9989965e-06
-2.1897877e-08 -1.4546709e-05 -1.4420259e-05 -2.765609e-06 -1.1176398e-05 -1.1402233e-05 3.0658464e-07 2.493387e-06
2.3716457e-06 -8.928205e-07 -2.4155295e-05 -2.4190242e-05 -7.215988e-09 1.1807845e-08 -3.2455915e-08 4.837764e-09
9.873784e-10 -3.1347312e-08 2.3978702e-08 1.3071411e-07 1.6454743e-07 -2.763017e-08 -1.1111672e-09 -4.6889788e-08
2.5971342e-08 -1.2895905e-06 -1.2980672e-06 7.1001877e-10 -1.9441586e-08 -5.605042e-08 1.7639572e-06 -2.2040488e-06
-9.122326e-07 6.6965002e-09 1.0760954e-07 5.154276e-08 -2.7420336e-08 2.740427e-07 -2.1176288e-06 8.322803e-06
3.5083517e-06 2.1027117e-06 3.524144e-06 8.423361e-06 8.247866e-06 1.1186268e-05 3.6928404e-06 4.8525417e-06
-2.4192457e-06 1.6188731e-05 1.4927383e-05 1.2506089e-05 -3.4426397e-05 -3.3358778e-05 1.2867306e-06 8.907639e-06
9.397673e-06 5.0094013e-06 -3.1357667e-05 -3.065393e-05 8.056654e-07 -1.2423261e-06 -8.6986734e-07 4.724737e-07
-2.6483773e-05 -3.352899e-05 -0.00053886895 -1.5476822e-05 -1.8359027e-05 -6.725516e-05 -0.0005044966 -0.0005051752
-0.00051884656 -2.9647574e-05 -2.8341128e-05 4.3813575e-06 -0.0004678212 -0.00046535925 -0.00051998236 1.9815205e-05
1.52339235e-05 -6.277988e-07 -0.00046237785 -0.0004619254 -0.0005113629 1.9536674e-06 -1.0718104e-06 -1.016033e-06
-0.00042495993 -0.00042605185 -0.00044034416 -0.00011820841 -9.4533156e-05 -2.0860421e-08 2.039505e-11 -5.2702287e-10
-3.8513026e-11 -2.0511838e-08 -2.1100991e-08 -2.0839982e-08 -2.658774e-09 -2.5872537e-09 -3.385347e-14 -1.1829935e-08
-1.2629506e-08 -2.0840037e-08 9.041455e-08 8.859163e-08 -1.7581572e-15 -5.481624e-08 -5.6082918e-08 -2.1821707e-08
9.543623e-08 1.2980158e-07 2.1072076e-11 -1.61956e-07 -1.6690836e-07 -2.063347e-08 -7.640406e-07 -7.268226e-07
-4.2446757e-08 4.0915284e-09 -3.4583408e-08 3.724732e-09 -4.1301337e-08 -8.000775e-08 -3.4064282e-08 8.845348e-08
-2.43962e-08 -1.9515138e-10 -3.8886004e-08 -8.505708e-08 -3.4451293e-08 1.3368382e-06 1.2890939e-06 9.807728e-12
4.53271e-09 -6.040882e-08 7.6623444e-08 1.1666847e-06 1.2328974e-06 3.325817e-09 1.6531006e-07 -3.1372856e-08
-4.5624e-08 -1.6421076e-05 -1.6496255e-05 -0.00038331252 1.372576e-05 -1.1090292e-05 -1.5476391e-05 -0.00035308028
-0.00035304634 -0.00034596922 -2.6588903e-05 -3.7759124e-05 -3.3697757e-05 -0.00034385914 -0.00035989314 -0.00030754594
00000000: 91e0 a2ae 8556 67ab a4ba bbb1 ac07 72ac
00000010: 2e4e 97ae d881 85b1 beff e8ab 8fc4 58b5
00000020: b0eb 6db5 a76a a2aa 8267 8930 20b9 f2b0
00000030: 5bf4 82ac 6c62 22b6 b252 22b6 51fa 17a9
00000040: 64c8 1fb3 1cb3 23b3 699b c733 b83f 06b5
00000050: c01a 11b5 9050 5429 7041 03b6 ffb6 02b6
00000060: 1bd5 5db2 1b49 b1b5 0a90 09b6 914b 3831
00000070: 6cd8 e8ac cc21 80b2 d306 3baf 096c 7d31
00000080: 3c53 1eb2 3973 2a31 9c9b eeb4 158c f7b4
00000090: 9ccb 1a2e 248c b033 f4b9 9333 ecc4 2931
000000a0: 7892 29b6 0fa4 29b6 e031 a4ac e351 05b5
000000b0: e687 09b5 da99 25b3 3c93 13b6 dd2d 1bb6
000000c0: 48b8 4bac c51b 07b6 97e2 07b6 a61e abb2
000000d0: 2aed b8b5 eb07 1cb6 9b2f 11ba 88f7 18b5
000000e0: d27b fbb7 5ec0 40b9 3603 cab9 dd2f ccb9
000000f0: 5c25 11ba 3afd 20b6 9a46 d6b7 e177 36b4
00000100: b96e 18ba 2078 18ba f2e6 0fba f433 02b7
00000110: e49e 0ab8 b369 5bb3 f317 19ba ca1d 19ba
00000120: 8631 9439 ea8b 5bba 52b6 5bba 4d4c b236
00000130: 3add 1eba 1120 1eba 0399 8d38 9459 28ba
00000140: 1c35 28ba 6ebe 06b7 39c5 1eb5 f41e a8b5
00000150: d0ea 3db5 83de 00b7 4667 00b7 d99b f0b6
00000160: d6bc 9eb7 2ad7 97b7 2171 99b5 a4ef f0b6
00000170: 4540 01b7 f45f e7b6 4476 f036 ecd8 ea36
00000180: f119 bcb2 a40d 74b7 8aee 71b7 cd98 39b6
00000190: 4482 3bb7 384c 3fb7 ac98 a434 1054 2736
000001a0: 9028 1f36 28aa 6fb5 1aa1 cab7 26ec cab7
000001b0: 80f0 f7b1 74db 4a32 a865 0bb3 6c39 a631
000001c0: 4ab4 8730 bca2 06b3 b9f9 cd32 6c5a 0c34
000001d0: 74ae 3034 6357 edb2 b8b7 98b0 de63 49b3
000001e0: 9617 df32 fe15 adb5 4039 aeb5 212b 4330
000001f0: 8000 a7b2 17bc 70b3 1cc1 ec35 45e9 13b6
00000200: 26e0 74b5 0a17 e631 f816 e733 dd5f 5d33
00000210: f589 ebb2 2420 9334 961c 0eb6 2ba2 0b37
00000220: 0671 6b36 501c 0d36 5580 6c36 0f52 0d37
00000230: 5160 0a37 a8ac 3b37 84d2 7736 04d3 a236
00000240: 535a 22b6 09cd 8737 9f70 7a37 3ed1 5137
00000250: 1065 10b8 b7ea 0bb8 bab3 ac35 0572 1537
00000260: b3aa 1d37 6e16 a836 0a86 03b8 6892 00b8
00000270: e844 5835 00be a6b5 d480 69b5 4aa8 fd34
00000280: 7829 deb7 7ba1 0cb8 e242 0dba 39d4 81b7
00000290: b601 9ab7 570b 8db8 3240 04ba bc6d 04ba
000002a0: 3403 08ba aeb3 f8b7 1cbe edb7 9303 9336
000002b0: e645 f5b9 76fb f3b9 6d4f 08ba d438 a637
000002c0: 3495 7f37 0186 28b5 4e6b f2b9 942e f2b9
000002d0: fc0c 06ba c01b 0336 20db 8fb5 a15e 88b5
000002e0: 28cd deb9 b65f dfb9 fedd e6b9 a8e6 f7b8
000002f0: 1a40 c6b8 8d30 b3b2 9265 b32d f0dd 10b0
00000300: d061 29ae 0232 b0b2 9241 b5b2 9b03 b3b2
00000310: a6b5 36b1 73cb 31b1 6576 18a9 9b3c 4bb2
00000320: 28f9 58b2 ba03 b3b2 ed29 c233 c33f be33
00000330: 8d60 fda6 186f 6bb3 d2df 70b3 7172 bbb2
00000340: 9ff2 cc33 965f 0b34 195a b92d 20e6 2db4
00000350: 6c37 33b4 7b3d b1b2 7818 4db5 de1a 43b5
00000360: b44e 36b3 7795 8c31 dc88 14b3 2ef6 7f31
00000370: 4d63 31b3 bad0 abb3 134e 12b3 d1f3 bd33
00000380: d08f d1b2 3b92 56af 9d03 27b3 a0a8 b6b3
00000390: 99f7 13b3 696d b335 ee04 ad35 158a 2c2d
000003a0: 24be 9b31 1aba 81b3 2f8c a433 fb96 9c35
000003b0: 087a a535 648c 6431 1580 3134 d2be 06b3
000003c0: 1ef4 43b3 febf 89b7 7061 8ab7 56f7 c8b9
000003d0: b147 6637 7110 3ab7 4cd3 81b7 a21d b9b9
000003e0: 1419 b9b9 3463 b5b9 3c0b dfb7 8d5f 1eb8
000003f0: b156 0db8 fe47 b4b9 0ab0 bcb9 1e3e a1b9
