Assets/ML-Agents/results/Andrew ML/Smaller (finished)/SimpleCollector/SimpleCollector-10999883.pt (torch, 249511 bytes, 70 tensors)

discrete_act_size_vector f4 [1, 3]
000000 00 00 40 40 00 00 40 40 00 00 40 40
       3.0 3.0 3.0

network_body._body_endoder.seq_layers.0.weight f4 [50, 27]
000000 67 b2 e1 bf 2c 83 c2 bf 66 c1 09 c0 1f eb c0 bf
       -1.7632569 -1.519628 -2.152429 -1.5071753
000010 4c 2b 83 bf 77 d8 c0 bf 8b 52 d6 bf ad 7f 04 bf
       -1.0247588 -1.506606 -1.674394 -0.5175732
000020 45 d1 4e bf b9 26 9c bf f8 d7 10 c0 71 63 15 c0
       -0.8078807 -1.2199317 -2.2631817 -2.3341944
000030 d4 da c6 bf f0 5c 57 bf 2a b0 85 bf 49 2f a3 bf
       -1.5535531 -0.84126186 -1.0444386 -1.2748805
000040 16 3e 73 c0 b8 24 45 c0 9e b0 bb 3c d0 13 6d be
       -3.8006644 -3.0803661 0.022911366 -0.23152089
000050 25 ee a8 be 3e 8e d1 be a5 ff 26 bf b7 62 74 bf
       -0.3299419 -0.40928835 -0.6523383 -0.95463127
000060 25 14 ad bf 58 ec 3f bf 7d 65 5f bf e6 eb ff bf
       -1.3521773 -0.74970007 -0.87264234 -1.9993865
000070 47 2a ac bf 14 90 95 bf c2 02 18 c0 21 8c be bd
       -1.3450402 -1.1684594 -2.3751683 -0.09304071
000080 85 4c 67 bf f9 41 26 bf b7 90 e8 3c d7 74 5a bf
       -0.90351135 -0.64944416 0.028389318 -0.85334533
000090 6f 13 95 bf d6 90 f8 bf 27 9e ae bf ce 45 93 bf
       -1.1646556 -1.94192 -1.3642014 -1.1505678
0000a0 15 88 42 bf ed 64 67 bf d9 0d 94 bf 61 a1 b5 bf
       -0.75988895 -0.90388376 -1.1566726 -1.4189874
0000b0 0a ff b1 bf d2 fa 11 3d 84 ac 25 be f7 29 3f bf
       -1.3905957 0.03563959 -0.1617909 -0.7467341
0000c0 d0 07 bb bf 88 83 dd 3c 5f 4d 3f bf 61 a0 54 bf
       -1.4611759 0.027040258 -0.74727434 -0.8305722
0000d0 c7 6c bf bf c2 b3 a8 bf 1f 40 b0 3e b2 8b 3d 3e
       -1.4955071 -1.3179858 0.3442392 0.18510321
0000e0 ee eb e1 be d9 65 ba bf 7b b7 67 bc b3 08 fd 3e
       -0.44125313 -1.4562331 -0.014142866 0.494207
0000f0 6e 39 f3 be 5b 23 5c bf ac 1d 8f bf 0d ab 1d bf
       -0.47504753 -0.8599145 -1.118093 -0.6158913
000100 4d 54 ac 3e 5d 27 1b 3e 77 61 1a bf 15 c6 51 bf
       0.33658066 0.15151735 -0.6030497 -0.81942874
000110 33 ef b6 be df 9e 82 bf 50 d1 b2 3e 5e cd c8 be
       -0.3572937 -1.0204734 0.34925318 -0.39219183
000120 a6 86 c2 3e f0 6b 12 c0 14 d6 b8 bf 3c 4c 4d bf
       0.37993354 -2.287838 -1.4440331 -0.8019445
000130 85 c3 23 bf 01 36 47 bf f7 98 69 bf e3 eb 23 bf
       -0.63970214 -0.7781678 -0.9124903 -0.6403181
000140 c5 eb 01 bf 22 e9 df be f3 cb c2 be 13 cb 5e be
       -0.5075038 -0.43732554 -0.38046226 -0.21757154
000150 11 30 52 bf 00 2e 3b be 9d f0 14 bf a5 19 20 bf
       -0.82104594 -0.18279266 -0.58179647 -0.6253913
000160 9e a8 25 be 14 c8 9f ba b4 f7 31 bf 1a ff 91 bf
       -0.16177604 -0.0012190365 -0.6951859 -1.1405976
000170 70 66 c0 bf 25 57 09 bf 1a 64 a3 bf 84 0d a1 bf
       -1.5031261 -0.53648597 -1.2764924 -1.258225
000180 8e 09 7c be 5f 11 0c bf 8b 0a 9c bf e0 83 82 bf
       -0.2461302 -0.54714006 -1.2190717 -1.0196495
000190 b8 55 4f 3e 88 18 0e be 2f 53 45 3e 30 ed 71 bf
       0.20247543 -0.13876545 0.19270013 -0.94502544
0001a0 b5 e5 55 bf 0c d7 0c 3f fe cf 3f bf 9a 28 95 bf
       -0.8355363 0.55015635 -0.74926746 -1.1653016
0001b0 f4 87 bd bf a6 97 d1 3d 14 3c da 3e 6e 99 de bf
       -1.4807115 0.10234003 0.4262396 -1.7390573
0001c0 29 cf 52 bf 6b 7c 7a bf b5 5b 96 bf bd 8d 9b be
       -0.8234735 -0.97846097 -1.1746737 -0.30381575
0001d0 bf ff d5 be 5d f0 be bc 56 e0 23 bf d4 1b e8 be
       -0.4179668 -0.023307974 -0.64014184 -0.4533373
0001e0 12 a7 94 bf 6e 75 18 bf 1c f3 36 bf 15 10 77 bf
       -1.1613486 -0.59554183 -0.71464705 -0.96508914
0001f0 83 c1 5f bf 2c 33 57 bf 5d a3 12 bd 3f 84 98 bf
       -0.8740465 -0.8406246 -0.035800327 -1.1915358
000200 c3 1e 98 bf de a0 0e 3f 5e 5c 0d c0 e2 47 06 c0
       -1.1884388 0.55714214 -2.2087626 -2.0981374
000210 06 87 1e bf d2 6d 67 bf 9b 21 4c bf 5a 42 b0 bd
       -0.6192478 -0.9040195 -0.7973878 -0.086064056
000220 c0 60 9a be 0c 42 02 3c df 9a 32 bf bc 55 f8 bf
       -0.3015194 0.007950317 -0.69767565 -1.9401164
000230 be de 14 c0 b7 26 3f be 68 3a 50 3f d8 42 53 3f
       -2.326095 -0.18667112 0.8133912 0.8252387
000240 ea ed 0f be f6 f8 9b bf 5c 3c 66 bf 94 8b 31 bf
       -0.14055601 -1.2185352 -0.8993585 -0.69353604
000250 17 56 5f bf 5d 71 0f bf 0b b9 87 3e 93 55 f1 bf
       -0.8724074 -0.56032354 0.26508364 -1.885424
000260 e8 30 d8 bf e5 cb 74 bd 01 b8 7a be c6 59 27 3d
       -1.6889925 -0.05976476 -0.24484254 0.0408571
000270 4d ff b2 bf 38 b5 ad bf 25 da d1 bf 45 fc 6a bf
       -1.3984162 -1.3570929 -1.6394697 -0.9179118
000280 f9 39 86 3d 46 93 b3 bd 08 c9 ab bf d1 a6 b4 bd
       0.06554026 -0.087683246 -1.3420725 -0.0882088
000290 0c 5c 29 3d a8 52 6e 3f ca f0 c3 3e de b4 2c 3f
       0.04134755 0.93094873 0.38269645 0.6746348
0002a0 cf 72 06 bf cf 0e 8d be 17 ed 43 3d 34 16 f8 bf
       -0.52518934 -0.2755036 0.04783353 -1.9381776
0002b0 e2 65 88 3f c0 db 81 3f a6 6a 02 c0 e1 ba 80 bf
       1.0656092 1.0145187 -2.0377593 -1.0057031
0002c0 18 ae 38 bf bf a1 20 3f 45 ed 41 bf c5 ce e8 be
       -0.72140646 0.62746805 -0.7575267 -0.45470253
0002d0 2f 33 56 bf e0 8d e0 be 75 bc 0f bf 83 f8 a9 bf
       -0.8367185 -0.43858242 -0.5614694 -1.3278965
0002e0 a6 44 44 3e d5 96 04 bf 8a 17 1d bf 7f e2 e6 bf
       0.19166812 -0.5179265 -0.6136404 -1.8037871
0002f0 ca ba 9f bf e6 34 e6 bf fc cb 44 be af e7 b4 be
       -1.2478878 -1.7984893 -0.19218439 -0.3533301
000300 2e f5 b5 bf 5a 10 74 bf 13 e2 99 bf 2a 3d 3c 3f
       -1.4215448 -0.9533745 -1.2022117 0.7353083
000310 44 7b cf bf 69 84 38 c0 3f 83 af bf 93 f7 20 bf
       -1.6209493 -2.8830817 -1.3711928 -0.6287777
000320 c0 86 23 bf 76 75 8c 3b da e9 84 bf 20 66 8b bf
       -0.6387749 0.0042864634 -1.0383866 -1.0890541
000330 ce 2a ef bf a0 89 68 bf 3f 10 8e bf e1 37 13 be
       -1.8684938 -0.90835 -1.1098708 -0.14376785
000340 a6 90 b6 bf 47 41 d2 bf a6 12 07 be bc 6d 68 bf
       -1.4262893 -1.6426171 -0.13190708 -0.9079244
000350 be 69 5b bf eb 07 62 bd 53 e6 b1 bf 6b ea 9a bf
       -0.85708225 -0.055183332 -1.3898414 -1.2102789
000360 66 41 29 bf fb 33 4b bf ed c1 3f bf fa 34 e1 bf
       -0.66115415 -0.7937619 -0.7490528 -1.7594292
000370 58 3f 27 3f ce 66 f7 3e f4 a0 15 bf c6 f2 93 bf
       0.6533103 0.4832062 -0.5844872 -1.1558464
000380 e7 f5 ae bf ac c0 be be 26 a7 7a bf 57 d0 50 bf
       -1.3668793 -0.37256372 -0.979113 -0.815679
000390 28 4e f1 be e2 a3 46 be 12 7e 1b be 27 9b b1 bf
       -0.4712994 -0.19398454 -0.15184811 -1.3875474
0003a0 d7 4d 77 bf ec d9 7e bf cd e4 ff 3e 19 9d bf bf
       -0.9660315 -0.9955127 0.4997925 -1.4969817
0003b0 a1 4e c9 bf 6f 9d 8a 3f 00 17 09 c0 7a e0 03 c0
       -1.5727121 1.0829295 -2.1420288 -2.060576
0003c0 3c ab aa bf 1a c8 3a bf d2 d9 16 bf 45 d6 24 bf
       -1.3333507 -0.7296158 -0.5892612 -0.6438945
0003d0 3a 3d 18 be 00 73 3b bf d4 5e 68 be b9 06 16 3d
       -0.14867106 -0.7322235 -0.22692424 0.036627505
0003e0 53 13 4b 3e 09 83 d8 be fb f9 2a bf f9 68 90 bf
       0.1983159 -0.42287472 -0.6678769 -1.1282035
0003f0 89 ab 21 3e ec 93 bf be 00 e1 02 bf 1e 9e 30 bf
       0.15788092 -0.37417543 -0.5112457 -0.6899127

network_body._body_endoder.seq_layers.0.bias f4 [50]
000000 94 f1 5e bf bb dc d4 bf ed 49 ce bf 38 73 c7 be
       -0.8708737 -1.6629862 -1.611631 -0.38955092
000010 8d 91 a8 bf 9e 29 5f be f1 54 d1 be 94 9b 80 bf
       -1.3169419 -0.2179322 -0.40885118 -1.0047479
000020 82 8f 89 bf 48 a3 49 bf 47 04 50 bf 32 e0 58 3e
       -1.074692 -0.7876477 -0.81256527 0.21179274
000030 57 13 b6 bf 6e b7 58 bf f4 ad 12 bf 12 4b 02 bf
       -1.4224652 -0.8465489 -0.5729668 -0.508958
000040 35 f2 23 bf f0 91 45 bf 69 02 91 3d 50 e3 4b be
       -0.64041454 -0.7717581 0.07080538 -0.19910932
000050 d9 60 88 bf 7d 27 ab be 87 e4 32 bf 94 37 fb bd
       -1.0654556 -0.33428565 -0.69879955 -0.1226646
000060 90 72 05 bf a7 fd 02 3e bf 13 dc be c0 28 c6 bf
       -0.52127934 0.12792073 -0.42983815 -1.5481186
000070 cb 69 9e bf 6b 9d a1 3d d5 fe 58 be 53 e2 2a bf
       -1.2376035 0.07891353 -0.2119096 -0.66751593
000080 ce a4 30 be db da 46 be bb 8a 2e bf dc 45 45 bf
       -0.17250368 -0.19419424 -0.68180436 -0.7705972
000090 53 5c 2b 3f f7 ae d5 bd 6b 9a 6d bf 3f 22 b1 bf
       0.6693775 -0.104337625 -0.9281375 -1.3838576
0000a0 5c 6e 59 3f b2 db 08 bf 5b dd d5 bf 4c 2e 56 bb
       0.8493402 -0.5346023 -1.6708177 -0.0032681404
0000b0 30 a6 cf bf c6 fb 95 bd 58 28 90 be 43 65 bb bf
       -1.6222591 -0.073234126 -0.2815578 -1.4640278
0000c0 4f 9f 44 bf 9d 7d 60 3d
       -0.76805586 0.054807294

network_body._body_endoder.seq_layers.2.weight f4 [50, 50]
000000 3c b5 aa 3f ee b5 a1 3f e5 10 ee 3e f9 56 19 40
       1.3336558 1.2633646 0.46497265 2.3959334
000010 26 a8 67 3f 27 7e c7 3e d7 67 aa bf de 91 06 3f
       0.9049095 0.38963434 -1.331294 0.52566326
000020 d4 7c e0 3e 4b c1 87 3f cc 2c 16 bf 86 58 9a 3f
       0.43845236 1.0605863 -0.58662105 1.2058265
000030 62 51 a5 3f ce 6e 94 3f 0c 53 b5 3d 3f f8 3f 3f
       1.2915461 1.1596315 0.088537306 0.7498817
000040 1e be f3 3f 0c 1d 80 3f ed 1f 20 3f f0 43 85 3f
       1.9042394 1.0008864 0.62548715 1.0411358
000050 22 51 64 3f 0c 8f bd 3f a0 de 80 be c7 33 c0 3f
       0.891863 1.480928 -0.2516985 1.5015801
000060 ee 64 f3 3f 7c 01 15 bf a4 3c 1b 40 f1 26 bd 3f
       1.9015176 -0.5820539 2.4255762 1.4777509
000070 0d 25 10 3f 6b 91 bd 3c 46 d3 84 3f 3c 9a e3 bf
       0.56306535 0.02314063 1.0376976 -1.7781444
000080 27 41 b2 3f c5 63 10 3e 80 27 85 3e c6 12 3e 3e
       1.3926133 0.14100559 0.260067 0.18561849
000090 b3 4f 53 3f e9 96 06 3f e2 ae a0 3f 3d 78 7a 3f
       0.82543486 0.5257402 1.255337 0.9783972
0000a0 e0 19 01 be 16 13 ec 3e 74 88 a5 3f ba 81 54 bf
       -0.12607527 0.4610831 1.2932267 -0.8301045
0000b0 f6 0a 87 3f df 76 81 bf 17 95 f0 3e 25 81 89 3f
       1.055022 -1.0114402 0.46988747 1.0742537
0000c0 d1 0e 98 3f 5c a0 41 3f 4f 9f 8e 3f 04 20 23 be
       1.1879522 0.75635314 1.1142367 -0.15930182
0000d0 b5 19 a4 3f 2a be 92 3f d2 98 e1 3f f4 b1 cd 3f
       1.2820345 1.1464283 1.7624762 1.6069932
0000e0 e3 26 ac 3f d5 26 5e be da ee 85 3f d7 19 c4 3f
       1.3449367 -0.216945 1.0463517 1.5320386
0000f0 8d e2 2f 3e 01 36 05 40 5e 58 c1 3d ef 9c 7a 3f
       0.17176266 2.0814211 0.09440683 0.9789571
000100 d8 d6 c8 3f b2 08 31 bf 40 a8 0e 40 f9 07 14 40
       1.5690565 -0.69153893 2.2290192 2.3129866
000110 35 90 8c 3f 42 3b 0a 40 74 58 a9 3f 77 64 03 40
       1.0981508 2.1598668 1.3230119 2.053007
000120 57 d3 cc be 34 36 e7 3f d6 6b 18 3f 17 d2 35 3f
       -0.4000499 1.8063416 0.59539545 0.71023697
000130 79 5b 9f 3f 4b 6f 39 3f bb 0b 92 3f 42 7f b4 bf
       1.244979 0.72435445 1.140983 -1.4101336
000140 53 b8 13 40 0b a9 5e 3f 7e 60 ac 3f 59 5a ad 3f
       2.3081253 0.8697669 1.3466947 1.3543197
000150 d1 f0 3c bf cf 27 3f 3f f9 f5 31 3f 5a 93 74 3f
       -0.73804957 0.7467012 0.6951595 0.9553734
000160 c7 3a ab 3f 34 00 e2 3e 58 07 45 bf a1 b6 7d 3f
       1.3377312 0.4414078 -0.7696433 0.99106795
000170 ed b2 79 3f 81 c6 b1 be d7 d4 bb be ec e0 56 bf
       0.97538644 -0.3472176 -0.3668582 -0.83936954
000180 d8 0c 1b 3d fb 8c 5a 3f 66 7a a5 3f ff 57 8b 3f
       0.037854046 0.8537137 1.2927978 1.0886229
000190 f8 e5 cd 3e 33 30 a5 3c 13 e2 5a bd ea 49 29 3f
       0.40214515 0.020164585 -0.053438257 0.6612841
0001a0 6f 50 a8 3f 2e 00 33 be 3f 9f 34 be a4 ec b9 bf
       1.3149546 -0.17480537 -0.17638873 -1.4525342
0001b0 87 df 02 3f 17 44 6b be f5 aa bf bd 42 74 2f 3f
       0.51122326 -0.22975193 -0.09358779 0.6853677
0001c0 c7 41 b0 be 15 e0 ea be 0d 2f 52 3e f9 37 a5 3e
       -0.34425184 -0.45874086 0.20525761 0.32269266
0001d0 29 ef b4 3f e3 32 42 3f 6c 5c 52 3f 5b 0a 70 3f
       1.4135486 0.75858897 0.82172275 0.937658
0001e0 9b 84 71 3f d1 c6 db bc cb 55 bf bf f1 97 e9 3e
       0.94342965 -0.026828201 -1.4948057 0.45623735
0001f0 f7 a9 81 3d 85 5a ab 3f 2b 74 d1 be 86 b6 95 bf
       0.06331246 1.3386999 -0.40908942 -1.1696327
000200 b5 2e 37 bf c6 00 d1 be 97 66 a6 bf a6 0d ce bd
       -0.71555644 -0.40820903 -1.3000058 -0.10061197
000210 4a 24 de 3e 43 75 e0 3e c5 48 81 bf d9 f4 c8 3e
       0.4338706 0.43839464 -1.0100332 0.39249304
000220 e9 27 fb 3d 4e a8 8d bc dd c8 9d be b2 bf 00 be
       0.12263472 -0.017292168 -0.3081731 -0.12573126
000230 51 08 88 be 6f ac ec be ab 50 2d 3e 61 5a 6b bf
       -0.26568845 -0.46225306 0.16925304 -0.9193478
000240 7a 2c a3 3e cd 3c 91 3e c7 39 18 3f 60 6d e0 3c
       0.3186987 0.283667 0.5946316 0.027395904
000250 e6 1f aa 3f 06 6a 57 bf 1d d6 ba bd f4 43 ba bf
       1.3290985 -0.84146154 -0.0912287 -1.4551988
000260 d9 a8 14 3f ac bb 7f 3f 8a 67 8c 3f ca ef b5 3f
       0.5807014 0.9989574 1.0969098 1.4213803
000270 61 9f 42 bf 41 96 ef 3d 98 a3 1b 3f 4b 03 4a 3f
       -0.7602444 0.116985805 0.607965 0.78911275
000280 b6 c0 2d 3e 6c c3 07 40 f3 fa 0c bd b3 74 07 3f
       0.16968045 2.1213026 -0.03441901 0.52912444
000290 96 40 8d 3f 95 56 c9 bf 17 a1 79 bf 7a 14 78 3e
       1.1035335 -1.5729548 -0.9751143 0.24226561
0002a0 59 57 d3 be 0d 64 16 bf 9d e7 d9 3f af af c6 3e
       -0.41277578 -0.58746415 1.7023808 0.3880591
0002b0 45 23 fa 3d 5a e4 32 3e f3 7d 51 bb e4 09 74 3f
       0.122137584 0.17469922 -0.003196594 0.9532759
0002c0 0b 2b 61 bf 4b 17 5a 3e f8 f6 87 3f e1 c7 22 bc
       -0.87956303 0.21297948 1.0622244 -0.00993535
0002d0 c5 ff 52 3e 77 74 e8 bc 1e 7b 2a 3f 2f cc 9c 3f
       0.20605381 -0.028375847 0.6659411 1.2249812
0002e0 aa 54 cc 3f dd ad b3 3f 06 e4 11 3f 51 98 aa bf
       1.5963337 1.4037434 0.5698856 -1.3327733
0002f0 6c bf b8 3f dd d5 1d 3f 3e 30 ca 3e 42 e6 95 bf
       1.4433417 0.61654454 0.3948993 -1.1710894
000300 a9 74 8d 3f 28 b3 5c bf 9b c6 0c 40 d8 4c 89 be
       1.1051227 -0.8621087 2.199622 -0.2681644
000310 b7 1a e2 bd ca fe dc 3e 2d 44 fa 3f de cc ed 3f
       -0.11040252 0.4316314 1.9552056 1.8578146
000320 c7 66 0a 40 56 97 c1 3f 0b cb 16 3e 92 f4 4b 3f
       2.162523 1.5124309 0.14725892 0.7967006
000330 e8 e4 13 3e f8 fa e8 3e cd f6 e6 3f 50 fd ed 3e
       0.1444279 0.45503974 1.8044068 0.46482325
000340 77 74 d3 be 14 5f 45 3f 79 68 65 3f 93 6e 64 3f
       -0.41299793 0.770982 0.8961254 0.8923122
000350 8c 53 06 40 92 0d 99 3f 93 82 47 bc c7 68 7f bf
       2.0988493 1.1957266 -0.012177127 -0.9976925
000360 7c db 8b be cb 05 00 40 5b 32 96 3f 69 20 b8 3e
       -0.2731589 2.0003536 1.1734117 0.35962227
000370 0e 6b 38 3f a6 43 da 3f a6 dd 3a be e7 3f 94 3f
       0.7203835 1.7051895 -0.18248615 1.1582001
000380 99 78 99 3f a2 b0 d0 3f 39 f3 6f 3f 96 fb c2 3f
       1.1989928 1.6303904 0.93730503 1.5233028
000390 a7 3a 4c 3f e8 d9 8f bd 19 2a 9a 3f 8d 19 a5 bd
       0.79776996 -0.07023984 1.2044097 -0.08061514
0003a0 1f 06 ff 3e 8e 1d 37 3f 5d 93 bf 3f 46 27 80 3c
       0.49809358 0.7152947 1.4966847 0.015643727
0003b0 d9 88 5f 3f 7a 46 b2 bc 22 ee 9b 3f 85 c1 3a 3e
       0.8731819 -0.021762121 1.2182047 0.18237884
0003c0 c1 17 98 bf e3 e9 c8 3e cd 41 a5 3f 58 35 86 be
       -1.1882249 0.3924094 1.2910706 -0.26212573
0003d0 76 85 af 3d 4c 69 1b bf 88 ee 00 40 18 86 55 3e
       0.085703775 -0.60707545 2.0145588 0.20851934
0003e0 34 d9 55 3e 4e e1 dc 3f c7 c2 99 bf 17 bb 7c bf
       0.20883638 1.7256258 -1.2012566 -0.98722976
0003f0 50 10 b3 3f 14 b6 d1 3e 8b 65 4c 3f 82 a3 9a 3f
       1.3989353 0.40959227 0.7984244 1.2081149

network_body._body_endoder.seq_layers.2.bias f4 [50]
000000 26 0d 35 bf 61 69 ba bf f8 77 fb be 8d 93 f0 bd
       -0.7072319 -1.4563409 -0.49114966 -0.11746893
000010 3c 09 9f bf 87 5a a5 bf 37 b8 30 bf 09 08 0a c0
       -1.2424693 -1.2918252 -0.6903109 -2.1567404
000020 a8 f5 9d be e3 92 35 bf b6 40 78 bf 02 34 70 bf
       -0.30851483 -0.70927256 -0.9697374 -0.9382936
000030 cb 06 cd bf bf a7 41 be 6a 98 a2 bf d4 e8 d5 bf
       -1.6017698 -0.18911646 -1.2702763 -1.6711679
000040 09 e9 63 bf a4 b2 b1 bf 6b 02 77 bf fd 02 9b bf
       -0.8902746 -1.3882642 -0.96488065 -1.2110287
000050 b4 91 b0 3d d5 f9 ad bf 97 2a 86 bd 5e 58 51 bf
       0.08621541 -1.3591868 -0.06551092 -0.8177546
000060 b7 40 6c bf ca 2a cf bf 2a 57 75 bf 52 91 d8 bf
       -0.92286247 -1.6184933 -0.95836127 -1.6919348
000070 f0 b4 ad bf d5 e7 a3 bf 1d a1 35 be 75 b5 8d bf
       -1.3570843 -1.2805125 -0.17737241 -1.1071001
000080 2a da 93 bf 52 8a c3 bf d7 3d c3 bf c0 cc 86 bf
       -1.1550953 -1.5276587 -1.5253247 -1.0531235
000090 28 f0 ac bf a7 8d ac bf bf 5e 8a bf 03 64 a2 bf
       -1.351079 -1.3480729 -1.0810164 -1.2686771
0000a0 af ae 72 be 7e 75 b7 bf 59 a0 d4 bf 06 88 90 bf
       -0.23699449 -1.4332731 -1.6611434 -1.1291511
0000b0 a4 f5 94 bf 89 5a 6f bf 2e e7 c6 bf 96 88 d8 3e
       -1.1637464 -0.9349752 -1.55393 0.42291707
0000c0 65 7a 3b bf f7 9d 52 bf
       -0.73233634 -0.82272285

network_body._body_endoder.seq_layers.4.weight f4 [50, 50]
000000 ab 2d a4 3f 6b 67 95 3f 91 a4 3d 3f 88 0f 01 bf
       1.2826437 1.1672186 0.74079233 -0.50414324
000010 c8 ff 9a 3e 4c c5 87 3f 0b 54 d4 3e f9 56 a1 3f
       0.3027327 1.0607085 0.4147037 1.2604667
000020 84 32 f5 bd 06 f6 7a 3f 7f 1a c6 3f 71 d8 75 bd
       -0.11972526 0.9803165 1.5476836 -0.060020868
000030 23 9b b7 3f b9 90 03 bf da 29 08 40 80 d4 51 3e
       1.4344219 -0.51392704 2.1275544 0.20491219
000040 33 ed 03 3f fe 26 9a 3f 53 48 31 3f eb 70 20 40
       0.5153381 1.204315 0.69250983 2.506892
000050 0b b9 77 bd 40 7d 9a 3f 01 b0 78 3d 5e 35 dc 3f
       -0.060479205 1.2069473 0.060714725 1.7203786
000060 13 68 b4 3f a3 66 4c 3f e6 76 fa 3f f0 01 bc 3f
       1.4094261 0.7984411 1.9567535 1.4688091
000070 e4 d2 cc be 72 d2 26 40 95 09 e8 3e a1 0d 8f 3e
       -0.40004647 2.6065946 0.4531981 0.27940086
000080 4b bd f9 3f 4f 88 60 3f fe 00 f0 3f 94 bf 45 3f
       1.9510893 0.8770799 1.8750303 0.7724545
000090 7a d1 44 3f 67 f8 a7 3f 9c e1 31 40 75 f6 8a 3c
       0.76882136 1.3122681 2.779395 0.016963223
0000a0 7c a5 7d 3c 4b 0e c7 3f 03 6d 9c bd e8 46 cc 3f
       0.015481349 1.5551237 -0.0763798 1.5959139
0000b0 72 b0 5b 3f db 43 8a be 33 fb 35 3f ba b7 85 bf
       0.8581611 -0.27004895 0.71086425 -1.0446694
0000c0 27 17 99 3e c7 83 e6 3f 72 b2 79 3f f1 7a dc 3f
       0.29900476 1.8008965 0.9753791 1.7225019
0000d0 6f 3d c8 3f 74 1b 5a bf fe a6 08 3f 0c 1d 17 bd
       1.5643748 -0.8519814 0.5337981 -0.036892936
0000e0 45 71 ca 3e 85 6c 96 3f d8 c5 20 3f 29 05 f4 3e
       0.39539543 1.1751868 0.62801886 0.47660187
0000f0 77 49 03 40 17 ff 98 3f b2 2b 17 40 83 ac 00 bd
       2.051359 1.1952847 2.362042 -0.03141452
000100 53 90 f9 3e 44 4e 36 3f 40 82 a0 3f 45 29 e5 3f
       0.48742923 0.71213174 1.2539749 1.790322
000110 a3 cf b8 3f c5 90 31 3f 20 fa 9a bf 2b eb 07 40
       1.4438366 0.69361526 -1.2107582 2.1237285
000120 53 f0 17 bf 98 80 74 bf 4e 48 64 3f 07 d3 c0 3f
       -0.5935108 -0.9550872 0.8917283 1.50644
000130 3e c7 e7 3f 6b 19 86 3f 49 b9 09 be 65 3b 8b 3f
       1.8107679 1.0476507 -0.13449587 1.0877501
000140 94 3e ac 3f aa 62 dc 3f 3f 51 fd 3f b0 16 e4 3f
       1.3456597 1.721761 1.9790419 1.7819424
000150 5f 88 c6 3f b4 e9 b3 3f 62 62 c5 3f 28 28 23 40
       1.5510367 1.4055696 1.5420649 2.549326
000160 08 54 b5 be 1e 22 ac 3f c1 a0 a4 3f 5a fc b3 3f
       -0.35415673 1.3447912 1.2861558 1.4061387
000170 4a bf 4e 3f 37 23 74 3f a7 ba 59 be b9 63 77 3f
       0.80760634 0.95366234 -0.21262608 0.9663654
000180 44 51 d1 3e 48 4b 6f bf 73 65 02 40 56 48 d4 be
       0.40882313 -0.93474245 2.037442 -0.41461438
000190 45 05 26 3e ff 3b dd 3d 52 75 07 3f 1b f2 9f bf
       0.16212948 0.10802459 0.5291339 -1.249576
0001a0 95 fa 72 bf de 1b 34 3f 7f e6 7a be 47 db f2 3e
       -0.9491361 0.7035502 -0.2450199 0.4743292
0001b0 1e b5 30 3e 26 2b 40 be 73 dc 7b 3e c2 65 71 3e
       0.1725659 -0.1876646 0.24595813 0.23573974
0001c0 e9 f6 29 3f 93 29 2a bf 5c a3 73 3e 7f 79 cc 3d
       0.6639238 -0.6646969 0.23792785 0.09984111
0001d0 e7 5b 06 3f 91 56 23 3e 69 fd 58 bd 68 d9 98 3e
       0.5248398 0.15950991 -0.052976046 0.29853368
0001e0 3a 70 02 c0 64 ce aa 3e 23 1d 0a be c2 10 99 3f
       -2.0380998 0.3336059 -0.13487677 1.1958239
0001f0 5d 48 ca 3e 0d cb 3f be 99 35 7a 3f bc 1a ad 3e
       0.39508334 -0.18729801 0.97738034 0.3380946
000200 70 61 29 bf 9f 67 41 3e fe 51 cd 3e 02 53 41 3e
       -0.661643 0.18887185 0.40101618 0.18879321
000210 0b 77 06 3f 7c 2a d2 be 10 b6 9b bd 87 45 69 3f
       0.52525395 -0.41048038 -0.07603085 0.91121715
000220 16 2c 94 3c 44 47 0d 3f 2a bc 8c bf 47 a3 34 bf
       0.018087428 0.5518687 -1.0994923 -0.7056164
000230 37 cd 48 3f 79 0c b2 3e c5 a8 87 bf 00 d3 9b 3e
       0.78438133 0.3477514 -1.0598379 0.30434418
000240 e6 c2 77 3f 9e 36 95 bf c0 15 b8 be b5 c7 e5 be
       0.96781766 -1.1657293 -0.35954094 -0.44878927
000250 1d a8 00 3f d2 78 5c 3f b5 ca a9 3f a7 8b 01 bf
       0.5025652 0.8612186 1.3264986 -0.5060372
000260 a4 a1 cb 3f 44 f7 9a bf db d6 91 be 15 e7 31 bf
       1.5908704 -1.210671 -0.28484234 -0.6949323
000270 06 89 37 3f b3 ab 01 3f 0e 7a 18 3f 37 80 a4 3e
       0.71693456 0.5065262 0.5956124 0.3212907
000280 d7 8e 87 bf 98 ac 89 3f a2 e4 bd 3f e6 b2 35 bf
       -1.0590466 1.0755796 1.4835398 -0.709761
000290 58 54 35 3f 8b 90 be bf 4c d2 0c 3f 3f 81 b6 3f
       0.70831823 -1.4887861 0.5500839 1.4258193
0002a0 95 84 78 3f 01 27 e3 3d 35 e0 43 bf f2 91 36 3f
       0.97077304 0.11091424 -0.7651399 0.71316445
0002b0 ef ef ad be ae 9c db 3e e2 10 44 3f d0 8b 15 3f
       -0.33972117 0.42892975 0.7658826 0.5841646
0002c0 ca 4c de 3f 1e 54 59 3f 73 d2 c9 3e 4a 84 b3 bf
       1.7367184 0.8489398 0.39418373 -1.4024746
0002d0 3c 0a b1 3f 7f 30 b4 3f bc 38 19 40 91 cf 56 3f
       1.3831248 1.40773 2.3940878 0.8391047
0002e0 22 b4 09 3f cd 5a 91 3f 6d 01 92 3f 8f 05 fe 3e
       0.53790486 1.1355835 1.1406685 0.49613616
0002f0 68 6f c7 3e fe ca c4 3e 1a a5 13 3f e1 66 9e 3f
       0.38952184 0.3843612 0.576738 1.2375146
000300 dc df 56 bd 07 48 5b be cb bd 64 3e 1a e6 33 3e
       -0.052459583 -0.21414195 0.22338025 0.17568246
000310 c2 c2 6d bf 34 ee 76 bf 55 80 01 3f 8b 1f bc 3f
       -0.928753 -0.9645722 0.50586444 1.4697126
000320 42 22 53 3f 65 b1 65 bf 6e 12 14 3f 23 1f 4b c0
       0.8247415 -0.8972381 0.5784062 -3.1737754
000330 89 63 73 3f 56 a3 58 bd df 16 80 3f 07 2c cd 3e
       0.95073754 -0.052890144 1.000698 0.40072653
000340 2b dd 83 bf 02 f4 9f 3d cc c6 84 bf 25 7e ac 3e
       -1.030187 0.07810213 -1.0373168 0.3368999
000350 b4 8b 18 3d 7a 75 1e bf 19 0a 72 bf 37 a5 71 be
       0.037242606 -0.61898005 -0.9454666 -0.2359818
000360 d4 d8 cb bd b0 83 f1 3e f3 08 c3 be 2f 86 6a bf
       -0.09953466 0.47170782 -0.38092765 -0.91611
000370 58 0c 58 be 96 4c 51 be ed a9 a0 bf 9a e5 8f 3f
       -0.21098459 -0.20439371 -1.2551857 1.1241944
000380 25 ae 67 3c 17 d8 95 3e 31 37 64 be c3 9e 3e be
       0.01414064 0.29266426 -0.22286679 -0.1861525
000390 3e ba 35 3d a4 57 47 bf 2a 07 19 3e a5 52 19 3f
       0.044367068 -0.77868104 0.14944139 0.5989173
0003a0 7d ad 73 bd 2d e7 d0 3e 16 9e a3 be fc 0b 79 3f
       -0.059491623 0.40801373 -0.31956547 0.9728391
0003b0 7a e6 a3 3e cd 4e a2 3d fa e2 5e bf 5a a4 c8 3e
       0.32011777 0.07925186 -0.8706509 0.3918789
0003c0 df f5 d4 be 08 9e b9 be b2 0b 8b 3d dd c1 28 bf
       -0.41593835 -0.3625338 0.0678934 -0.6592081
0003d0 e4 28 01 3f d4 72 41 be fc 41 de be 4a 82 18 bf
       0.5045302 -0.1889146 -0.43409717 -0.59573805
0003e0 05 86 84 bf 61 78 b5 bf 61 e9 7e 3f 7e 10 b0 3c
       -1.03534 -1.4177362 0.9957486 0.02149224
0003f0 ec 27 30 3f 3d 47 a8 be 11 92 85 3f ea 0b b0 3d
       0.68810916 -0.3286685 1.0435201 0.085960224

network_body._body_endoder.seq_layers.4.bias f4 [50]
000000 8f b6 17 c0 2f d9 06 c0 5d 8e f6 bf a1 17 16 c0
       -2.3705175 -2.1070058 -1.9262196 -2.3451922
000010 2c 5f a9 bf 72 61 25 c0 87 dd 38 c0 0e ff 2a c0
       -1.3232169 -2.5840726 -2.888521 -2.6718173
000020 00 f5 c2 bf e4 43 b7 bf a2 e8 9b bd 03 59 dd be
       -1.5231018 -1.4317594 -0.076127306 -0.43231973
000030 e5 cf 12 c0 e4 40 dc bf 87 ab 3a c0 24 87 01 bf
       -2.2939389 -1.7207303 -2.9167192 -0.50596833
000040 3f 48 a7 bf 2e 42 76 bf 58 a3 d1 bf 25 aa 55 be
       -1.3068923 -0.9619473 -1.6377974 -0.20865686
000050 50 f2 4e bf 55 48 08 c0 e8 25 8a bf 42 d3 c5 bf
       -0.8083849 -2.1294148 -1.0792818 -1.5455096
000060 4e 2a 95 bf b8 94 0b c0 0f 3b 2b c0 f8 4e 88 bf
       -1.1653535 -2.180952 -2.6754797 -1.0649099
000070 cd 61 d2 3d 74 d5 0d c0 1c 28 09 c0 81 07 03 c0
       0.1027256 -2.2161531 -2.143073 -2.047333
000080 87 e0 55 bf 9d 69 58 c0 3d cf b7 bf 98 05 2b bf
       -0.83545727 -3.3814461 -1.4360119 -0.6680541
000090 3a 8d 10 c0 ae 0d c5 3f 5f 71 c3 bf 96 83 c7 bf
       -2.2586198 1.53948 -1.5268973 -1.5587032
0000a0 a4 b0 d2 bf f7 ba c8 bf 04 8c a2 bf 64 a1 ff bf
       -1.6460156 -1.5682057 -1.2698979 -1.9971128
0000b0 08 e9 59 c0 a1 06 e3 bf 34 61 04 c0 70 d2 34 bf
       -3.404848 -1.7736398 -2.0684328 -0.706336
0000c0 6a cb 54 c0 e3 4b bb bf
       -3.3249154 -1.4632534

network_body._body_endoder.seq_layers.6.weight f4 [50, 50]
000000 cb 61 14 be f6 20 1d 3f f8 88 d4 be 8f 45 63 3f
       -0.1449043 0.6137842 -0.4151075 0.88778013
000010 ec f4 24 3e 0c 6d eb be ba 33 db 3d 2a f9 1f bd
       0.16109055 -0.45981634 0.107032254 -0.03905598
000020 2c f6 15 bf 60 81 87 bd a1 49 90 3f 8a 8d 33 bf
       -0.58578753 -0.06616473 1.127247 -0.70137846
000030 5f b6 2f bf d8 06 bc be 75 e7 a7 3c ad 7f 1a c0
       -0.6863765 -0.3672397 0.02049611 -2.4140427
000040 40 b0 81 3d 6f 42 cd bd ee f6 89 be 0a 40 bd 3e
       0.06332445 -0.10022437 -0.26946205 0.3696292
000050 3d c6 af 3e f9 17 88 3e 67 cc 1a 3e b1 dd 39 3f
       0.3433093 0.2658079 0.15117036 0.726039
000060 ba 1f f4 be 87 f6 16 be 66 58 47 3f 94 56 0c 3f
       -0.47680455 -0.1474248 0.7786926 0.5481961
000070 06 af cd bf 9b e9 92 3d 16 60 7b be 95 72 64 3f
       -1.6069038 0.07173463 -0.24548373 0.8923734
000080 a0 93 82 3f ff 86 67 bf 31 9d 66 be ad c5 cb bd
       1.0201302 -0.9044036 -0.22520901 -0.09949813
000090 d8 7a f4 3e 50 5b fd be 99 45 52 3f 20 fa 5e be
       0.47749972 -0.49483728 0.8213745 -0.21775103
0000a0 18 1a 93 3e ee 9d 4c bc 3d f5 05 3c d6 01 98 bd
       0.28730845 -0.012488825 0.008176145 -0.07422225
0000b0 19 11 17 3f 10 de 09 3f ce 01 66 be 88 6a c2 3f
       0.59010464 0.53854465 -0.22461626 1.5188761
0000c0 51 73 8b be 84 82 aa be c1 df b3 3c 79 36 96 3e
       -0.27236417 -0.333027 0.02195728 0.29338434
0000d0 f0 1c bb 3f a8 e3 f9 3e 27 a5 61 bf cd aa d4 3f
       1.4618206 0.488065 -0.8814263 1.6614624
0000e0 cb 23 c1 3e 9f 42 df be f4 fd 8a 3e c5 00 4f 3f
       0.3772262 -0.43605515 0.27146876 0.8086055
0000f0 67 cc 30 3f 1c e8 25 c0 c8 ee 2a 3f 51 de a6 bd
       0.69061893 -2.5922918 0.667706 -0.08147872
000100 92 a5 4c bc 6f 02 4f 3e 22 52 ed 3e 1f 5f 0c 3f
       -0.012490647 0.20215772 0.46351725 0.54832643
000110 ff cf bf 3e 2c 31 59 3f 49 c5 d2 bf 86 6c 5b 3f
       0.37463376 0.84840655 -1.6466457 0.8571247
000120 25 08 19 3f d5 f7 86 3e f7 7e 37 be 98 3c cb 3f
       0.5977805 0.26360956 -0.17919527 1.5877867
000130 0e c5 e4 3f e5 43 0c c0 0a 46 e8 3d 47 d2 1f 3e
       1.7872636 -2.191644 0.11341484 0.15607558
000140 d4 44 d2 3e 52 52 32 3f 56 85 38 3f 18 ba 63 3f
       0.41068137 0.6965686 0.72078454 0.8895583
000150 51 2e 37 bf c1 4d 1c 3f 80 be 0c 40 d4 51 84 be
       -0.7155505 0.61056143 2.1991272 -0.2584368
000160 74 15 1a 3e a6 a9 75 bb 27 f2 8e 3f 62 ea a5 3f
       0.15047246 -0.0037485152 1.1167649 1.2962153
000170 79 16 05 40 73 19 33 3f 44 34 1d 3f bf df b0 3f
       2.0794966 0.6996071 0.61407876 1.3818282
000180 e6 07 0d 40 a9 d5 91 3f 18 aa 3e 3f ee 97 ac 3f
       2.203607 1.1393329 0.7447829 1.3483865
000190 2f c6 bf 3e c2 e6 70 3e 01 12 d9 be 5d 3b 01 3f
       0.3745589 0.23525527 -0.42396548 0.50481206
0001a0 b1 7c 94 be d3 27 58 3f 42 94 aa be 82 b5 d3 3f
       -0.29001382 0.84435767 -0.33316237 1.6539767
0001b0 d3 b2 6a bf 5b 69 2b 3d f9 6e 01 3e 62 58 f6 bd
       -0.91679114 0.04184852 0.12639989 -0.120285764
0001c0 b7 37 9d 3f 07 43 82 be 2b 37 16 bf 2b 44 59 bf
       1.2282628 -0.25441763 -0.5867793 -0.8486964
0001d0 11 b9 bf 3f 24 4e e3 be 9f 3f 2a bf 4e c8 84 3f
       1.4978353 -0.44395554 -0.6650333 1.0373628
0001e0 57 9f 38 bf a2 53 91 3f d6 d0 0e 3e e8 af 11 be
       -0.72118133 1.1353648 0.13946852 -0.14227259
0001f0 85 10 45 3e 3f 9e ee 3e 91 40 8e 3f 33 a0 0e 3f
       0.19244583 0.46605107 1.1113454 0.55713195
000200 18 2d 81 bf c4 e1 1c 3f 98 28 02 bf a6 44 b1 be
       -1.0091887 0.6128199 -0.5084319 -0.34622687
000210 36 21 16 3f c4 79 65 3e aa 36 ee 3e c9 d5 0e 3f
       0.58644426 0.22409731 0.4652608 0.5579496
000220 21 63 da 3e c9 4a 75 bf b3 b1 0e 3f e6 55 48 bf
       0.42653754 -0.9581724 0.557399 -0.7825607
000230 c4 23 11 40 bb 9b af 3e fb e0 ab 3f a9 63 be 3e
       2.267808 0.342985 1.3428034 0.3718541
000240 82 ab 85 be 65 ba ac 3f 98 9e e7 3e d7 8d 0a 40
       -0.26107413 1.3494383 0.45238185 2.1649072
000250 f3 21 18 bf d9 ee ab be 11 57 29 3f 70 06 af bc
       -0.594268 -0.33580664 0.6614848 -0.021365374
000260 21 f9 ca be cd 52 8d 3f 94 c6 dc 3e 68 5d e1 3e
       -0.39643195 1.1040894 0.43120253 0.44016576
000270 f4 b2 ca bb 9a 00 fb 3f fe 27 ee bd 99 65 f5 3d
       -0.0061858837 1.9609559 -0.11628722 0.11982269
000280 fe 2e f3 bf b8 c9 53 3f ce 02 bf 3f 72 7a 87 3e
       -1.8998716 0.82729673 1.4922731 0.26460606
000290 0f 3e 62 3d 2a 80 e9 3d 30 26 f9 3e dd 0b 99 3e
       0.055234965 0.114013985 0.48661947 0.29891863
0002a0 15 a2 fe bf 41 57 8d bd 83 26 0b bd fd b8 8f 3f
       -1.9893214 -0.06901408 -0.033972275 1.1228329
0002b0 b9 84 0b 3f 1c e2 e9 3f 6b ae 59 bf f8 e3 83 3f
       0.54499394 1.8272128 -0.85031766 1.0303946
0002c0 f2 3b 3b 3e e0 e9 86 3f 7c f5 06 c0 33 50 9a 3f
       0.18284586 1.0540123 -2.1087332 1.2055725
0002d0 ff 8d 8a 3e 76 bb 85 be 09 d7 35 bf eb 6f d3 be
       0.2706146 -0.26119584 -0.7103124 -0.41296324
0002e0 23 c7 29 3f ca cf 37 3e cd 52 49 3f c6 88 1e be
       0.66319484 0.17950359 0.7864197 -0.15481862
0002f0 60 03 89 3f ec 4e 8c ba 84 81 f3 3f 5e 3f 7a 3d
       1.0704155 -0.0010704673 1.90239 0.061095588
000300 5a 81 88 3f 35 c5 28 3e 24 8f 7e 3e 77 ad 95 3f
       1.0664475 0.16481479 0.24859291 1.1693562
000310 a3 a4 c0 3f 8a 11 a2 3f 2e a5 bf 3e 90 f5 3f be
       1.5050243 1.2661602 0.3743071 -0.18746018
000320 53 c9 01 3f 69 b3 ae 3e 16 cf 94 3f 58 49 a6 3e
       0.5069782 0.34121254 1.1625698 0.32477832
000330 a6 75 54 3f 00 96 a6 3d e5 d3 f4 be af 15 89 3f
       0.8299202 0.08134079 -0.47817913 1.0709742
000340 09 30 09 3f 88 16 63 3f 4c 13 4f 3e 41 b7 50 bf
       0.5358892 0.88706255 0.20222205 -0.81529623
000350 ed ee 17 3f ec 16 ba be f8 57 ed 3e 7c 8a 88 3f
       0.59348947 -0.36345613 0.46356177 1.0667262
000360 e7 a9 b3 3e ac 2f 80 3e 2c aa bb 3f 08 bd db bc
       0.35090563 0.2503637 1.4661307 -0.026823536
000370 02 db c1 3f 70 b0 70 3f d6 fd 80 3f 7f 2c a1 3e
       1.5144961 0.9401922 1.0077465 0.3147926
000380 66 7d cd 3e 88 1d e4 3e 48 19 78 3f 58 31 2b 3f
       0.40134734 0.4455378 0.96913576 0.6687217
000390 84 66 52 bf 4e 70 c4 be 4f a3 87 bf 12 d6 95 be
       -0.82187676 -0.38366932 -1.0596713 -0.29264885
0003a0 0c 42 86 3e 03 9b aa 3f 5b 39 7f 3f 10 2f 00 3f
       0.26222265 1.3328556 0.9969689 0.5007181
0003b0 8a 71 7a be de 11 f5 bd e7 80 64 bf 2a 76 1d 3e
       -0.24457374 -0.119662985 -0.8925919 0.15377107
0003c0 98 f3 50 be bc 55 76 3f 68 37 d6 3f b5 3b 1d c0
       -0.20405424 0.9622457 1.6735659 -2.4567692
0003d0 d2 c2 23 3e 96 b5 e5 3e 03 41 50 3e c1 83 7f 3f
       0.15992287 0.44865102 0.203373 0.99810416
0003e0 c1 d1 63 3d 4c 49 be 3f bb d4 98 be 2b 09 bd 3f
       0.05561996 1.4866118 -0.298498 1.4768423
0003f0 ce c3 bc 3e 5a 54 3c 3f f2 41 78 bf 54 7c 87 3f
       0.36868137 0.7356621 -0.96975625 1.0584817

network_body._body_endoder.seq_layers.6.bias f4 [50]
000000 38 87 18 bf c2 f2 b9 bf 3a a0 91 bf 01 f3 a5 bf
       -0.5958133 -1.4527209 -1.1377022 -1.2964784
000010 f4 7f 35 bf 4b 77 a9 bf 3c 06 49 bf da 5b a9 bf
       -0.70898366 -1.323953 -0.7852514 -1.3231156
000020 cd e1 8d bf 90 e1 3e bf 44 e1 59 bf dc 0d 9d bf
       -1.1084534 -0.7456293 -0.85109353 -1.2269855
000030 c3 c3 d7 bf ba e5 a4 bf 6b 8a 02 bf 8d ab c2 bf
       -1.6856617 -1.2882607 -0.5099246 -1.5208603
000040 d5 b0 9c bf 17 f5 96 bf fc 00 84 bf c7 a3 99 bf
       -1.2241465 -1.1793545 -1.03128 -1.2003106
000050 d8 0c 20 bf 27 fa 70 bf 39 b3 6a bf 7d 9b b1 bf
       -0.625196 -0.941317 -0.9167972 -1.3875576
000060 cb 6a 99 bf a0 a5 42 bf cf a0 5d bf 99 65 40 bf
       -1.1985716 -0.76033974 -0.865735 -0.75155026
000070 57 bf 05 bf 6c a3 b3 bf 1b 1b 25 bf 2f be 8e bf
       -0.52245086 -1.4034247 -0.64494485 -1.115179
000080 2e 1d 47 bf 92 a6 25 bf 1c 9a 8c bf 37 f1 07 bf
       -0.777789 -0.6470729 -1.098453 -0.5310244
000090 fe 30 50 bf 76 12 7e bf 98 f6 b1 bf ef 87 63 bf
       -0.81324756 -0.9924692 -1.390338 -0.88879293
0000a0 79 2f a8 bf d7 0c 93 bf fc 54 c4 bf 3c 2b c6 bf
       -1.3139488 -1.1488293 -1.5338435 -1.5481944
0000b0 ef f1 3d bf 4e 2b 4d bf f8 56 bf bf 01 b1 92 bf
       -0.74197286 -0.801442 -1.4948416 -1.1460267
0000c0 ea db 9f bf 0d 97 93 bf
       -1.2488987 -1.1530472

action_model._discrete_distribution.branches.0.weight f4 [3, 50]
000000 8a 77 11 40 c7 fc 47 bd dd 14 c9 3f 18 1c 8b be
       2.272921 -0.04882505 1.5709492 -0.2716987
000010 89 ec b6 bb d8 1e d5 3f d1 7a 8e 3f 01 f8 26 3f
       -0.0055823964 1.6650038 1.113123 0.65222174
000020 a6 db 89 be 54 25 8e 3e 4a 3b 31 40 c8 69 30 bf
       -0.2692539 0.27762854 2.7692437 -0.6891141
000030 6d c3 dd be db a5 df 3f 2f 60 27 bf 8c c3 c4 3e
       -0.4331316 1.747249 -0.6538114 0.3843044
000040 a6 bb 3e bf 8a 93 55 3f 57 82 e5 be 31 8c b5 3e
       -0.7450508 0.8342825 -0.44826004 0.3545852
000050 31 5c cc 3e 0b 4e f6 3f db f1 04 3f fe 89 39 3f
       0.39914086 1.9242567 0.5193154 0.72476184
000060 76 14 7d 3e ab 86 ad 3f 39 d6 12 be 2b f1 fb 3f
       0.24714836 1.3556722 -0.14339532 1.9682974
000070 3b 77 b2 3d d0 d2 e8 3f a6 45 a1 3f 81 0d 4b bf
       0.08714148 1.8189335 1.259938 -0.7931748
000080 e4 70 f8 3f 0c 11 c9 bd a6 bd 76 3e b4 34 86 3f
       1.9409451 -0.098177046 0.24095783 1.0484834
000090 86 84 c0 3f 6f 1c 22 be 4a 4d 74 3f c4 40 8a be
       1.5040443 -0.15831159 0.95430434 -0.27002537
0000a0 58 78 43 3f e8 7a 53 3f fb f7 ad 3e f9 34 c3 3f
       0.76355505 0.82609415 0.33978257 1.5250541
0000b0 0e cd 65 3f 61 0e 6c bd d5 0a 40 3f 01 2d b7 3e
       0.89766014 -0.0576309 0.7501653 0.35776523
0000c0 95 f8 4f 3e 5c 8a 9c 3e c5 f4 04 c0 12 ce cf bf
       0.2030967 0.3057431 -2.0774395 -1.6234763
0000d0 55 f4 83 bf bd 2d 4b 3e cf 86 05 c0 79 57 28 3f
       -1.0308939 0.19841667 -2.086353 0.6575847
0000e0 61 3d c9 bf 3c 19 f1 bf 10 6d be 3e 95 bd c3 bf
       -1.5721856 -1.8835826 0.37192583 -1.5292231
0000f0 cf a7 bf bf 07 20 2d 3f 26 a7 70 3d d6 d7 ca bf
       -1.4973086 0.67626995 0.058753155 -1.5847118
000100 fe ef 0a bf 4c 87 bd be e6 b5 ae 3f 70 ad 38 c0
       -0.5427245 -0.37017286 1.3649261 -2.8855858
000110 00 35 6d bf e9 52 11 3f 0a a5 f3 3e 4b 24 99 3c
       -0.92658997 0.56767136 0.47586852 0.018694064
000120 85 bc 01 c0 d8 4b 01 bf 32 70 88 bf d2 e1 09 bf
       -2.0271313 -0.50506353 -1.0659239 -0.538602
000130 01 a7 84 bf 0f 85 23 c0 3f f5 00 c0 63 c8 ff bd
       -1.0363466 -2.5549963 -2.0149686 -0.124893926
000140 8f e7 05 c0 08 62 8d 3f 0b c4 42 3f 57 bc f1 3e
       -2.0922582 1.1045542 0.7608039 0.47214004
000150 89 19 24 3f 9e ea 4c bf 1e 33 98 bf 52 6d ee bf
       0.64101464 -0.800455 -1.18906 -1.8627112
000160 82 a8 ac bf fd 03 93 bf 54 98 00 bf cd 85 2b c0
       -1.3488925 -1.1485592 -0.50232434 -2.6800416
000170 ed 00 58 bf 1a 9e 21 c0 26 66 4d bf ac c5 36 3e
       -0.8437641 -2.5252748 -0.8023399 0.17848843
000180 bb d4 13 3f 5a 57 05 c0 f3 b6 7c bf 20 30 d4 bf
       0.57746476 -2.0834565 -0.9871666 -1.6577187
000190 0b bd 8b bc d3 47 09 40 51 7d 1a 3f d7 50 1d 3e
       -0.017057916 2.1450088 0.6034747 0.15362869
0001a0 7b 93 3e 40 3b a1 e4 bf ee 96 a9 3f aa ec bf 3f
       2.9777515 -1.7861704 1.3249185 1.4994099
0001b0 ff ef 03 3f e4 0e 9b 3f 2d 5b bb bf 39 a6 1e 3e
       0.5153808 1.2113919 -1.46372 0.15493096
0001c0 f2 d3 90 3f 86 09 47 3f 39 7a bf 3f 71 a1 27 3f
       1.131468 0.77748907 1.4959174 0.65480715
0001d0 8e 57 83 bf af 2b 43 40 f8 f1 e0 3f fc 9c 47 bf
       -1.0261095 3.0495412 1.7573843 -0.77973914
0001e0 a0 9f ad bf 14 0a c8 bf 92 ae be 3f 57 15 14 bf
       -1.3564339 -1.5628076 1.4897025 -0.5784506
0001f0 e2 93 c3 3f 43 f8 ad be be e2 c8 3f 0d d7 4d 3f
       1.5279505 -0.3397847 1.5694196 0.80406266
000200 47 a1 0e 40 a1 01 a2 bf ca 4f ca 3f 71 57 7b 3e
       2.2285936 -1.2656747 1.58056 0.24545075
000210 d5 7a 07 c0 8b 79 9a 3e e7 df 74 bf 3c 6d 85 3e
       -2.116872 0.30170855 -0.9565415 0.26059902
000220 53 b3 08 3c 98 c8 39 40 91 4a 3d 3f d2 de c9 3f
       0.0083435355 2.9028683 0.73941904 1.5771124
000230 af 14 1b bf c8 22 1d 40 e4 bf 11 3f a7 6a ba 3f
       -0.60578436 2.4552479 0.56933427 1.4563798
000240 a8 e5 95 3e 60 f1 de 3d b5 c5 91 bf e5 4e 1e 40
       0.29276776 0.108858824 -1.138846 2.4735653
000250 bc e3 2a 3f 85 bc 79 3f
       0.66753745 0.9755328

action_model._discrete_distribution.branches.0.bias f4 [3]
000000 f4 30 f8 3e 4d 29 04 bf f9 23 ff 3e
       0.48474848 -0.5162552 0.49832132

action_model._discrete_distribution.branches.1.weight f4 [3, 50]
000000 52 59 48 3f 68 ef 22 3f 2b 5e 39 3f 2a cf 12 40
       0.7826129 0.63646555 0.72409314 2.2938943
000010 0a 52 28 bf db 4e 25 be 84 b3 e4 bd f3 ed 59 c0
       -0.6575018 -0.16143362 -0.111670524 -3.4051483
000020 9c 74 35 c0 f4 3f f7 be 58 84 f7 bb 1a 23 76 3f
       -2.8352423 -0.4829098 -0.0075536184 0.9614731
000030 8d 24 8e 3f 78 70 c6 3e c1 e8 be bf 21 15 5f be
       1.1104904 0.38757682 -1.4914781 -0.21785404
000040 77 0d e3 3f 18 6c 16 bf 89 3b 99 bf f8 b9 ae 3e
       1.7738484 -0.5875869 -1.1971294 0.34126258
000050 cb 77 0d be ba 69 47 bb 96 b3 8d 3f 95 97 e6 bf
       -0.13815229 -0.0030428008 1.107043 -1.8015009
000060 92 50 88 c0 d2 3c 97 3f a8 57 41 bf 5c 07 51 3f
       -4.2598352 1.1815436 -0.7552438 0.81651855
000070 e1 a8 ed bf c4 b9 7a 3f 5b 5c f2 3e 4f 6e 1c 3f
       -1.8567163 0.97939706 0.47336087 0.6110582
000080 5c 04 01 3f eb 15 ff 3f dd 98 e6 3d 73 45 63 be
       0.50397277 1.9928564 0.11259625 -0.22194462
000090 6e cb af be 4f e2 17 c0 68 60 ad be f8 7b 57 bf
       -0.34334892 -2.3731878 -0.33862615 -0.84173536
0000a0 01 a1 52 3e 4d 04 00 c0 15 bb 41 c0 43 2f 37 bf
       0.2056923 -2.0002625 -3.0270436 -0.7155649
0000b0 da 6c 63 3f b5 1b 21 3f a0 54 17 3f d5 dd 84 bf
       0.8883797 0.629329 0.591135 -1.0380198
0000c0 ca 23 ba bf a6 18 ad bf fd 21 6d bf eb 41 9a 3f
       -1.4542172 -1.3523147 -0.92629987 1.2051367
0000d0 ae ee e2 bf 2b e4 1f c0 37 0f cc be 4f 6e 10 be
       -1.7729089 -2.4983013 -0.39855358 -0.1410458
0000e0 6c 1f 31 be 4f 10 87 3f 63 5d 7a 3f 7c 4b 8d bf
       -0.17297143 1.0551852 0.97798747 -1.1038661
0000f0 dd 15 4b bf 56 4e b3 bf c9 16 53 bf c2 dc b9 bf
       -0.79330236 -1.4008281 -0.8245664 -1.4520495
000100 1e b0 04 be 18 e9 bc 3e 74 91 6a c0 e0 25 43 3f
       -0.12957808 0.36896586 -3.6651278 0.7622967
000110 71 c3 55 bf 16 b6 cc bf 9b 08 2e bf 6d b9 de 3e
       -0.83501345 -1.5993068 -0.6798188 0.43500844
000120 67 d9 39 bf d4 9d f0 3f 31 8b a4 3f 78 bc d2 bf
       -0.72597355 1.8798165 1.2854978 -1.6463766
000130 7b 14 1c bf 00 33 84 bf 18 48 42 bd 46 60 9c bf
       -0.6096875 -1.0328064 -0.047432035 -1.221688
000140 77 bc 92 bf bf fd 20 c0 e6 58 95 bf d7 71 c5 bf
       -1.1463765 -2.5154874 -1.1667755 -1.5425366
000150 b3 c3 91 bf b4 87 42 bf 8b 80 c0 3e d9 f5 0c 40
       -1.1387848 -0.75988317 0.3759807 2.2025054
000160 d9 8e 89 bf bb ec 91 be a4 3e b1 bf b9 d3 53 3f
       -1.0746719 -0.28500924 -1.3847241 0.8274494
000170 f5 e1 84 3f aa fc 13 bf 5c d3 be bf 3a 35 f1 bf
       1.0381457 -0.5780741 -1.4908252 -1.8844368
000180 7c 8b bb bf 67 44 4a 3e 68 0e b2 3e 25 50 2d 3e
       -1.4651942 0.19752656 0.34776616 0.16925104
000190 bd de 2d 3e 76 39 d4 bf 01 e9 eb 3f 1a 6b a3 3f
       0.16979499 -1.6580036 1.8430482 1.276706
0001a0 5a ed 94 3f 3a d5 d9 3e 74 5d db 3e 32 35 36 40
       1.1634934 0.4254549 0.42844737 2.8469968
0001b0 25 e5 18 40 ee b5 f7 3f 99 84 87 3f 58 fb 82 3f
       2.3889859 1.9352396 1.058734 1.0232954
0001c0 8e 0f fe 3e 64 23 ba 3f c5 12 17 40 35 16 d9 bd
       0.49621242 1.454205 2.3605206 -0.10599939
0001d0 61 9c 41 40 4b 47 1d bd de 72 ff 3f eb b9 de 3f
       3.0251696 -0.03839807 1.995693 1.7400488
0001e0 d5 55 91 3f 03 35 83 bf 32 bd 58 bf 0b 60 65 3f
       1.1354319 -1.0250553 -0.8466369 0.89599675
0001f0 f5 0c 45 40 74 46 6e 3f d6 94 d0 3f cb 92 b0 3f
       3.0789158 0.9307625 1.6295421 1.3794798
000200 0e a7 0e 40 78 86 0a 3f f7 a5 04 3f 2f 92 26 40
       2.2289462 0.54111433 0.5181574 2.6026723
000210 92 28 a2 3f c9 6e a7 bf 98 8e ab 3f d8 43 c0 3f
       1.2668631 -1.3080684 1.3402891 1.5020704
000220 a6 9b e2 3e 3e 80 bb 3d 27 c0 03 40 42 d0 64 3f
       0.44259375 0.0915532 2.058603 0.89380276
000230 0f c8 e2 3f a8 94 94 3f ca b6 10 40 71 11 8d 3f
       1.7717303 1.1607866 2.2611566 1.1020948
000240 82 04 41 3f e4 21 71 3f d9 67 c1 3f 9a b8 be 3f
       0.75397503 0.9419234 1.5109817 1.4900086
000250 a6 82 85 3f b9 ae c1 3f
       1.0430496 1.5131446

action_model._discrete_distribution.branches.1.bias f4 [3]
000000 90 d1 9a 3c 00 ed 0f bf 5a 15 8a 3f
       0.018898755 -0.5622101 1.0787766

action_model._discrete_distribution.branches.2.weight f4 [3, 50]
000000 82 13 ee 3e 5a ba 35 3f 13 44 d6 3e 7e 76 17 bd
       0.46499258 0.70987475 0.41848812 -0.036978237
000010 26 ea 26 3e f1 df 5b 3f 1a a6 62 3f 49 09 0d 3f
       0.16300258 0.8588858 0.885347 0.55092293
000020 5b b4 9f bd 7d d0 79 be 5a 7b 3c 3f c5 12 c4 bf
       -0.07798072 -0.24395938 0.7362572 -1.5318228
000030 34 0c 57 3f b9 7e d4 3e 76 29 b1 bf ad 4e 87 3f
       0.84002995 0.41502932 -1.3840778 1.0570885
000040 99 b5 25 bf b9 71 9e be bb 58 86 be 02 6f 13 3c
       -0.6473022 -0.30946139 -0.2623957 0.008998634
000050 e4 37 bf be 08 4d f4 3f ce 2d 63 3f c3 7f a8 3e
       -0.3734733 1.9086008 0.8874177 0.32909974
000060 19 5c 1f 3e 36 ff 0e bf 9b 2c de 3e 68 e1 3e 3e
       0.15562476 -0.5585817 0.43393406 0.18640673
000070 23 90 b4 be 39 2c a3 be 0f cb 02 3f ed c1 6c bc
       -0.35266218 -0.31869677 0.5109109 -0.014450532
000080 70 f1 de 3f b4 93 b3 be e5 76 43 3f eb b6 b8 bd
       1.7417431 -0.35073626 0.76353294 -0.09019264
000090 c9 9c 48 3f ce 4e 97 bd e1 ff 21 3e 34 54 4e bf
       0.78364235 -0.07388078 0.15820266 -0.80597234
0000a0 cd bd 3a 3f 51 50 4a 3f e3 1c a8 bb 12 fd 00 3f
       0.72945863 0.79028803 -0.0051303967 0.50386155
0000b0 6e f2 82 3f 9f d7 ed 3e a4 18 73 be ad 3d 02 be
       1.0230234 0.46453568 -0.23739868 -0.1271884
0000c0 06 e6 99 be 62 05 4e bd ad e5 02 be 24 0b f4 3e
       -0.30058306 -0.050298102 -0.12782927 0.4766475
0000d0 59 56 32 3d 99 d1 68 be 77 83 00 bf d7 e9 f5 bf
       0.04353938 -0.22736205 -0.502006 -1.9211987
0000e0 61 69 4d 3f 96 07 4a 3e e9 a2 4c bf b0 83 b0 3f
       0.8023892 0.19729456 -0.7993608 1.3790188
0000f0 56 f5 8b bf bd 33 ba 3f 3e 2c a6 3d 11 42 42 be
       -1.0934246 1.4547039 0.08113907 -0.18970515
000100 13 de 2e bf 41 f5 c1 be d2 ef 25 3f e8 7b 07 3d
       -0.6830761 -0.37882426 0.6481906 0.03307715
000110 dc 89 16 bf 2e 43 f1 3e 68 10 44 3f 44 6e c1 bf
       -0.58804107 0.47121567 0.76587534 -1.5111775
000120 fb d0 0a 3f 93 65 9d 3d 55 65 f0 be 72 54 88 3f
       0.5422513 0.07685389 -0.4695231 1.0650771
000130 9c 34 ff 3d 32 1e 94 3d 18 1c 1e 3f 95 52 86 bf
       0.12461206 0.07232322 0.6176162 -1.0493952
000140 6e 76 cf 3e df b7 63 3f 0e 19 6e bf 94 fb b1 3e
       0.40520042 0.8895244 -0.9300698 0.3476225
000150 ca f2 0a 3e 60 d0 90 3f 91 6a 0f 3e 8f 05 2b 3d
       0.13569179 1.1313591 0.14005496 0.041753348
000160 35 7b 11 bf 23 06 73 3f ac 42 cc bf f6 fe 28 bf
       -0.56828624 0.9493124 -1.5957847 -0.6601404
000170 19 33 3a be f2 0b 2a bf 31 13 af 3d 1c 5e d2 3f
       -0.18183555 -0.6642448 0.08548582 1.643497
000180 39 ec 62 3e b6 40 d2 bd 0b 1f 45 3e c2 17 50 3e
       0.22160424 -0.10266249 0.19250123 0.20321563
000190 dc 12 2b bf bb ed 9b bf 03 58 f2 be 55 a3 06 3f
       -0.6682565 -1.2181925 -0.47332773 0.52592975
0001a0 5e 1a 08 3f 90 e4 e0 3f 23 56 f1 bf 9f fb 31 bf
       0.53165233 1.7569752 -1.8854412 -0.6952457
0001b0 52 93 2f 3f 4c 83 c8 bf 48 c8 24 3f b8 2e ef 3d
       0.6858417 -1.5665069 0.64368105 0.11678833
0001c0 94 60 bc be 59 1a a2 bd f3 d1 9a 3f 29 99 3e bf
       -0.36792433 -0.07915182 1.2095321 -0.74452454
0001d0 6f 6a 1f be 43 77 9f be e1 9a f7 3e ea 82 bb be
       -0.15567945 -0.31145677 0.4836035 -0.36623317
0001e0 85 02 af 3e 0c 21 16 3d bc 58 82 bf 45 8e 71 3d
       0.3418161 0.03665261 -1.018333 0.05897357
0001f0 c5 11 f7 bd 96 26 84 bf a2 f4 20 bf 91 3a 0c bf
       -0.12063936 -1.0324275 -0.6287328 -0.54776865
000200 00 16 5a bf 36 1a 85 3f 45 c9 40 bf 81 1d 5d bf
       -0.8518982 1.0398624 -0.7530711 -0.86373144
000210 d3 43 39 bd 21 ac 29 be 90 a4 7d bf ad ae 71 bf
       -0.045230698 -0.16569568 -0.9907923 -0.9440716
000220 f4 60 10 bf be 3a 31 bf 03 8c 12 3f 90 b7 d2 be
       -0.5639794 -0.6923026 0.5724489 -0.41155672
000230 24 e1 17 3f b3 45 e7 be 92 77 09 3e aa 79 10 3d
       0.5932791 -0.45170364 0.13424519 0.035272278
000240 fa 81 50 bf c7 d7 f9 bf 97 48 36 be 60 15 a6 be
       -0.8144833 -1.9518975 -0.17801128 -0.32438183
000250 05 5d b8 be c7 cb 1f bf
       -0.36008468 -0.62420315

action_model._discrete_distribution.branches.2.bias f4 [3]
000000 4c e4 35 3f b1 12 8a 3e bc 52 7d be
       0.7105148 0.26967385 -0.24738592
