Assets/ML-Agents/results/sc24/SimpleCollector/SimpleCollector-31499960.onnx (onnx, 378168 bytes, 7 tensors)

network_body._body_endoder.seq_layers.0.weight f4 [256, 105]
0	0x3d062d0a	0.032757796
1	0xbe7aae3d	-0.24480529
2	0x3decaf71	0.115569
3	0xbf058a1f	-0.5216388
4	0xbe5fe3cf	-0.21864246
5	0xbc4f0c7d	-0.012637255
6	0xbe11d69c	-0.14242023
7	0xbd92f829	-0.07176239
8	0xbdbee186	-0.09320359
9	0xbc81c424	-0.015840597
10	0xbe39470c	-0.18093508
11	0x3e41f4b7	0.18941008
12	0xbd915160	-0.07095599
13	0xbf063208	-0.5242009
14	0xbe6bafe3	-0.23016314
15	0xbe60dabd	-0.21958442
16	0x3db2a9fb	0.087238275
17	0x3bda9b71	0.006671362
18	0xbef9086e	-0.48639244
19	0xbed5b90c	-0.41742742
20	0x3e9692f6	0.29408997
21	0xbddcfb7f	-0.107901566
22	0xbd989352	-0.07449974
23	0xbef44528	-0.47709012
24	0xbe9d802d	-0.30761853
25	0xbeb4232b	-0.3518308
26	0x3c5fbe99	0.013656282
27	0x3e57682f	0.21035837
28	0xbe844f1e	-0.25841612
29	0xba81fde3	-0.0009917583
30	0xbf1b3be1	-0.6063824
31	0xbe8a920a	-0.27064544
32	0xbc692d58	-0.014232002
33	0xbe54abb2	-0.20768622
34	0xbe6ea54a	-0.2330524
35	0x3d00d0b0	0.03144902
36	0xbf0c1ca0	-0.5473118
37	0x3e1238dc	0.14279503
38	0xbe2535d1	-0.1613381
39	0xbe87a821	-0.2649546
40	0xbd49f48b	-0.04930548
41	0xbd9cea9f	-0.07661938
42	0xbe5374c8	-0.20650017
43	0x3c84d2e3	0.01621384
44	0xbe8daf62	-0.2767287
45	0x3e0ca7d9	0.13735904
46	0xbeb5e7db	-0.35528454
47	0x3dbc4425	0.09192685
48	0xbda91fca	-0.082580164
49	0xbda3d2d5	-0.079991974
50	0x3da9549c	0.08268091
51	0xbe40949c	-0.1880669
52	0x3e453884	0.1925984
53	0xbecec9f9	-0.40388468
54	0xbd06d3cc	-0.03291683
55	0xbd9af75b	-0.075667106
56	0xbe1c7d37	-0.1528214
57	0xbc44ba2b	-0.0120072765
58	0xbd85ac8e	-0.06527053
59	0xbe5572e9	-0.20844616
60	0xbddedbce	-0.10881768
61	0xbf05850e	-0.5215615
62	0xbdd475fb	-0.103740655
63	0xbe345ae6	-0.176128
64	0xbe52ea38	-0.2059716
65	0xbdc9d4ca	-0.098550394
66	0x3c3723a6	0.011177933
67	0x3d9caba5	0.07649926
68	0xbcef20ea	-0.0291905
69	0xbe4f8234	-0.20264512
70	0x3e42e4a8	0.19032538
71	0xbeb6d5a8	-0.35709882
72	0xbd847cba	-0.06469102
73	0xbe567aef	-0.20945333
74	0xbe44ba3d	-0.1921167
75	0x3de4ee6d	0.111782886
76	0xbed1d496	-0.40982503
77	0x3c02849a	0.007966185
78	0xbd88a795	-0.06672589
79	0xbdeb8a26	-0.11500959
80	0x3e1f5ef1	0.15563561
81	0xbee62b9b	-0.44955143
82	0x3d2b053e	0.041753046
83	0xbf24c88e	-0.6436852
84	0xbe98e6c9	-0.29863575
85	0x3e46dd58	0.19420373
86	0xbea02a1f	-0.31282136
87	0x3d2a9141	0.04164243
88	0xbe2300fd	-0.15918346
89	0xbcd07012	-0.025444064
90	0xbdcc52e8	-0.099767506
91	0xbf1e5b7f	-0.6185836
92	0xbd72a345	-0.059237737
93	0xbe63e1b1	-0.22254063
94	0xbe0ec93e	-0.13943955
95	0xbcae977a	-0.021312464
96	0xbe990121	-0.29883674
97	0xbda4fd03	-0.08056071
98	0xbe368fd4	-0.17828304
99	0xbea22e3d	-0.31675902
100	0x3e3a9b2e	0.18223259
101	0xbe839044	-0.25696003
102	0x3d3219ef	0.043481763
103	0xbe492976	-0.19644722
104	0xbe740201	-0.2382889
105	0xbe4712f9	-0.19440831
106	0xbe0cd2e3	-0.13752322
107	0x3c11ad1d	0.008891371
108	0x3e941833	0.28924713
109	0x3e760e2c	0.24028844
110	0xbe7f6609	-0.24941267
111	0xbe229040	-0.1587534
112	0x3e411310	0.18854928
113	0x3e2fec50	0.1717999
114	0xbc7dab3a	-0.015482718
115	0x3f1b43bd	0.60650235
116	0xbe43f4f8	-0.19136417
117	0x3cb89b6a	0.022535045
118	0x3cdbd587	0.026835216
119	0x3e197ac7	0.14988242
120	0x3d5e6dfb	0.054304104
121	0xbdea6bed	-0.114463665
122	0xbc856331	-0.01628265
123	0xbdcbd523	-0.09952762
124	0xbd85283f	-0.06501817
125	0xbd7560e8	-0.05990687
126	0xbda42b92	-0.08016123
127	0xbdbd4744	-0.092421085
128	0xbe38762b	-0.18013828
129	0xbe2df343	-0.16987328
130	0x3eaab1b6	0.33338708
131	0xbd1ece80	-0.038771152
132	0xbd1991e9	-0.037492666
133	0xbea50fcb	-0.32238612
134	0xbe981f32	-0.297113
135	0xbe96899e	-0.2940187
136	0x3e2bf711	0.16793467
137	0x3e23bdc9	0.15990366
138	0xbd51051f	-0.051030274
139	0xbe1ce145	-0.15320309
140	0x3f0e0bc8	0.55486727
141	0xbebfdf74	-0.3747517
142	0xbe121805	-0.14266975
143	0x3da52e69	0.08065493
144	0xbe046712	-0.12929943
145	0xbe04b98a	-0.12961403
146	0xbe7f75c3	-0.24947266
147	0x3e4b0d88	0.1982938
148	0x3dda23b7	0.10651343
149	0x3c8b58e8	0.017010167
150	0x3c0e6e27	0.008693255
151	0xbe435d6d	-0.19078608
152	0xbdb340ec	-0.08752617
153	0xbd9ed4f2	-0.0775546
154	0x3cf2d229	0.029641228
155	0x3f050517	0.5196089
156	0xbebd71b0	-0.370008
157	0x3db10fcf	0.086455934
158	0xbe40efed	-0.18841524
159	0xbe0072c8	-0.12543786
160	0xbeb14ec1	-0.34630397
161	0x3e3362ef	0.17518209
162	0x3de7cdc5	0.11318544
163	0x3d4d12fa	0.050066926
164	0x3ca6a154	0.0203406
165	0x3eede776	0.46465653
166	0xbe092b3a	-0.13395396
167	0x3cbea10b	0.02327015
168	0xbe2bf246	-0.16791639
169	0xba05f376	-0.0005109826
170	0xbec87a35	-0.39155737
171	0xbe39ba9b	-0.1813759
172	0x3cec7ab9	0.028867112
173	0x3ea37f0d	0.3193287
174	0xbde39200	-0.11111832
175	0x3ea85458	0.3287685
176	0x3ce6b399	0.02816181
177	0x3e3575e2	0.1772075
178	0xbe44316e	-0.19159481
179	0xbe776866	-0.24160919
180	0x3e19927f	0.1499729
181	0x3dcf288c	0.101151556
182	0xbda6efc9	-0.08151204
183	0xbeb7c128	-0.35889554
184	0xbe4c3b24	-0.19944435
185	0x3e2f2fe8	0.17108119
186	0xbc169d6f	-0.0091928085
187	0x3d2d7a2d	0.042352844
188	0xbf2c60a7	-0.6733498
189	0xbeac5672	-0.33659703
190	0x3e038642	0.12844184
191	0x3d04d987	0.032434013
192	0x3d75a41f	0.05997097
193	0xbecb59ec	-0.39717042
194	0xbeb26a03	-0.34846506
195	0xbdecaa98	-0.11555976
196	0xbd6ee3c3	-0.05832268
197	0xbdb363bd	-0.08759258
198	0xbf009c9a	-0.50238955
199	0xbe0d58f3	-0.13803463
200	0xbe06532e	-0.13117668
201	0x3da57320	0.08078599
202	0x3d086921	0.033303384
203	0xbe33af93	-0.17547445
204	0xbe6dc3c5	-0.23219211
205	0xbd9e188d	-0.077195264
206	0xbb8ece18	-0.0043580644
207	0xbe06ae9c	-0.13152546
208	0xbeb6cb8e	-0.35702175
209	0xbea06286	-0.31325167
210	0x3e5ad366	0.21369705
211	0xbf236d92	-0.63839066
212	0x3dea27f6	0.11433403
213	0xbde1406f	-0.10998618
214	0xbe6082f0	-0.21924949
215	0x3ea6635f	0.3249769
216	0xbeb0bbb8	-0.34518218
217	0xbc83ee6c	-0.0161049
218	0xbe070738	-0.13186347
219	0xbd98c723	-0.07459857
220	0xbebcc88a	-0.3687175
221	0xbe9f8b77	-0.3116109
222	0xbd3e22c9	-0.046419892
223	0xbe946869	-0.2898591
224	0xbe03adaa	-0.12859216
225	0x3e7b121f	0.24518631
226	0xbe97d5a0	-0.2965517
227	0x3d2697ea	0.04067222
228	0xbe5faeb2	-0.21843985
229	0xbf0498f3	-0.5179588
230	0xbe794fbf	-0.24346827
231	0xbe9ce422	-0.30642802
232	0x3d502d93	0.050824713
233	0x3ca0fca2	0.019651715
234	0xbe523a23	-0.2052999
235	0x3da81855	0.08207766
236	0xbf0949b4	-0.5362809
237	0xbe0772d7	-0.13227402
238	0xbe6b04ae	-0.22951004
239	0xbeaca365	-0.3371841
240	0xbe952a92	-0.2913404
241	0xbe49634d	-0.19666786
242	0xbdbcdaa2	-0.092213884
243	0xbed86061	-0.4226103
244	0xbefe5dfe	-0.49681085
245	0x3e4cac8c	0.19987696
246	0xbd9395b6	-0.072062895
247	0x3da45147	0.08023315
248	0xbea2ffcb	-0.3183578
249	0xbf0a67aa	-0.5406443
250	0xbe42fbcd	-0.19041367
251	0xbe5d05bf	-0.21584223
252	0x3dced19b	0.10098573
253	0xbe8d7025	-0.27624622
254	0xbea3f63c	-0.320238
255	0xbdf65353	-0.120276116

network_body._body_endoder.seq_layers.0.bias f4 [256]
0	0xbe40af3f	-0.18816851
1	0xbde4bb46	-0.11168532
2	0xbed25327	-0.41079065
3	0xbe9e6662	-0.30937487
4	0x3d8212d4	0.063512474
5	0xbe17589c	-0.14779896
6	0x3c85339b	0.016259959
7	0xbe8ba374	-0.27273142
8	0xbc9ef2c8	-0.019402876
9	0x3d94ddf9	0.072689004
10	0x3df694e3	0.12040117
11	0xbe997925	-0.29975238
12	0xbe2a9453	-0.16658144
13	0xbcb7e3da	-0.022447515
14	0xbe20f6cb	-0.15719144
15	0xbc8912f3	-0.016732669
16	0xbd8b200c	-0.06793222
17	0xbed3a926	-0.41339988
18	0xbe8b36a0	-0.27190113
19	0x3c03e6be	0.008050619
20	0x3d2accab	0.041699093
21	0x3c4ddbb6	0.01256459
22	0xbe463b7b	-0.19358627
23	0xbd787ccf	-0.0606659
24	0x3d0d1e8b	0.034452956
25	0x3e169928	0.14706862
26	0x3dbb80cf	0.09155428
27	0xbec2c33a	-0.3803957
28	0xbe9b158b	-0.30289873
29	0xbea7087e	-0.32623667
30	0xbec1d14d	-0.37854996
31	0x3c346dbc	0.011012491
32	0x3decbbf1	0.115592845
33	0xbebcb589	-0.3685725
34	0xbeaff61d	-0.34367457
35	0xbd820df5	-0.06350318
36	0xbd0eca4a	-0.034860887
37	0xbeb3fb75	-0.35152784
38	0xbead6ec8	-0.33873582
39	0x3d9fa273	0.077946566
40	0xbf0ee08b	-0.55811375
41	0xbe3068fc	-0.17227548
42	0xbe983df2	-0.2973476
43	0x3c529868	0.012853719
44	0xbe7e7cb8	-0.24852264
45	0xbd92d395	-0.07169262
46	0xbe8e8ddb	-0.27842602
47	0x3e2f11f9	0.170967
48	0xbe8bf06f	-0.27331874
49	0xbd1a7522	-0.037709363
50	0xbe96a2f8	-0.2942121
51	0xbe60b0a1	-0.21942379
52	0xbebd032e	-0.36916488
53	0x3cc001c9	0.023438351
54	0xbe5a33f1	-0.21308877
55	0xbea28212	-0.3173986
56	0xbd5dc030	-0.054138362
57	0xbd5d1587	-0.05397561
58	0xbe5e36fc	-0.21700662
59	0x3cd3a6c7	0.025836362
60	0xbe9f1839	-0.31073168
61	0xbd455aa1	-0.048182134
62	0x3d6d1635	0.057882506
63	0xbd9416cb	-0.0723091
64	0xbe8c5b2e	-0.27413315
65	0xbdd57592	-0.104228154
66	0xbdf7a123	-0.12091281
67	0x3d4019b8	0.046899527
68	0x3bd9af1b	0.0066431887
69	0xbc927022	-0.017875735
70	0xbece5490	-0.4029889
71	0xbe401acb	-0.1876022
72	0x3e233e71	0.15941788
73	0x3e14f599	0.14546813
74	0x3d036faa	0.032088913
75	0xbda5b434	-0.08091012
76	0xbeb8a01f	-0.36059663
77	0x3d2f9152	0.042863198
78	0xbe039342	-0.12849143
79	0x3e4f78aa	0.20260873
80	0xbe1add22	-0.15123418
81	0xbca8f60b	-0.020625135
82	0xbc6a0905	-0.014284377
83	0x3c2e750f	0.010648026
84	0xbf01cfc9	-0.5070768
85	0xbc6a6ffa	-0.014308924
86	0x3da9d93e	0.08293389
87	0x3d549853	0.05190308
88	0xbdf9e782	-0.1220236
89	0xbcc4ec2e	-0.0240384
90	0xbe0153dd	-0.12629648
91	0xbeb50215	-0.3535315
92	0x3dbc3813	0.09190383
93	0xbe8861db	-0.26637158
94	0xbef73c16	-0.4828803
95	0xbdd35485	-0.10318855
96	0x3de234b6	0.1104521
97	0x3e088dcd	0.13335343
98	0x3ddcb8d6	0.10777442
99	0x3c96bb1a	0.018399764
100	0xbec242d2	-0.37941605
101	0xbdac4cc6	-0.08413081
102	0xbe744532	-0.23854521
103	0x3d05d8d2	0.03267748
104	0xbd042887	-0.032265212
105	0xbe851706	-0.25994128
106	0xbe5179c2	-0.20456603
107	0xbeb5549f	-0.35416123
108	0xbbb57827	-0.005538005
109	0xbebf4c33	-0.37362823
110	0xbe25b44f	-0.16182064
111	0xbf1725e4	-0.5904219
112	0xbc6245b1	-0.013810561
113	0x3de689ed	0.11256776
114	0xbe3743cd	-0.17896958
115	0xbd52ad98	-0.051435083
116	0xbec6f9eb	-0.38862547
117	0xbdaf69b9	-0.08565087
118	0xbdb7d85b	-0.089768134
119	0xbda0a9ea	-0.078449085
120	0xbce27bb6	-0.02764688
121	0xbe97248a	-0.29520065
122	0xbd7ea565	-0.06216945
123	0xbebd6ed8	-0.3699863
124	0xbd68b4f6	-0.056813203
125	0xbea5a752	-0.32354218
126	0xbefae635	-0.4900376
127	0xbec86b67	-0.3914444
128	0xbd5835ce	-0.052785687
129	0xbda684a1	-0.08130766
130	0xbd2d8d3b	-0.042371016
131	0xbf291a33	-0.660556
132	0xbecfc1d7	-0.40577576
133	0xbed2fb32	-0.41207272
134	0x3dd6898c	0.10475454
135	0x3d2b7150	0.04185611
136	0xbe0ccd4d	-0.13750191
137	0xbeb81f24	-0.35961258
138	0xbd7853c6	-0.060626768
139	0xbea0dcaf	-0.31418368
140	0xbdf0c555	-0.11756388
141	0xbeeccd6d	-0.46250477
142	0xbe64625d	-0.22303148
143	0xbd4fbdb0	-0.05071801
144	0xbeae6c75	-0.3406712
145	0x3daaaaca	0.08333357
146	0xbd5d6e8c	-0.054060504
147	0x3daff97a	0.08592506
148	0xbde8c367	-0.11365395
149	0xbdad60e2	-0.084657446
150	0xbd33d347	-0.04390266
151	0xbcd60ce7	-0.0261292
152	0xbe580340	-0.2109499
153	0xbec417b2	-0.38299328
154	0xbe5c342c	-0.21504277
155	0x3d215c05	0.039394397
156	0xbea0638b	-0.31325945
157	0xbe8477e0	-0.25872707
158	0xbda3e489	-0.08002574
159	0x3d69ee9f	0.057112332
160	0xbd903c75	-0.07042781
161	0xbef96da5	-0.48716465
162	0x3c80a7fa	0.015705097
163	0xbeecae16	-0.46226567
164	0x3d5dbede	0.054137103
165	0xbebd2aec	-0.3694681
166	0xbd115af3	-0.035487127
167	0x3e34339f	0.17597817
168	0xbd422831	-0.04740161
169	0x3c7a2a57	0.015268884
170	0xbe7602fe	-0.24024579
171	0x3dc8bbf4	0.09801474
172	0x3bcaccdf	0.0061889733
173	0x3d6e590b	0.058190387
174	0x3b1ebf8a	0.0024223053
175	0x3dd63441	0.104591854
176	0x3dcd39e6	0.10020809
177	0xbe8bb215	-0.27284303
178	0x3d80b665	0.06284789
179	0xbe873b14	-0.2641226
180	0xbeccafbb	-0.39977822
181	0xbea32b24	-0.3186885
182	0x3d2cc7ba	0.04218266
183	0xbea30711	-0.3184133
184	0xbd870b54	-0.065939575
185	0xbe2e67a8	-0.17031729
186	0x3e0cae66	0.13738403
187	0xbe21292b	-0.1573836
188	0x3e0e7b90	0.13914323
189	0xbdbe71c3	-0.09299042
190	0xbdca9da5	-0.098933496
191	0xbdeddc0d	-0.11614237
192	0xbcda0c5e	-0.026617225
193	0x3d011f99	0.031524274
194	0xbe85aec4	-0.26109898
195	0xbde18ad8	-0.110128105
196	0x3ddd5b0b	0.10808381
197	0xbeaeaf93	-0.34118327
198	0x3e180906	0.14847192
199	0xbda82a68	-0.08211213
200	0xbe089dae	-0.133414
201	0xbeaec868	-0.34137273
202	0xbea089bc	-0.31355083
203	0xbdcb3671	-0.09922493
204	0x3d169cd5	0.03677066
205	0xbe364602	-0.17800143
206	0x3d7f820d	0.062379885
207	0x3b6756a8	0.0035299454
208	0xbe3df590	-0.18550706
209	0xbe12ee26	-0.14348659
210	0xbca3acda	-0.019979883
211	0xbeb5dd6f	-0.35520503
212	0x3e05070f	0.12990974
213	0xbe95ff15	-0.29296175
214	0xbee99132	-0.45618588
215	0x3dd5ded2	0.1044289
216	0x3dd345ca	0.103160456
217	0xbdabd2a9	-0.083897896
218	0xbdb220c4	-0.08697656
219	0xbe03a124	-0.12854439
220	0x3de10fcf	0.109893434
221	0x3de763ad	0.112983085
222	0xbeb81453	-0.35953006
223	0xbe41d0d5	-0.1892732
224	0xbe4f90e9	-0.20270123
225	0xbdd78efb	-0.10525318
226	0xbec5512c	-0.38538492
227	0x3e10344e	0.14082453
228	0xbe063ec9	-0.13109888
229	0xbdea4d8d	-0.11440573
230	0x3d231910	0.039818823
231	0xbe9f3917	-0.31098244
232	0x3d8ae4ff	0.06781959
233	0xbe4bad1a	-0.19890252
234	0xbefc19cd	-0.49238434
235	0xbeb5807e	-0.35449594
236	0xbf076616	-0.52890146
237	0x3d61b32c	0.055102512
238	0xbee261bb	-0.44215187
239	0xbe1ab13b	-0.1510667
240	0xbe9e7ddc	-0.30955398
241	0x3d937bc0	0.07201338
242	0xbe2e8be6	-0.17045555
243	0x3e0dcd1b	0.13847773
244	0xbec14edb	-0.37755474
245	0xbed3b4b3	-0.413488
246	0x3d8d6ecf	0.06905901
247	0xbd1d55e3	-0.038411986
248	0x3d20e921	0.03928483
249	0xbe00fb98	-0.12595975
250	0xbdc5bfc1	-0.09655715
251	0xbe0d1097	-0.1377586
252	0xbdad6b47	-0.08467727
253	0xbc9790cb	-0.01850166
254	0xbd6f4dbc	-0.058423743
255	0xbd200670	-0.03906864

network_body._body_endoder.seq_layers.2.weight f4 [256, 256]
0	0xbeabd362	-0.3355971
1	0xbe6428a8	-0.22281134
2	0xbcf4606e	-0.029831138
3	0x3c701f4b	0.014655898
4	0xbd47f7db	-0.048820358
5	0x3d9f2046	0.077698275
6	0xbe804ed9	-0.25060156
7	0xbe36b64d	-0.1784298
8	0xbdde0127	-0.108400635
9	0xbe29f7fe	-0.16598508
10	0xbe5de804	-0.21670538
11	0xbe51c460	-0.20485067
12	0xbe4ab178	-0.19794261
13	0x3dcff586	0.10154252
14	0x3d94e295	0.072697796
15	0xbe20ee57	-0.1571592
16	0xbe870bb7	-0.26376125
17	0x3e32bc43	0.17454629
18	0xbeba1b81	-0.3634911
19	0x3d8d37a8	0.06895381
20	0xbe1f946a	-0.15583959
21	0x3ecbad74	0.39780772
22	0xbe056ab5	-0.13028987
23	0xbe903fdb	-0.28173718
24	0xbe739068	-0.23785555
25	0xbed8b037	-0.4232194
26	0x3d308bcc	0.04310207
27	0xbd8d084c	-0.06886348
28	0xbdc04c8c	-0.093896
29	0xbd2eee74	-0.042707875
30	0xbd972b56	-0.073813125
31	0x3de61c7e	0.11235903
32	0xbe909021	-0.28234962
33	0xbb0474df	-0.0020211262
34	0xbe59140c	-0.21199054
35	0xbbfd0300	-0.007721305
36	0x3eb06478	0.34451652
37	0x3c57050e	0.013123764
38	0x3d8fd3b0	0.07022798
39	0xbcc4cf28	-0.024024561
40	0xbe2b6af0	-0.16740012
41	0x3efe785a	0.49701196
42	0xbde2209f	-0.11041378
43	0x3d5bb54d	0.0536397
44	0xbe544e5e	-0.2073302
45	0xbe59aa64	-0.21256405
46	0x3d3d9202	0.046281822
47	0xbe9722f6	-0.2951886
48	0x3e19844b	0.14991872
49	0x3d53c920	0.05170548
50	0xbd240d0d	-0.04005151
51	0xbe7410dd	-0.23834558
52	0xbd237ce6	-0.039914034
53	0x3cbe3271	0.023217412
54	0xbd4ff60e	-0.050771765
55	0xbe82102d	-0.25402966
56	0x3d75390c	0.059868857
57	0xbd39476b	-0.045234125
58	0x3e1304db	0.14357321
59	0xbedd33e7	-0.4320366
60	0xbd51ca99	-0.051218603
61	0xbe3cb0e6	-0.18426856
62	0xbe29e7ce	-0.16592333
63	0xbead4ee2	-0.33849245
64	0xbe7e192f	-0.24814294
65	0xbe6bff83	-0.23046689
66	0x3e890e65	0.26768795
67	0xbe9b91ec	-0.30384767
68	0xbe0245a3	-0.12721877
69	0x3dd4cecc	0.10391006
70	0xbd5900d1	-0.052979294
71	0x3d9a5638	0.07535976
72	0xbe980777	-0.29693195
73	0xbe86e51e	-0.26346678
74	0x3dfa6469	0.12226183
75	0xbdc6bd77	-0.09704106
76	0xbb70ed93	-0.00367627
77	0x3db8afcf	0.09017908
78	0x3ebd1345	0.36928764
79	0xbf0bae24	-0.5456259
80	0xbe028b4d	-0.12748452
81	0xbe4f19b6	-0.20224652
82	0xbe10c7aa	-0.14138666
83	0x3d9e56b5	0.07731382
84	0xbe20e6f5	-0.15713103
85	0x3e6de6f8	0.23232639
86	0x3dd504e7	0.10401326
87	0x3cfee6d5	0.031115929
88	0x3dc6e9c7	0.09712558
89	0x3d8f21dc	0.0698888
90	0x3df69817	0.120407276
91	0xbdf59c91	-0.11992753
92	0xbd1023c9	-0.035190377
93	0x3cbc8e80	0.023017168
94	0x3c01999c	0.0079101585
95	0x3dd64989	0.104632445
96	0xbe10e60c	-0.14150256
97	0xbec10dcb	-0.37705836
98	0xbd853114	-0.065035015
99	0xbe0e0921	-0.1387067
100	0xbe1c6823	-0.152741
101	0x3e8c4538	0.2739656
102	0xbd898cc5	-0.06716303
103	0x3c688a1f	0.014193087
104	0x3ed0cf80	0.4078331
105	0xbd8a469e	-0.067517504
106	0xbd9ca6ba	-0.07648988
107	0x3e6130db	0.21991293
108	0x3dbf5e68	0.093441784
109	0xbe3ac9ae	-0.18240997
110	0x3eaed1ea	0.34144527
111	0xbdd79148	-0.10525757
112	0xbda53cb2	-0.08068217
113	0xbe7b81e9	-0.24561276
114	0x3e1aa7d4	0.15103084
115	0x3bdc4b48	0.0067228414
116	0x3cd4b8b8	0.025966987
117	0x3f1f6dd3	0.62276953
118	0x3dea02c5	0.114263095
119	0xbe61f51d	-0.2206616
120	0x3eb6e120	0.35718632
121	0xbd35af4a	-0.04435662
122	0x3e01c30f	0.12672065
123	0xbd9c228c	-0.07623777
124	0x3db03f95	0.08605877
125	0x3c8c7365	0.017144868
126	0xbe0a4f6a	-0.13506857
127	0xbec6888c	-0.38776052
128	0xbda04de9	-0.0782736
129	0xbe1cef1a	-0.15325585
130	0x3ced9e57	0.029006166
131	0xbd9df09b	-0.077119075
132	0xbe4ddc27	-0.20103513
133	0xbd9dc133	-0.077028655
134	0xbecb10d2	-0.3966127
135	0x3cbc84a7	0.023012472
136	0xbda02863	-0.07820203
137	0x3bb547e8	0.0055322535
138	0xbe33db38	-0.17564094
139	0x3e1e8086	0.15478715
140	0xbdf670ed	-0.12033258
141	0x3dbcf1c5	0.092258014
142	0xbd413eb0	-0.047178924
143	0xbbd89163	-0.0066091283
144	0x3e0b5bb7	0.13609205
145	0xbe45d266	-0.19318542
146	0xba3d989e	-0.00072325196
147	0xbe4be1c4	-0.19910342
148	0xbd8c8ca8	-0.068627656
149	0xbce0de60	-0.027449787
150	0x3e852d89	0.26011303
151	0xbd300d6e	-0.042981558
152	0x3dbe12bb	0.09280916
153	0xbeb3f110	-0.35144854
154	0xbe818165	-0.25294033
155	0xbe9d6bdd	-0.30746356
156	0xbd84b3ab	-0.064795814
157	0x3d397b29	0.04528347
158	0xbe6d7f1c	-0.2319302
159	0xbc111758	-0.008855663
160	0xbeb6b490	-0.35684633
161	0xbd613ee8	-0.054991633
162	0x3e5d99d4	0.21640712
163	0xbe89d144	-0.2691747
164	0xbecf78a1	-0.4052172
165	0xbe701760	-0.23446417
166	0x3d56a5d2	0.052404232
167	0xbdc6b83a	-0.09703107
168	0xbbcb63b0	-0.006206952
169	0x3e90b9eb	0.28266844
170	0xbda01d3d	-0.07818077
171	0xbea9eb22	-0.33187205
172	0x3dd63845	0.10459951
173	0xbd3f9dd0	-0.04678136
174	0x3d7eff09	0.06225494
175	0xbeb2ae8e	-0.348988
176	0xbe9b4468	-0.30325627
177	0xbe95d96e	-0.29267448
178	0xbe57fe1a	-0.21093026
179	0x3d5988c1	0.053108934
180	0xbe26de3f	-0.16295718
181	0x3d1a65e5	0.03769483
182	0xbe7497be	-0.2388601
183	0xbe918059	-0.28418234
184	0x3c88cff5	0.016700724
185	0x3ea5d2a9	0.32387283
186	0xbd6171b4	-0.055040076
187	0x3e8d7bb3	0.27633438
188	0xbedf99c3	-0.43671998
189	0x3e2cd136	0.16876683
190	0xbe0a4aa3	-0.13505034
191	0x3e5fed4e	0.21867868
192	0xbe3253a2	-0.17414716
193	0x3e42d4d8	0.19026506
194	0x3e641084	0.22271925
195	0xbc3214ba	-0.010869199
196	0xbec9de54	-0.39427435
197	0xbe44004b	-0.19140737
198	0xbcf2f64f	-0.029658465
199	0xbeb67543	-0.3563634
200	0x3d664bc4	0.0562246
201	0xbe0866ab	-0.13320415
202	0xbd1ab9cb	-0.037774842
203	0x3e2ea5a4	0.17055374
204	0xbdd5ea9d	-0.104451396
205	0xbd4bacf2	-0.04972548
206	0xbe29880f	-0.16555808
207	0xbc3c0e46	-0.011478012
208	0xbdd00130	-0.101564765
209	0x3ebd3df5	0.36961332
210	0x3e1bd000	0.15216064
211	0xbe06368a	-0.13106743
212	0xbf2f416b	-0.68459195
213	0xbcfd48aa	-0.030918438
214	0x3dc803c7	0.097663455
215	0xbe1c0616	-0.15236697
216	0xbe395a8e	-0.1810095
217	0xbe456c3e	-0.19279572
218	0xbd242ef6	-0.040083848
219	0xbe381ee9	-0.17980541
220	0xbd4ea5b1	-0.050450984
221	0xbeaf579a	-0.34246522
222	0xbddb118b	-0.106967054
223	0xbcf59239	-0.029976951
224	0xbe1ccda6	-0.15312824
225	0x3d2eef72	0.04270882
226	0x3dfc8067	0.12329178
227	0xbea5636b	-0.32302412
228	0xbe106914	-0.14102584
229	0xbe12499a	-0.1428589
230	0xbef5c3a1	-0.48000816
231	0xbd828cf9	-0.06374545
232	0xbe05b0f4	-0.13055784
233	0xbd84c547	-0.0648294
234	0x3cf12f75	0.029441575
235	0xbe0a2142	-0.1348925
236	0x3ebed5a1	0.3727236
237	0xbf02ed8f	-0.51143736
238	0xbe943512	-0.2894674
239	0xbda7bab7	-0.0818991
240	0xbd50eb59	-0.051005695
241	0xbdde5cdb	-0.108575545
242	0xbd394f93	-0.045241904
243	0xbf2456f6	-0.6419519
244	0xbcec685f	-0.028858362
245	0x3e23a6e1	0.15981628
246	0xbe314869	-0.17312779
247	0xbe7eff0e	-0.24901983
248	0x3d5a1b28	0.053248554
249	0xbd3caa44	-0.046060815
250	0x3e6fa2bb	0.2340192
251	0xbe98cd3e	-0.29844087
252	0xbe428da3	-0.18999343
253	0xbbd91a12	-0.0066254223
254	0x3eb106e9	0.34575585
255	0x3e71fdcb	0.2363197

network_body._body_endoder.seq_layers.2.bias f4 [256]
0	0xbd674372	-0.056460805
1	0xbe7fc118	-0.24976003
2	0xbd3220d1	-0.043488327
3	0x3cea750b	0.028620264
4	0xbddef50e	-0.10886584
5	0xbe4e00b9	-0.20117463
6	0xbe975b23	-0.2956172
7	0xbe378846	-0.17923078
8	0xbd8da3f7	-0.069160394
9	0xbeb62df9	-0.3558195
10	0x3c5ce67c	0.013482686
11	0xbd4ea55c	-0.050450668
12	0xbc9d9152	-0.019234333
13	0xbdd92382	-0.10602476
14	0xbe926b4b	-0.28597483
15	0x3b6119d0	0.003434766
16	0xbe35a7b2	-0.17739752
17	0xbe17ace0	-0.1481204
18	0x3cba8595	0.022768775
19	0x3e037365	0.12836988
20	0x3ca1dc82	0.019758467
21	0xbe6d5fc3	-0.23181061
22	0xbe213d73	-0.15746097
23	0xbe3c3be6	-0.18382224
24	0xbe8920ae	-0.26782745
25	0xbe9f2868	-0.31085515
26	0xbd94d04a	-0.072662905
27	0xbd8ef2cb	-0.06979903
28	0xbe187488	-0.14888203
29	0xbe3b0313	-0.18262891
30	0xbe8334b7	-0.25626156
31	0xbd0426ca	-0.032263555
32	0xbebd153c	-0.36930263
33	0xbe1cf6c0	-0.15328503
34	0x3c239501	0.009984256
35	0xbdd5c62c	-0.10438189
36	0xbddceab3	-0.10786953
37	0xbdbfd795	-0.09367291
38	0xbc69582c	-0.014242213
39	0xbe1ae333	-0.15125732
40	0xbe173b9f	-0.14768837
41	0xbe6bca40	-0.23026371
42	0xbd2a096b	-0.041512888
43	0xbe30c0e0	-0.17261076
44	0xbdfa6483	-0.12226202
45	0xbdf2dd60	-0.1185863
46	0xbe59aa51	-0.21256377
47	0xbe2ad64b	-0.16683309
48	0xbe391302	-0.18073657
49	0xbea84636	-0.32866067
50	0xbe22387a	-0.15841857
51	0xbe600a86	-0.21879014
52	0xbac9279a	-0.0015346885
53	0xbe01f38a	-0.12690559
54	0xbddb08fe	-0.106950745
55	0xbe585437	-0.21125875
56	0xbdb8ff11	-0.09033025
57	0xbe4ff112	-0.20306805
58	0xbe857bd8	-0.26071048
59	0xbe8785fd	-0.26469412
60	0xbeae839f	-0.34084794
61	0xbe9b7da6	-0.303693
62	0xbea67d6d	-0.32517567
63	0xbe23c009	-0.15991224
64	0xbe8dc86a	-0.27691966
65	0xbe243414	-0.16035491
66	0xbe59839b	-0.2124161
67	0xbdd3e6d2	-0.1034676
68	0xbe1b8481	-0.15187265
69	0xbe056ff8	-0.13030994
70	0xbe07ff32	-0.13280943
71	0xbe8977c3	-0.26849183
72	0xbdf0b581	-0.11753369
73	0xbe7ee550	-0.24892163
74	0xbe60deeb	-0.21960036
75	0xbd34f3de	-0.044177882
76	0xbe94c3b1	-0.2905555
77	0xbce4fd32	-0.027952764
78	0xbdf3c99b	-0.119036876
79	0xbe28bd60	-0.16478491
80	0x3d2e7154	0.042588547
81	0xbe164b14	-0.14677078
82	0xbd9c3ef7	-0.07629197
83	0xbdcca3f0	-0.09992206
84	0xbe431f46	-0.19054899
85	0xbe2d432b	-0.16920154
86	0xbe53d9e7	-0.20688592
87	0xbe6a7f11	-0.22900034
88	0xbe226e1b	-0.15862314
89	0xbe09ab85	-0.13444336
90	0xbe005de6	-0.1253582
91	0xbe5a5e43	-0.2132502
92	0xbd9a4283	-0.07532217
93	0xbec17b92	-0.3778959
94	0xbe7c5a61	-0.24643852
95	0xbe3ceb83	-0.18449216
96	0xbe22cfa7	-0.15899526
97	0xbdc48f58	-0.09597653
98	0xbe369882	-0.17831615
99	0xbe558d6b	-0.20854728
100	0xbdfdfe90	-0.124020696
101	0xbe77a167	-0.24182664
102	0xbec6a03e	-0.3879413
103	0xbdfc54a1	-0.12320829
104	0xbe98f4e9	-0.29874352
105	0xbd963b05	-0.07335476
106	0xbdd8bdb9	-0.10583062
107	0xbe5171a6	-0.2045351
108	0xbe0a7c0c	-0.13523883
109	0xbec9c107	-0.3940508
110	0xbdc5f117	-0.09665125
111	0xbea8b77e	-0.32952493
112	0xbe43d9db	-0.19126074
113	0xbe03a506	-0.1285592
114	0xbc29ae32	-0.010356473
115	0xbe232506	-0.15932092
116	0xbe0aea28	-0.13565886
117	0xbe2d5522	-0.16927007
118	0xbe336c46	-0.17521772
119	0xbdc93c23	-0.09825923
120	0xbe0d8971	-0.13821961
121	0xbe1f1362	-0.15534738
122	0xbe3a18a9	-0.1817347
123	0xbd7c9666	-0.06166687
124	0xbdb6503f	-0.089020245
125	0xbe630bb1	-0.22172429
126	0xbeae0135	-0.33985296
127	0xbe7d86f6	-0.24758515
128	0xbcaa1aad	-0.020764673
129	0xbeabb88b	-0.33539233
130	0xbe35e65c	-0.17763656
131	0xbe8cde1b	-0.27513203
132	0xbe9fa9e2	-0.31184298
133	0xbe19816a	-0.14990774
134	0xbd8b7ed8	-0.06811303
135	0xbe2bbecc	-0.16772002
136	0xbde2776b	-0.110579334
137	0xbdf94ada	-0.1217248
138	0xbe827c32	-0.25485379
139	0xbe47d5b3	-0.19515114
140	0xbe89e861	-0.26935104
141	0xbdb7d50f	-0.089761846
142	0xbe310e1e	-0.17290542
143	0xbdb087a7	-0.08619624
144	0xbe80af43	-0.25133714
145	0xbe09af98	-0.1344589
146	0xbdf154f0	-0.11783779
147	0xbebbefb3	-0.36706313
148	0xbe8a28d8	-0.26984286
149	0xbe21ff10	-0.15819955
150	0xbe107870	-0.14108443
151	0xbea35cbb	-0.31906685
152	0xbe1e58df	-0.15463589
153	0xbeb3ecf4	-0.35141718
154	0xbe690368	-0.22755206
155	0xbd811cc7	-0.06304317
156	0xbe1772bc	-0.14789861
157	0xbe1b0192	-0.15137318
158	0xbd8006ef	-0.062513225
159	0xbd043660	-0.03227842
160	0xbd881421	-0.06644464
161	0xbe06355c	-0.13106292
162	0xbcc04e96	-0.023474973
163	0xbe009248	-0.12555802
164	0x3dae2280	0.08502674
165	0xbd3108cf	-0.04322129
166	0xbd8a05a0	-0.06739354
167	0xbe8674bb	-0.26260933
168	0xbd549fbe	-0.051910155
169	0xbe7da3bc	-0.24769491
170	0xbe477d5e	-0.19481418
171	0xbdb89a25	-0.09013776
172	0xbda58626	-0.080822274
173	0xbe4a0699	-0.1972908
174	0xbd865446	-0.06559043
175	0xbe8ac7aa	-0.27105457
176	0xbd9b2137	-0.075746946
177	0xbdb03262	-0.0860336
178	0x3c3df2e2	0.011593552
179	0xbdb90a89	-0.090352125
180	0xbda50852	-0.080582276
181	0xbe7a0b60	-0.24418402
182	0xbeca7661	-0.3954344
183	0xbde5b187	-0.11215501
184	0xbe1791e5	-0.14801748
185	0xbe178cc6	-0.14799795
186	0xbe25a37f	-0.1617565
187	0xbe3d61cb	-0.18494336
188	0xbe27ff18	-0.16405904
189	0xbee22c6e	-0.44174522
190	0xbe491474	-0.19636708
191	0xbe1f5b09	-0.15562071
192	0xbebeb28d	-0.37245598
193	0xbe0deb64	-0.13859326
194	0xbe973ea9	-0.29539993
195	0xbd62a2ab	-0.055330914
196	0xbeb5ffed	-0.35546818
197	0xbebf360d	-0.37345925
198	0xbe064147	-0.13110839
199	0xbe56ddbc	-0.20983022
200	0xbe27d7b9	-0.16390885
201	0xbde3ada5	-0.111171044
202	0xbdd403cc	-0.10352287
203	0xbe8310fd	-0.255989
204	0xbdfb6af1	-0.12276257
205	0xbe54baac	-0.20774335
206	0xbe3f4db5	-0.18681987
207	0xbeb28dad	-0.34873715
208	0xbe8a9c4e	-0.27072376
209	0xbe083d7f	-0.13304709
210	0xbc43ad00	-0.011943102
211	0xbe1b0b58	-0.15141046
212	0xbed3e22a	-0.41383487
213	0xbe65277b	-0.22378342
214	0xbe4e174b	-0.20126073
215	0xbe186eef	-0.14886068
216	0xbe2bcf43	-0.16778283
217	0xbe33b629	-0.17549957
218	0xbd7b448a	-0.06134466
219	0xbe0d6b83	-0.13810544
220	0x3e065264	0.13117367
221	0xbd982565	-0.074290074
222	0xbe2d3949	-0.16916384
223	0xbe71f9de	-0.23630473
224	0xbe60362d	-0.21895666
225	0xbe8f11b7	-0.27943203
226	0xbea7cea4	-0.32774842
227	0xbe991ebd	-0.29906264
228	0xbea6bd33	-0.32566223
229	0xbe95aed1	-0.29234937
230	0xbe408668	-0.18801272
231	0xbe9e32a3	-0.30898008
232	0xbe372290	-0.17884278
233	0xbdc7f336	-0.09763186
234	0xbe3d7b67	-0.18504106
235	0xbe2740d4	-0.16333324
236	0xbe930ad5	-0.28719202
237	0xbe432347	-0.19056426
238	0xbdb83c1f	-0.08995842
239	0xbd85925b	-0.06522056
240	0xbecb1cb3	-0.39670333
241	0xbd3f02e3	-0.046633612
242	0xbceef333	-0.0291687
243	0x3dd0d83d	0.10197494
244	0xbd1a7d49	-0.037717137
245	0xbe6a2da9	-0.2286898
246	0xbe1a6675	-0.15078147
247	0xbe72cc33	-0.23710708
248	0xbead501c	-0.3385018
249	0xbe072494	-0.13197547
250	0xbe95ce70	-0.29259062
251	0xbe8d5a05	-0.27607742
252	0xbdad2083	-0.08453467
253	0xbdcd66ac	-0.10029349
254	0xbe80a046	-0.2512228
255	0x3e1e5ea1	0.15465786

action_model._continuous_distribution.log_sigma f4 [1, 2]
0	0xc0238a26	-2.555307
1	0xc00c32f1	-2.1906092

action_model._continuous_distribution.mu.weight f4 [2, 256]
0	0x3d3683c1	0.044559244
1	0xbe3d8d03	-0.18510823
2	0xbd52fe20	-0.051511884
3	0x3ded0a5b	0.11574241
4	0xbd3d3f15	-0.046202738
5	0x3d1bf7e4	0.038078204
6	0x3de60396	0.11231153
7	0xbe0b8cb9	-0.136279
8	0x3d765cb7	0.060147014
9	0xbd087c6b	-0.03332178
10	0xbe8fb424	-0.28067124
11	0xbe35aae7	-0.17740975
12	0x3dbfb7d8	0.09361237
13	0xbd9f4892	-0.077775136
14	0xbd48605b	-0.048920017
15	0x3e232a5f	0.15934132
16	0x3cb7ea90	0.022450715
17	0xbcf7b332	-0.030236814
18	0x3e2fc3e8	0.17164576
19	0x3d9fb76d	0.077986576
20	0xbe4f2b49	-0.20231356
21	0xbc79c934	-0.0152457245
22	0xbdd767d6	-0.10517852
23	0x3cf4e7b9	0.02989565
24	0x3d505cd7	0.05086979
25	0xbdc3f952	-0.095690385
26	0xbc9db69f	-0.01925212
27	0xbe0cdd02	-0.13756183
28	0x3d4ab9cd	0.0494936
29	0xbdddc118	-0.10827845
30	0xbda4e4c0	-0.08051443
31	0xbd8ad5b1	-0.0677904
32	0xbd4e9355	-0.050433476
33	0x38edd5bd	0.000113408525
34	0xbe8d9b5b	-0.2765759
35	0x3e35fa6f	0.17771314
36	0x3da9eb75	0.08296863
37	0x3d35ffcc	0.0444334
38	0x3d8018e5	0.06254748
39	0x3e6d32af	0.23163866
40	0x3c0169c9	0.007898756
41	0x3d6f8e22	0.058485158
42	0x3d7c7f1d	0.061644662
43	0xbdaa1383	-0.08304503
44	0xbe4d5ec4	-0.20055681
45	0xbd8f0742	-0.06983806
46	0xbd3c1a79	-0.045923684
47	0xbdee99b4	-0.1165041
48	0xbd5ce5e8	-0.053930193
49	0xbe29f7f8	-0.16598499
50	0xbe01f775	-0.12692054
51	0xbd6fc529	-0.058537636
52	0x3ddbeb17	0.10738199
53	0xbd1758eb	-0.036950033
54	0xbde992ff	-0.114049904
55	0xbe674d2c	-0.22588032
56	0x3d11438b	0.035464805
57	0x3e89b9ae	0.26899475
58	0xbe0bbdbd	-0.13646598
59	0xbad11aa0	-0.001595337
60	0xbcdf015f	-0.027222333
61	0xbc7624b6	-0.015023401
62	0xbc8c6bda	-0.017141271
63	0xbde41475	-0.11136714
64	0x3d7aeb6a	0.061259665
65	0x3e0efeeb	0.13964431
66	0x3da8c9b8	0.082416
67	0x3db1ac4d	0.08675442
68	0xbc8ffb01	-0.017575743
69	0xbdafc774	-0.085829645
70	0xbe4847c5	-0.19558628
71	0xbc78e54b	-0.015191386
72	0xbe48d04a	-0.19610706
73	0xbbbca01f	-0.0057563926
74	0xbcd4bcac	-0.025968872
75	0xbe87136a	-0.26382
76	0xbd6368a0	-0.0555197
77	0x3df520c1	0.11969138
78	0xbd394b94	-0.045238093
79	0x3c2ea1f9	0.0106587345
80	0x3d387c3c	0.045040354
81	0x3de68d9d	0.11257479
82	0xbd30030e	-0.042971663
83	0x3d3ff50d	0.046864558
84	0xbd0ae304	-0.033907905
85	0xbbc3437f	-0.005958974
86	0xbe6950f6	-0.2278479
87	0x3e7224b9	0.23646821
88	0xbda14693	-0.07874789
89	0x3e85fbab	0.2616857
90	0xbdb29b63	-0.08721044
91	0xbd334a15	-0.043771822
92	0xbd65b2d9	-0.056078766
93	0xbd8ba20b	-0.068180166
94	0xbdc672ab	-0.0968984
95	0xbd969500	-0.07352638
96	0xbe336fc5	-0.17523105
97	0x3db53cdf	0.08849501
98	0xbd11f2c0	-0.035631895
99	0xbd3d6a50	-0.046243966
100	0x3e5025c0	0.203269
101	0xbd326283	-0.04355098
102	0xbd15f19c	-0.03660737
103	0x3c82378d	0.01589563
104	0xbd988a17	-0.074482135
105	0xbe75b7ec	-0.23995942
106	0xbd68f8e3	-0.056877982
107	0xbe0edaa6	-0.13950595
108	0xbe035481	-0.12825204
109	0x3ca05147	0.019570006
110	0xbdd87ef3	-0.10571089
111	0xbdd100e1	-0.10205246
112	0x3dce2ebf	0.1006751
113	0xbde7dffe	-0.1132202
114	0x3e06a673	0.13149433
115	0xbe5447dc	-0.20730537
116	0xbcff68ea	-0.031177957
117	0xbdce8edb	-0.10085841
118	0xbdbb6f2c	-0.09152064
119	0x3d0a6c21	0.033794526
120	0xbda7e42f	-0.081978194
121	0xbd78803f	-0.06066918
122	0x3ddb3b59	0.10704679
123	0xbd3e380f	-0.04644018
124	0xbd249567	-0.040181544
125	0x3cb10d51	0.021612795
126	0xbcb518e8	-0.022106603
127	0xbce469dd	-0.02788251
128	0xbe2256f3	-0.15853481
129	0xbd25839b	-0.040408712
130	0x3d557ad5	0.052119095
131	0x3a4758d3	0.00076044834
132	0xbe23ae09	-0.15984358
133	0xbd86fb79	-0.06590933
134	0xbec1e873	-0.37872657
135	0x3c3d12c2	0.011540117
136	0x3e0556bc	0.13021368
137	0x3dd6162c	0.10453448
138	0xbda4b1a0	-0.08041692
139	0x3ddba5ab	0.10724958
140	0xbdf5b3b1	-0.11997164
141	0xbdea09ae	-0.114276275
142	0x3d51a6d4	0.05118449
143	0x3d85cd0d	0.06533251
144	0xbd0ef82e	-0.03490465
145	0x3dbee99d	0.09321902
146	0xbe27b001	-0.16375734
147	0xbb4ffd5e	-0.0031736712
148	0xbc24ea99	-0.010065698
149	0x3e0c7125	0.13715036
150	0x3c203c1e	0.009779958
151	0xbce42b19	-0.027852582
152	0xbd48e9c0	-0.049051046
153	0xbd4991bb	-0.049211245
154	0xbbda95e2	-0.0066706995
155	0x3c380615	0.011231919
156	0x3d56f3b0	0.052478492
157	0xbd2d1621	-0.042257432
158	0xbd4e6ce1	-0.050396804
159	0xbe090a70	-0.13382888
160	0xbd1b0371	-0.03784508
161	0x3bde4f89	0.0067843837
162	0x3df08aa1	0.11745191
163	0x3c201d31	0.009772585
164	0x3cf69f3c	0.030105226
165	0xbba14ffe	-0.004922866
166	0x3dc37225	0.09543256
167	0xbdc21cd7	-0.09478157
168	0xbe8b6bb9	-0.27230623
169	0xbd32fe8d	-0.04369979
170	0x3d4d837f	0.050174233
171	0xbe1575e4	-0.14595753
172	0x3dc5052b	0.09620126
173	0xbd857f3c	-0.06518409
174	0xbbf6d3e9	-0.007532586
175	0xbd697797	-0.056998815
176	0xbe0de886	-0.13858232
177	0x3b706b0d	0.00366849
178	0x3decfab7	0.115712576
179	0xbc6aacb3	-0.014323401
180	0xbde9c85c	-0.11415169
181	0xbd80a899	-0.062821575
182	0xbd1b5f2c	-0.03793256
183	0xbd3e09e5	-0.046396155
184	0x3c7a8a4a	0.01529176
185	0xbd84c6a9	-0.06483204
186	0xbe22c330	-0.1589477
187	0x3d3d0fa8	0.04615751
188	0xbd18dae1	-0.037318114
189	0x3cb006ab	0.021487555
190	0xbdbd4912	-0.09242453
191	0x3c84b4ea	0.016199548
192	0xbd05a7d8	-0.03263077
193	0x3d14fedf	0.036375877
194	0x3d20724e	0.03917151
195	0x3c172362	0.0092247445
196	0xbcd09226	-0.025460314
197	0xbc9b75dc	-0.018977098
198	0x3ca3963d	0.0199691
199	0xbe1dfb07	-0.1542779
200	0xbe5f109b	-0.21783678
201	0xbdee1d69	-0.11626703
202	0xbddec55b	-0.10877486
203	0xbd093a23	-0.03350271
204	0x3c3fd2b9	0.011707955
205	0xbdc741df	-0.09729361
206	0x3cb87384	0.02251602
207	0xbd00ffd0	-0.03149396
208	0xbd06d615	-0.03291901
209	0x3d86645d	0.065621115
210	0x3d028f4a	0.031874932
211	0xbdaf2954	-0.085528046
212	0xbd0f9976	-0.03505846
213	0x3cc46848	0.023975506
214	0xbe84e301	-0.2595444
215	0xbdffa02e	-0.12481724
216	0xbe223ce1	-0.15843536
217	0xbe71dd81	-0.23619653
218	0xbdb76287	-0.089543395
219	0x3cf51e99	0.029921817
220	0x3db046e3	0.086072706
221	0x3e0f948c	0.1402151
222	0x3c7f9214	0.015598793
223	0x3cd16cbe	0.025564548
224	0xbb6fe9d1	-0.0036607871
225	0xbd2d0bfa	-0.04224775
226	0xbda6c25d	-0.081425406
227	0xbd03da5e	-0.032190673
228	0xbde6d073	-0.11270227
229	0xbe3e03cc	-0.18556136
230	0xbe29bb42	-0.1657534
231	0x3dbd92fd	0.092565514
232	0x3b658671	0.003502276
233	0xbe113931	-0.14181973
234	0xbce45956	-0.02787463
235	0xbd63febe	-0.055662863
236	0xbdb4d76f	-0.08830153
237	0xbe17d818	-0.14828527
238	0x3de97108	0.11398512
239	0xbd3eb39f	-0.04655802
240	0xbdb431fc	-0.08798596
241	0xbcb3903f	-0.021919368
242	0x3e1ced0f	0.15324806
243	0xbbc665bb	-0.0060546077
244	0xbe1bd2dd	-0.15217157
245	0xbda9f185	-0.08298019
246	0xbd086ef7	-0.03330895
247	0x3bcd90f5	0.0062733837
248	0xbd4d839f	-0.05017435
249	0x3c174cd4	0.009234626
250	0xbd3ffd60	-0.046872497
251	0x3d50bbd6	0.050960384
252	0x3e0d0f6c	0.13775414
253	0xbc81e311	-0.015855344
254	0x3d389336	0.045062266
255	0x3d2650d9	0.040604446

action_model._continuous_distribution.mu.bias f4 [2]
0	0x3e8ea24b	0.27858195
1	0xbeee6ba3	-0.46566495
