Assets/ML-Agents/Networks/RollerBall-500003.onnx (onnx, 79278 bytes, 8 tensors)

network_body._body_endoder.seq_layers.0.weight f4 [128, 8]
0.16554138 0.09635261 0.36704838 -0.089992955 -0.07343193 -0.8660228 0.3785354 0.033658326
-0.20671774 -0.17146157 0.22919296 0.055666894 -0.32985917 0.25161925 0.06280329 -0.54757094
-0.1017063 0.04348696 0.101613045 0.22133811 -0.026556233 0.7725128 0.09629194 0.30835325
-0.3586492 -0.43467125 -0.41089526 0.88186145 0.54648805 -0.09730987 0.020975018 0.28824657
0.2738863 -0.31699112 0.21974926 -0.06913696 -0.668808 -0.072220385 -0.16472347 -0.39464715
0.1900398 0.116288155 -0.35919946 0.18702103 -0.30390915 -0.48349136 0.2699745 -0.36325046
0.015460709 0.18555528 -0.7433217 -0.22276352 -0.09854743 -0.35181686 0.24954884 0.25051767
-0.2356481 -0.43947175 -0.65228355 0.026714563 -0.32966995 -0.57404685 0.1109309 0.25543204
0.038968652 0.40727392 -0.21948297 0.18683818 -0.10327465 0.15638134 -0.43711367 0.19636916
-0.3067313 -0.07695416 -0.08968304 0.5843274 0.5540711 -0.49229965 -0.24665 -0.13259465
0.09456878 -0.09923509 0.15450726 -0.37325397 0.0015310891 -0.3480688 -0.53761417 -0.45423663
0.026622087 0.25609395 -0.22541948 -0.2745232 -0.23500353 -0.030263055 -0.045857653 -0.3653281
-0.39955163 0.017667491 -0.508677 -0.3750557 -0.2262413 -0.26968265 0.21628699 0.17323917
0.38051984 -0.052370768 -0.62597585 0.5801947 -0.16324304 -0.25522923 -0.21843725 0.49966234
0.30510083 -0.4971067 0.18369803 -0.39856294 0.404336 -0.63925827 -0.20209128 0.3954019
0.0728566 0.35961697 -0.10104783 0.32445398 -0.32349542 0.78348774 -0.060416106 0.5764423
0.15631711 0.21745013 0.14395335 0.046380505 -0.1528784 -0.95381325 0.16359569 -0.114922374
0.34728506 0.2529314 -0.48566207 -0.31210145 -0.15736191 -0.42950422 -0.11578316 0.21281569
-0.088816926 0.038188845 -0.24382429 -0.00475137 -0.38325614 0.057740796 -0.16487192 0.19633621
0.063900985 -0.5346547 -0.48182255 0.07646417 -0.42275715 0.38160327 -0.73231053 0.27045956
-0.17265305 -0.012564297 -0.22097607 -0.52858883 0.21487975 -0.26628906 -0.0011871492 -0.29283556
-0.1596825 -0.18076542 -0.25057304 -0.31436503 0.54291826 -0.24137713 0.10721746 -0.38620877
-0.37159786 0.047739383 0.3592246 -0.08695016 -0.34710494 0.11162189 -0.016563244 0.10549419
-0.10890054 0.041449647 0.2968591 0.28507504 0.038322028 0.099689454 0.5393052 0.3077035
-0.19238523 -0.020623382 0.10680904 0.23521224 0.2332705 -0.7068899 -0.3900752 0.24366698
0.16307946 0.32510242 0.28854606 -0.21160357 0.29729956 -0.29346797 0.04246834 0.28565872
-0.08551674 0.04209751 0.12483411 0.5128667 -0.38510212 0.0055772103 0.42564094 0.42689213
0.0547882 0.10038777 0.09222181 -0.13111338 -0.2867568 0.20624496 -0.22581016 -0.40990368
0.1321648 -0.9230227 -0.01924066 -0.07923417 0.30117637 0.43435216 -0.28962556 -0.13798593
-0.18835877 0.6061662 -0.09195894 0.45387074 0.16440925 0.0826394 0.4694456 -0.20854782
0.45146158 -0.027187526 0.007891999 -0.09357456 0.34793094 -0.3982483 -0.37311977 -0.03355517
0.21743186 0.2961012 0.030890057 0.16528727 -0.3802628 -0.19264293 -0.1056849 -0.19573334
00000000: ae83 293e 8454 c53d c4ed bb3e 3a4e b8bd
00000010: 7b63 96bd acb3 5dbf 64cf c13e 50dd 093d
00000020: d1ad 53be 9f93 2fbe 8fb1 6a3e f802 643d
00000030: 4de3 a8be 3dd4 803e 039f 803d 9c2d 0cbf
00000040: 654b d0bd 621f 323d 801a d03d 75a6 623e
00000050: 758c d9bc 66c3 453f b534 c53d 7ae0 9d3e
00000060: dea0 b7be 3b8d debe dd60 d2be acc1 613f
00000070: a4e6 0b3f 664a c7bd cdd3 ab3c 0e95 933e
00000080: d33a 8c3e a94c a2be f305 613e ae97 8dbd
00000090: 0037 2bbf 48e8 93bd 45ad 28be 310f cabe
000000a0: cb99 423e 7c28 ee3d fee8 b7be 7182 3f3e
000000b0: fb99 9bbe 2e8c f7be 193a 8a3e f7fb b9be
000000c0: ea4e 7d3c 3402 3e3e 554a 3ebf 1f1c 64be
000000d0: 3cd3 c9bd 5721 b4be bb89 7f3e da43 803e
000000e0: bc4d 71be 7102 e1be 0efc 26bf 80d8 da3c
000000f0: 80ca a8be bcf4 12bf bd2f e33d fdc7 823e
00000100: 989d 1f3d 3586 d03e 25c0 60be 8252 3f3e
00000110: a981 d3bd 6e22 203e 5dcd dfbe ff14 493e
00000120: e30b 9dbe 259a 9dbd beab b7bd 7b96 153f
00000130: 9bd7 0d3f b30e fcbe d191 7cbe e4c6 07be
00000140: 47ad c13d c43b cbbd 2737 1e3e 251b bfbe
00000150: d3ae c83a 1336 b2be 15a1 09bf b491 e8be
00000160: 9016 da3c bf1e 833e 5dd4 66be 4e8e 8cbe
00000170: c4a4 70be 3aea f7bc 3cd5 3bbd 490c bbbe
00000180: 0892 ccbe 6abb 903c a838 02bf 4d07 c0be
00000190: cdab 67be d813 8abe 567a 5d3e 9c65 313e
000001a0: 7fd3 c23e bb82 56bd f43f 20bf a487 143f
000001b0: 2f29 27be 68ad 82be 04ae 5fbe bed3 ff3e
000001c0: 2d36 9c3e c584 febe 561b 3c3e 7110 ccbe
000001d0: 2105 cf3e 6ea6 23bf 04f1 4ebe 1e72 ca3e
000001e0: d735 953d b71f b83e 2af2 cebd d51e a63e
000001f0: 31a1 a5be a792 483f e176 77bd b991 133f
00000200: 9811 203e 3fab 5e3e 8268 133e 7cf9 3d3d
00000210: 288c 1cbe 1b2d 74bf a185 273e 6c5c ebbd
00000220: 59cf b13e 3980 813e b3a8 f8be c3cb 9fbe
00000230: 7b23 21be fae7 dbbe b91f edbd 5bec 593e
00000240: a6e5 b5bd e86b 1c3d 13ad 79be 61b1 9bbb
00000250: 263a c4be 9d81 6c3d 2fd4 28be 5c0c 493e
00000260: 85de 823d 21df 08bf 72b1 f6be 3f99 9c3d
00000270: a073 d8be 8161 c33e b478 3bbf ad79 8a3e
00000280: f6cb 30be 7bda 4dbc 8d47 62be 9951 07bf
00000290: 7009 5c3e 0a57 88be 1e9a 9bba 8bee 95be
000002a0: cf83 23be 921a 39be 1c4b 80be 74f4 a0be
000002b0: b1fc 0a3f 912b 77be d494 db3d 28bd c5be
000002c0: 1342 bebe 5f8a 433d 49ec b73e ed12 b2bd
000002d0: bdb7 b1be 049a e43d a4af 87bc 560d d83d
000002e0: 3f07 dfbd 1bc7 293d eafd 973e 5bf5 913e
000002f0: 8ff7 1c3d fc29 cc3d e80f 0a3f 508b 9d3e
00000300: a200 45be 5ef2 a8bc b3be da3d 7adb 703e
00000310: 76de 6e3e bdf6 34bf f0b7 c7be d683 793e
00000320: 4dfe 263e d373 a63e 4fbc 933e 9bae 58be
00000330: a637 983e 6f41 96be 48f3 2d3d dc41 923e
00000340: 6723 afbd 706e 2c3d 07a9 ff3d 3b4b 033f
00000350: 1b2c c5be 08c1 b63b 9ced d93e 9b91 da3e
00000360: 9769 603d 1a98 cd3d cade bc3d 9642 06be
00000370: cad1 92be e131 533e c73a 67be e5de d1be
00000380: 3656 073e 374b 6cbf 979e 9dbc 8645 a2bd
00000390: ca33 9a3e 6863 de3e cd49 94be 2f4c 0dbe
000003a0: 1fe1 40be b52d 1b3f f854 bcbd bf61 e83e
000003b0: e65a 283e d93e a93d 2c5b f03e 8f8d 55be
000003c0: f925 e73e 60b8 debc 714d 013c 05a4 bfbd
000003d0: 0124 b23e 34e7 cbbe 8e09 bfbe 2571 09bd
000003e0: 75a6 5e3e 949a 973e 250d fd3c 1141 293e
000003f0: ceb1 c2be 3044 45be 5371 d8bd 526e 48be

network_body._body_endoder.seq_layers.0.bias f4 [128]
0.048272274 -0.027040273 0.015537856 0.056200773 0.049452417 -0.009787122 0.03782361 -0.0068972106
0.041090146 0.03400192 0.04120568 0.035651848 0.04366255 0.007795522 0.0648165 0.01826342
-0.054849744 0.06714482 0.035613284 -0.01104616 0.007394193 0.023886988 0.05152888 0.049062338
0.027792526 0.042071998 0.009718764 -4.69315e-06 0.031651434 0.060549 0.032919295 -0.004996779
-0.01125544 0.055995885 0.057927024 -0.0318356 0.014479278 0.048653185 0.010706838 0.024393888
0.02597017 0.029196281 0.100658104 -0.004717926 0.03938663 0.0164808 0.07635866 0.060595203
0.017315883 0.036302958 -0.040176895 0.031454504 0.009480569 0.014989463 0.042178098 0.002111103
0.053854547 0.052627854 0.03204107 0.025210693 0.07307059 0.06708933 -0.06841505 0.087541714
-0.004670423 -0.04192278 -0.0029321548 0.03721684 0.018915595 0.06661287 0.027789913 0.015824562
0.04456687 0.015277156 -0.037745588 0.00295542 0.05736077 -0.039869994 0.027607057 0.017076353
0.060504664 0.015006361 -0.025681661 0.026775321 0.06825809 0.019577533 0.06397428 0.060887113
0.036784712 0.044817865 0.04612612 0.019854387 0.0034811003 0.07377765 0.03084938 0.012759995
0.035943307 0.025260068 0.04096797 0.058409777 0.03763722 0.017196747 0.0457831 -0.033986848
0.020536466 0.015745714 0.09727788 0.04581401 0.07667308 0.033618264 0.010715626 0.06782706
-0.023345843 0.025286315 -0.030631345 -0.04009666 -0.022331437 -0.0057524536 0.024217542 0.085327715
0.039528817 0.044856355 0.053047065 0.01946059 -0.04631383 0.04070406 0.017195411 -0.034314938
00000000: 26b9 453d 9083 ddbc 7e92 7e3c c832 663d
00000010: 9e8e 4a3d 2a5a 20bc eeec 1a3d ff01 e2bb
00000020: 244e 283d 9945 0b3d 4ac7 283d ac07 123d
00000030: 81d7 323d 9471 ff3b 83be 843d 2b9d 953c
00000040: 20aa 60bd 3983 893d 3cdf 113d f4fa 34bc
00000050: fd4a f23b a5ae c33c f20f 533d 97f5 483d
00000060: 27ad e33c b053 2c3d 733b 1f3c da79 9db6
00000070: efa4 013d 3a02 783d 62d6 063d 05bc a3bb
00000080: bd68 38bc f15b 653d e344 6d3d 0c66 02bd
00000090: 7e3a 6d3c 9048 473d bc6b 2f3c b1d5 c73c
000000a0: 65bf d43c 0a2d ef3c d625 ce3d d598 9abb
000000b0: e053 213d be02 873c ee61 9c3d ad32 783d
000000c0: 0ada 8d3c 69b2 143d 8790 24bd 70d6 003d
000000d0: 6354 1b3c 5d96 753c f1c2 2c3d 6e5a 0a3b
000000e0: 9696 5c3d 4e90 573d 7f3d 033d a886 ce3c
000000f0: 09a6 953d 2166 893d 311d 8cbd 1249 b33d
00000100: 590a 99bb 39b7 2bbd 6529 40bb af70 183d
00000110: e1f4 9a3c 546c 883d aca7 e33c 83a2 813c
00000120: c08b 363d 094d 7a3c 1e9b 1abd b8af 413b
00000130: 20f3 6a3d b84e 23bd 3228 e23c b5e3 8b3c
00000140: bdd3 773d 3ddd 753c 5962 d2bc eb57 db3c
00000150: e6ca 8b3d 1061 a03c f304 833d c464 793d
00000160: 91ab 163d f092 373d beee 3c3d aba5 a23c
00000170: 2c23 643b bd18 973d d7b7 fc3c 4c0f 513c
00000180: 4a39 133d 34ee ce3c 08ce 273d 173f 6f3d
00000190: 7c29 1a3d 31e0 8c3c 0f87 3b3d cb35 0bbd
000001a0: 173c a83c 28fd 803c a039 c73d 79a7 3b3d
000001b0: c706 9d3d 4eb3 093d 9890 2f3c eae8 8a3d
000001c0: c83f bfbc 3f25 cf3c 96ee fabc 653c 24bd
000001d0: 6bf0 b6bc 147f bcbb de63 c63c 4cc0 ae3d
000001e0: f8e8 213d 4cbb 373d e147 593d d16b 9f3c
000001f0: 92b3 3dbd 4db9 263d 64dd 8c3c d28d 0cbd

network_body._body_endoder.seq_layers.2.weight f4 [128, 128]
-0.09202973 0.06453758 -0.023424096 0.036045287 -0.007708962 -0.15810631 0.03537074 0.022377849
0.1443904 -0.089927234 -0.020826517 0.0073053627 -0.08323715 0.03569407 -0.044550437 0.042637844
0.06701554 -0.031264156 0.01949549 -0.06290698 -0.2352808 -0.13608591 -0.004063566 -0.014322909
-0.03984502 -0.06755318 -0.020426273 -0.036624018 -0.040360946 0.22005431 -0.024239536 0.075322784
-0.053871237 -0.07419121 -0.1548505 0.15734445 -0.028175699 -0.23508061 -0.05090335 -0.1421265
0.120240666 0.057294518 -0.016551748 0.0070440904 -0.13923116 0.10045378 0.23698027 -0.040097572
0.14530984 -0.1309036 0.045272835 0.042641025 -0.07820237 0.021846546 0.1973029 -0.00080151815
0.012170275 -0.022257797 -0.15682456 0.032622952 0.06887414 0.015127174 0.12120618 -0.014688295
0.03668432 0.057551987 -0.15345435 -0.075408705 0.03552355 0.22455056 0.026588123 -0.050521325
0.14636841 0.041225947 0.025021235 -0.01513826 0.20557764 -0.011177002 0.1093976 -0.052010022
0.11387015 -0.051461864 0.10051471 -0.060895972 0.043400478 0.012824958 -0.016485175 -0.0022415696
-0.12504853 0.06424773 0.022439826 -0.09190617 0.08419523 -0.021791361 0.09140241 0.062713236
0.005134475 -0.00085922837 0.19442773 0.07022093 0.09563669 0.020754421 0.16337705 0.069290966
0.071170196 -0.11472394 0.055325188 -0.051283717 -0.0019104781 -0.022909496 0.077676 0.12529874
0.0107113905 0.18455596 -0.091058314 -0.035833478 0.09729611 -0.04255034 -0.19728452 -0.115927964
0.20620845 0.023154492 0.20400032 0.0691282 -0.09611952 -0.016052742 0.1104393 -0.06525796
-0.07323692 -0.11412658 0.110392235 -0.01364042 0.0007559362 0.09635917 0.034340262 -0.14439976
0.012608625 0.0069079096 0.08469778 0.028399324 -0.052633412 -0.013953779 0.1673063 0.083646595
0.14921844 -0.07368881 0.047843557 -0.060688697 -0.07966556 0.0068415743 -0.085391134 -0.07472896
0.062145434 -0.078822404 0.009060154 0.014846409 -0.14976528 0.0028534785 0.20739816 -0.03924546
-0.0979501 0.11554519 -0.12967929 -0.0661311 0.06083317 -0.025801936 0.00045617583 0.054752283
0.011372933 0.086222574 -0.085599944 0.046118286 0.031629104 0.060153604 -0.04552638 -0.10363809
0.090361856 -0.009054082 0.048091482 0.21792021 0.034793597 -0.02953961 0.08705993 -0.110386506
0.07467827 0.13020758 -0.16758916 0.12762411 0.025521934 -0.08476688 -0.12675522 0.018024199
-0.1600169 0.0029325704 -0.012466685 -0.026335664 -0.03470991 0.0071512754 0.00041375973 -0.030622019
0.066085085 0.021462666 -0.14391533 0.11120994 0.039746113 0.061616883 0.020198733 0.10170585
-0.043370783 0.0035621636 0.19421434 -0.02890738 -0.047201626 0.160964 0.17617205 -0.14034565
0.101936914 -0.075427555 0.121509954 -0.08039637 0.12378727 -0.12792568 0.056726936 -0.10155162
0.032731485 0.107501544 0.12748331 0.016428076 0.14622925 0.054869115 -0.028005464 0.003148093
0.03431814 0.034988016 0.11476058 -0.13407208 0.014017878 -0.082265936 -0.1637615 -0.037638515
-0.112318456 -0.07609529 -0.035247125 -0.081957355 0.025609596 -0.049746174 -0.02651524 0.17083272
-0.041150197 0.089925036 0.08291059 -0.026254449 0.0071017165 0.076504275 -0.018472504 0.06657234
00000000: 157a bcbd 472c 843d e4e3 bfbc 39a4 133d
00000010: 769b fcbb 9fe6 21be e9e0 103d c051 b73c
00000020: 14db 133e c52b b8bd 5f9c aabc d361 ef3b
00000030: 3d78 aabd f233 123d 857a 36bd 05a5 2e3d
00000040: 723f 893d d80e 00bd 01b5 9f3c 60d5 80bd
00000050: 73ed 70be 1b5a 0bbe aa27 85bb a2aa 6abc
00000060: 8834 23bd 5259 8abd 0055 a7bc 1103 16bd
00000070: 8551 25bd eb55 613e fe91 c6bc d542 9a3d
00000080: 16a8 5cbd 90f1 97bd 2191 1ebe e71e 213e
00000090: b9d0 e6bc f9b8 70be 0880 50bd 9c89 11be
000000a0: bd40 f63d a8ad 6a3d 8897 87bc 1dd2 e63b
000000b0: 9d92 0ebe b6ba cd3d f5aa 723e 5a3d 24bd
000000c0: 1acc 143e 980b 06be 0270 393d 5ba8 2e3d
000000d0: 9028 a0bd 87f7 b23c c509 4a3e f91c 52ba
000000e0: d565 473c fc55 b6bc 9e96 20be a59f 053d
000000f0: e30d 8d3d f7d7 773c f23a f83d 2da7 70bc
00000100: 4c42 163d a2bb 6b3d 2323 1dbe e16f 9abd
00000110: 2481 113d 95f0 653e 56cf d93c 73ef 4ebd
00000120: 9ae1 153e 8adc 283d 55f9 cc3c 7706 78bc
00000130: f282 523e bf1f 37bc d90b e03d 7608 55bd
00000140: c134 e93d adc9 52bd a8da cd3d 0e6e 79bd
00000150: b3c4 313d c61f 523c eb0b 87bc 4ce7 12bb
00000160: b90c 00be 5094 833d bad3 b73c 4d39 bcbd
00000170: 8c6e ac3d cc83 b2bc 3031 bb3d cc6f 803d
00000180: 193f a83b d73d 61ba 1018 473e fecf 8f3d
00000190: 2bdd c33d 2d05 aa3c 504c 273e 6ce8 8d3d
000001a0: aec1 913d 63f4 eabd aa9c 623d e00e 52bd
000001b0: 0269 faba b2ac bbbc 9814 9f3d 504e 003e
000001c0: d47e 2f3c 3dfc 3c3e c87c babd 20c6 12bd
000001d0: 2f43 c73d 4449 2ebd f404 4abe a46b edbd
000001e0: 4f28 533e 7dae bd3c 76e5 503e 1693 8d3d
000001f0: 50da c4bd 0a81 83bc 002e e23d f7a5 85bd
00000200: 3dfd 95bd 32bb e9bd 5315 e23d 117c 5fbc
00000210: 052a 463a f557 c53d 60a8 0c3d 88dd 13be
00000220: 6894 4e3c bf5b e23b 0876 ad3d b3a5 e83c
00000230: 2296 57bd 649e 64bc 5852 2b3e e84e ab3d
00000240: b8cc 183e 29ea 96bd 9bf7 433d b694 78bd
00000250: b227 a3bd 492f e03b 8ce1 aebd 7f0b 99bd
00000260: 368c 7e3d a46d a1bd 0a71 143c 5a3e 733c
00000270: 125c 19be 6d01 3b3b 2f60 543e d9bf 20bd
00000280: 109a c8bd f5a2 ec3d a6ca 04be be6f 87bd
00000290: 342c 793d 955e d3bc e22a ef39 ee43 603d
000002a0: 8a55 3a3c 7695 b03d 064f afbd 87e6 3c3d
000002b0: 858d 013d a063 763d df79 3abd 3540 d4bd
000002c0: a30f b93d 9357 14bc 93fb 443d 7a26 5f3e
000002d0: bb83 0e3d 0dfd f1bc 7a4c b23d 5212 e2bd
000002e0: ecf0 983d 2355 053e 7e9c 2bbe e5af 023e
000002f0: 6013 d13c 429a adbd 1fcc 01be 7ca7 933c
00000300: 78db 23be 5e30 403b 1141 4cbc e4bd d7bc
00000310: fb2b 0ebd 3f55 ea3b e4ed d839 07db fabc
00000320: 9e57 873d 79d2 af3c 8a5e 13be 09c2 e33d
00000330: d2cc 223d fc61 7c3d d077 a53c 284b d03d
00000340: 90a5 31bd 3073 693b 20e0 463e 2bcf ecbc
00000350: 7e56 41bd bfd3 243e 7266 343e c5b6 0fbe
00000360: 4dc4 d03d c379 9abd 36da f83d daa6 a4bd
00000370: 2e84 fd3d f3fe 02be 815a 683d 4cfa cfbd
00000380: 7311 063d c529 dc3d fc8a 023e 2c94 863c
00000390: 1fbd 153e 70be 603d b76b e5bc 3c50 4e3b
000003a0: 2e91 0c3d 984f 0f3d 9807 eb3d 314a 09be
000003b0: 3eab 653c 0b7b a8bd 18b1 27be d82a 1abd
000003c0: 3807 e6bd d9d7 9bbd 4a5f 10bd 42d9 a7bd
000003d0: 37cb d13c a5c2 4bbd 7d36 d9bc c6ee 2e3e
000003e0: 1c8d 28bd 9e2a b83d 07cd a93d 9213 d7bc
000003f0: 84b5 e83b 46ae 9c3d a653 97bc 1457 883d

network_body._body_endoder.seq_layers.2.bias f4 [128]
0.05630173 0.016681522 0.05171428 0.026495442 0.055964038 0.05990183 0.031341318 -0.012076727
0.0041569727 0.052966163 0.069894895 0.018357094 0.05466973 -0.018679507 -0.0009428514 0.040529948
0.035679195 0.012236595 -0.018240808 0.024657736 0.040939488 0.04473476 0.024108732 0.023443436
0.009321865 0.038675305 0.018908665 0.028412694 0.012955099 0.060564645 0.063906625 0.04132076
0.06771443 0.027724417 0.066006266 0.05179504 0.045237236 0.052714642 0.041783586 -0.013514563
0.07584235 0.040808063 0.018912826 0.038081177 0.045746204 0.0024542175 0.02563834 0.029901551
-0.0028098319 0.06514946 0.01562615 0.05287155 0.030447306 0.013545124 0.039203912 0.02785191
0.019513348 0.025936464 0.037925605 0.06665945 0.0053308336 0.012963351 0.07766468 0.03170448
0.0037957127 0.011470366 -0.02642048 0.019872598 -0.0070584426 -0.011461366 0.02641722 0.0069434713
0.044240057 -0.007757926 -0.009610922 0.016043367 0.0058063543 0.034888666 0.004967116 0.052519538
0.019036885 0.06931866 0.02679416 0.0012469738 -0.0044682203 0.0134974355 -4.941121e-05 -0.023156064
-0.019744165 0.012926882 -0.01680014 0.037439376 -0.013483115 0.05681029 0.04665243 0.045722157
0.022615539 0.024227673 0.031986773 0.05475085 0.038847897 -0.015144285 0.049043935 0.030790864
0.0017420887 -0.020864742 0.07272604 0.041785747 0.02452614 0.042555656 -0.006421644 -0.006517879
0.056760337 0.029517315 0.044976488 0.017903164 -0.015601554 0.039051134 0.0268915 0.083579905
0.03547018 -0.0013255645 0.01497895 0.025760125 0.06348144 0.033289526 0.017801614 0.004568201
00000000: a59c 663d b0a7 883c 5ad2 533d f80c d93c
00000010: 8c3a 653d 9f5b 753d c15f 003d 77dd 45bc
00000020: 3737 883b 0cf3 583d 0e25 8f3d 9e61 963c
00000030: 5eed 5f3d c405 99bc b029 77ba bb02 263d
00000040: 5924 123d 007c 483c bf6d 95bc 05ff c93c
00000050: 2ab0 273d cc3b 373d ad7f c53c 730c c03c
00000060: bcba 183c ff69 1e3d 58e6 9a3c bdc1 e83c
00000070: a041 543c a212 783d 7ae1 823d f53f 293d
00000080: ddad 8a3d 511e e33c 4b2e 873d 0927 543d
00000090: ae4a 393d 4feb 573d 4425 2b3d 306c 5dbc
000000a0: 3c53 9b3d 5b26 273d 12ef 9a3c 02fb 1b3d
000000b0: 5f60 3b3d f0d6 203b 7f07 d23c 19f4 f43c
000000c0: 2825 38bb 156d 853d 6902 803c d78f 583d
000000d0: a16c f93c 5eec 5d3c 4894 203d b029 e43c
000000e0: 75da 9f3c b578 d43c e157 1b3d c084 883d
000000f0: 46ae ae3b 3c64 543c a90e 9f3d 8fdc 013d
00000100: 7ec1 783b 34ee 3b3c c36f d8bc dccb a23c
00000110: 824a e7bb 74c8 3bbc ed68 d83c 0f86 e33b
00000120: 1035 353d 3336 febb 2177 1dbc 616d 833c
00000130: 3b43 be3b 6be7 0e3d 30c3 a23b ba1e 573d
00000140: 3ef3 9b3c f1f6 8d3d 6d7f db3c 7f71 a33a
00000150: 266a 92bb 5924 5d3c e23e 4fb8 c9b1 bdbc
00000160: 84be a1bc 46cb 533c 72a0 89bc 085a 193d
00000170: 48e8 5cbc e8b1 683d 9e16 3f3d 2847 3b3d
00000180: 3944 b93c 1d79 c63c 9004 033d 6d42 603d
00000190: f91e 1f3d bc1f 78bc 4be2 483d 1f3d fc3c
000001a0: cc56 e43a 89ec aabc 64f1 943d 8827 2b3d
000001b0: 0beb c83c d74e 2e3d a76c d2bb ef93 d5bb
000001c0: 877d 683d 4cce f13c 4439 383d a8a9 923c
000001d0: a99d 7fbc 15f4 1f3d 904b dc3c f12b ab3d
000001e0: 2e49 113d 90be adba 456a 753c e606 d33c
000001f0: 8f02 823d 995a 083d b1d4 913c d9b0 953b

action_model._continuous_distribution.log_sigma f4 [1, 2]
-0.07290713 -0.07617833
00000000: 5550 95bd 6203 9cbd

action_model._continuous_distribution.mu.weight f4 [2, 128]
-0.0053544617 0.0241585 -0.018515976 -0.024324415 -0.07631946 -0.1081416 -0.045101278 -0.03597777
0.006784235 0.021001492 -0.07648722 0.042465728 0.049128547 -0.024148963 -0.031367175 -0.06608862
0.01814425 -0.002829812 -0.018508319 -0.010990052 -0.04199151 -0.050729882 0.04136101 -0.024859168
-0.05326964 0.03606101 0.03753258 -0.060718816 0.007356194 -0.1034434 0.0060850056 -0.047173902
0.071322545 0.045964845 -0.0023191215 0.06810511 -0.07002291 -0.004300149 -0.08495384 -0.011488923
0.10195718 -0.02968939 0.023344425 -0.04348304 -0.0057909093 0.009291182 -0.022411194 -0.014825148
0.031967267 0.047347136 0.021141043 0.011324986 0.022198355 -0.04427262 -0.046934564 0.06440961
0.045511197 0.0400166 -0.030924037 0.058817104 0.019635666 -0.007973328 -0.044438023 -0.0331185
-0.008097991 -0.0016687543 -0.025111152 0.004913113 0.008755564 0.024040777 0.027446724 0.019791212
0.04236508 -0.027620088 -0.0243044 0.04518711 -0.011608285 -0.042982206 -0.0056631966 -0.060609106
0.01848312 0.054369133 0.043008626 -0.04680736 -0.031896424 0.01332542 0.0068829437 -0.0042813825
-0.017201627 -0.009690644 0.0006669048 0.0097250175 -0.001558231 -0.04756622 -0.05692119 -0.01723586
-0.036487907 0.024534473 0.040698886 0.058671147 0.03417602 -0.02989011 0.07392999 -0.003114208
-0.009596716 -0.0063924086 -0.08714405 0.04910266 0.04801117 0.031373978 -0.016908288 -0.03867033
0.04895644 0.04296486 0.066239044 -0.036400247 0.0157452 -0.0012277983 0.04171846 0.07164157
0.069309816 0.03179022 -0.0058407765 -0.01895072 -0.031466335 -0.023748837 0.040266223 -0.06312921
-0.0447329 -0.021225361 0.051047653 0.04787549 -0.04230906 -0.09253755 0.020466452 -0.003342083
-0.0446759 -0.030748684 -0.009643924 0.039318863 0.030089073 -0.037861843 -0.01316071 -0.03246782
-0.027081437 0.03379699 0.002602503 0.040577807 -0.055293668 -0.010007085 -0.001314567 0.032948505
0.007120031 0.00015301189 -0.049866065 0.024292111 -0.03252582 -0.04371308 -0.0700841 -0.017288238
0.01642654 -0.009904099 0.10072363 -0.05174662 0.0022321711 -0.041198608 -0.03830573 -0.0030370757
0.04220471 -0.048719 -0.016850173 0.032361064 0.06537487 0.015508919 -0.041386437 0.036174286
0.014086192 -0.07317243 0.0066290973 0.06239509 -0.046333972 0.020251868 0.060249705 -0.027407182
-0.068709865 0.017041916 -0.054594744 -0.12212611 0.022176532 -0.058094077 0.08723607 -0.09454049
0.0027984933 -0.043650802 -0.0118903555 0.04440907 0.04311001 -0.048409972 -0.06436299 0.015918674
-0.052110516 -0.013065163 0.027375959 -0.0002513866 -0.019309044 -0.03175971 -0.011292024 -0.024349576
0.04892202 0.02691134 -0.034064453 -0.024108585 0.006275545 0.021039989 -0.06200328 -0.0020523001
0.012497788 0.04143446 -0.008290893 0.05154612 -0.027413702 -0.057396524 0.04085347 0.057013694
0.020406513 0.037296776 0.009318702 -0.013332778 0.030806955 -0.018997898 0.013631716 -0.061426144
-0.02526201 -0.0047900965 0.050343603 -0.02579915 -0.014106272 0.039216068 -0.031797305 0.012085414
0.026195094 0.037732944 -0.0033501394 0.0020958218 0.013678158 -0.065737866 -0.08957242 0.047255725
0.020655483 -0.018964438 -0.04538132 -0.07393844 0.06187609 0.06024378 -0.0247521 -0.009984974
00000000: 7b74 afbb 0ce8 c53c d1ae 97bc ff43 c7bc
00000010: 614d 9cbd 5879 ddbd 1ebc 38bd 6d5d 13bd
00000020: 4a4e de3b 520b ac3c 55a5 9cbd 8bf0 2d3d
00000030: 043b 493d 0cd4 c5bc de7a 00bd 7859 87bd
00000040: 40a3 943c 5e74 39bb c29e 97bc 9e0f 34bc
00000050: 4aff 2bbd 23ca 4fbd 2a6a 293d 74a5 cbbc
00000060: 4431 5abd b6b4 133d c3bb 193d 4bb4 78bd
00000070: 3a0c f13b 22da d3bd ba64 c73b 6c39 41bd
00000080: 8e11 923d a245 3c3d 67fc 17bb b17a 8b3d
00000090: 2c68 8fbd 44e8 8cbb 47fc adbd 093c 3cbc
000000a0: edce d03d 2a37 f3bc cf3c bf3c 461b 32bd
000000b0: abc1 bdbb 0b3a 183c ae97 b7bc 2de5 72bc
000000c0: 1cf0 023d 12ef 413d fb2f ad3c 6f8c 393c
000000d0: 53d9 b53c 3557 35bd 753e 40bd 30e9 833d
000000e0: f369 3a3d 72e8 233d 6854 fdbc 34ea 703d
000000f0: fada a03c 90a2 02bc a504 36bd 44a7 07bd
00000100: 70ad 04bc 1aba daba e7b5 cdbc 2efe a03b
00000110: 7f73 0f3c 2af1 c43c f4d7 e03c 2e21 a23c
00000120: 0287 2d3d 8643 e2bc 051a c7bc 1e16 393d
00000130: ad30 3ebc 1c0e 30bd 5692 b9bb 4141 78bd
00000140: e969 973c 2bb2 5e3d d029 303d 13b9 3fbd
00000150: d3a5 02bd dd52 5a3c 518a e13b d74a 8cbb
00000160: 6dea 8cbc 82c5 1ebc 39d3 2e3a ae55 1f3c
00000170: 8e3d ccba ccd4 42bd 3226 69bd 3832 8dbc
00000180: 5874 15bd 85fc c83c e0b3 263d 2851 703d
00000190: 28fc 0b3d 1bdc f4bc 9b68 973d be17 4cbb
000001a0: 8b3b 1dbc 6977 d1bb 9478 b2bd df1f 493d
000001b0: 5ca7 443d 0082 003d 4083 8abc c864 1ebd
000001c0: 8c86 483d ecfb 2f3d 56a8 873d 6d18 15bd
000001d0: 14fc 803c 13ee a0ba fae0 2a3d d1b8 923d
000001e0: 4ef2 8d3d 7636 023d fc63 bfbb 8a3e 9bbc
000001f0: d8e2 00bd ec8c c2bc 32ee 243d e349 81bd
00000200: d839 37bd cfe0 adbc 5817 513d 1719 443d
00000210: 444c 2dbd 5484 bdbd 43a9 a73c d906 5bbb
00000220: 14fe 36bd aae4 fbbc 8d01 1ebc d10c 213d
00000230: 5c7d f63c 0515 1bbd 05a0 57bc fafc 04bd
00000240: e4d9 ddbc b66e 0a3d c18e 2a3b ea34 263d
00000250: 9d7b 62bd c2f4 23bc 8d4d acba 03f5 063d
00000260: 264f e93b d171 2039 5c40 4cbd 4000 c73c
00000270: cb39 05bd 7d0c 33bd 4188 8fbd 10a0 8dbc
00000280: f490 863c cd44 22bc 3148 ce3d 44f4 53bd
00000290: 9e49 123b dfbf 28bd 78e6 1cbd ad09 47bb
000002a0: d9de 2c3d 938d 47bd 6009 8abc 098d 043d
000002b0: 43e3 853d 1f19 7e3c d384 29bd 7d2b 143d
000002c0: c5c9 663c 6ddb 95bd e638 d93b fe91 7f3d
000002d0: b1c8 3dbd 3fe7 a53c 65c8 763d 0785 e0bc
000002e0: c2b7 8cbd 7d9b 8b3c bd9e 5fbd 411d fabd
000002f0: 8fab b53c 0ef4 6dbd d3a8 b23d 729e c1bd
00000300: ed66 373b 2fcb 32bd c4cf 42bc 49e6 353d
00000310: 1f94 303d 8949 46bd bed0 83bd e167 823c
00000320: d671 55bd 440f 56bc 8c43 e03c 8acc 83b9
00000330: 002e 9ebc 7816 02bd 2e02 39bc c378 c7bc
00000340: 7562 483d 2c75 dc3c 2b87 0bbd 5e7f c5bc
00000350: 16a3 cd3b 0e5c ac3c 27f7 7dbd e27f 06bb
00000360: 86c3 4c3c 2eb7 293d 87d6 07bc 0622 533d
00000370: b392 e0bc 9e18 6bbd f855 273d 3187 693d
00000380: 8f2b a73c 81c4 183d 78ad 183c b971 5abc
00000390: de5e fc3c 7ba1 9bbc 9057 5f3c fb99 7bbd
000003a0: 46f2 cebc 3ef6 9cbb 1835 4e3d bd58 d3bc
000003b0: fe1d 67bc 07a1 203d e43d 02bd e601 463c
000003c0: 1897 d63c dc8d 1a3d 038e 5bbb 0e5a 093b
000003d0: 5a1a 603c 93a1 86bd bf71 b7bd 388f 413d
000003e0: b035 a93c 4f5b 9bbc c3e1 39bd 096d 97bd
000003f0: c871 7d3d 2fc2 763d ebc4 cabc 0498 23bc

action_model._continuous_distribution.mu.bias f4 [2]
0.005242684 0.011169032
00000000: d2ca ab3b 51fe 363c

action_model._discrete_distribution.branches.0.weight f4 [1, 128]
0.00011878824 0.0011240841 0.0135356365 -0.004479048 -0.0051446133 0.0008015777 0.010384507 0.005756741
-0.0014273239 -0.017085202 -0.0015440431 0.015130577 0.011289335 -0.0004681826 -0.0027594282 0.0027214645
0.008386579 0.0065175905 -0.00296976 0.012812759 0.0086039305 -0.015298619 -0.0104115 -0.00064330123
0.0022160918 0.005860388 -0.015876452 0.011621473 0.0036262271 0.0086264275 -0.010128027 -0.0012729577
-0.022633776 0.012587584 0.0165496 -0.0026099463 0.012450821 0.0032049548 -0.007548486 0.0056158896
-0.0010161891 0.009699604 0.02464167 0.0070504616 0.0008085322 0.0039907247 -0.006951204 -0.007823079
-0.015402195 0.010055007 -0.0014244657 -0.00056847103 0.0010841469 -0.0022812018 0.002141995 0.0025297708
0.012164598 -0.0026492726 0.0071747527 -0.02138149 -0.014419101 -0.008514423 0.0061400617 0.021250013
-0.0029946011 -0.015293739 0.0033421142 -0.0031612725 -0.0081839515 -0.0028104135 0.009532557 -0.0029181351
0.0018062482 -0.019487198 -0.00092927646 0.010181206 -0.025972744 0.005879652 -0.0060549597 -0.009779571
-0.010547355 -0.015271335 0.010831467 -0.0036873505 0.0029821591 -0.01863019 -0.007101018 0.0031583298
-0.008624262 0.024189537 -0.002977075 -0.014154938 -0.006996687 0.010505346 0.005337249 0.0015888106
-0.013944578 0.00060998026 -0.0037109044 -0.010047391 0.0010655364 0.022473795 -0.017391399 -0.00071832864
-0.013933906 0.007921084 0.0009028919 -0.0063318247 -0.007292576 -0.00010714957 -0.011136046 0.016990367
-0.0024278958 -0.0009778024 0.015414369 0.004112301 0.01174728 -0.012596286 0.002661414 0.0063637826
-0.019588694 0.000590912 -0.0016388105 0.0018498952 0.012355094 -0.0021750173 0.0002510324 -0.010359247
00000000: f31d f938 0156 933a 93c4 5d3c fac4 92bb
00000010: 2594 a8bb f820 523a c723 2a3c 0ba3 bc3b
00000020: 0b15 bbba 44f6 8bbc 7d61 caba 3de6 773c
00000030: e7f6 383c 6876 f5b9 86d7 34bb 995a 323b
00000040: dd67 093c 8391 d53b 4ea0 42bb 9bec 513c
00000050: 80f7 0c3c 0fa7 7abc ff94 2abc 37a3 28ba
00000060: da3b 113b 7f08 c03b 550f 82bc fe67 3e3c
00000070: ffa5 6d3b dc55 0d3c 06f0 25bc 5fd9 a6ba
00000080: 786a b9bc 273c 4e3c 0793 873c a20b 2bbb
00000090: 87fe 4b3c 380a 523b 4a59 f7bb 7f05 b83b
000000a0: a631 85ba 16eb 1e3c 54dd c93c 8f07 e73b
000000b0: adf3 533a a0c4 823b edc6 e3bb 5f2c 00bc
000000c0: 7d59 7cbc c2bd 243c 23b5 baba 7205 15ba
000000d0: ef19 8e3a 3780 15bb b660 0c3b 83ca 253b
000000e0: 064e 473c 6b9f 2dbb 301a eb3b 3c28 afbc
000000f0: 183e 6cbc 1480 0bbc 9232 c93b 8214 ae3c
00000100: 1241 44bb 9792 7abc 5f07 5b3b 5a2d 4fbb
00000110: fb15 06bc ea2e 38bb 712e 1c3c 2f3e 3fbb
00000120: a2bf ec3a 9ea3 9fbc b09a 73ba 13cf 263c
00000130: cbc4 d4bc 19aa c03b af68 c6bb 7e3a 20bc
00000140: d0ce 2cbc 9f34 7abc 7776 313c 7aa7 71bb
00000150: 5470 433b 579e 98bc a8af e8bb fbfb 4e3b
00000160: c74c 0dbc 2329 c63c 081b 43bb 1dea 67bc
00000170: 7744 e5bb 9d1e 2c3c 17e4 ae3b a33f d03a
00000180: cd77 64bc 15e7 1f3a a532 73bb d09d 24bc
00000190: 78a9 8b3a f71a b83c 6878 8ebc 384e 3cba
000001a0: 0a4b 64bc 6fc7 013c 0db0 6c3a 327b cfbb
000001b0: 90f6 eebb 7db5 e0b8 f673 36bc 622f 8b3c
000001c0: 551d 1fbb 9b29 80ba 8d8c 7c3c 7bc0 863b
000001d0: aa77 403c a760 4ebc 1e6b 2e3b 4787 d03b
000001e0: 7878 a0bc 6fe7 1a3a 5bcd d6ba 2f78 f23a
000001f0: 056d 4a3c bc8a 0ebb 009d 8339 d5b9 29bc
