Assets/ML-Agents/Networks/SimpleCollector.onnx (onnx, 42111 bytes, 7 tensors)

discrete_act_size_vector f4 [1, 2]
3.0 3.0
00000000: 0000 4040 0000 4040

network_body._body_endoder.seq_layers.0.weight f4 [256, 28]
0.2908944 0.11469213 -0.12323475 -0.020804808 -0.08845338 -0.20880193 -0.19244702 -0.20063414
0.18361041 -0.23859061 -0.13282393 0.10936909 0.3009539 0.079581864 -0.08239145 -0.1878052
-0.038817227 -0.18795848 -0.2574145 0.2612148 -0.21103361 0.38011786 0.15791671 -0.045776058
0.1185729 0.09825261 0.30126858 -0.030890621 0.0837004 0.07048648 0.29339263 0.08698027
0.4199369 -0.10781529 -0.2090992 0.18694171 0.13692603 0.0886828 -0.11931605 -0.051636778
0.10069508 0.12663667 -0.037282187 -0.13899437 0.007165334 0.31786636 -0.35293877 0.28719813
0.03579555 0.0039286213 0.06968309 0.09105475 -0.35343894 0.20148592 -0.04292458 -0.14165673
-0.25153053 0.56237715 0.2203747 -0.31296173 -0.22926262 0.08981424 0.20635487 0.20558557
-0.013516449 0.1381653 0.29154503 0.044103924 -0.31973818 0.15606257 -0.25812876 0.16875012
0.20025429 0.49638376 0.31698713 0.051857423 -0.09219822 -0.15811954 0.025942614 0.16983975
-0.058595322 -0.19395977 -0.08512615 0.012328309 -0.005983666 0.18001974 0.015653085 -0.13376339
0.021803161 0.22595951 -0.005059675 -0.18926233 -0.031215118 0.25937957 0.07585057 -0.021116668
-0.006932955 -0.077713884 0.24982822 -0.20079872 0.30069593 0.06898532 0.019805498 -0.10399377
0.22917041 0.09616729 -0.15758455 -0.37128395 -0.03328325 0.08221157 0.025214037 0.08457376
0.29388526 -0.08555603 0.051361382 0.048283614 0.021739528 -0.3346884 -0.15169558 0.0940664
0.12663648 0.04600332 -0.010926404 -0.26067632 0.2541133 0.16033503 -0.15959708 0.16054323
0.020962961 -0.08613003 -0.2809902 -0.096232004 0.20582815 -0.08315699 -0.15077013 0.45849225
-0.22639997 -0.18514048 0.05663884 0.16290514 -0.26556525 0.35620916 -0.19819397 0.21996222
-0.23591362 -0.069594614 -0.015917948 -0.24985497 -0.2845976 0.19316249 0.22890237 0.17469163
-0.3324314 0.035276044 -0.06127261 -0.27652168 0.078749314 0.08856825 -0.25855628 0.11327356
0.012722135 0.30439752 0.002162218 0.15348251 0.05105481 0.09517141 -0.13987236 -0.2600374
-0.2642847 0.16312197 -0.33396566 -0.1569527 0.30969617 -0.09860045 0.20245466 0.2557301
0.39620805 0.31259954 0.22775257 0.15739517 0.14403757 0.0810049 0.047309387 0.07949226
-0.049099512 -0.10065237 -0.20514664 -0.01217805 0.2215526 -0.029931653 -0.007104364 0.091047734
-0.024328431 -0.10428336 -0.025158482 -0.17316236 0.35896328 0.13081688 0.23574601 -0.044775475
0.12562189 0.11427625 -0.21433347 0.28745595 0.22486489 -0.27406 -0.07333832 0.05078532
-0.09077433 0.14601074 0.46810117 0.15210833 0.23659897 -0.06793072 0.04002568 -0.030547418
0.14036448 -0.08674964 0.4304722 -0.0030146842 0.08700637 -0.22134745 0.17649044 0.19862007
0.0092017725 0.16390939 -0.05983681 -0.13689663 -0.042697124 -0.1297986 0.23758352 -0.045461476
-0.15681571 0.1654139 -0.057410073 0.040762752 -0.082890235 0.119900614 -0.10528458 0.19288565
-0.084310845 0.17939736 0.21101782 0.25355303 0.1671942 -0.02642283 -0.020911233 -0.29564887
-0.36046046 0.085607216 -0.110655576 -0.07044341 0.40150592 -0.14782318 0.035607275 0.111783795
00000000: 1cf0 943e b5e3 ea3d 8062 fcbd d86e aabc
00000010: 0c27 b5bd 2cd0 55be d510 45be 0973 4dbe
00000020: 5e04 3c3e 1951 74be ff02 08be e7fc df3d
00000030: a116 9a3e d1fb a23d d9bc a8bd 0250 40be
00000040: d0fe 1ebd 3078 40be d5cb 83be f2bd 853e
00000050: 3219 58be cf9e c23e ebb4 213e ad7f 3bbd
00000060: 59d6 f23d aa38 c93d e03f 9a3e 540e fdbc
00000070: 1e6b ab3d 375b 903d 8f37 963e b622 b23d
00000080: f801 d73e 43ce dcbd 1a1e 56be a66d 3f3e
00000090: 5636 0c3e 549f b53d f95b f4bd 1681 53bd
000000a0: 3939 ce3d 0bad 013e 35b5 18bd 8a54 0ebe
000000b0: 2ecb ea3b 61bf a23e 64b4 b4be a20b 933e
000000c0: 5b9e 123d aabb 803b 02b6 8e3d ea7a ba3d
000000d0: f3f5 b4be 5352 4e3e afd1 2fbd 760e 11be
000000e0: 9cc8 80be f3f7 0f3f e8a9 613e 853c a0be
000000f0: d2c3 6abe 87f0 b73d b14e 533e 0685 523e
00000100: 1974 5dbc 347b 0d3e 6445 953e 51a6 343d
00000110: b9b4 a3be dece 1f3e 7429 84be d5cc 2c3e
00000120: 760f 4d3e 0326 fe3e 234c a23e 7368 543d
00000130: 6cd2 bcbd 17ea 21be 9b85 d43c 79ea 2d3e
00000140: a601 70bd 649d 46be 9e56 aebd adfc 493c
00000150: a112 c4bb 1857 383e e63a 803c 45f9 08be
00000160: 8b9c b23c ee61 673e a1cb a5bb fccd 41be
00000170: d9b6 ffbc 66cd 843e 8b57 9b3d ddfc acbc
00000180: d72d e3bb 7528 9fbd f8d2 7f3e 2e9e 4dbe
00000190: d1f4 993e 2d48 8d3d 243f a23c b0fa d4bd
000001a0: a6ab 6a3e 5bf3 c43d d85d 21be ee18 bebe
000001b0: 0454 08bd 8a5e a83d ab8d ce3c 0235 ad3d
000001c0: 2178 963e 0038 afbd 5060 523d 0ac5 453d
000001d0: 1817 b23c 475c abbe 1656 1bbe e2a5 c03d
000001e0: feac 013e fa6d 3c3d a904 33bc 5e77 85be
000001f0: 231b 823e de2e 243e 6b6d 23be 7265 243e
00000200: 84ba ab3c f164 b0bd f3dd 8fbe 4915 c5bd
00000210: 9dc4 523e 364e aabd 7c63 1abe 7fbf ea3e
00000220: 65d5 67be 7795 3dbe 21fe 673d 9bd0 263e
00000230: 2bf8 87be 0c61 b63e 5cf3 4abe c73d 613e
00000240: 5793 71be 9f87 8ebd 5b66 82bc fbd9 7fbe
00000250: c7b6 91be 63cc 453e 6265 6a3e 5de2 323e
00000260: 7334 aabe 9d7d 103d fdf8 7abd 4094 8dbe
00000270: 5247 a13d 4563 b53d 7d61 84be f8fb e73d
00000280: 8070 503c fed9 9b3e 00b4 0d3b 852a 1d3e
00000290: d91e 513d 3ae9 c23d b33a 0fbe 9f23 85be
000002a0: 5350 87be 7209 273e 8cfd aabe 35b8 20be
000002b0: 7f90 9e3e 08ef c9bd 4650 4f3e 0eef 823e
000002c0: c8db ca3e 0c0d a03e f837 693e 332c 213e
000002d0: 967e 133e e6e5 a53d 7dc7 413d d7cc a23d
000002e0: 921c 49bd d422 cebd f611 52be 7286 47bc
000002f0: afde 623e 3a33 f5bc bacb e8bb 3c77 ba3d
00000300: 6b4c c7bc 8492 d5bd 2919 cebc 7951 31be
00000310: 09ca b73e dcf4 053e 6767 713e 7d66 37bd
00000320: 06a3 003e ab09 ea3d 3c7a 5bbe 6d2d 933e
00000330: fb42 663e 9851 8cbe 6732 96bd 4504 503d
00000340: e4e7 b9bd d783 153e f5aa ef3e 49c2 1b3e
00000350: 0047 723e 431f 8bbd f8f1 233d 943e fabc
00000360: b5bb 0f3e cca9 b1bd da66 dc3e 0292 45bb
00000370: 6530 b23d e8a8 62be e9b9 343e 0f63 4b3e
00000380: 08c3 163c ddd7 273e 7117 75bd a12e 0cbe
00000390: 2ee3 2ebd ede9 04be 1849 733e d035 3abd
000003a0: 4c94 20be 4362 293e d326 6bbd d8f6 263d
000003b0: 5bc2 a9bd 748e f53d 719f d7bd d183 453e
000003c0: 2aab acbd f1b3 373e 0e15 583e b4d1 813e
000003d0: f534 2b3e b174 d8bc 094e abbc 4a5f 97be
000003e0: 468e b8be d652 af3d 649f e2bd a244 90bd
000003f0: 2f92 cd3e f65e 17be efd8 113d e7ee e43d

network_body._body_endoder.seq_layers.0.bias f4 [256]
0.015035832 0.0048643574 0.04327744 0.054258525 0.01843398 0.046078354 0.01075951 0.01577568
0.011559661 0.012324886 0.032494295 0.007849158 0.013043248 0.08238641 0.06485443 0.013751846
0.03783864 0.025248991 0.042324916 0.0083462475 0.027548434 0.0025168892 0.014070337 0.019171463
0.006158773 -0.012101753 0.008595636 0.0147691425 0.059890565 0.061555523 0.0673206 0.01474195
0.041132145 0.040678035 0.04599117 0.014817236 -0.003657336 0.07010948 0.05196941 0.0133251995
0.036499847 0.03574587 -0.0010793549 0.013724697 0.013040479 0.03976179 0.057747837 0.040025428
0.019366074 0.005730426 0.018761683 0.039618123 0.03217118 0.00067136524 0.06944787 0.07284485
0.016648712 0.041744757 0.06453062 0.010835195 0.019874142 0.022014972 0.015419632 0.041016817
0.036376037 0.029513497 -0.009987951 0.009387898 0.024227465 0.04011658 0.04422192 0.041772828
0.009542955 0.030155577 0.016978014 0.010741175 0.08480017 -0.010301365 0.02242537 0.06297045
-0.0031480065 0.025925398 0.054207057 0.06678586 0.060382336 0.030181535 0.03162282 0.028790561
-0.0014560854 0.03211409 0.025924101 0.019677179 0.06690578 0.049688354 -0.00071176485 0.0064268606
0.00064343825 0.03986632 0.024872294 0.017334018 0.028918121 0.012123611 0.041849643 0.03185118
0.016671931 0.03361181 0.038700845 0.026423147 0.019925928 0.049936872 0.026935974 0.02866205
0.008248994 0.019922333 0.034341697 0.032957204 0.006797598 0.019553326 0.0028055944 0.015846815
0.021717701 0.034266677 -0.014847713 0.027592722 -0.0055308244 0.0040309704 0.053476766 -0.012308994
-0.0036090873 0.0022323334 0.030495252 0.049303677 0.035993785 0.045417987 0.02520808 0.06317788
0.06206778 0.023893697 0.03665245 -0.0037330228 0.029370667 0.037323143 -0.0005894677 0.029228384
-0.016266717 0.06520164 0.034127764 0.022342023 0.032318372 0.03702201 0.052987926 0.03958601
0.039561857 -0.0017106917 0.03503904 -0.004086431 0.05806856 0.062736236 -0.018751992 -0.0053344863
0.0724962 0.050125293 0.025794918 0.035898224 0.0756203 0.010664863 0.018610068 0.0523556
0.01617528 0.015007365 0.0011875151 0.034163587 0.0027397624 -0.015929371 0.04409302 0.06216664
0.040833984 0.016701955 0.006042136 0.021922993 0.044653144 0.041550044 -0.0063377605 -0.004896025
0.006893461 0.016649038 0.02049117 0.054024816 0.044398613 0.030003276 0.009649353 0.0097392155
0.051304437 -0.0018187487 0.021416165 0.024408922 0.03324762 0.017461902 0.08242105 0.033977833
0.017585171 0.026368272 -0.0077745034 0.028199725 0.00090697553 -0.0050072633 0.027762154 -0.0011770463
0.015544368 0.057007503 0.0062929955 0.07006393 0.037944753 -0.010041929 0.007088752 0.0051930943
0.013347876 0.05791311 0.02682319 0.036816087 -0.00080472964 -0.013561766 0.023222484 0.0057113385
0.060368318 0.010265318 -0.0019010565 0.037331812 0.05418639 0.02021551 0.018455988 0.03443336
0.051096283 0.058485642 0.05360397 0.026284067 0.029353457 0.0038678888 -0.030355806 0.028811166
0.03326151 0.0030040608 0.048613865 0.040161155 0.0236406 0.0061138216 0.042206917 0.03351124
0.0650752 0.055150054 0.0802496 0.05812389 0.03717292 -0.009432956 0.016362375 0.025537794
00000000: da58 763c 3065 9f3b af43 313d 303e 5e3d
00000010: dc02 973c a8bc 3c3d a848 303c 003c 813c
00000020: bb64 3d3c 52ee 493c bd18 053d c199 003c
00000030: 59b3 553c 35ba a83d 66d2 843d 6c4f 613c
00000040: b1fc 1a3d f9d6 ce3c e45c 2d3d b3be 083c
00000050: 41ad e13c 65f2 243b 4587 663c 790d 9d3c
00000060: 88cf c93b 6e46 46bc b6d4 0c3c 46fa 713c
00000070: cf4f 753d a521 7c3d 62df 893d 3888 713c
00000080: 2e7a 283d 039e 263d 3d61 3c3d fec3 723c
00000090: ebaf 6fbb 8f95 8f3d e0dd 543d f051 5a3c
000000a0: dd80 153d 436a 123d 2479 8dba 8ddd 603c
000000b0: bca7 553c 42dd 223d ff88 6c3d b4f1 233d
000000c0: 9aa5 9e3c 4cc6 bb3b 1ab2 993c 9d46 223d
000000d0: edc5 033d 8ffe 2f3a af3a 8e3d ae2f 953d
000000e0: e162 883c 8dfc 2a3d a128 843d 1a86 313c
000000f0: 19cf a23c be58 b43c a0a2 7c3c 4001 283d
00000100: 0aff 143d 4ac6 f13c 81a4 23bc b3cf 193c
00000110: ad78 c63c 4851 243d 0b22 353d fc19 2b3d
00000120: 0e5a 1c3c d408 f73c 7a15 8b3c c1fb 2f3c
00000130: b6ab ad3d 0ec7 28bc 69b5 b73c a7f6 803d
00000140: c94e 4ebb 8061 d43c 3808 5e3d 06c7 883d
00000150: 7853 773d 443f f73c ee86 013d 2fda eb3c
00000160: 1eda beba 108a 033d c85e d43c 0932 a13c
00000170: e605 893d 0486 4b3d bb95 3aba 6a98 d23b
00000180: 69ac 283a de4a 233d fbc0 cb3c 1200 8e3c
00000190: b2e5 ec3c 1ca2 463c 886a 2b3d 6276 023d
000001a0: 9393 883c 8aac 093d c784 1e3d 5b75 d83c
000001b0: b33b a33c 9b8a 4c3d d5a8 dc3c adcc ea3c
000001c0: ca26 073c 2934 a33c e1a9 0c3d 22fe 063d
000001d0: 63be de3b 4c2e a03c 10de 373b 2ed1 813c
000001e0: 52e9 b13c 375b 0c3d d243 73bc 220a e23c
000001f0: eb3b b5bb 3b16 843b 740a 5b3d aaab 49bc
00000200: 7086 6cbb 574c 123b 2ed1 f93c a7f2 493d
00000210: 386e 133d 3608 3a3d 2d81 ce3c 6863 813d
00000220: c93a 7e3d b7bc c33c e120 163d bba5 74bb
00000230: c19a f03c 27e0 183d 8286 1aba 5d70 ef3c
00000240: c741 85bc 7088 853d 8ec9 0b3d 9e06 b73c
00000250: 4560 043d 64a4 173d de09 593d f124 223d
00000260: 9d0b 223d 4a39 e0ba 1985 0f3d 78e7 85bb
00000270: 4cd9 6d3d db7b 803d c79d 99bc eacc aebb
00000280: e378 943d 2e50 4d3d dd4f d33c 040a 133d
00000290: d1de 9a3d adbb 2e3c 2474 983c d372 563d
000002a0: 0582 843c 73e1 753c 65a6 9b3a 1eef 0b3d
000002b0: 968d 333b 507e 82bc e29a 343d 72a2 7e3d
000002c0: 8941 273d 8ad2 883c 1cfd c53b d997 b33c
000002d0: 37e6 363d 6130 2a3d fdac cfbb d66e a0bb
000002e0: 8be2 e13b 9063 883c 19dd a73c 2049 5d3d
000002f0: 52db 353d 6ec9 f53c 5218 1e3c 3b91 1f3c
00000300: 9a24 523d 1463 eeba f470 af3c 38f5 c73c
00000310: a82e 083d 430c 8f3c 5ecc a83d 572c 0b3d
00000320: c70e 903c 4602 d83c 43c1 febb 1c03 e73c
00000330: 19c2 6d3a f813 a4bb 756d e33c 1f47 9aba
00000340: cead 7e3c b380 693d 7935 ce3b ad7d 8f3d
00000350: f56b 1b3d e786 24bc c348 e83b d52a aa3b
00000360: 0db1 5a3c 4c36 6d3d 4ebc db3c 77cc 163d
00000370: 7ef4 52ba 2b32 5ebc 143d be3c 2e26 bb3b
00000380: c544 773d dd2f 283c df2c f9ba 3ee9 183d
00000390: 8cf2 5d3d ff9a a53c 0331 973c ff09 0d3d
000003a0: 564a 513d a48e 6f3d d68f 5b3d af51 d73c
000003b0: a976 f03c 687c 7d3b bdac f8bc 6505 ec3c
000003c0: 393d 083d c7df 443b 551f 473d 0680 243d
000003d0: eea9 c13c 7456 c83b 29e1 2c3d 1543 093d
000003e0: 2546 853d 06e5 613d e759 a43d 5113 6e3d
000003f0: a242 183d af8c 1abc 630a 863c a334 d13c

action_model._discrete_distribution.branches.0.weight f4 [3, 256]
0.01345437 -0.0058664703 -0.009736324 0.018050632 -0.00869034 -0.0033334866 0.009290527 0.0014549912
-0.018750882 -0.01983265 -0.017205779 -0.012567495 -0.008433644 0.014550551 0.01653636 -0.0128013445
0.0015208706 0.021877468 -0.030397573 0.013353114 0.034938045 -0.009797636 -0.0002024101 -0.0053850003
-0.023790896 -0.008891129 -0.020156574 0.014067243 0.021503894 0.009322836 0.012413456 -0.022462066
0.0063923346 0.053330306 -0.004552926 -0.0160536 -0.017830824 0.019045666 -0.010087059 -0.013284437
0.015666088 0.0038053899 -0.0041124183 -0.034101937 -0.004241502 0.0030149235 0.0063104695 0.0056900484
-0.01579561 -0.0045953593 0.029007351 -0.0071456744 -0.008474138 -0.0049247327 0.00465452 0.035428658
-0.030953376 -0.012813356 -0.00948134 0.0059788353 -0.022076555 0.0022939218 -0.0041538053 -0.017897364
0.03332421 -0.028977608 -0.022916319 -0.026456447 -0.005026122 0.030331744 0.016470497 -0.009490686
0.0111683495 -0.003148919 -0.035969216 -0.015963914 -0.0024420738 0.011636836 0.021088252 0.041167364
0.005200825 -0.003699767 -0.007952943 0.034598704 -0.007358519 -0.0044874134 -0.010761742 -0.03033501
-0.021244831 -0.023986671 0.006345851 -0.03491045 0.005882489 0.0109535735 0.010626163 -0.013963704
-0.0014373249 -0.012732202 -0.00659563 -0.0025642572 -0.0003313362 -0.019092986 -0.048973378 -0.0034224726
-0.029500091 -0.01698999 -0.0023412362 -0.0077068484 0.0049341484 -0.019309299 0.01949958 0.030719083
-0.0077067404 -0.0031821597 0.018245282 -0.004030483 -0.0038833292 -0.0050382917 -0.013607689 -0.0061853505
0.0076310094 0.0025625713 0.006322283 -0.0348028 -0.011039375 0.011452125 0.039212503 0.025635608
-0.0038455962 0.011893794 -0.0023359624 -0.011551645 0.009815827 0.026321556 0.017073419 0.012767204
0.050641008 -0.00093134056 0.0018701253 0.006297595 0.03540461 -0.020046666 -0.0036371492 -0.0003207839
-0.021378482 0.0024997618 0.03764613 -0.021520933 -0.009246531 -0.014147963 0.033688407 -0.030486807
-0.00047179344 0.0002732873 -0.013522943 -0.003094798 0.022903949 -0.021913435 0.0107611995 -0.0038187217
0.00948668 -0.018251494 -0.01107232 0.0105222035 -0.0038033973 -0.034985352 -0.030984083 -0.0015988112
-0.017596737 0.0010619853 0.033775255 -0.003909321 -0.026616592 0.03165298 -0.024454065 0.014863979
0.007692465 -0.05271865 -0.011678762 -0.025172226 0.050547592 -0.028425906 -0.026336554 -0.012954629
0.005625554 0.018079875 -0.018084178 0.0038037456 -0.013305453 0.023910219 -0.012303946 0.0005862961
-0.017037522 -0.017959012 0.019155052 0.01795205 0.014015243 0.025528574 0.025700426 0.004180075
-0.018163478 -0.031550296 -0.007335736 -0.01485933 -0.027254777 -0.028435068 -0.0105349645 0.0147869345
0.002993167 -0.00056295155 0.029182378 0.0009015281 0.025686294 -0.0080179265 0.018291658 0.043593183
-0.00709187 -0.005760462 0.013504247 -0.013921125 -0.002573067 -0.027260076 -0.0007465489 0.017780272
-0.014988825 0.0014803576 -0.011769127 0.016569493 0.009506073 -0.008956494 0.013964937 -0.023576248
0.0035281659 0.016183589 0.017674562 -0.005575914 -0.0041104187 -0.022036452 0.0006230599 -0.007886421
0.028001014 -0.0056807436 -0.008506061 0.012997359 0.010071171 -0.028603313 0.0014910194 -0.0014481255
-0.012102512 0.025712423 0.02881209 0.023265166 -0.042704757 -0.021096142 -0.003512858 -0.024054544
00000000: b86f 5c3c 853b c0bb 1a85 1fbc ebde 933c
00000010: ee61 0ebc a076 5abb 4b37 183c 67b5 be3a
00000020: 739b 99bc 1578 a2bc 22f3 8cbc e5e7 4dbc
00000030: 442d 0abc 6f65 6e3c 4377 873c bbbc 51bc
00000040: f357 c73a 6038 b33c 5504 f9bc 05c7 5a3c
00000050: 321b 0f3d 4486 20bc 0c3e 54b9 a874 b0bb
00000060: 20e5 c2bc 19ac 11bc 661f a5bc 4b7a 663c
00000070: ef28 b03c cfbe 183c cf61 4b3c 5e02 b8bc
00000080: ca76 d13b e170 5a3d b630 95bb d782 83bc
00000090: f311 92bc a805 9c3c 3144 25bc f8a6 59bc
000000a0: 2b56 803c d963 793b 77c1 86bb 79ae 0bbd
000000b0: 4cfc 8abb 0696 453b 0ec8 ce3b 9673 ba3b
000000c0: cc65 81bc ab94 96bb d3a0 ed3c 4326 eabb
000000d0: 1cd7 0abc a75f a1bb f284 983b a41d 113d
000000e0: ef91 fdbc 1cef 51bc 9f57 1bbc 1bea c33b
000000f0: e4d9 b4bc 9f55 163b a51c 88bb 7e9d 92bc
00000100: f87e 083d 7362 edbc 01bb bbbc 31bb d8bc
00000110: 2bb2 a4bb 477a f83c 23ed 863c d27e 1bbc
00000120: 74fb 363c 185e 4ebb 7554 13bd c1c6 82bc
00000130: 330b 20bb 6ea8 3e3c 45c1 ac3c 1c9f 283d
00000140: af6b aa3b ca77 72bb 104d 02bc 5fb7 0d3d
00000150: bb1f f1bb 270b 93bb 0452 30bc 2081 f8bc
00000160: a409 aebc b27f c4bc dbf0 cf3b 43fe 0ebd
00000170: e5c1 c03b 9e76 333c 5c19 2e3c 05c8 64bc
00000180: 9f64 bcba ba9a 50bc 2820 d8bb 190d 28bb
00000190: 31b7 adb9 e568 9cbc 4f98 48bd 904b 60bb
000001a0: 2daa f1bc 972e 8bbc 6d6f 19bb bb89 fcbb
000001b0: a3ae a13b 892e 9ebc 95bd 9f3c 96a6 fb3c
000001c0: d388 fcbb c88b 50bb 2177 953c 2412 84bb
000001d0: 747f 7ebb 4118 a5bb c9f2 5ebc 7bae cabb
000001e0: 8c0d fa3b d0f0 273b 272b cf3b 618d 0ebd
000001f0: 7fde 34bc b2a1 3b3c 4a9d 203d c401 d23c
00000200: 6606 7cbb 30de 423c f216 19bb 1c43 3dbc
00000210: 90d2 203c 4ea0 d73c 8edd 8b3c 892d 513c
00000220: f26c 4f3d 3525 74ba fe1e f53a 0e5c ce3b
00000230: 6d04 113d e838 a4bc 3d5d 6ebb e32e a8b9
00000240: ed21 afbc 0bd3 233b d432 1a3d ab4c b0bc
00000250: c37e 17bc dccc 67bc dbfc 093d 78bf f9bc
00000260: 0b5b f7b9 0048 8f39 558f 5dbc 18d2 4abb
00000270: 10a1 bb3c ce83 b3bc be4f 303c 8543 7abb
00000280: 056e 1b3c 2884 95bc ad68 35bc 5265 2c3c
00000290: 6b42 79bb cd4c 0fbd 55d2 fdbc 348f d1ba
000002a0: 0827 90bc 5032 8b3a ec57 0a3d c319 80bb
000002b0: 0a0b dabc 8ea6 013d e453 c8bc 0c88 733c
000002c0: 1311 fc3b 83ef 57bd 4758 3fbc fc35 cebc
000002d0: fe0a 4f3d 72dd e8bc c2bf d7bc a73f 54bc
000002e0: 9156 b83b 3f1c 943c 4525 94bc 4348 793b
000002f0: 1dff 59bc 5ddf c33c 7d96 49bc aab1 193a
00000300: 4692 8bbc c71e 93bc 0eeb 9c3c 2d10 933c
00000310: 31a0 653c 4d21 d13c b389 d23c 03f9 883b
00000320: 93cb 94bc e23a 01bd 9d60 f0bb 8c74 73bc
00000330: 6945 dfbc a9f0 e8bc d89a 2cbc e644 723c
00000340: 0229 443b 0a93 13ba e20f ef3c 8754 6c3a
00000350: 106c d23c 9f5d 03bc 63d8 953c c48e 323d
00000360: eb62 e8bb 42c2 bcbb eb40 5d3c 6e15 64bc
00000370: e7a0 28bb 8650 dfbc 0cb4 43ba efa7 913c
00000380: b093 75bc 8f08 c23a 4cd3 40bc bfbc 873c
00000390: 5cbf 1b3c 42be 12bc 31cd 643c fa22 c1bc
000003a0: cd38 673b 7293 843c 3eca 903c 28b6 b6bb
000003b0: b1b0 86bb ca85 b4bc d854 233a 0c36 01bc
000003c0: 6262 e53c 8825 babb 015d 0bbc e0f2 543c
000003d0: 8e01 253c 7f51 eabc 4f6e c33a 07cf bdba
000003e0: 9d49 46bc dca2 d23c 5507 ec3c 9796 be3c
000003f0: 2feb 2ebd d1d1 acbc fa37 66bb 090e c5bc

action_model._discrete_distribution.branches.0.bias f4 [3]
-0.006531319 -0.010235518 0.013930364
00000000: ad04 d6bb e0b2 27bc 2e3c 643c

action_model._discrete_distribution.branches.1.weight f4 [3, 256]
-0.0030733668 -0.0228318 -0.0040698615 -0.02310142 0.00355459 -0.016559683 -0.03144373 0.00049323635
0.010909124 -0.0033715558 -0.00039292415 0.008683935 -0.00090943085 0.0034650029 0.0018862996 -0.022685302
-0.022643633 -0.00048256406 -0.002672407 -0.004499455 -0.018799722 0.005534575 -0.0056012003 -0.025965635
0.009493233 0.012980358 0.014433913 0.0110567 -0.04474262 -0.0057056923 0.0026797394 -0.0021219293
-0.001115236 -0.019819332 -0.0072270567 0.038859267 -0.0002541006 -0.045535415 0.0050058286 -0.007565275
-0.012248725 -0.027361242 -0.00894324 0.008004244 -0.01722713 -0.010923032 -0.027728453 -0.005593521
0.028942462 0.025572384 0.01184545 0.009554195 -0.00082133076 -0.0034604224 0.0027003803 0.0040281164
0.041495103 0.045520112 -0.02393197 0.0039768564 0.0053240326 0.025805267 0.004872591 -0.0131190065
-0.0140439365 0.009183492 0.01926008 0.0104667125 -0.019159924 -0.024022713 -0.0027376579 -0.010737492
-0.0039456617 -0.013832147 0.02396553 0.031097407 0.015150984 0.018484725 0.00023303964 -0.05149124
-0.020969883 0.018005554 0.022530878 -0.010874594 -0.001481694 -0.022931254 0.0015990795 0.04275421
-0.000148523 -0.01614793 -0.01787138 0.033828422 0.013679747 0.026926292 0.01339506 -0.0066935425
-0.016969314 0.0056407345 -0.014686622 -0.01805153 0.026676662 -0.011168728 0.034127798 0.022062246
0.008702202 0.014205101 -0.0069485386 0.00464025 -0.028626982 0.0011440343 -0.016861912 0.0019618534
-0.018124377 -0.02284825 0.008358459 0.015726348 0.02045112 0.011990393 0.020869493 -0.021512931
-0.00035933574 -0.009604938 -0.011433773 0.010358261 -0.009749054 0.008063008 -0.011385596 0.027548129
0.023247525 0.017916134 -0.024684908 0.029033856 -0.022276454 -0.00021866277 -0.0021339082 -0.008361585
-0.010541309 0.004359019 -0.018423151 0.01726154 0.0150537025 0.034660064 0.012446714 0.021629129
0.0037556565 -0.0067984797 -0.061609183 0.0060057277 0.010509119 0.013734623 -0.013327328 0.013721895
-0.023660224 0.016232572 0.00929446 -0.016097166 0.0027881882 0.040497936 0.019325132 0.0121560125
0.0066161393 -0.0034637207 -0.01776819 -0.027935319 -0.02417863 0.025434017 -0.0049425806 0.0038356152
0.01710855 -0.001695357 -0.029192872 -0.004112077 -0.018266745 -0.0041847164 0.032034874 0.006690391
0.010810384 0.049737334 -0.01015881 0.0070137153 -0.02122999 0.0018918435 0.0058859796 -0.008203298
0.013766552 0.0066935504 0.0063502 -0.01668774 -0.0073496997 -0.029886035 -0.03832072 -0.020425228
0.008828917 -0.02059357 -0.023285987 0.0030181678 -0.028428579 -0.011117809 -0.00996414 0.010959682
-0.017126447 0.012763537 -0.0055180085 -0.02052853 0.0035089126 0.006549069 0.0016253475 -0.008596377
0.019420382 -0.016958937 -0.018857064 0.01786425 0.031704374 0.0016493046 0.020434188 -0.036040228
0.026143925 -0.005382183 0.03477738 0.013899505 -0.02856924 0.018012129 0.02603844 -0.02338166
-0.001018709 0.03153717 -0.016077617 -0.01589206 -0.028699707 -0.020149501 -0.012021453 0.014492642
0.0358825 0.017325055 -0.006540891 -0.011280712 -0.010868582 0.010533457 0.014405028 -0.01648932
-0.009717977 0.009546647 -0.00021540688 -0.005171834 -0.020380978 0.0067116027 -0.022507807 0.016252192
0.01124575 -0.0141461985 -0.03816778 -0.020046357 0.021859176 0.0061120405 -0.0061834496 0.0078389775
00000000: 8a6a 49bb c109 bbbc 795c 85bb 303f bdbc
00000010: 20f4 683b 2ca8 87bc 24cb 00bd 884c 013a
00000020: 2fbc 323c 52f5 5cbb 6301 ceb9 1047 0e3c
00000030: df66 6eba 1a15 633b b63d f73a 87d6 b9bc
00000040: 247f b9bc a700 fdb9 8d23 2fbb 2a70 93bb
00000050: e001 9abc 615b b53b 468a b7bb e2b5 d4bc
00000060: 8189 1b3c 91ab 543c 387c 6c3c 2927 353c
00000070: 0a44 37bd d1f6 babb 919e 2f3b 1110 0bbb
00000080: 1c2d 92ba 275c a2bc f2d0 ecbb e52a 1f3d
00000090: ce38 85b9 5883 3abd ef07 a43b 20e6 f7bb
000000a0: e0ae 48bc af24 e0bc ab86 12bc 3c24 033c
000000b0: e91f 8dbc 84f6 32bc c826 e3bc db49 b7bb
000000c0: be18 ed3c 2d7d d13c 6b13 423c 3389 1c3c
000000d0: 934e 57ba 41c8 62bb ddf8 303b 4afe 833b
000000e0: c5f6 293d 4c73 3a3d fb0c c4bc 4a50 823b
000000f0: 3975 ae3b 9165 d33c 41aa 9f3b 1af1 56bc
00000100: 8a18 66bc 5b76 163c 51c7 9d3c 937c 2b3c
00000110: 46f5 9cbc 48cb c4bc 476a 33bb 4eec 2fbc
00000120: 9c4a 81bb 3ba0 62bc 5c53 c43c fdbf fe3c
00000130: d53b 783c 476d 973c 1a5c 7439 7ae8 52bd
00000140: 08c9 abbc 6280 933c ad92 b83c 5a2b 32bc
00000150: 6735 c2ba 53da bbbc 3498 d13a 0a1f 2f3d
00000160: d7bc 1bb9 aa48 84bc 0067 92bc ac8f 0a3d
00000170: 0421 603c 8794 dc3c f476 5b3c 8155 dbbb
00000180: 3b03 8bbc e9d5 b83b 28a0 70bc cde0 93bc
00000190: 0489 da3c 0afd 36bc 97c9 0b3d e2bb b43c
000001a0: ae93 0e3c 83bc 683c 91b0 e3bb 3d0d 983b
000001b0: 2283 eabc 6cf3 953a fe21 8abc 7092 003b
000001c0: 9379 94bc 412c bbbc ebf1 083c 8bd4 803c
000001d0: 1b89 a73c 5a73 443c 80f6 aa3c e33b b0bc
000001e0: 3a65 bcb9 085e 1dbc b854 3bbc b2b5 293c
000001f0: 7fba 1fbc b51a 043c a78a 3abc 9dac e13c
00000200: 9871 be3c dbc4 923c 0138 cabc 69d8 ed3c
00000210: 1c7d b6bc d748 65b9 0ad9 0bbb 08ff 08bc
00000220: 74b5 2cbc 1ad6 8e3b 26ec 96bc 1368 8d3c
00000230: cea3 763c b6f7 0d3d 4ded 4b3c 922f b13c
00000240: 7621 763b c8c5 debb e959 7cbd b2cb c43b
00000250: 712e 2c3c 2f07 613c dd5a 5abc cdd1 603c
00000260: 16d3 c1bc 2cfa 843c ca47 183c 34de 83bc
00000270: 09ba 363b 2ae1 253d bd4f 9e3c 032a 473c
00000280: 33cc d83b 97ff 62bb 988e 91bc 9cd8 e4bc
00000290: 4312 c6bc 005b d03c 5ff5 a1bb f25e 7b3b
000002a0: 3b27 8c3c be36 deba e425 efbc 9abe 86bb
000002b0: 24a4 95bc f21f 89bb 0037 033d 113b db3b
000002c0: 091e 313c 60b9 4b3d 2371 26bc 4fd3 e53b
000002d0: 84ea adbc bcf7 f73a 2ddf c03b 2067 06bc
000002e0: 1b8d 613c 9255 db3b 5715 d03b bab4 88bc
000002f0: c0d5 f0bb 8fd3 f4bc 30f6 1cbd cf52 a7bc
00000300: 29a7 103c d9b3 a8bc 41c2 bebc 74cc 453b
00000310: 0de3 e8bc 7927 36bc a240 23bc 3d90 333c
00000320: c34c 8cbc 271e 513c 69d0 b4bb 732b a8bc
00000330: c9f5 653b 9399 d63b 9d09 d53a d2d7 0cbc
00000340: 7e17 9f3c 78ed 8abc 217a 9abc 0c58 923c
00000350: 72dc 013d 7b2d d83a 9965 a73c eb9e 13bd
00000360: c92b d63c 065d b0bb ba72 0e3d c0ba 633c
00000370: 0a0a eabc 2c8e 933c 914e d53c e58a bfbc
00000380: 3486 85ba 1f2d 013d 35b5 83bc 1130 82bc
00000390: a61b ebbc 9110 a5bc a1f5 44bc 8c72 6d3c
000003a0: 87f9 123d 46ed 8d3c f854 d6bb bcd2 38bc
000003b0: 2312 32bc 8594 2c3c 1103 6c3c 9c14 87bc
000003c0: 2638 1fbc 8a69 1c3c d8de 61b9 7d78 a9bb
000003d0: 02f6 a6bc 01ed db3b 4b62 b8bc 5123 853c
000003e0: 1840 383c 75c5 67bc d155 1cbd 4238 a4bc
000003f0: 0412 b33c 8347 c83b 899e cabb 0e6f 003c

action_model._discrete_distribution.branches.1.bias f4 [3]
-0.013010349 5.025265e-05 0.014249143
00000000: 5c29 55bc 5fc6 5238 3d75 693c
