Assets/ML-Agents/results/sc06/SimpleCollector.onnx (onnx, 337208 bytes, 7 tensors)

network_body._body_endoder.seq_layers.0.weight f4 [256, 65]
00000000: d019 b63e 0dec 353e 02cb c53d 3469 f3bd
00000010: 8a25 3d3e 68b9 a93d 23ef e2bd 9ddf d03d
00000020: fc8b d43d 1a17 7f3d 9e29 12bb abf2 09bd
00000030: b647 653e 37a4 073e c429 d03b eba9 eb3d
00000040: ea54 23be 3e71 323e 4db5 233d 61f1 f3bc
00000050: 772c 863d c09c d83d 9e1c 833e 8dc2 a53c
00000060: 883a 1ebc 9bbf 813c 6802 35bd c17e 153e
00000070: da90 343d a446 d2bd 1fe2 e33c e62c 823e
00000080: 409c 843d 9f9e fc3d f806 cb3d 4371 0e3e
00000090: 8996 263c f19a 38be e58c 0b3e 8c8d 193d
000000a0: 3a0c 00bd 3b20 723c 4b2a da3d 644e 9f3c
000000b0: cd46 123d aaa9 c73c fb13 c93d 648c 1ebe
000000c0: 9ece d7bc 61a6 843d 54aa 8e3d 0996 843d
000000d0: 530f 3f3e bb4a 653e 4de2 53bd aba2 1e3e
000000e0: ed1b 38be d84c 463c 32d4 19be 3781 3dbd
000000f0: 4789 503e b324 8a3c 7252 0fbd b42a a8bd
00000100: 2429 91bd 0d9f b43c 7021 aebd e1ac d73d
00000110: 7368 2abc 21f2 e33d ad5d 9c3d bc62 943e
00000120: d188 c33d b4e8 153d dd97 063d d9c6 cc3c
00000130: 06ab b53d 0fd5 75be 1f9f 913d 4590 3abd
00000140: 487f 173e d3d7 1abe f4c6 b0be d3c3 8abe
00000150: b319 b33c 1680 863e ccd6 b2bd 926a 14bd
00000160: 4a37 ba3d 9b3f 123d 1a98 9cba de71 17bd
00000170: 7009 203e 5c73 30be e527 b4bd 96e8 603d
00000180: 5e91 8ebe d440 c8bb 474d 9bbd dd68 4e3e
00000190: 81af 89bd 5e1e dbbd 164e 533d a81a 7f3d
000001a0: 2e0b f4bc 662b 01bc b3e4 f5bd 7c2b a73e
000001b0: c9b2 553d e0bf 95bd 82e3 4b3d 5437 1b3d
000001c0: 6d4e 3e3e c9a9 6d3d 4e9b c9bd cadd 783d
000001d0: 2347 c03d 9ba7 763c ca22 3c3e 8340 ce3d
000001e0: 0e5c 3cbe 4bd5 c43d 998c d4bd 32a4 6fbe
000001f0: 873e 85bd d8f2 833d 842d b6bd accc 993e
00000200: aa81 293d e20e b63d 29c6 d8bc e6b3 e2bc
00000210: 1552 f83c 48d8 a5bb 849b 98bd 0c8a b73d
00000220: b178 34be b9af ccbd c4b0 f13d c494 7ebd
00000230: 704f 87be 0ed6 883c 076b 833e 51a6 4fbe
00000240: f2c7 a13d d0aa 5abd ad6c 273c 99f1 37bd
00000250: bfe1 893e 2933 88bc f356 503d d023 f4bd
00000260: 0ecf 91bc 189d ffbc 0600 6e3d 0811 163e
00000270: 655c adbd 1d06 a8bd 7b1c b93d 6dfc d33b
00000280: 9f8d 83bd e2ec 013e 528f 11be 04ac 933e
00000290: 9d05 21be 462f 9abd effb bfbd 2ae4 883d
000002a0: b400 96bd f072 0ebe 20aa 38be 5a6c 6abd
000002b0: dd7f bd3c 7467 f73d 9196 cdbc fc58 11be
000002c0: 20d5 563d e924 03be 1aec 2c3e 7f3b a8bd
000002d0: c8e0 313d 4986 873e d924 773e 0d0f 2bbd
000002e0: a287 083d 886f 90bd b978 8cbe 42d9 973d
000002f0: 44ff b3bc 65bb c1bb d9e8 1fbe b99d fd3d
00000300: b3a5 01bd 36f2 f73d 7752 a13d 5756 1dba
00000310: 7f52 0fbe 513a 62bd 976b a6b9 aaa9 933d
00000320: 8f7a 5dbe 4572 483d 9e8b d9bd 193f 28be
00000330: a9af 3fbe 7988 653d ba5c 243e 8bcf 86ba
00000340: 3260 e6ba 6447 b2bd aa9a b7bd a76d 673e
00000350: 0d9e b2bc f9f3 2d3d 450b d1bd a121 8e3c
00000360: fdd6 b7bd 8261 7f3c 740e bcbd 6b5b 64bd
00000370: 3ca2 a13e 3bae e93d 61af 2abe 0065 663d
00000380: 1bb8 ef3d 0bb9 b4bb f5c5 123e b579 a03d
00000390: f5f2 823d 3fbd 543c 68da 403e f883 273d
000003a0: 1023 52be 3f7b 7e3c fe63 59bc f898 463c
000003b0: facf dc3d cb5b 033c 43e1 a53e 41b8 30bd
000003c0: a244 883e 65a2 27bd 3575 b43c 6913 7f3c
000003d0: 5c68 38bc 8d9a 643e 51f1 003e 3671 93bd
000003e0: eaf9 f13d d1bc cbbd 29bd 1cbe 2c97 f8bb
000003f0: bee7 913c 7691 453d a0ef 88bd 9f8e 27be
0.35566568 0.17765827 0.09657861 -0.118853 0.18471351 0.082873166 -0.11080768 0.10198901
0.103782624 0.06227789 -0.0022302638 -0.03367869 0.22390637 0.13246237 0.006352635 0.11507019
-0.15950361 0.17426011 0.039967824 -0.029778184 0.0655145 0.10576773 0.2560777 0.02023437
-0.00965751 0.015838435 -0.044191748 0.14599134 0.044083454 -0.1026738 0.027817784 0.2542488
0.06475115 0.12334942 0.099134386 0.13910393 0.010167726 -0.18027855 0.13627966 0.037488505
-0.03126166 0.014778192 0.10652598 0.01944656 0.035712052 0.024372894 0.09818264 -0.15483242
-0.02634364 0.06477047 0.06966081 0.064739294 0.1865819 0.22391789 -0.05172949 0.1549174
-0.17979403 0.012103282 -0.15022352 -0.046265807 0.20364867 0.016863203 -0.034990735 -0.0821127
-0.07087925 0.022048498 -0.085024714 0.10531021 -0.010400879 0.11130167 0.07635055 0.28981578
0.0954758 0.036598876 0.03285967 0.024997162 0.08870511 -0.24007057 0.07110428 -0.045547742
0.14794648 -0.15121393 -0.3452679 -0.27102527 0.02186284 0.26269597 -0.087323755 -0.036234446
0.09092577 0.03570519 -0.0011947185 -0.036973827 0.156286 -0.17231506 -0.08796672 0.05490931
-0.2784528 -0.0061112437 -0.07583099 0.2015719 -0.06722928 -0.106991515 0.05158814 0.06228128
-0.029790487 -0.007883882 -0.120065115 0.32650363 0.052172456 -0.07311988 0.049777515 0.037894562
0.18584605 0.058023248 -0.09844075 0.06075839 0.09388568 0.015054609 0.18372646 0.100708984
-0.18394491 0.09610995 -0.103783794 -0.2340248 -0.06506067 0.06442803 -0.088954 0.30038965
0.041383423 0.088895574 -0.026461678 -0.027673673 0.030312577 -0.005061183 -0.07451537 0.08961877
-0.17624165 -0.09994454 0.118012935 -0.062153593 -0.26427794 0.016703632 0.25667593 -0.20278288
0.07899465 -0.053385556 0.010218781 -0.04490814 0.26930043 -0.016625958 0.05086417 -0.11920893
-0.017798927 -0.031202838 0.05810549 0.14654934 -0.084648885 -0.08204291 0.09038635 0.0064693005
-0.064234965 0.1268802 -0.14214829 0.28842175 -0.15724798 -0.07528548 -0.093742244 0.06684144
-0.07324353 -0.13911033 -0.18033648 -0.05723224 0.023132259 0.12080279 -0.02509621 -0.14194101
0.052449346 -0.12807049 0.1688694 -0.08214473 0.04342726 0.2646964 0.2413515 -0.0417624
0.033332475 -0.07052523 -0.27435854 0.074144855 -0.021972306 -0.0059122317 -0.15616168 0.12383599
-0.031652164 0.12106745 0.07877057 -0.00060019403 -0.13996314 -0.055231396 -0.00031742148 0.07210095
-0.21628784 0.0489371 -0.10622333 -0.1643032 -0.18719353 0.056038354 0.16050997 -0.0010285241
-0.0017576276 -0.08705023 -0.08965047 0.22600423 -0.02180388 0.042469 -0.102072276 0.01735002
-0.08976553 0.0155872125 -0.09182444 -0.055751245 0.31569088 0.11410185 -0.16668464 0.056248665
0.11705037 -0.005515223 0.14333327 0.07835714 0.063939966 0.012984573 0.18833315 0.04089734
-0.20521188 0.015532314 -0.013268469 0.0121214315 0.10781856 0.008017491 0.32398424 -0.04314447
0.26614863 -0.040926356 0.022028545 0.015568593 -0.01125535 0.22324581 0.12592055 -0.07199328
0.118152454 -0.09948123 -0.15306534 -0.0075863805 0.017810699 0.048234425 -0.0668633 -0.16363

network_body._body_endoder.seq_layers.0.bias f4 [256]
00000000: d284 37bc f8af a6bc 526e 0d3c 3aae b2bc
00000010: 70ba f73b 478a 343c 8ad3 f33c 5200 c63c
00000020: 04f4 6fbc 9be2 9ebc 0e90 08bd d518 6abc
00000030: cb58 7cbd 162f 5dbc 6cc0 11ba 486a 1ebb
00000040: 1cce a13c 8942 9cbc 6025 c6ba 388f 813c
00000050: 559a 56bc e820 1bbc cb1b 50bc ee0f 18bc
00000060: 9c9e 2cbb 70a1 b0ba 72d7 8ebc 5c31 d2bc
00000070: 3146 26bc 68b8 c13c a43f 37bc 2480 003b
00000080: 81b9 f13b fca9 50bc 5ce4 0f3b 30a4 893c
00000090: 1b5b 413a dfb0 edbb 6b5e af3c a9f1 10bc
000000a0: d333 4f3c 7af5 813c 3441 8abc 9fad 4a3c
000000b0: 8167 a6bc a6de 24b8 3d70 3b3c ff43 4e3b
000000c0: 516b 0b3b e60b 0bbb 43db c1bc f034 88bb
000000d0: cf14 8a3c 4655 a7bb 09db 733c 961c c33b
000000e0: 6455 43ba b67f 01bb 3764 16bb 223f b3bc
000000f0: f4eb 003c c3be f43b c5cb eabc debe 05bb
00000100: dea2 b0bb 1dc4 babb dd3b a93a 43de 813c
00000110: 8095 16bd d788 573b c529 a93c 1d0c b1bc
00000120: 8dc8 82bc b188 dcbc 2e9f 9d3b a930 87bb
00000130: 909a 9fbb 5df0 733c d707 963b 9597 cebb
00000140: 471e 12bd d3b3 8f3b eadd 34bc eaad d3bb
00000150: 1733 23bc fbaf ba3a 48b2 d73c d67d 213b
00000160: 091a 81bc 5aaa 803a 684d 36bb 61f5 2dbc
00000170: 57fb 85bc 99f8 39bc 1d7f b2bb 3dfa b1bc
00000180: 68b1 37bc 1258 91bb 62c7 3e3c 935a 8dbc
00000190: b5cb 983c 1ee8 7b3c 78f3 f0ba ae26 9c3c
000001a0: 7fcd b53c fa53 c8bc 1c4c 823c 6b1d fd3c
000001b0: 8fbe 7e3c 6e5d 843c 37d3 933b 7f3e f13c
000001c0: 9ce1 123a c484 25bc 2a33 123b d438 56bc
000001d0: f42a 9fbb 4c6c c8bb 8d52 d6bc 8b0a 5abc
000001e0: 9145 783c a7f3 ba3a 2400 bd3c b532 a0bc
000001f0: 3b2b 80bc 853d 2039 e9b8 d8ba ff83 03bb
00000200: 4752 84bc 9221 0f3c e33d 4fbc 4fd1 ed3b
00000210: d470 033c bb74 f9bb 8caa 52bc d61b c1bc
00000220: c67b 18bc b4d2 3fbc 2a33 f83c 904f 7639
00000230: 3f4e 593b 7a02 a23c 0dc6 1ebc b2cb c8bb
00000240: 42fe 5b3b 7f0a 763c ed1e 6cbc 5d4c 8cbc
00000250: 59b5 a5bb 4b9b 29bc 2151 e3b9 2705 453c
00000260: aa70 0ebc 0baf bb3c c9c3 df3a 2cf1 4bbc
00000270: ffd8 8fbb 003a e83c 529b 9fbc 36e7 e0bb
00000280: 8a54 1b3a 6919 d43b b351 363c e64d 903c
00000290: 0e55 4fbc 2706 17bc 0b18 ba3c f560 f0bb
000002a0: 5f49 0a3c e6d1 7a3c 07c0 203c 66ef 57bc
000002b0: 4537 75bb bf5e 2b3c 2abe 023d 2cef 6639
000002c0: 6736 b4bc bb74 b03c 619f 07bd a8a0 cdba
000002d0: a87c 27bc 34ba 403b 6242 13bc aa41 89bb
000002e0: f901 2bbb 907a 043a 18c0 5fbc 409f fcbc
000002f0: 6e16 83b9 7399 6abc 5738 1dbc acb3 173d
00000300: ad9a cf3c 9a7c f63c 26bb 0abc 6ece 78bc
00000310: 1dfe b7bc 803b 11bd 69ad a9ba 6895 0cba
00000320: b2f6 dabb 5fec a9bc 752c fb3c b3a1 87bc
00000330: e3d7 013d 2ff1 bb3b 4554 babb 3460 afbc
00000340: cd5d a3bb f367 d3bc 5a95 08ba c7c8 363b
00000350: 5ede 68bc fb95 a7bb c7dc ca3c 9777 9638
00000360: 699e b4bc d600 79bb 2c85 723c e338 f7bc
00000370: ed93 acbc bd25 b63c 30be c33c 74c9 8cbc
00000380: a304 45bc 0431 fcbb 1c98 c33b c3dd 5d3c
00000390: cacf f0bb 8899 50bc cbcb 463c 205d 33bb
000003a0: 8c5a 75bc 867b 02ba 9840 88bc 934d 70bc
000003b0: fb3c 1f3c b15a c03c 2d92 b33b 312e a0bc
000003c0: 9a2b 4abc e42a 323b b7b6 7c3c 8594 47bc
000003d0: 8d0b d73a 1713 46bb b16f 943c 862a b4bc
000003e0: 58e5 09bd 1330 8ebc 138f 283d 7c27 a5bc
000003f0: 0a23 b0bc 7f13 a7bc a446 92bc 2aad 973c
-0.0112011 -0.02034758 0.008632259 -0.021811593 0.007560067 0.011019296 0.029763956 0.024170075
-0.01464558 -0.019395163 -0.033340506 -0.014288147 -0.061608117 -0.013499996 -0.0005559984 -0.0024172235
0.0197516 -0.019074695 -0.001511734 0.015815362 -0.013098319 -0.009468295 -0.012701939 -0.009281142
-0.0026339656 -0.0013475846 -0.017436717 -0.025658302 -0.010148571 0.023647502 -0.011184607 0.0019607628
0.00737685 -0.01273584 0.002195618 0.016801924 0.00073759415 -0.0072537507 0.021407327 -0.008846679
0.012646633 0.015864123 -0.016876794 0.012370496 -0.020313026 -3.9308004e-05 0.011440334 0.0031473634
0.0021273682 -0.0021216809 -0.023664122 -0.0041567013 0.016855625 -0.005106601 0.014883765 0.0059543354
-0.0007451384 -0.001975996 -0.0022947916 -0.02188069 0.007868756 0.0074690296 -0.028661618 -0.0020407955
-0.005390509 -0.005699648 0.0012911517 0.015853053 -0.036763668 0.003288796 0.0206498 -0.021612221
-0.01596477 -0.026920648 0.0048102355 -0.004125674 -0.00487072 0.01488885 0.0045785713 -0.006304691
-0.035673406 0.0043854504 -0.011039237 -0.006459941 -0.009960911 0.001424312 0.026330128 0.0024641654
-0.015759485 0.0009816394 -0.0027817134 -0.010617585 -0.0163552 -0.011350774 -0.005447282 -0.021725768
-0.011211731 -0.0044355476 0.011644216 -0.017255103 0.018651823 0.015375165 -0.0018383106 0.019061413
0.022192715 -0.024454106 0.015905432 0.030897817 0.015548362 0.016157832 0.0045112628 0.029448746
0.00056030764 -0.010102455 0.0022308328 -0.013075072 -0.0048574153 -0.0061164256 -0.02616241 -0.013308178
0.015153305 0.0014263288 0.023071356 -0.019555429 -0.015645614 0.00015281707 -0.00165346 -0.002006769
-0.016152514 0.008736031 -0.012649032 0.0072576175 0.008022506 -0.0076127923 -0.012858044 -0.023572844
-0.009306854 -0.01170795 0.030297834 0.00023490028 0.003315821 0.019776572 -0.009690774 -0.006127798
0.0033568298 0.015017151 -0.01441167 -0.017126257 -0.0050570187 -0.010351966 -0.0004335726 0.012025154
-0.008693853 0.022910615 0.0017071898 -0.012447637 -0.0043898816 0.028347969 -0.019483242 -0.0068635
0.0005925378 0.0064727557 0.011127877 0.01761527 -0.012654556 -0.009217775 0.022716543 -0.007335777
0.008440345 0.015308833 0.009811408 -0.013179636 -0.0037416976 0.010459601 0.031919636 0.00022023608
-0.021998597 0.021540036 -0.03311098 -0.0015688138 -0.010222591 0.002940786 -0.008987995 -0.004188736
-0.0026093705 0.00050536636 -0.013656639 -0.030837655 -0.00025002979 -0.014318812 -0.009595952 0.037036583
0.02534231 0.030088712 -0.008467471 -0.015185935 -0.022460038 -0.035457134 -0.0012945357 -0.00053628394
-0.0066822404 -0.020742593 0.030660847 -0.016556596 0.031700026 0.0057355384 -0.0056863152 -0.021408178
-0.004985547 -0.025806403 -0.00052102434 0.0027890669 -0.014213173 -0.0051143146 0.024763478 7.174833e-05
-0.022048192 -0.0037994883 0.014802258 -0.030178493 -0.02106663 0.022234792 0.0238944 -0.017185904
-0.012025031 -0.007696273 0.0059690606 0.013541642 -0.007348989 -0.012731917 0.012133549 -0.002736874
-0.014975201 -0.0004977513 -0.016632363 -0.014666933 0.009719129 0.023480745 0.005480072 -0.019553276
-0.012339497 0.002718621 0.015424422 -0.012181406 0.0016406641 -0.003022378 0.018119665 -0.021992933
-0.033665985 -0.017356908 0.04115207 -0.02016043 -0.021501083 -0.020395039 -0.01785595 0.018515188

network_body._body_endoder.seq_layers.2.weight f4 [256, 256]
00000000: 988a c33b ef7f a93d c4ec 83bc 1752 2ebc
00000010: 03ab 373d 28de 22be e476 c1bc 8169 eb3c
00000020: bd9e 033d bea6 1f3c d358 04be 2f7a 1fbd
00000030: 5aff c6bd 07d6 623a 5366 603c 88c6 c1bd
00000040: 4c8d 4f3d 06bf 6bbc 30ba 0d3d 5329 cdbd
00000050: 2bf7 463b b455 003d ca6e 993d b411 1a3d
00000060: 1377 eb3d c850 103d 8095 20bd bdf5 39bd
00000070: 2428 d0bd 19c1 0ebe 7f93 25bd 8d8d 213b
00000080: 275b df3d 4b33 2abc 713b 203d 9486 98bd
00000090: 9fa0 b3bc 5cbf aa3d 5c36 283e 15a3 60bd
000000a0: ef08 3f3c a579 afbc 8e0e 9e3d cb8e 9c3c
000000b0: e4a2 bc3c c9e5 96bd 5028 16bd d2c4 693d
000000c0: 0156 cbbd 1be7 c8bd 23b2 c1bd ca16 1fbb
000000d0: 8181 b33d 8c8d 70bd 8df5 61bd 7858 be3d
000000e0: 7866 80bc 2711 2cbc d1e1 c13d 3aad 9e3d
000000f0: f2b0 c33c 7123 e33c c8b2 143d e682 db3d
00000100: 3308 293d c1d4 7bbd 82a8 2dbd 9085 a1bc
00000110: 3e43 333c 45be 2abd 630e 9fbd 2053 be3b
00000120: 02a9 89bc d58e 803d d4df 57bd 720e d2bc
00000130: ebab b1bd c178 13bd e166 ce3c 1fe5 053d
00000140: 27c5 47bd 80af 8e3d 7d27 913a acf3 99bd
00000150: 5612 e6bd ed42 e4bd aae3 123e 75d2 cf3d
00000160: fcfb c03d 6e61 323d ab49 31bd 6d09 433d
00000170: 997b c7bd 526a 483c bb36 6fbd 0c0a a3bd
00000180: 6302 3cbc ece4 683c f189 af3c 6614 81bc
00000190: 272d 493d 2fbe 773d 36ae 36bd ff59 f7bd
000001a0: f2f7 933d 0966 07bd 9dc6 c83c 95ec 92bd
000001b0: 0ecb b03d b834 063c 359b 1b3d 9422 f2bc
000001c0: 31f9 d7bd f851 dc3d 79eb f93d 0024 88bd
000001d0: e3ca 23be f0d6 91bd a80a 89bd 6857 54bd
000001e0: 5740 673d 46a2 b63d 4235 603d ed5e 61bc
000001f0: c738 bf3d 4a64 1c3e efb5 b73a 5e38 9fbd
00000200: bf9b cabc a7ea 763d 561b 81bd 9b6d 033a
00000210: 403e ac3c d6f1 a5bc e41b 183a 8b70 e13c
00000220: a0e1 e83c d8e1 8ebd e8c2 97bc 88ed ce3d
00000230: a6dd 57bd a42b 043e 0b01 d83d 5e1d 7dbd
00000240: 3c7a cabd 7584 013d c6ee 0ebe e362 b53d
00000250: 2a4e 8d3d 95e6 083d c8c5 0b3e 12d1 843d
00000260: a4c0 473d a551 84bd 65a9 4abd 9b5d 8dbd
00000270: ce38 133d e81e e2bd d89e 0dbd 6903 95bd
00000280: 9956 533d c97b d13b b0bd 1aba 624a fabb
00000290: b8d8 a33c 9e58 94bd ce1c d93c 45b9 7bbd
000002a0: 45ab 9a3d 7f74 533d a21d e23c c466 a23c
000002b0: 78dc 103b 0c85 da3d d5cd 6bbd d362 64bd
000002c0: f298 e5bd 8b67 813c 7a41 803d fec6 48bd
000002d0: 1efe aabd c7b8 833b 3e1b 6e3d 8a9a 0dbe
000002e0: 63c9 b0bd 9e7b 1cbd c894 c43d 32a7 b2bd
000002f0: e2ab 6d3c a3c3 823d 9f3c b23d 2511 c83c
00000300: dbfb 40bd 9347 613d 14c4 7cbd a285 b439
00000310: 1e76 8fbc 47bc 67bd ef42 81bd 555a 3bbd
00000320: 429c 453d 6308 38bd 8e7d 323c 4434 83bd
00000330: f200 163a 20a1 e0bd b971 a13d 1072 dd3d
00000340: 2cae 53bd 6c38 51bc 012b 393e addc 473d
00000350: 837f 39bd 8853 3ebd 7a23 283c e59b 25be
00000360: 0bab 5e3d b68c b33b c57e b43b 5033 9a3c
00000370: 9b0b afbd cf70 70bd 9afb d9bd 0ee2 20bd
00000380: 7879 4c3d d3b0 333c 9d19 cd3c 30e5 243d
00000390: 85b8 c33d 4d5f 11bd b5dd e93d 2537 34bd
000003a0: 32df 993d 15a0 86bc 5157 223d fe47 60bd
000003b0: e961 26bd ef96 b53d 08e9 94bd 68ba fe3c
000003c0: a114 ea3d 1c00 a43d 9ea1 b3bd 554b 283d
000003d0: d82c db3d 4bb6 f93a 4c76 eebd fa9c 2ebd
000003e0: 81d3 963d 230c 873d d602 a8bd 8f2a 293c
000003f0: 728d 04be f764 dfbd 564b 053d 799c 2fbc
0.0059674494 0.082763545 -0.01610411 -0.010639689 0.044840824 -0.15905058 -0.023616262 0.028736832
0.032133806 0.009744344 -0.12924509 -0.038934883 -0.09716673 0.00086531084 0.013696271 -0.09461695
0.05067186 -0.014388805 0.03460139 -0.100176476 0.0030359726 0.031331733 0.074918345 0.03761454
0.11497321 0.03523329 -0.039205074 -0.04540037 -0.10163906 -0.13940848 -0.040423866 0.0024651021
0.10906058 -0.010388206 0.039119188 -0.07447544 -0.021927176 0.0833728 0.16426986 -0.054843027
0.011659845 -0.02142031 0.0771762 0.019111058 0.023026891 -0.07368047 -0.03665954 0.057072468
-0.09928513 -0.09809705 -0.09457805 -0.0024275058 0.08764935 -0.05872874 -0.055165816 0.09294218
-0.01567386 -0.010502136 0.09466899 0.07747884 0.023888085 0.02772686 0.03630331 0.10718326
0.041267585 -0.061482195 -0.04239703 -0.019717008 0.010941325 -0.04168536 -0.07766416 0.005808249
-0.016804222 0.06277243 -0.052703694 -0.025641654 -0.08675369 -0.03600383 0.02519554 0.03268921
-0.048772004 0.06967068 0.001107439 -0.0751718 -0.11233966 -0.111455776 0.1434466 0.10147563
0.09423062 0.043549947 -0.043283146 0.04761641 -0.09740371 0.01223238 -0.058401804 -0.07960901
-0.011475178 0.0142147355 0.02142808 -0.015756797 0.049115326 0.060484108 -0.044599734 -0.12077712
0.07225026 -0.033056293 0.024508769 -0.07174031 0.086324796 0.00819128 0.037989814 -0.029557504
-0.10545576 0.10757822 0.12203116 -0.066474915 -0.15995364 -0.07121074 -0.06691486 -0.05184117
0.056457844 0.0891767 0.05473829 -0.013755542 0.09337001 0.15272632 0.0014016012 -0.07774423
-0.024732469 0.060282376 -0.06304042 0.0005013586 0.021025777 -0.020256918 0.0005802496 0.027519485
0.028427899 -0.0697667 -0.018525556 0.10103899 -0.052701615 0.12907273 0.10547074 -0.061795585
-0.098865956 0.03162046 -0.13958272 0.08856752 0.06899674 0.033423025 0.13649666 0.064851895
0.0487677 -0.06460885 -0.049477953 -0.069026195 0.035942845 -0.11041051 -0.034575313 -0.07276041
0.051596258 0.00639293 -0.00059028994 -0.0076382617 0.0200008 -0.07243465 0.026502993 -0.061455984
0.07552198 0.05162477 0.02760202 0.019824393 0.0022104066 0.10669908 -0.057569344 -0.05575831
-0.11210813 0.015796443 0.06262489 -0.0490179 -0.0834925 0.00401983 0.05813145 -0.13828483
-0.086321615 -0.038203828 0.0959869 -0.08723296 0.014506312 0.06384971 0.08702969 0.024422238
-0.047115188 0.0549999 -0.061710432 0.0003443184 -0.017512377 -0.05657604 -0.06311595 -0.045740444
0.048244722 -0.044929873 0.010894192 -0.06406453 0.0005722187 -0.10968232 0.07883019 0.10812771
-0.051679775 -0.0127698 0.18082811 0.048794437 -0.04528762 -0.04646638 0.0102623645 -0.1617275
0.054362338 0.0054794205 0.005508276 0.018823296 -0.085471354 -0.058701333 -0.10643692 -0.039278083
0.04992053 0.010967451 0.025036627 0.040257633 0.09556679 -0.035491277 0.114192404 -0.043997902
0.07513274 -0.016433755 0.039634053 -0.054756157 -0.04062072 0.08866679 -0.0727101 0.031094745
0.11429716 0.08007833 -0.087710604 0.041087467 0.10701913 0.001905152 -0.11643657 -0.042630173
0.0736456 0.06594112 -0.08203666 0.010325088 -0.12944582 -0.109079294 0.03254255 -0.010718458

network_body._body_endoder.seq_layers.2.bias f4 [256]
00000000: b609 acb9 8824 bfb9 8906 8abc d837 123c
00000010: 48c0 81bc 1ae5 3a3b b3ac 92bc 17b3 a8ba
00000020: a993 453a cb0b 833c 5ccf 983a 62e3 d8bb
00000030: bcf3 273c b7d1 84bc c2cd cd3b ae77 c9bb
00000040: 79b1 02bc d9a4 013c 7aba 25bc 67c9 26bc
00000050: 0d47 9cbb f45d 703b 46f4 e639 6ce2 2abc
00000060: bf8b 99bc 3d61 71bc 3355 8dbc ef1c bf3b
00000070: 062e 21bb 7380 333c 6235 f13b cfa6 00bc
00000080: bdd9 e93a ae89 6fbb f9f1 93bc 57ab 82bc
00000090: ce23 ae3c 0b3f b23a a60a 023c ec5c 503b
000000a0: bf6e 9c3a 5e2f f63a 21b9 443c 8619 8dbc
000000b0: 89d4 6dbc e7fe 66bb 3128 763b e011 83bc
000000c0: bfea a1ba 8e56 f1bb d8cd 0bbc 8db2 c23b
000000d0: 6e64 08bb 7555 3f3c b9ce 76bb 1e8e 7f3c
000000e0: 8b96 5dbc 44c4 d2bc eb67 313b 267c 9dbc
000000f0: 1622 903b b1f2 67bc 0808 57bc b924 21bc
00000100: a480 2ebc f3cf 2bbb 6dfa 263b c80a 24bc
00000110: 1e35 d03a 3732 38bc 9179 6c3c d7b1 c0bc
00000120: ace3 dd3b f256 833b 7c00 2fbc 5212 1e3a
00000130: 623f fc3b dc72 4abc 9728 d8bc 1f3d 45ba
00000140: da60 4aba 7a0d adbc 6135 26bc 1a72 fc3b
00000150: eebe 8e3b 681c e5bb 99f8 3bbc 5291 1f3c
00000160: 198d 32ba 4acf 61bb bce9 dabb de1e 913b
00000170: 350d bfbb 2cfc a33c c699 8a3c 8d04 99bc
00000180: ecf9 693c 3ce2 05bc c401 d03a b475 91b9
00000190: 972b 1e3a b502 b1bb 4552 3abc f655 05ba
000001a0: bd20 1cbc 79be a13c dfe8 bf3c 4271 5dbc
000001b0: 7ae7 a93a 5862 963c 1507 69bc 334c 80bc
000001c0: eff8 e23b 1c18 27bc 3e9c 93bc d75c 8ebb
000001d0: 75b1 693c 3231 ab3b 42d6 79bb 5264 b63b
000001e0: 2378 71bc 94c5 903b 47af a3bc d84b ffbb
000001f0: 29fb 283c 1059 7d3c 838a a63b 59d4 6c3b
00000200: f79e 133c 7c08 5abc 0ab4 1abc c0b6 1b3c
00000210: 58b9 173c 3ace 423c 0036 2ebc 9e1a 8ebc
00000220: 12b3 8d3c 453b 8c3b 5980 98ba e3db 13bc
00000230: 11e1 413b 09df 693c 5767 7bbb da42 89bc
00000240: 4d39 85bc bf15 10bb 16ad 273c 1646 66bc
00000250: e95f ecbb 1938 d93a 3adf 103a 9f70 303c
00000260: fcd7 47bc fb02 5c3c 8064 1dbc 4ff6 28bc
00000270: 581d b93a 3374 98bb c7a6 41bb 1346 ca3b
00000280: 969a 893c b803 003b 49ec 67b9 45d9 a43c
00000290: 0ed3 fcbb 8fdf 8fbc 8605 bcba 9767 933b
000002a0: cfbe c73b c07f ad3a 8fe6 0a3c 2877 2e3c
000002b0: ea01 9ebc 1f01 23bc c892 edbb 564f 993c
000002c0: 4a5f afbb a612 2abc 17be 713a 2146 11bc
000002d0: 6562 5dbc f536 923a dad0 6fbc 5efb 223c
000002e0: e51a d3bb 4c8c fd3b 79f1 293a 4b7d 24bb
000002f0: 0101 61bb b554 a6bb 7712 82bc 6abd 623b
00000300: d2d8 d6ba a929 3c3c 6d9c b73b 97b5 bc3b
00000310: f73a a23b 93dd 7ebb 97bd 913a f951 55bc
00000320: 113a bbbb 9149 313b acc1 8cbc 4b0a 933b
00000330: 4697 d1bc 0ad2 f83b 97bc 1d3b 99f2 71bc
00000340: 18f1 26bb 187a 3c3c 11b0 b33c d825 0abc
00000350: dc16 ecbb ce97 833c c882 15bc a365 3b3c
00000360: 52fc f5ba b91a 2fbb 9548 91bb a2a6 9dbb
00000370: 1d8a 823b 5bde 9e3c 213a 5c3c f939 0e3c
00000380: dbb6 86bc 82fb 73bc 49b1 4abc 272d 173c
00000390: 1576 82bc 0db9 62bc 513a 62ba 1c23 aabb
000003a0: c05f 91bc b634 043c 70be b5bb 7285 16bb
000003b0: fb27 08bc 1a2d 90bc f231 153c 15b1 3cbc
000003c0: 6c75 13bc 1052 0fbc 9da7 423c af75 08bc
000003d0: 45be 4abc bb8c 663b 2683 96bc 9c02 aebb
000003e0: d03a 9ebc 3825 80bc 3367 84bc 0998 c3bb
000003f0: f26a 093c 2b52 79bb b969 6bbb 2a26 913c
-0.00032813632 -0.00036457577 -0.01684882 0.008924447 -0.015838757 0.0028517903 -0.017904615 -0.0012870756
0.00075369567 0.015996834 0.0011658478 -0.006618903 0.010250982 -0.016213281 0.0062806318 -0.0061483
-0.007976883 0.007912838 -0.01011526 -0.010179854 -0.004769212 0.0036677094 0.00044051016 -0.01042996
-0.018743394 -0.014732656 -0.01725254 0.0058323066 -0.0024594082 0.010955918 0.0073611 -0.00785227
0.001784138 -0.003655057 -0.018059717 -0.015950842 0.021257307 0.001359911 0.007937109 0.0031793667
0.001193486 0.0018782427 0.012007029 -0.017224085 -0.014516004 -0.0035247148 0.0037560577 -0.015999734
-0.0012353285 -0.0073650545 -0.008532964 0.005941695 -0.0020811814 0.011678089 -0.0037659837 0.015597848
-0.013524662 -0.025728352 0.0027069997 -0.019224238 0.0043985946 -0.014156983 -0.013124473 -0.0098354155
-0.0106507875 -0.0026216477 0.0025478855 -0.010012336 0.0015884971 -0.011242441 0.014433281 -0.0235223
0.0067715254 0.0040081674 -0.010681268 0.00060299516 0.0076979855 -0.012356486 -0.026386542 -0.00075240614
-0.00077201205 -0.02112459 -0.010144562 0.0077040317 0.0043562567 -0.0069919117 -0.0114728445 0.009739237
-0.00068111863 -0.003445583 -0.0066806953 0.0044287285 -0.005830432 0.020017706 0.016919028 -0.018678928
0.014280777 -0.008171614 0.0015869667 -0.0002774425 0.0006033717 -0.005401934 -0.011372154 -0.00050863565
-0.00952929 0.019744145 0.023426471 -0.013515772 0.0012962662 0.01835744 -0.01422288 -0.015661335
0.006926648 -0.010198619 -0.018018838 -0.0043445635 0.0142635 0.0052243704 -0.0038122092 0.0055661583
-0.0147381155 0.0044180844 -0.01998104 -0.0077910237 0.0103137875 0.015463129 0.00508243 0.0036137311
0.009010068 -0.013307687 -0.009442339 0.00950402 0.009260498 0.011889989 -0.010632992 -0.017346676
0.017297301 0.0042795264 -0.001163493 -0.009024593 0.0029583613 0.014274367 -0.0038361156 -0.01675551
-0.016262675 -0.0021985618 0.010234138 -0.014054796 -0.007213582 0.0016572505 0.00055264274 0.010769038
-0.012197491 0.013428445 -0.009606481 -0.010312631 0.0014123125 -0.004652524 -0.002954887 0.0061729043
0.016797345 0.0019533467 -0.000221179 0.020123133 -0.0077155894 -0.017562656 -0.0014344908 0.004498433
0.006095744 0.0013236925 0.008477821 0.010648526 -0.019288022 -0.009948998 -0.0072501637 0.018714588
-0.0053519355 -0.010380423 0.0009221746 -0.008866818 -0.013512229 0.0011155294 -0.014637196 0.009947626
-0.006442415 0.007737672 0.00064828206 -0.0025099094 -0.0034332874 -0.005076016 -0.015877945 0.0034597763
-0.0016391522 0.011484542 0.005603364 0.005758952 0.004950877 -0.0038889393 0.0011119124 -0.013020032
-0.005713709 0.0027051906 -0.017182194 0.004487311 -0.025584828 0.007593398 0.0024068707 -0.014767312
-0.0025473293 0.011503719 0.021934541 -0.008431874 -0.0072048735 0.016063597 -0.009125419 0.011437806
-0.0018767214 -0.0026718809 -0.0044337013 -0.004811124 0.0039837495 0.019393137 0.013441593 0.008680814
-0.016444614 -0.014891507 -0.01237137 0.009227074 -0.015925447 -0.013838065 -0.00086299056 -0.0051921736
-0.017745852 0.008069208 -0.0055463836 -0.0022967723 -0.008310313 -0.017599631 0.009106146 -0.011516829
-0.0090001635 -0.008747593 0.011880782 -0.008328839 -0.012374465 0.0035179097 -0.018373083 -0.0053103697
-0.019315153 -0.015642747 -0.01616249 -0.0059690517 0.008387314 -0.003804336 -0.003592117 0.017718393

action_model._continuous_distribution.log_sigma f4 [1, 2]
00000000: 755c 0d3b 16c0 d9bc
0.0021570001 -0.026580852

action_model._continuous_distribution.mu.weight f4 [2, 256]
00000000: 38ba f0bc f828 a2bb 224e 40bc 4f21 993b
00000010: 7322 a1bc b22a 543c 9d13 9abb 6289 433c
00000020: 64ae 783b 62ab ae3c c89e 153b ddb5 93bc
00000030: de2b f03c 3e14 14bd 38b0 093b 8dd7 94bc
00000040: 6a55 a5bc 3362 153b cad7 313b cd58 d2bc
00000050: 145b ee3a efb3 92bc 3131 ffbb 8886 8fbc
00000060: 7ca4 22bd ee56 eabc 33e0 0cbd 7314 5f3c
00000070: ab73 50ba aa4c 8e3c 4be2 1a3d 066f 36bc
00000080: 7d3f 73bc de59 a4bb fc37 e9ba 124d 6cbc
00000090: 1f7b bf3c 1a03 763c 5749 cf3b 1387 7b3a
000000a0: 59d2 f53a aa6f 913c 7bd3 c93c f9fe 8f3b
000000b0: 7118 4dbc 263b acbb ac57 ac3c 2406 13bd
000000c0: 4906 ecbc 60c8 2e3b bae5 a139 e0fb 8c3c
000000d0: e26c 313c b764 b33c 1007 f8bc 49b3 973c
000000e0: e28c babc 4061 5fbc e13d 063c fb19 e4bc
000000f0: 349b 243c 3866 e3ba 6325 ffbc ee5c eabb
00000100: ba30 a13b edc8 9eba c7ac 893c fd3f 00bd
00000110: f7df b93a c866 ec3a ba81 15bc 1ead dabb
00000120: f622 863c d4ba ac3a 7138 52bc 0544 973c
00000130: 2bb7 b63c 6f70 a0bc 17e0 76bc 3b65 143b
00000140: a163 d639 b168 85bc 0fa4 bcba e887 c53c
00000150: 1b9b a13c 53d7 0cbd 36c0 31bc 9dd7 7f3c
00000160: eca2 953c 5fee 5fbb 05bf 683c 4a0a 953b
00000170: ca32 27bb 37e8 263c 1d42 163b 4f17 0bbc
00000180: 024d 1a3c e417 a5bc cdc3 f23b 9819 96bb
00000190: f7cc e0bb 551f e6bc a269 49bc 7dc9 a93c
000001a0: 218e 8bbb ab34 eb3c fa19 313c 6768 ebbb
000001b0: 947e 3d3c 1210 eb3c 29d5 cfbb f40b 46bc
000001c0: cdd8 dd3c 4b94 70bc 5891 59bc bb6d 9fbb
000001d0: 4ee0 ed3c dd0a 303c 2652 edbc b344 92bc
000001e0: 016c 4dbc ac8d 1f3b 5ec7 90bc 05aa e7bb
000001f0: 4829 113c 688f 993b f05c ddbc 9ac7 4c3c
00000200: effd ba3c 0690 21bd 848c ed3b 5444 6f3c
00000210: f9ae 423b fba0 1b3c f686 1c3c 2020 87bc
00000220: b896 b23c 8c1a c93c 00ca 343c 28a7 1cbb
00000230: a228 7e3c 8704 a43c 3229 33bc 5bfe ebbc
00000240: 8566 56bc 74f4 933a 52a2 083d d4fa 83bc
00000250: f903 90b9 0489 83bb fff0 873b 27cf 373d
00000260: c125 0ebc 7709 f53c aa87 9a3b bdc9 02bd
00000270: 73c9 a73c 35d4 3ebb f49a 303c 2c5d 613c
00000280: 7f65 8ebc 5b3f 083c 8505 0c3c a529 d73c
00000290: cc2c 8ebc e79b 54bc 4bf8 85bc 6555 1fbb
000002a0: 1d07 18bd e31d cebc 1dde b63b 7265 ef3c
000002b0: 7461 cab9 fcaf d3bc 1df1 28bc 2381 993c
000002c0: 7367 0fbd 3615 cebc db6a f73b b2fc 8cbc
000002d0: 0a37 44bc 8058 6dba cd88 9dbc 048e a33c
000002e0: 8bd0 8e3b 6811 6cba b521 e6bb 65a8 8ebc
000002f0: 5a8b 723c f991 8c3b 80af d2bc 6a90 2bbc
00000300: 9943 d6bb ebaf f0ba 5797 353c cd5f 833b
00000310: 1f54 f03b 920c 613c 4728 433c 86da f0bc
00000320: 5cb9 133b 1d0e 893c f3dc 39bc c7e2 8c3c
00000330: 0da0 22bc ab12 263c 05d8 8d3b 8007 11bd
00000340: e0ce 48bb eef5 a63c ddc9 1a3c 393e 0abc
00000350: cf3a c43a 7120 c43b f7e5 95bc c9ba aa3c
00000360: bc06 dd3b 9995 90bb 687c b4bb cc47 3abb
00000370: 7a2e 533c c967 133d d940 0a3b 4cbc b1bb
00000380: 8de6 d2bb 5721 86bc 6cd3 e4bb ef32 b63b
00000390: 3c71 1fbc 34d3 ed3b 3209 d23b 33ed 07bd
000003a0: 8a77 d4bc e154 673c 05a4 9abc f8e6 82bb
000003b0: 5452 59bd 8b32 e1bb 2cb7 e73c 0315 cdbc
000003c0: 88f7 ccbc 2d40 7cbb afee 793c 61de 41bc
000003d0: 0e6b abbb 3087 063c 8800 fbbb 049c 75ba
000003e0: acf0 c2bc 4bce 17bd f376 dabc bd65 04bd
000003f0: 84b7 47bb 0173 8cbb 5dc8 d1bc 549c f83c
-0.029385671 -0.0049487315 -0.011737378 0.00467316 -0.019669747 0.0129496325 -0.004702045 0.01193461
0.0037945742 0.021321956 0.0022830237 -0.018031055 0.029317793 -0.036152117 0.0021009576 -0.018169189
-0.02018233 0.0022794127 0.0027136677 -0.02567711 0.0018185102 -0.017908065 -0.0077878465 -0.017520204
-0.039707646 -0.028605904 -0.0343935 0.013615715 -0.0007951806 0.01737054 0.037813466 -0.0111348685
-0.01484668 -0.005015596 -0.0017793174 -0.014422672 0.023374138 0.015015388 0.0063258815 0.0009595018
0.0018754705 0.01775344 0.024636975 0.004394409 -0.012518034 -0.0052560745 0.021037899 -0.035894528
-0.02881159 0.0026669726 0.00030879473 0.017209947 0.010829182 0.02189861 -0.030276805 0.018518107
-0.022772256 -0.013634026 0.008193464 -0.02784442 0.010046769 -0.0017349189 -0.031145757 -0.0071521914
0.0049191387 -0.0012114324 0.01680602 -0.031311024 0.0014181127 0.0018036002 -0.0091251675 -0.006673469
0.016374093 0.0013178238 -0.0128308395 0.018465051 0.022304138 -0.019584863 -0.015068076 0.0022643346
0.0004089149 -0.016285272 -0.0014392155 0.024112657 0.01972728 -0.034385037 -0.010849049 0.015615371
0.018266164 -0.003416918 0.014205699 0.0045483457 -0.002551245 0.0101872 0.002292759 -0.008489444
0.009417774 -0.020152994 0.007408595 -0.0045806877 -0.006860371 -0.028091112 -0.012293251 0.02072596
-0.0042588864 0.028711637 0.010809416 -0.0071840766 0.011565823 0.028694186 -0.0063425493 -0.012087811
0.027080918 -0.014683793 -0.013279282 -0.004865376 0.02903762 0.0107447775 -0.028969835 -0.017855024
-0.012537957 0.0024345918 -0.01767319 -0.0070698285 0.00885994 0.004686285 -0.027021855 0.012498761
0.022826163 -0.039443992 0.007249417 0.014603693 0.0029706343 0.00949883 0.009553662 -0.01649481
0.021800384 0.024548791 0.011034489 -0.0023903344 0.015512617 0.02002169 -0.010935115 -0.02880781
-0.013085966 0.0011288063 0.033357926 -0.016110815 -0.0002746878 -0.0040141363 0.004148602 0.04487529
-0.008675993 0.02991174 0.0047158794 -0.031930674 0.0204818 -0.0029118184 0.010779131 0.013755124
-0.017382381 0.008315886 0.008546238 0.026264975 -0.017355345 -0.012976623 -0.016353747 -0.0024312374
-0.03711616 -0.025160735 0.005580677 0.029223178 -0.0003860105 -0.025840752 -0.010311392 0.018738335
-0.035010766 -0.025156599 0.00755058 -0.017210338 -0.011976013 -0.000905402 -0.01923027 0.01996518
0.0043583564 -0.0009005279 -0.007023061 -0.017414281 0.014803732 0.0042898622 -0.02571845 -0.010471443
-0.00653882 -0.0018362975 0.0110834455 0.004009223 0.0073342468 0.013735907 0.011911458 -0.029401075
0.0022540903 0.016730363 -0.011344182 0.01719798 -0.009925854 0.010136287 0.00432873 -0.035407543
-0.0030640885 0.02038094 0.009447542 -0.008437687 0.001497114 0.0059853126 -0.018298132 0.02084102
0.0067451876 -0.0044123647 -0.0055079944 -0.0028424142 0.012889499 0.03598765 0.002109578 -0.005424058
-0.006436175 -0.01637332 -0.0069832113 0.005560271 -0.009731587 0.0072578434 0.0064097876 -0.033185195
-0.025935907 0.014119358 -0.018877039 -0.003994819 -0.05305703 -0.0068724803 0.028285585 -0.025034433
-0.025020376 -0.00384904 0.0152546605 -0.011832804 -0.005231268 0.008210942 -0.0076599754 -0.00093692564
-0.023796402 -0.03706197 -0.026668048 -0.032323588 -0.0030474374 -0.0042861705 -0.025608236 0.03034798

action_model._continuous_distribution.mu.bias f4 [2]
00000000: 6b7b 7d3c b546 75bb
0.01547132 -0.0037426178
